Checkpoints/HR_V/valence_s03.pth (torch, 461905 bytes, 29 tensors)

input_layer.weight f4 [128, 29]
0.10302873 -0.036534425 -0.016602622 0.04948488 0.018097539 0.04985642 0.048033345 -0.17429297
-0.1631531 -0.03250834 -0.06462207 -0.0034026548 -0.16035134 0.103506945 0.04908008 0.012737825
0.15811042 -0.009468633 -0.10427792 0.06777794 -0.09774568 -0.041099336 0.061239056 -0.07464165
-0.10345544 -0.040877733 -0.1434801 -0.020527571 -0.07617491 -0.10031923 -0.030807165 -0.117670454
-0.016161738 0.039546333 -0.12962331 0.12748805 0.06605431 0.09052786 -0.027941002 0.14460346
0.13460408 -0.053247754 0.102601975 0.09149855 0.1241557 -0.10188087 -0.11605066 0.17961845
0.14073619 -0.10386794 0.0019311816 -0.16764633 -0.07008361 0.111652896 -0.17623317 -0.08041624
-0.16656254 0.14995916 0.15599403 -0.17086262 -0.17852353 0.07737064 0.0106952 0.007874849
-0.01844303 0.14964126 0.11776125 -0.15008813 0.057390805 -0.12511443 0.10089286 -0.17149968
0.01635729 0.022329086 0.08258983 0.0045081642 -0.019950286 -0.06100076 -0.042782966 -0.09413318
-0.06644054 -0.14334737 0.08199837 -0.18386266 0.17063668 -0.179035 0.15694958 -0.14775817
-0.033152178 -0.014344399 0.11275506 0.16436353 0.06762417 -0.07869406 0.03155785 0.079148516
0.12849519 0.044202402 0.011056401 0.026584107 -0.14345938 -0.018070744 -0.09697264 -0.113386616
-0.029699193 0.060652763 -0.11122509 -0.15559122 0.19327156 -0.08433337 -0.08596801 0.0886104
0.10554935 -0.04669806 -0.045047574 -0.057855975 0.030764507 -0.12109452 0.09829254 0.051539745
-0.002849753 -0.008189911 0.015906539 -0.122472055 0.05819391 -0.0046734405 0.12657475 0.20419207
-0.109028764 -0.07370763 0.008449958 0.10887187 -0.093109764 0.075740606 -0.039403744 0.017252637
0.11697543 -0.15526502 -0.16708829 0.15522772 -0.09373293 0.083598845 -0.1820333 0.09384309
0.031829394 -0.132084 0.0817342 -0.15201962 0.05141909 -0.12074335 -0.06788017 0.054360557
-0.04983563 -0.09854003 -0.033612475 -0.07545609 0.14953417 -0.16178867 0.109222904 0.09995968
0.14705591 -0.020896615 -0.14037396 0.07511465 -0.0031275807 0.03863339 0.15758638 -0.039373722
0.027132263 -0.008568301 0.04118539 0.16520478 -0.058454692 0.12462994 0.022656681 -0.052371804
0.02540147 -0.15935272 -0.07582473 -0.0069567733 0.11250811 -0.07146327 0.1273787 -0.1330944
0.08141802 -0.16542897 -0.09319315 0.14103675 0.16938798 0.055967394 0.12837858 0.1534966
0.08206057 -0.057506677 0.11578851 0.032762732 0.056918424 0.08570472 -0.025290549 0.13729937
0.062095672 -0.13543065 0.09410102 0.1669628 0.0070930244 0.011595804 -0.08786366 -0.021071028
-0.022384362 -0.13272242 0.17335008 -0.038249608 0.011432055 0.0796224 0.1869761 0.004140881
0.017675474 -0.15898913 -0.024679879 0.073721096 0.09988918 -0.039298445 0.11610847 0.022569284
-0.19368197 0.1519898 -0.0071420697 0.14354864 0.13386813 -0.15723343 -0.18059729 0.028941484
-0.15305431 -0.11444796 0.06227756 0.10133692 -0.12029083 -0.0031231456 -0.06815578 0.100572444
0.024862373 -0.09292051 -0.07498341 0.102940865 -0.03957211 -0.029998122 0.07158497 -0.16972087
0.07585283 0.074692935 0.10772246 0.166694 0.08081361 -0.11646515 -0.07189985 -0.19468626
00000000: ba00 d33d 1fa5 15bd 3902 88bc a8b0 4a3d
00000010: 4a41 943c 3f36 4c3d 9dbe 443d db79 32be
00000020: 9b11 27be 7727 05bd 9358 84bd 13ff 5ebb
00000030: 2433 24be 73fb d33d 3208 493d 4fb2 503c
00000040: b3e7 213e 5322 1bbc aa8f d5bd 29cf 8a3d
00000050: e32e c8bd c757 28bd ced5 7a3d b9dd 98bd
00000060: 72e0 d3bd 696f 27bd 73ec 12be 7029 a8bc
00000070: 9701 9cbd 2b74 cdbd 4f5f fcbc 35fd f0bd
00000080: 9f65 84bc 56fb 213d f9bb 04be 3a8c 023e
00000090: 7b47 873d ac66 b93d 87e4 e4bc ee12 143e
000000a0: a7d5 093e 511a 5abd fc20 d23d 9763 bb3d
000000b0: 5845 fe3d eba6 d0bd f8ab edbd e6ed 373e
000000c0: 261d 103e b7b8 d4bd b41f fd3a 7bab 2bbe
000000d0: ff87 8fbd 46aa e43d 7876 34be 45b1 a4bd
000000e0: 5f8f 2abe e58e 193e e6bc 1f3e 9cf6 2ebe
000000f0: dfce 36be 8074 9e3d ec3a 2f3c 8305 013c
00000100: d615 97bc 8f3b 193e cf2c f13d b4b0 19be
00000110: 9f12 6b3d ff1d 00be eaa0 ce3d 9d9d 2fbe
00000120: b9ff 853c 7deb b63c db24 a93d 39b9 933b
00000130: c86e a3bc efdb 79bd 313d 2fbd e6c8 c0bd
00000140: fa11 88bd a7c9 12be c3ee a73d 7e46 3cbe
00000150: 62bb 2e3e f354 37be 64b7 203e eb4d 17be
00000160: 94ca 07bd c504 6bbc 20ec e63d ea4e 283e
00000170: 8a7e 8a3d 5a2a a1bd ce42 013d 9e18 a23d
00000180: 3e94 033e 940d 353d e825 353c eac6 d93c
00000190: 04e7 12be 1909 94bc 9799 c6bd 3e37 e8bd
000001a0: b94b f3bc 086f 783d fbc9 e3bd 4e53 1fbe
000001b0: fbe8 453e f9b6 acbd ff0f b0bd 5f79 b53d
000001c0: 422a d83d 7746 3fbd ce83 38bd 63fa 6cbd
000001d0: d905 fc3c 6700 f8bd 994d c93d 571b 533d
000001e0: ecc2 3abb fa2e 06bc 6e4e 823c a1d2 fabd
000001f0: bd5c 6e3d a923 99bb d09c 013e ba17 513e
00000200: 794a dfbd 07f4 96bd b171 0a3c 37f8 de3d
00000210: 55b0 bebd e41d 9b3d d265 21bd 6755 8d3c
00000220: d090 ef3d cbfd 1ebe 3119 2bbe 04f4 1e3e
00000230: 0df7 bfbd df35 ab3d f066 3abe ce30 c03d
00000240: 8a5f 023d 0741 07be 4364 a73d 08ab 1bbe
00000250: d39c 523d 4a48 f7bd c204 8bbd 2da9 5e3d
00000260: 7220 4cbd 5bcf c9bd 3cad 09bd b988 9abd
00000270: 7c1f 193e eeab 25be 42b0 df3d a9b7 cc3d
00000280: d395 163e 612f abbc 31be 0fbe b6d5 993d
00000290: 19f8 4cbb 0c3e 1e3d 535e 213e 5746 21bd
000002a0: 7b44 de3c 0f62 0cbc 03b2 283d 712b 293e
000002b0: 306e 6fbd fb3d ff3d 819a b93c d183 56bd
000002c0: be16 d03c 5c2d 23be ff49 9bbd a5f5 e3bb
000002d0: a76a e63d 565b 92bd 906f 023e e649 08be
000002e0: 7ebe a63d 3666 29be 0ddc bebd f06b 103e
000002f0: 0b74 2d3e 113e 653d ad75 033e 362e 1d3e
00000300: 5f0f a83d 1f8c 6bbd 8722 ed3d 3732 063d
00000310: 4b23 693d f585 af3d 202e cfbc 3598 0c3e
00000320: 0858 7e3d 55ae 0abe 09b8 c03d 4cf8 2a3e
00000330: 9a6c e83b 54fc 3d3c ddf1 b3bd 269d acbc
00000340: 695f b7bc 63e8 07be af82 313e 9fab 1cbd
00000350: 844d 3b3c 1211 a33d aa76 3f3e 3ab0 873b
00000360: 28cc 903c 0cce 22be 752d cabc 16fb 963d
00000370: b392 cc3d 68f7 20bd 47ca ed3d 38e3 b83c
00000380: 9154 46be 37a3 1b3e 0608 eabb 6afe 123e
00000390: ba14 093e cd01 21be 7fee 38be b116 ed3c
000003a0: 45ba 1cbe b163 eabd c116 7f3d bb89 cf3d
000003b0: 0a5b f6bd b0ad 4cbb 4295 8bbd edf8 cd3d
000003c0: 2dac cb3c 1c4d bebd e790 99bd a9d2 d23d
000003d0: 5d16 22bd 9fbe f5bc 249b 923d 4fcb 2dbe
000003e0: bb58 9b3d 9cf8 983d 989d dc3d d5b1 2a3e
000003f0: 9b81 a53d 4885 eebd 3b40 93bd d65b 47be

input_layer.bias f4 [128]
-9.307185e-06 -0.034083217 0.08050814 0.0030749403 0.000100643185 1.439822e-05 -0.08080546 -9.410029e-05
2.6029652e-06 0.038341075 -0.06148931 0.03711418 -0.0058690077 -0.035936028 -0.018738827 0.08059211
6.12489e-05 -0.054910515 0.00013115049 0.05447516 -0.031383302 -0.07985293 0.059948754 0.08473921
0.022752127 -0.0028813393 0.027460136 0.0019664937 0.01791766 0.06365806 0.00012999956 -8.868299e-05
0.02290828 0.007774385 -0.06635794 -0.028497774 -5.322233e-07 -0.031692367 0.024188561 -0.0016850838
0.09053173 7.020521e-05 0.07439358 -0.065586664 1.6645838e-05 -0.0030738472 0.07296322 -6.537721e-05
0.09176819 0.0218781 -0.0681328 0.019340629 0.07658864 0.06631693 -0.07045261 0.00015548062
0.0001889603 -0.00033009256 -3.1647654e-05 -0.020373942 -0.019043503 0.0013620323 -0.07775092 0.0013356295
0.042103894 -0.011296072 -0.034425344 0.012645193 7.041903e-05 -0.0037603967 -0.033757605 0.018960547
0.082602955 0.048841614 -5.611541e-05 0.09219837 0.0076703154 0.09263891 -0.023348175 -0.06127922
1.163013e-05 0.006176361 2.4854493e-05 -0.037592575 -0.0015699643 3.5733316e-05 -0.04273322 -0.014654135
0.014616648 -0.00021492211 0.00015218863 0.088746 0.010328124 0.084991954 0.06681313 0.061810914
8.263448e-05 -0.05232466 -0.016899168 -0.090201996 0.06690392 1.0125412e-05 -0.00010416399 5.2246884e-05
0.07834175 -5.3434836e-05 0.007885903 -0.019173406 0.030548818 0.07889438 0.056271434 -0.061241496
-0.08585694 0.005464317 -6.500566e-05 -0.05194393 0.0006995674 -0.000102780825 0.031149216 0.00017566793
0.033655073 -4.145672e-06 0.07311351 0.08290633 -0.08674891 9.877227e-06 2.9097037e-06 -0.00013232655
00000000: 0e26 1cb7 d89a 0bbd 74e1 a43d f084 493b
00000010: 6610 d338 e28f 7137 557d a5bd b557 c5b8
00000020: 9aae 2e36 880b 1d3d 37dc 7bbd 0a05 183d
00000030: ce50 c0bb a831 13bd 2b82 99bc 7a0d a53d
00000040: c172 8038 d9e9 60bd 7185 0939 5821 5f3d
00000050: c78b 00bd ef89 a3bd d38c 753d c08b ad3d
00000060: ab62 ba3c dad4 3cbb 14f4 e03c 4ae0 003b
00000070: 0ec8 923c 285f 823d 7e50 0839 51fb b9b8
00000080: 25aa bb3c 45c0 fe3b ace6 87bd 2a74 e9bc
00000090: 1bde 0eb5 dbcf 01bd 1727 c63c 08de dcba
000000a0: b368 b93d 233b 9338 a95b 983d 4d52 86bd
000000b0: aaa2 8b37 9972 49bb be6d 953d 1f1b 89b8
000000c0: f6f0 bb3d b339 b33c 3689 8bbd 3d70 9e3c
000000d0: 81da 9c3d 2cd1 873d 7549 90bd 8308 2339
000000e0: a523 4639 4610 adb9 69bd 04b8 41e7 a6bc
000000f0: 1f01 9cbc 3886 b23a e03b 9fbd 4a10 af3a
00000100: 2275 2c3d 2913 39bc 9701 0dbd c92d 4f3c
00000110: eead 9338 fd70 76bb 6a45 0abd 2653 9b3c
00000120: bd2b a93d 250e 483d 765d 6bb8 80d2 bc3d
00000130: 4557 fb3b 78b9 bd3d ac44 bfbc ebff 7abd
00000140: 071f 4337 1263 ca3b 9e7e d037 acfa 19bd
00000150: 43c7 cdba 5be0 1538 0709 2fbd e617 70bc
00000160: aa7a 6f3c b75c 61b9 d394 1f39 76c0 b53d
00000170: 4b37 293c 4310 ae3d 53d5 883d 712d 7d3d
00000180: 0c4c ad38 6252 56bd 2070 8abc d3bb b8bd
00000190: ec04 893d 50e0 2937 9e72 dab8 aa23 5b38
000001a0: a471 a03d 381f 60b8 e033 013c 8c11 9dbc
000001b0: 8441 fa3c 6093 a13d e07c 663d 5dd8 7abd
000001c0: c3d5 afbd 030e b33b a653 88b8 29c3 54bd
000001d0: 2c63 373a 098c d7b8 a42c ff3c 8033 3839
000001e0: e7d9 093d 0d1b 8bb6 89bc 953d cbca a93d
000001f0: 6aa9 b1bd 5eb6 2537 5444 4336 23c1 0ab9

projection_layer.0.weight f4 [128, 128]
-0.04476161 -0.03762534 -0.031920847 0.030530477 0.058974963 0.06289203 0.05560061 -0.079825774
0.06529335 0.06540125 0.016578682 0.06543402 0.045828555 -0.07880551 -0.09127971 0.06630116
-0.075666755 0.0009152251 0.02973693 -0.06884668 -0.071109466 -0.05727648 -0.06904957 0.05186783
-0.037485138 0.053760536 0.043570735 0.025393248 0.08166393 0.03936575 -0.039843246 0.012143155
-0.015634198 -0.08058599 -0.047335792 0.070840806 0.059999842 0.07414849 0.0026704692 -0.054038066
0.013833875 0.07620105 -0.0035491637 0.031163616 -0.025726775 0.045722257 -0.07011388 0.006145791
-0.01310661 0.026074484 -0.09055617 -0.084137626 -0.010022865 0.069602534 0.021284293 -0.07671977
-0.07577832 0.039767295 0.06530425 -0.08908747 -0.020937547 -0.03661068 -0.038160082 -0.060265508
-0.020742865 -0.095444046 -0.06956658 0.03305736 -0.09382921 -0.0014148233 0.05540618 0.0717104
0.0797774 0.06823466 0.071498975 -0.055491634 0.037531335 -0.077279374 -0.04887215 0.05995599
-0.04213937 -0.009667778 -0.07364374 -0.008279593 -0.012526019 -0.023494191 0.043388586 0.06583656
0.041930657 -0.08531888 -0.00786773 0.018185649 0.034568593 0.030835608 0.056518484 -0.05559221
-0.012496576 0.015710104 0.0014306956 -0.010318239 -0.069329806 0.08976913 -0.083477385 -0.034623075
0.062436286 -0.038935285 0.0463892 -0.0257117 0.05722842 -0.052764766 0.04466412 0.029239304
-0.021835878 0.02896172 0.038081974 0.0770562 -0.08955199 -0.06742269 0.05353019 -0.006137651
-0.015948296 -0.080041036 0.052144654 -0.064624056 0.03255282 0.0752852 0.005030015 0.051207397
-0.061551746 0.053637385 -0.05170591 0.010646969 0.07730755 0.009253699 -0.08684266 0.031393874
0.086203866 0.044549935 0.065081194 -0.08012875 -0.041213743 -0.011778473 0.025077656 0.063368745
-0.048748944 0.042011905 -0.05856975 -0.031079365 -0.021827321 0.06333595 0.054844853 0.0090362225
0.0010245292 0.028847503 -0.08682167 -0.035871428 0.0113416985 -0.0071508037 0.067124724 -0.0053890888
0.0032887151 -0.0074599353 -0.040061064 0.07307359 0.08566767 0.06417688 -0.06178014 0.10302209
-0.05658767 0.033213858 0.08014968 -0.02601244 0.06270084 -0.013839115 -0.052991122 -0.05827418
-0.0260845 -0.06884807 -0.07202121 0.058317732 0.068074845 0.075161405 0.02497179 0.024805266
0.06474537 -0.07545325 -0.008736637 0.05106935 0.09572056 0.04702391 0.016781881 0.028783439
0.016874095 -0.04300684 0.03383579 0.0514788 -0.039585784 -0.03250847 0.06484941 0.06842033
-0.0018284362 -0.04492416 0.07312597 -0.012291476 0.016574282 0.034058757 0.056606516 -0.012679173
-0.09022583 0.03467994 0.03710575 -0.027412407 -0.068935186 -0.0099185435 0.005978683 0.037948295
-0.04517284 -0.07951209 -0.081356026 -0.073489964 -0.037709966 -0.04399244 0.10476048 0.07100394
0.059223004 0.055776812 0.0037052438 -0.028393997 -0.093594894 -0.08185617 0.041342746 -0.06052178
0.051739685 -0.038628288 0.07122799 -0.05178436 0.002504236 -0.07269004 0.041185986 -0.011246342
0.004278249 -0.07276407 -0.017841045 -0.010173787 0.0750204 -0.028043043 -0.021205977 -0.032539636
-0.0027957384 -0.109669074 0.04240194 0.0148638785 0.0517336 -0.025007388 -0.09756378 -0.08835208
00000000: f357 37bd 071d 1abd 6fbf 02bd 0d1b fa3c
00000010: bb8f 713d 89cd 803d 77bd 633d b27b a3bd
00000020: 85b8 853d 17f1 853d 04d0 873c 4502 863d
00000030: b9b6 3b3d c964 a1bd dbf0 babd e7c8 873d
00000040: 2cf7 9abd b7eb 6f3a dd9a f33c 7dff 8cbd
00000050: d7a1 91bd be9a 6abd dc69 8dbd 5d73 543d
00000060: 048a 19bd 0234 5c3d 3a77 323d 8005 d03c
00000070: 6b3f a73d fb3d 213d ac32 23bd 15f4 463c
00000080: 4a13 80bc 440a a5bd 2de3 41bd fc14 913d
00000090: 65c2 753d 2adb 973d 0a03 2f3b 0557 5dbd
000000a0: 7aa7 623c 4c0f 9c3d 1699 68bb d74a ff3c
000000b0: f5c0 d2bc 4347 3b3d de97 8fbd a262 c93b
000000c0: 1bbd 56bc 289a d53c 8375 b9bd 5950 acbd
000000d0: f136 24bc c68b 8e3d 665c ae3c 411f 9dbd
000000e0: aa31 9bbd 08e3 223d 3cbe 853d 7e73 b6bd
000000f0: 3885 abbc 15f5 15bd bf4d 1cbd f7d8 76bd
00000100: f1ec a9bc 2b78 c3bd ec78 8ebd 2867 073d
00000110: 8729 c0bd 9871 b9ba 97f1 623d e7dc 923d
00000120: 5562 a33d 9dbe 8b3d 0e6e 923d 324b 63bd
00000130: 75ba 193d a644 9ebd 2a2e 48bd 6a94 753d
00000140: 559a 2cbd 9a65 1ebc 87d2 96bd 21a7 07bc
00000150: ee39 4dbc e476 c0bc 3bb8 313d 52d5 863d
00000160: 7bbf 2b3d aabb aebd a7e7 00bc 12fa 943c
00000170: cc97 0d3d f59a fc3c ed7f 673d a8b4 63bd
00000180: 70be 4cbc 7ab2 803c 2e86 bb3a d50d 29bc
00000190: c9fc 8dbd e1d8 b73d 31f6 aabd edd0 0dbd
000001a0: 31bd 7f3d 9b7a 1fbd 9a02 3e3d 58a1 d2bc
000001b0: 5968 6a3d de1f 58bd b9f1 363d 4487 ef3c
000001c0: 28e1 b2bc 2141 ed3c d8fb 1b3d a4cf 9d3d
000001d0: 0967 b7bd e814 8abd 7942 5b3d 591e c9bb
000001e0: 00a6 82bc 8eec a3bd a295 553d 9e59 84bd
000001f0: 1b56 053d 202f 9a3d d3d2 a43b d9be 513d
00000200: af1d 7cbd e0b2 5b3d 94c9 53bd a070 2e3c
00000210: 6c53 9e3d d49c 173c 91da b1bd dd96 003d
00000220: a78b b03d fe79 363d 4a49 853d 8b1a a4bd
00000230: becf 28bd 7ffa 40bc a86f cd3c 79c7 813d
00000240: f9ac 47bd ad14 2c3d d6e6 6fbd 279a febc
00000250: 36cf b2bc 47b6 813d ffa4 603d aa0c 143c
00000260: 7f49 863a 9951 ec3c 8fcf b1bd ebed 12bd
00000270: 88d2 393c 4a51 eabb b078 893d f496 b0bb
00000280: 7c87 573b 7972 f4bb 1217 24bd 9ba7 953d
00000290: 8872 af3d 2b6f 833d 2c0d 7dbd 3ffd d23d
000002a0: 79c8 67bd 410b 083d 8425 a43d 0a18 d5bc
000002b0: 4c69 803d 75bd 62bc 380d 59bd e8b0 6ebd
000002c0: 29af d5bc 3800 8dbd db7f 93bd 93de 6e3d
000002d0: d36a 8b3d 39ee 993d a491 cc3c 6a34 cb3c
000002e0: 3899 843d 3c87 9abd 1d24 0fbc 182e 513d
000002f0: 2409 c43d 259c 403d 287a 893c 3fcb eb3c
00000300: 8b3b 8a3c f127 30bd 6697 0a3d 6fdb 523d
00000310: b424 22bd 9a27 05bd c4cf 843d f51f 8c3d
00000320: 23a8 efba 6502 38bd 12c3 953d 3062 49bc
00000330: cac6 873c 3281 0b3d 3cdc 673d 4ebc 4fbc
00000340: 52c8 b8bd 8e0c 0e3d 33fc 173d fc8f e0bc
00000350: e42d 8dbd 6381 22bc d4e8 c33b ac6f 1b3d
00000360: 2807 39bd 3cd7 a2bd fd9d a6bd e881 96bd
00000370: c475 1abd 6b31 34bd aa8c d63d 846a 913d
00000380: d293 723d 3a76 643d add3 723b 879a e8bc
00000390: aeae bfbd 35a4 a7bd 0357 293d b0e5 77bd
000003a0: feec 533d b238 1ebd fbdf 913d d61b 54bd
000003b0: 1c1e 243b 84de 94bd a3b2 283d 9442 38bc
000003c0: 8e30 8c3b 5405 95bd 6227 92bc f5af 26bc
000003d0: 4ca4 993d 86ba e5bc 28b8 adbc 4848 05bd
000003e0: b538 37bb 2e9a e0bd a8ad 2d3d a087 733c
000003f0: 9de6 533d 4bdc ccbc 85cf c7bd eff1 b4bd

projection_layer.0.bias f4 [128]
-2.4085607e-06 -0.0001505698 -0.00018848848 0.0015469204 -7.177057e-05 -0.00018425702 0.007835243 -6.611194e-05
-7.8481014e-07 -0.0013361345 0.01593716 -0.014954363 0.00021396464 -0.00015616165 -0.00016567361 -0.011815149
-3.6871294e-05 0.00012947983 -0.0002775543 0.0074867494 6.388492e-05 -0.001969727 0.0037557941 -0.0026206563
-0.015256487 -2.4704555e-05 0.013721693 0.009143016 6.345461e-05 9.733409e-05 0.0001016468 -3.5647776e-05
-0.00022461276 0.00010770023 0.00022492703 -1.2104712e-05 -0.008027088 0.00055380515 -0.00033418264 -0.0010937133
-0.00033655297 -7.233269e-05 -0.00013124409 -0.00016015024 0.002314741 5.822929e-05 -0.0001690087 0.014666438
-0.00466182 0.013547553 -0.015773896 -3.4562694e-05 -0.003704373 4.1693896e-05 0.004281594 0.010583295
8.33053e-05 0.0014715481 3.994475e-05 -0.0062720207 0.010191245 0.0027727673 9.1928814e-05 -0.0012760477
-0.00092000817 0.00010576319 0.0011644255 9.46588e-06 -0.0016412333 -0.00017057019 -0.0076503735 -0.008030958
0.00012524126 -0.00015710854 -0.005556605 0.015596307 0.0001044855 -0.0037240656 0.00010476046 -5.0689465e-05
-9.1460635e-05 0.013535624 0.0012471635 -0.012681903 0.009106547 0.0058417255 -0.0001263538 -0.0044454844
-2.6026064e-05 2.0514806e-06 0.00018848175 9.336726e-05 -0.0014440998 0.00019856695 -0.0018776732 1.3498984e-06
-0.0002663739 0.0008322622 -0.0001592963 -0.00019474562 3.1013937e-05 0.00031285558 5.5117576e-05 0.011708503
9.993915e-05 -0.0119978525 3.7776077e-05 -0.0020731334 -0.00017976087 0.0059260484 -0.005289767 -0.011886036
-0.010363132 -2.2608661e-05 -0.014734351 -0.012712688 1.8231663e-05 3.7147198e-05 0.012214952 -0.011081926
5.215835e-05 -0.000117192365 -0.014872313 -0.008640102 -0.002058629 5.001192e-05 0.010431264 0.00014064078
00000000: c2a2 21b6 46e2 1db9 fea4 45b9 09c2 ca3a
00000010: 8883 96b8 1e35 41b9 645f 003c 94a5 8ab8
00000020: beab 52b5 3c21 afba a68e 823c 2503 75bc
00000030: b25b 6039 53bf 23b9 acb8 2db9 5494 41bc
00000040: 40a6 1ab8 fac4 0739 b584 91b9 6853 f53b
00000050: f5f9 8538 8916 01bb c523 763b 51bf 2bbb
00000060: 58f6 79bc a13c cfb7 f4d0 603c 97cc 153c
00000070: ef12 8538 d71f cc38 362b d538 8284 15b8
00000080: 0786 6bb9 1fdd e138 64da 6b39 5815 4bb7
00000090: 0c84 03bc 3c2d 113a 3c35 afb9 ee5a 8fba
000000a0: 6073 b0b9 51b1 97b8 919e 09b9 01ee 27b9
000000b0: e9b2 173b 393b 7438 ed37 31b9 804b 703c
000000c0: 2ec2 98bb 8ef6 5d3c 4238 81bc 69f7 10b8
000000d0: 11c5 72bb 7be0 2e38 9d4c 8c3b 8e65 2d3c
000000e0: 31b4 ae38 f6e0 c03a 598a 2738 8685 cdbb
000000f0: 2ef9 263c 51b7 353b e8c9 c038 0e41 a7ba
00000100: b42c 71ba 2ecd dd38 a39f 983a a5cf 1e37
00000110: a71e d7ba 16db 32b9 fcaf fabb 4794 03bc
00000120: 3253 0339 81bd 24b9 2e14 b6bb a787 7f3c
00000130: 3a1f db38 740f 74bb d8b2 db38 669b 54b8
00000140: 8ece bfb8 86c4 5d3c dd77 a33a c2c7 4fbc
00000150: a033 153c f26b bf3b d77d 04b9 6dab 91bb
00000160: 8c52 dab7 2bac 0936 2fa3 4539 2bce c338
00000170: f347 bdba 6936 5039 421c f6ba 282e b535
00000180: 1aa8 8bb9 2c2c 5a3a c608 27b9 a134 4cb9
00000190: f614 0238 c406 a439 0c2e 6738 05d5 3f3c
000001a0: 6c96 d138 a492 44bc c171 1e38 68dd 07bb
000001b0: 317e 3cb9 4c2f c23b c855 adbb a6bd 42bc
000001c0: 20ca 29bc bba7 bdb7 5968 71bc e148 50bc
000001d0: 33f0 9837 80ce 1b38 3921 483c f790 35bc
000001e0: 9ac4 5a38 2cc5 f5b8 00ab 73bc 378f 0dbc
000001f0: 10ea 06bb e4c3 5138 e4e7 2a3c f978 1339

projection_layer.1.weight f4 [128]
1.0192109 0.9979613 1.0146558 1.0099119 1.0178679 1.0215026 1.0164576 1.020012
1.0131912 1.0048786 0.9690852 1.0104649 1.0016656 0.99394566 1.0224153 1.0191537
1.0083709 1.0127662 1.007232 1.0122635 1.0155514 0.9949809 1.0073885 1.0032855
1.0178125 1.0294306 0.98393095 1.0100278 0.9877291 1.0338552 1.0134397 1.0083314
1.0073787 1.0354502 1.0114508 1.0025165 1.011861 0.9827464 0.99672276 1.0315404
1.0393738 1.0041518 0.99891573 1.0290601 1.0277103 1.0040139 0.9658827 0.9973806
1.0033541 1.0309414 0.99977165 1.0043291 1.0003875 1.0203022 0.9985697 1.0138693
1.0036988 1.0056841 1.02042 1.0203108 1.0118486 1.0014613 1.0095515 1.004552
1.0021204 1.0083581 1.0280069 1.0059704 1.020875 1.0232222 0.9943188 0.9979094
1.0196598 0.9861314 1.0126972 1.0120628 1.0273261 0.99213576 1.0052952 1.020346
0.99826056 1.0015501 0.9950925 1.0325564 0.9985626 1.0089455 1.014983 1.0365438
1.0164773 0.9888832 1.0071044 0.999452 1.0013466 1.0215815 1.0135301 1.0193912
1.0163902 1.0091267 1.011725 1.0368625 1.0244296 1.020571 1.0228273 1.0091634
1.004105 0.9993394 1.0086381 1.0273309 1.0298797 0.97840303 1.0471761 1.0072083
1.0196328 1.018157 1.0025532 1.0058409 0.99534154 1.0227715 1.0002745 1.0284413
1.004118 1.0056721 1.0288247 1.0258722 0.9910414 1.0060215 0.99983096 1.014447
00000000: 8175 823f 647a 7f3f 3ee0 813f cb44 813f
00000010: 7f49 823f 99c0 823f 481b 823f c18f 823f
00000020: 40b0 813f dd9f 803f f815 783f ea56 813f
00000030: 9436 803f 3973 7e3f 81de 823f a173 823f
00000040: 4c12 813f 53a2 813f faec 803f da91 813f
00000050: 97fd 813f 11b7 7e3f 1bf2 803f a96b 803f
00000060: ae47 823f 62c4 833f e6e2 7b3f 9748 813f
00000070: d0db 7c3f 5e55 843f 64b8 813f 0111 813f
00000080: c9f1 803f a289 843f 3877 813f 7652 803f
00000090: a984 813f 4595 7b3f 3929 7f3f 8409 843f
000000a0: 330a 853f 0c88 803f f1b8 7f3f 3eb8 833f
000000b0: 038c 833f 8783 803f 1744 773f 5654 7f3f
000000c0: e86d 803f e3f5 833f 09f1 7f3f db8d 803f
000000d0: b30c 803f 4399 823f 44a2 7f3f 78c6 813f
000000e0: 3479 803f 42ba 803f 1f9d 823f 8b99 823f
000000f0: 4184 813f e22f 803f fc38 813f 2995 803f
00000100: 7b45 803f e111 813f bb95 833f a3c3 803f
00000110: 08ac 823f f2f8 823f ad8b 7e3f fe76 7f3f
00000120: 3684 823f 1c73 7c3f 10a0 813f 468b 813f
00000130: 6c7f 833f 9cfc 7d3f 83ad 803f b39a 823f
00000140: 018e 7f3f cb32 803f 62be 7e3f cf2a 843f
00000150: cca1 7f3f 2025 813f f7ea 813f 78ad 843f
00000160: ee1b 823f 7327 7d3f cce8 803f 16dc 7f3f
00000170: 202c 803f 2fc3 823f 5bbb 813f 697b 823f
00000180: 1319 823f 102b 813f 3480 813f e9b7 843f
00000190: 8220 833f 12a2 823f 01ec 823f 442c 813f
000001a0: 8386 803f b5d4 7f3f 0e1b 813f 947f 833f
000001b0: 19d3 833f 9f78 7a3f de09 863f 34ec 803f
000001c0: 5483 823f f852 823f aa53 803f 65bf 803f
000001d0: b4ce 7e3f 2dea 823f ff08 803f f7a3 833f
000001e0: f086 803f ddb9 803f 87b0 833f c84f 833f
000001f0: e4b4 7d3f 50c5 803f ecf4 7f3f 66d9 813f

projection_layer.1.bias f4 [128]
-0.013930422 -0.01224513 -0.005628689 -0.009251584 0.019463345 0.0010625202 -0.00913879 0.00803402
-0.014887134 -0.018838389 -0.03039217 0.0017500804 -0.0134379715 -0.015793012 -0.015432343 0.0020237998
0.0044269897 -0.011592633 -0.018591437 0.0064976434 -0.031055126 -0.024499513 -0.010338737 -0.015456471
0.004008217 0.004842669 -0.01611788 -0.012563546 -0.020346455 0.0028775705 0.0011186217 0.0029385234
-0.007621717 -0.0059527755 -0.0115092015 -0.0022032643 -0.024527907 -0.013983754 -0.022102177 -0.016722914
-0.023273619 -0.008433478 -0.022865599 -0.007876839 -0.0039760596 -0.0072429646 -0.04215617 -0.012995422
-0.039603714 -0.005495119 -0.0027276322 -0.008307801 -0.04053319 -0.01626082 -0.019543333 -0.013221903
-0.02639022 -0.0041212533 0.0047432533 0.005688009 -0.009822688 0.005962878 0.014237536 -0.011450331
-0.019719211 -0.023979848 0.008124817 -0.0071319086 -0.0036660617 -0.0023699556 -0.015870439 -0.022070574
-0.016016502 -0.029751183 0.01182175 -0.020711662 0.004350761 -0.0055338945 0.0015350978 -0.0110727865
-0.01621566 -0.01742598 -0.026334038 0.0066870367 -0.04886648 -0.013024905 -0.0011169654 0.0014939045
-0.023797732 -0.01994381 -0.015259987 0.0072286264 -0.021799475 -0.001093721 -0.020436559 0.01407381
-0.020520039 -0.021162039 -0.020834293 0.002890126 -0.008516004 0.005014109 -0.023648748 -0.028570263
-0.018741667 -0.011146687 0.001548276 0.004672338 -0.014093073 -0.027068993 0.011351604 -0.020729365
-0.0060308254 0.00030235434 -0.020406373 -0.021554455 -0.0263674 -0.0047167093 0.0026933067 -0.026801819
-0.022976598 -0.0061206487 -0.015777906 0.014114056 -0.041821774 -0.022397136 -0.018349227 -0.03688584
00000000: 6d3c 64bc cc9f 48bc de70 b8bb f593 17bc
00000010: 9871 9f3c 4344 8b3a ddba 15bc 1fa1 033c
00000020: 2ae9 73bc f752 9abc 00f9 f8bc f462 e53a
00000030: f02a 5cbc 5960 81bc f0d7 7cbc baa1 043b
00000040: 4810 913b 07ef 3dbc 124d 98bc 2fea d43b
00000050: 5267 febc 34b3 c8bc ce63 29bc 233d 7dbc
00000060: 5c57 833b 40af 9e3b a509 84bc 55d7 4dbc
00000070: 9cad a6bc 9f95 3c3b b79e 923a 3e94 403b
00000080: 99bf f9bb 800f c3bb 1791 3cbc a464 10bb
00000090: c0ee c8bc 1e1c 65bc a00f b5bc 7efe 88bc
000000a0: 51a8 bebc 922c 0abc a350 bbbc db0d 01bc
000000b0: 9b49 82bb 6456 edbb f3ab 2cbd c0ea 54bc
000000c0: 8137 22bd 6610 b4bb 13c2 32bb 711d 08bc
000000d0: 2106 26bd 6935 85bc 5719 a0bc aea0 58bc
000000e0: 4d30 d8bc 940b 87bb 4b6d 9b3b 7a62 ba3b
000000f0: 57ef 20bc 3f64 c33b 8e44 693c 2b9a 3bbc
00000100: 2f8a a1bc 6371 c4bc f41d 053c c9b2 e9bb
00000110: 4f42 70bb 4251 1bbb b902 82bc 59cd b4bc
00000120: 0a35 83bc c1b8 f3bc 03b0 413c 81ab a9bc
00000130: d490 8e3b ac55 b5bb 5635 c93a a26a 35bc
00000140: b4d6 84bc eec0 8ebc 7bba d7bc ee1e db3b
00000150: 3828 48bd 6966 55bc 2467 92ba 1ecf c33a
00000160: 76f3 c2bc 3361 a3bc 0605 7abc 1dde ec3b
00000170: d094 b2bc 305b 8fba 926a a7bc d695 663c
00000180: a419 a8bc 035c adbc aeac aabc 4568 3d3b
00000190: b686 0bbc 654d a43b 05bb c1bc 2f0c eabc
000001a0: 2088 99bc 98a0 36bc 86ef ca3a 691a 993b
000001b0: a2e6 66bc cbbf ddbc 14fc 393c a1d0 a9bc
000001c0: 3b9e c5bb 5085 9e39 442b a7bc f892 b0bc
000001d0: 7200 d8bc a08e 9abb 3082 303b 7d8f dbbc
000001e0: 6b39 bcbc b98f c8bb ab40 81bc a43e 673c
000001f0: 4f4d 2bbd 337a b7bc 1e51 96bc 9b15 17bd

projection_layer.1.running_mean f4 [128]
0.020947604 -0.023060087 0.0017181003 0.046985663 -0.0062183184 0.074071355 0.07073399 -0.04899137
-0.03286282 0.0017723449 0.03655991 0.0066196397 0.014677744 -0.05430239 0.03248465 -0.03325356
-0.002848902 0.038687855 0.021451326 0.0051335897 0.018720463 -0.02765094 0.021687476 0.05690782
-0.018401233 0.031669345 -0.006325054 0.046118192 0.043383695 -0.021581206 0.055562254 0.029428802
0.013671491 0.061042402 -0.023425134 -0.019344512 0.03829837 -0.0401279 0.010984506 0.060122844
-0.024907103 0.05125883 -0.00017929818 0.032880276 0.017159464 -0.0119261425 0.018616887 0.03727294
0.01089954 0.024447348 0.068599194 -0.035580143 -0.0011688162 0.05033594 -0.04791328 0.028427184
0.0051087365 -0.0024133 -0.025798967 -0.02436734 -0.016441045 0.008589834 0.0040785256 -0.045100283
0.0117116105 -0.029785113 -0.05203817 -0.008041256 -0.041318875 0.03695316 0.034696404 0.061420955
0.0015492373 -0.027456557 0.024427993 0.024344994 -0.008147001 0.016398929 -0.005550718 0.008196902
-0.042509805 0.019310093 0.034758702 -0.04595209 0.012990456 0.015089328 -0.034271322 0.038004912
0.009478847 0.049698304 -0.0115115205 -0.008178411 -0.017595453 -0.024078218 -0.01408907 0.05957033
-0.090358585 -0.022787428 0.02388495 -0.035623167 0.053525247 0.029605499 0.0057913684 0.0077793025
0.026795313 -0.00049391715 0.055866577 0.0028526802 0.020485444 -0.013114953 0.05648241 -0.016248092
0.029457936 0.0069490448 -0.018297318 0.000539541 -0.051496565 -0.011591125 -0.01863538 -0.012646465
-0.005540052 -0.016471062 -0.021056183 -0.009949218 -0.036611646 -0.033408776 0.025570104 -0.016902512
00000000: 4f9a ab3c 82e8 bcbc e131 e13a 0a74 403d
00000010: 09c3 cbbb b9b2 973d fbdc 903d 2dab 48bd
00000020: 2a9b 06bd 074e e83a d8bf 153d 90e9 d83b
00000030: ec7a 703c 2f6c 5ebd a00e 053d e334 08bd
00000040: a5b4 3abb 2877 1e3d b1ba af3c ac37 a83b
00000050: a85b 993c 3984 e2bc efa9 b13c 2d18 693d
00000060: 2fbe 96bc b7b7 013d 6642 cfbb 6ee6 3c3d
00000070: 1ab3 313d 12cb b0bc 3f95 633d ac14 f13c
00000080: 64fe 5f3c 9907 7a3d 11e6 bfbc 6278 9ebc
00000090: c0de 1c3d 275d 24bd 5cf8 333c 5f43 763d
000000a0: fb09 ccbc c7f4 513d fd01 3cb9 78ad 063d
000000b0: 0192 8c3c de65 43bc 7182 983c 83ab 183d
000000c0: fc93 323c ce45 c83c bc7d 8c3d 7cbc 11bd
000000d0: f732 99ba 0f2d 4e3d b740 44bd 20e0 e83c
000000e0: 3067 a73b 7528 1ebb 5b58 d3bc 049e c7bc
000000f0: 5faf 86bc 60bc 0c3c 27a5 853b 13bb 38bd
00000100: 0ee2 3f3c e9ff f3bc fa25 55bd 79bf 03bc
00000110: fb3d 29bd 325c 173d d11d 0e3d 8a94 7b3d
00000120: c70f cb3a 93ec e0bc 371d c83c 276f c73c
00000130: 007b 05bc 0c57 863c cce2 b5bb 4d4c 063c
00000140: c31e 2ebd 3330 9e3c 245f 0e3d 4238 3cbd
00000150: ecd5 543c 3b39 773c 1660 0cbd 0aab 1b3d
00000160: 2a4d 1b3c 7390 4b3d d19a 3cbc befe 05bc
00000170: 5724 90bc af3f c5bc d8d5 66bc 0500 743d
00000180: ec0d b9bd b3ac babc 5faa c33c 99e9 11bd
00000190: 4a3d 5b3d 3b87 f23c 85c5 bd3b 85e9 fe3b
000001a0: d881 db3c 387a 01ba 5ad4 643d 08f4 3a3b
000001b0: 17d1 a73c 1ae0 56bc 195a 673d b81a 85bc
000001c0: c551 f13c d0b4 e33b 42e4 95bc fc6f 0d3a
000001d0: 10ee 52bd b4e8 3dbc 39a9 98bc 1e33 4fbc
000001e0: 5389 b5bb 52ee 86bc 047e acbc 0b02 23bc
000001f0: 18f6 15bd a4d7 08bd 6578 d13c 2377 8abc

projection_layer.1.running_var f4 [128]
0.12956913 0.18218215 0.18942307 0.09160627 0.11093878 0.08573509 0.1121837 0.14935085
0.17739627 0.09539228 0.13274774 0.26037398 0.10178247 0.20444909 0.141312 0.10303573
0.12055533 0.11656449 0.11092517 0.11319048 0.123681374 0.16555913 0.14660186 0.14386588
0.12541333 0.15575343 0.13254313 0.1459132 0.21662754 0.085707024 0.13191667 0.10287648
0.14958331 0.12720709 0.13316846 0.07229408 0.13593766 0.14660199 0.1283525 0.17187418
0.12635125 0.18759374 0.26416925 0.080912784 0.12432236 0.13450879 0.14087716 0.21244207
0.10048281 0.10705917 0.18115751 0.14221792 0.1252541 0.18010934 0.15071996 0.119167365
0.10060474 0.123408444 0.17442328 0.08241073 0.12725419 0.22647853 0.12547864 0.20707066
0.18559198 0.13220632 0.14229034 0.14597724 0.14236605 0.116091445 0.100524746 0.13358802
0.121107034 0.08592051 0.13576041 0.13957804 0.15619655 0.22037047 0.12226988 0.111826874
0.14554101 0.14162841 0.23038445 0.123286426 0.17216928 0.12004898 0.09546952 0.15286787
0.12839766 0.177184 0.09389909 0.13845325 0.11753701 0.10986876 0.11005 0.10425165
0.08435454 0.13983901 0.10255384 0.113604404 0.14312248 0.07336719 0.14605728 0.1444686
0.096158534 0.1256662 0.15141328 0.13507427 0.13261113 0.1244711 0.1472315 0.11397137
0.092487164 0.17804657 0.11141342 0.181577 0.18678807 0.10703092 0.14257742 0.105765305
0.12592664 0.16348284 0.11387496 0.13605243 0.14819588 0.0783083 0.17074248 0.13966021
00000000: c5ad 043e f58d 3a3e 1ff8 413e 119c bb3d
00000010: df33 e33d e195 af3d 91c0 e53d 6eef 183e
00000020: 5ea7 353e 075d c33d 06ef 073e bd4f 853e
00000030: 5473 d03d 1a5b 513e 18b4 103e 6604 d33d
00000040: b6e5 f63d 5db9 ee3d bc2c e33d 69d0 e73d
00000050: a94c fd3d 5588 293e cc1e 163e 9451 133e
00000060: 5a6c 003e d47d 1f3e 63b9 073e 456a 153e
00000070: 9cd3 5d3e 2a87 af3d 2a15 073e e7b0 d23d
00000080: 5e2c 193e 9342 023e 505d 083e eb0e 943d
00000090: 3e33 0b3e d51e 163e d66e 033e c9ff 2f3e
000000a0: 3962 013e 9318 403e 3141 873e 9ab5 a53d
000000b0: b99c fe3d acbc 093e 1a42 103e 6a8a 593e
000000c0: eec9 cd3d d741 db3d 5b81 393e 93a1 113e
000000d0: 9c42 003e 956e 383e 5556 1a3e 050e f43d
000000e0: dc09 ce3d 91bd fc3d 049c 323e f5c6 a83d
000000f0: ec4e 023e fde9 673e 797d 003e 550a 543e
00000100: d30b 3e3e 1861 073e 8fb4 113e 0f7b 153e
00000110: 68c8 113e 5ac1 ed3d ebdf cd3d 4ccb 083e
00000120: f706 f83d 18f7 af3d c704 0b3e 8ced 0e3e
00000130: fdf1 1f3e cca8 613e a168 fa3d 7d05 e53d
00000140: b408 153e 0a07 113e e7e9 6b3e 987d fc3d
00000150: 254d 303e 3ddc f53d 8685 c33d 6589 1c3e
00000160: ad7a 033e b96f 353e 2b4e c03d b0c6 0d3e
00000170: 3eb7 f03d df02 e13d e561 e13d e481 d53d
00000180: 13c2 ac3d f531 0f3e bf07 d23d 6da9 e83d
00000190: b38e 123e 8a41 963d 0a90 153e 94ef 133e
000001a0: c4ee c43d a4ae 003e 150c 1b3e e950 0a3e
000001b0: 36cb 073e b4ea fe3d dbc3 163e d269 e93d
000001c0: e969 bd3d d751 363e b82c e43d 52ef 393e
000001d0: 5f45 3f3e 0733 db3d d1ff 113e 7b9b d83d
000001e0: eaf2 003e 0c68 273e 4637 e93d 5451 0b3e
000001f0: a9c0 173e 1a60 a03d 1ed7 2e3e 1603 0f3e

projection_layer.4.weight f4 [128, 128]
0.06164181 0.054498274 -0.09610605 -0.061191443 -0.05449576 -0.050081495 -0.009677666 -0.07461712
0.027193349 0.049954284 0.022581093 -0.10099005 0.04791573 0.014889416 0.0604087 -0.01824667
0.016957987 -0.04831793 0.058390595 0.01927929 0.022098888 0.050034415 -0.01598941 0.0066307182
0.015414312 -0.014808506 -0.03912091 -0.07273279 0.0031370174 -0.021343455 -0.019152734 0.0039235535
0.03678352 -0.036766868 -0.005278047 0.028100051 -0.069613114 0.08320108 0.012618945 0.007978391
0.015221296 -0.043285873 -0.075381756 0.049738802 0.01596318 -0.10278328 -0.07989536 -0.054810442
-0.06394554 0.038384493 -0.08750604 0.06784263 -0.087886356 0.07875089 0.082106836 -0.04529145
0.050168112 -0.07341024 -0.0041759172 0.008650873 -0.070706904 -0.05768909 0.013751488 0.010412919
-0.008848684 -0.04413253 -0.02800639 0.072448544 0.008195527 0.0071254536 -0.042367544 0.013101851
0.03500923 -0.023942163 -0.06948792 -0.02634535 0.013573068 0.020817764 0.028114809 -0.0878622
0.041734092 0.0841628 0.048828352 0.013488873 -0.00620681 0.07134365 0.050850473 0.024958763
0.037877593 -0.026422082 -0.045621894 -0.044985823 0.011021979 -0.06828402 -0.034519713 0.056777053
-0.08212041 0.07252659 0.0058029015 -0.010647452 0.027052362 -0.08160704 -0.006865526 -0.03065821
0.039898176 -0.10571754 -0.0063663633 -0.023628362 0.07480352 -0.02284357 -0.09759883 0.051626164
-0.071772516 0.0474505 0.012551036 0.08836258 -0.0015815964 -0.012230625 0.033550747 -0.021597877
-0.050537877 0.051618252 0.010020167 -0.098191075 0.068767965 0.03837111 -0.015533197 -0.033148773
-0.0696764 0.026210811 -0.031859133 -0.0006795566 -0.0006027468 0.042549506 0.033603683 -0.05622411
0.055032086 0.0086824205 -0.01883757 0.034635857 -0.02732035 0.033377826 0.06581985 -0.049856935
-0.012588144 0.067632444 -0.05515656 0.036612507 -0.0308751 0.024466999 -0.019700997 -0.035852756
0.006164698 0.11507525 -0.028625082 0.024518725 0.070373856 -0.031905267 -0.06347652 0.035362806
-0.019751413 0.011648706 0.0021392456 -0.09380019 0.08532519 -0.055514187 0.031807225 -0.022251798
-0.070709035 -0.07977307 0.00868182 -0.006990101 -0.05361071 -0.055037 -0.057799965 -0.13201857
-0.060505655 -0.026490549 -0.028762015 0.059930697 0.027570462 0.075635314 -0.021329252 -0.0073881806
0.013456549 0.058260344 0.06770408 0.032100067 -0.04890115 0.040367924 -0.07183568 -0.07609718
0.066233516 -0.069675036 -0.010878439 0.04347802 -0.06147115 0.05983257 0.0087334905 0.100239776
-0.08168271 0.029838555 -0.04110237 -0.06686297 0.01990737 0.004500148 -0.013797138 -0.08577745
0.009568328 -0.011980544 -0.08243126 -0.07448428 0.03626945 0.02730689 -0.046699755 0.12028265
-0.11929381 -0.0460856 0.048903547 -0.052321613 -0.025337972 -0.058850534 0.041444845 -0.039762426
-0.04733944 0.097184636 -0.006062881 -0.0447133 0.067520745 0.07602748 0.05096737 0.09925325
-0.07355592 -0.018067049 0.047525898 -0.048297726 0.024713835 -0.04954183 -0.0069112624 -0.13155997
0.1296866 0.09250023 -0.029422216 0.03275624 -0.11639984 0.019787611 -0.049193457 -0.059173524
-0.1330851 -0.03354887 -0.07302317 -0.0690354 -0.017048657 -0.054161884 -0.054693338 -0.044479597
00000000: 1f7c 7c3d 9539 5f3d 40d3 c4bd e1a3 7abd
00000010: f236 5fbd 4122 4dbd 138f 1ebc dcd0 98bd
00000020: 96c4 de3c dd9c 4c3d fcfb b83c dfd3 cebd
00000030: 4943 443d bdf2 733c 1d6f 773d 0a7a 95bc
00000040: 7aeb 8a3c 06e9 45bd fa2a 6f3d 9aef 9d3c
00000050: ba08 b53c e3f0 4c3d 39fc 82bc 7f46 d93b
00000060: 4f8c 7c3c 609f 72bc 3f3d 20bd eef4 94bd
00000070: 6b96 4d3b 78d8 aebc 32e6 9cbc 2791 803b
00000080: 51aa 163d db98 16bd 78f3 acbb 1432 e63c
00000090: 5291 8ebd 5465 aa3d b1bf 4e3c ccb7 023c
000000a0: be62 793c 874c 31bd c061 9abd eaba 4b3d
000000b0: 37c5 823c 0a80 d2bd 2ea0 a3bd ea80 60bd
000000c0: e1f5 82bd 0f39 1d3d 5e36 b3bd 14f1 8a3d
000000d0: c3fd b3bd 2648 a13d a127 a83d 8783 39bd
000000e0: 147d 4d3d 1c58 96bd 22d6 88bb 64bc 0d3c
000000f0: c8ce 90bd 654b 6cbd ec4d 613c f39a 2a3c
00000100: 12fa 10bc 50c4 34bd a86d e5bc e75f 943d
00000110: 8846 063c a37c e93b 9789 2dbd 25a9 563c
00000120: d765 0f3d 5b22 c4bc af4f 8ebd 34d2 d7bc
00000130: 9361 5e3c 048a aa3c 0751 e63c 19f1 b3bd
00000140: 5ef1 2a3d 8c5d ac3d 3d00 483d 6f00 5d3c
00000150: 7f62 cbbb 9f1c 923d 9648 503d 5276 cc3c
00000160: 8925 1b3d 1f73 d8bc 06de 3abd 0e43 38bd
00000170: 8895 343c 7ed8 8bbd 8b64 0dbd 0e8f 683d
00000180: bf2e a8bd d288 943d 4426 be3b a772 2ebc
00000190: ea9c dd3c 9721 a7bd 35f8 e0bb ed26 fbbc
000001a0: 456c 233d 7082 d8bd ed9c d0bb 4490 c1bc
000001b0: 9732 993d 7022 bbbc e5e1 c7bd f575 533d
000001c0: 78fd 92bd 755b 423d dca2 4d3c 71f7 b43d
000001d0: 924d cfba f662 48bc 826c 093d 08ee b0bc
000001e0: ce00 4fbd a96d 533d a02b 243c 6718 c9bd
000001f0: 38d6 8c3d 062b 1d3d f37e 7ebc 02c7 07bd
00000200: 80b2 8ebd 0eb8 d63c b97e 02bd 4524 32ba
00000210: a701 1eba 6448 2e3d 04a4 093d 414b 66bd
00000220: 5369 613d b640 0e3c 3f51 9abc 54de 0d3d
00000230: edce dfbc 30b7 083d 8fcc 863d c936 4cbd
00000240: 813e 4ebc e182 8a3d d8eb 61bd fff6 153d
00000250: c7ed fcbc 046f c83c fc63 a1bc 57da 12bd
00000260: 3c01 ca3b 93ac eb3d 267f eabc 7edb c83c
00000270: 2b20 903d 19af 02bd faff 81bd 97d8 103d
00000280: b7cd a1bc 37da 3e3c 9632 0c3b 501a c0bd
00000290: f9be ae3d d862 63bd 4b48 023d 6749 b6bc
000002a0: e6cf 90bd 1060 a3bd 313e 0e3c 380d e5bb
000002b0: e796 5bbd 7a6e 61bd a8bf 6cbd e02f 07be
000002c0: c7d4 77bd b502 d9bc 519e ebbc e479 753d
000002d0: 73db e13c b0e6 9a3d afba aebc 8d18 f2bb
000002e0: db78 5c3c 66a2 6e3d 70a8 8a3d 5c7b 033d
000002f0: 924c 48bd d658 253d 961e 93bd d7d8 9bbd
00000300: 70a5 873d c9b1 8ebd 7b3b 32bc 0216 323d
00000310: 2cc9 7bbd ff12 753d ea16 0f3c 834a cd3d
00000320: 4449 a7bd fc6f f43c f55a 28bd 74ef 88bd
00000330: c814 a33c fa75 933b 640d 62bc 16ac afbd
00000340: 7ac4 1c3c 0b4a 44bc b8d1 a8bd 378b 98bd
00000350: 468f 143d b3b2 df3c 3e48 3fbd c056 f63d
00000360: 5050 f4bd 41c4 3cbd 164f 483d 304f 56bd
00000370: 9491 cfbc 420d 71bd 12c2 293d eddd 22bd
00000380: 00e7 41bd bd08 c73d 22ab c6bb 4b25 37bd
00000390: 5148 8a3d 4cb4 9b3d 29c3 503d 4a45 cb3d
000003a0: 7ca4 96bd 5901 94bc 84aa 423d d6d3 45bd
000003b0: ab74 ca3c 60ec 4abd df77 e2bb a8b7 06be
000003c0: 90cc 043e c370 bd3d dc06 f1bc 682b 063d
000003d0: 0a63 eebd a119 a23c 147f 49bd f05f 72bd
000003e0: 7647 08be 8a6a 09bd 2c8d 95bd 6f62 8dbd
000003f0: a0a9 8bbc dad8 5dbd 1f06 60bd 3d30 36bd

projection_layer.4.bias f4 [128]
0.044443015 -0.07120213 0.03220145 -0.02551533 -0.06716016 0.011862735 -0.035114143 -0.080658264
0.053832218 0.02774812 0.05081425 -0.059741974 0.048860192 -0.051898956 -0.014218863 0.080288604
0.0055099805 -0.0036855475 0.044138554 -0.050401293 -0.01771401 0.06885983 0.050751984 0.05724267
0.06995488 -0.08609658 -0.015411634 -0.07482086 0.004914566 0.029906314 0.037291028 0.07896582
0.0018120909 0.087833576 -0.08553692 0.020499721 0.03183895 0.039487652 -0.06118498 0.057624318
-0.06418541 0.04726308 0.06557045 0.08143417 -0.0049923887 -0.04234114 -0.006725982 0.020385627
0.00046893503 -0.023046974 0.081978515 0.039905056 -0.08534379 0.04125858 -0.025770588 -0.05269438
0.005494953 -0.05181244 -0.0480317 -0.06963986 0.07410436 0.06728444 -0.030516678 -0.07359569
0.030644331 0.012672039 0.00993468 -0.04831101 -0.013942485 -0.06388113 -0.047768813 -0.042472553
0.06217271 0.020379735 -0.097710185 -0.0057432456 0.040346228 -0.06276416 0.07613904 -0.039671764
-0.08868779 0.014007452 0.05612819 -0.00953998 0.0752203 -0.06667034 0.009605656 0.004723519
0.05469579 0.08832312 0.045817286 -0.023543146 0.03692203 0.045687474 -0.004504891 0.08806688
-0.08496617 -0.044594143 0.012458408 -0.08458078 -0.06910327 0.059538033 -0.006683535 -0.045068234
-0.078605995 0.06498129 -0.018407026 0.0659565 0.008293208 0.0033025884 0.04090632 0.0117891645
-0.07864116 0.009323255 -0.030966707 0.052165654 0.05334751 0.03246238 0.06507827 0.08130422
-0.02724276 -0.0019416714 -0.066790506 0.028461277 -0.065097876 -0.043139085 -0.050863255 0.022245768
00000000: e109 363d 6cd2 91bd abe5 033d 8605 d1bc
00000010: 448b 89bd eb5b 423c d9d3 0fbd 2930 a5bd
00000020: 2c7f 5c3d 0650 e33c 9a22 503d 00b4 74bd
00000030: a021 483d 0094 54bd 3cf6 68bc 5a6e a43d
00000040: 118d b43b 3a89 71bb a1ca 343d 9671 4ebd
00000050: f91c 91bc 6206 8d3d 50e1 4f3d 4a77 6a3d
00000060: 8144 8f3d 6753 b0bd 1481 7cbc ae3b 99bd
00000070: 5e0a a13b 16fe f43c 7abe 183d d5b8 a13d
00000080: ae83 ed3a 17e2 b33d fb2d afbd 08ef a73c
00000090: 8f69 023d cebd 213d 1a9d 7abd 7a07 6c3d
000000a0: a473 83bd ee96 413d cd49 863d f5c6 a63d
000000b0: 3197 a3bb e76d 2dbd a065 dcbb c2ff a63c
000000c0: 65db f539 02cd bcbc 5ae4 a73d 7c73 233d
000000d0: bac8 aebd c2fe 283d d71c d3bc 10d6 57bd
000000e0: 020f b43b 4839 54bd e3bc 44bd 589f 8ebd
000000f0: 07c4 973d 6dcc 893d 1dfe f9bc 56b9 96bd
00000100: d209 fb3c 629e 4f3c 11c5 223c c4e1 45bd
00000110: 056f 64bc 1cd4 82bd 3ba9 43bd b3f7 2dbd
00000120: d0a8 7e3d 67f3 a63c 471c c8bd d631 bcbb
00000130: 1642 253d 7f8a 80bd c9ee 9b3d dc7e 22bd
00000140: f2a1 b5bd 837f 653c ace6 653d 944d 1cbc
00000150: 1a0d 9a3d 768a 88bd 0b61 1d3c c0c7 9a3b
00000160: b108 603d c0e2 b43d e8aa 3b3d 8edd c0bc
00000170: 8e3b 173d ca22 3b3d c49d 93bb 695c b43d
00000180: be02 aebd 59a8 36bd 5a1e 4c3c b038 adbd
00000190: 0486 8dbd 27de 733d 8e01 dbbb 7899 38bd
000001a0: 2efc a0bd e914 853d 55ca 96bc 3414 873d
000001b0: 3ce0 073c 3d70 583b 638d 273d 5727 413c
000001c0: 9e0e a1bd 91c0 183c e4ad fdbc a7ab 553d
000001d0: eb82 5a3d 46f7 043d c247 853d d482 a63d
000001e0: 352c dfbc ae7f feba 76c9 88bd a027 e93c
000001f0: 0952 85bd 9cb2 30bd fd55 50bd c23c b63c

output_layer.weight f4 [1, 128]
-0.07325943 0.055331312 0.01112867 0.053950254 -0.020694671 -0.069147274 0.055723492 -0.069490425
-0.015792463 -0.05335732 -0.020463593 -0.095802546 0.08258546 -0.09843233 -0.06345555 0.055175662
-0.047509726 -0.076173335 -0.08152359 0.044075973 -0.09939115 0.091328576 -0.011590208 0.026346054
0.014643802 -0.006549857 0.034526564 0.06600553 -0.027663298 -0.10031481 0.02428339 -0.0331436
0.09459715 -0.03578792 -0.03380621 -0.038697436 0.07738841 0.09300971 0.020625276 -0.004401988
0.0951323 0.013486186 0.06308232 0.05257367 -0.031144267 0.059795193 0.03768737 -0.084904276
0.008745208 0.08259191 0.04948029 -0.07285924 0.06550626 0.10514557 0.031975698 -0.05766475
0.038113516 -0.008540454 -0.06802522 -0.11911618 -0.022863442 0.05336599 -0.026901672 0.08899516
-0.0508216 -0.04407928 -0.06657028 -0.033439033 0.020338392 -0.061819162 -0.021613196 -0.040662404
0.040546432 0.09032731 0.017077908 0.06903321 0.10733804 -0.08247746 -0.0615585 -0.002904139
-0.06680178 -0.044209827 -0.04187054 0.07162356 0.071700945 -0.11386959 0.070828564 -0.04761469
-0.01003652 -0.03560743 -0.057658397 0.018090414 0.08011347 -0.02306666 0.00798329 0.031598836
-0.027710615 0.056181975 -0.11721521 -0.08019066 0.018267617 -0.108122386 -0.038859606 -0.07330202
0.024196787 0.019731572 0.070101894 -0.057569336 0.07830214 -0.08197598 0.01567014 -0.0010762729
-0.052732583 0.057428177 0.075247176 -0.006489722 -0.06513749 0.02967484 -0.040605705 0.10502853
0.058585208 -0.06932526 -0.016359594 0.03610754 0.010101764 -0.09001353 -0.058526155 0.0790664
00000000: 0a09 96bd 16a3 623d 0655 363c f1fa 5c3d
00000010: df87 a9bc 169d 8dbd 513e 643d ff50 8ebd
00000020: 325f 81bc 358d 5abd 44a3 a7bc 2034 c4bd
00000030: 9122 a93d e496 c9bd fcf4 81bd e0ff 613d
00000040: 8f99 42bd c400 9cbd d7f5 a6bd 0289 343d
00000050: 968d cbbd 7a0a bb3d dbe4 3dbc aed3 d73c
00000060: 8fec 6f3c 2fa0 d6bb ba6b 0d3d e82d 873d
00000070: 249e e2bc da71 cdbd f6ed c63c 95c1 07bd
00000080: 27bc c13d 5b96 12bd 6178 0abd 3481 1ebd
00000090: d17d 9e3d e07b be3d 57f6 a83c 8d3e 90bb
000000a0: b9d4 c23d 2af5 5c3c 4e31 813d 7d57 573d
000000b0: 4322 ffbc ceeb 743d 125e 1a3d 4be2 adbd
000000c0: 1048 0f3c f325 a93d d8ab 4a3d 3a37 95bd
000000d0: 2528 863d 9056 d73d f3f8 023d df31 6cbd
000000e0: eb1c 1c3d 43ed 0bbc ce50 8bbd 2ff3 f3bd
000000f0: 1d4c bbbc 4c96 5a3d e560 dcbc 1843 b63d
00000100: 4f2a 50bd 7a8c 34bd 0056 88bd 5ef7 08bd
00000110: b39c a63c 1736 7dbd 280e b1bc 9f8d 26bd
00000120: 0414 263d 86fd b83d f8e6 8b3c 4961 8d3d
00000130: 0cd4 db3d f1e9 a8bd c424 7cbd 5e53 3ebb
00000140: 5fcf 88bd 5d15 35bd 7180 2bbd 5faf 923d
00000150: f2d7 923d 7634 e9bd 910e 913d 9f07 43bd
00000160: 3770 24bc 19d9 11bd 362b 6cbd 5932 943c
00000170: 8812 a43d 4bf6 bcbc 58cc 023c c86d 013d
00000180: 5f01 e3bc 121f 663d 870e f0bd 003b a4bd
00000190: f8a5 953c 456f ddbd 402b 1fbd 5f1f 96bd
000001a0: 5738 c63c 1ba4 a13c 9591 8f3d d3cd 6bbd
000001b0: df5c a03d 06e3 a7bd aa5e 803c ba11 8dba
000001c0: 1ffe 57bd cf39 6b3d 311b 9a3d bca7 d4bb
000001d0: ce66 85bd a618 f33c 2b52 26bd 3319 d73d
000001e0: 0bf7 6f3d 67fa 8dbd 8e04 86bc 80e5 133d
000001f0: df81 253c 0359 b8bd 1fb9 6fbd 91ed a13d
