Checkpoints/HR_V/valence_s29.pth (torch, 461905 bytes, 29 tensors)

input_layer.weight f4 [128, 29]
0.06106955 0.057936322 -0.031408414 0.05106804 0.1636148 0.031722512 0.04259003 0.061932117
0.118221894 -0.1653983 0.001658887 0.06453913 0.13594325 0.17210631 0.084479116 0.14079283
-0.12224165 -0.13973518 0.009916351 -0.09251015 0.18127896 -0.110893905 0.16828512 -0.09360364
0.03216899 -0.152701 0.14533432 -0.002486623 0.05385883 0.102978095 -0.15861987 0.05039139
0.16308966 0.037073664 -0.12293991 -0.024566911 0.1825499 -0.034185912 -0.10429458 -0.09152398
-0.07729071 -0.019415896 0.027832106 -0.031242104 -0.09122145 -0.03889643 -0.15651686 0.15523525
0.1584487 -0.122033544 0.09715222 -0.067222215 0.03383772 -0.10206045 -0.15284045 -0.02450228
0.16138183 0.034630895 -0.18715563 0.09766255 -0.11901186 0.0076610097 0.021121373 -0.058552574
0.011110698 -0.11087113 0.07273304 -0.14790541 -0.1837802 0.037536435 0.09633945 0.14544588
-0.14958563 0.02079848 0.15620081 0.09753954 -0.099784926 0.13152555 0.060904562 0.15258324
-0.10228917 0.07539278 -0.042398125 -0.08092847 0.17601126 -0.14705515 0.12076127 -0.06515983
-0.1638226 0.013726087 -0.09588213 -0.043662522 -0.17847861 -0.12339648 0.036796372 0.14608432
0.010343435 -0.028618513 0.005575577 -0.048920095 -0.029324364 -0.14337532 0.029502394 -0.08133767
0.15485567 0.0869967 0.026130445 0.09956437 0.12485563 0.091836415 -0.18197832 0.020619532
0.09708791 0.028145075 0.045388673 -0.12761468 0.1541742 0.062382367 -0.1256568 0.12777929
-0.13646671 -0.15737788 -0.18583785 0.061709534 -0.08402356 0.093499556 0.13527533 -0.0923152
0.12777507 0.12591511 0.016577553 -0.09134691 0.024272885 -0.12370859 -0.03801986 -0.032016747
-0.015319905 -0.051006176 -0.10026693 -0.011269719 -0.03812534 0.051021114 0.053028367 -0.12740707
-0.13688692 0.12066764 -0.08111221 -0.14306246 -0.18449189 -0.17372434 -0.046841264 0.04843109
-0.03513739 0.10091046 0.0025211833 0.14126615 0.022803545 0.16814046 0.12402647 -0.09424313
0.13982208 -0.0054051164 0.123732775 -0.049639143 0.15583882 0.04250231 -0.040319536 -0.0957577
-0.07842699 -0.017419625 0.017905364 0.10729237 -0.040307283 0.090782255 -0.042759866 -0.07877791
-0.07561284 0.15705165 0.02153093 0.0261328 -0.116760485 0.0057862713 0.1254023 -0.054363694
0.11717737 0.13323224 -0.036374837 -0.13113652 -0.16773397 0.053205825 0.07894309 0.17107074
-0.00928627 -0.032516744 0.18177551 -0.08285339 -0.06215271 -0.114901096 0.029846778 0.17472626
-0.15861896 -0.16628174 0.06976013 0.022819282 -0.001936242 0.039471205 -0.034794603 0.013729247
-0.034666315 0.17898509 0.17502189 0.15656006 -0.052505054 -0.15949719 0.11022339 -0.046195142
0.0313182 0.0907597 0.12840234 0.04833171 0.13140978 0.12578383 -0.016126102 -0.11552705
-0.078520596 0.06085885 0.009275508 0.051015314 0.062299144 0.107776366 -0.086903416 0.13139167
-0.084460504 -0.017662685 0.14536297 -0.1066922 0.15948638 -0.18526566 -0.10203157 -0.13455135
0.08170356 -0.018878845 -0.14562878 -0.071983695 -0.08021793 0.17844746 0.095946364 -0.17407572
-0.08403016 0.10561065 -0.096726306 -0.10430151 0.028956767 -0.10089419 -0.028954566 -0.16560599
00000000: 1124 7a3d a34e 6d3d 1ca6 00bd b92c 513d
00000010: a38a 273e 77ef 013d e272 2e3d 88ac 7d3d
00000020: 521e f23d 2c5e 29be 036f d93a 172d 843d
00000030: b534 0b3e a33c 303e 6303 ad3d ff2b 103e
00000040: d559 fabd bd16 0fbe 3178 223c f675 bdbd
00000050: 31a1 393e 581c e3bd ef52 2c3e 44b3 bfbd
00000060: a1c3 033d a75d 1cbe 85d2 143e 9cf6 22bb
00000070: 149b 5c3d 2ee6 d23d 3f6d 22be 3467 4e3d
00000080: fa00 273e 8eda 173d ebc7 fbbd 8c40 c9bc
00000090: 5cee 3a3e 8706 0cbd 6698 d5bd ed70 bbbd
000000a0: 974a 9ebd 160e 9fbc 2800 e43c 71ef ffbc
000000b0: 50d2 babd dd51 1fbd f545 20be fdf5 1e3e
000000c0: 6040 223e b9ec f9bd bef7 c63d cdab 89bd
000000d0: 6c99 0a3d 1205 d1bd 3582 1cbe 01b9 c8bc
000000e0: 4741 253e 20d9 0d3d baa5 3fbe 4e03 c83d
000000f0: 7dbc f3bd 3509 fb3b bb06 ad3c d3d4 6fbd
00000100: a509 363c 6710 e3bd 0ff5 943d 8474 17be
00000110: e030 3cbe cebf 193d 9e4d c53d c4ef 143e
00000120: fa2c 19be 9361 aa3c 1bf3 1f3e cfc2 c73d
00000130: 0a5c ccbd a2ae 063e 1077 793d c83e 1c3e
00000140: fc7c d1bd 8867 9a3d a8a9 2dbd d3bd a5bd
00000150: 4c3c 343e a095 16be af51 f73d 8472 85bd
00000160: 1dc1 27be 62e3 603c da5d c4bd 79d7 32bd
00000170: 19c3 36be 4bb7 fcbd cbb7 163d 2197 153e
00000180: 8377 293c 5f71 eabc 54b3 b63b 7060 48bd
00000190: a639 f0bc fbd0 12be 01af f13c 5d94 a6bd
000001a0: 7c92 1e3e 532b b23d 840f d63c 68e8 cb3d
000001b0: 4fb4 ff3d bb14 bc3d 8658 3abe 4bea a83c
000001c0: 07d6 c63d 8090 e63c 79e9 393d 6cad 02be
000001d0: d7df 1d3e a784 7f3d 2dac 00be 93d8 023e
000001e0: eebd 0bbe ab27 21be 474c 3ebe 23c3 7c3d
000001f0: 8b14 acbd b27c bf3d 9e85 0a3e c00f bdbd
00000200: 78d7 023e e4ef 003e a6cd 873c 1714 bbbd
00000210: eed7 c63c ee5a fdbd b6ba 1bbd fe23 03bd
00000220: 5700 7bbc daeb 50bd c058 cdbd a1a4 38bc
00000230: 5129 1cbd 84fb 503d 4634 593d 0077 02be
00000240: 162c 0cbe 9820 f73d 291e a6bd f77e 12be
00000250: 71eb 3cbe cbe4 31be a0dc 3fbd ae5f 463d
00000260: 39ec 0fbd 25aa ce3d 703a 253b 13a8 103e
00000270: 80ce ba3c 032d 2c3e 9701 fe3d 8b02 c1bd
00000280: 852d 0f3e 671d b1bb 9c67 fd3d 6a52 4bbd
00000290: 3694 1f3e e716 2e3d 1926 25bd 9d1c c4bd
000002a0: 549e a0bd 9ab3 8ebc 45ae 923c 1abc db3d
000002b0: 4019 25bd 0cec b93d f824 2fbd 5056 a1bd
000002c0: e8da 9abd 26d2 203e a261 b03c 7414 d63c
000002d0: 1f20 efbd c39a bd3b 7669 003e 77ac 5ebd
000002e0: b0fa ef3d 086e 083e c8fd 14bd a748 06be
000002f0: 74c2 2bbe 5aee 593d eaac a13d 2b2d 2f3e
00000300: 7025 18bc 4730 05bd 5c23 3a3e 0aaf a9bd
00000310: d793 7ebd 4451 ebbd 3b81 f43c 71eb 323e
00000320: 026d 22be c345 2abe 66de 8e3d 81ef ba3c
00000330: 80c9 fdba 8fac 213d c984 0ebd a3f0 603c
00000340: 44fe 0dbd de47 373e f038 333e 4851 203e
00000350: 8a0f 57bd 3b53 23be cdbc e13d 1e37 3dbd
00000360: 8347 003d 39e0 b93d e77b 033e 79f7 453d
00000370: 4990 063e 7acd 003e e31a 84bc 7299 ecbd
00000380: 68cf a0bd 2147 793d 4df8 173c 6ff5 503d
00000390: 632d 7f3d dbb9 dc3d 6bfa b1bd 8a8b 063e
000003a0: a1f9 acbd 56b1 90bc 08da 143e 7181 dabd
000003b0: 6650 233e 48b6 3dbe eef5 d0bd d4c7 09be
000003c0: 3254 a73d cfa7 9abc b61f 15be 306c 93bd
000003d0: 4c49 a4bd eeba 363e 877f c43d e840 32be
000003e0: 0118 acbd 654a d83d 7118 c6bd 089c d5bd
000003f0: be36 ed3c 9da1 cebd 2032 edbc 9e94 29be

input_layer.bias f4 [128]
0.001480006 0.11813817 -0.069664754 -0.11214325 0.14989305 -0.17701262 0.061536457 0.15359688
0.023807859 0.057819072 0.016336855 0.05427016 -0.094308615 -0.15274161 -0.02172506 0.13798948
-0.05828771 -0.14995915 0.17182848 -0.02318742 0.14282969 0.09007206 -0.034684338 0.055576198
0.12588415 0.0013672933 -0.13558333 0.09899752 0.10542226 0.143533 0.0072624474 -0.0013288616
0.07993464 0.014437802 -0.03905952 -0.15835513 0.12824559 0.053321 0.10638915 -0.037433326
0.012577539 -0.033056583 -0.16482437 0.054152753 0.06785527 0.12083666 -0.14686964 0.114563696
0.0998263 0.06126551 -0.07345232 0.016926503 0.14665657 0.14205708 0.13912533 -0.12102211
0.1124977 0.08415509 -0.0032777528 0.039203715 -0.0631534 0.029556468 0.0034086055 0.12520407
0.024801943 0.032249685 -0.13895746 -0.048480842 -0.0142990155 0.096720085 0.11210221 -0.1128173
0.0021547426 -0.16261813 0.040405396 0.102492325 -0.060167346 0.16598585 0.08172406 0.17129341
-0.11059106 -0.088955574 0.12942146 0.114261374 -0.16007927 0.0058522243 0.042282265 0.17360625
0.0047189617 0.09313467 0.06227153 0.10741819 0.09392246 0.050658047 0.1815542 0.1374591
-0.008640361 -0.17323303 -0.12748484 -0.071356736 0.07248324 0.115210734 0.006118709 0.081747785
0.14346641 -0.1252975 0.07185627 0.17429708 0.09620404 -0.05479162 -0.023630459 -0.024755426
-0.034606513 0.16973574 -0.13409862 -0.120132156 0.15046968 0.04970211 0.1269502 0.10996813
0.16388306 -0.1580829 -0.11457632 -0.1480336 -0.09137349 -0.17550005 -0.023414968 0.091377415
00000000: c3fc c13a 6df2 f13d 65ac 8ebd 5cab e5bd
00000010: 907d 193e cc42 35be a70d 7c3d 8048 1d3e
00000020: b308 c33c b1d3 6c3d ded4 853c 634a 5e3d
00000030: e024 c1bd 4c68 1cbe c1f8 b1bc 1d4d 0d3e
00000040: 18bf 6ebd e48e 19be cef3 2f3e 8bf3 bdbc
00000050: f241 123e b377 b83d 2a11 0ebd dea3 633d
00000060: c6e7 003e c036 b33a 5bd6 0abe 36bf ca3d
00000070: a0e7 d73d 51fa 123e d3f9 ed3b 322d aeba
00000080: c6b4 a33d 888c 6c3c e0fc 1fbd d927 22be
00000090: d052 033e 1f67 5a3d 8ee2 d93d b053 19bd
000000a0: 0612 4e3c 5766 07bd b8c7 28be 47cf 5d3d
000000b0: b4f7 8a3d 3679 f73d ff64 16be 5fa0 ea3d
000000c0: bb71 cc3d 8bf1 7a3d 2c6e 96bd 73a9 8a3c
000000d0: 242d 163e 6977 113e df76 0e3e 71da f7bd
000000e0: 3265 e63d 8159 ac3d 91cf 56bb 1394 203d
000000f0: 9256 81bd 6820 f23c e962 5f3b 7f35 003e
00000100: 722d cb3c 3f18 043d dd4a 0ebe d993 46bd
00000110: 6b46 6abc 2e15 c63d d895 e53d c20c e7bd
00000120: 9536 0d3b 5e85 26be 2180 253d 7fe7 d13d
00000130: 0972 76bd 32f8 293e f25e a73d 8a67 2f3e
00000140: 917d e2bd 572e b6bd 0f87 043e de01 ea3d
00000150: d2eb 23be 04c4 bf3b 2b30 2d3d d6c5 313e
00000160: 85a1 9a3b 64bd be3d 6f10 7f3d 11fe db3d
00000170: 6b5a c03d d07e 4f3d 58e9 393e 14c2 0c3e
00000180: 4d90 0dbc 0064 31be 638b 02be 7b23 92bd
00000190: 1872 943d 9bf3 eb3d 747f c83b 626b a73d
000001a0: dce8 123e fd4d 00be 6129 933d ef7a 323e
000001b0: a006 c53d 2d6d 60bd aa94 c1bc e4cb cabc
000001c0: 8fbf 0dbd 35cf 2d3e 2651 09be d907 f6bd
000001d0: b914 1a3e 7194 4b3d 3cff 013e f936 e13d
000001e0: f6d0 273e 7ce0 21be fda6 eabd 1f96 17be
000001f0: 0622 bbbd 49b6 33be bfd0 bfbc 1524 bb3d

projection_layer.0.weight f4 [128, 128]
0.03411201 -0.07355616 0.06940812 -0.026353642 -0.04682963 -0.010083116 -0.08622669 -0.0682779
-0.038347498 -0.06364443 -0.04679542 0.057528082 0.06692742 -0.040130503 -0.09083548 0.049412124
-0.062108885 0.02153984 0.006318937 -0.0040697996 0.038337447 0.06878465 0.034241643 -0.039086513
0.04200497 0.064923115 0.061740845 0.018280363 0.07370073 -0.023938024 -0.031919546 0.08387301
-0.02044491 0.06072261 0.03629285 -0.0018078743 0.030702878 -0.078164145 -0.00057123805 0.082098976
-0.011779783 -0.06395455 0.013437334 -0.012250874 -0.08410179 -0.049007554 -0.019629797 0.051346164
-0.09022117 -0.018210791 0.023413282 -0.0302579 0.0018791144 0.015810525 -0.06389148 -0.012411969
-0.03211591 0.08408494 0.06624694 0.058044177 0.058572657 -0.03567105 0.014602236 -0.072301224
-0.06590114 -0.06485913 -0.057153508 -0.054620788 -0.044875275 -0.07771271 0.082532346 -0.07291405
0.054615136 -0.04559811 -0.075734414 -0.030673329 -0.0026358252 0.030370627 -0.050853364 0.06398751
0.067534715 0.026868984 0.07333696 -0.037435412 -0.064541176 0.070185736 0.012394483 -0.028404
-0.037688553 -0.014294278 -0.012798771 0.068240665 0.03140519 0.009489996 0.0798412 0.07298128
-0.022740278 0.03048629 0.08372323 -0.027124874 -0.047416825 0.038341552 -0.010213489 0.026468001
-0.061224025 0.058644943 -0.08463112 0.05334219 0.050314788 0.02528411 0.020407887 -0.06581961
-0.044971064 -0.041144468 -0.020940552 0.075745896 -0.0602238 0.03514973 -0.055644214 0.042580333
-0.07355209 0.08147125 0.075603895 0.016633056 0.009606401 0.05228996 0.05831174 0.05605894
-0.012988809 0.055310756 0.07295436 -0.07088704 -0.022739964 0.04741095 0.06453419 -0.06470934
0.08390839 0.054717503 0.007826886 -0.04438149 -0.062458996 0.07031786 -0.011630565 -0.05833026
-0.04381121 -0.055187464 -0.0402662 0.05363846 -0.035128288 -0.011923464 -0.07980888 0.036706824
0.05939443 0.07355757 0.039459012 0.08551567 0.05115157 0.022840874 -0.03560028 0.09136198
0.060603335 -0.017545817 -0.07731475 -0.07487131 -0.030032 0.0069680144 -0.046395306 -0.07061499
0.041079357 0.07047868 0.052831315 -0.0659454 0.06654209 -0.07736309 0.048310645 -0.08087718
-0.08027901 0.043457665 -0.07532174 0.01889392 0.047547523 0.054103293 0.027343962 -0.058674354
-0.041463353 -0.008161343 0.06722953 0.06372639 0.080209255 -0.03613779 -0.07752328 0.004466305
0.0069856225 0.0006845398 0.088040605 -0.027236687 -0.039011613 0.008797654 -0.01651807 -0.034780994
0.027883302 0.008774009 -0.0086527085 -0.06282546 0.015091919 -0.0195414 -0.07113143 -0.05334596
-0.048800293 -0.051790543 -0.024822785 -0.0056338664 -0.06596576 -0.080657735 -0.026475731 0.08476904
-0.036889467 0.034659076 -0.055540375 -0.014092544 0.012128328 -0.018466191 0.06218442 -0.018116347
0.020181641 -0.08639544 -0.06352583 -0.013590483 0.048283692 0.03401886 -0.05101749 -0.044586252
-0.05444121 0.025083315 -0.07870083 -0.0054913987 0.011080617 0.048177626 0.047272272 0.020398578
0.0753319 0.037565436 0.07806027 0.015908383 0.01681779 0.03525322 -0.0724141 -0.041301012
0.065052465 -0.07452642 -0.04584533 0.0029428056 0.010101272 -0.056504864 -0.01167083 0.043333568
00000000: 09b9 0b3d 9da4 96bd d825 8e3d 98e3 d7bc
00000010: 6dd0 3fbd a733 25bc 9e97 b0bd 49d5 8bbd
00000020: 4412 1dbd 0358 82bd 8eac 3fbd 91a2 6b3d
00000030: 3e11 893d e25f 24bd f407 babd 5e64 4a3d
00000040: e365 7ebd 5274 b03c 160f cf3b f45b 85bb
00000050: ba07 1d3d f7de 8c3d f740 0c3d 2e19 20bd
00000060: 670d 2c3d 69f6 843d f8e3 7c3d b3c0 953c
00000070: 69f0 963d ad19 c4bc 12be 02bd 9dc5 ab3d
00000080: 157c a7bc 46b8 783d d0a7 143d 32f6 ecba
00000090: 9a84 fb3c 8614 a0bd 23bf 15ba 8223 a83d
000000a0: feff 40bc 9afa 82bd 4428 5c3c e4b7 48bc
000000b0: 8f3d acbd 25bc 48bd abce a0bc 5b50 523d
000000c0: e0c5 b8bd cc2e 95bc 36cd bf3c 6adf f7bc
000000d0: 9e4c f63a 1385 813c 89d9 82bd 925b 4bbc
000000e0: f98b 03bd ba34 ac3d 7aac 873d bbbf 6d3d
000000f0: e2e9 6f3d cf1b 12bd 383e 6f3c aa12 94bd
00000100: 2df7 86bd ddd4 84bd cc19 6abd 0cba 5fbd
00000110: 23cf 37bd d727 9fbd b806 a93d f653 95bd
00000120: 1fb4 5f3d 15c5 3abd a51a 9bbd a246 fbbc
00000130: cfbd 2cbb d2cb f83c 9e4b 50bd e20b 833d
00000140: a44f 8a3d 581c dc3c b031 963d e055 19bd
00000150: 2a2e 84bd 8abd 8f3d 3b12 4b3c 81af e8bc
00000160: 505f 1abd 8c32 6abc f0b1 51bc c3c1 8b3d
00000170: baa2 003d ee7b 1b3c c883 a33d 3677 953d
00000180: d249 babc 62be f93c 1677 ab3d fc34 debc
00000190: 2538 42bd 080c 1d3d 7a56 27bc 6cd3 d83c
000001a0: 0bc6 7abd ae35 703d 1553 adbd 577d 5a3d
000001b0: e116 4e3d 9f20 cf3c 712e a73c 6fcc 86bd
000001c0: 9433 38bd 1a87 28bd 858b abbc aa20 9b3d
000001d0: 3bad 76bd 2af9 0f3d 30eb 63bd b768 2e3d
000001e0: 7aa2 96bd 66da a63d 37d6 9a3d 0c42 883c
000001f0: 2b64 1d3c ff2d 563d 4bd8 6e3d 0f9e 653d
00000200: 03cf 54bc 888d 623d 1869 953d 392d 91bd
00000210: 2949 babc fc31 423d 802a 843d 5586 84bd
00000220: 29d8 ab3d 761f 603d 573c 003c 5ec9 35bd
00000230: 01d5 7fbd cf02 903d 208e 3ebc b6eb 6ebd
00000240: 6273 33bd 400c 62bd 2cee 24bd 00b4 5b3d
00000250: aee2 0fbd a25a 43bc d772 a3bd e559 163d
00000260: 9347 733d 5aa5 963d c69f 213d d722 af3d
00000270: 4f84 513d c91c bb3c 99d1 11bd fd1b bb3d
00000280: 343b 783d 3fbc 8fbc 3257 9ebd 2156 99bd
00000290: ab05 f6bc f153 e43b 0109 3ebd 989e 90bd
000002a0: d442 283d 2057 903d a665 583d 620e 87bd
000002b0: 3847 883d 8a70 9ebd 62e1 453d efa2 a5bd
000002c0: 5269 a4bd aa00 323d 4942 9abd 6cc7 9a3c
000002d0: 31c1 423d 6a9b 5d3d 7200 e03c 8554 70bd
000002e0: 7ad5 29bd 27b7 05bc a3af 893d fb82 823d
000002f0: c044 a43d 3805 14bd 87c4 9ebd 155a 923b
00000300: a6e7 e43b b072 333a a24e b43d 791f dfbc
00000310: a4ca 1fbd 0924 103c e750 87bc 8476 0ebd
00000320: 866b e43c dcc0 0f3c 17c4 0dbc a3aa 80bd
00000330: 1944 773c 4915 a0bc 5bad 91bd 4b81 5abd
00000340: d1e2 47bd 5222 54bd 2759 cbbc 4c9c b8bb
00000350: 0e19 87bd e22f a5bd a2e3 d8bc 649b ad3d
00000360: 6919 17bd adf6 0d3d 4e7e 63bd 6ae4 66bc
00000370: e5b5 463c 6946 97bc 17b5 7e3d bc68 94bc
00000380: f853 a53c 18f0 b0bd d519 82bd 9eaa 5ebc
00000390: 1fc5 453d 5c57 0b3d b7f7 50bd 13a0 36bd
000003a0: bffd 5ebd 867b cd3c e72d a1bd 31f1 b3bb
000003b0: 7a8b 353c e755 453d 92a0 413d eb1a a73c
000003c0: 9c47 9a3d 37de 193d 10de 9f3d 4c52 823c
000003d0: 76c5 893c ae65 103d d84d 94bd 402b 29bd
000003e0: 3a3a 853d 4fa1 98bd 50c8 3bbd 16dc 403b
000003f0: ce7f 253c a571 67bd 0237 3fbc 8a7e 313d

projection_layer.0.bias f4 [128]
-0.01107669 -0.03134969 0.0673355 0.045544792 -0.014650283 -0.03680977 0.01596118 -0.017714461
0.03521519 0.06293341 0.05998771 0.08370784 -0.053615063 -0.062482648 -0.0032349804 -0.039226573
0.08414178 0.031182675 0.003334109 0.026784297 -0.02214113 -0.048087854 0.03202814 -0.047267564
-0.0740338 -0.009475707 -0.003036366 0.039327085 -0.08338493 -0.039406836 -0.04800731 -0.0027212312
0.08208256 -0.00047472958 -0.052381374 0.039012723 0.0016499395 -0.027835837 -0.0253105 0.05785191
0.013908799 0.019938461 -0.002183798 0.034179226 0.018557973 0.043715417 0.046261907 0.03296683
-0.0681431 0.06632222 0.028725395 0.039106756 -0.032966454 -0.051783152 -0.027277065 0.007452275
0.052946907 -0.06690558 -0.046687298 -0.028867563 0.0046806918 0.058274303 -0.03280874 0.002719198
0.07314896 0.07441988 0.042482402 0.020624336 0.074645005 -0.008670111 0.004073207 0.04642155
-0.010983436 0.025246864 0.040352006 0.018167377 0.008289748 0.07875648 -0.041607805 0.069870755
0.0073101153 -0.05360214 -0.014270823 -0.04074422 -0.0101180915 0.048179768 0.041738953 0.051545244
-0.022399353 -0.02650628 0.02595334 -0.056945097 -0.053506818 0.04019137 -0.044087313 0.07352307
0.010901891 -0.053814813 -0.05074705 0.049725343 -0.047629494 0.035490267 -0.02822468 0.0078775585
-0.068805285 0.011770455 0.0779829 -0.05863221 -0.07797628 0.05551935 0.057356574 0.06301854
0.014814681 0.008962542 -0.049960233 0.06910391 0.058766596 -0.0153386975 0.03529836 0.02678561
0.0822028 0.014808035 -0.016757293 -0.014564456 0.041545026 0.063013904 -0.05154621 0.074234545
00000000: 017b 35bc 8868 00bd 32e7 893d 2d8d 3a3d
00000010: be07 70bc d7c5 16bd 05c1 823c eb1d 91bc
00000020: ce3d 103d 3be3 803d acb5 753d 046f ab3d
00000030: 789b 5bbd ceed 7fbd f701 54bb 0bac 20bd
00000040: 8752 ac3d cf72 ff3c 1181 5a3b be6a db3c
00000050: 5161 b5bc c5f7 44bd f02f 033d a29b 41bd
00000060: 089f 97bd ff3f 1bbc c5fd 46bb 7015 213d
00000070: b8c5 aabd 1069 21bd 50a3 44bd af56 32bb
00000080: e71a a83d 20e5 f8b9 da8d 56bd cecb 1f3d
00000090: c842 d83a fb07 e4bc f757 cfbc 20f6 6c3d
000000a0: bbe1 633c fc55 a33c 0d1e 0fbb 84ff 0b3d
000000b0: e406 983c f00e 333d 207d 3d3d 3a08 073d
000000c0: 9c8e 8bbd f2d3 873d 8551 eb3c 682e 203d
000000d0: d507 07bd 921a 54bd 2774 dfbc 3732 f43b
000000e0: dbde 583d cb05 89bd 2e3b 3fbd ab7b ecbc
000000f0: 7d60 993b 09b1 6e3d 7562 06bd 9234 323b
00000100: 1fcf 953d 7369 983d 0702 2e3d 5ef4 a83c
00000110: 7bdf 983d 150d 0ebc 8978 853b 8624 3e3d
00000120: dff3 33bc 83d2 ce3c 2548 253d c0d3 943c
00000130: b9d1 073c 144b a13d f26c 2abd 6618 8f3d
00000140: b189 ef3b eb8d 5bbd 2cd0 69bc 69e3 26bd
00000150: 5ac6 25bc 2658 453d 77f6 2a3d 1b21 533d
00000160: d97e b7bc b323 d9bc 199c d43c 433f 69bd
00000170: f729 5bbd b59f 243d e694 34bd 4393 963d
00000180: d89d 323c ec6c 5cbd 24dc 4fbd cdac 4b3d
00000190: 2517 43bd 3e5e 113d 7237 e7bc e010 013c
000001a0: c9e9 8cbd ded8 403c 80b5 9f3d 5428 70bd
000001b0: 07b2 9fbd 4268 633d baee 6a3d dd0f 813d
000001c0: 47b9 723c a0d7 123c 1aa3 4cbd 5a86 8d3d
000001d0: 3eb5 703d 294f 7bbc 0395 103d 7f6d db3c
000001e0: f159 a83d 679d 723c 9746 89bc c29f 6ebc
000001f0: 1e2b 2a3d 6f0d 813d 1e22 53bd 4808 983d

projection_layer.1.weight f4 [128]
0.9969803 0.9961349 1.0025572 0.9968158 0.9977616 0.9987933 1.000034 0.99740523
1.0029681 1.0018736 0.9961805 0.996613 0.99673945 0.9990648 0.9985236 0.99757296
0.9978822 1.0024267 0.9969081 0.9961771 0.99842703 1.0026623 0.9996154 1.0030191
0.9994087 0.9967481 0.99687636 1.0005262 0.9999897 0.99716806 0.99690235 1.0023212
0.99923044 0.99690264 0.9988957 1.0017155 0.99798626 0.9990139 0.99608904 1.0004592
0.9964922 1.0012928 0.9976623 0.99666387 1.0024761 1.0019646 0.99950385 0.9983605
0.99803543 1.000759 0.9975921 0.99967813 1.0013922 1.0014335 0.99805635 1.0023233
1.0009102 0.9961181 1.0021646 1.0029024 0.99798113 0.996828 1.0015328 1.001931
0.9995814 0.9970719 0.9994883 1.0006953 0.99669784 0.9963951 0.9964963 1.003141
0.9971688 0.99922436 0.9987189 0.99624103 1.0021843 0.9962379 0.9969439 1.0013211
1.0016136 0.99759346 0.997527 0.9973586 1.0015506 0.99710006 0.99730057 0.99752104
1.0003281 0.9981187 0.9966731 0.9961738 0.9977817 1.0010474 0.9976788 1.0004783
0.9977526 0.99881065 0.9969379 0.9963789 0.99781084 0.9981629 0.99967194 1.0021466
1.0032234 1.0013984 0.9997471 1.0007476 1.0007222 0.9964728 0.99963427 0.9973131
0.9965157 1.0015202 1.0019325 0.99844706 0.9971017 0.9981892 1.0032551 1.0030599
0.9995463 0.99956876 1.0020093 0.9973302 0.9973664 1.0012993 0.9993246 0.9963424
00000000: 1a3a 7f3f b202 7f3f cb53 803f 522f 7f3f
00000010: 4e6d 7f3f ebb0 7f3f 1d01 803f f355 7f3f
00000020: 4261 803f 653d 803f af05 7f3f 0822 7f3f
00000030: 512a 7f3f b6c2 7f3f 3e9f 7f3f f160 7f3f
00000040: 3575 7f3f 854f 803f 5f35 7f3f 7605 7f3f
00000050: ea98 7f3f 3d57 803f cbe6 7f3f ee62 803f
00000060: 40d9 7f3f e22a 7f3f 4a33 7f3f 3e11 803f
00000070: 53ff 7f3f 6846 7f3f fe34 7f3f 104c 803f
00000080: 91cd 7f3f 0335 7f3f a1b7 7f3f 3738 803f
00000090: 077c 7f3f 60bf 7f3f b1ff 7e3f 0c0f 803f
000000a0: 1d1a 7f3f 5d2a 803f cc66 7f3f 5d25 7f3f
000000b0: 2351 803f 6040 803f 7cdf 7f3f 8e94 7f3f
000000c0: 407f 7f3f df18 803f 3262 7f3f e8ea 7f3f
000000d0: 9f2d 803f f92e 803f 9f80 7f3f 214c 803f
000000e0: d31d 803f 9901 7f3f ee46 803f 1b5f 803f
000000f0: b17b 7f3f 1f30 7f3f 3a32 803f 463f 803f
00000100: 91e4 7f3f 1b40 7f3f 77de 7f3f c916 803f
00000110: 9727 7f3f c013 7f3f 621a 7f3f ed66 803f
00000120: 7446 7f3f 2bcd 7f3f 0bac 7f3f a709 7f3f
00000130: 9347 803f 7209 7f3f b737 7f3f 4a2b 803f
00000140: e034 803f 4962 7f3f ee5d 7f3f e552 7f3f
00000150: cf32 803f f341 7f3f 174f 7f3f 8a5d 7f3f
00000160: c00a 803f b584 7f3f f825 7f3f 3f05 7f3f
00000170: 9f6e 7f3f 5222 803f e167 7f3f ac0f 803f
00000180: b76c 7f3f 0eb2 7f3f 5237 7f3f b012 7f3f
00000190: 8870 7f3f 9b87 7f3f 80ea 7f3f 5746 803f
000001a0: a069 803f d32d 803f 6def 7f3f 7f18 803f
000001b0: aa17 803f d718 7f3f 08e8 7f3f e94f 7f3f
000001c0: a71b 7f3f d031 803f 533f 803f 3a9a 7f3f
000001d0: 0f42 7f3f 5489 7f3f aa6a 803f 4464 803f
000001e0: 44e2 7f3f bde3 7f3f d741 803f 0851 7f3f
000001f0: 6853 7f3f 932a 803f bdd3 7f3f 4c10 7f3f

projection_layer.1.bias f4 [128]
-0.0029749637 -0.0035706074 0.0030294382 -0.0024187774 -0.002546577 -0.0008901949 0.0012042607 -0.0024664595
-0.00012322642 0.00205846 -0.0034806714 -0.0030871304 -0.002797224 -0.0008344985 -0.0013290554 -0.0030479764
-0.0022918957 0.0018870024 -0.0020019696 -0.0038329496 -0.001577959 0.0022599264 -0.0010120024 0.0038369177
-0.00095211255 -0.0032631643 -0.0024198152 0.0017679126 -0.00018243329 -0.0030828195 -0.002817563 0.002404563
-0.00040506234 -0.0021883396 -0.0014920833 0.003013878 -0.0015551646 -0.000831195 -0.0038932615 -0.00033288883
-0.0038487685 0.0020145557 -0.002162895 -0.0033491591 0.0028100337 0.002395164 -0.00065537484 -0.0023207045
-0.0028923247 0.001213488 -0.0029153829 0.0013758244 0.0020706295 0.0008636548 -0.0017271888 0.0026541036
0.0012828731 -0.0002175578 0.002343404 0.0025095858 -0.0011350528 -0.0033360273 0.0022461787 0.0022572349
-0.00086812564 -0.0026016056 0.0011569833 0.0012722572 -0.0031175653 -0.0039762566 -0.0026850987 0.0029084412
-0.0031044309 0.0007628711 -0.0019856729 -0.003508905 0.0017882194 -0.0034614718 -0.0033262023 0.0014154469
0.0028495009 -0.0028203656 -0.0027634061 -0.0024692682 0.0023968522 -0.002822684 -0.0006842979 -0.0028305969
0.00028909717 -0.0021862893 -0.003599448 -0.0038620988 -0.002289857 0.00076414883 -0.0013621803 0.002104678
-0.0022641565 -0.0016333943 -0.0031455348 -0.0031160251 -0.0028639 -0.0017385293 0.0006719882 0.002496196
0.0030218943 0.0008251986 0.00070381124 -9.888817e-05 -0.0009918024 -0.0021134464 0.000990004 -0.0033793566
-0.0036770992 0.0023534803 0.001505378 -0.0015149494 -0.0026098252 -0.0012303774 0.0038560717 -0.0031991557
0.00019493142 0.0020761667 0.0016872813 -0.0023208584 -0.0020130274 0.0026509499 -0.001128591 -0.0036077474
00000000: 9cf7 42bb da00 6abb 8a89 463b 5a84 1ebb
00000010: 79e4 26bb f85b 69ba 49d8 9d3a 53a4 21bb
00000020: 5736 01b9 3ae7 063b fa1b 64bb 7451 4abb
00000030: a251 37bb 3fc2 5aba b333 aeba 8fc0 47bb
00000040: a133 16bb 4b55 f73a 7a33 03bb 3932 7bbb
00000050: 85d3 ceba 461b 143b 2aa5 84ba cc74 7b3b
00000060: 3197 79ba d0da 55bb c395 1ebb 4eb9 e73a
00000070: 904b 3fb9 2109 4abb dda6 38bb df95 1d3b
00000080: 8c5e d4b9 3f6a 0fbb 0292 c3ba 7b84 453b
00000090: aad6 cbba 8de4 59ba 1726 7fbb 9587 aeb9
000000a0: 9f3b 7cbb a306 043b 5bbf 0dbb 917d 5bbb
000000b0: 8b28 383b 2ff8 1c3b 76cd 2bba f616 18bb
000000c0: 288d 3dbb e70d 9f3a 0210 3fbb 0255 b43a
000000d0: 66b3 073b e466 623a d762 e2ba 78f0 2d3b
000000e0: 1426 a83a 3a20 64b9 cc93 193b dd77 243b
000000f0: 0dc6 94ba 40a1 5abb a034 133b 1eee 133b
00000100: ed92 63ba b37f 2abb eba5 973a dec1 a63a
00000110: 1150 4cbb 424b 82bb 7bf8 2fbb 8c9b 3e3b
00000120: b573 4bbb 6afb 473a 1022 02bb a8f5 65bb
00000130: b062 ea3a dcd9 62bb 6afc 59bb 8486 b93a
00000140: b1be 3a3b e2d5 38bb 431a 35bb 72d3 21bb
00000150: 8214 1d3b c7fc 38bb 7462 33ba 8981 39bb
00000160: f791 9739 d947 0fbb b7e4 6bbb 441b 7dbb
00000170: 6d11 16bb 2951 483a 308b b2ba a3ee 093b
00000180: 3e62 14bb 9e17 d6ba 5125 4ebb 3a36 4cbb
00000190: 45b0 3bbb 5ddf e3ba 5d28 303a 3897 233b
000001a0: f90a 463b 2452 583a f97f 383a 2f62 cfb8
000001b0: 5eff 81ba bf81 0abb 06c3 813a 3278 5dbb
000001c0: 7dfb 70bb d93c 1a3b 1b50 c53a 4491 c6ba
000001d0: 9a09 2bbb 9d44 a1ba 26b6 7c3b eda8 51bb
000001e0: 8166 4c39 4c10 083b c427 dd3a 8b19 18bb
000001f0: ffec 03bb 8fbb 2d3b 3bed 93ba f56f 6cbb

projection_layer.1.running_mean f4 [128]
-0.036855295 0.0073508346 0.06344017 0.017695252 0.011434236 -0.01642028 -0.00693364 0.010840469
-0.029922 0.024497084 0.0022182893 0.046162926 0.033435963 -0.017572826 -0.04227329 -0.016752291
0.036483496 -0.0016869523 -0.015259609 -0.010985436 -0.05683419 0.04032284 -0.014444711 -0.008565981
-0.0478151 0.013841948 0.001532138 0.012330846 -0.021133628 -0.02108004 -0.021837965 0.0028502315
0.029605165 0.014442273 0.036601573 0.0064580576 0.027754052 0.02938954 -0.018254023 -0.00249994
0.012926912 0.026840491 -0.023285728 0.016599244 0.019971501 -0.033501998 0.015403027 0.014640309
-0.007073591 0.016601723 0.03337415 0.026521366 0.00062800915 -0.056719404 0.01972512 0.021462869
0.002922079 -0.025781237 -0.028738298 -0.005195413 0.0041208677 -0.0032584846 -0.0036338726 -0.0035421615
0.05013076 0.057192225 0.039280772 0.037148878 0.066915326 0.0021004514 0.03238197 -0.013177911
-0.005180218 0.026035313 0.017492395 0.014486101 0.022845043 0.05129115 0.0149911 0.022174802
-0.03535989 0.0032535961 -0.03845719 -0.06442664 0.0041137524 0.02286941 0.012608833 -0.001762241
-0.025571017 -0.021956153 0.029489359 -0.005744802 -0.014961627 -0.0029442275 -0.04352742 0.027267447
0.022770442 -0.027342783 -5.9137445e-05 -0.021492604 0.017943652 -0.0027156477 0.011685192 -0.0029718743
-0.00468829 0.016366037 0.055703163 -0.051487055 -0.051649418 0.024209624 0.012452047 -0.0066585676
-0.006019156 0.046595275 -0.0122015895 0.0065102023 0.0022513692 -0.025234312 0.03808346 0.024899777
0.024278078 -0.028398238 0.025949132 -0.023297045 -0.013235216 0.024551157 -0.04451753 0.018141976
00000000: 94f5 16bd 45df f03b ebec 813d a2f5 903c
00000010: a956 3b3c d383 86bc 9733 e3bb 399c 313c
00000020: fb1e f5bc 1cae c83c b860 113b 5615 3d3d
00000030: 26f4 083d e3f4 8fbc c226 2dbd 1a3c 89bc
00000040: b86f 153d ba1c ddba 7003 7abc 42fc 33bc
00000050: f8ca 68bd 9029 253d 82a9 6cbc 5458 0cbc
00000060: c4d9 43bd 56c9 623c 05d2 c83a 5107 4a3c
00000070: 6e20 adbc 0cb0 acbc 88e5 b2bc f3ca 3a3b
00000080: 8886 f23c 499f 6c3c 88eb 153d 1d9e d33b
00000090: 775c e33c 55c2 f03c 7689 95bc 09d6 23bb
000000a0: 66cb 533c 97e0 db3c b6c1 bebc 23fb 873c
000000b0: 469b a33c 6439 09bd fa5c 7c3c e8dd 6f3c
000000c0: 95c9 e7bb 5600 883c 55b3 083d 5643 d93c
000000d0: fba0 243a 9b52 68bd 9396 a13c e6d2 af3c
000000e0: 5a80 3f3b 2c33 d3bc 946c ebbc 483e aabb
000000f0: 5808 873b 4d8c 55bb 4426 6ebb 9c23 68bb
00000100: e955 4d3d 6542 6a3d e0e4 203d 6c29 183d
00000110: e70a 893d baa7 093b f5a2 043d 2ae8 57bc
00000120: d1be a9bb 0248 d53c 364c 8f3c 1d57 6d3c
00000130: 8725 bb3c ab16 523d 3b9d 753c eea7 b53c
00000140: 88d5 10bd 493a 553b 4985 1dbd 1df2 83bd
00000150: a8cc 863b a158 bb3c 4795 4e3c fffa e6ba
00000160: 4f7a d1bc 64dd b3bc ab93 f13c e43e bcbb
00000170: 9d21 75bc f1f3 40bb cf49 32bd fb5f df3c
00000180: 1489 ba3c f9fd dfbc 590a 78b8 4211 b0bc
00000190: 91fe 923c 02f9 31bb 3f73 3f3c c7c3 42bb
000001a0: 3aa0 99bb 1112 863c 0029 643d 17e4 52bd
000001b0: 578e 53bd 4353 c63c ac03 4c3c 1d30 dabb
000001c0: 573c c5bb b0da 3e3d 2de9 47bc 8953 d53b
000001d0: b58b 133b 30b8 cebc 67fd 1b3d 9efa cb3c
000001e0: d2e2 c63c 6ca3 e8bc 4693 d43c 72d9 bebc
000001f0: 85d8 58bc 821f c93c 0358 36bd 7b9e 943c

projection_layer.1.running_var f4 [128]
0.6935463 0.6905669 0.6993761 0.70128566 0.6934085 0.69067055 0.7181895 0.6768001
0.70663136 0.6758435 0.69261426 0.7098523 0.69968325 0.73533773 0.723824 0.6877603
0.70168126 0.6918609 0.68322164 0.71485204 0.6835511 0.6797704 0.6955903 0.70459646
0.6846598 0.7023128 0.68300676 0.6832666 0.69989574 0.68059236 0.69018745 0.70142585
0.6777745 0.6882244 0.71370775 0.68030465 0.70664793 0.68510723 0.70098627 0.70937854
0.69447756 0.6895922 0.7073232 0.70007986 0.70290786 0.715035 0.68334246 0.6892003
0.6909976 0.68497866 0.690612 0.690855 0.6971815 0.68700206 0.6829318 0.68938714
0.70468104 0.6905163 0.6986638 0.6937493 0.6889621 0.6778788 0.68343437 0.6748232
0.71065927 0.69546545 0.7028471 0.69007915 0.7067191 0.7077101 0.7079563 0.6867988
0.6969546 0.68976504 0.6899156 0.70523137 0.71444887 0.7091753 0.6997732 0.67549884
0.706345 0.70778525 0.6902907 0.6834538 0.6794774 0.70223117 0.7119363 0.6924655
0.6812968 0.6949309 0.7000234 0.7044391 0.69451857 0.6986436 0.6857637 0.7095793
0.686508 0.6989802 0.68736595 0.6913898 0.68179286 0.69847053 0.69569063 0.73005545
0.6953718 0.7177797 0.6899132 0.7002907 0.68802124 0.6890601 0.6882681 0.68551993
0.68672055 0.6784831 0.71060425 0.6830824 0.68672484 0.68690217 0.71511245 0.6672141
0.6877023 0.6916077 0.7066132 0.7412468 0.68088883 0.69333655 0.6884725 0.6993952
00000000: 408c 313f fec8 303f 500a 333f 7587 333f
00000010: 3883 313f c9cf 303f 44db 373f c542 2d3f
00000020: cbe5 343f 1404 2d3f 2b4f 313f e1b8 353f
00000030: 711e 333f 183f 3c3f 884c 393f 0f11 303f
00000040: 62a1 333f cc1d 313f 9de7 2e3f 8b00 373f
00000050: 34fd 2e3f 6f05 2e3f 3512 323f 6f60 343f
00000060: dd45 2f3f c6ca 333f 88d9 2e3f 8fea 2e3f
00000070: 5e2c 333f 4d3b 2e3f 20b0 303f a590 333f
00000080: a182 2d3f 792f 303f 8db5 363f 7228 2e3f
00000090: e1e6 343f 3063 2f3f d673 333f d599 353f
000000a0: 48c9 313f 1d89 303f 2213 353f 6f38 333f
000000b0: c5f1 333f 890c 373f 88ef 2e3f 6e6f 303f
000000c0: 38e5 303f c35a 2f3f f3cb 303f e0db 303f
000000d0: 7d7a 323f 5edf 2f3f 9ed4 2e3f ad7b 303f
000000e0: fa65 343f adc5 303f a1db 323f 8e99 313f
000000f0: d25f 303f 7789 2d3f 8ef5 2e3f 37c1 2c3f
00000100: c4ed 353f 060a 323f caed 333f 07a9 303f
00000110: 8beb 343f 7d2c 353f a03c 353f 0cd2 2f3f
00000120: 9e6b 323f 7194 303f 4f9e 303f 0b8a 343f
00000130: 1fe6 363f 838c 353f 5624 333f 7eed 2c3f
00000140: 07d3 343f 6a31 353f e4b6 303f d4f6 2e3f
00000150: 3bf2 2d3f 6cc5 333f 7541 363f 6b45 313f
00000160: 7869 2e3f fee6 313f bc34 333f 1f56 343f
00000170: f8cb 313f 4fda 323f 368e 2f3f fda6 353f
00000180: fdbe 2f3f 5ef0 323f 37f7 2f3f ecfe 303f
00000190: fa89 2e3f f7ce 323f c818 323f eae4 3a3f
000001a0: e303 323f 69c0 373f 279e 303f 4046 333f
000001b0: 2922 303f 3e66 303f 5732 303f 3c7e 2f3f
000001c0: ebcc 2f3f 12b1 2d3f 29ea 353f 7dde 2e3f
000001d0: 33cd 2f3f d2d8 2f3f 9c11 373f 8bce 2a3f
000001e0: 420d 303f 340d 313f 9ae4 343f 5ac2 3d3f
000001f0: bb4e 2e3f 817e 313f bc3f 303f 900b 333f

projection_layer.4.weight f4 [128, 128]
-0.06487241 -0.015141994 -0.08119876 -0.08249374 -0.05786269 -0.055114564 0.005116108 -0.06953719
-0.012004459 0.050396893 -0.04019011 0.06181497 -0.061414126 -0.03537741 0.06992937 0.04384836
0.014413774 0.04707641 0.056701336 -0.060962163 -0.023773067 0.009226014 -0.07918002 0.038633488
-0.078291506 0.08074823 0.032745004 0.041494694 0.06836092 -0.078264564 -0.043207742 -0.07948016
-0.010109221 0.064245656 -0.046916485 0.032765336 0.002608737 -0.02297456 0.0829672 0.028072648
-0.08193801 -0.029474014 0.07920114 -0.07903561 0.08847802 0.0049970653 0.051444594 -0.06921973
-0.0008413481 0.05173169 -0.07861814 0.058612153 0.06490113 -0.0058216522 -0.08584126 0.015863385
-0.049502574 -0.0018104652 0.08183122 -0.047709648 0.022965355 0.042698912 -0.04077698 0.070662126
-0.073009975 -0.05749548 0.0062232465 0.0057436884 -0.08483083 -0.0052802656 -0.04171639 7.306138e-05
0.057480462 -0.079080105 -0.0022283765 -0.020399386 -0.07330294 -0.011696077 0.06810866 0.00083140744
0.0029612016 -0.03497517 0.065023586 0.08479706 -0.064051114 0.022821961 0.023009954 -0.06534017
0.08708467 0.025710836 0.07828057 0.023249842 -0.0025944836 -0.0032345823 0.030062275 -0.06431394
-0.040120773 0.07372262 0.08839545 -0.07237776 -0.07513434 0.016377723 -0.018307177 0.0863495
0.02203652 0.01504458 -0.039989542 -0.015683413 0.06358108 0.08613968 -0.050458327 0.06283729
0.054005787 0.015562623 -0.0058620824 -0.07907484 -0.06747551 -0.049952034 -0.066163816 0.021496084
-0.06559107 0.04081724 0.007825975 0.06336332 0.049301427 0.07901944 0.053875297 0.00076070597
0.0002541421 0.07715888 -0.01858634 -0.085939616 -0.0051020538 -0.07642169 0.027960697 -0.06930618
-0.050237536 0.080934815 0.035308667 -0.059407197 -0.03399916 0.0728354 -0.011447648 0.05950119
-0.047219437 -0.035748024 -0.07379714 0.06015357 -0.044096787 0.08334534 -0.08538727 -0.015359337
-0.00035590056 -0.04178992 -0.007944686 -0.047572393 0.044461586 -0.0302264 -0.009996064 -0.0061692907
0.02334089 -0.0076140603 0.057512585 -0.021181885 -0.081805564 -0.03766468 -0.0155322505 -0.035613365
-0.07497565 0.033956707 0.036253795 -0.05216655 -0.06608629 0.04836068 -0.0507421 0.043092765
0.04587121 0.07466613 0.06644174 -0.044960905 0.004345433 0.005268327 -0.06696307 0.07008004
0.067274794 0.013256533 -0.014954046 0.070576005 -0.08101416 0.017882165 0.024667658 0.044412166
-0.05392565 -0.0030446227 0.08186661 0.059818123 0.047135368 -0.04181651 -0.032317124 0.017637003
-0.051060993 -0.041329592 -0.03245116 0.007417254 -0.0042787082 0.013631476 -0.02994569 0.004220819
0.069689445 -0.010170775 -0.04438158 -0.029922523 -0.0106531195 0.01644133 0.058620512 0.07395609
0.0412025 -0.043679148 -0.029709388 0.013458927 -0.08165044 0.0026570929 -0.08937814 0.0064054877
-0.0896148 0.03688203 0.046847984 -0.051334526 -0.041142274 0.07073859 -0.046567585 0.07368391
0.0049551036 -0.03265257 0.08301165 -0.06462589 0.041120324 -0.027773142 -0.043704793 0.032565482
-0.029172836 0.0034597656 -0.05691334 0.039806124 0.0351665 0.08307219 0.06860835 0.05948938
-0.036848377 0.079465345 -0.083356075 -0.04217794 -0.042237565 0.056538258 0.003998362 0.007000128
00000000: d3db 84bd 2016 78bc 894b a6bd 7af2 a8bd
00000010: 6e01 6dbd cfbf 61bd 06a5 a73b 8469 8ebd
00000020: 5aae 44bc f96c 4e3d 639e 24bd b231 7d3d
00000030: 618d 7bbd e7e7 10bd 2137 8f3d 579a 333d
00000040: c027 6c3c 32d3 403d a93f 683d 76b3 79bd
00000050: bcbf c2bc b528 173c 2229 a2bd 263e 1e3d
00000060: 4c57 a0bd 545f a53d a01f 063d 57f6 293d
00000070: cf00 8c3d 2c49 a0bd 9afa 30bd 7ec6 a2bd
00000080: 25a1 25bc 3a93 833d 802b 40bd f234 063d
00000090: 58f7 2a3b 2535 bcbc b5ea a93d 9cf8 e53c
000000a0: 1ecf a7bd 7d73 f1bc 3534 a23d 6cdd a1bd
000000b0: f733 b53d 6cbe a33b 91b7 523d 13c3 8dbd
000000c0: ea8d 5cba 9ce4 533d 8c02 a1bd 4c13 703d
000000d0: e2ea 843d 8fc3 bebb 8bcd afbd eef3 813c
000000e0: 36c3 4abd 224d edba 2097 a73d 316b 43bd
000000f0: d721 bc3c 0ee5 2e3d c305 27bd 4eb7 903d
00000100: 4186 95bd 6180 6bbd 60ec cb3b 8d35 bc3b
00000110: c9bb adbd 1406 adbb cede 2abd 8838 9938
00000120: a270 6b3d c0f4 a1bd f409 12bb 9d1c a7bc
00000130: da1f 96bd e7a0 3fbc 8e7c 8b3d cff2 593a
00000140: b810 423b 2042 0fbd 162b 853d 15aa ad3d
00000150: 3b2d 83bd 1ff5 ba3c 5f7f bc3c 11d1 85bd
00000160: 7359 b23d 889f d23c 9051 a03d 7476 be3c
00000170: 3608 2abb 49fb 53bb 2945 f63c 07b7 83bd
00000180: ae55 24bd e3fb 963d ac08 b53d cb3a 94bd
00000190: 08e0 99bd 932a 863c eff8 95bc 02d8 b03d
000001a0: ef85 b43c 8b7d 763c 13cc 23bd 807a 80bc
000001b0: cc36 823d 006a b03d 64ad 4ebd d6b0 803d
000001c0: 2c35 5d3d 5ffa 7e3c b616 c0bb fdf1 a1bd
000001d0: 9a30 8abd 819a 4cbd e580 87bd 8e18 b03c
000001e0: 9c54 86bd fa2f 273d 8538 003c a1c4 813d
000001f0: 4bf0 493d f2d4 a13d 58ac 5c3d 1d6a 473a
00000200: 603e 8539 7a05 9e3d 6142 98bc 1c01 b0bd
00000210: 212f a7bb fa82 9cbd d50d e53c 66f0 8dbd
00000220: e0c5 4dbd 27c1 a53d d29f 103d f654 73bd
00000230: b442 0bbd ba2a 953d ea8e 3bbc 85b7 733d
00000240: 2b69 41bd 856c 12bd f422 97bd 9763 763d
00000250: d59e 34bd f6b0 aa3d 85df aebd bba5 7bbc
00000260: 2a98 bab9 e82b 2bbd 6e2a 02bc 45db 42bd
00000270: 5a1d 363d 5b9d f7bc 88c6 23bc c327 cabb
00000280: 6535 bf3c 5e7f f9bb 5192 6b3d a285 adbc
00000290: ad89 a7bd 4846 1abd fb7a 7ebc 52df 11bd
000002a0: d58c 99bd 3016 0b3d dc7e 143d 98ac 55bd
000002b0: 4058 87bd d915 463d f3d6 4fbd 0a82 303d
000002c0: 73e3 3b3d 8eea 983d 9b12 883d ed28 38bd
000002d0: 2264 8e3b eea1 ac3b ef23 89bd 2086 8f3d
000002e0: 5ec7 893d ee31 593c d101 75bc 278a 903d
000002f0: c0ea a5bd 9e7d 923c d413 ca3c 88e9 353d
00000300: 24e1 5cbd 4b88 47bb aea9 a73d d903 753d
00000310: 0411 413d ca47 2bbd f65e 04bd 7a7b 903c
00000320: 5525 51bd 3849 29bd 82eb 04bd 700c f33b
00000330: 6834 8cbb 8e56 5f3c aa50 f5bc cc4e 8a3b
00000340: 57b9 8e3d 52a3 26bc 76c9 35bd 1420 f5bc
00000350: 6c8a 2ebc f8af 863c 101c 703d 4a76 973d
00000360: f4c3 283d e8e8 32bd 1a61 f3bc d582 5c3c
00000370: 5938 a7bd 9f22 2e3b e30b b7bd 20e5 d13b
00000380: f787 b7bd 9d11 173d ace3 3f3d 2744 52bd
00000390: cd84 28bd 65df 903d a7bd 3ebd 97e7 963d
000003a0: 6c5e a23b b4be 05bd 0302 aa3d 945a 84bd
000003b0: c96d 283d 8084 e3bc cc03 33bd 6263 053d
000003c0: dffb eebc 3cbd 623b f61d 69bd bf0b 233d
000003d0: bf0a 103d c121 aa3d 8982 8c3d 23ab 733d
000003e0: 53ee 16bd babe a23d 97b6 aabd c7c2 2cbd
000003f0: 4c01 2dbd a994 673d b104 833b 5461 e53b

projection_layer.4.bias f4 [128]
-0.0072975545 -0.0043015745 0.037555993 -0.015422758 -0.08708565 -0.031878505 -0.052665513 -0.06581936
0.062231533 -0.04510031 -0.070003636 -0.04108095 -0.032238003 0.011951258 -0.048210066 0.046819575
-0.03183244 -0.031522937 0.073741496 0.07757872 0.075487465 -0.05145737 -0.05427637 0.040149596
0.023610454 0.03556832 0.0077280174 0.07111633 0.075209275 0.0066838525 0.061420735 -0.01828174
0.043969706 0.02732603 0.023293259 0.08525322 0.08145985 0.06689425 -0.054915544 0.07907247
0.02752964 -0.06737511 -0.08280889 -0.003522273 -0.05356496 0.012498489 0.032037634 0.08861987
0.0015728278 0.052720293 0.028327 0.029440694 -0.07150374 -0.00862801 0.07356719 -0.03368594
-0.06587373 0.04313596 -0.0376876 0.058503468 0.035471004 0.065671094 -0.017547116 -0.068329096
0.07671192 0.060258053 0.0267513 -0.04273226 0.03473642 0.076290496 0.024214674 -0.013558938
0.030888328 -0.064718634 0.061338305 0.07576283 -0.04876614 -0.05692894 0.027513897 -0.026672082
-0.0015111408 0.060032085 -0.029542534 -0.06774671 -0.034108374 0.075937726 0.05545026 -0.0064553213
-0.05460349 -0.05852806 0.008321384 -0.0027253004 0.048054125 0.060889233 -0.023964928 0.0035090437
0.055533852 0.05126994 0.07313672 -0.024932977 -0.013682623 -0.0040020132 0.015052435 -0.028385185
-0.05281036 -0.0178032 0.07198307 0.039294437 -0.037176125 -0.06629483 -0.062131647 0.022468649
0.060555886 -0.022355985 0.011679662 0.08083352 0.082386084 -0.0016073597 -0.034125067 -0.08281492
0.05889305 -0.03118713 -0.066449605 -0.002775744 -0.0058943923 -0.019385653 0.0387296 0.07355853
00000000: 5320 efbb 39f4 8cbb 50d4 193d bcaf 7cbc
00000010: f659 b2bd 0993 02bd cbb7 57bd 4dcc 86bd
00000020: 7ee6 7e3d 1abb 38bd 115e 8fbd 8044 28bd
00000030: ff0b 04bd 36cf 433c eb77 45bd e2c5 3f3d
00000040: bc62 02bd 321e 01bd c805 973d 98e1 9e3d
00000050: 2c99 9a3d f7c4 52bd e650 5ebd e773 243d
00000060: b66a c13c 16b0 113d 4f3b fd3b 70a5 913d
00000070: 5207 9a3d 3804 db3b 4f94 7b3d 96c3 95bc
00000080: 9419 343d d7da df3c 81d1 be3c 3d99 ae3d
00000090: 6cd4 a63d daff 883d 1fef 60bd bff0 a13d
000000a0: d785 e13c f6fb 89bd b597 a9bd efd5 66bb
000000b0: ee66 5bbd 76c6 4c3c e539 033d 567e b53d
000000c0: 5827 ce3a 3cf1 573d 060e e83c 9c2d f13c
000000d0: 8e70 92bd 7f5c 0dbc 65aa 963d 45fa 09bd
000000e0: cee8 86bd 55af 303d 505e 1abd 55a1 6f3d
000000f0: 0b4a 113d 917e 863d f8be 8fbc 20f0 8bbd
00000100: 241b 9d3d 26d1 763d 8b25 db3c 0608 2fbd
00000110: c747 0e3d 313e 9c3d da5d c63c 4f26 5ebc
00000120: 8509 fd3c 348b 84bd e03d 7b3d 8b29 9b3d
00000130: 01bf 47bd 522e 69bd d364 e13c 697f dabc
00000140: 7911 c6ba 34e4 753d 2f03 f2bc c9be 8abd
00000150: 39b5 0bbd 3d85 9b3d d01f 633d 2987 d3bb
00000160: e9a7 5fbd 1ebb 6fbd 6a56 083c f49a 32bb
00000170: 67d4 443d fd66 793d 1952 c4bc fcf7 653b
00000180: 7777 633d 6e00 523d b4c8 953d 3e40 ccbc
00000190: 152d 60bc 5223 83bb 7d9e 763c 0c88 e8bc
000001a0: ad4f 58bd 04d8 91bc dc6b 933d 34f3 203d
000001b0: fe45 18bd 95c5 87bd c17d 7ebd 2c10 b83c
000001c0: 7309 783d e623 b7bc 0e5c 3f3c 0b8c a53d
000001d0: 09ba a83d 0bae d2ba bac6 0bbd de9a a9bd
000001e0: d739 713d 277c ffbc bb16 88bd 42e9 35bb
000001f0: bf25 c1bb a9ce 9ebc eea2 1e3d dba5 963d

output_layer.weight f4 [1, 128]
0.08268291 0.028196534 -0.0071868426 -0.04792876 0.01231508 -0.06524142 -0.016939929 0.003473492
-0.084675916 -0.07373418 -0.05360359 0.061707888 -0.030710978 -0.038913812 0.006574556 -0.043297656
-0.015625741 -0.0009701668 0.0736233 0.0539413 -0.039666813 0.038074605 0.05599402 -0.07644318
0.056180716 0.033921808 0.08000318 0.011415246 0.06361305 -0.017807541 0.052352846 -0.07460497
-0.023850696 0.05171554 0.053428724 0.049971413 -0.027464412 -0.050405577 -0.07138123 0.07112998
0.04851882 0.06748337 -0.084074795 0.0066562113 0.046185058 -0.0050595812 0.052532896 0.036984462
0.056674987 0.010424139 -0.08314043 0.016284456 0.050882004 -0.06847105 -0.08448592 0.08123747
-0.07010788 -0.004887948 0.048481338 0.052572608 0.07423146 0.021913307 0.03560365 0.00495088
0.07654885 -0.082275 0.032123093 -0.03776026 0.05328146 -0.033371054 -0.0028620448 -0.028943209
0.085279524 -0.07847508 -0.06798426 0.0010349064 0.0068518203 0.008206932 -0.020291498 -0.020289944
-0.057022385 -0.038584147 -0.026204366 -0.06331675 0.043914486 0.03460198 0.017236466 0.07965682
-0.08527137 0.0015340348 0.07173678 -0.025986472 -0.05888665 -0.043155823 0.061249096 -0.063338704
-0.071542755 0.0015241902 -0.056050614 -0.018090367 -0.009023148 -0.054970447 0.009011894 -0.08575867
0.04780722 -0.043210767 0.081355564 -0.041699726 -0.05973671 0.031998653 -0.08445559 -0.016992733
0.052256808 -0.049458276 -0.006423416 0.049682245 -0.03611508 -0.026539015 -0.023154858 0.06579445
0.015867958 -0.08184776 0.049332134 0.00086809 -0.058699314 -0.018116347 -0.029632082 -0.049406257
00000000: a855 a93d 6bfc e63c 9b7f ebbb f350 44bd
00000010: 30c5 493c 4b9d 85bd 9bc5 8abc 87a3 633b
00000020: 916a adbd f201 97bd 708f 5bbd 69c1 7c3d
00000030: 9795 fbbc 1764 1fbd 606f d73b e258 31bd
00000040: 8e01 80bc cb52 7eba d0c7 963d 8df1 5c3d
00000050: ab79 22bd 1ef4 1b3d fc59 653d 3e8e 9cbd
00000060: c01d 663d 98f1 0a3d b5d8 a33d 0307 3b3c
00000070: 8f47 823d 1fe1 91bc f06f 563d 7eca 98bd
00000080: 8962 c3bc add3 533d 14d8 5a3d d3ae 4c3d
00000090: 0cfd e0bc 1476 4ebd 5330 92bd 98ac 913d
000000a0: acbb 463d b934 8a3d 682f acbd 591c da3b
000000b0: 8b2c 3d3d d8ca a5bb bc2c 573d 057d 173d
000000c0: 0824 683d 02ca 2a3c 8845 aabd fb66 853c
000000d0: a669 503d 8d3a 8cbd f406 adbd d55f a63d
000000e0: b894 8fbd 142b a0bb 5e94 463d 6056 573d
000000f0: aa06 983d 8983 b33c 22d5 113d fe3a a23b
00000100: a5c5 9c3d cc7f a8bd 8193 033d 81aa 1abd
00000110: a93d 5a3d 16b0 08bd 2591 3bbb 4f1a edbc
00000120: 08a7 ae3d 8bb7 a0bd 553b 8bbd b2a5 873a
00000130: 3c85 e03b 5e76 063c 5b3a a6bc 1937 a6bc
00000140: 4e90 69bd 690a 1ebd 8aaa d6bc 36ac 81bd
00000150: addf 333d ceba 0d3d 7d33 8d3c 1d23 a33d
00000160: c2a2 aebd ab11 c93a bcea 923d 95e1 d4bc
00000170: 2133 71bd 29c4 30bd 55e0 7a3d b9b7 81bd
00000180: 0285 92bd 56c7 c73a 5495 65bd 4032 94bc
00000190: d3d5 13bc b128 61bd a0a6 133c 3ea2 afbd
000001a0: 81d1 433d c6fd 30bd bf9d a63d 55cd 2abd
000001b0: 7bae 74bd 0511 033d 0df7 acbd 5834 8bbc
000001c0: 3c0b 563d c394 4abd 857b d2bb 9c7f 4b3d
000001d0: 68ed 13bd 5968 d9bc 42af bdbc 3ebf 863d
000001e0: 85fd 813c cc9f a7bd 7e10 4a3d 8990 633a
000001f0: b16e 70bd bc68 94bc fbbe f2bc 375e 4abd
