Checkpoints/HR_V/valence_s08.pth (torch, 461905 bytes, 29 tensors)

input_layer.weight f4 [128, 29]
00000000: 75e4 c63d 682a 54bd 31d8 113e a605 073e
00000010: 83b7 c33d ebab 7bbd a07e 8dbd a32e bb3d
00000020: 807b 3c3e e174 313e 8d2a 09be 70c7 1c3e
00000030: dbd7 b53d 76e5 6fb9 bdc7 22be 7b75 583d
00000040: 5dc7 25be 753e 313e 371d f73d 8e81 89bd
00000050: d044 a5bd 0aa2 1cbc c374 4b3d aa86 80bd
00000060: 9995 24be f9f5 26be c44a cebc e5a1 903d
00000070: 4bd4 9dbd 1642 3fbe 02a9 f4bd e621 ee3d
00000080: e7d0 803d a7cc 573d 5d65 01be 13a4 453d
00000090: 0548 8d3d b838 3f3e fc3a 0cbe 12f8 75bd
000000a0: f3f2 723d fb36 1cbd 841d 23be d69f ac3c
000000b0: cf43 efbd afc1 1b3e aee6 8c3d 2833 1d3e
000000c0: 8ce0 2fbe 5723 0bbd b343 04be e79b 8e3d
000000d0: a6a6 d3bd aa60 cb3d f78a c03d 502a 1abe
000000e0: 2ab4 a8bd cc7f f1bd 5819 253d d9c2 11be
000000f0: 5536 eb3c 0503 0ebe 0b7b d4bd 28c7 efbd
00000100: ea79 e03d 4b35 393e 171e d43d db92 163e
00000110: 3b1c 07be b668 213e a197 833d 8eea 283e
00000120: 606b b53d ec70 41bc 5bb5 f1bd 8698 37be
00000130: 42d7 253e 1e76 113e 4b5d 183e 4b2d 213e
00000140: 8908 7ebd 95cd 1f3e b7b1 263d 78c3 3e3e
00000150: 20f5 1bbe ee88 e63c 18fe 31be c1ab a4bd
00000160: be0b e5bc 87bb 23be 6db1 8cbd ba54 b43c
00000170: acf7 ce3d 38dc 18be 1f21 273e a898 e03b
00000180: 48a2 503d 2fde fa3d 40da ce3d 24c7 713d
00000190: 9a58 b33d 89e0 2b3b 3ca2 e93c 0cc7 3cbe
000001a0: 63b0 10be 5906 073c 943a 913d 56f1 193d
000001b0: ca6e 3e3e 4f82 053e 7eef 0e3c 3e78 2cbe
000001c0: 3f9a 11be c40e 233c df5e c13d 6bfa 28be
000001d0: 2054 96bd d1b3 27bd 00c0 14be d041 343e
000001e0: 33ab d8bc feee 1e3d 580b 243e 4a2d c2bd
000001f0: 77b7 9cbd 4ce9 cc3d d9a9 b83d 412c 25bd
00000200: 0e0a 06be f166 c73d 4987 183e 5bc1 e13d
00000210: b3f2 cdbd 9e4c 9d3d 4ae9 cfbd 55a8 143d
00000220: ca19 883b 744d 3e3e 8bd2 0d3e 6261 85bd
00000230: 3a20 1bbe 4596 a2bd 9d6a 08bd 976d 253e
00000240: 1ac1 bebd 0d78 f9bd d0d5 a2bd 789f 36be
00000250: d0cf ffbd 82eb 163d 5137 a33d f7fe 213e
00000260: 5d9e 62bd 7493 c1bd 63fe 37be 1178 05bc
00000270: b7b4 29be a060 91bc 3a99 3cbe 8b04 5a3c
00000280: 9dbb 24bd 3a7a 223e b96c a53d 6720 9abd
00000290: 7a14 3bbe 18e8 11be 3c9c 86bc 1fac eebc
000002a0: 64d6 013d 47c3 0cbe 0ebd 7dbd 20c5 093d
000002b0: ab9b cfbc bce8 7bbd f06e 873c 3954 003e
000002c0: e98f ee3d 2d69 3e3c 1bb7 00bd 5a05 c53d
000002d0: 184b eabd 2ec4 333e 61b5 983d 42ed 493d
000002e0: 0860 1a3e b01f 79bc 6c2b 3ebc e0fd 15be
000002f0: eef4 87bd 0e70 eebd 9a3e e63d 238e 213e
00000300: 1c9f f8bd 9eb5 5bbd 7464 11bd 4097 c33d
00000310: d4fd 30be 6cc6 3a3e 94f0 563c dd90 19be
00000320: 9b8d 44bd 7de5 d3bd 1019 33bd b643 273e
00000330: d9c0 f63b d8ad 1cbd c239 35be 1de7 a6bc
00000340: 4cd3 28be 948f d73c e490 1fbe 2990 1e3e
00000350: 9d9f 8a3d d809 19be 33e6 243e b198 1dbe
00000360: 80e5 efbd 6500 45bd 921e 04be ef0b a2bd
00000370: 3be9 b0bd 1e09 ef3d d73c 34be a807 31be
00000380: 6a21 373e 7030 033d c90e 30be 490b 813d
00000390: 61f9 86bd 6fe2 ebba 7ce1 0cbe 2670 e93d
000003a0: 213a 63bd 56b7 2f3e 3af7 233e 0b58 e2bd
000003b0: 8bb6 383d 2154 32be 5554 1b3e 3801 343e
000003c0: d080 2b3e acf9 143e 1d14 0e3d 44e9 05bd
000003d0: e701 4ebc bf33 c6bc a76e a93d a3fd 0d3d
000003e0: 1251 48bc c170 053d 0ddc 093e ce42 49bc
000003f0: 168d cebd ac86 e0bd 7d9e 863d 6752 f03d
0.097115435 -0.051798254 0.14242627 0.13185748 0.095564865 -0.06144325 -0.069089174 0.091397546
0.18406487 0.17329742 -0.13395138 0.15310454 0.08879062 -0.00022878297 -0.15896507 0.052846413
-0.16189332 0.17308982 0.12066119 -0.06714164 -0.080697656 -0.0095601175 0.0496719 -0.06275685
-0.16072692 -0.16304769 -0.025182135 0.07062129 -0.07706507 -0.18677554 -0.11946298 0.11627559
0.06289845 0.052685406 -0.12636323 0.048252176 0.06898502 0.1867398 -0.13694376 -0.06005103
0.059313726 -0.03813837 -0.15929228 0.02107231 -0.11682855 0.15210603 0.06879936 0.15351546
-0.17175502 -0.03396925 -0.1291645 0.0696333 -0.1033452 0.099305466 0.094015054 -0.15055203
-0.082374886 -0.117919534 0.040307373 -0.14234485 0.028712431 -0.1386834 -0.10375031 -0.11707908
0.10960753 0.18086736 0.10357302 0.14704458 -0.13194363 0.157626 0.06425405 0.16495726
0.08858371 -0.011806708 -0.11802169 -0.17929277 0.16195396 0.14205214 0.14879338 0.15739934
-0.06201986 0.15605767 0.040696826 0.18629253 -0.15230227 0.028141465 -0.17382085 -0.08040572
-0.0279597 -0.15989505 -0.06869779 0.022013057 0.101058334 -0.14927757 0.16321228 0.0068541355
0.050936013 0.122494094 0.10100222 0.059027806 0.08757134 0.0026226363 0.028519742 -0.18435305
-0.14129786 0.0082412595 0.07091251 0.03758367 0.1859695 0.1303799 0.008724092 -0.16842744
-0.14218996 0.009952251 0.09441923 -0.16501777 -0.07340264 -0.04094297 -0.14526367 0.1760323
-0.026448822 0.03880214 0.16019952 -0.094812945 -0.07652181 0.10005435 0.09016771 -0.040325407
-0.13089773 0.097364314 0.14895357 0.11023208 -0.10056057 0.07680629 -0.10151918 0.036293346
0.004153465 0.18584234 0.13849847 -0.06512715 -0.15149012 -0.07938818 -0.0333048 0.16155086
-0.09314175 -0.12181101 -0.07950938 -0.1783427 -0.12490809 0.03684569 0.07969535 0.15819918
-0.05532681 -0.094519526 -0.17968135 -0.008146302 -0.16572843 -0.01774627 -0.18417826 0.013306747
-0.040217984 0.15866938 0.08077378 -0.075257115 -0.1826953 -0.14248693 -0.01643192 -0.029134808
0.0316986 -0.13746367 -0.061947875 0.03363526 -0.025342783 -0.06150125 0.016532391 0.12532128
0.116485424 0.011621756 -0.031424623 0.09620161 -0.11440104 0.17555305 0.0745647 0.049298532
0.15075696 -0.015205309 -0.011607032 -0.14647627 -0.066385135 -0.116424665 0.11242409 0.15776877
-0.12139723 -0.05364 -0.03549619 0.09550333 -0.17284328 0.18239754 0.013118882 -0.14996667
-0.047986608 -0.10346506 -0.043725073 0.16334423 0.0075303135 -0.038251728 -0.17697814 -0.020373875
-0.16486853 0.02631358 -0.15582615 0.1548468 0.06768725 -0.14945161 0.16103439 -0.15390278
-0.117136955 -0.04809608 -0.12902287 -0.079124324 -0.08638235 0.11671661 -0.17601334 -0.17288077
0.1788384 0.032028615 -0.1719314 0.063009806 -0.06590534 -0.001799656 -0.1375789 0.11398344
-0.055475358 0.17159781 0.16012278 -0.11051949 0.04509596 -0.17414905 0.15168889 0.1757859
0.16748357 0.14548367 0.03468715 -0.032693163 -0.012573696 -0.024194596 0.082730584 0.034665715
-0.01222636 0.032578234 0.13462849 -0.012283994 -0.10085504 -0.109631866 0.06573198 0.11734467

input_layer.bias f4 [128]
00000000: 1445 9e3c da52 893d b5a2 383e 66a0 66bc
00000010: 6e80 423d 9a2f 353e ca3d 103e 3fb5 7f3d
00000020: b4b2 02be 9b50 e43d 932c 35be 6098 91bd
00000030: ad12 48ba 0842 22be 8fad e1bd 8cbb 07be
00000040: 1650 893b 55d0 f4bd 40e7 b0bc 60ea d6bd
00000050: 428f a7bd 6a39 103e b974 dc3d ef75 29be
00000060: c07f 233e 94a0 ae3d cfc0 573d ecc5 f23d
00000070: b8e5 c2bc 132e 19be 34ab 913d dca7 53bd
00000080: 2a42 3b3d 7b63 0e3e a6d2 093e b751 29be
00000090: c78c 33be 8418 c63d 26e9 0ebe 25fa a9bd
000000a0: 93f5 b83a 2bd4 2e3e 00f4 fdbd e14c 073e
000000b0: d2f1 913d 0719 21be bb76 243e 8aa3 8e3d
000000c0: e5b8 103e 1a0a 303d a1c7 dd3d 1859 fa3d
000000d0: d364 d5b9 dc3d 41bd 14ce 8f3d 4a4a 983d
000000e0: 749d 563d 4895 943d 55ab fe3d 1095 0f3e
000000f0: ae25 d53d d45c 26be e416 04be 9566 27bc
00000100: 9d8c 263d aa96 0abe 6d91 303e fb49 303c
00000110: c9a3 ffbd 9574 2c3e 67d4 58bd a7b2 c93a
00000120: 016f abbd 65c1 073e 8dce 69bd 4987 283d
00000130: 8da0 02bc 7c06 e03d 03c7 d23d 9be1 e5bc
00000140: 4d79 fd3c 67e3 25be 77d3 d63d 1c50 563b
00000150: 102b 0ebe b968 15be 2652 ad3d 481d e33d
00000160: 7800 0b3e 5187 21be 462a ea3d 7b54 e3bd
00000170: 96cf 283c d458 f3bd fc6b 48bd 8285 c73c
00000180: aed0 20bd 3968 f93d 7627 3abe 5b93 13be
00000190: 715e 2dbe 9efb 223e d40d 0fbd 2d3f c8bc
000001a0: 52ed 973d 0f01 553d c0e5 cb3d 06d3 2abe
000001b0: 325b 04bd fa2d 233c fa22 2c3e 9927 90bd
000001c0: 22d7 d73d b35d 033e b714 37be ed9d 2dbe
000001d0: 729e bbbd aac8 d9bd 5c6b 5c3d b4e3 053e
000001e0: 075a 1f3e 9051 d03d baae c53d 2310 23be
000001f0: 3098 c93d 4c0e 49bc 9afc 2dbe 47d4 e33c
0.019320048 0.06705256 0.18030818 -0.014076328 0.04748576 0.1769394 0.1408607 0.06242871
-0.12763482 0.11148187 -0.17692785 -0.07109141 -0.00076321774 -0.15845501 -0.11019432 -0.13255137
0.004190455 -0.11953799 -0.021594644 -0.10493922 -0.08181621 0.14084402 0.107644506 -0.16548894
0.15966702 0.085267216 0.05267411 0.11854157 -0.023791179 -0.14958982 0.071127325 -0.051673755
0.045717396 0.13905136 0.13459262 -0.16535078 -0.17534171 0.09672645 -0.13956127 -0.082996644
0.0014111273 0.17073123 -0.12400055 0.1321292 0.07126202 -0.15732203 0.16060917 0.06964786
0.14133032 0.042978384 0.10829092 0.122240245 -0.00040701646 -0.047178134 0.07021728 0.074360445
0.052396253 0.07255036 0.12435023 0.14021707 0.104075775 -0.16246349 -0.12899357 -0.010217329
0.040661443 -0.13534036 0.17242976 0.010759826 -0.124824114 0.16841348 -0.052936938 0.0015388326
-0.08370782 0.13257368 -0.057081748 0.041144643 -0.007972849 0.10938737 0.10291865 -0.028061679
0.03094163 -0.16200028 0.104895525 0.0032701558 -0.13883615 -0.1459073 0.08462934 0.11089569
0.13574398 -0.15774275 0.11433844 -0.11100098 0.010303399 -0.11882177 -0.048931107 0.024355654
-0.039261512 0.12178082 -0.18179116 -0.1441168 -0.16930558 0.15916297 -0.034925297 -0.024444187
0.07418312 0.052002963 0.09955931 -0.16682062 -0.032313533 0.009959692 0.16810217 -0.07038803
0.1053908 0.12828712 -0.17878996 -0.16954775 -0.091610804 -0.10633977 0.053813323 0.13075143
0.15561686 0.10171807 0.09652467 -0.15924124 0.098434806 -0.012271475 -0.16990891 0.027811183

projection_layer.0.weight f4 [128, 128]
00000000: 13b5 9e3c 3474 593c 497e 04bd c449 a83d
00000010: d7a4 bf36 5d92 db3c 84cc 243b 53d3 8c3c
00000020: ddfc 323d aaab 83bd 814b 2f3d cf7e 71bd
00000030: 331b b5bd 1244 68bd d1aa dc3c 0bb3 cb3c
00000040: 76be 703d 80d8 a6bc 5107 93bd c7e5 683c
00000050: fcf5 8dbc a78a a93d 091e b83c be42 f83c
00000060: da62 a0bd d438 dcbc 050d 8cbd e722 df3c
00000070: a98a 05bd 14bf 833c f55b a93d 8a74 59bd
00000080: 512e 57bd 6de4 8fbb f632 9fbd ec3a ad3d
00000090: 2c0d fe3c 9fd0 fd3a 7623 a9bc 9368 de3c
000000a0: 9bd7 cabc 7e96 5cbd 007b 4d3d 9348 4dbd
000000b0: 42eb 72bd 4b85 63bd 9676 d0bb 8719 93bd
000000c0: 5d09 2c3c b549 6ebd a110 76bb fc87 d73b
000000d0: 9c0c 33bd 1ac7 2c3b 6f49 a03c 6be1 933c
000000e0: 2603 76bd 2206 9b3d d723 8b3c c3a5 8fbd
000000f0: 953f 963d 6b1e 3c3d 194e 92bd e259 b0bd
00000100: 43d9 8dbd 04a9 d2bc 0c35 1abd 670e 6bbd
00000110: 886a 9d3c 8ed5 83bc e162 313d 16c2 61bc
00000120: 837c 2c3d 8709 313d bbb7 a03d 134f acbd
00000130: 73af 15bc 9873 1dbd e2a0 ee3b 8106 92bd
00000140: 7816 a9ba efb9 2ebd e30c 68bd c02f 96bd
00000150: 2836 82bd 0530 5bbd 099c 6dbd c406 003d
00000160: a14a 553d 5935 fa3c d2aa e33c a4f4 fb3c
00000170: d757 9d3c 928d 83bd c8ef 3a3d e9ba 79bd
00000180: 4acd bbbb 9efb 153c 507b bc3a 18bf 27bd
00000190: 5e56 a3bd 4e04 093c a26c 883d 559b b2bd
000001a0: 8aec 6abd 9843 03bd 9e56 86bd b1a6 a9bd
000001b0: 4fc1 a3bd 08c8 893c 6063 92bd 0dd7 1bbd
000001c0: cccd c7bc cd2d aebb 0cd0 9bbd d54f 9fbd
000001d0: b72b b9bc 8c8a c93c 4ac2 893d f8d6 953d
000001e0: 611f 8e3d 7066 963c 8590 7f3d 4c62 72bb
000001f0: 461a c6bc cd17 6c3d 1b56 b5b9 720c 6e3d
00000200: 28bb fb3c 8fa5 4e3d cc6d 473d 410d bfbb
00000210: af0d 96bd d108 67bd c597 9e3d a200 173c
00000220: e1d4 183d ee24 433d 310c a43d 18ac 4bbd
00000230: e971 1bbd 1ab4 9abd c101 7e3d 04b8 aebd
00000240: be8b 903d dc67 c9bb cd49 6b3c 24ef 74bd
00000250: 8174 afbd eeeb 7c3d 52b2 1e3d a858 a53d
00000260: 6c1e 433d 8be9 883d dff6 adbd 9b24 05bc
00000270: d095 aebc e01f 643c 654c 48bb 98b3 2f3d
00000280: 4aaa 27bd 67bb 5e3c 79a3 ba3d dd4b 833d
00000290: f8bc 92bd f1e3 b2bb 2f9b 7a3d 23c0 ab3d
000002a0: 0944 493a 419f 0f3c a706 f0bc 8ac3 ac3d
000002b0: 15fb dd3a 4e80 973d 8d78 903d 988c 933d
000002c0: 6de1 f3bb 980a 8d3d 2893 813d 7547 12bd
000002d0: fdbb 083d 5e4a afbd 782b 74bc 94f3 223d
000002e0: b943 aabd 44bc 713b 0961 15bd 73a2 70bd
000002f0: 1a9c 30bd f7e1 92bd 2bf0 95bd 581b 0dbd
00000300: 6397 edbc a2e6 903d 5547 d1bc adb7 7c3d
00000310: 7c71 bb3c 893a 40bd 1dd2 6bbd e7db 61bd
00000320: 3892 ff39 f9a4 9cbc 3eb7 a23c d937 8e3c
00000330: a2c3 0cbd fd9e 1f3a 2761 2a3c 0ad8 b9bd
00000340: 3d7a c53c 71d0 cbbc 273f 92bc fc98 7d3c
00000350: 5fb6 243d a6e7 54bc 5ad6 7abd d06c 17bd
00000360: 34e2 bf3b abfe 75bd 9ebc 20bc d8e0 e73c
00000370: 4d4d 7b3d 4ba1 39bd 43d6 973d 97d1 0d3c
00000380: 853f 18bd 9c36 993c c5e0 f63c 3613 90bc
00000390: 7373 a23d 57f8 973d c33a 9bbd 57ac 29bd
000003a0: d9fe 9ebd fad3 b4bc 69af 743d 2bd7 643d
000003b0: 4b5e 80bd adba 153d d14f 65bd ff51 7a3d
000003c0: 9f6d 0fbd 49e6 6d3d cf62 99bb 208b 8cbd
000003d0: 1f17 0cbd b913 fbba 7252 9c3d b88b af3a
000003e0: 8c66 183d 561d 97bd 0463 e5bb 5f9e 533d
000003f0: b873 083d d7d0 acbd 0b25 aebd 2c0b e03c
0.019373452 0.013272334 -0.032346997 0.08217195 5.7114335e-06 0.02680319 0.0025146315 0.017190611
0.04369818 -0.06429227 0.042796616 -0.058958825 -0.088430785 -0.056705542 0.02693692 0.024865648
0.058775388 -0.020366907 -0.0717913 0.014214939 -0.017329209 0.08278399 0.02247526 0.030305263
-0.078313544 -0.026882567 -0.06838421 0.027238322 -0.03260294 0.016082324 0.082694925 -0.053089656
-0.052534405 -0.004391244 -0.07773392 0.08458504 0.03101214 0.0019364542 -0.020646792 0.027149474
-0.024761012 -0.053854458 0.05016613 -0.05011804 -0.05930639 -0.05554704 -0.006361793 -0.07182603
0.010500279 -0.05817576 -0.0037546533 0.00657749 -0.043713197 0.002636379 0.019566266 0.018051824
-0.060061596 0.07569529 0.016984863 -0.070140384 0.07336346 0.045927446 -0.07143802 -0.08610894
-0.06926205 -0.025715359 -0.037648246 -0.057386782 0.019215837 -0.016093042 0.04330719 -0.013779184
0.04211093 0.043221977 0.07847544 -0.0841352 -0.009136069 -0.038440317 0.0072823623 -0.07130147
-0.0012900373 -0.04265779 -0.056652915 -0.07333326 -0.06357986 -0.053512592 -0.058010135 0.031256452
0.052073125 0.030543016 0.027791414 0.030756302 0.019206924 -0.06423487 0.04563883 -0.060969267
-0.0057312595 0.0091542285 0.0014380012 -0.040953726 -0.079754576 0.008362843 0.06661345 -0.087210335
-0.057354487 -0.032046884 -0.0655949 -0.08283747 -0.07995855 0.016819015 -0.071478605 -0.038046885
-0.024390124 -0.0053155185 -0.07608041 -0.077788986 -0.022603853 0.024602197 0.06726511 0.07316393
0.06939579 0.018359393 0.062393684 -0.003698486 -0.02418245 0.057639886 -0.00034587164 0.058117338
0.030728891 0.050450858 0.048688695 -0.0058304374 -0.07326829 -0.056404892 0.077437915 0.0092164595
0.037312392 0.04764264 0.08010138 -0.04972467 -0.03795043 -0.07553883 0.06201339 -0.08531192
0.07057904 -0.006146414 0.014360857 -0.059798375 -0.08567143 0.061748438 0.03874428 0.080735505
0.047636434 0.0668517 -0.084943525 -0.008126403 -0.02131167 0.013923615 -0.0030563113 0.042895883
-0.040933885 0.013594485 0.09113211 0.06410954 -0.07164949 -0.0054593016 0.06118315 0.083862565
0.00076776795 0.008765996 -0.029300047 0.084357336 0.001693579 0.07397519 0.07054243 0.072045505
-0.0074426443 0.06886786 0.06326896 -0.035712678 0.033382405 -0.08559106 -0.014902942 0.039783075
-0.08313698 0.0036885897 -0.036469493 -0.058748674 -0.04311762 -0.071720056 -0.07321199 -0.034449905
-0.02900285 0.0707524 -0.02554671 0.061698604 0.022881262 -0.046930823 -0.057573427 -0.055141356
0.00048746332 -0.019121634 0.019862767 0.017360615 -0.034366257 0.000608906 0.0103991395 -0.09074409
0.02410614 -0.024879666 -0.017852379 0.015478369 0.040212985 -0.012994682 -0.061239578 -0.036969006
0.005855823 -0.060057323 -0.009810595 0.028305456 0.061353017 -0.045319837 0.07413914 0.008655927
-0.037169952 0.018702798 0.030136475 -0.017587285 0.079321764 0.07420414 -0.07579567 -0.04142412
-0.07763452 -0.022073735 0.059737597 0.055869263 -0.06267985 0.03655498 -0.055984322 0.061113354
-0.035016652 0.058080945 -0.0046809684 -0.068624735 -0.034201737 -0.0019155658 0.07632913 0.001339308
0.03720717 -0.07378642 -0.007000329 0.051664706 0.033313483 -0.084382705 -0.08503159 0.027349077

projection_layer.0.bias f4 [128]
00000000: c9c6 55bd b788 c33b fc48 943c 3fe4 5b3c
00000010: 5801 db3c c3e9 bd3c 1e41 1f3d 4666 3a3d
00000020: 093e 00bd 9c49 94bb 511e 09bd 0dde 24bc
00000030: 69ec 9fbd 3c9d ff3b d9e6 22bc 6c62 4dbd
00000040: f04f f83c 284c a73d 6022 013c 7152 303c
00000050: b2d2 603d d16c 5c3c 2876 473d 3570 ef3c
00000060: 1e5d 36bd b1fb 10bd e9f4 803d 8756 efbc
00000070: 5795 563d 77c8 01bc de01 e6bc 47fc 9c3d
00000080: 4d79 343a d0ab 883d 4bc0 8b3d accb b83c
00000090: 097e 693d d78f 67bd a7cb 973d 8d44 25bd
000000a0: e2b9 743d d4bb 6dbd c019 a0bd 024f 0b3d
000000b0: 35d5 3e3d f866 d33b 04bb 89bd 9582 1fbd
000000c0: 5887 ac3d 9f04 0cbd 2f4a 8c3d 792c aabd
000000d0: 2b13 a13d ba02 ecba cced 88bd fc64 83bd
000000e0: f857 1abd 9bbf 533d 239e b93c 7d06 0dbd
000000f0: 673f 01bd ecd0 963d 8817 a23c 733d 9fbd
00000100: 344e 553c d434 b13c 7ab8 bdbc cb38 22bd
00000110: e90a 94bd 6f67 8c3c 4996 d9bc c5d4 64bc
00000120: 58ce 35b9 7cf8 24bc 831f f0bc 9d00 5fbd
00000130: cd50 d8bb be91 51bd 6981 5a3c ca08 a4bd
00000140: aac6 29bb 861f 883d d9b7 813d 7c52 7b3d
00000150: 3912 6abd f610 8c3d dc49 973d 2555 413d
00000160: 0936 0fbd be7c 363d 6f51 99bd 0992 93bd
00000170: eddb 8935 0ec8 7fbd 927d 7dbd 9605 9c3c
00000180: a031 493d c7f8 e93c 9fd4 86bb 0050 92bd
00000190: 7e47 a5bd 7c40 813c 0993 14bc 5680 713d
000001a0: 5a3f 143d 12d7 7f3d c5af 313d 36d6 42bd
000001b0: 7930 15bd c747 c03c 3d5e 72bd 91d4 4e3d
000001c0: 80d0 bc3c abc3 62bd a0d1 07bc 7bbb b0bc
000001d0: 3780 8bbd 8908 823d 6f63 0e3c 9fb1 853d
000001e0: a1e2 44bd fe1d 3b3d 323a 1a3d 3a75 893d
000001f0: ee82 923d 3d4b 983d 058b 4e3d d783 8c3d
-0.05219153 0.0059672254 0.018101208 0.013421117 0.02673404 0.023182755 0.03888046 0.04550769
-0.03130916 -0.0045253765 -0.033476178 -0.010062707 -0.078087635 0.007800726 -0.009942734 -0.05014269
0.030311555 0.081688225 0.007881731 0.010761843 0.054888435 0.013453678 0.048696667 0.02922831
-0.044522397 -0.03539628 0.06296713 -0.029216064 0.052388515 -0.00792133 -0.028077062 0.076653056
0.00068845303 0.06673396 0.06823786 0.022558056 0.057004962 -0.05653366 0.074118905 -0.04034858
0.059747584 -0.058040455 -0.078174114 0.034010895 0.04659005 0.006451484 -0.067251235 -0.038942892
0.08424252 -0.034184095 0.06850087 -0.08309264 0.07864984 -0.0018006184 -0.06685981 -0.064157456
-0.03768155 0.0516964 0.022658413 -0.034430016 -0.031554606 0.073640674 0.019786611 -0.077753924
0.013019133 0.021631636 -0.023159254 -0.039604943 -0.072286434 0.017139165 -0.02656092 -0.013966744
-0.00017338374 -0.010069009 -0.029311901 -0.054443944 -0.006601429 -0.05116438 0.013336518 -0.08009489
-0.0025905767 0.066466376 0.06333894 0.06135796 -0.057146285 0.068391725 0.073871344 0.04720034
-0.03496364 0.044552557 -0.07486235 -0.07205588 1.0271302e-06 -0.062446646 -0.06188733 0.019045632
0.04911959 0.02856101 -0.004114702 -0.07144165 -0.08070277 0.015777819 -0.009068259 0.05896028
0.03619323 0.062460966 0.043380518 -0.04756757 -0.03642318 0.023471726 -0.059171904 0.050495688
0.02304864 -0.055362385 -0.008289725 -0.021573773 -0.068115644 0.06349284 0.008690699 0.06528019
-0.048067693 0.0456829 0.037653156 0.06711812 0.07153879 0.074362256 0.050425548 0.06861084

projection_layer.1.weight f4 [128]
00000000: 3758 803f 950a 7f3f 7391 7f3f 5c6a 803f
00000010: 221e 7f3f 3816 7f3f 5914 7f3f ef09 7f3f
00000020: 5848 803f 1124 7f3f 7e2f 803f d063 7f3f
00000030: d634 7f3f 5d7b 7f3f 53be 7f3f b4fb 7e3f
00000040: 013e 803f ea27 803f 3175 803f 6224 7f3f
00000050: 99fe 7e3f d336 803f 6423 803f 5d11 7f3f
00000060: 7ff6 7f3f 440d 803f 0e85 7f3f 047d 7f3f
00000070: 452a 7f3f 5063 803f 8851 7f3f 8dc0 7f3f
00000080: 7923 7f3f b965 803f 807a 803f 8b4c 7f3f
00000090: 8c42 803f fe58 7f3f 0907 803f 10df 7f3f
000000a0: c1d1 7f3f b318 7f3f c309 7f3f ebee 7f3f
000000b0: 21b8 7f3f e007 803f 5318 803f bbc0 7f3f
000000c0: 9473 803f 9b27 803f c195 7f3f a525 803f
000000d0: f01d 803f cc5d 803f 570b 7f3f 7e7e 7f3f
000000e0: e4bd 7f3f 651b 7f3f c7a8 7f3f 5752 7f3f
000000f0: df57 7f3f 4628 803f 4843 7f3f 5a0d 803f
00000100: bd13 803f db20 7f3f 0616 7f3f 4be5 7f3f
00000110: 2649 7f3f 5707 803f ef2e 7f3f ef9c 7f3f
00000120: f870 803f 5829 803f 7c91 7f3f fb19 7f3f
00000130: c44c 803f 86bd 7f3f 440e 7f3f 3484 7f3f
00000140: 358c 7f3f 7726 803f afd6 7f3f 3653 803f
00000150: 6f3b 7f3f 3347 803f 7336 7f3f b259 7f3f
00000160: e5dc 7f3f f1e6 7f3f 2692 7f3f fc03 7f3f
00000170: 1f4f 7f3f 964d 7f3f bbd8 7f3f a201 803f
00000180: b871 7f3f 2339 7f3f f75e 803f 2905 803f
00000190: e7fe 7f3f b950 803f 28e8 7f3f 1f06 7f3f
000001a0: 6238 7f3f 537e 7f3f e66c 803f d812 7f3f
000001b0: 42e1 7f3f 0088 7f3f 7810 803f 790d 7f3f
000001c0: 136d 803f e54b 7f3f 15f4 7f3f bd75 803f
000001d0: a43d 7f3f f312 803f cb8d 7f3f 2acf 7f3f
000001e0: 7b0d 803f a026 803f 7162 7f3f a910 803f
000001f0: 10fe 7e3f f995 7f3f d757 803f 67d3 7f3f
1.0026921 0.9962552 0.9983131 1.0032458 0.99655354 0.9964328 0.99640423 0.9962453
1.0022078 0.9966441 1.0014493 0.99761677 0.99689996 0.9979761 0.99899787 0.9960282
1.0018922 1.0012181 1.0035764 0.9966489 0.99607235 1.0016731 1.00108 0.9963587
0.999855 1.0004048 0.998124 0.99800134 0.99673873 1.0030308 0.9973378 0.99903184
0.996635 1.0031043 1.0037384 0.9972617 1.0020308 0.99745166 1.0002147 0.9994974
0.99929434 0.99647063 0.9962427 0.99973935 0.99890333 1.0002403 1.0007423 0.9990346
1.0035272 1.0012087 0.9983788 1.0011488 1.0009136 1.0028625 0.9962668 0.99802387
0.99899125 0.99651176 0.9986691 0.99735016 0.99743456 1.001229 0.9971204 1.0004075
1.0006024 0.9965951 0.9964298 0.9995925 0.9972099 1.000224 0.9968099 0.99848837
1.0034475 1.0012617 0.99831367 0.9964902 1.0023427 0.99898565 0.9963114 0.998111
0.99823314 1.0011739 0.99936956 1.0025394 0.99700063 1.0021728 0.9969246 0.9974624
0.99946433 0.99961764 0.9983238 0.99615455 0.99730104 0.9972776 0.9994008 1.0000498
0.99782896 0.9969656 1.0028981 1.0001575 0.99998325 1.0024635 0.9996362 0.99618715
0.9969541 0.9980213 1.0033233 0.9963813 0.9995309 0.99816895 1.0005026 0.9962993
1.0033287 0.9972518 0.99981815 1.0035931 0.9970343 1.0005783 0.99825734 0.9992548
1.0004114 1.0011787 0.99759585 1.0005084 0.9960642 0.99838215 1.0026807 0.9993195

projection_layer.1.bias f4 [128]
00000000: b12b 613b a0a4 45bb 90af b5b9 366a 793b
00000010: daac 40ba fe52 81ba f4a7 30bb 0980 5ebb
00000020: ddb4 e23a b3a7 52bb 2166 c93a f48a fdba
00000030: 78ec 66bb efb9 89ba 0e35 34ba acd4 72bb
00000040: 8f85 a33a 1343 bd3a 14bd 283a e313 5dbb
00000050: b903 203b 600b a93a acea d939 01e1 8aba
00000060: 969c 6db9 98d5 1b3b 8b90 683b 2769 3dbb
00000070: f88d 6d38 0e80 213b b28e 17bb b5c0 22bb
00000080: 2922 a0ba 240a 5e3b b841 803b 6ccf 59bb
00000090: 3f11 203b 2a06 4cbb a2d2 c239 6adb f0b9
000000a0: 144c edb9 08dd 7139 aa2c 46ba ae0c 01bb
000000b0: 971c 02bb 3b11 013b 30c8 22bb 0101 a6b9
000000c0: 14c0 1d3b 8790 143b df70 c9ba ba21 a23a
000000d0: 4009 89ba 6f3b 2fb9 c3e5 1cbb c21d acba
000000e0: 4e1d 8cba b477 74bb dc28 c4ba 5aa7 74bb
000000f0: 4765 2fbb 18e8 673b 0b75 f3ba 370b 2a3a
00000100: f360 12ba 35c4 27bb 92e3 14bb 9e35 ac3a
00000110: a256 52bb 3ea1 05bb c430 49bb cf2b 9fba
00000120: 10e0 4f3b 2423 883a de06 8aba 4d3e acb9
00000130: 7f92 413b 496e 3cba 6c5f 54bb 077c 2abb
00000140: f1de c3ba 8e07 be39 cec8 17ba f6a2 303b
00000150: 8621 1bbb d4e7 1a3b 054f 7fbb 073b bc37
00000160: 1633 0d3b 0dd0 133a 5ec6 23bb 4b3b 06bb
00000170: 878a 46bb 9190 72ba bb6e 36bb e32e 983a
00000180: d827 b4ba 98db 55bb e905 563a d0f4 3fba
00000190: 80be a9ba 46fe cc3a 2f08 fbb7 596d 5fbb
000001a0: e431 2abb 1ad1 42ba 5ff4 3b3a 30e7 71bb
000001b0: faaa 63ba d159 32bb d416 893a abd3 5ebb
000001c0: 8a13 333b 83bd c0ba 9e5d 363a 0c6c 6a3b
000001d0: d422 c4b9 66b4 f1b9 c4d5 4ebb 23ed 343b
000001e0: 5883 0ebb 2327 333b 0ce8 b9b9 a8d6 a5ba
000001f0: 18f8 47bb f76d f0b9 630a baba dcce cfba
0.0034358317 -0.0030157939 -0.00034653815 0.0038057691 -0.00073499756 -0.0009866653 -0.0026955577 -0.0033950827
0.0017296333 -0.0032143414 0.001536552 -0.001934378 -0.0035236161 -0.0010507683 -0.0006874361 -0.0037053032
0.0012475717 0.0014439545 0.0006436866 -0.0033733777 0.0024416281 0.0012897067 0.0004156431 -0.0010595621
-0.00022660414 0.0023778435 0.0035486545 -0.0028901787 5.6637422e-05 0.0024642977 -0.0023125825 -0.00248341
-0.0012217212 0.0033880556 0.0039140843 -0.0033235205 0.0024424342 -0.0031131604 0.00037159497 -0.00045939843
-0.00045260845 0.00023065892 -0.0007559756 -0.0019691396 -0.0019853467 0.0019694108 -0.002483856 -0.00031662735
0.0024070786 0.0022669153 -0.0015368721 0.001236967 -0.0010455027 -0.00016711441 -0.002394066 -0.0013131427
-0.0010689886 -0.0037302794 -0.001496579 -0.0037331195 -0.0026763247 0.0035386141 -0.001857431 0.00064866565
-0.00055839046 -0.0025599126 -0.002271865 0.0013138538 -0.0032095094 -0.0020390297 -0.0030699233 -0.0012143793
0.0031719245 0.0010386449 -0.0010530611 -0.00032852814 0.0029536781 -0.00071880646 -0.0032405509 -0.0026013867
-0.0014943761 0.00036245253 -0.0005790115 0.00269526 -0.0023671105 0.0023636715 -0.0038957011 2.2438833e-05
0.0021545342 0.0005638607 -0.0024990062 -0.0020482119 -0.003029497 -0.00092531095 -0.0027836997 0.0011610653
-0.0013744785 -0.0032632109 0.0008164333 -0.00073225517 -0.001295045 0.0015639744 -2.9925342e-05 -0.0034092276
-0.0025969679 -0.0007431671 0.0007169898 -0.003691148 -0.000868484 -0.002721418 0.0010459074 -0.0034000676
0.0027324879 -0.0014704916 0.0006956699 0.0035769967 -0.00037409982 -0.0004610151 -0.003156052 0.0027607165
-0.0021745767 0.002733656 -0.00035458838 -0.0012652474 -0.0030512866 -0.00045858297 -0.0014193769 -0.0015854496

projection_layer.1.running_mean f4 [128]
00000000: 1198 2cbc be37 063d b291 0dbc 9d0f 6a3c
00000010: 7a88 66bc 568e c83c 37b3 70bc f86a 973c
00000020: de10 2bbc f53a beba 83af e539 b7cd f53c
00000030: a5d5 b4bb 707b 973c e958 df3b e980 5dbc
00000040: d7b3 0f3c 5110 353d 78d4 b33c 7029 953b
00000050: 53d9 0a3c 70be ab3c 3cc6 bb3c 7fec 603b
00000060: bfcb 21bd 7324 76bc 780f 843d c206 75bc
00000070: 1faf f3ba c1b5 10ba a823 3f3c 0b14 d03c
00000080: dd6f 6dbc 276e a43c f0dd 413d adb9 b13c
00000090: 2633 e63c a584 9abc 82de a43c 2cbe f1bc
000000a0: 37c8 0a3c 36ce 09bc 716d 8ebd dd50 db3b
000000b0: bc86 e83c de75 ebbb 1500 26bd 6d2c 86bc
000000c0: d8ad 083d 5900 48bc 1b4d 9f3b 7900 61bd
000000d0: 3f01 c53c 0fdf ba3c 4541 d2bc 036b 4fbd
000000e0: 8176 323b a720 983a 461c e7bb 65ec 27bd
000000f0: 5ce8 0d3c e86d 5e3d 9844 61bc 1969 1fbb
00000100: 76c3 1e3d adb1 f03c 9707 cbbc 9906 c6bb
00000110: 5362 49bd b3b5 5bbc bf41 b73c 1818 ac3c
00000120: 3fb6 2fbb bded ed3b 48a2 2a3c aff9 0cbd
00000130: 19cb 4abc 9577 cdbc b315 fb3b c481 42bb
00000140: 3f7d 843c 6b4b c93c 73b7 b83c 2a00 f33c
00000150: 00b2 3bbd c8a7 3e3d fbf2 663c 6872 083d
00000160: 21a0 923c 0b5b 333d 3424 d8bc c99b 1b3c
00000170: f4f5 13bd 919f 38bd 01ea 01bd 6049 b3bc
00000180: 338d 913d ae44 36bc f13c 65bb c198 26bd
00000190: f0c4 66bc 9e4a 113c 9d31 abbc de98 2b3d
000001a0: 8ed6 e03b 6bd7 cf3c a0c6 1c3d 1cd6 60bd
000001b0: d6f5 1dbb 006c c7bb 3e0e 45bc 932b 10bb
000001c0: 5aad e53c 9921 45bd c680 9cbc 6982 8dbc
000001d0: d4e2 cd3a 4e98 333b 307f 45bc 40f5 6d3d
000001e0: 15cc a83c f770 643c 0014 203d ff2f 633a
000001f0: 03d1 a53c 2da8 373b cae9 523c a29c 993c
-0.010534302 0.032768004 -0.0086406935 0.014285949 -0.0140706245 0.024481934 -0.014691166 0.018483624
-0.010441033 -0.001451342 0.0004380905 0.030005319 -0.0055186325 0.018491477 0.006816019 -0.013519504
0.0087709045 0.044205014 0.021951899 0.004552059 0.008474666 0.020964831 0.022921674 0.003432065
-0.039500948 -0.015023339 0.06448263 -0.0149552245 -0.0018591619 -0.00055202475 0.011666216 0.025400182
-0.014492002 0.020072056 0.047330797 0.021694982 0.028100561 -0.018862078 0.020125631 -0.029509626
0.0084705865 -0.008410981 -0.06954468 0.0066929893 0.028384559 -0.0071856817 -0.040527422 -0.016378606
0.033368915 -0.012207114 0.0048614866 -0.05493209 0.024048446 0.02281144 -0.025665889 -0.050639164
0.0027231278 0.0011606411 -0.007052931 -0.040996928 0.008661356 0.054304034 -0.013749264 -0.0024324118
0.038760625 0.029381597 -0.024783893 -0.006043267 -0.049166035 -0.01341002 0.022370217 0.021007583
-0.0026811508 0.0072610066 0.010414667 -0.034417804 -0.012377524 -0.025081435 0.007662499 -0.0029679397
0.016173003 0.024572095 0.022548413 0.029663164 -0.04582405 0.046546727 0.014096017 0.03331223
0.017898621 0.043787997 -0.02638445 0.009497591 -0.03612323 -0.04507405 -0.031717304 -0.021885574
0.0710701 -0.011124773 -0.003497895 -0.04067302 -0.0140850395 0.008867888 -0.02089768 0.041893832
0.0068615144 0.025371274 0.03827536 -0.05489169 -0.0024102828 -0.0060858727 -0.012027321 -0.0021998629
0.028036762 -0.048127744 -0.019104373 -0.017274098 0.0015707859 0.0027404013 -0.01205425 0.058095217
0.020605126 0.013942949 0.039081573 0.0008666515 0.020241266 0.0028023825 0.0128731225 0.018751446

projection_layer.1.running_var f4 [128]
00000000: 672d 2e3f e992 313f 8e31 2f3f deb5 323f
00000010: e453 323f 9877 2f3f 18ef 303f fbda 333f
00000020: a793 2d3f e093 363f 1c6d 313f e124 2e3f
00000030: 29f5 343f 17a9 2f3f 2fd7 323f 0031 323f
00000040: 87d0 363f ab06 343f 84c5 2f3f 929a 2e3f
00000050: 6458 3c3f 5852 333f ec9f 303f 8e52 323f
00000060: b95b 343f 3400 323f bc16 383f 83e1 2f3f
00000070: 628d 323f 5192 2e3f 6da8 333f f4ef 2f3f
00000080: 45ad 353f d655 2c3f 410c 303f 8f6b 303f
00000090: a57d 303f 16f9 313f 3582 303f 1ad2 343f
000000a0: 407d 2e3f 738e 303f d563 313f 5445 2e3f
000000b0: bbca 2f3f dc1f 333f a51b 2f3f df9f 323f
000000c0: b7fa 323f 046e 353f 1c28 2f3f 7782 2f3f
000000d0: 75fe 373f dc90 303f e6d4 2e3f 28ae 373f
000000e0: b194 303f 2a7d 323f bafc 2f3f 43bc 333f
000000f0: c0ec 323f 3b35 303f 5aac 343f e90f 303f
00000100: cf29 383f dd9d 2c3f 132e 2f3f 2dfd 2f3f
00000110: a5d1 303f 405f 303f 60f7 353f 12b6 2e3f
00000120: 1ce1 2f3f 1298 323f 8011 313f a2f5 363f
00000130: 0b00 2c3f 5a09 2c3f 1a0b 333f df57 373f
00000140: b6a4 303f 1bc8 323f 4b60 303f dbe8 2f3f
00000150: 7d90 313f 6eda 303f 0ada 2f3f 03ab 2b3f
00000160: ced3 343f e61d 2e3f e955 2e3f 84e3 303f
00000170: 6c07 333f ca9b 303f 5bb3 2f3f 8412 2e3f
00000180: 1f68 363f d3af 2e3f 9947 303f e195 3a3f
00000190: 2005 373f ee85 333f f83b 3b3f 9398 2f3f
000001a0: 459f 323f a4f0 2d3f 4f8a 2b3f 2f5c 393f
000001b0: c2d6 333f df2d 2e3f 973d 363f 37ac 313f
000001c0: 2820 333f ffec 373f 0737 333f 8170 333f
000001d0: 473f 363f d47c 2f3f 3695 353f bd0a 313f
000001e0: fc91 323f 44fa 2e3f 5afc 303f 8011 323f
000001f0: 3929 303f 9470 303f e694 323f 82be 303f
0.6803803 0.6936479 0.6843499 0.6980876 0.69659257 0.6854186 0.6911483 0.7025601
0.67803425 0.7131939 0.6930711 0.6802502 0.70686585 0.68617386 0.69859594 0.6960602
0.7141194 0.70322675 0.6866076 0.68204606 0.73572373 0.7004752 0.6899402 0.6965722
0.7045246 0.6953156 0.7190969 0.6870348 0.69746983 0.6819201 0.7017887 0.68725514
0.70967513 0.67318475 0.687687 0.6891412 0.6894172 0.695207 0.6894868 0.7063309
0.68159866 0.6896736 0.69292957 0.68074536 0.6866872 0.6997049 0.6840156 0.69775194
0.6991381 0.70870996 0.6842058 0.6855845 0.71872646 0.6897104 0.6829361 0.71750116
0.68976885 0.69722235 0.68745005 0.7020914 0.698925 0.68831223 0.7057549 0.68774277
0.71938795 0.6742838 0.6842968 0.6874569 0.6906989 0.6889534 0.7108059 0.6824657
0.68702865 0.6976329 0.6916733 0.71468556 0.67187566 0.6720177 0.69938815 0.71618456
0.6900133 0.69836587 0.6889693 0.68714684 0.69361097 0.690833 0.68692076 0.6705782
0.7063569 0.6801437 0.6809984 0.6909716 0.699332 0.68987715 0.6863305 0.67997
0.71252626 0.68237036 0.6885925 0.7288495 0.71492195 0.70126235 0.7313838 0.68592185
0.69774276 0.67945313 0.6700792 0.72406286 0.7024957 0.68038744 0.7118773 0.69403404
0.6997094 0.71846 0.7000584 0.7009354 0.71190304 0.6854985 0.709308 0.6915701
0.69754004 0.68350625 0.6913506 0.6955795 0.688129 0.6892178 0.6975845 0.6904069

projection_layer.4.weight f4 [128, 128]
00000000: 28ae a83a e0a0 213b 4579 7f3c c242 333d
00000010: a343 51bc 46e4 5fbc 8a72 b43d b484 12bd
00000020: 3682 93bd 7718 61bd 1c9f d13c 2e16 d53b
00000030: 10f0 a83c 66db a3bd a91a ef3c e6d6 4a3d
00000040: 2745 0bbd 1f6d b53d eaf7 e3bc e79d 0b3d
00000050: 1e7e aebd cd75 e33b 7ef9 e13c 9dbc 233d
00000060: 08d9 363d 5770 043c d3f9 a6bc 4e66 67bd
00000070: f203 a33c fe27 70bd e781 1ebd a622 a2bd
00000080: 2db9 ecbc 63aa e0bc 2e4b 703d a483 83bc
00000090: c616 1fbd de1e cfbb 7b05 7abc 777e 8d3b
000000a0: 3a03 15bd 279c b6bc b583 a737 ea49 1b3d
000000b0: 69c3 f7bb 87bf 8cbd 4110 a03d df66 883d
000000c0: 3c3a aabd 4b37 05bd 687c 4d3b 14c0 1fbc
000000d0: a0c3 9ebd 3d9b a7bb fc87 a83d 3690 1c3c
000000e0: 2503 813d f4a8 a3bd 4256 71bd d4ff 24bd
000000f0: c5c7 973c d7bd 8e3c 1ae5 823d 81d7 b13d
00000100: 43f5 323d 6672 06bd 80cd 953c 66c9 13bd
00000110: af63 a8bd 8d3a 2cbd 5362 52bd 5221 903b
00000120: 7fa6 08bd 581c 82bd 4719 813d 7ac7 313c
00000130: 80ba ec3c de38 743c 7796 34bd 38c1 993d
00000140: 9cf4 543a 5439 91bd 8953 1abd b054 c93c
00000150: 02c2 a93d b64f d23c 7c32 a23b 91e5 44bd
00000160: 690e 393d e620 cebc 22a4 4d3c 0613 3cbd
00000170: 0c49 4fbd 40ac 003d a350 0d3d 00f5 a7bc
00000180: d687 a6bd 9be2 4fbd 63e9 883d a758 973d
00000190: 6b38 24bd a91c 623d fa28 d13c c1e7 1b3d
000001a0: 391a 8cbd cf1e f93c 9f8d 893c cfc5 8f3d
000001b0: 84f4 bebc 7197 0a3c 0aed 99bd 23bf 70bc
000001c0: 6359 a5bb bbc9 02bd e7c9 37bd e8f5 613d
000001d0: 6aed c53b e4d3 aa3d 7467 b13d fa4d c43b
000001e0: f6a7 113d 3ee3 87bd 2771 5dbd 944c 573d
000001f0: b44f 953d d5f7 aabc 709c 64bc 976d 1fbd
00000200: 1613 b23d 4ea4 8b3c a488 af3d f00c dc3c
00000210: aa74 fbb9 2d84 1d3d 9c50 ae3d a8c0 10bc
00000220: cff0 1abd e2e4 1ebd d326 7dbc deb3 8abd
00000230: f853 b1ba a5c7 a33d a895 66bd ff00 21bd
00000240: 4dd8 73bd 83ca 72bd f84e f03c c3a2 943d
00000250: 4c73 8e3d 90fe ca3c 77c5 ec3c f189 873d
00000260: 714a 4c3d dcae 9fbd 4a46 9e3d 1860 153d
00000270: 9f18 cdbc 72fa 1cbd 2cd9 563d aee5 02bd
00000280: 1cdd 763d ad8f fe3c 9249 1d3c f26c 53bc
00000290: d14f febc 1bc9 9ebc 052c a2bd 27b5 3d3d
000002a0: 27e0 9ebd 5054 8f3d ee81 923d 6ed2 9fbd
000002b0: 625e 803d 2fd9 3c3d 173f 73bd c03f 103c
000002c0: 5ef6 023d 3629 43bc 39cd 97bc b499 043d
000002d0: fb29 86bd 72ce a2bc 5653 96bc b50e b3bc
000002e0: 3a76 51bc 1234 0d3c f5b4 923c 8c92 9fbd
000002f0: 95b9 243c bfd4 c23c 7c13 9bbc bb1c 78bd
00000300: bfd5 e93c 9c6c 14bd 640e 95bb 6dd6 1ebc
00000310: 253f 9f39 1f71 f7bb 73e4 b1bd 17f6 953d
00000320: 5f6f 9d3c e15a 9bbd eab9 4bbd b695 953d
00000330: 5983 04bd f07f 42bd 76e4 9dbd 1c11 3d3d
00000340: 49f2 333d 3195 653d f3d8 923d 5400 25bd
00000350: 1070 9d3d 6a4a 89bb 9099 b0bd d023 ab3c
00000360: c5f1 a73d cbf9 d1bc 2d16 6b3d 88fe a6bc
00000370: 9707 afbd 90dc 3ebd 62a7 0bbd 83bd 2abc
00000380: 3167 a43d 0c7a 9cbd 3a51 ba3c 7c6e a03c
00000390: 41dd b6bd 4773 cc3c eecf 883b 800a 7e3d
000003a0: c6c4 a23d 8949 c0bc ee74 85bd adb1 8e3d
000003b0: 5022 2cba 52b9 423d 3fbe f1bc a543 613d
000003c0: d1b0 0b3d 0eaf 3e3d a9fb 073d cb40 293c
000003d0: 95dc 8abc 7415 0fbd 1f17 273d 48d8 b53c
000003e0: d6c3 a9bb 94b4 afbd b109 3a3c 9f11 37bd
000003f0: 2fef aabc 87bd f03c 7d39 dabc 9397 7a3d
0.0012869285 0.002466254 0.015592878 0.043764837 -0.0127724735 -0.0136652645 0.08810909 -0.035771087
-0.0720257 -0.054954972 0.025588565 0.006502888 0.020622283 -0.08000831 0.029187517 0.04952135
-0.034001496 0.08858704 -0.027828176 0.034086134 -0.08520149 0.006941533 0.027584787 0.039974798
0.04464057 0.0080834245 -0.020382797 -0.05649405 0.019899342 -0.05863189 -0.038698103 -0.07916765
-0.028896892 -0.027424997 0.058665447 -0.016053982 -0.038840078 -0.0063208183 -0.015260096 0.0043180543
-0.03638003 -0.022291256 1.9969282e-05 0.037912287 -0.0075611365 -0.068724684 0.078156 0.06660246
-0.083118886 -0.032523435 0.003135467 -0.009750385 -0.07752156 -0.0051149414 0.08229062 0.009555867
0.06299428 -0.079912096 -0.058920152 -0.04028304 0.018527875 0.017424507 0.06391354 0.08683682
0.04369093 -0.032823943 0.018286467 -0.03608074 -0.08222138 -0.042048026 -0.0513633 0.0043985033
-0.033361908 -0.063530624 0.063036494 0.010850782 0.028897524 0.014906136 -0.044088807 0.07507557
0.0008123608 -0.070910126 -0.03767732 0.024576515 0.08288957 0.025672775 0.004949866 -0.048070494
0.04517976 -0.025162172 0.012551339 -0.04591658 -0.050606772 0.03141427 0.03450073 -0.020502567
-0.081313774 -0.050753217 0.0668514 0.07389956 -0.040092867 0.055203114 0.025532234 0.038062815
-0.06840939 0.030410198 0.016791163 0.07020151 -0.023309954 0.008458958 -0.07515915 -0.014694008
-0.005046056 -0.031930666 -0.044870283 0.055166155 0.006040265 0.08341196 0.0866231 0.005990741
0.03556057 -0.0663514 -0.05406299 0.052563265 0.07290593 -0.020870129 -0.013953313 -0.038922872
0.086950466 0.01704612 0.08570984 0.026861638 -0.00047961372 0.03845613 0.08511469 -0.008834995
-0.03782731 -0.0387925 -0.015451151 -0.06772588 -0.0013529053 0.079970635 -0.056295067 -0.03930759
-0.059532452 -0.05927516 0.02933453 0.07257607 0.06955585 0.024779588 0.028902752 0.06618107
0.04987568 -0.07797024 0.0772825 0.036468595 -0.025036154 -0.03832478 0.052453205 -0.03195732
0.06026946 0.03107437 0.00960006 -0.012904393 -0.031043919 -0.019383004 -0.07918552 0.04631534
-0.077575974 0.06998503 0.07153688 -0.07803808 0.06268002 0.04610556 -0.05938634 0.008804262
0.031973235 -0.011911681 -0.018530475 0.032373145 -0.06550976 -0.019873831 -0.018350285 -0.021857599
-0.012784535 0.008618372 0.017908553 -0.077916235 0.010054012 0.023783086 -0.01893019 -0.060574275
0.028544305 -0.03623639 -0.0045488346 -0.009694678 0.0003037389 -0.007551327 -0.08686151 0.073223285
0.019218145 -0.07585693 -0.04973785 0.07303946 -0.032351825 -0.047485292 -0.07709591 0.046158895
0.043932233 0.056050483 0.07170286 -0.040283516 0.0768739 -0.004189779 -0.0862304 0.0208911
0.08200411 -0.025631806 0.057394195 -0.020385042 -0.085463695 -0.046597064 -0.034095176 -0.01042116
0.08027495 -0.07640466 0.02274381 0.019583933 -0.089289196 0.024957312 0.004175178 0.062021732
0.07947688 -0.023472564 -0.06516443 0.06967483 -0.0006566392 0.047540016 -0.029509662 0.05499615
0.034104172 0.046553664 0.033198986 0.010330389 -0.016950885 -0.03493257 0.040793534 0.022197857
-0.005180816 -0.085793644 0.01135485 -0.04469454 -0.020866005 0.029387249 -0.02663874 0.06117971

projection_layer.4.bias f4 [128]
00000000: 103e af3c 83b7 9cbd 4887 a33d 8e0f 633c
00000010: c4e9 8abd 2a6b 243d 3a84 4cbd d30f 84bd
00000020: 9bf7 18bd 10f2 0fbd 259f 173c f6c4 493d
00000030: dff6 4dbd 2c24 9bbd c4b7 953c a576 9b3d
00000040: ca12 88bd e028 803c d3f1 603d 9fd7 19b8
00000050: aef0 aabd 1d00 053d bc8d 87bd 5f4a 9bbd
00000060: 8f7e 5a3d 186d 1d3d 25ea 453d a719 a13d
00000070: f91a 883d fbf9 44bd 6e54 91bd 63ec aabb
00000080: 1e38 863d 52de fe3b 0ef8 ecbc bafa 9cbc
00000090: 19b2 9a3d cf4c 93ba 2135 933d b926 2abd
000000a0: c1ab 3c3d ea9f 87bd d4c7 06bb 1432 753d
000000b0: c187 1b3c 20c2 bebb 843b 953d 773f 24bd
000000c0: 27d7 f8bc c014 17bd 4c39 99bd e8bb 44bd
000000d0: b76e 6f3d b2a2 8cbd f319 743d a00c b63d
000000e0: ce75 5a3d e20d b33d 2e91 5f3c 2cff 64bd
000000f0: a41e 2bbd ae89 b33b 272d 8d3d 5ccb 473d
00000100: 61c9 74bd fad0 8cbc 98eb 0e3d ea47 873d
00000110: 8258 6e3d 6b03 45bd b4f1 8ebd 0f36 bcbc
00000120: b47a 4e3d fb4e 71bd 91dc 9e39 64fc 9ebd
00000130: 9be2 d3bc f6b3 7d3d 8587 adbd e962 6bbd
00000140: a7ca 9cbd 5f4b 9f3c 597a bf39 ff76 f43c
00000150: 6bb1 8c3c 706e 9ebc afcd a63d e17f 953d
00000160: f954 a8bd d9b7 1ebd 669d 503d 4317 a13d
00000170: 12bd ae3d 2d56 173c 5d55 c5bc 4d45 0c3c
00000180: 7ff8 e23c 28b9 1cbc 1c44 d5bc 755f 673d
00000190: 3fec 2e3d 9256 5abc ab34 b13d 67ff 3abd
000001a0: ebd1 1f3d 4239 bd3c 8b56 063c f93c 81bd
000001b0: b16c 0a3d 1271 91bd 0366 953d 54cb 0e3d
000001c0: aac3 873d 30a4 3dbd 3201 353b 044c 313a
000001d0: bd7d c5bc 66b0 83bd de32 873d 46b1 923d
000001e0: 810e 293d 0bc3 593d 36a0 953d 3d6d 3b3c
000001f0: 3778 d73c 8191 723d 438a 0b3d fa56 6fbd
0.021391898 -0.076521896 0.07984787 0.013858689 -0.067828685 0.040141262 -0.04993079 -0.06448331
-0.03734551 -0.03514296 0.009254252 0.049260102 -0.050284263 -0.075752586 0.018276103 0.07590989
-0.06644209 0.01564449 0.05491812 -3.6678855e-05 -0.08346687 0.03247081 -0.066188306 -0.075825445
0.053343352 0.038434118 0.048319 0.07866221 0.066457696 -0.048089962 -0.07096182 -0.005216168
0.06553672 0.0077779675 -0.028926875 -0.019162524 0.07553501 -0.0011238101 0.07187868 -0.041540835
0.046062235 -0.06622298 -0.0020565884 0.05986221 0.0094928155 -0.0058214813 0.07286742 -0.040099587
-0.03037603 -0.036885023 -0.07481632 -0.048030764 0.058455195 -0.06866969 0.05959506 0.08889127
0.053335004 0.08742882 0.013645453 -0.055907413 -0.041777268 0.005479059 0.06893378 0.048777923
-0.059762362 -0.017189492 0.03489265 0.066055134 0.058189876 -0.048098963 -0.06979695 -0.022974996
0.050409988 -0.058913212 0.00030300443 -0.077629834 -0.02586489 0.061939202 -0.08473114 -0.057467375
-0.0765584 0.01944512 0.00036521515 0.029841898 0.017174443 -0.01933977 0.081447 0.072997816
-0.08219332 -0.03874955 0.050931357 0.07865765 0.08532156 0.0092368545 -0.024088556 0.0085614445
0.027706383 -0.009565629 -0.026033454 0.05648752 0.04270577 -0.013326304 0.08652624 -0.045653727
0.039018553 0.023098592 0.008199344 -0.06310458 0.033795062 -0.071016446 0.07294848 0.034861878
0.06629117 -0.04629916 0.002761912 0.00067633414 -0.024107808 -0.0643013 0.06601499 0.071627185
0.041273598 0.053164523 0.073059484 0.011439619 0.02630244 0.059220795 0.034067404 -0.058432557

output_layer.weight f4 [1, 128]
00000000: c0a0 043c 81ea b3bc 4294 a93d 5308 143d
00000010: a23b 96bd 684f 823d aff5 16bd a574 a03d
00000020: 838b 2dbd 3e05 8fbd 3ba6 3b3c 1d3b d53c
00000030: b5eb 4a3d e05c 41bd 2faf a53d a8c2 f93c
00000040: 3138 99bd 339a 3dbc c212 38bd fcf7 bdbc
00000050: 8f9b 923d 7e07 e93c 1715 69bd 82ab 343d
00000060: a17c acbc 6604 81ba eb61 373d efd1 a53d
00000070: c403 fe3c de45 a7bc 062c 8b3d 511c 9dbd
00000080: aa1d 99bc 6cbc 0d3d 09f0 80bd b648 9e3d
00000090: fb0f f43c d966 7d3c 4730 90bd cb6d 153c
000000a0: c70f 81bc ffd4 643d 5d6d 183d 5ddd 79bd
000000b0: 8b96 91bd 5272 853c f3d9 24bd 6ab4 a8bd
000000c0: 0829 c63c 99c5 88bd 8b81 983d c856 eebc
000000d0: eb3b 8c3d 780f 3b3d e34f 863d 79e3 883c
000000e0: 8ce3 8f3d 1c7c a53d c346 31bd 74a2 833b
000000f0: dba1 673d d3b0 3e3d 3c05 8cbd c6f2 abbc
00000100: 68c3 393d 7752 a03b b171 473d 7f47 ccbc
00000110: 7c62 253d 4931 b7bc 5be9 dc3c 47d5 ac3b
00000120: ca0d 70bd e7a9 a2bd 86f4 2e3d 83e3 853d
00000130: ee70 c0bc f51b f73c 681c dbbb 2506 9abc
00000140: 8186 2f3d f60b 8abd 2f29 90bd bb97 8c3d
00000150: 5436 ba3d bb0f 85bd c4ff 96bd 485c 413d
00000160: 797f 623d 345f b0bd a955 61bd 9262 98bd
00000170: bcc0 65bc 21f5 e3bc aefe 8d3d e9b9 9cbd
00000180: af9c a8bd d44b 02bd 24bf 34bc fad7 81bc
00000190: 6e9c 5fbd 227f ae3d 54b3 14bd bc97 9c3d
000001a0: f5cf 8bbd 5b1c 373d c4be 98bd a758 3c3d
000001b0: f1a7 aa3d 57ee a5bd 4f48 d9bc b033 62bd
000001c0: 7101 653c 341f 3c3c 5b64 5abd 09fe 873d
000001d0: 5bc0 9bbd 6355 5dbd 39b1 2abd e5f4 56bd
000001e0: 7056 99bd a625 d83b 1861 433d 15be 00bd
000001f0: 7161 593d 7e65 a6bd 9ce8 793c 8e62 8fbd
0.008094966 -0.021962406 0.08280231 0.03614075 -0.07335593 0.06362802 -0.036855396 0.07834748
-0.042369377 -0.06983422 0.011453207 0.026029164 0.049541194 -0.047207713 0.08090054 0.030488327
-0.07481421 -0.0115724085 -0.044939764 -0.023189537 0.07158577 0.028445955 -0.05690488 0.044108875
-0.021055521 -0.000984323 0.044771116 0.08096682 0.031007655 -0.020419057 0.06795506 -0.076714166
-0.018690903 0.03460352 -0.06295783 0.07728712 0.029792776 0.015466415 -0.07040458 0.009120415
-0.015754594 0.05586719 0.037213672 -0.061002124 -0.07108792 0.016289864 -0.040246915 -0.08237536
0.024189487 -0.06678314 0.07446583 -0.029094115 0.06847366 0.04566905 0.06558206 0.01671003
0.07025823 0.080803126 -0.043280374 0.0040171687 0.05655084 0.04655535 -0.06836936 -0.020989787
0.04535237 0.004892643 0.04869241 -0.024936436 0.040377125 -0.022362368 0.026966741 0.005274448
-0.0586069 -0.079425626 0.042713664 0.06537535 -0.02349135 0.030164698 -0.006686736 -0.018801758
0.042852882 -0.067405626 -0.07039105 0.06864878 0.090923935 -0.06497141 -0.07373002 0.047207147
0.05529735 -0.086119086 -0.055013333 -0.07440676 -0.014023002 -0.027826848 0.06933342 -0.07652647
-0.0823301 -0.031810597 -0.0110319 -0.015850056 -0.054592542 0.085203424 -0.036303833 0.076461285
-0.06826774 0.044704776 -0.07458261 0.045982983 0.083328135 -0.081021 -0.026523737 -0.055225074
0.013977394 0.011482049 -0.053318363 0.0664025 -0.07605048 -0.05403651 -0.04167292 -0.052479643
-0.0748719 0.006596285 0.047700018 -0.031431276 0.053071443 -0.08124827 0.015253212 -0.0700122
