Checkpoints/HR_V/valence_s23.pth (torch, 461905 bytes, 29 tensors)

input_layer.weight f4 [128, 29]
-0.12610061 0.002689024 -0.021390824 0.16372146 -0.070672154 0.030429702 0.057772666 -0.13523595
-0.17385031 0.0726533 -0.14966124 -0.18632482 0.07359901 0.116368145 -0.11828547 -0.12211642
0.17519218 -0.18300027 -0.021979723 -0.044425074 0.032352746 0.15112956 0.16072012 -0.15171991
-0.02977574 -0.025192687 0.067776166 -0.17921881 -0.04355568 0.04380366 0.07602916 -0.03546078
0.045393266 -0.087502494 0.20672943 -0.17533961 -0.11026992 0.08875408 0.16019785 0.10243317
-0.044787113 0.09445058 0.18026608 -0.053709283 -0.0015053288 -0.06054893 -0.01574892 0.05068117
-0.081711955 0.11919834 -0.19220571 -0.10877711 -0.047313914 -0.020284751 0.017961001 0.15881707
0.045201633 -0.06448314 -0.081265144 0.16770667 -0.14140308 0.14997968 0.102007195 0.16464426
-0.11181575 0.0005213165 0.1047455 0.14902663 -0.122629404 0.08249911 0.14562476 -0.057847325
0.07387341 -0.06303346 0.050144818 0.1507105 0.042351272 0.16238932 0.17646395 0.009363185
0.0007615227 0.1503093 -0.007982488 -0.12409724 0.14871158 0.18207389 -0.13617228 -0.08506001
0.16338816 -0.19090451 0.015962943 -0.055275686 -0.07616145 0.023954907 -0.05603718 -0.051658455
-0.121173695 0.04523294 0.14765784 0.017990138 -0.10239488 0.00414021 -0.08976976 -0.17285898
-0.044691365 -0.09226614 0.19159515 0.16810016 -0.0054225177 0.028883249 0.10193748 -0.14510296
-0.0407831 -0.14920764 -0.08964113 0.13559115 0.07148726 -0.013133805 0.11390781 0.012243075
-0.12158509 0.10328809 -0.12679465 0.15624045 0.12406053 -0.051991686 0.13638516 -0.009967785
-0.011900144 0.12434103 -0.053820796 -0.123491645 -0.101221636 0.033666346 -0.02315249 0.0031209884
-0.10766972 -0.06669788 -0.18038858 0.12118561 0.10149595 0.12139633 0.0021385169 0.19054125
-0.040876202 -0.11246203 0.011342168 0.09572593 -0.0030134644 0.018324662 0.10976429 -0.0065105357
-0.06415536 0.07688402 0.1229483 0.13982531 -0.16246557 -0.08099989 -0.010977415 0.04496248
-0.09968837 -0.14433886 0.038655147 0.11705578 -0.09297385 0.10049806 0.07477354 0.071644045
-0.023952298 -0.18586437 -0.13758934 0.117197044 -0.076116495 0.13974838 -0.14035219 -0.026250355
0.1751613 0.040938992 -0.14830655 -0.10443598 -0.06965971 0.06688385 0.14978416 -0.14164625
0.097797506 -0.16124202 -0.04014663 0.027633416 0.029970508 0.116568774 -0.11441473 -0.09349898
-0.18049908 0.0585249 0.16384172 -0.20028697 -0.03472482 -0.17050216 0.12881036 -0.043818984
0.16455878 -0.056403257 -0.17350908 0.1052267 0.106525235 0.14613509 -0.006587126 0.16316967
0.13693857 0.031937264 0.17773737 -0.14269157 0.07181779 -0.062270075 -0.20293683 0.10910281
-0.0543815 0.09123091 0.15033197 0.06574979 0.067029856 -0.037281252 -0.12739992 0.16879204
-0.10082429 -0.12166643 0.08504396 0.009608473 -0.14629789 -0.032434717 -0.03327476 -0.078701295
-0.10316648 0.14613436 0.1416925 -0.007581226 -0.17945352 0.06998328 -0.014759832 0.0805426
-0.14036857 0.013277538 0.13104443 0.0639915 0.10951063 0.11537616 -0.12363211 -0.08946367
0.019233197 0.13062553 0.08831109 -0.11615124 -0.16614337 -0.09984313 0.13821316 0.07245926
00000000: 8520 01be 563a 303b cf3b afbc 99a6 273e
00000010: 90bc 90bd b647 f93c 08a3 6c3d 4b7b 0abe
00000020: d105 32be 41cb 943d cc40 19be efcb 3ebe
00000030: 14bb 963d 6c52 ee3d a73f f2bd 2c18 fabd
00000040: 9465 333e 6c64 3bbe d20e b4bc 11f7 35bd
00000050: 5084 043d b5c1 1a3e d193 243e 775c 1bbe
00000060: 41ec f3bc e560 cebc 3bce 8a3d 2385 37be
00000070: 7167 32bd 776b 333d 2db5 9b3d 533f 11bd
00000080: 4aee 393d 8234 b3bd e1b0 533e 3a8c 33be
00000090: 32d5 e1bd b3c4 b53d e80a 243e 7bc8 d13d
000000a0: b172 37bd 4e6f c13d ac97 383e 44fe 5bbd
000000b0: 744e c5ba 2802 78bd e103 81bc 0f97 4f3d
000000c0: 9958 a7bd 421e f43d 93d1 44be 89c6 debd
000000d0: 3ccc 41bd 352c a6bc f322 933c f1a0 223e
000000e0: 5925 393d bd0f 84bd 576e a6bd 4cbb 2b3e
000000f0: f8cb 10be 4694 193e 26e9 d03d 8198 283e
00000100: a8ff e4bd f5a8 083a cf84 d63d 709a 183e
00000110: 2025 fbbd 4bf5 a83d a81e 153e 51f1 6cbd
00000120: f14a 973d b017 81bd a764 4d3d da53 1a3e
00000130: 8778 2d3d 6349 263e f7b2 343e 0b68 193c
00000140: eca0 473a aeea 193e fbc8 02bc b226 febd
00000150: d947 183e 9471 3a3e bf70 0bbe f133 aebd
00000160: 3a4f 273e 797c 43be b8c4 823c c268 62bd
00000170: 89fa 9bbd 153d c43c 3e87 65bd d197 53bd
00000180: ea29 f8bd 2d46 393d 9e33 173e 0e60 933c
00000190: 68b4 d1bd 99aa 873b 35d9 b7bd f201 31be
000001a0: 4b0e 37bd 08f6 bcbd 8531 443e 7322 2c3e
000001b0: 60af b1bb 909c ec3c 99c4 d03d df95 14be
000001c0: 2e0c 27bd e3c9 18be c595 b7bd 68d8 0a3e
000001d0: ea67 923d 2c2f 57bc 7f48 e93d 2e97 483c
000001e0: 9b01 f9bd b588 d33d 75d6 01be 7ffd 1f3e
000001f0: 7213 fe3d 3cf5 54bd 8da8 0b3e ec4f 23bc
00000200: d2f8 42bc 83a6 fe3d 3273 5cbd 30e9 fcbd
00000210: 4a4d cfbd b9e5 093d 4aaa bdbc 7f89 4c3b
00000220: f181 dcbd e698 88bd c9b7 38be 2930 f83d
00000230: 1cdd cf3d a49e f83d 5c26 0c3b 3f1d 433e
00000240: ce6d 27bd 7e52 e6bd 80d4 393c f50b c43d
00000250: 8b7d 45bb 9a1d 963c 1acc e03d 5556 d5bb
00000260: e363 83bd 5e75 9d3d 51cc fb3d 5e2e 0f3e
00000270: 605d 26be 45e3 a5bd 9eda 33bc 942a 383d
00000280: 6b29 ccbd 91cd 13be dc54 1e3d f1ba ef3d
00000290: 1369 bebd edd1 cd3d df22 993d 1dba 923d
000002a0: 9c37 c4bc 3b53 3ebe 38e4 0cbe 0105 f03d
000002b0: f7e2 9bbd 331a 0f3e 7cb8 0fbe fc0a d7bc
000002c0: 7c5d 333e a5af 273d acdd 17be 88e2 d5bd
000002d0: c0a9 8ebd 66fa 883d 0561 193e b70b 11be
000002e0: 0f4a c83d a11c 25be cb70 24bd 795f e23c
000002f0: b684 f53c 9cbb ee3d 4552 eabd 657c bfbd
00000300: c0d4 38be ceb7 6f3d 20c6 273e 0718 4dbe
00000310: 9d3b 0ebd 1e98 2ebe dde6 033e 897b 33bd
00000320: 1982 283e 1a07 67bd 5dac 31be 1981 d73d
00000330: e729 da3d 70a4 153e d1d8 d7bb f315 273e
00000340: a039 0c3e a6d0 023d c900 363e bd1d 12be
00000350: 3515 933d e80e 7fbd acce 4fbe 4b71 df3d
00000360: 23bf 5ebd 45d7 ba3d a0f0 193e d3a7 863d
00000370: f346 893d 3ab4 18bd 2075 02be d2d7 2c3e
00000380: f77c cebd 402c f9bd 872b ae3d db6c 1d3c
00000390: 1dcf 15be 44da 04bd 1d4b 08bd 252e a1bd
000003a0: f348 d3bd 3fa4 153e d717 113e ef6b f8bb
000003b0: aac2 37be 6553 8f3d 39d3 71bc 85f3 a43d
000003c0: c7bc 0fbe 088a 593c 8330 063e fa0d 833d
000003d0: 1c47 e03d 564a ec3d d532 fdbd bb38 b7bd
000003e0: f08e 9d3c b3c2 053e 72dc b43d b4e0 edbd
000003f0: 7d21 2abe 8e7a ccbd c087 0d3e 8565 943d

input_layer.bias f4 [128]
-0.047510806 -5.190225e-06 -0.008196588 0.03820733 0.005627784 -0.015867716 3.7195743e-05 -7.8614234e-05
0.030946525 0.0050670253 -2.9097979e-05 -0.0046746545 0.00031989015 -0.05233579 -6.713134e-05 0.01195607
0.00228456 0.049202446 -0.022187486 0.0056061475 0.045249313 0.00019759005 6.425915e-05 2.3868854e-05
3.0172714e-05 -0.040520217 2.5523827e-06 0.027572334 8.777094e-05 0.043208625 -0.0022696224 -1.8222521e-05
0.029946776 -0.04182338 -1.4184615e-06 -0.022028979 -0.045878347 0.0016391851 0.0013151014 -0.011517038
-0.03607159 0.009700619 2.5437128e-05 -0.011544362 -5.2199994e-06 0.0040238067 -0.050846938 -0.03800227
-1.595061e-05 0.041224275 -0.045628462 0.020907806 0.007960669 0.024474861 -3.629957e-05 -1.2442689e-05
-9.3915885e-05 7.402472e-05 4.4109758e-05 0.036300767 0.04593574 0.033741005 0.031045573 -0.017883131
0.000115831535 -0.031413622 0.03436354 -0.021151194 -0.035344806 -0.046066817 -6.143466e-05 0.0010454458
0.0024425583 -0.0010895858 0.01996753 4.360226e-05 0.0018200189 0.01031908 -0.015208875 -0.022940023
6.3878084e-05 -0.030185064 -3.0566815e-05 7.052086e-05 -6.5303626e-05 0.029450307 -0.03240401 2.8566008e-05
-3.9786424e-05 0.008394524 -0.013931635 -6.240674e-05 -0.0032058985 0.011203508 0.0021706151 -0.0048701586
0.008434796 0.04931718 0.03179753 2.8274708e-05 -4.0971358e-05 0.0044477643 -0.0057579908 -3.0840187e-07
4.3177894e-05 0.03869535 0.006248887 -0.00070465874 -0.00018701788 -0.051880162 -0.041329376 0.04129237
-0.010972852 -0.022075644 0.00014471755 -0.050146263 0.03067408 -0.0062667024 -0.0008067063 0.03560342
4.3308588e-05 -7.639741e-07 8.933714e-05 0.015307269 -4.302941e-05 1.4625359e-05 -0.00011449612 0.00032116065
00000000: b19a 42bd b127 aeb6 fb4a 06bc 4a7f 1c3d
00000010: 4669 b83b 03fd 81bc a002 1c38 b2dd a4b8
00000020: 9183 fd3c 4a09 a63b 6f17 f4b7 d82d 99bb
00000030: eeb6 a739 0e5e 56bd ddc8 8cb8 64e3 433c
00000040: 8eb8 153b 8188 493d 88c2 b5bc c6b3 b73b
00000050: 5857 393d 2d30 4f39 dec2 8638 f939 c837
00000060: 691b fd37 87f8 25bd 9a49 2b36 60df e13c
00000070: aa11 b838 87fb 303d f2bd 14bb 91dc 98b7
00000080: f152 f53c fe4e 2bbd f761 beb5 1e76 b4bc
00000090: efea 3bbd edd9 d63a 7b5f ac3a f5b1 3cbc
000000a0: cebf 13bd 58ef 1e3c d161 d537 9024 3dbc
000000b0: 7427 afb6 23da 833b e144 50bd 45a8 1bbd
000000c0: adcd 85b7 c9da 283d e9e4 3abd d946 ab3c
000000d0: 776d 023c 817f c83c 5e40 18b8 f1c0 50b7
000000e0: b5f4 c4b8 b83d 9b38 7e02 3938 1db0 143d
000000f0: 1d27 3c3d 0234 0a3d 4953 fe3c a57f 92bc
00000100: 95ea f238 92ab 00bd c9c0 0c3d 4545 adbc
00000110: b7c5 10bd 8fb0 3cbd 7bd6 80b8 5707 893a
00000120: 5413 203b 6fd0 8eba f292 a33c 92e1 3638
00000130: b38d ee3a 5c11 293c a52e 79bc b7ec bbbc
00000140: 49f6 8538 ab46 f7bc de34 00b8 99e4 9338
00000150: 9ef3 88b8 c541 f13c 11ba 04bd 09a1 ef37
00000160: 59e0 26b8 3089 093c 8341 64bc 5de0 82b8
00000170: 0d1a 52bb eb8e 373c e140 0e3b da95 9fbb
00000180: 1932 0a3c d000 4a3d 203e 023d 792f ed37
00000190: a9d8 2bb8 8dbe 913b 87ad bcbb 6e92 a5b4
000001a0: e919 3538 047f 1e3d 77c3 cc3b d9b8 38ba
000001b0: 3b1a 44b9 4b80 54bd fe48 29bd 3022 293d
000001c0: 7ac7 33bc fbd7 b4bc 52bf 1739 2b66 4dbd
000001d0: 3548 fb3c e958 cdbb 2579 53ba e4d4 113d
000001e0: 3ea6 3538 e713 4db5 835a bb38 57cb 7a3c
000001f0: 7a7a 34b8 705f 7537 a31d f0b8 7461 a839

projection_layer.0.weight f4 [128, 128]
-0.05107579 -0.05179608 0.048856992 -0.027230473 0.0685169 -0.034798864 0.010300277 0.07551888
0.042857736 -0.08347029 -0.05566562 -0.05814403 0.055729967 -0.05080022 0.021492727 0.059238005
0.09573515 0.008354908 0.011077583 0.039867528 -0.003669423 0.004837088 -0.0018884117 0.0136140855
-0.038976323 -0.054653645 0.04170748 0.06333623 0.07228753 -0.04551069 -0.048082586 -0.059386283
0.07552416 -0.068026386 0.09123697 0.026808888 -0.010227274 -0.010677063 -0.050988223 -0.031555794
-0.042380556 0.05413095 0.06161565 -0.024159139 -0.059233416 0.006923077 0.0740665 -0.027911074
-0.019843366 -0.051071502 -0.04043982 0.007229391 -0.054626882 -0.012281917 -0.015181254 0.053660218
0.021228693 -0.002883871 0.0050745397 0.041300543 0.06555008 -0.040622037 -0.08909978 -0.052189503
-0.0894905 0.06647954 0.025093108 -0.04499884 -0.038032785 -0.074212365 -0.04332164 -0.06150931
-0.06948768 0.05945952 0.06857753 0.018286914 -0.009889755 -0.08339522 0.030263186 0.01758488
0.008340101 0.07149014 0.121815234 0.03102371 0.040773395 0.015640954 0.06776499 -0.014680126
-0.02542127 0.052103907 -7.370141e-05 -0.043866895 -0.020836651 0.027984709 -0.09587178 0.06614244
-0.029474536 0.095236294 0.06031844 -0.010002399 0.086511225 -0.05172549 -0.0727856 0.055124845
0.083547235 -0.057648297 -0.090151206 0.042150185 0.030609421 -0.011813304 -0.057914216 0.032914255
0.081793666 0.01852435 0.00046604848 -0.067373276 0.06812072 -0.03763447 -0.056219075 -0.03752948
-0.037985984 -0.061514452 0.046948705 0.030440273 -0.021882232 -0.013175898 -0.046957202 0.05352148
0.07680702 0.014006153 0.10181566 0.027075842 0.0061668158 -0.007521685 -0.057149045 -0.04719746
0.07108202 -0.014206491 -0.051943347 0.07208814 -0.06363819 0.0037514595 -0.026847597 0.03826559
-0.025254041 0.07844853 0.0543241 -0.10952379 0.08649725 0.019297687 -0.003447216 -0.015226952
-0.009393035 -0.034510754 0.02043794 -0.038618192 0.020633908 -0.0759362 0.09028938 0.07378805
0.010803945 -0.06303684 0.048063602 0.018610006 0.030603666 0.09971536 0.039784953 0.116590425
-0.056544386 0.065423794 0.06012892 -0.056417596 0.027172042 0.005117332 -0.043206673 0.049357817
-0.02403299 -0.005618604 0.055508938 0.071742654 0.029048935 -0.06525958 -0.014844725 0.053018995
-0.003970663 0.060342178 0.03099621 -0.016606601 0.010364184 -0.0024456747 0.067917526 -0.045464978
0.017208869 0.015698198 -0.00947505 -0.06299315 0.08332581 0.025913093 -0.054931287 0.054791316
-0.011543984 -0.03933084 0.04582209 -0.056115 -0.004566961 -0.045869578 -0.01424372 -0.097881995
0.077521585 0.075282805 -0.0041135633 0.030114545 -0.14377394 0.011335299 0.069310874 -0.060628865
-0.044538874 0.05536202 -0.01823526 0.025950942 0.025170594 -0.06970373 0.07257628 0.054501597
0.044283457 0.02676058 0.009548804 -0.10114987 0.11155292 0.003438685 0.020780776 0.05014993
0.061075777 0.050436445 0.08369838 0.047944903 0.099492006 0.0595826 -0.0025753789 0.114760384
-0.022605894 -0.032671552 0.0037015455 -0.12141733 -0.060859933 0.049669888 -0.0067067808 -0.07204297
0.062397912 -0.028788937 -0.07640334 0.089241914 -0.026852785 0.10038783 0.047359478 0.05908911
00000000: d934 51bd 2028 54bd 451e 483d 7112 dfbc
00000010: 9752 8c3d 4189 0ebd 7ec2 283c a4a9 9a3d
00000020: 988b 2f3d 79f2 aabd a201 64bd 6f28 6ebd
00000030: 1b45 643d e413 50bd 8411 b03c 8da3 723d
00000040: ca10 c43d 06e3 083c c07e 353c 224c 233d
00000050: b47a 70bb 6f80 9e3b 9584 f7ba 9d0d 5f3c
00000060: a3a5 1fbd 80dc 5fbd 76d5 2a3d 6db6 813d
00000070: 7c0b 943d 6b69 3abd 3ff2 44bd 083f 73bd
00000080: 69ac 9a3d 6b51 8bbd 73da ba3d 509e db3c
00000090: 4c90 27bc d9ee 2ebc 07d9 50bd a640 01bd
000000a0: 3c97 2dbd 6ab8 5d3d b160 7c3d 63e9 c5bc
000000b0: bd9e 72bd fbda e23b 2db0 973d c4a5 e4bc
000000c0: 8e8e a2bc 5a30 51bd 3aa4 25bd 87e4 ec3b
000000d0: 70c0 5fbd 183a 49bc cbba 78bc d1ca 5b3d
000000e0: cce7 ad3c 54ff 3cbb 5348 a63b c22a 293d
000000f0: 1f3f 863d 4b63 26bd f279 b6bd a9c4 55bd
00000100: cc46 b7bd 6d26 883d 1090 cd3c b450 38bd
00000110: 44c8 1bbd a7fc 97bd 0872 31bd 30f1 7bbd
00000120: 8f4f 8ebd d38b 733d 6072 8c3d 70ce 953c
00000130: a408 22bc 1dcb aabd 80ea f73c 2b0e 903c
00000140: eba4 083c 6c69 923d 447a f93d 6f25 fe3c
00000150: 0102 273d 7521 803c 5fc8 8a3d e984 70bc
00000160: 4440 d0bc e86a 553d 2590 9ab8 c6ad 33bd
00000170: a0b1 aabc 3040 e53c 6c58 c4bd b075 873d
00000180: 9574 f1bc 3f0b c33d 7810 773d 1ae1 23bc
00000190: cc2c b13d 1bde 53bd 9e10 95bd 97ca 613d
000001a0: d01a ab3d 9f20 6cbd 32a1 b8bd aca5 2c3d
000001b0: 9cc0 fa3c 978c 41bc 7537 6dbd 19d1 063d
000001c0: 7083 a73d 61c0 973c f857 f439 00fb 89bd
000001d0: e082 8b3d 9a26 1abd f945 66bd 83b8 19bd
000001e0: 3197 1bbd 94f6 7bbd 494d 403d e15d f93c
000001f0: 5e42 b3bc b9df 57bc 3256 40bd 5739 5b3d
00000200: 004d 9d3d 107a 653c bb84 d03d 28ce dd3c
00000210: 0013 ca3b 7878 f6bb 1e15 6abd 2052 41bd
00000220: 7393 913d 58c2 68bc 8cc2 54bd f2a2 933d
00000230: bd54 82bd 0cdb 753b 7eef dbbc 61bc 1c3d
00000240: 90e1 cebc 9fa9 a03d f382 5e3d 024e e0bd
00000250: 7825 b13d 2f16 9e3c b0ea 61bb 777a 79bc
00000260: 3fe5 19bc 265b 0dbd 776d a73c 1c2e 1ebd
00000270: 7108 a93c 7084 9bbd a3e9 b83d 301e 973d
00000280: 0803 313c 7519 81bd 57de 443d 0374 983c
00000290: 8ab4 fa3c 9137 cc3d 8cf5 223d f6c6 ee3d
000002a0: 169b 67bd e9fc 853d be49 763d 2316 67bd
000002b0: e797 de3c 4baf a73b 7bf9 30bd 6c2b 4a3d
000002c0: d5e0 c4bc 441c b8bb 575d 633d d0ed 923d
000002d0: 08f8 ed3c d1a6 85bd 4a37 73bc 722a 593d
000002e0: 561c 82bb 5c29 773d c4eb fd3c 910a 88bc
000002f0: 8ace 293c 9d47 20bb 5818 8b3d 7c39 3abd
00000300: 9df9 8c3c 8299 803c 3d3d 1bbc 8d02 81bd
00000310: b9a6 aa3d b247 d43c a1ff 60bd dc6c 603d
00000320: fa22 3dbc 6019 21bd f2af 3b3d d8d8 65bd
00000330: 72a6 95bb bde1 3bbd 7e5e 69bc 5b76 c8bd
00000340: a3c3 9e3d df2d 9a3d 12cb 86bb c7b2 f63c
00000350: 7a39 13be b1b7 393c dcf2 8d3d f955 78bd
00000360: 656e 36bd 49c3 623d 1d62 95bc 1297 d43c
00000370: 9032 ce3c d4c0 8ebd dfa2 943d 113d 5f3d
00000380: 9262 353d 0139 db3c 9672 1c3c aa27 cfbd
00000390: db75 e43d 905b 613b 723c aa3c 036a 4d3d
000003a0: 982a 7a3d 7296 4e3d 0e6a ab3d e061 443d
000003b0: 77c2 cb3d e20c 743d b0c7 28bb 7e07 eb3d
000003c0: ff2f b9bc 9bd2 05bd a195 723b a6a9 f8bd
000003d0: 4448 79bd a772 4b3d 8ec4 dbbb 448b 93bd
000003e0: f494 7f3d c7d6 ebbc 5b79 9cbd 77c4 b63d
000003f0: 5ffa dbbc 2298 cd3d 03fc 413d 6c07 723d

projection_layer.0.bias f4 [128]
0.00070810376 -0.00014914207 -4.5568875e-05 -1.1500406e-05 -0.0008798495 0.00012525947 -0.0001396261 0.00014794769
8.315685e-05 8.427315e-05 9.708569e-05 6.920927e-05 0.00062017736 -2.5877784e-05 -8.28795e-05 -0.00011204981
0.0014652832 -1.0504503e-05 1.15192015e-05 0.00030715624 7.7068e-06 3.0005955e-05 6.328652e-05 -0.00013240024
1.8237382e-05 -0.00097436947 -4.806804e-05 -0.00020499832 0.0022938573 5.2022595e-05 -9.5779214e-05 2.3292874e-05
0.00018436779 9.5727184e-05 -3.804109e-05 -6.66234e-06 -8.83624e-05 -0.0022323004 -0.0029039623 5.7272195e-05
0.0024944278 -8.017776e-05 0.0017399201 -0.00016832977 -0.00017946257 -5.2281688e-05 -0.00015277929 3.9234983e-05
-9.370285e-05 9.85268e-05 -2.5896612e-05 0.00019495064 -8.142781e-05 0.00060312374 -7.958791e-06 -0.00014559792
-0.00076107384 -6.1643215e-05 2.8669108e-05 0.001735931 5.1091025e-05 5.2584335e-05 0.00038591164 -0.00014123549
0.00018642104 9.758104e-06 -0.000114769035 0.00013243005 6.0344075e-05 -0.0001738667 -9.541285e-05 0.00011285356
1.03745e-05 0.00028735423 -7.9467745e-06 3.4944194e-05 2.8142513e-05 -0.0001295808 -7.618965e-05 -6.559029e-05
-5.809007e-06 -3.4970777e-05 -0.0014028162 6.1742126e-06 0.0026512924 -1.3497993e-05 -4.6679674e-05 0.000106917614
-0.002322507 -0.00078279804 -5.2449603e-05 -1.592263e-05 -2.9413217e-05 -0.0005735772 0.00043804932 0.000338994
-3.8918508e-05 1.11253285e-05 0.00046213207 0.0022659602 -7.992433e-07 -0.0011515513 0.0025146678 -6.691909e-05
0.00019542736 -6.7067654e-06 -0.00014711915 -0.00015101943 1.8575089e-05 -0.00023365917 0.0023795543 -0.00018592316
-0.0024950202 0.0019335808 0.0016670987 2.2233275e-05 -9.644664e-05 0.00011452658 -0.00029530033 5.9684724e-05
8.2319144e-05 -2.8587538e-06 5.9340375e-05 -1.1430918e-05 -3.1011503e-05 -0.00022068288 1.8958048e-05 0.0011390345
00000000: 0aa0 393a 0563 1cb9 3521 3fb8 def1 40b7
00000010: b3a5 66ba 1558 0339 9968 12b9 6822 1b39
00000020: 7e64 ae38 cebb b038 7c9a cb38 7224 9138
00000030: 6693 223a 1e14 d9b7 98cf adb8 49fc eab8
00000040: bf0e c03a 7f3c 30b7 9842 4137 d009 a139
00000050: 744c 0137 4cb5 fb37 b1b8 8438 ebd4 0ab9
00000060: 7bfc 9837 d46c 7fba aa9c 49b8 d1f4 56b9
00000070: 8a54 163b d632 5a38 13dd c8b8 1165 c337
00000080: da52 4139 24c1 c838 4f8e 1fb8 118d dfb6
00000090: 344f b9b8 c94b 12bb 6750 3ebb 8d37 7038
000000a0: 8e79 233b 1b25 a8b8 080e e43a ae81 30b9
000000b0: 1e2e 3cb9 0949 5bb8 6133 20b9 3e90 2438
000000c0: 5682 c4b8 2ca0 ce38 8d3c d9b7 aa6b 4c39
000000d0: 39c4 aab8 f31a 1e3a bf86 05b7 a5ab 18b9
000000e0: cd82 47ba 7346 81b8 717e f037 2e88 e33a
000000f0: 924a 5638 008e 5c38 2f54 ca39 9d18 14b9
00000100: 047a 4339 bdb6 2337 28b0 f0b8 ecdc 0a39
00000110: f519 7d38 fd4f 36b9 6218 c8b8 cbab ec38
00000120: 230e 2e37 08a8 9639 2353 05b7 0b91 1238
00000130: 9613 ec37 15e0 07b9 02c8 9fb8 858d 89b8
00000140: fdea c2b6 96ad 12b8 b3de b7ba 152c cf36
00000150: 4ec1 2d3b 7075 62b7 ebc9 43b8 f538 e038
00000160: 3435 18bb b034 4dba 55fd 5bb8 9691 85b7
00000170: 67bc f6b7 1d5c 16ba fca9 e539 01bb b139
00000180: 6e3c 23b8 eca6 3a37 514a f239 8180 143b
00000190: 958b 56b5 a6ef 96ba 20cd 243b ea56 8cb8
000001a0: a2eb 4c39 ad0a e1b6 ff43 1ab9 f85a 1eb9
000001b0: b3d1 9b37 6802 75b9 4cf2 1b3b 5ef4 42b9
000001c0: 7e83 23bb 3570 fd3a 8d82 da3a 9881 ba37
000001d0: 6543 cab8 fd2d f038 8ad2 9ab9 fc55 7a38
000001e0: c1a2 ac38 04d9 3fb6 3ee4 7838 6bc7 3fb7
000001f0: 5912 02b8 1c67 67b9 1908 9f37 a84b 953a

projection_layer.1.weight f4 [128]
1.0476803 1.0346974 0.9999941 1.0162652 1.0220225 1.0280193 1.0190177 1.0427232
1.0176339 1.0072899 1.0058422 1.0170739 1.0126535 1.0277859 1.0234562 1.0105631
1.0269727 1.0265539 1.0034511 1.0495138 1.0282909 1.0261073 1.0434964 1.025874
1.0584378 1.0602309 0.9943312 1.0158918 1.0383571 0.99369186 1.0185828 1.0630025
1.0553541 1.0118214 1.043836 1.0206419 1.0234597 1.0360521 1.012251 1.020548
0.99387455 1.0194649 1.0115509 1.0103022 1.0261841 1.0499436 1.0210867 1.0325062
1.0194609 1.0334333 1.0559716 1.0067998 1.0286065 1.0431417 1.0364726 1.0729383
1.0236132 1.0378034 1.0157171 1.0379124 1.0224371 1.0124891 1.0215411 1.0309896
1.0385197 0.98134965 1.0098591 1.0533497 0.99672055 1.0245082 1.0145499 1.0527004
1.0433606 1.0477182 1.0482864 1.0407131 1.036934 1.0185173 1.0539808 1.0167145
1.0213681 1.05505 1.0097911 1.0240641 1.0459707 1.0159973 1.0357231 0.9722735
1.0176507 1.0152289 1.0174637 1.0157427 0.98346597 0.9981857 0.98744756 1.0089794
1.0317127 0.99893516 1.0666596 1.030171 1.0156986 1.032762 1.0437921 1.0052564
1.0183144 0.98852855 1.0574148 1.0389528 1.0080768 1.0157752 1.060034 0.99549687
0.9829929 1.0135679 1.0242046 1.0530177 1.0149996 1.0509844 1.0070368 0.99598336
1.0293142 1.0164618 1.0428346 0.98083717 1.0478759 1.0387194 1.0219059 1.0109516
00000000: 631a 863f f770 843f 9dff 7f3f fa14 823f
00000010: a2d1 823f 2396 833f 2c6f 823f f477 853f
00000020: d441 823f e0ee 803f 70bf 803f 7a2f 823f
00000030: a19e 813f 7d8e 833f 9d00 833f 225a 813f
00000040: d773 833f 1e66 833f 1671 803f 7856 863f
00000050: 099f 833f 7c57 833f 4a91 853f d74f 833f
00000060: e47a 873f a5b5 873f 7d8c 7e3f be08 823f
00000070: e3e8 843f 9762 7e3f ec60 823f 7710 883f
00000080: d815 873f 5d83 813f 6b9c 853f 65a4 823f
00000090: ba00 833f 5b9d 843f 7191 813f 51a1 823f
000000a0: 906e 7e3f d37d 823f 807a 813f 9551 813f
000000b0: 005a 833f 8d64 863f f8b2 823f 2a29 843f
000000c0: b27d 823f 8b47 843f 142a 873f d1de 803f
000000d0: 61a9 833f ab85 853f 22ab 843f 0b56 893f
000000e0: c205 833f bed6 843f 0503 823f 50da 843f
000000f0: 38df 823f 3e99 813f dcc1 823f 78f7 833f
00000100: 37ee 843f bb39 7b3f 1043 813f 2ad4 863f
00000110: 1429 7f3f 1623 833f c5dc 813f e3be 863f
00000120: d78c 853f a11b 863f 402e 863f 1636 853f
00000130: 41ba 843f c65e 823f d8e8 863f b323 823f
00000140: 31bc 823f e10b 873f d640 813f 8814 833f
00000150: 5ee2 853f 330c 823f 9392 843f ebe6 783f
00000160: 6142 823f 05f3 813f 403c 823f db03 823f
00000170: 6dc4 7b3f 1989 7f3f 5dc9 7c3f 3d26 813f
00000180: 290f 843f 37ba 7f3f 4d88 883f a5dc 833f
00000190: 6902 823f 8c31 843f fb9a 853f 3eac 803f
000001a0: 2058 823f 3510 7d3f 5e59 873f 68fc 843f
000001b0: a908 813f ec04 823f 32af 873f e2d8 7e3f
000001c0: 6ca5 7b3f 98bc 813f 2319 833f 49c9 863f
000001d0: 82eb 813f a886 863f 95e6 803f c4f8 7e3f
000001e0: 91c0 833f 6c1b 823f 9b7b 853f 2518 7b3f
000001f0: cc20 863f c2f4 843f d0cd 823f dd66 813f

projection_layer.1.bias f4 [128]
-0.01175371 -0.010627812 -0.03998854 -0.035706867 -0.008233627 -0.024501259 -0.032002345 -0.029470965
-0.0045074667 -0.02963958 -0.002434054 -0.02136026 -0.047509223 -0.009674948 -0.030115029 -0.04815675
-0.0098117115 -0.0035406705 -0.015043075 -0.033490025 -0.020119341 -0.013913168 -0.02428452 0.0051250244
-0.0133005595 -0.011259457 -0.028893583 -0.037354082 -0.02385297 -0.0659866 -0.05092752 -0.00826947
-0.01678453 -0.035581518 -0.0071025686 -0.0030862773 -0.033597153 0.00735026 -0.011646802 -0.033037152
-0.012769826 -0.05703024 -0.018991252 -0.05470259 -0.032125134 0.014787359 -0.05173411 0.0040649706
-0.023122642 -0.020730656 -0.0017531934 -0.05992081 0.0026201508 -0.0052042175 -0.02539591 -0.010050651
-0.01901627 -0.008704493 -0.018440463 -0.009574758 -0.05075109 -0.041519985 -0.03457108 -0.026049804
-0.019739836 -0.051689807 -0.052753482 0.009253827 -0.03343377 -0.033452157 -0.016912252 0.022895455
-0.056005888 0.0019221404 -0.02611647 -0.022525176 -0.0019076754 -0.04492883 -0.01599488 0.0034098038
-0.0265703 0.010775615 -0.024394056 -0.042448424 -0.009888879 -0.02365288 -0.042373028 -0.03465567
-0.017184637 -0.024088405 -0.011055604 -0.026643556 -0.050384965 -0.029796185 -0.029453777 0.02690347
-0.008701145 -0.05126512 -0.0036739912 -0.007803206 -0.06404168 -0.031837806 -0.031136816 -0.0006848886
-0.027294312 -0.04240543 0.02655207 -0.027302768 -0.04322271 -0.034245048 -0.042402375 -0.04309409
-0.045288265 -0.05017667 -0.02175215 0.0023345512 -0.012439328 -0.032709267 -0.02418662 -0.021895936
-0.034120537 -0.027893072 -0.025695335 -0.029299436 -0.06662514 -0.02517477 -0.027599802 -0.03637866
00000000: a292 40bc 4620 2ebc 06cb 23bd 5d41 12bd
00000010: 56e6 06bc ddb6 c8bc e414 03bd 186d f1bc
00000020: 5fb3 93bb b4ce f2bc a684 1fbb b6fb aebc
00000030: 0899 42bd ac83 1ebc cbb3 f6bc 0340 45bd
00000040: 4dc1 20bc 980a 68bb 3b77 76bc d62c 09bd
00000050: 51d1 a4bc 0ef4 63bc 54f0 c6bc d2ef a73b
00000060: 97ea 59bc 9679 38bc 3cb2 ecbc 9800 19bd
00000070: 4e67 c3bc fc23 87bd 6099 50bd ac7c 07bc
00000080: b67f 89bc edbd 11bd aabc e8bb 2443 4abb
00000090: 2b9d 09bd 73da f03b 3ad2 3ebc f751 07bd
000000a0: 8838 51bc 8a98 69bd 8b93 9bbc d30f 60bd
000000b0: a595 03bd ae46 723c 25e7 53bd 7233 853b
000000c0: b26b bdbc 56d3 a9bc 69cb e5ba 866f 75bd
000000d0: d6b6 2b3b 2488 aabb 150b d0bc 7cab 24bc
000000e0: 02c8 9bbc 4a9d 0ebc 7410 97bc 72df 1cbc
000000f0: 60e0 4fbd dc10 2abd 689a 0dbd 6666 d5bc
00000100: 70b5 a1bc b1b8 53bd 0914 58bd 5d9d 173c
00000110: d9f1 08bd 2105 09bd 908b 8abc 408f bb3c
00000120: 6e66 65bd 54f0 fb3a 35f2 d5bc b886 b8bc
00000130: f70a faba 4b07 38bd b207 83bc 0477 5f3b
00000140: f5a9 d9bc 358c 303c 0bd6 c7bc 66de 2dbd
00000150: f704 22bc afc3 c1bc 578f 2dbd 1bf3 0dbd
00000160: ccc6 8cbc 0c55 c5bc 9022 35bc 9643 dabc
00000170: 7760 4ebd 2117 f4bc 0c49 f1bc aa64 dc3c
00000180: 3f8f 0ebc 60fb 51bd 58c7 70bb 09b2 ffbb
00000190: 4928 83bd 5c68 02bd a312 ffbc 198a 33ba
000001a0: 5298 dfbc 51b1 2dbd ba83 d93c 0eaa dfbc
000001b0: 4c0a 31bd 8944 0cbd 1dae 2dbd 6e83 30bd
000001c0: 3080 39bd 0d86 4dbd 9131 b2bc 45ff 183b
000001d0: 53ce 4bbc 27fa 05bd 0523 c6bc 1b5f b3bc
000001e0: fac1 0bbd 0380 e4bc 067f d2bc 5f05 f0bc
000001f0: c372 88bd 523b cebc fb18 e2bc ca01 15bd

projection_layer.1.running_mean f4 [128]
0.018669724 0.02187601 0.008661436 0.033108704 -0.0012277451 -0.012773168 -0.03652853 -0.0014660645
-0.03088405 0.020569999 -0.009367693 -0.025802571 0.030063896 0.00020901623 -0.008963748 -0.0047622356
0.030405654 0.02680056 -0.00930994 -0.042188805 0.019384233 -0.004414962 -0.007511167 0.007680013
0.020059606 -0.013784674 -0.009130346 0.019719075 -0.024237854 -0.0074316226 -0.018333107 0.004464038
0.013151317 0.020784052 0.0059392694 0.010476085 0.02607947 -0.03608613 0.005115234 -0.0031610816
-0.012967691 0.025300272 -0.03864052 -0.005931304 -0.010036288 -0.0144014945 -0.02055152 -0.019068398
-0.019278295 0.027494872 0.013046286 -0.004772034 0.0024770028 -0.009385148 -0.0043901545 0.003103221
-0.0057635414 0.0016171618 -0.02454013 0.026347123 0.016444745 -0.009416802 -0.012522103 0.002629254
-0.03479014 -0.025739012 0.015849287 0.0044356915 -0.0013200635 0.0241588 0.0063526775 -0.0028166918
0.002752084 0.011127351 -0.0010198598 -0.005999938 0.014787102 0.010820025 0.05859573 -0.020904312
-0.020765513 0.04843824 -0.020688213 -0.012203751 -0.022489041 0.020346543 0.024783293 -0.009071254
-0.027170274 0.036980543 0.018759377 0.024579976 0.00017135574 0.009937849 0.016098518 0.012928089
-0.024380978 0.0019242966 0.049176555 0.0071770516 0.0027341233 -0.009869128 -0.013588342 0.0034578182
0.03271092 -0.022836976 0.022232391 -0.016714793 -0.0029051588 -0.01199141 0.0119605465 0.003734913
0.018539632 0.005820763 -0.0018645802 -0.023513522 0.0053413445 -0.016173791 -0.031743564 -0.008506488
0.009134784 0.017933259 0.011603547 0.02046562 -0.04492659 0.023417179 0.0310009 0.0062934617
00000000: 40f1 983c 5135 b33c b2e8 0d3c fe9c 073d
00000010: 4aec a0ba 8d46 51bc f19e 15bd f628 c0ba
00000020: 8c00 fdbc 6a82 a83c f47a 19bc ea5f d3bc
00000030: 8f48 f63c 5e2b 5b39 afdc 12bc 870c 9cbb
00000040: 4715 f93c d98c db3c b888 18bc 2bce 2cbd
00000050: afcb 9e3c 63ab 90bb 3c20 f6bb 9ea8 fb3b
00000060: 0b54 a43c 1dd9 61bc 7297 15bc e689 a13c
00000070: 778e c6bc f884 f3bb 502f 96bc 1147 923b
00000080: 9f78 573c 5143 aa3c 349e c23b e3a3 2b3c
00000090: 9da4 d53c 0dcf 13bd b19d a73b 262a 4fbb
000000a0: 7076 54bc 8442 cf3c 8645 1ebd 625b c2bb
000000b0: 3e6f 24bc 3ff4 6bbc a95b a8bc 5435 9cbc
000000c0: 84ed 9dbc ed3c e13c 17c0 553c b95e 9cbb
000000d0: 3655 223b 2ac4 19bc 49db 8fbb 695f 4b3b
000000e0: 17dc bcbb f2f6 d33a 6208 c9bc ecd5 d73c
000000f0: 21b7 863c ee48 1abc 8229 4dbc 904f 2c3b
00000100: 1b80 0ebd 9fda d2bc 5dd6 813c 4759 913b
00000110: fb05 adba ade8 c53c 1f2a d03b 3f98 38bb
00000120: 4f5c 343b 7e4f 363c d1ac 85ba 219b c4bb
00000130: 9a45 723c 7946 313c 1402 703d 853f abbc
00000140: 701c aabc 2d67 463d 547a a9bc 3ef2 47bc
00000150: f03a b8bc cbad a63c 5506 cb3c 999f 14bc
00000160: 3294 debc e978 173d 44ad 993c f25b c93c
00000170: f5ad 3339 5cd2 223c 0ae1 833c 56d0 533c
00000180: 9eba c7bc ae38 fc3a 5b6d 493d 792d eb3b
00000190: fa2e 333b 20b2 21bc a3a1 5ebc 909c 623b
000001a0: e3fb 053d 9c14 bbbc b420 b63c 76ed 88bc
000001b0: 7a64 3ebb 9e77 44bc 2bf6 433c 71c5 743b
000001c0: 6de0 973c 19bc be3b ee64 f4ba 6e9f c0bc
000001d0: 7206 af3b e67e 84bc 8a05 02bd cc5e 0bbc
000001e0: 10aa 153c c5e8 923c ce1c 3e3c 84a7 a73c
000001f0: f204 38bd 62d5 bf3c 99f5 fd3c 6239 ce3b

projection_layer.1.running_var f4 [128]
0.12374267 0.14367153 0.14743927 0.1670318 0.109870695 0.12761019 0.13096674 0.12647702
0.12852849 0.12758763 0.1316446 0.13245448 0.15830716 0.13803981 0.14093462 0.11973934
0.20937061 0.1812244 0.19081616 0.1400042 0.13064222 0.17303343 0.13217577 0.13486394
0.17852576 0.1447845 0.14824213 0.1502286 0.20694187 0.10954961 0.13676897 0.15134798
0.13636935 0.14325854 0.13222833 0.14587855 0.18910731 0.14759937 0.16770582 0.17154059
0.18536818 0.13787802 0.142242 0.16728668 0.12690778 0.13069996 0.14456823 0.15085877
0.098825514 0.13252808 0.1526551 0.11882289 0.1791831 0.17082435 0.16609253 0.10671585
0.15755437 0.102585725 0.14951143 0.14373265 0.11551283 0.14134856 0.12145562 0.12997895
0.1314662 0.17155623 0.14166914 0.14592865 0.12041858 0.16250363 0.11114927 0.16307367
0.13222623 0.14862618 0.1687579 0.13064174 0.12906587 0.16011734 0.11423494 0.13002747
0.17347285 0.23069842 0.14132383 0.13737272 0.08112741 0.12336053 0.15634885 0.13387705
0.12207256 0.14301977 0.16033047 0.10603076 0.09245927 0.124018185 0.1534343 0.15266427
0.147971 0.16755532 0.16315845 0.15160938 0.18110497 0.20752141 0.1334046 0.115142204
0.10852561 0.18787241 0.1599876 0.11849818 0.11349191 0.12825203 0.1288324 0.12918845
0.15198314 0.17930289 0.15675238 0.15088773 0.11496115 0.16136569 0.12578322 0.14179385
0.17276464 0.20202608 0.16392566 0.25397325 0.13923259 0.10365267 0.18050149 0.15375566
00000000: cc6c fd3d a11e 133e 52fa 163e 620a 2b3e
00000010: e303 e13d 3fac 023e 251c 063e 3183 013e
00000020: f99c 033e 55a6 023e d8cd 063e 26a2 073e
00000030: 461b 223e 4f5a 0d3e 2a51 103e e639 f53d
00000040: 4065 563e e492 393e 5065 433e 435d 0f3e
00000050: 13c7 053e ad2f 313e 1659 073e c619 0a3e
00000060: 75cf 363e 6342 143e c9cc 173e 87d5 193e
00000070: 92e8 533e 8c5b e03d 2a0d 0c3e f7fa 1a3e
00000080: 68a4 0b3e 5eb2 123e dd66 073e 3061 153e
00000090: 59a5 413e 4a24 173e 13bb 2b3e 56a8 2f3e
000000a0: 28d1 3d3e e52f 0d3e e3a7 113e 334d 2b3e
000000b0: 1df4 013e 36d6 053e b209 143e b97a 1a3e
000000c0: 0865 ca3d 71b5 073e 9e51 1c3e 6a59 f33d
000000d0: c67b 373e 94ec 2e3e 2914 2a3e d78d da3d
000000e0: ef55 213e 7718 d23d 8619 193e a72e 133e
000000f0: fe91 ec3d adbd 103e b9bd f83d 3419 053e
00000100: 139f 063e 70ac 2f3e b711 113e 526e 153e
00000110: 049e f63d 5a67 263e 3aa2 e33d c9fc 263e
00000120: 5066 073e 7631 183e dfce 2c3e f3c6 053e
00000130: d829 043e cdf5 233e 02f4 e93d ec25 053e
00000140: dea2 313e 353c 6c3e 32b7 103e 6fab 0c3e
00000150: 2126 a63d 72a4 fc3d ea19 203e 1117 093e
00000160: 2e01 fa3d c673 123e ac2d 243e a826 d93d
00000170: 495b bd3d 3ffd fd3d e21d 1d3e 0654 1c3e
00000180: b685 173e 9f93 2b3e 0213 273e 7d3f 1b3e
00000190: 9573 393e 7e80 543e 379b 083e adcf eb3d
000001a0: ad42 de3d a061 403e cad3 233e 2caf f23d
000001b0: 726e e83d 8054 033e a4ec 033e fa49 043e
000001c0: 78a1 1b3e 2d9b 373e b283 203e 5082 1a3e
000001d0: c070 eb3d 0c3d 253e 51cd 003e 6832 113e
000001e0: 37e9 303e eddf 4e3e 21dc 273e c808 823e
000001f0: fd92 0e3e da47 d43d 62d5 383e 2072 1d3e

projection_layer.4.weight f4 [128, 128]
0.05160034 0.057247553 -0.028119972 0.0057656695 -0.042192116 0.09407757 -0.09650288 -0.047342673
-0.037115473 0.0633967 -0.011250156 0.008373199 -0.06802447 0.052743215 -0.07438659 -0.04272796
-0.064010374 -0.011395155 -0.060432434 0.008208205 -0.08414403 -0.028371956 0.030720767 0.006638706
0.08983714 -0.06988527 0.008687301 0.09707124 -0.034690674 0.043326095 -0.13056435 -0.026780909
0.048425008 0.02580757 -0.11616944 -0.015788702 -0.09576464 0.023551438 0.118062325 0.079986736
-0.03581555 0.04928308 -0.089504585 0.05198858 0.08507684 0.0386075 -0.038993627 0.051489566
-0.057526898 -0.036614828 0.025527766 0.045748368 -0.102207504 -0.058644906 -0.060354616 0.0030315495
0.051286574 -0.088331416 -0.032882567 -0.03519956 -0.052356653 -0.0592144 -0.064063214 0.014198638
-0.064555466 -0.0047933757 0.10083056 -0.073896095 -0.057237454 -0.008733814 0.055997737 -0.013511168
0.090335466 -0.010971053 -0.06573794 0.009015192 0.05501847 0.011809507 -0.08629656 0.0659966
0.1038417 -0.09564439 0.035904072 -0.078099035 -0.02069056 0.037661474 -0.15268315 -0.033217955
0.050461255 0.047882773 0.065292604 -0.068902954 0.024377052 0.0034383705 0.026570948 -0.012233135
0.04039191 -0.0027916066 0.023733407 0.01619468 -0.009252439 0.1315372 0.004701503 -0.03455828
-0.06984895 -0.041201897 -0.04686062 -0.090771265 0.08940392 0.104510844 -0.025127443 -0.013944704
-0.033561602 0.0667802 0.08250378 -0.033221904 0.06400076 -0.017243093 0.009272834 0.01075889
0.09430155 -0.071005 0.06345871 -0.051086314 -0.04941231 -0.048574585 -0.07572687 0.057058655
-0.10388599 0.06329342 -0.029876182 0.089291744 -0.049304366 -0.04049067 0.027773684 0.021198362
-0.078510076 0.006433107 -0.093959995 0.009915111 -0.026135817 0.030861374 0.08118352 -0.056553364
0.0030250512 -0.092782386 0.022049645 -0.06774542 0.008490412 -0.086341135 0.118076324 0.090561986
-0.0015179012 -0.090472355 -0.009062517 0.09751289 -0.03934639 -0.07550055 0.047073342 -0.05521612
0.0002206564 -0.02509265 0.03276584 -0.078200445 -0.0069017955 -0.09873418 -0.09371091 0.08270448
-0.034488022 -0.036625452 -0.04872378 -0.040178843 0.012387731 -0.066146605 -0.022272239 -0.031638578
0.036892205 -0.035358194 0.006904697 -0.024877578 0.049923193 -0.039565265 0.017112764 0.020719677
-0.057317555 -0.042779926 -0.005177265 -0.073568255 -0.025403166 -0.03942768 -0.12717655 0.074363895
0.06753494 0.004991527 -0.05029046 0.020532094 -0.046281498 -0.12314011 0.052615277 0.07540244
0.041565232 0.0012955973 0.012148155 0.057446554 0.008599345 0.033881333 0.0274128 -0.07497938
0.049477052 0.06144508 -0.017545113 -0.039381173 -0.029185299 -0.10779179 0.03297134 0.037308287
0.026788581 0.09867321 -0.0888193 0.030269956 -0.046053834 -0.0010825737 0.039171834 0.07534504
-0.03781645 -0.08708369 0.09537203 0.03412626 -0.068581246 -0.020184904 -0.05539196 -0.093585305
-0.03722538 0.033501796 -0.031078987 0.12197191 -0.008190787 0.01337547 -0.034464367 0.03869877
0.072437555 0.03668622 -0.122485705 -0.10224365 0.04279341 -0.11570235 0.02766674 0.019247603
0.055831198 0.035998326 0.043788765 0.035805978 -0.13247915 -0.026102193 -0.019423638 0.08964531
00000000: e15a 533d 697c 6a3d db5b e6bc f1ed bc3b
00000010: a4d1 2cbd beab c03d 4da3 c5bd 64ea 41bd
00000020: 6506 18bd 21d6 813d 9352 38bc be2f 093c
00000030: 6a50 8bbd 4509 583d ff57 98bd 8303 2fbd
00000040: df17 83bd bfb2 3abc 0088 77bd b57b 063c
00000050: b553 acbd 4e6c e8bc 1eaa fb3c 8189 d93b
00000060: 89fc b73d 0220 8fbd 2e55 0e3c 49cd c63d
00000070: cf17 0ebd b476 313d a9b2 05be a363 dbbc
00000080: 4d59 463d 666a d33c 3eea edbd 4f57 81bc
00000090: 4020 c4bd f2ee c03c a9ca f13d 16d0 a33d
000000a0: 53b3 12bd 0edd 493d 2e4e b7bd faf1 543d
000000b0: c43c ae3d e622 1e3d c8b7 1fbd b9e6 523d
000000c0: 53a1 6bbd 6ef9 15bd 9b1f d13c a462 3b3d
000000d0: 2b52 d1bd a435 70bd 6736 77bd f6ac 463b
000000e0: df11 523d 1ae7 b4bd dfaf 06bd 6a2d 10bd
000000f0: ee73 56bd cc8a 72bd 9333 83bd 67a1 683c
00000100: a835 84bd c011 9dbb 4180 ce3d d656 97bd
00000110: d271 6abd 4518 0fbc e25d 653d f25d 5dbc
00000120: cd01 b93d eebf 33bc 9da1 86bd 75b4 133c
00000130: 0c5b 613d aa7c 413c 40bc b0bd 3a29 873d
00000140: f5aa d43d 35e1 c3bd 2610 133d 63f2 9fbd
00000150: 407f a9bc eb42 1a3d f958 1cbe 8d0f 08bd
00000160: 76b0 4e3d ba20 443d 21b8 853d fe1c 8dbd
00000170: 62b2 c73c 4956 613b 51ab d93c 7d6d 48bc
00000180: fd71 253d 63f3 36bb 906c c23c b5aa 843c
00000190: 8b97 17bc b0b1 063e 110f 9a3b fc8c 0dbd
000001a0: f70c 8fbd 52c3 28bd ecf0 3fbd 49e6 b9bd
000001b0: 6719 b73d c809 d63d 11d8 cdbc 5478 64bc
000001c0: e477 09bd 0fc4 883d bef7 a83d b113 08bd
000001d0: d512 833d 6341 8dbc 16ed 173c 0e46 303c
000001e0: 2c21 c13d 126b 91bd a4f6 813d e23f 51bd
000001f0: 9064 4abd 25f6 46bd b016 9bbd 56b6 693d
00000200: 2ec2 d4bd fb9f 813d e5be f4bc 97de b63d
00000210: 60f3 49bd 8bd9 25bd a385 e33c 30a8 ad3c
00000220: e4c9 a0bd d0cc d23b 196e c0bd fd72 223c
00000230: c81a d6bc fed0 fc3c 8c43 a63d 80a4 67bd
00000240: f03f 463b b104 bebd 75a1 b43c 1cbe 8abd
00000250: 5e1b 0b3c 9fd3 b0bd 00d2 f13d 9078 b93d
00000260: 50f4 c6ba 9249 b9bd f47a 14bc d7b4 c73d
00000270: ae29 21bd 08a0 9abd facf 403d 4c2a 62bd
00000280: 0060 6739 1a8f cdbc 7935 063d 8e27 a0bd
00000290: 7528 e2bb 2535 cabd 81eb bfbd f760 a93d
000002a0: 5043 0dbd 9204 16bd 9692 47bd 9292 24bd
000002b0: e9f5 4a3c df77 87bd 4574 b6bc 7497 01bd
000002c0: 481c 173d c1d3 10bd cc40 e23b 10cc cbbc
000002d0: 437c 4c3d 300f 22bd 1130 8c3c 50bc a93c
000002e0: d0c5 6abd 013a 2fbd 0ca6 a9bb f4aa 96bd
000002f0: 4d1a d0bc eb7e 21bd 923a 02be 194c 983d
00000300: c24f 8a3d f78f a33b 5ffd 4dbd ec32 a83c
00000310: ab91 3dbd e230 fcbd 1e83 573d 986c 9a3d
00000320: 4e40 2a3d 08d1 a93a 0e09 473c 144d 6b3d
00000330: 44e4 0c3c 27c7 0a3d cf90 e03c ca8e 99bd
00000340: 73a8 4a3d d6ad 7b3d c5ba 8fbc 274e 21bd
00000350: 0216 efbc f1c1 dcbd f50c 073d 93d0 183d
00000360: ba73 db3c 2e15 ca3d e5e6 b5bd b3f8 f73c
00000370: f2a2 3cbd 25e5 8dba a572 203d 804e 9a3d
00000380: 6ce5 1abd ef58 b2bd 6952 c33d fac7 0b3d
00000390: 5374 8cbd d05a a5bc aee2 62bd a7a9 bfbd
000003a0: a479 18bd 2e39 093d 5c99 febc 69cc f93d
000003b0: a732 06bc ca24 5b3c 822a 0dbd 9a82 1e3d
000003c0: 245a 943d 4a44 163d c9d9 fabd 1e65 d1bd
000003d0: 2548 2f3d 5bf5 ecbd 5ca5 e23c 26ad 9d3c
000003e0: 41af 643d fb72 133d d95b 333d 4aa9 123d
000003f0: 9da8 07be 44d4 d5bc 521e 9fbc f697 b73d

projection_layer.4.bias f4 [128]
-0.054985452 -0.042721733 -0.0343401 -0.0455 0.0649019 0.06163623 0.0040372303 -0.066232376
-0.057840623 -0.0027307982 0.0032340335 0.051000256 -0.044334237 -0.020201761 -0.026526526 -0.0026813985
-0.029798461 -0.050489597 -0.0070103323 0.0011934518 -0.013948895 -0.0024806843 -0.022375083 -0.012210845
-0.06328691 0.02537776 0.07146227 -0.08462947 0.053141445 -0.01717213 0.059593976 -0.0948117
0.009179104 0.03272482 0.08824353 -0.043592583 0.10118191 -0.036105968 0.057335157 -0.009358505
0.07569985 -0.068560876 0.05446544 0.043577384 0.06982301 -0.05814193 -0.047176506 0.020286249
-0.06855254 -0.0657806 -0.0752395 -0.045838617 0.07791256 0.041845776 -0.015088224 -0.050338306
-0.03600685 -0.08619369 -0.02501592 -0.076814234 0.07944134 -0.016724784 -0.05290732 -0.08096455
-0.0053038234 0.074199714 0.06613751 -0.009819362 -0.08573959 0.068236075 0.017655205 0.06412026
0.074708715 -0.06817407 0.06508385 0.0626469 -0.04825364 -0.054953426 -0.057714846 0.07570051
-0.07911166 0.04158664 -0.04355786 -0.015016687 -0.0034807234 0.02261115 0.03529565 0.06316583
0.025834508 0.039552484 0.06806955 -0.00053816993 0.019907508 0.048833337 -0.023095747 -0.07105039
-0.030802285 -0.08062176 -0.07473323 0.03449668 -0.070741795 0.07026809 -0.080753304 0.07810068
-0.072413966 0.07374709 0.036795005 -0.00467114 -0.015942099 0.07741001 0.042417053 -0.08978199
0.05878051 -0.013157134 -0.024451824 -0.023143336 0.0036079725 -0.020329252 -0.051077314 0.014003211
0.009610605 0.034657884 0.003432382 -0.04254819 -0.027014041 0.020185642 0.04365353 -0.02587923
00000000: 6d38 61bd fcfc 2ebd 34a8 0cbd 355e 3abd
00000010: 4aeb 843d 4676 7c3d be4a 843b d7a4 87bd
00000020: 4aea 6cbd 31f7 32bb 14f2 533b a5e5 503d
00000030: d197 35bd 2a7e a5bc 284e d9bc 67ba 2fbb
00000040: e71b f4bc 2ece 4ebd eeb6 e5bb 996d 9c3a
00000050: e889 64bc fa92 22bb f34b b7bc ff0f 48bc
00000060: 919c 81bd 05e5 cf3c d05a 923d 3752 adbd
00000070: d8aa 593d 91ac 8cbc d018 743d a32c c2bd
00000080: f463 163c 760a 063d 06b9 b43d 238e 32bd
00000090: 7638 cf3d dae3 13bd 45d8 6a3d 6a54 19bc
000000a0: 8608 9b3d a569 8cbd 2717 5f3d 337e 323d
000000b0: 5eff 8e3d 3b26 6ebd 273c 41bd 592f a63c
000000c0: 4665 8cbd fbb7 86bd 2b17 9abd 46c1 3bbd
000000d0: 9f90 9f3d 7a66 2b3d 9934 77bc 8a2f 4ebd
000000e0: eb7b 13bd 5186 b0bd 30ee ccbc c850 9dbd
000000f0: 24b2 a23d 6a02 89bc 59b5 58bd bed0 a5bd
00000100: b2cb adbb 05f6 973d 1a73 873d 64e1 20bc
00000110: 3d98 afbd 5bbf 8b3d a6a1 903c 7c51 833d
00000120: e200 993d d99e 8bbd ae4a 853d 054d 803d
00000130: 9ca5 45bd d816 61bd 6766 6cbd de08 9b3d
00000140: 4b05 a2bd c156 2a3d ba69 32bd 8d08 76bc
00000150: d91c 64bb 053b b93c 2c92 103d 165d 813d
00000160: e4a2 d33c c901 223d 0c68 8b3d f913 0dba
00000170: 1215 a33c 7705 483d 4b33 bdbc de82 91bd
00000180: 1355 fcbc 051d a5bd bc0d 99bd 644c 0d3d
00000190: 13e1 90bd b7e8 8f3d fd61 a5bd 40f3 9f3d
000001a0: c64d 94bd b708 973d 5cb6 163d 5d10 99bb
000001b0: 0199 82bc 2489 9e3d 81bd 2d3d 9fdf b7bd
000001c0: d5c3 703d 0591 57bc 314f c8bc 1897 bdbc
000001d0: bc73 6c3b 8889 a6bc 7236 51bd b96d 653c
000001e0: cd75 1d3c 6df5 0d3d d0f1 603b 0347 2ebd
000001f0: 8d4c ddbc 5c5c a53c 0bce 323d ae00 d4bc

output_layer.weight f4 [1, 128]
0.06124418 -0.10791262 -0.059191383 0.10301059 0.04333682 0.10902886 -0.06081307 -0.085806616
0.12827405 0.077612795 0.02312589 -0.10873399 0.12427878 0.11097386 0.04098258 -0.03810474
0.07578214 -0.0834879 0.012755394 0.030849399 0.079649165 0.05393657 0.060745798 0.098259695
-0.0962907 0.13050452 -0.08662476 -0.08656624 0.06930854 -0.107150495 -0.071681485 -0.055360682
-0.093194954 -0.11687203 0.04974647 0.1452941 0.15583256 -0.047249276 0.098618716 -0.09745042
0.0554867 -0.05492221 -0.067168 -0.11212651 0.06253299 0.10054553 -0.11753477 -0.08769322
-0.08598085 -0.01502938 0.10016606 0.09152462 0.094650276 -0.10570155 -0.056702808 0.07840371
0.017269012 -0.1465572 -0.05157071 0.087052464 -0.058154963 0.12110203 -0.10406138 -0.07534895
0.024322454 0.04652912 0.0044232407 0.032997496 -0.06110297 0.018556073 -0.0749484 -0.03449726
0.06397644 -0.0689436 0.018946737 0.055055045 0.048204347 0.01904434 0.03232753 0.0064996444
0.0396491 -0.0333392 0.06456727 -0.1105997 0.06923033 -0.021900296 0.1201009 -0.053034272
0.050144844 -0.05736817 -0.052580196 -0.03562643 -0.046497818 -0.052485865 -0.05043395 0.0966764
0.061814964 0.035747524 0.035066973 -0.038840365 -0.007000108 0.10094219 0.07092656 0.07563358
0.019867519 -0.0408891 0.04044162 -0.13625228 -0.06704572 -0.09293034 -0.06952483 0.029725546
-0.06301855 0.027142808 0.10970058 -0.036297265 -0.07004007 0.071546584 -0.019297412 0.06779616
0.073744975 0.10135268 -0.06725902 0.057093117 0.07095874 -0.055413872 0.06675229 0.083996415
00000000: 2ddb 7a3d 4b01 ddbd aa72 72bd 37f7 d23d
00000010: f381 313d 864a df3d 2017 79bd 61bb afbd
00000020: 465a 033e 75f3 9e3d 8272 bd3c edaf debd
00000030: df85 fe3d 4346 e33d 5add 273d b713 1cbd
00000040: ab33 9b3d b4fb aabd 00fc 503c e1b7 fc3c
00000050: 1a1f a33d 98ec 5c3d 96d0 783d 613c c93d
00000060: 0f34 c5bd faa2 053e 5268 b1bd a449 b1bd
00000070: a3f1 8d3d b871 dbbd becd 92bd e2c1 62bd
00000080: ffdc bebd 9a5a efbd f4c2 4b3d fac7 143e
00000090: 9292 1f3e 7588 41bd 9cf8 c93d 1694 c7bd
000000a0: 0646 633d 1cf6 60bd 608f 89bd 95a2 e5bd
000000b0: 4c11 803d d1ea cd3d 12b6 f0bd 8198 b3bd
000000c0: ba16 b0bd ca3d 76bc dd23 cd3d 4371 bb3d
000000d0: 01d8 c13d 0e7a d8bd 3441 68bd 2092 a03d
000000e0: be77 8d3c 1713 16be cf3b 53bd 9048 b23d
000000f0: e633 6ebd 5704 f83d 221e d5bd 8d50 9abd
00000100: e23f c73c 5295 3e3d d5f0 903b 6228 073d
00000110: 1c47 7abd e802 983c 8c7e 99bd 004d 0dbd
00000120: 1406 833d 4d32 8dbd 3036 9b3c 6681 613d
00000130: ec71 453d e002 9c3c df69 043d f8fa d43b
00000140: 1867 223d af8e 08bd d83b 843d 1882 e2bd
00000150: a2c8 8d3d 4068 b3bc 76f7 f53d 773a 59bd
00000160: ae64 4d3d e3fa 6abd 555e 57bd 05ed 11bd
00000170: 7f74 3ebd 6bfb 56bd d493 4ebd 47fe c53d
00000180: b031 7d3d ff6b 123d 63a2 0f3d 1317 1fbd
00000190: 2961 e5bb c7ba ce3d f241 913d c7e5 9a3d
000001a0: 35c1 a23c 547b 27bd 1da6 253d b885 0bbe
000001b0: 444f 89bd 4352 bebd 0963 8ebd fd82 f33c
000001c0: df0f 81bd 985a de3c b3aa e03d 71ac 14bd
000001d0: 2b71 8fbd 0487 923d 9b15 9ebc b7d8 8a3d
000001e0: 9b07 973d fe91 cf3d 19bf 89bd 79da 693d
000001f0: d152 913d a8f9 62bd 6db5 883d 5006 ac3d
