Checkpoints/HR_V/valence_s22.pth (torch, 461905 bytes, 29 tensors)

input_layer.weight f4 [128, 29]
00000000: 6413 083e 402b 363b d7a7 673d e405 f43c
00000010: d469 423a cdd0 e53c b202 543d 4a98 a1bd
00000020: 9cc7 c13c 8428 08be ada6 653d def4 e6bd
00000030: c046 c4bd b857 b33d 5f55 993d 3ed8 1dbe
00000040: 38f1 473c 3789 c83d bb52 383d 1c04 e13d
00000050: c856 043e c149 da3d 0f31 013e e7fe 2b3d
00000060: 3f6c 223e ca53 103e f18b a83c 7bb7 d7bd
00000070: 1001 153d 50a5 0b3d 994a 3c3d 3b38 15be
00000080: 4483 3a3d 576e 13be a07f 38be 9e69 4cbc
00000090: 9874 193e 732f 1b3e 5e63 f6bd b703 283e
000000a0: 74cc 29be 14c7 10be 72d8 c2bd d4d2 bfbd
000000b0: 5b79 c2bd e38f 2d3e 39ba 44bd dd95 e93d
000000c0: e7d4 443e e1e7 623c 68cb 03be 21db b03d
000000d0: ddad 48bd 181d 0f3e f346 92bd 6ebf 1abe
000000e0: 838a 373d f719 3ebe b87d 4bbe bf77 933c
000000f0: 9225 f03d 667e c23d 76ba 8d3d aed2 19bd
00000100: 771d 8f3d 2c08 35bc bf0a 07be 9c25 213e
00000110: ed28 a23d 4357 7c3d 2be6 aa3d c695 193e
00000120: 23e1 01be 0e43 413d 1cde 3b3d 4a5f b7bd
00000130: a769 acbc 0434 25be 05a2 2b3e f970 f4bd
00000140: 0081 b23d c3bc 87bd 9916 aa3d 3983 2bbe
00000150: ef4c 38bc 2232 b13d 42db 82bd 078b f2bc
00000160: a9a2 53bc 14fa 80bd e05d 2fbe 4325 16be
00000170: c002 39be b615 d8bc 0547 47be 8d7a bfbd
00000180: e44f 9e3d 82ed 2d3e ea38 963c 4be3 583d
00000190: bc6d ff3d abcf 293c 8f87 453d b0ec 213b
000001a0: a329 c3bd d74a 12be ffc7 e73d 8c98 19bc
000001b0: 7f2b 013d 5dd9 1c3b f325 12be a348 a0bd
000001c0: fd71 b53d a4ed 2dbe 41b2 553d 6b44 233e
000001d0: 4bf0 08be 1abb 6c3d 3d29 42bd 5c19 49bb
000001e0: 59ac ab3d ced1 c63d 5c7c 923d 4839 803c
000001f0: 7ed1 ac3d 09ba c93d cfae 2f3e 168e 003e
00000200: 0110 253e bcd0 52bd 1896 90bd abca b5bd
00000210: 1d45 89bd b1c5 453d 204e ec3c 9472 40bd
00000220: a6ff b93c 34c3 0a3e b24a 2f3e 6eb6 fb3d
00000230: ad3b 43bd a4a3 33bc 5fed 05be 5b38 e73d
00000240: 722c c13d a14a 143e 15da 0fbe 2953 87bd
00000250: bb0a 10be 2d1d d93d 3f14 24bd 73dd 45bd
00000260: 643a 6c3d 90c1 083e a3cc ec3d 519b 23be
00000270: 2324 9cbc 7e88 6dbd 4eed f73d 6edb 2ebd
00000280: a6bc 273b de9c 7e3d 7ca9 dbbd 41da 35be
00000290: 921c b0bd d8cc a83d 0f04 b0bd 24c7 f5bd
000002a0: b597 53bd ea92 03be 8a2c 2a3e 9131 6dbd
000002b0: 3551 af3d 251f 0bbe b4fa a7bd 3fa7 c73d
000002c0: e87b 313d 66a0 513b becc fb3d f481 0b3e
000002d0: 2661 973d 6e67 423e 0166 1b3e b643 ca3d
000002e0: d38e a73d 9e51 7dbd 5b60 dfbd f731 35bc
000002f0: ef97 3d3d c992 acbd c347 20be 9235 1d3e
00000300: c76b 5a3d dac1 33bd 7cc8 34bd f4bd 193b
00000310: 4289 103e a804 003e 6317 35be 568c 9c3d
00000320: 42f4 96bc 5a79 b8bd 8081 373e ce01 45be
00000330: 7b57 a43d ba97 9cbd 4e28 cbbd 1eea 50ba
00000340: 7cc9 0a3e ddca b83d e542 10be 9c2a cc3d
00000350: f169 fa3c 2525 b43d e960 3bbe 04a2 dc3d
00000360: 4282 32bd 875c 25be d361 1b3e 586f d8bd
00000370: cca1 0a3e 33e6 33bd 2b9e 4dbd 79cb 833c
00000380: 5f8e 0a3d d202 e33d 0e82 4dbe 39c4 c4bd
00000390: 62a1 33be 6ad1 e4bd 148d d33d d13f 1cbd
000003a0: 9af8 ae3d 7709 293e 7160 46be ef21 32be
000003b0: 57fe 393e 2a52 f53c cbe5 d53d 6774 babd
000003c0: ef56 47bb ba62 3c3b 35af eb3d e6d1 293e
000003d0: e9f9 ccbd 7f51 a53c 76c5 44be 7cc9 74bc
000003e0: 670a d8bd 2dc0 033d 83f4 32be dc69 0dbe
000003f0: 74ff c73c 94cb 42be 65e7 c9bd 21c1 133e
0.13288647 0.0027796775 0.05655655 0.029787965 0.00074162823 0.028053666 0.051760383 -0.07890375
0.023654751 -0.13296705 0.056067158 -0.112771735 -0.09583807 0.087569654 0.07486986 -0.15414521
0.012203507 0.09791797 0.045000773 0.10987112 0.1292373 0.10658599 0.1261637 0.04199114
0.15861605 0.14094463 0.020574542 -0.10533043 0.036377966 0.0340932 0.04596958 -0.14572231
0.04553534 -0.1439756 -0.18017435 -0.012476353 0.14985883 0.15154819 -0.120306715 0.16407667
-0.16581899 -0.14138442 -0.0951394 -0.09366384 -0.09495803 0.1694942 -0.04802916 0.11405537
0.19221841 0.01384923 -0.12870562 0.086355455 -0.048993934 0.13975942 -0.07142439 -0.15112087
0.04480983 -0.18564592 -0.19872177 0.018001435 0.11725916 0.09496765 0.0692033 -0.037554435
0.06988042 -0.011049312 -0.13187693 0.15737003 0.07917962 0.061606657 0.08344682 0.1499854
-0.12683539 0.04718309 0.045866117 -0.08953722 -0.021046473 -0.16133124 0.16761024 -0.1193561
0.08716011 -0.066278 0.083050914 -0.16749276 -0.011248811 0.0865214 -0.06389476 -0.029607309
-0.012917199 -0.062976986 -0.17125654 -0.14662652 -0.18067455 -0.02637754 -0.19460686 -0.093495466
0.07730082 0.16985133 0.018337686 0.05295114 0.12472102 0.010364453 0.048224982 0.0024707727
-0.09529426 -0.14286362 0.11317443 -0.009374749 0.03153562 0.002393327 -0.14272289 -0.07826354
0.08859632 -0.16985184 0.05217195 0.15944068 -0.13372914 0.05779562 -0.04740261 -0.0030685281
0.08382482 0.09707986 0.07152626 0.015652314 0.08438395 0.098499365 0.17156528 0.12554201
0.16119386 -0.051468596 -0.07059878 -0.088765465 -0.067026354 0.048284236 0.028845847 -0.04698427
0.02270491 0.13551027 0.17118338 0.12290655 -0.047664333 -0.010964308 -0.13078831 0.11290046
0.094323054 0.14481594 -0.14048035 -0.066076584 -0.14066593 0.10601268 -0.04005837 -0.048306894
0.057672873 0.13355088 0.11562469 -0.15977217 -0.0190602 -0.057991497 0.12105809 -0.042689733
0.002559462 0.06216132 -0.10725686 -0.17759039 -0.08599199 0.08242196 -0.08594524 -0.12000874
-0.05165835 -0.12849012 0.16618553 -0.0579086 0.08560411 -0.135861 -0.08202115 0.097486965
0.043331057 0.0031986474 0.12294911 0.13623792 0.073915765 0.18984768 0.1517563 0.09876196
0.081815384 -0.061845414 -0.1090705 -0.011059276 0.046287473 -0.084264345 -0.15652375 0.15352467
0.05332544 -0.043886043 -0.04413651 0.0023459168 0.1411486 0.12501776 -0.17684703 0.076439545
-0.018427018 -0.09007521 0.17920494 -0.1923897 0.08024498 -0.07646127 -0.09919797 -0.00079694565
0.13553423 0.09023068 -0.14088018 0.099690646 0.030568095 0.08796147 -0.18298687 0.107730895
-0.043581255 -0.16148578 0.15174036 -0.10568112 0.13538283 -0.043920707 -0.05019967 0.016088234
0.033827182 0.11084522 -0.20069143 -0.09607739 -0.17542031 -0.11172755 0.10329643 -0.038146798
0.08543511 0.16507517 -0.19372727 -0.17395757 0.18163429 0.029946405 0.1044422 -0.09104233
-0.0030416807 0.002874537 0.115080275 0.16583976 -0.10008604 0.020180462 -0.1921595 -0.014940616
-0.10548859 0.032165695 -0.17476086 -0.13809913 0.024413802 -0.19022971 -0.09858588 0.14429142

input_layer.bias f4 [128]
00000000: 6766 fbbc 532f eabc f06d 02be 8872 873d
00000010: 15da 9039 5b10 213a eed5 b23d ac68 f7bd
00000020: 78d6 9ebd 3285 c0bd 4bca 1ebd 08df 693d
00000030: c0e9 2a3d ebf2 7839 f2dc f6bd 2d8a d03d
00000040: 2436 84bc c6b3 f9bd 35ba 2bbc 2701 803d
00000050: 4529 063e 8cd2 ea3d dbc2 ff3d 5b72 ee3d
00000060: 53a3 083e 12ec b6bc 1d38 7e3a 38eb d8bd
00000070: cfda a1bd e55d 25bb d752 66bd a071 60bd
00000080: ac7a 2cbc 4c90 7638 70d3 713b d04b a43d
00000090: ac0b 363d dcbc a43d 8b7b ecbd f76a 293d
000000a0: cd6a 773d 733a 7e3d 7f8a be3c 15bd 843c
000000b0: a328 c3bd 2dc8 38b9 2ea1 4b3d 66ce fbbd
000000c0: 36f1 a7bd 8175 c439 72de f6b8 0829 ecbc
000000d0: 50d6 a03d 83fd e9bd 8bed 5bbd fa21 d13b
000000e0: 2b59 ddbd c9e4 90bd 6f84 a23d b874 1cbc
000000f0: bdd7 dd3d fdf1 583d 6d55 4939 1dfb 1f3c
00000100: b15f 143d c727 89bb fe17 8dbd 24e2 4ebd
00000110: c2f8 4a3b af79 a2bc c689 0b3d 7ec2 3d3d
00000120: cbb6 993c 5751 5e39 a5be 513d c32b e539
00000130: a45a dd3d 6dd4 01b8 93ec b53d 7083 fabd
00000140: 46ed 87bd 0b7b 1fbc b12b c0bd baac 4c3b
00000150: 465f 873c c1c6 d93c 1ab5 cabc 32df d93d
00000160: 5e9e 9f3d ce22 63bd b08c 9b3d eb48 c8bc
00000170: 5ebd 83bc 1bbb 9b3d c22e cdbd 3b21 453d
00000180: 4957 25b9 daa1 c1bd d951 c63c e3f0 163a
00000190: 57af 1bb8 905e ecbd 3d64 d8b9 295c b8bd
000001a0: 2052 8a3d f982 69bd 563a 273d be32 07bd
000001b0: ef45 963d b5d9 f23d 2c87 313a 8478 cd3d
000001c0: 3db0 97bd 3fe0 07bd 2baa 383d d1ba 13bd
000001d0: 1bb2 183d 5c8b 3e3d a662 07be 3ed9 4ebd
000001e0: 0c5c 5338 9f95 bfbc 1c2f 3ebc 2492 2b3d
000001f0: b739 8d3d f1a2 94ba 9a19 1fbd 0abc d23c
-0.030688478 -0.02858702 -0.1273725 0.06613642 0.00027628304 0.00061441 0.0873221 -0.120805115
-0.077557504 -0.09400405 -0.03876714 0.057097465 0.041726828 0.00023741617 -0.12053861 0.10182605
-0.016139098 -0.12192492 -0.010481407 0.0625022 0.1310168 0.1146594 0.124883376 0.11642905
0.13343553 -0.022329364 0.00096976926 -0.105917394 -0.079030626 -0.0025232967 -0.056231346 -0.05479586
-0.010527294 5.8785357e-05 0.0036899708 0.080222726 0.044444725 0.080438346 -0.115470015 0.041361775
0.060404588 0.06206746 0.0232594 0.016203443 -0.09529235 -0.00017622179 0.04971426 -0.12295227
-0.08200304 0.0003747158 -0.00011771628 -0.028828159 0.07853377 -0.11425307 -0.053693336 0.006382224
-0.10808023 -0.07074887 0.07935416 -0.009549312 0.108321644 0.052965153 0.00019200677 0.00976446
0.03622407 -0.00418565 -0.06889342 -0.050508633 0.0030971025 -0.019833414 0.034066938 0.04632806
0.01876392 0.00021201871 0.051207203 0.0004371089 0.10808304 -3.0953834e-05 0.088830136 -0.12232101
-0.06637053 -0.009733926 -0.093833335 0.0031230883 0.016524922 0.026584031 -0.02474456 0.10638274
0.07793878 -0.055453114 0.075951934 -0.024448832 -0.016081508 0.07604047 -0.10018684 0.048127394
-0.00015768142 -0.09454699 0.02420895 0.0005757941 -3.7118178e-05 -0.11541474 -0.00041273414 -0.09001953
0.06753945 -0.05700967 0.040827118 -0.033007376 0.073375575 0.118579306 0.00067721563 0.10032752
-0.07406662 -0.033172842 0.04508416 -0.036066834 0.03727923 0.046519622 -0.13221225 -0.050500147
5.0392046e-05 -0.023386775 -0.011607911 0.041887417 0.06895774 -0.0011340064 -0.038842775 0.02572443

projection_layer.0.weight f4 [128, 128]
00000000: 92e5 043c f07e 4f3d 6a47 063d 9583 69bb
00000010: 0767 8bbd aeab aebd 70b2 ac3d cba1 ce3c
00000020: 161b 5e3b e968 bcbc c7ce 643d 66e9 653c
00000030: d483 243c 0606 7e3d 7724 8abd e28d 0fbd
00000040: f70b 643d 0a05 423d 2ca8 b23d 94f1 933d
00000050: dc5f 8e3a 5edf ec3b 643c 2b3d 3e47 e8bc
00000060: a2a1 6f3d 1600 4f3d c3de 433d 1d14 2b3d
00000070: 2895 0abd f299 7f3d 69f8 63bc 087b 92bd
00000080: 24cc 8abd 1580 00bc 99cd c9bc fbcb cebc
00000090: 4f4a 2ebd fef7 4ebd 15cf 763d 16d2 6dbc
000000a0: 26e5 9dbd f73f c73d 89ce f93a 9614 18bd
000000b0: fba9 a6bc efa6 843d d762 6bbd c3c5 653d
000000c0: 4376 fcbc 6be8 203c 29ab e13c 47ba f73c
000000d0: efa4 88bd b89a 44bd 1243 9bbd 183e 9bbd
000000e0: 65f8 bdbd 9fb2 dcbc 3ca9 a8bd 394f 003a
000000f0: d376 0bbd 097d 34bc d38c 30bc eb6a 8dbb
00000100: d92c b9bd 5acd 6e3d 24e2 303d 56f9 7cbc
00000110: c41a d8bc 2e08 cebd 358d 53bd 5578 31bd
00000120: cf20 e1bc 2fd7 9e3d e500 5c3d 98b0 973d
00000130: a37c a13c 09db a7bd e09b 9bbb 25a3 00bd
00000140: 4b77 b23c bc23 f03b 7471 afbd 150e a93c
00000150: 1949 253d f2d2 09bd 54e8 74bc 9bf0 5dbd
00000160: 9035 f0bc 2357 15bd 528d d5bc 4ba3 a3bd
00000170: e282 47bc 3319 883c b721 b9bd 6206 88bd
00000180: 8f61 89bd 593c 9bbc 10ac 51bd 321c 7ebd
00000190: fdef 5a3d 6fcc d3bc b966 53bc 995b 113d
000001a0: 40d1 183b d16d fd3b 6f70 17bd bf42 573d
000001b0: 0905 233d 58aa f3bc ae01 353d f9fb 3a3d
000001c0: d560 ab3b 1b8c 7c3d d697 763d 3b07 3f3d
000001d0: 95f0 8c3d 68aa 8dbd 4bc5 0a3c a7c1 733c
000001e0: 865c 78bd dbe6 b2bd e36d d7bc 2e3a 37bd
000001f0: 713a d83c 8ea5 5bbc f3f4 c83a c5f1 3c3d
00000200: 92cf 99bd f44c a7bc 365a a63d 5c0c 61bd
00000210: b59a 8e38 f934 68bd 6482 b63d eaa8 eb3b
00000220: 7f22 913b 4501 e2bc 6776 a6bd cb2e 13bc
00000230: a058 97bd 0585 36bd 7d5a ad3d 08de 09bc
00000240: 68a2 5a3d 1d03 ad3c 85e5 96bd 79b2 84bc
00000250: 34f6 a9bb 7100 0abd fc52 42bd b248 f03c
00000260: a597 98b8 e3ac dabc 397d 303d d2da 913d
00000270: 96e6 49bd 3487 84bd 445c a23d 981d bf3c
00000280: e484 613d c1c9 00bd 0771 b83c 017e 0bbd
00000290: df51 0f3c 6c1e 843d 0be6 c0bc beb3 543d
000002a0: c946 763c cee1 56bc 0cbe 0a3d c4d1 b03d
000002b0: 1353 533d eaff 1f3d 9cd1 0fbd e6a3 043d
000002c0: 12d6 b7bc e919 e3bc 5a3b 3bbd 842a 28bd
000002d0: 29d0 c0bc 7be5 133c 3cf8 3abd 7e39 213d
000002e0: cc3c 5e3d 8290 b03d e318 853d ed4b fc3c
000002f0: 66a5 ac3d 5bb1 b6bd 888e 643d dcda 313d
00000300: 059d 673d 84f9 c1bd 3e0b 51bc f0e5 703c
00000310: c72e 93bd d832 68bd 42ab 843d 4911 143d
00000320: 39d8 29bd 2527 073b 4da2 c9bc 94ab 34bc
00000330: 166e 663d 38f7 9ebd 246d dabd e7b1 493c
00000340: bcc3 3b3d 4486 413d 7306 02bd 6b28 c1ba
00000350: 8ec1 15bc b218 393d 9652 efbc af78 69bd
00000360: 5338 05bd 4330 4dbc 2ec3 56bd 5cb5 41bd
00000370: 67ea 92bd 633a 79bd a880 983d 30a0 85bd
00000380: 24a1 96bc f1fe 2f3d 9733 6a3d 0bf1 9e3d
00000390: 13c6 ac3d f939 63bd 0371 42bb 7e42 29bd
000003a0: b8a3 3dbd 6b13 b9bb 9f18 303d 4cdc 35bd
000003b0: 2c44 d43c 6d8f c5bb c7fd 4bbd c697 603b
000003c0: ef38 383b 368c 923d 2598 2e3c ee23 623d
000003d0: 5671 b9bd 8507 9a3d a29c eabc 7c15 1cbc
000003e0: 69cb 7f3d fb70 283d 736f e2bc ac78 2bbd
000003f0: 7044 d13b 2bcc 29bd d1d0 703d b8ea 443d
0.008111374 0.050658166 0.03278295 -0.0035631408 -0.0680676 -0.08528839 0.08432472 0.025223633
0.0033890656 -0.022999244 0.05586126 0.014032697 0.010041196 0.062017463 -0.06745236 -0.03504742
0.055675473 0.047368087 0.087234825 0.07223812 0.0010862309 0.007228776 0.04180564 -0.028354283
0.058503754 0.05053719 0.047819864 0.04176723 -0.033833653 0.062402673 -0.013914206 -0.071523726
-0.06777218 -0.007843037 -0.02463417 -0.02524375 -0.042551335 -0.050529473 0.060256083 -0.01451542
-0.07709722 0.09728997 0.0019058745 -0.037129007 -0.020344725 0.064771526 -0.057467308 0.056096803
-0.03081811 0.009821038 0.027547436 0.030240191 -0.066720836 -0.047999114 -0.07581152 -0.07580203
-0.09275893 -0.026940642 -0.08235404 0.00048946176 -0.034048866 -0.011016139 -0.010775763 -0.004315724
-0.09041757 0.058301307 0.043184415 -0.015440306 -0.02637995 -0.10060154 -0.051648337 -0.04332765
-0.027481465 0.07755887 0.05371179 0.074067295 0.019712752 -0.081960745 -0.0047488064 -0.031405587
0.021785399 0.0073284786 -0.08566561 0.020636598 0.040352914 -0.03364844 -0.0149479695 -0.054184537
-0.029322416 -0.036460053 -0.026068363 -0.0799013 -0.012177201 0.016613578 -0.09039634 -0.066418424
-0.06708061 -0.018949674 -0.051189482 -0.062038608 0.053451527 -0.025854317 -0.012902909 0.035487745
0.0023318082 0.0077340384 -0.03697246 0.05255389 0.039799724 -0.029744312 0.044191055 0.045650456
0.005230049 0.061657052 0.060203396 0.046637755 0.06881825 -0.06917268 0.00846989 0.014877713
-0.060635112 -0.087354384 -0.026297515 -0.04473322 0.026395055 -0.0134061705 0.001533179 0.046129007
-0.07510294 -0.020422436 0.08122675 -0.054943427 6.799904e-05 -0.056691144 0.08911589 0.007191767
0.004429161 -0.027588496 -0.08128052 -0.008983324 -0.07389951 -0.04456045 0.08464525 -0.008414753
0.05337754 0.021119649 -0.07367996 -0.016198384 -0.0051868204 -0.033691827 -0.04744242 0.029331539
-7.276171e-05 -0.026693767 0.04308817 0.07121815 -0.04929217 -0.064711004 0.079277545 0.023329541
0.055058375 -0.031442408 0.022514833 -0.034055714 0.008747547 0.06451115 -0.023547193 0.051929228
0.015031525 -0.0131153595 0.03387265 0.086337596 0.051592898 0.039062418 -0.03511201 0.03238287
-0.022440944 -0.027722316 -0.0457109 -0.04105617 -0.023536758 0.00902688 -0.04564689 0.03936147
0.0542572 0.08621313 0.064988874 0.030797923 0.08429985 -0.089205466 0.05579999 0.04342161
0.05654623 -0.094714195 -0.012759028 0.014703259 -0.071866564 -0.056689113 0.06477977 0.036149297
-0.04146597 0.0020622697 -0.024613524 -0.011027236 0.05625733 -0.07761997 -0.10665348 0.012310482
0.045840964 0.047247186 -0.03174443 -0.0014736777 -0.009140385 0.045189567 -0.029214185 -0.05699986
-0.032524418 -0.0125237135 -0.05243223 -0.0472921 -0.07173615 -0.060846698 0.07446414 -0.06524694
-0.018387385 0.04296774 0.057178106 0.07760819 0.08436217 -0.05547521 -0.002966941 -0.041323178
-0.046298712 -0.0056480668 0.04299223 -0.044399545 0.025911413 -0.0060290606 -0.049802568 0.0034270152
0.0028110107 0.07155649 0.010656391 0.055210046 -0.0905482 0.075209655 -0.028639141 -0.009526607
0.062449846 0.04112337 -0.027641034 -0.04186313 0.006386332 -0.041454475 0.058792893 0.048075408

projection_layer.0.bias f4 [128]
00000000: 9f1b 25ba f660 383a 5ee2 51bc bd9b fb39
00000010: e7ed 033b af6b b73b b256 80ba 2e6a 62bb
00000020: a810 1aba 6504 673c dde8 cfba fc37 763c
00000030: 7369 8abc 040d 213c 071c 003d 4b3a ec39
00000040: 968f 6bbc 8867 3c3c 7481 56b8 841c 093c
00000050: a0ce adbc aad3 e9bc 556a d73c 1100 71bb
00000060: edfb aa3b c7ce 5f3c 270e 1f37 7c8c 15bd
00000070: 3b61 85bc c75c d9bc d5c7 6f3b 71ac 29bd
00000080: 4e5b 053c ae8a f4bc 2ed5 83b9 406e 3e3c
00000090: c9a1 f3b9 a2ca 2ebd cd18 16b9 0aaf f93c
000000a0: 62dd e33c f888 21bb d441 92bc 2670 883c
000000b0: ae44 f7bb 9a02 2a3b 136d 4d3b bcf5 8fbb
000000c0: 5bd0 a1bc fc13 88bc 24a5 f4bb b7cc d139
000000d0: 41e8 d63b bcc4 363c 530f 623c d1c4 b7bb
000000e0: 3142 203d 1e76 1137 e21e 8cbb a44a a3bc
000000f0: fd6a e8b9 a20f 2fbd 82e9 e9bc 67fa 95bb
00000100: 370c e13c df7b 7a3c 8663 c93c a133 17bd
00000110: 4b23 8abb 5414 cebb 14d4 c13c f6fa 24bd
00000120: d341 31bd 5483 263c 1975 27ba e094 d2b9
00000130: b93c 35bc 5f34 903b fa43 08ba 2a9c fcbc
00000140: fb9a 383b fbf8 713c 21f4 713a 7f7f b93b
00000150: 0ff8 2a3b 55df 10bd a1f7 1f39 88cc d7b9
00000160: eee0 11bd 0f2b 96bb 7c48 edbc 9947 18bd
00000170: 064b 143a dbb4 6eb9 2ee0 0dbc 6590 ec39
00000180: 296c 12bd 90e1 13bd 8d0d a73a 7080 54bb
00000190: 9e52 1d3d c600 e53c 9e12 a3bc 1312 3dba
000001a0: 65e1 9539 fb74 253a cff5 0c3d 1893 a2b9
000001b0: 0953 d2bc 1a9e 2f3a 7169 2e3d 1300 9fb7
000001c0: 7d53 0cbd 43d3 0abd 415f 99bb 864d 26ba
000001d0: 3bc1 05b7 05be 1b3a 4cf0 22b8 c119 123d
000001e0: a41a 9fb8 6140 b5bc 261b e3bc 58b6 11bd
000001f0: 4537 31bd 27be f4bc 0a8c b6ba aaa3 2fba
-0.00062983664 0.0007033491 -0.012810318 0.00047990485 0.0020130815 0.0055975537 -0.0009791462 -0.0034548151
-0.0005877116 0.014100169 -0.0015862245 0.015027996 -0.016895985 0.009829763 0.03127673 0.0004505686
-0.014377495 0.011499293 -5.114214e-05 0.008368615 -0.02121669 -0.028543312 0.02629582 -0.0036773721
0.00521802 0.013660139 9.480434e-06 -0.03651093 -0.016281715 -0.026533497 0.0036587615 -0.04142422
0.0081394445 -0.029851284 -0.00025145098 0.011622965 -0.0004646911 -0.042673714 -0.00014314354 0.030478973
0.027815524 -0.002464829 -0.017853655 0.016655039 -0.007546029 0.0025941492 0.003134553 -0.0043933075
-0.019752672 -0.016611092 -0.0074659754 0.0004001611 0.0065584485 0.011155304 0.013797599 -0.005608179
0.039125625 8.670175e-06 -0.0042761425 -0.019933052 -0.000443302 -0.042739518 -0.028553728 -0.0045769694
0.027471645 0.015288322 0.02458359 -0.03691447 -0.004215633 -0.0062890444 0.023660697 -0.040278398
-0.043275665 0.010163147 -0.00063879933 -0.00040165242 -0.011061841 0.0044007744 -0.00051981176 -0.030836184
0.0028168547 0.014768834 0.00092297985 0.0056609507 0.0026087796 -0.035369236 0.0001525567 -0.00041160383
-0.0356149 -0.0045827697 -0.028965227 -0.037177656 0.00056569313 -0.00022764823 -0.008659406 0.0004512101
-0.03574768 -0.036103785 0.0012745127 -0.0032425188 0.038408868 0.02795447 -0.019906338 -0.0007212471
0.00028587427 0.0006311682 0.03441411 -0.0003100864 -0.02567436 0.0006699279 0.042581026 -1.8954312e-05
-0.034259308 -0.03389288 -0.0046805446 -0.00063439494 -7.972408e-06 0.0005941096 -3.8847604e-05 0.035669092
-7.586673e-05 -0.022125425 -0.027722906 -0.035574287 -0.0432656 -0.029875828 -0.0013927233 -0.0006700108

projection_layer.1.weight f4 [128]
00000000: 9209 803f 1aff 7e3f 846d 7f3f bd61 7f3f
00000010: ac71 803f 93f8 7f3f 10c1 803f 7e94 7c3f
00000020: 41d8 7f3f 1876 7c3f ad42 7f3f 1e04 803f
00000030: 4302 7f3f cf10 7e3f f770 7e3f 471e 803f
00000040: 3d13 7f3f b6ea 803f 0258 7e3f 22ab 7d3f
00000050: c29e 7e3f 38aa 7d3f b865 7f3f eb6b 7e3f
00000060: 16ac 7d3f 42c8 7d3f ed02 803f 44d0 7e3f
00000070: 0303 803f 9882 7c3f 1bdd 7f3f e42b 7e3f
00000080: 420c 7f3f dc5c 813f 86e5 7f3f 5bbd 7f3f
00000090: db70 7b3f 110f 7e3f 9672 7e3f 15e8 7d3f
000000a0: 0040 7e3f 7f71 7f3f b292 7e3f 5bcb 803f
000000b0: 904e 7f3f 8787 7d3f bccb 7d3f 4f45 803f
000000c0: cf0b 813f 900e 813f 91e5 7f3f c58e 823f
000000d0: 5774 7f3f 773f 7f3f 21d4 7b3f 6045 813f
000000e0: abe1 7f3f 4921 7d3f 2a1e 7f3f e7e7 7d3f
000000f0: 571b 7f3f fd5a 7d3f d7cf 7c3f 6b9a 803f
00000100: 4899 813f c45b 7f3f 07ab 7e3f 00b6 7e3f
00000110: 0cda 7b3f d8c1 803f d5d4 7c3f 3864 7c3f
00000120: 2036 7e3f 88ab 7f3f 3662 7e3f 6550 803f
00000130: a32f 803f 4005 813f 1ebe 803f 434b 803f
00000140: 5fea 7f3f 8d06 813f 1ade 7c3f 0dcc 7e3f
00000150: ba12 803f 83bd 803f 220e 803f fda8 7b3f
00000160: 8ba0 7e3f e25b 7d3f 9020 7f3f 57fb 7c3f
00000170: 4dba 813f d74a 7b3f 99a1 813f 43a1 803f
00000180: 2e2a 803f ab89 803f f637 823f 9709 813f
00000190: 3b0a 803f 924c 803f 2ab9 7f3f e590 7c3f
000001a0: 23de 7d3f da54 7c3f 49fe 7e3f 4874 803f
000001b0: 8170 813f 8966 7f3f d4ae 823f 4c86 803f
000001c0: 40ff 7e3f 6357 7c3f e65e 803f 49c4 803f
000001d0: 7dd3 793f 2b37 803f 1345 813f e022 7f3f
000001e0: 85e0 803f 4f73 7f3f 2deb 803f 8092 7d3f
000001f0: 5d45 7e3f b852 803f cc7b 7b3f b753 7b3f
1.0002921 0.99608004 0.9977648 0.9975851 1.003469 0.9998867 1.0058918 0.9866408
0.9993935 0.98617697 0.99711114 1.0001256 0.99612826 0.992444 0.9939112 1.000924
0.9963873 1.0071628 0.9935304 0.9908925 0.99460995 0.9908786 0.99764585 0.9938342
0.9909071 0.99133694 1.0000893 0.9953654 1.0000919 0.9863677 0.99946755 0.9928572
0.9962808 1.0106463 0.999596 0.9989831 0.9821908 0.9924174 0.99393594 0.99182254
0.99316406 0.99782556 0.9944259 1.0062059 0.9972925 0.99034923 0.99139 1.0021151
1.0081729 1.0082569 0.99959666 1.019982 0.99786896 0.99706215 0.9837056 1.0099297
0.99953717 0.98878914 0.996554 0.9918198 0.9965109 0.9896696 0.9875464 1.0047125
1.0124903 0.997494 0.99479717 0.9949646 0.9837959 1.0059156 0.98762256 0.9859042
0.9930134 0.9987111 0.9936861 1.0024534 1.0014538 1.0079727 1.0058019 1.0022968
0.99966997 1.0080124 0.987764 0.99530107 1.0005715 1.0057834 1.0004313 0.9830473
0.9946372 0.9896833 0.9965906 0.98821014 1.013498 0.9816107 1.0127441 1.0049213
1.0012872 1.0042013 1.0173328 1.0081052 1.0003122 1.0023367 0.9989191 0.9865859
0.9916708 0.98566973 0.9960676 1.0035486 1.0112458 0.9976583 1.0209603 1.0040984
0.9960823 0.9857084 1.0028961 1.0059901 0.9758833 1.0016836 1.0099205 0.9966259
1.0068518 0.9978532 1.007177 0.99051666 0.9932459 1.0025244 0.98235774 0.98174614

projection_layer.1.bias f4 [128]
00000000: b544 9dbb 22c3 0bbc 6ae8 10bc 70e8 05bc
00000010: 1276 01bc 7151 acbb 4201 1dbc 08b7 d0bc
00000020: 71e4 4abc 621b 3cbc 7bf7 19bc e46c 8cbc
00000030: 89f1 06bc 9cd8 cdb9 ad9c 2abc a591 e0ba
00000040: 4b82 0bbb 2ef8 b73b acff 54bc 07d2 23bc
00000050: 7715 2abc 8f02 9dbc a5a8 87bc b6df 19bc
00000060: b643 11bc 789a fbba e2fa 85b8 ff6e 1dbc
00000070: b89a fa3b e149 57bc 2d19 98bc 18c4 09bc
00000080: bc40 83bb 726e afbb c0a6 233c 093d 2ebc
00000090: 2d88 79bc e33e 72bb fc4b 49bc b148 40bc
000000a0: 7bce 3dbc 9b38 5cbc 28fc aabb 8f04 e1bb
000000b0: 5f14 16bc d2a8 6fbc cf76 90bb a72a e5bb
000000c0: 088c ffbb 77d1 9bbc 7f19 6cbb cb0f d43a
000000d0: c657 0ebc f24a a5bb 11ef 95bc e336 d0ba
000000e0: abf2 d2bb 9383 8bbc fd24 91bc e98e 60bc
000000f0: 9923 f3bb 2e5b 9abc 0009 fdbc 9e9a d53a
00000100: 0766 fe3b d93d 15bc e737 1739 6594 42bc
00000110: e5b6 65bc 74c6 113b 3ac8 87bc aed5 38bc
00000120: d864 d8bb 02fe 16bc 28df 34bc b201 24bb
00000130: 697e 853b c270 4b39 8f93 79bb a405 a2bb
00000140: 4c86 a33a 6900 bf3b 80bd c0bb 7c97 03bc
00000150: b153 41bc 6ed9 29bc 500b 07bb 810d 59bc
00000160: 456d 89bc dd45 80bc f55d 97bb 2093 48bc
00000170: b2f8 4c3b a259 90bc 162a 193b 5920 eebb
00000180: b3e7 efbb 075b 76bc 35e2 ab38 c766 88bb
00000190: 4d22 32bc 175b 393b 3376 06bc 330c 2abc
000001a0: 753c 57bc da41 96bc e2ed adbb dac9 32ba
000001b0: dae8 e23a 00ce a1bb 5dbe 803b bebc 533b
000001c0: 427b 41bc 05f9 8abc e655 9abb eff6 6f3b
000001d0: 2b09 a2bc 703b 823b 8f5b 1ebb 7dda ccbb
000001e0: a4e9 bebb 6cc1 febb 682c a4ba b620 2a3b
000001f0: 5728 64bc 4a1f cfb9 3683 6cbc 50f4 69bc
-0.0047994503 -0.00853041 -0.008844474 -0.008173093 -0.007901685 -0.005258732 -0.009582819 -0.025477901
-0.012383566 -0.011481138 -0.009397383 -0.017141767 -0.008236297 -0.00039262034 -0.010413331 -0.0017133249
-0.0021287377 0.005614302 -0.01300041 -0.009998805 -0.010381094 -0.01916626 -0.016559908 -0.009391716
-0.008866241 -0.0019195816 -6.388665e-05 -0.009608983 0.0076478384 -0.013140173 -0.018566692 -0.008408569
-0.0040055197 -0.0053537423 0.009988487 -0.010634669 -0.015230221 -0.0036963753 -0.0122861825 -0.011736081
-0.011584873 -0.01344123 -0.0052180476 -0.0068669985 -0.00916013 -0.014627652 -0.0044086943 -0.00699361
-0.0077986754 -0.019020779 -0.003602594 0.0016179023 -0.008687919 -0.0050443346 -0.018302472 -0.0015885498
-0.0064376197 -0.017030513 -0.017717833 -0.013705947 -0.007420015 -0.018842306 -0.03088808 0.001629669
0.0077636275 -0.009108984 0.00014421307 -0.0118762 -0.014020656 0.0022243531 -0.016574968 -0.011281414
-0.0066038184 -0.009215834 -0.011039533 -0.0025025425 0.004073907 0.00019401594 -0.0038082337 -0.00494452
0.0012475937 0.0058289063 -0.005881965 -0.008031722 -0.011799739 -0.010366781 -0.0020606108 -0.0132478485
-0.016775737 -0.015658313 -0.004619355 -0.012242109 0.0031276164 -0.017620865 0.0023371032 -0.0072670397
-0.007321322 -0.015036351 8.19605e-05 -0.0041626426 -0.010872436 0.0028283054 -0.008206892 -0.010378885
-0.013136973 -0.018341947 -0.005307899 -0.00068202394 0.0017311827 -0.004937887 0.003928943 0.0032308544
-0.011809172 -0.016964445 -0.004709947 0.003661569 -0.019779762 0.0039743707 -0.002416346 -0.006251632
-0.005826192 -0.0077745225 -0.0012525441 0.0025959439 -0.013925633 -0.0003950543 -0.01443558 -0.01427944

projection_layer.1.running_mean f4 [128]
00000000: 09b0 183c ad62 89bd a714 213d 9c35 653d
00000010: e5de 64ba 7f7d 75bc 47b4 9bbd dcd4 60bd
00000020: 4248 b23a c7c1 993d 07da ed3c 5638 a43d
00000030: 0e44 81bc d15f ac3d c024 0cbd c2a0 ed3d
00000040: 8bd7 0b3d 40bf f63c 5068 bb3c bcd9 3e3c
00000050: 24d0 9abd 09c6 dfbd 7229 aa3d 502e 6cbd
00000060: 1f78 903d c410 dc3c 4ec6 6b3b 18f5 fbbd
00000070: 19dd b33a efe3 9dbc d649 983d d4fb b6bd
00000080: 6be5 853c 7786 a9bb 98a3 dc3c ed58 8abc
00000090: c11e 9a3d ef08 9bbd ca44 3abd 2880 3f3d
000000a0: dc62 033d 2645 893c 3d03 45bd 535a 0ebd
000000b0: 8fbd 72bc 9ce7 1a3d d37e babc 3dfe 833c
000000c0: a87a 5ebd 0ad9 89bc fd26 7f3d f0a6 c93d
000000d0: f176 bcbb 0939 04bc a001 21bd 27d7 223d
000000e0: 35a8 af3d d8e0 be3d 6af9 4b3b 6b44 943c
000000f0: e845 443c 73ef 0abd 1ed2 cebd d893 613d
00000100: 6e0b 0f3b d539 0abd 743c a73c 42e8 edbc
00000110: a068 133c 6abb dc3c 8c55 8b3d 4e98 d6bd
00000120: 690e 04bc 4dee 033c 6685 7a3d 2e4e c33c
00000130: 4f68 19bc c03b a1bd 70f6 0b3d ae6c 88bc
00000140: 7d7a 67bd db5a 803c 6bfb de3b 174c 63bc
00000150: acf8 e33d 14c6 0ebc 7688 953c 05a4 cd3d
00000160: e275 5b3b a7d0 3cbc 4099 f73b 4304 373c
00000170: 45d7 bc3c 8bbd 0fbc d4aa 03bd 9608 6a3d
00000180: dca4 d7bc 98d2 afbd d096 003c 45ee 8dbc
00000190: 2812 eb3d a8eb ba3d 65bc 56bd d24d c9ba
000001a0: 8719 2cbd 0a35 5a3d af3d d63c ce25 323b
000001b0: 4e04 063d fe69 81bd 1298 61bc 6cc9 13bd
000001c0: dd6d a9bd 7737 2fbd 4320 bfbd ce79 1abe
000001d0: 8b9a 223c dcd3 013d 64db b2bc c76f 9c3d
000001e0: be96 283d 96a4 a9bc 7bf4 1e3d 616c 04bd
000001f0: 7afb 94bd ffde e1bc d41e a13b 501c c13c
0.009319314 -0.06708274 0.039326336 0.05595933 -0.00087307236 -0.014983534 -0.076027445 -0.0548905
0.0013601857 0.07507663 0.029034628 0.08018558 -0.015779521 0.08416713 -0.034214735 0.11602928
0.034141105 0.030120492 0.022876889 0.011648592 -0.07559231 -0.10926444 0.08308686 -0.057661355
0.07054161 0.026863463 0.0035976353 -0.12302607 0.0013722508 -0.019273726 0.07435958 -0.08934751
0.016344747 -0.0051735 0.026933476 -0.016888106 0.07525397 -0.07570063 -0.04547576 0.04675308
0.0320767 0.016756605 -0.04809879 -0.03475411 -0.014815702 0.037818536 -0.022765553 0.016112441
-0.054316193 -0.016827125 0.06229304 0.09846294 -0.0057514836 -0.008070239 -0.03930819 0.039755967
0.08577005 0.09320229 0.0031124004 0.01809903 0.011979558 -0.033919763 -0.100986704 0.055072635
0.002182688 -0.03374656 0.020414568 -0.029041413 0.0089971125 0.026944835 0.06803426 -0.104782686
-0.008060076 0.008052421 0.061162375 0.02384099 -0.009363248 -0.078727245 0.034170568 -0.016653385
-0.0565133 0.015668323 0.0068048737 -0.013873122 0.11131415 -0.008714218 0.018253546 0.1004105
0.0033487012 -0.011524356 0.0075561106 0.01117045 0.023051867 -0.008773218 -0.032145336 0.057137094
-0.026323728 -0.085850894 0.0078484565 -0.01732553 0.114780724 0.09126979 -0.05242576 -0.0015358275
-0.042016532 0.05327324 0.02615246 0.0027183178 0.03271895 -0.063190445 -0.013769167 -0.036080763
-0.08272908 -0.042777505 -0.09332325 -0.15085527 0.009924541 0.031696185 -0.02183313 0.07638507
0.041159384 -0.020708364 0.038807373 -0.03232992 -0.07274528 -0.027572153 0.004917005 0.02357307

projection_layer.1.running_var f4 [128]
00000000: 10f7 e43d ab7f 6a3e 46a7 133e 35a7 f23d
00000010: adc7 d93d 7b19 083e b1a9 fc3d 07f2 9f3d
00000020: 6a78 913d f4b8 8d3e 29a8 193e edd2 013e
00000030: 53cc 843e a683 353e ba93 433e b716 193e
00000040: 6d07 a03d c468 233e 7e64 143e c203 b83d
00000050: 273f 133e e840 043e 8688 0f3e 3f23 5c3e
00000060: fc5a 0f3e ed73 ec3d 2819 203e 770b e33d
00000070: b4a3 053e 2852 e53d 3b91 083e 6eaf 153e
00000080: c6cd fe3d 2c5f 6e3e 2764 f43d 2bac a73d
00000090: 848d 113e 154d 1d3e afaa 023e 2472 383e
000000a0: 5196 3f3e baa6 f73d 010a e83d 969d d73d
000000b0: d3dc 243e 5e71 8a3e 2584 0c3e 5d2c 003e
000000c0: 55fc 573e ec18 e13d 5d16 763e 8c88 0c3e
000000d0: 0a47 cc3d 8040 dc3d e4a2 0f3e e552 293e
000000e0: e681 063e a9a5 8a3e 02cd 263e 1c73 083e
000000f0: 120e e23d b935 fb3d eeb2 153e 3970 e63d
00000100: 1ca2 e93d 311b 9d3d 4fad f23d 1490 033e
00000110: fd0d 813e 3353 233e be02 353e 1c4e d03d
00000120: 04f8 443e 1502 173e 8c47 133e 9e06 f13d
00000130: 30ca 353e 90da bf3d be34 2c3e 7e1e 463e
00000140: 3d77 043e 507a f53d c5dd 193e 8c07 343e
00000150: 846b e93d 8947 e13d 8af4 1b3e 2980 093e
00000160: 65cf ac3d dbd9 8c3d c30c 3b3e 014f e73d
00000170: 9ea1 383e b61e 483e daa4 0c3e 333a 0e3e
00000180: 483d 043e 6999 c13d a820 0a3e d58e 2a3e
00000190: ab1a e13d ba59 053e 18d8 e93d d427 223e
000001a0: 23ac fa3d cf96 4f3e 7314 553e 3110 153e
000001b0: 2c0f 023e 49ae 813e 711e 1e3e db3b 0b3e
000001c0: 55e9 0e3e 364b 163e 2cb0 213e e5df ee3d
000001d0: 3a64 f43d ae5f 463e 0adc de3d 828c e23d
000001e0: 08d4 f23d cc3b b53d 0831 123e 54a2 0d3e
000001f0: fa49 873d b988 dd3d f89f 163e d16c ef3d
0.11179936 0.22900264 0.14419279 0.118482985 0.10633788 0.1329097 0.123370536 0.07809835
0.07103045 0.2768017 0.15005554 0.12678118 0.25937137 0.17726001 0.19099322 0.14950071
0.07813916 0.15957934 0.1449146 0.08985092 0.1437956 0.12915385 0.14016923 0.2149782
0.13999552 0.115455486 0.15634596 0.11086171 0.13050729 0.11197311 0.13336651 0.14617702
0.12441592 0.23278493 0.11933165 0.08187135 0.1421414 0.15361436 0.12760423 0.18012291
0.18709685 0.120923474 0.11330033 0.10528104 0.16099863 0.27039617 0.13722284 0.12516923
0.21092351 0.109910816 0.24031968 0.13723963 0.09974487 0.1075449 0.14026982 0.16535528
0.1313549 0.27079514 0.16289142 0.1332516 0.1103784 0.12266106 0.14619038 0.112518735
0.11407873 0.07671202 0.11849462 0.1284793 0.25205985 0.15949707 0.17676827 0.10171148
0.19235235 0.14746888 0.14382762 0.1176884 0.1775291 0.09367859 0.16816995 0.1934757
0.12936111 0.1198622 0.15026005 0.17581004 0.1139746 0.109999724 0.15230003 0.13427795
0.08437995 0.0687749 0.18266587 0.11294366 0.18030402 0.19542965 0.13734761 0.13889389
0.12914002 0.09453089 0.1348902 0.16656049 0.10991415 0.13022509 0.1141817 0.15835506
0.12239864 0.20272373 0.20808582 0.14556958 0.127011 0.25328282 0.154413 0.13597052
0.13956197 0.14677128 0.1578986 0.11663798 0.11933179 0.19372436 0.10881813 0.11061956
0.11856848 0.08849296 0.14276516 0.13831455 0.06605907 0.108170934 0.1470946 0.11690677

projection_layer.4.weight f4 [128, 128]
00000000: 61db 5abd 0578 803c a6a3 2ebd 1f0f 3fbd
00000010: 2d81 b0bd cb78 2dbd 9189 ae3d 32e9 89bd
00000020: 11fb c1bc 2998 95bd bc5f 8d3d f5ae 1c3d
00000030: 0c13 6dbc 40ed 913c fb5d a5bd e5c2 86bd
00000040: f87a 6bba 8b05 8abc 78b8 d83c 8b03 05bd
00000050: 601f 0dbd 580b 4ebc 4a20 523d 8154 5cbd
00000060: 0b3a 7bbd a623 22bb fb27 743d feb3 acbd
00000070: 3b1a a13c 8996 bcbd 3620 de3c 5eb5 a13d
00000080: 4882 293d 9f53 1b3c 624e 333d 9bfa 81bd
00000090: 612d 8d3d d3ec 8c3d 8d38 623c 3cdd 193d
000000a0: 0185 87bb 2519 b3bd 4131 0ebd 3dde 8e3d
000000b0: a149 263d 210a d13c 57ac b2bd 10e7 003d
000000c0: 870e 27bd 966f 85bd 704b 9dba ee94 a33d
000000d0: ba9c 1b3d dfb3 023d 6b2c 433d 6add 8bbd
000000e0: 7dbc bdbd 0e72 98bd 0623 68bd beb9 823d
000000f0: 0f0f 823d 1f50 543d be18 06bd 55b8 8c3d
00000100: a5fc af3c 7c29 993d b5cf 943d 322f 183d
00000110: 1dce 9b3d f3c5 403c af68 af3d 733a 04bd
00000120: 9c7d 8e3c 511c 97bd bc6f 61bd 37e0 913d
00000130: 412b 15bd 801e b73c d4c8 72bd cff4 983d
00000140: 927a 9a3d 9fce a13d 24d9 cebc fb92 07bd
00000150: 18ba 10bc da86 18bd 6c60 8e3d cd63 af3c
00000160: 0dd7 8abd bc47 603d d092 693c 2289 433d
00000170: 41d1 7abd a76e 6139 97d0 afbd 389e a33d
00000180: c6d6 6ebb 824f 14bd da16 443d e35d 553c
00000190: 4be0 b5bd 4d7b 193d 0a86 a03d a196 f5bb
000001a0: 2de7 a2bd 93ac 76bc b2d0 a3bd 567b 483c
000001b0: f1d4 3dbd 3dd5 a4bc a5d2 49bc b0b8 473d
000001c0: ac89 903d fc15 9d3d 3867 0cbd b743 283c
000001d0: 0cad aabd 7ddf beb9 400c 5c3c 396a 1a3d
000001e0: e678 8ebd 9152 a73d a606 a1bc 2268 7b3d
000001f0: f845 dbbc b213 21bd c241 c0bd e789 37bc
00000200: f70d 7bbd c2f2 80bd 51cc 96bc 9a45 863d
00000210: 35a8 e73b 6738 a03c 71d1 b63d 3a20 2e3d
00000220: 69bf 20bd 5504 88bd 945c 8c3d fafe 91bc
00000230: b830 4b3d 9ca0 7a3d 35f2 3bbd 869c a5bd
00000240: bc46 963c e326 683d 9852 d5bc 0366 12bc
00000250: a351 7b3d d9ea 533c 4002 6cbd 3867 37ba
00000260: 9cf8 f53c 754e 90bd a8d3 1d3d 1f39 143c
00000270: 8e7a 3bbd 4626 b0bd 3131 26bd 5751 08bd
00000280: 41b7 3fbd 11c3 0bbd 647b 993d 34a9 b9bd
00000290: ab9a 04bd ac75 d43c df33 9fbc a696 aa3d
000002a0: 75bb b53c 4c1e ca3d 6143 e6bc 2427 d03c
000002b0: 6838 793d 6ba0 20bd bb2d c6bc 787e bcbd
000002c0: 9e09 9cbd d3bb 73bd 3d3e debc 786a 8fbd
000002d0: 56e3 99bd a0eb 873c 4a60 00bc 476c 723d
000002e0: 9b99 7fbd 76b8 3e3b 15f6 ce3c 2d5c 763d
000002f0: bf67 9d3d edc5 fb3c fb0a e63c 9abc 953c
00000300: 7e26 c8bd ff2c ed3b 0124 833d 842b 2b3d
00000310: 339b b8bd 2773 bd3d ccf0 623d be80 22bd
00000320: 9af1 7c3d ec35 f73c 984d a7bd 980f 09bc
00000330: 2c98 b4bb 6976 1b3d c7cb 0dbc cad0 3d3d
00000340: 84f6 1abd b862 853d 120a 423d 1368 18bd
00000350: 1679 c2bc 9526 c4bb d5c0 c43b 3931 52bd
00000360: 3727 143d 25b9 d2bb 6e96 8d3a 6b4b 1dbd
00000370: d0a3 9a3d 5520 863c 0d5d af3d 4d3a 113c
00000380: 969b acbd 361e 163c 4d91 5f3d 661e 3b3a
00000390: f276 e83c 5705 7a3d a2e4 023d 55e9 823d
000003a0: b7e8 053d abd0 0e3d 39c0 b03d c1ed 993d
000003b0: 8cb9 92bd a854 4abd 75ec fe3c 2aed 98bc
000003c0: a558 dabc 7fab 373c 5bd1 aa3a 2ed7 3d3d
000003d0: c496 ddbc 4cf8 3d3d f6ec 533d 1ff4 843d
000003e0: d9b8 a6bd 1f36 bcbd 73a0 dcbc 556d 9cbb
000003f0: 1959 873d 87d3 153a ea4e 0ebd a0dc a4bd
-0.053431872 0.01568223 -0.042636536 -0.04664528 -0.08618388 -0.042351525 0.085223325 -0.067339316
-0.023679288 -0.07304413 0.069030255 0.03825279 -0.014469873 0.017813325 -0.08074566 -0.06580142
-0.00089828623 -0.016848346 0.026455149 -0.032474082 -0.03445375 -0.012575947 0.051300324 -0.053791527
-0.06133465 -0.0024740486 0.05960844 -0.08432768 0.019665828 -0.092084 0.027114969 0.07895921
0.04138401 0.009480386 0.043775924 -0.06346627 0.06893421 0.06881108 0.013807428 0.0375645
-0.0041357283 -0.0874503 -0.03471494 0.06975982 0.04059756 0.025517525 -0.087242775 0.03147036
-0.04078534 -0.06515424 -0.0012000632 0.079873905 0.037991263 0.03190982 0.047649782 -0.06829341
-0.09264467 -0.07443629 -0.056674026 0.06383084 0.063505284 0.051834222 -0.03273844 0.06871096
0.021482775 0.07478616 0.072661795 0.037154384 0.07607672 0.011765945 0.08564889 -0.032282304
0.01739388 -0.07378448 -0.0550382 0.07122844 -0.036418203 0.02235341 -0.059273556 0.074685685
0.0754291 0.07900738 -0.025250025 -0.033099156 -0.008833431 -0.03723798 0.06951985 0.021409893
-0.06779299 0.05475591 0.014256194 0.047738202 -0.061234716 0.00021498893 -0.08584707 0.07989162
-0.0036443933 -0.036208637 0.047873355 0.013022873 -0.08880671 0.037471104 0.07838066 -0.007494763
-0.079542495 -0.015055793 -0.0799879 0.012236437 -0.046345655 -0.020121211 -0.012318288 0.048760116
0.07057509 0.07670209 -0.034278125 0.010270051 -0.08333787 -0.00036406136 0.013430655 0.037698958
-0.06956653 0.08170045 -0.01965649 0.061378606 -0.026766762 -0.039325424 -0.09387542 -0.011202312
-0.061292615 -0.062963024 -0.018407973 0.06556244 0.0070696124 0.019558145 0.089266665 0.042511202
-0.039245043 -0.06641451 0.068535954 -0.017821778 0.04960701 0.061188325 -0.045885283 -0.08086495
0.018344276 0.05667771 -0.02604036 -0.008935454 0.06135715 0.01293441 -0.057619333 -0.0006996277
0.030025773 -0.070462145 0.03853193 0.009046822 -0.045771174 -0.0860105 -0.040574256 -0.033280697
-0.046805624 -0.034121577 0.07494238 -0.09065476 -0.032374065 0.025935017 -0.019433914 0.08329515
0.022184113 0.0986906 -0.0281083 0.025409289 0.06084481 -0.039215486 -0.024191728 -0.092038095
-0.07619022 -0.059505295 -0.027129287 -0.07002729 -0.07514064 0.016591847 -0.007835457 0.059185293
-0.06240235 0.0029101647 0.025263825 0.0601465 0.076858036 0.030734027 0.028081408 0.018278409
-0.09772967 0.00723803 0.064033516 0.041789547 -0.09013977 0.09250479 0.055405423 -0.03967356
0.061753847 0.03017708 -0.08169097 -0.008365534 -0.0055113044 0.03795472 -0.008654541 0.046341695
-0.037832752 0.0651297 0.047372885 -0.037208628 -0.023739379 -0.0059860446 0.0060044327 -0.051316474
0.03617021 -0.0064307624 0.0010802278 -0.038402002 0.07550776 0.016372839 0.0856267 0.008863998
-0.08428113 0.009162476 0.05458193 0.00071380136 0.02837703 0.06104025 0.031956322 0.06392161
0.032692637 0.03486697 0.086304136 0.07516051 -0.071642965 -0.04939714 0.03111861 -0.018667776
-0.026653597 0.011210321 0.0013032363 0.04634779 -0.02704943 0.046379372 0.051739655 0.06491875
-0.08140726 -0.0919001 -0.026931977 -0.0047737756 0.06608791 0.0005715419 -0.034743227 -0.080498934

projection_layer.4.bias f4 [128]
00000000: 04ff 85bd 2f04 88bd 0be3 74bd 28f0 07bb
00000010: 2b9e 723d beb3 ccbc 980d efbc d567 24bd
00000020: 4dc7 38bd 5e41 983d 5655 363d d255 1c3d
00000030: 28e1 423d 378b 06bc 4bfd d03c 5e03 b13d
00000040: 7ff0 a7bd 5b3e 823d 118f 97bd 23c9 9cbd
00000050: 7b48 993b 1f4d 933d c9af fa38 75fd 173d
00000060: bc7a 313c 4e5a 7c3c a3b8 a4bd 689e a9bc
00000070: 733c 5f3d f194 90bd e022 603d df0a c2bc
00000080: 6074 89bc d645 97bd 3693 a53c 3a8f 57bd
00000090: 996c 3c3c 9373 8bbd cafd 8a3d 377f 943d
000000a0: cc52 7ebd a3d1 903d 9624 2c3d 6db7 353d
000000b0: c7f7 0a3d d611 f33c 64c7 973c a003 5e3d
000000c0: eb8a 983c d6be aabd d7a7 a33c a31b 42bc
000000d0: d95d 40bd 60bc 673d 65fd 36bd 514b e23c
000000e0: bf02 f53c 1c54 abbd 865f 1abd 4f7a b1bd
000000f0: bed9 80bd 3d02 66bd 5c57 023d 6f2f bbbc
00000100: 8cdf 21bd a1d0 93bd 5c76 513c 3bfb 833c
00000110: cc08 fb3c 3a21 a5bc fd86 303d 1247 82bd
00000120: 767a 2dbd 8b9a 8cbc 0e3b a53d 520e e7bc
00000130: 3033 9ebd fe12 7fbd 8960 7f3d 7b1c a2bd
00000140: c0d1 99bd 9620 1fbc d93c 1d3d 5ed2 fbbc
00000150: 47e2 97bd 4848 91bd 5735 903d fa7d eebc
00000160: 24d3 3bbd 3f0c 013c 08e6 833d 54e8 873d
00000170: 6779 dabc a168 3cbd 0c64 75bd c433 8b3d
00000180: 91df 603d 3fb5 ecbc 9e90 40bd 4234 36bd
00000190: 0bc3 4b3d 8bc0 1dbc 4219 023d b9ce 7abd
000001a0: 7423 853d 262f 4e3d 5cbb 3f3d 49b4 adbd
000001b0: 3914 30bd c7ee babc c006 ed3a 9f84 7c3d
000001c0: f2b4 e33c a534 afbd a509 703d 6c98 20bd
000001d0: c0bf 3e3d 916e b6bc a952 df3c 9cf7 0b3c
000001e0: aab0 883d bb06 ad3d 86c8 b73b 23be 5b3d
000001f0: 2fbc 70bc 98a0 82bd bd31 ac3c cfcc b3bd
-0.06542781 -0.06641423 -0.059786838 -0.002074251 0.059232872 -0.024988052 -0.029181287 -0.040138084
-0.045111943 0.07434343 0.044514976 0.038167782 0.047578007 -0.008211902 0.025511404 0.0864322
-0.08200168 0.063595496 -0.074003346 -0.07655551 0.00467783 0.07192444 0.000119536715 0.03710695
0.010832485 0.01540239 -0.08043029 -0.020705417 0.05450101 -0.07059658 0.05472076 -0.023686824
-0.016779125 -0.07386367 0.020211797 -0.052626826 0.011500501 -0.068091534 0.06786688 0.07250827
-0.06209068 0.07071235 0.04202708 0.04436438 0.033927705 0.02967159 0.018527694 0.054202676
0.018620929 -0.0833718 0.019977493 -0.011847409 -0.0469645 0.056576133 -0.04467525 0.027623804
0.029908536 -0.08365652 -0.037688754 -0.08665907 -0.06291531 -0.05615448 0.031821594 -0.022849767
-0.03951983 -0.07217527 0.012784567 0.016111007 0.030643843 -0.020157445 0.043097485 -0.06361212
-0.042353116 -0.017163536 0.080679044 -0.02820507 -0.07724607 -0.06227397 0.062347922 -0.079155885
-0.0751071 -0.009712359 0.038388107 -0.03073996 -0.07416206 -0.07093865 0.07041424 -0.029112805
-0.045855656 0.007876455 0.06440359 0.0663611 -0.026669217 -0.04599822 -0.059909865 0.06796983
0.05490071 -0.028895019 -0.047012918 -0.04448343 0.049746554 -0.009628425 0.03176237 -0.061232302
0.06500903 0.050337933 0.04680954 -0.08481652 -0.042988036 -0.022818936 0.0018083677 0.061649915
0.027796242 -0.08554963 0.058602948 -0.03920786 0.046569586 -0.022269519 0.027261095 0.008542921
0.06674321 0.08448549 0.005608621 0.053648125 -0.014693304 -0.06378287 0.02101981 -0.087792985

output_layer.weight f4 [1, 128]
00000000: 6a0a e33b 152e 56bd cebd d23c d557 ab3d
00000010: 75dc be3d d65b 563d c887 93bd c2c9 7c3d
00000020: adcf 083b b72b 52bc 23f0 7f3d cc78 923d
00000030: 5994 e4bc eb62 903d 88aa 5b3d fe67 433d
00000040: cba9 9f3d 71f1 303c 3ff0 c73c 3ff3 a03b
00000050: 18ee acbd e5d3 8dbd b3c5 313c bc69 78bd
00000060: b5d0 fe3c 8096 923b 317e 8cbd 8b94 763b
00000070: 50ae ba3b 885e 91bd 9e89 f63c e05c 2fbd
00000080: b5bd 623d 1eee bcbc 1e72 ef3c b7f7 403d
00000090: a671 9e3c b704 a1bd a1b5 f13c 8572 c73c
000000a0: c2f8 363c d98d e4bc bc09 96bd 1b4a 8ebd
000000b0: 58a4 cd3d 5272 3abd 8d64 b6bd 7572 b33d
000000c0: 6205 273d 0ad2 b93d b529 cabc 42fc 35bd
000000d0: f659 1dbd ca58 7ebd 1410 8cbc 832c fe3c
000000e0: d982 773d c510 2dbd a16b 08bd 0d15 febc
000000f0: 026c 7cba cf61 8dbd 9262 5fbd 7ea6 16bd
00000100: 575e 73bd 2ed3 103d c7ff 2ebd 40fb ba3d
00000110: 2905 f93b 1b4e 90bd 500f 8c3d 99fd 4e3d
00000120: 2afb e13c 18bd 063d 7e4d bebd aed3 283d
00000130: 480a a13d 5a7a 8b3d 2cd1 09bd fabc cd3c
00000140: e813 9cbd d6f9 71bd 39bb 3dbb d764 52bd
00000150: f8ea 263d cfa9 a3b9 ee2e 83bd c052 423a
00000160: f7f0 e2bc 15b1 243d 8367 26bd efc6 5b3c
00000170: 4f7f 983d c891 38bd 30ab c93c 85cf 7c3d
00000180: 1ccc 0a3c fa02 a6bb 8ee2 4abd e3eb 29bc
00000190: b234 c7bc a5ff 8c3d 8cf6 16bd 1414 4abc
000001a0: a196 9b3d d154 24bd 4763 013d 5651 513c
000001b0: 5355 87bc adae 3ebc 3388 523d c82f a7bc
000001c0: c437 6dbc cd52 20bd 78c4 9b3d cbed 95bd
000001d0: 9637 94bc d8d4 28bc 8de3 ab3d 71be 7ebc
000001e0: 1959 6c3d b41a 9ebc 03a7 1f3d 08d5 f1bb
000001f0: 69bc 2fbd 7b8f 103d b1ac afbc 8c57 52bc
0.0069287317 -0.05229004 0.025725272 0.08366362 0.093193926 0.052333675 -0.072036326 0.06171585
0.0020875738 -0.012827805 0.06248487 0.071519464 -0.027902769 0.07050117 0.05362943 0.047706597
0.07796057 0.010799752 0.02440655 0.0049118097 -0.0844385 -0.06925181 0.010850358 -0.06064771
0.031105379 0.0044735074 -0.068600066 0.003762516 0.005697049 -0.070981085 0.030094918 -0.042813182
0.0553567 -0.023062762 0.02922922 0.04711124 0.019341301 -0.078622274 0.029505553 0.0243466
0.011167707 -0.02789967 -0.073260754 -0.06947728 0.10041112 -0.04551918 -0.08905897 0.08762065
0.040776618 0.09073265 -0.02467809 -0.044430025 -0.03841587 -0.062096395 -0.01709751 0.031027084
0.06042752 -0.04225232 -0.033305768 -0.031015897 -0.00096291315 -0.06903421 -0.054537363 -0.036779873
-0.05941614 0.035357647 -0.042724397 0.091299534 0.007599492 -0.070461474 0.06838858 0.05053482
0.027585585 0.032895178 -0.09292124 0.0412175 0.07863289 0.06810446 -0.033646747 0.025114525
-0.07620984 -0.059076153 -0.0028950705 -0.0513657 0.040751427 -0.000312163 -0.064054355 0.00074128434
-0.027702792 0.04020794 -0.04062606 0.013414129 0.07446157 -0.045060903 0.024617761 0.061721344
0.008471515 -0.005066273 -0.049532466 -0.010371181 -0.02431712 0.06884698 -0.03685622 -0.012333889
0.075970896 -0.04011995 0.03158882 0.01277574 -0.016520178 -0.011638326 0.05139942 -0.020408526
-0.014478628 -0.039141465 0.07605833 -0.07320746 -0.018092912 -0.010304652 0.08393011 -0.015548334
0.057702158 -0.019299842 0.038977634 -0.0073801316 -0.04290429 0.035293084 -0.02144465 -0.012838256
