Checkpoints/HR_V/valence_s07.pth (torch, 461905 bytes, 29 tensors)

input_layer.weight f4 [128, 29]
00000000: 4afb 01be b5cb 2bbd e9b4 3bbe db17 763d
00000010: 6f04 11be 1f30 b83d 10fc 533d ebf1 03bd
00000020: c161 a63c f793 1ebe fafb bbbd 94b4 473e
00000030: 405c 05be 26a1 193d ce84 cfbb e760 0dbd
00000040: 99fe 30be 2453 223e c0b9 09be 68e8 253e
00000050: ce72 483e 8ddc b5bc 779f b7bd c05c 743d
00000060: 53f9 ee3d 4ca3 38be 09c8 d1bd 7b10 2fbe
00000070: c97e 2b3e cec7 61bc 5761 893d 726e d1bd
00000080: 9bab ff3c ee66 09be 4aa4 e8bd a58c 123e
00000090: 460c 64bb a861 9c3d 4268 0dbe 8e1e 8c3d
000000a0: 619f cebc 201a 253e b0b3 9bbd 1401 b83d
000000b0: 10ba f7ba 3fcd b63d 5ea4 94bd 67ac 153e
000000c0: d29e cc3d a5a5 183e 4ac1 38bc 304d b9bb
000000d0: a85a 863d 3300 33be f48b 113e 41fb 2a3e
000000e0: b7e0 b03b 5b46 6cbd 5f1b 1fbd 93d5 7b3d
000000f0: d0fd d0bd 9da7 013e 5723 f8bc 1479 d53d
00000100: 2f38 143e 2b2b c4bd 1a96 a63d bbbb afbd
00000110: ed3b f5bd fffc 6fbd cd9e 123e 14c3 e73b
00000120: fa54 ff3d 073b c3bd a3bd 313e 0f44 c1bd
00000130: f37e 13be e822 01be 0cf1 cc3d 8618 b6bd
00000140: ede6 fa3c e92e ac3d 53d2 013e b8f4 c5bd
00000150: 7b4d a53d 1ef6 8d3d dc88 8e3c bc7c f63c
00000160: 9e1f ddbd 3895 09be 3d3e 2abd 13e3 91bd
00000170: 3718 313e d77c 28be 402c 143b a2df 2dbe
00000180: 0789 203c 5c94 1e3e dd1a 853d a626 ca3b
00000190: 55b8 9cbd 32c3 2abe 8815 b93d cb60 cabd
000001a0: 3fd9 2c3e 87dd 9c3d a624 b13d 5529 c53d
000001b0: 199a f83c d419 d03c 0fe5 3a3d dc0d 3cbc
000001c0: 6830 103e e854 06bd 7117 103e 4c5c df3c
000001d0: 32b2 c33c e73f 893d 15da 03be e050 1fbe
000001e0: 4df9 e93b 4a05 e5bd 20a7 00be 8abc 393e
000001f0: 3ef8 aabd 2932 8a3d 8805 dd3d 9519 3d3d
00000200: 2ada f23d 87b7 083e 2bb3 6e3d b21f 343e
00000210: a267 6f3d 984f f43c 946e 083e 7f85 a5bd
00000220: 0793 93bd cd16 903d 34bc c1bd c643 22bd
00000230: 8bb5 a5bd dd3d 313e 3d33 12be 2f81 55bd
00000240: 75ad 033e 99a4 713d 347f e33d 16fd ee3b
00000250: fb80 283d 04bc f9bd 8e81 15be 6eee d53d
00000260: 7b35 9d3c 527f 973c eb0e 213e 6537 17bc
00000270: 9f21 34be 7072 8b3d cb8b 0f3e 2282 07be
00000280: 485e 23be b32a 313e 7986 953d 059b 24be
00000290: a465 bd3d 5188 2abe 8377 0d3e 4881 0d3e
000002a0: bc03 12be bc92 113d ef1c 5f3d c4a9 343e
000002b0: 902a 813c 67d4 14be 850c 8f3d 345c 04be
000002c0: 1213 053d 170b 44bd 9609 053e 9615 9abd
000002d0: c4dd 02bc 276e cdbc aa91 d33d 8426 0ebe
000002e0: d87e 02be 7058 b0bc 1f11 4fbd 4f21 7bbd
000002f0: c375 f03d 6118 fc3d 1062 12be 3ec7 51bd
00000300: a2fb b1bc 7ba7 8d3d 9fbe 043e 1545 e1bd
00000310: fda3 203e 6ea9 9bbc ec68 903c 96b3 05be
00000320: c7a7 283e babf e3bd eb23 04bd 2223 b1bd
00000330: c9c9 8cbd 7a18 fdbd 7910 283e 705c fa3d
00000340: 1d7c 04bb ea15 1c3e 5cfa cb3d 8170 1bbe
00000350: de76 1cbe ee02 0dbe def6 21bd 570d 313d
00000360: 6ec8 abbc 8553 eabd 3bf6 1d3e 29a0 30be
00000370: cad3 143e 5b05 313e 20a3 27be b5ad 28be
00000380: 4b5d 1b3e c309 2bbd 792f 0f3d 82a5 c53c
00000390: 6324 b3bd 575c 09bd 07bb 773c e899 2abe
000003a0: f979 183e c45c f03b 012e 19bd 8bbd a1bd
000003b0: f3b3 703d 2158 b83d 542d 07be 0c02 b4bd
000003c0: 01d6 c3bd cda0 5bbd 772e 363c f1c7 c6bd
000003d0: ba09 d5bc 6cba c33c b1eb 553c 1025 ab3d
000003e0: 3034 3abd 7d5d 543d c45f d3bc 9541 8e3d
000003f0: 1f72 023e 8c51 953d 9361 03be efa2 23bd
-0.12693515 -0.041942317 -0.1833073 0.060081344 -0.14161848 0.08993553 0.051754057 -0.032213133
0.020310285 -0.15486132 -0.0917892 0.19502479 -0.13023472 0.0375072 -0.00633297 -0.03451624
-0.17284621 0.15852028 -0.13449764 0.16201937 0.19575045 -0.022199893 -0.089659624 0.059658766
0.116686486 -0.18031043 -0.10243232 -0.1709613 0.16747583 -0.013780547 0.06708019 -0.10226144
0.031209758 -0.13418171 -0.11359461 0.14311464 -0.0034797355 0.07635814 -0.13809302 0.06841765
-0.025222482 0.16123247 -0.07602632 0.08984581 -0.0018900055 0.08925866 -0.07257913 0.14616548
0.0999123 0.14906938 -0.011276552 -0.0056549534 0.0656026 -0.17480545 0.14213544 0.16697408
0.005397882 -0.057684284 -0.038844462 0.061482977 -0.10204661 0.12661596 -0.030290289 0.104234844
0.14474557 -0.09578546 0.08134098 -0.085807286 -0.119743206 -0.058590885 0.1431839 0.0070728157
0.1246738 -0.09532743 0.17357497 -0.09436809 -0.14403896 -0.12610972 0.100069135 -0.08891396
0.030627692 0.08407385 0.12677889 -0.09665817 0.08071419 0.06931709 0.017399244 0.030088775
-0.10797046 -0.13435829 -0.04156326 -0.07123389 0.17294393 -0.16453873 0.0022609383 -0.1697984
0.009798295 0.15486282 0.064992644 0.006169158 -0.07652346 -0.16676024 0.0903731 -0.09881743
0.16879748 0.076594405 0.08649568 0.09627024 0.030346917 0.02540294 0.045628604 -0.011477914
0.14080966 -0.032795817 0.14071442 0.02726569 0.023888681 0.067016415 -0.1287616 -0.15558195
0.0071403147 -0.111826494 -0.12563753 0.18138328 -0.0834813 0.067478485 0.107920706 0.046166975
0.11858018 0.1335126 0.058276337 0.17590216 0.05844844 0.02982311 0.13323432 -0.08082103
-0.072057776 0.07035599 -0.09459725 -0.039615415 -0.08091267 0.17308755 -0.14277358 -0.052125152
0.12859137 0.058994863 0.111082464 0.007293354 0.04113863 -0.12194064 -0.14600202 0.104458675
0.01919054 0.018493328 0.15728347 -0.009229516 -0.1759095 0.068089366 0.1401817 -0.13233235
-0.15953934 0.17301445 0.07301039 -0.1607476 0.09247902 -0.16653563 0.13815121 0.13818848
-0.14259237 0.035540327 0.054470953 0.17642885 0.015767366 -0.1453415 0.0698481 -0.12925798
0.03248889 -0.04786214 0.12991938 -0.075236484 -0.007987443 -0.025076939 0.103305176 -0.1388188
-0.127437 -0.021526545 -0.050553437 -0.061311062 0.11741211 0.123093374 -0.1429522 -0.051215403
-0.021726433 0.0691671 0.12963341 -0.109995045 0.15687557 -0.019001689 0.017628156 -0.13056788
0.16470252 -0.11120553 -0.032260817 -0.08649279 -0.06874425 -0.12358184 0.16412534 0.12224662
-0.002021558 0.15242735 0.09959862 -0.15179636 -0.15279719 -0.13770649 -0.03954207 0.043225612
-0.020969596 -0.11441711 0.1542596 -0.17248596 0.14533916 0.17287199 -0.16370821 -0.16472514
0.15172307 -0.041757356 0.034957383 0.024126772 -0.087471746 -0.033535328 0.015120274 -0.16660273
0.14890279 0.0073352773 -0.03739739 -0.078974806 0.058765363 0.09001184 -0.13200885 -0.08789453
-0.095623024 -0.05362015 0.0111194765 -0.097061045 -0.026005615 0.023892604 0.0130566815 0.083566785
-0.045459926 0.05184697 -0.0258025 0.069461025 0.12738846 0.072909445 -0.1283019 -0.039950307

input_layer.bias f4 [128]
00000000: 2d92 cdbd 5184 e3bc 02cb cf38 8674 2dba
00000010: 9482 a1ba 3b9d 89bb b403 4dbd 5ee0 043e
00000020: 6afe e93d 661d edbb 7fb2 f03d ed79 063e
00000030: a369 cfbc 9a13 18bd 2389 a53d 4640 d2bd
00000040: fe39 883c 3379 823d b40a dcb9 c0cf f6bc
00000050: bcc3 ae3d 65f4 20bc f6a9 203b 24cf 133a
00000060: d4ed 833c 88c6 ba3d b8c9 a63d f77a 513c
00000070: 407d cb3d a562 d13d d4f0 8cbd dc2f 7dbd
00000080: 86b1 0bbe fc10 9c3d 3088 103c db51 84bd
00000090: 8af1 0a3e 1c7c 413b 4990 873c ef92 f63d
000000a0: 54f1 2c3a 0b9b d13d 5b41 fdbd 0992 c3b9
000000b0: 8929 febd f54b 193c a86d a6bd 1488 273a
000000c0: 4acc f83c e488 d83b 0f25 b9bd 46eb dcbd
000000d0: 6ce5 a2bb 04df 7a3d 00cb 6e3c f153 41bd
000000e0: dd43 f5bd eb5c 3cbb 6bf9 023b f75f 043e
000000f0: e1e8 ac3d 12b4 0abe 4762 293d 4010 2b3a
00000100: 9516 e3b9 4ac6 a9bd 25d8 293c 4126 35bd
00000110: 6aa8 573d 8b71 95bc 4c89 45bb b522 fcb9
00000120: 6c0e 383d f8dc 103a aa66 7cb5 2e40 00be
00000130: 0629 34bc b869 f2ba b601 9a3d a650 1abd
00000140: 9298 23bd bc2a 58bd 8828 df3d fcea 20b8
00000150: 45c1 78b9 df3f 763b 5f6b 03bc 011b 0e39
00000160: acd0 25bb f1f4 90bb be01 b23d 8adc e53d
00000170: 61d4 45bd db06 fd3d 6ebe b73c 68ac d539
00000180: 1afa 743c 570f dcb9 1453 ac39 ea21 fc3d
00000190: dddb a1bd 0ba7 f5b9 d259 843d 5b9b bf3d
000001a0: 1627 be3d 151d 94bd 1693 4c3d db6f ed3d
000001b0: bcc7 c3bd 3efb 39bc 5dc3 093c 61a3 c03d
000001c0: 5c31 023e 2756 bcbc ac85 a5bd de35 b83d
000001d0: f70f 903c 8f22 b5bd e178 f93d d3fb 9438
000001e0: 1a37 4cbd b056 fcbc cab0 a93d ba81 0cbd
000001f0: 5a1a 2bbc 72ae f2bd 2e51 c539 b4ef a13c
-0.100376464 -0.027773054 9.908342e-05 -0.00066167896 -0.001232224 -0.0041996515 -0.05005236 0.12976214
0.11425479 -0.0072361706 0.117527954 0.13132448 -0.025318926 -0.03712807 0.080827974 -0.102661654
0.016629215 0.06370773 -0.00041969644 -0.03012836 0.08533427 -0.009823893 0.0024515367 0.00056384713
0.016104616 0.09119898 0.081439435 0.012785665 0.09935999 0.10223893 -0.06881872 -0.06181322
-0.13641939 0.07620427 0.008821532 -0.06460925 0.13568702 0.0029523438 0.016548293 0.12039744
0.000659724 0.1023465 -0.12365981 -0.00037302103 -0.12410266 0.0093564885 -0.08126384 0.00063908217
0.03037085 0.0066081155 -0.090402715 -0.10787062 -0.004971197 0.06124784 0.014574766 -0.047199193
-0.119758345 -0.0028741907 0.001998509 0.12927233 0.084428556 -0.13545254 0.04135349 0.0006525554
-0.0004331364 -0.08289774 0.010366474 -0.044225935 0.052650847 -0.018242618 -0.003014165 -0.00048091044
0.04493563 0.0005526091 -9.402671e-07 -0.12524483 -0.010996109 -0.0018494641 0.075198576 -0.03767457
-0.039940424 -0.05277513 0.108964026 -3.836582e-05 -0.00023723122 0.0037574691 -0.008021205 0.00013552235
-0.002530138 -0.0044237305 0.086917385 0.11223705 -0.048298243 0.12354823 0.022429671 0.0004075498
0.014952207 -0.000419731 0.00032868295 0.12311156 -0.07903264 -0.00046854498 0.06462444 0.093558036
0.09284799 -0.072321095 0.04994496 0.115936 -0.09559581 -0.011351405 0.008408395 0.09406162
0.12714142 -0.0229903 -0.080821365 0.08994649 0.017585738 -0.08844482 0.12181259 7.104096e-05
-0.049857236 -0.030803055 0.08285673 -0.034303404 -0.010443294 -0.11849679 0.00037635252 0.01976762

projection_layer.0.weight f4 [128, 128]
00000000: d748 c23c fcde 55bd ba6d a1bd 4f22 5cbd
00000010: 70fd bdbc e2c4 d23c 752e 823d b14a 0c3d
00000020: 7290 86bd 6539 933d 18ad a6bd 8607 9abc
00000030: cd32 aabd 9c8e 4e3d a8ff 5e3d 63c0 b6bd
00000040: 5b2a 8d3d 1822 973d e0c0 843d 991f 583d
00000050: c22a 743d 2c6b 873d 7396 0bbc 976d 88bb
00000060: a601 b93d 08c0 233d a7a3 6f3d 9ca7 a7bd
00000070: b710 c5bd ecf4 09bd 247d 56bd 1987 983d
00000080: 7841 c7bd d194 8f3c d1c6 02bd d0a2 653d
00000090: 2a73 27bc 95d3 0d3d 0bfb abbd 4edb 833d
000000a0: 9c4b a0bc a9fb ddbc 8f33 5c3d 6d6b 02bd
000000b0: 2bf8 533d 0e3c 85ba e7ed 7abd 859e 98bd
000000c0: bcc5 b4bd 5c65 86bd 2d55 33bd e256 a43d
000000d0: 0986 88bc 75cc f13b 4124 783d 82b1 88bd
000000e0: f191 663d d117 c0bd ce4c 0c3d c527 51bd
000000f0: 6487 87bd 5746 f23c e58b 97bd 1ead 81bd
00000100: c326 f53b 32b9 6dbd 8f57 8d3d e845 debc
00000110: 4934 acbc c33d fb3c d78c 1a3d bccd c9ba
00000120: 8ad8 1e3d 65d0 8ebb 0c90 853d d605 2f3d
00000130: 9ed9 29bd 0970 cbb9 279b a53b 1e34 aebc
00000140: 4ed2 883d c96e abbd b3e9 a93d f40f e4bb
00000150: 02db b73d 4705 cbbd 9c60 943c f5cc 973d
00000160: 404f 9b3d 6a7f 70bc 750c 2a3d f1a7 d53c
00000170: bfc9 20bd 52ee 82bd 1ab7 08bd b9e0 e83c
00000180: a106 2d3d fd8d f5ba 636c 4abd aad9 2bbd
00000190: 6a64 a33c d1f0 17bd e489 0fbd 7157 983d
000001a0: 505e 2fbc cdd0 a23d 2b7b 44bd 64de 9f3d
000001b0: a788 abbc 5afd 333c 917e c9bc a9ba 823d
000001c0: 9ef5 6a3d 7bfd 5bbd 6f9f 3b3d e8c4 babc
000001d0: 5e73 33bc 616d 32bd 90ae 2d3d 114b 98bd
000001e0: 9bca 883d b5c4 7fbd 0590 963d efde 473d
000001f0: 24e8 09bd 07e2 793d 1231 213d aedb 253d
00000200: 97c2 21bd af50 a63d 1926 613d d8e6 56bd
00000210: eef8 90bd b618 6a3b 7c4b 51bd 787f 0bbd
00000220: 2388 f73c 34fb 133d 0980 963d 1f52 24bd
00000230: ba44 a03d d874 513d cf14 22bb c3fe 71bd
00000240: d402 62bd eee9 723d 068d 8cbd 35fb 82bd
00000250: 6b8a fdbc f473 e5bc 3f1a aa3d 650a 84bd
00000260: a6ec 273d aa4b 4fbd 6822 46bd 0c65 9fbc
00000270: 1a5f 893d 6493 373d a12d 1cbd 7661 5fbd
00000280: 1311 283d 6e71 593d c996 ce3c 577f 9e3d
00000290: 3cbf 57bb a862 53bc 107d a63b aaf1 563d
000002a0: 6c40 ccbc a321 f0bc 67b9 60bd 13d8 773d
000002b0: 8555 adbc 4f60 2ebc b58a cc3d d3c5 313d
000002c0: 7fd8 643d ce60 93bd 8181 01bc 7a8e c3bd
000002d0: 6010 93bd c711 dd3c 6cc4 bebc 5ea4 fcbc
000002e0: e191 a7bd 83a1 833d e807 203d 938a 9cbc
000002f0: 4c67 4b3b d6f4 97bd c8d1 34bd ac01 e2bc
00000300: 2244 81bd 3031 fa3c acce f2ba 16e3 95bd
00000310: 7fbb 92bd f142 e8bb e327 f43c c4c4 ee3c
00000320: 4710 b43d 1e70 68bd f784 813c 9257 9bbc
00000330: 7dbf ec3c 9e04 9b3d 4c96 873d 9763 b43c
00000340: b8d1 273b 5aa7 8dbd dd1e b93d 591c 653d
00000350: 55ba a33d 94d1 b4bd d8d3 a13d 0039 77bc
00000360: 195a e8bc a5b6 453d 3344 32bd 1159 03bc
00000370: 65f3 82bd ae3e d5bc 710e 77bd c368 4dbc
00000380: 426e b2bd 824f 653d 21eb 3cbc 0b16 5e3d
00000390: 961e 903d dbc8 d3bb 72e9 7abb 85df e43c
000003a0: 6639 99bd 5b09 51bd a069 af3d dfd4 9cbd
000003b0: 369a 9d3c 0977 83bd c6d2 4d3d a0a2 19bc
000003c0: 98d0 d73c ab8c 11bd 9fec 7abd 599c 89bd
000003d0: cba7 8ebd dd14 153d f91c a53b e763 153d
000003e0: f3cc 7bbc e5d4 0b3d 07f5 47bc 0a3a 15bd
000003f0: 6572 0e3d e9b3 a9bc 9f22 963d 3c8a 40bd
0.023716373 -0.052214608 -0.07882257 -0.053743657 -0.023192137 0.025728647 0.06356517 0.03425092
-0.065705195 0.071886815 -0.08138484 -0.018802416 -0.08310471 0.05042897 0.05444303 -0.089234136
0.06892844 0.0737955 0.064821005 0.05276451 0.05961109 0.06612238 -0.008519757 -0.0041634548
0.090335175 0.039978057 0.05850568 -0.08186266 -0.09622329 -0.03368084 -0.052365437 0.07447643
-0.09729284 0.017527016 -0.031927887 0.056063473 -0.010220328 0.03462561 -0.08397492 0.064383134
-0.019567303 -0.02709754 0.053760108 -0.03184073 0.051750343 -0.0010164992 -0.061262038 -0.0745211
-0.08826777 -0.065623015 -0.0437824 0.08024384 -0.016665475 0.0073791095 0.06058145 -0.06674482
0.056291524 -0.093795426 0.034252934 -0.051063318 -0.066176206 0.029574556 -0.0739973 -0.063318476
0.0074814274 -0.058037944 0.06901466 -0.027132943 -0.021021025 0.030669099 0.03773197 -0.0015396397
0.038780726 -0.0043583387 0.065216154 0.042730175 -0.0414673 -0.0003880265 0.005053896 -0.021265086
0.066807374 -0.0837074 0.08296528 -0.0069599096 0.08977319 -0.09913116 0.018112473 0.07412139
0.07583475 -0.014678815 0.041515786 0.026081057 -0.0392549 -0.06393112 -0.033377744 0.028427469
0.04224265 -0.0018734332 -0.049419772 -0.041955628 0.019945342 -0.037094895 -0.035043612 0.07438553
-0.010703638 0.07949982 -0.047969025 0.078060895 -0.020939184 0.010985697 -0.024596484 0.06383259
0.057363145 -0.053708535 0.045806345 -0.02279897 -0.010952799 -0.043561343 0.042402804 -0.07436193
0.06679269 -0.062443454 0.07351688 0.04879659 -0.033668652 0.061006572 0.039353438 0.040492706
-0.039492216 0.08120858 0.054967973 -0.052466244 -0.070787296 0.0035720295 -0.051097378 -0.03405711
0.030216282 0.036128238 0.073486395 -0.04011738 0.078256086 0.05113682 -0.0024731641 -0.05908085
-0.05517848 0.059305124 -0.068628356 -0.0639557 -0.030949792 -0.028009392 0.08305787 -0.06447295
0.04099717 -0.05060927 -0.048372656 -0.019457363 0.06707592 0.044818297 -0.038129453 -0.054536305
0.04103191 0.05308669 0.025218384 0.07739132 -0.003292038 -0.012901939 0.0050808266 0.052476563
-0.024933062 -0.029312914 -0.054864313 0.0605088 -0.021158943 -0.010643079 0.09987394 0.04340155
0.05587053 -0.071961984 -0.007904411 -0.095486596 -0.07180858 0.026986016 -0.02328702 -0.030840095
-0.08182121 0.0642729 0.03907004 -0.019109046 0.0031036912 -0.074197456 -0.044145375 -0.027588688
-0.063118234 0.030541033 -0.0018524728 -0.07318704 -0.07164668 -0.007088058 0.029804176 0.02914656
0.08792167 -0.05674755 0.015810473 -0.018962655 0.028899902 0.0756924 0.06620464 0.022020144
0.002560718 -0.069166854 0.0903909 0.055935238 0.079945244 -0.08829036 0.07901734 -0.015089273
-0.028363274 0.048269887 -0.04352207 -0.008016841 -0.0639408 -0.026030865 -0.060316507 -0.012537184
-0.08712436 0.055984028 -0.0115306685 0.05422024 0.07037084 -0.006463153 -0.0038286117 0.027938614
-0.07481651 -0.051034313 0.08565068 -0.076577894 0.019238573 -0.064191885 0.050249837 -0.009377152
0.026344582 -0.035534542 -0.061260816 -0.06719274 -0.06965598 0.03639685 0.005038854 0.036472227
-0.015368688 0.03413858 -0.012204415 -0.036432303 0.034777064 -0.02071567 0.07330822 -0.04700683

projection_layer.0.bias f4 [128]
00000000: 7387 113c f11f e4bc 1a3a d93b 705a 9039
00000010: 5997 d43c 9b12 3b3d e145 1bba 87e7 853c
00000020: ea5d 20bd 282d 0cbd 66be ba3c f60a 3f3a
00000030: b51f 0c39 d58e 3a3d e878 f73c 2ca3 37bd
00000040: 908e 533b 27b3 9539 b720 6cbb ccd9 cabc
00000050: 9d39 73bc 96d7 29ba 65cc 15bc 4f0b 7339
00000060: 2ccb 1a3d 873f 5e39 19eb 34bd 8f0e 05bd
00000070: da6e 353d 2ec7 2dbd 7fc7 36bb 1c7f 0b3c
00000080: 65fd 8a3c 830c 24bc 58aa a63c 574c 1c39
00000090: fb91 31bd 01ea ddbc 2774 0f3d 157f 8ebc
000000a0: 5b15 a03c cea7 5b3c 1875 b63c 9188 a1ba
000000b0: fd59 edbc c947 163a 974c 083d 93d0 ddb8
000000c0: 5a76 0c3d 1fea 1fb9 f1ad 8e3c fbab 173d
000000d0: 4369 1b3a 8e4c 8ebc cf38 173d 346c e83c
000000e0: 910f a63c a5f8 1e3d 5f26 353a 8832 20bd
000000f0: c163 1fbd b6de 31bc c2cf 35ba 6efb 373b
00000100: 7adc d938 c57c 6aba aa1b 323d 8a05 e1bc
00000110: 7c26 94ba 22e8 e5b9 1f42 8fbc a12c 2e3c
00000120: 12b1 d2ba 3e7f cbbc 53c9 f1bc c0b9 07bc
00000130: 8616 cfbb f0ae 1f35 1969 1a3c d356 fb37
00000140: 2318 92bc 8c94 0ab9 c2c3 bb37 1be7 f9bc
00000150: cd2a 60bc a190 fcbc 7006 0a3a 0354 6a39
00000160: c5cf 4bba dbab 2bbd 81a0 91bc 7a58 e33c
00000170: f14e a6bb 4e0c 973b 303b 673a 5da8 94bb
00000180: f2ee 673a 93b0 3aba e020 4abc 77d4 1fbd
00000190: b42e 1ebd a115 a73c 3ef6 dd3a 1eed 6cb8
000001a0: 03db 1d3c 5893 cd3c 4d95 9dbb d5b1 cd3c
000001b0: 337c ae3c f125 153c 9df4 df3b 7c36 5abc
000001c0: 520b 203d e581 5539 9c4f b53c 7a68 1c39
000001d0: 3f36 8bb9 4dab 45bc 5cda ed38 1525 2039
000001e0: c968 adbc c47a e8bc 5114 343d 3fbb 51ba
000001f0: c71f 9339 c41a a1bc e490 bbbc 8d17 35bd
0.008882391 -0.027847262 0.0066292407 0.00027533202 0.025951074 0.04567204 -0.00059231935 0.016345752
-0.039152063 -0.03422275 0.022795867 0.0007287705 0.00013363252 0.04554637 0.03020902 -0.044833347
0.0032281019 0.00028552974 -0.0036030242 -0.024762057 -0.014845279 -0.0006478963 -0.00914297 0.00023178499
0.037791416 0.00021195236 -0.04416952 -0.032484587 0.04429517 -0.04242628 -0.0027889905 0.008514192
0.016966531 -0.010012749 0.020344898 0.00014905758 -0.04335211 -0.02708912 0.03502288 -0.017394582
0.019541433 0.013406707 0.022272632 -0.0012324025 -0.028973574 0.0005732743 0.033276167 -0.00010576951
0.034292556 -0.00015250639 0.017416926 0.037029248 0.0005928466 -0.017370488 0.03691941 0.028371908
0.020271095 0.038811345 0.000691032 -0.03911069 -0.038913492 -0.010856321 -0.00069355604 0.0028073448
0.00010388433 -0.0008944984 0.043483414 -0.027468462 -0.0011302973 -0.00043851236 -0.017487584 0.010630758
-0.00160745 -0.024840947 -0.029514944 -0.008284032 -0.0063198237 5.9486683e-07 0.009424471 2.9961962e-05
-0.017833775 -0.00013216044 2.2383294e-05 -0.030505707 -0.0136820795 -0.030830683 0.00052652415 0.00022347276
-0.00077747955 -0.04191194 -0.01777673 0.02775215 -0.0050753285 0.004609621 0.00088207703 -0.004536672
0.00088475563 -0.00071216485 -0.01233694 -0.03902098 -0.03861876 0.020396056 0.0016934348 -5.6487617e-05
0.009634736 0.025094673 -0.004809058 0.025109211 0.021299457 0.009103284 0.00683458 -0.013318654
0.039073296 0.00020361652 0.022132687 0.0001491624 -0.00026552562 -0.012064767 0.00011341713 0.00015272603
-0.02116813 -0.028378852 0.043964688 -0.0008000619 0.000280617 -0.019666083 -0.022896238 -0.044211913

projection_layer.1.weight f4 [128]
00000000: 5942 7c3f a7e1 7d3f fd57 7f3f a182 7d3f
00000010: 5d2c 803f abb6 7f3f bcee 7f3f 697b 803f
00000020: 1530 7d3f e960 803f 68f9 7f3f c427 7d3f
00000030: a52d 7f3f 6a01 7f3f fe22 7f3f 742c 803f
00000040: 0f5d 7f3f 01fa 7e3f 2e53 7f3f 839f 7f3f
00000050: 8a37 7e3f cb49 7c3f 55cb 803f 18dd 7c3f
00000060: a9a5 7f3f 6d2a 803f 5c99 7e3f 7039 7d3f
00000070: 99dc 7d3f 08ff 7a3f e723 7f3f ee04 803f
00000080: 493c 813f c4e1 7f3f ca74 7c3f 9a8c 7f3f
00000090: 1aae 7e3f b60c 7c3f b725 803f 8c50 803f
000000a0: db43 7e3f aea3 7f3f 954d 813f e30f 7e3f
000000b0: ad74 7f3f f6b3 813f d91b 7f3f 2a63 7c3f
000000c0: cefb 7e3f 7c4d 803f 5419 803f b5c2 803f
000000d0: 09a6 803f 5729 803f 7d43 7f3f 42d2 7f3f
000000e0: b245 7f3f 8211 7d3f a1e3 7f3f 433c 7d3f
000000f0: f39c 7c3f a1ac 7e3f 6c4e 7f3f b66f 7f3f
00000100: 09a6 803f 9a2f 813f 9f34 7e3f 1b72 7e3f
00000110: 8506 7d3f e0d2 7d3f c361 803f 8638 7d3f
00000120: e719 7f3f 2eb5 7e3f 6870 813f 2694 803f
00000130: 0726 7d3f 49d3 7d3f 842e 7c3f 3bcb 7d3f
00000140: 160d 803f 084f 7f3f fa33 803f 6c71 7e3f
00000150: 14e3 7e3f ef47 7e3f 68f3 803f 7751 7b3f
00000160: a1cf 803f 1633 803f 8256 7b3f 6b2a 7f3f
00000170: 54dc 803f f384 7e3f baac 7e3f 792e 7f3f
00000180: e645 7e3f fda0 803f 3396 7e3f 1d90 7c3f
00000190: 4d5b 7f3f 93d6 7b3f 5759 7e3f dc62 7e3f
000001a0: ed28 7e3f f64f 7c3f 4104 7f3f f978 7e3f
000001b0: 78e2 7c3f 7ff7 7d3f 335f 7c3f 520e 823f
000001c0: 8e79 7d3f 72c3 7d3f 5a8f 7d3f 4136 7f3f
000001d0: 7cd6 7d3f 719b 803f 63dd 7e3f 21bb 813f
000001e0: c569 803f 4a53 813f 7998 803f 51d6 7c3f
000001f0: 48b7 7f3f efb2 803f 594c 7c3f f7fc 7c3f
0.9853874 0.99172443 0.99743634 0.9902745 1.0013539 0.99888104 0.99973655 1.0037662
0.9890149 1.0029575 0.9998994 0.988888 0.99679023 0.9961153 0.9966277 1.0013566
0.9975137 0.99600226 0.997363 0.9985277 0.99303496 0.985501 1.0062052 0.9877486
0.9986215 1.0012947 0.9945276 0.9891577 0.9916473 0.98045397 0.9966416 1.0001504
1.0096523 0.99953866 0.98615706 0.99823916 0.9948441 0.98456895 1.001151 1.0024581
0.9932229 0.9985913 1.0101801 0.9924299 0.9978741 1.0133045 0.9965187 0.9858881
0.99602973 1.0023646 1.000773 1.005942 1.005067 1.0012616 0.99712354 0.999302
0.9971572 0.9885484 0.9995671 0.9892008 0.98676986 0.9948216 0.9972904 0.9977983
1.005067 1.0092652 0.99299043 0.9939286 0.98838073 0.99149895 1.0029835 0.9891437
0.996489 0.9949521 1.0112429 1.0045211 0.9888615 0.9915052 0.9850848 0.9913823
1.0003994 0.9972997 1.0015862 0.9939182 0.99565244 0.9932851 1.0074282 0.9817118
1.0063363 1.001559 0.98178875 0.996741 1.0067239 0.99421614 0.9948231 0.99680287
0.99325407 1.004913 0.99447936 0.986574 0.9974869 0.9837429 0.9935507 0.993696
0.992812 0.9855951 0.99615866 0.9940334 0.98783064 0.99205774 0.9858276 1.016062
0.990136 0.9912635 0.9904686 0.9969216 0.991554 1.0047437 0.9955656 1.0135232
1.0032278 1.0103543 1.0046531 0.9876452 0.9988904 1.0054606 0.98554 0.98823494

projection_layer.1.bias f4 [128]
00000000: 50eb 92bc 38a7 68bc 6d91 02b9 09a4 9ebc
00000010: 22ac 613b e47c a63a b19d 90bc fb86 9db9
00000020: 449c 04bc 69f3 1fbc c141 5fb9 f98d 4cbc
00000030: cf7f 7d3c 29d0 90bb 8321 36bb 2571 0ebb
00000040: 3c11 b1bb 7a9c 62bc 5573 a5bb a2d0 bbbb
00000050: fad2 98bb 4cd5 08bc acc5 0bbc 4c9c 6dbc
00000060: ceb5 66ba 5e41 60bb 0ce6 47bc 8975 f0bb
00000070: 552c 68bc de07 91bc 488a 31bb 2968 1ebc
00000080: e110 a83b 0a56 b6bb 49a8 87bc 3532 d9ba
00000090: 5029 f7bb b8f2 a8bc 85e8 7fb9 2523 173c
000000a0: 824f 17bc 5635 d2bb 2939 d13c 83fb 19bc
000000b0: d9ee 51b9 ebcf 0f3c 5542 49bb e3eb 5ebc
000000c0: 02b8 b4bb a394 8dbb 8d80 a4ba 4281 85ba
000000d0: 76fe 2bbb a869 19bb 8d28 01bc 3417 0b3a
000000e0: 9442 66bc b4a1 0abc 72f1 c23a c618 47bc
000000f0: 131f 6fbc 2090 98bb 6ded 89bb 737a 44bc
00000100: 8618 b43a 2169 47bb 5a24 d6bb 73bf 39bc
00000110: 969a 9cbc 52c7 71bb 7012 60bb 3be5 76bc
00000120: 5e98 6bbb fb8d 99bb 1497 993b 3cbf b0b9
00000130: 8a5c 7bbc f6de 80bc 6792 6dbc d9cc efbb
00000140: f5ec fdba de00 07bc c8e1 34bb 1f7e c1bb
00000150: 145f 7fbb c74c 5ebb 27d3 29ba 991e 88bc
00000160: 3d62 8b3b bf5d b8bb 5a36 3cbc 4242 7abb
00000170: c1f9 4439 8941 37bc dea0 bebb c0f2 66bb
00000180: 2ccf 11bc d18b 153c 9ec4 56bc affb 91bc
00000190: 9d97 34bb 3a16 47bc 31c7 6fbc 5680 febb
000001a0: ade3 c6bb a2e8 76bc 09f4 27bb 42e7 e0bb
000001b0: 67ac acbc 0f8f aabc 0b9b 66bc b423 43bc
000001c0: b844 4cbc 2e02 47bc 65e9 56bc 881e 23bc
000001d0: c29a 3cbc 9957 15bc 50f8 4bbb 9a9f ceb9
000001e0: e5fa b53a c6b9 9b3b ae37 09bc c123 eebb
000001f0: 4e18 dabb faf3 8d3b d8e6 2ebc 05c2 8abb
-0.017934471 -0.014200024 -0.00012451941 -0.019365327 0.0034434875 0.0012702015 -0.017653318 -0.00030045942
-0.008093897 -0.009762623 -0.00021291432 -0.012485021 0.0154723665 -0.004419346 -0.002779097 -0.002173492
-0.005403666 -0.013831252 -0.005049149 -0.005731658 -0.0046638222 -0.008351635 -0.008531015 -0.014502596
-0.0008800895 -0.003421865 -0.012200844 -0.00733823 -0.014170726 -0.017703947 -0.0027090479 -0.009668388
0.0051289652 -0.005564456 -0.016559737 -0.0016570749 -0.0075427666 -0.02062355 -0.00024405315 0.009224688
-0.009235265 -0.0064150495 0.025539951 -0.009398344 -0.00020020771 0.008777599 -0.0030709703 -0.013606044
-0.0055150995 -0.0043206974 -0.0012550518 -0.0010185617 -0.00262442 -0.0023408923 -0.007883203 0.0005305887
-0.014053959 -0.008461405 0.0014872982 -0.012151903 -0.014594811 -0.004655853 -0.0042092116 -0.011992085
0.0013740219 -0.0030427652 -0.006535095 -0.011337149 -0.019116681 -0.0036892486 -0.0034190677 -0.015069301
-0.0035948972 -0.004686115 0.0046871994 -0.00033711817 -0.015341887 -0.015731316 -0.014500237 -0.007318121
-0.0019372987 -0.008239953 -0.0027600396 -0.0059049274 -0.0038966583 -0.0033920275 -0.00064783025 -0.016616153
0.0042536543 -0.00562641 -0.011487568 -0.0038186465 0.00018785057 -0.011185058 -0.0058175167 -0.0035239905
-0.008899491 0.009127573 -0.013108401 -0.017820207 -0.002755619 -0.012151295 -0.014634893 -0.0077667637
-0.0060696215 -0.015070112 -0.0025627634 -0.0068635056 -0.021078302 -0.020820169 -0.014075051 -0.011910368
-0.012467556 -0.012146516 -0.013117169 -0.00995601 -0.0115115065 -0.009115123 -0.0031123348 -0.00039410294
0.0013883976 0.0047523705 -0.0083750915 -0.007267446 -0.0066557294 0.004332063 -0.010675155 -0.0042345547

projection_layer.1.running_mean f4 [128]
00000000: a1a3 0f3d bc70 003b be17 943d 5b1e 3f3d
00000010: cf93 2d3d bcee fc3b eff9 fb3c 1568 d1bc
00000020: e003 24bd 1da9 10bc 1348 873c 06dd d63c
00000030: f8b2 dc3d a2a1 823b 82f5 a63d f31a 1bbd
00000040: 1bc3 dcbb 5d94 d6bb f0b2 f63c 32bb 46bd
00000050: bb18 49bb 3532 703d f607 3bbd fc3b 443d
00000060: 9e9f 753d f9fb 6ebb 64c5 f5bc af8b 02bb
00000070: 99e7 d53d 92c9 94bd 6615 e3bb a031 01bd
00000080: 5f5a 733d a289 9f3c eed5 833d 97e8 5e3a
00000090: ec8f 333d 352e 91bc a779 5c3d 6748 643b
000000a0: d312 81bc 5ad5 7e3d fb59 85bb ee4d d33c
000000b0: bd24 9cbc c782 c1ba 8dfe bf3d bb99 35bd
000000c0: 96c3 933c ad11 873c 9280 e1ba ff47 2b3d
000000d0: 8715 933d 6a7c 6fbd 1b37 bd3d 93f5 673d
000000e0: 309d 5c3d f2ae b03c 6ea0 763c 5d57 943c
000000f0: cc04 40bd 409e 4dbb b5f5 c73d 0559 a23d
00000100: a67d 2d3d 0f1c db3c 9dd7 aeb6 fce9 91bd
00000110: b108 27bc 0e8f 813d 6fc7 dfbc 3eb1 9e3d
00000120: c03b b6bd db13 3abd 29f3 d7bd 53e5 61bb
00000130: 84e1 663d d052 273c 7eb6 fb3d ad66 92ba
00000140: 0270 57bd 13df 113d 918a 8bba 6701 d1bc
00000150: 0c2b fdbc 75ea 99bd 077b e9bc 025c 2d3c
00000160: e065 31bb 55b7 b93b fc3d 69bd aa1f eeba
00000170: dae8 653b c10d 803d 660d 663d c34b c4bd
00000180: e0c4 8dbc 9d09 5f3d 059e 33bc c071 9bbc
00000190: 0368 a0bd c359 e83c 928a f23c fdeb d63c
000001a0: 87fe a6bd 6c08 3ebd 26ab edbb 21df f5bc
000001b0: 8920 af3c 35ac 883d caa7 fcbb 0fe2 3b3d
000001c0: e598 6a3d bafc 183d 2ad2 a63c 542d 073d
000001d0: a610 39bd 058c 2abd c65f 32bd 94ec e23c
000001e0: 52e1 adbd f796 e83c 6f8a b03d 67b4 b03c
000001f0: 31ae 33bd 2a06 cbbd 134e 9ebb 53ee 80bd
0.035068158 0.0019598445 0.07231091 0.04665981 0.04237729 0.007718889 0.030758826 -0.025562325
-0.040042758 -0.008829382 0.01651386 0.026228439 0.10776323 0.0039865533 0.08152296 -0.037867498
-0.0067371256 -0.006548448 0.03011462 -0.048518367 -0.0030684907 0.05864163 -0.04566189 0.047908768
0.059966676 -0.0036466105 -0.03000135 -0.0019919684 0.10444564 -0.07265009 -0.006930041 -0.031541467
0.059412356 0.019474808 0.06437288 0.00085032865 0.043838426 -0.017722229 0.053826954 0.0034833194
-0.015756046 0.062215187 -0.0040695644 0.025793996 -0.019060487 -0.0014763706 0.093747236 -0.044336062
0.018037599 0.01648792 -0.0017204455 0.041816708 0.071818404 -0.05846826 0.09239026 0.056630682
0.053860843 0.021567795 0.015052898 0.018108064 -0.046879575 -0.0031374842 0.09763662 0.079271354
0.042356156 0.026746778 -5.210705e-06 -0.07124707 -0.010194943 0.06326114 -0.027316777 0.0774865
-0.08898115 -0.045429092 -0.10544426 -0.0034468963 0.056367412 0.010212615 0.12290667 -0.0011169516
-0.052597053 0.03561313 -0.0010646154 -0.025513364 -0.030904315 -0.07515422 -0.028501047 0.010581018
-0.002706878 0.005667607 -0.05694388 -0.0018167396 0.0035081417 0.06252623 0.05616512 -0.09584763
-0.017305791 0.054452527 -0.010962968 -0.018975139 -0.07832339 0.028363114 0.029607091 0.026235575
-0.08154016 -0.04639475 -0.0072530685 -0.030013623 0.021377819 0.06673471 -0.0077104317 0.045869883
0.057274718 0.037350394 0.020363886 0.033002213 -0.045181893 -0.04163744 -0.043548368 0.0277007
-0.08490242 0.028392298 0.08620154 0.021570398 -0.043867294 -0.09913285 -0.0048310845 -0.06295457

projection_layer.1.running_var f4 [128]
00000000: 4c16 073e eda4 bd3d 505e 083e a004 2f3e
00000010: 9c84 953d f4a2 613e c995 e83d f2a9 e73d
00000020: cc23 c13d 1676 503e d8f0 113e b2ce 233e
00000030: 0875 343e 3f9b e23d c1c7 5f3e cc26 e23d
00000040: 7e62 1e3e f7d3 eb3d 4561 033e 7cf1 b43d
00000050: cdfc 4f3e 3cb0 e33d e918 f43d a6c2 933d
00000060: f869 153e c259 e03d 0f08 003e 6958 be3d
00000070: 14f2 003e d0e5 bb3d 8d55 f13d e4a0 ec3d
00000080: cf33 033e 292c 1f3e 0111 813d f7b5 323e
00000090: 7b32 a03d 1614 083e eb01 373e cd21 1b3e
000000a0: 6225 233e 9af7 983d 1e12 fa3d ef7b f43d
000000b0: 87cc c73d 4d5f e83d 4bea a33d 9154 e83d
000000c0: 63ba 193e 3afd 213e dddb 193e 8750 373e
000000d0: ce8e 3b3e ddc7 073e 735c e13d 1793 dd3d
000000e0: d941 d73d d9d0 3e3e 1f49 093e 07fa d83d
000000f0: a3b8 0d3e d096 c23d 5590 203e 962c 013e
00000100: 12f1 f33d ab61 a23d 2b8c 253e accd 0a3e
00000110: 3438 123e 44eb 2d3e d332 f33d 7a4f ee3d
00000120: 41ba d73d 0a74 033e 6fed d33d c5ba c53d
00000130: f200 153e 1330 013e 694f 283e 5306 e23d
00000140: edf4 bf3d 1adb 043e 4be0 ab3d 157f cc3d
00000150: 5d9d ea3d 3d9b fb3d a636 7a3d cec7 c83d
00000160: cf26 463e 78a0 f93d bb0f e93d ae16 2b3e
00000170: 28c8 9f3d ea8c a83d 36c6 543e a8da cf3d
00000180: a8fe a43d 9e6f b93d f56c 133e 7fdb fb3d
00000190: 964c 353e 95fe a03d 6f40 c83d a019 d13d
000001a0: 3910 753e 0f69 083e 6f94 ec3d 8988 483e
000001b0: 7beb 8b3d a56e 123e 73ca 423e 4195 e23d
000001c0: 2b90 1a3e 58f2 233e 07c7 0b3e a08d 2b3e
000001d0: 0e73 033e ce69 083e ffa2 4b3e abe9 063e
000001e0: 35ac ec3d 3f12 123e f397 eb3d b6a7 1c3e
000001f0: c5e8 a53d bd0b ef3d 453e 303e 7328 2b3e
0.131921 0.09259973 0.13317227 0.17091608 0.07300684 0.22034818 0.11356694 0.11311711
0.09430656 0.20357546 0.14252031 0.15996817 0.17622769 0.11064767 0.21853544 0.11042556
0.1546726 0.115150385 0.12830074 0.08835122 0.2031128 0.111175984 0.11918814 0.072148606
0.14591205 0.1095462 0.12503074 0.09294207 0.12592345 0.09174693 0.11783896 0.11554125
0.12812732 0.1554419 0.06302071 0.17452227 0.078221284 0.13288912 0.17871825 0.15149613
0.15932229 0.07469101 0.12210487 0.11937701 0.09755807 0.11346302 0.08003672 0.11344255
0.15012507 0.15819255 0.15025277 0.17901812 0.18316194 0.13259836 0.110039614 0.10819071
0.10510606 0.18634357 0.134068 0.10594564 0.13839965 0.095014215 0.15680058 0.12614664
0.11911215 0.07928785 0.16166751 0.1355502 0.14279252 0.16984278 0.11874928 0.11636253
0.10533572 0.12837234 0.10348021 0.09654764 0.14551142 0.12615995 0.16436543 0.110363625
0.09372888 0.12974206 0.0839239 0.099851765 0.11455796 0.12285469 0.061087273 0.09803735
0.19350742 0.1218881 0.113799535 0.1670787 0.07801849 0.08230002 0.20778736 0.10149127
0.08056384 0.090544924 0.14397033 0.12297725 0.17704996 0.07861058 0.09777915 0.10209966
0.2393197 0.13321327 0.11551749 0.19583334 0.06832024 0.1430002 0.19022541 0.11063624
0.15094058 0.16010416 0.13650142 0.16753244 0.12836859 0.13321611 0.19886397 0.13175075
0.115562834 0.14264773 0.115035914 0.15298352 0.08101038 0.11672161 0.17211254 0.16714649

projection_layer.4.weight f4 [128, 128]
00000000: ed6d 853d 198b 94bd 3214 9b3d 912f dfbb
00000010: 7836 99bd 26a1 943d 5863 b4bd 54f8 abbd
00000020: ac95 9d3c c586 2a3d 14f9 8b3c 5563 bbbd
00000030: 3792 9cbd c6ee 98bd b605 12bb f031 e43c
00000040: bebb 033d dd61 5a3d 81af a1bd 76af 5c3d
00000050: 6daf bb3c 8aab 91bd 41db 65bd c087 93bd
00000060: c185 40bd 8bee 843c 2d39 463d f942 24bc
00000070: 724d 873c 26bc f6bc 834c 5dbd 9df5 a9bc
00000080: 3b10 21bd c14e 30bc 47ed aa3d 0ffc 6abd
00000090: 56d8 013d afac 863d b8bf b4bd 2b35 44bd
000000a0: 433c 61bd d2d4 92bd 5f25 8c3d d3d2 7cbd
000000b0: eb6d 4fbd 01aa 8bbd dac4 963b c46f bcbd
000000c0: ba16 2e3d fe88 443d 46de d63b 53d4 853d
000000d0: a3aa 92bd b72a 20bd 8320 4abd 42f1 eabc
000000e0: 533c 6bbd 4027 8dba 5e1c 5e3c 0d24 353d
000000f0: 4ae5 3a3d d614 64bc 6a3b 073d 1125 743c
00000100: 141f 6dbd d221 99bd 852d 8b3d d305 993c
00000110: c95a b0bd 5929 0abd ae01 273d 3177 183d
00000120: c9da 81bd a3c1 2ebd 7516 d93c 5a45 9dbd
00000130: 5e12 8abb 1431 3ebd 9c3e febb 2b63 823d
00000140: 730a 8ebc b9ee 443d 7744 933d 719c 9bbd
00000150: 96e9 87bd c62d 0fbd 5af9 973d 0016 d6bc
00000160: 2d40 1abd f9b9 9c3d 8907 98bd a24f 6d3c
00000170: 9adb d43c 2851 ac3b c0de 5a3c b83b 06bd
00000180: bbef 34bc 031f febc ac6c 433d dde0 26bd
00000190: f38c 013d 0db8 4e3d dd43 aabd c0a3 21bd
000001a0: f2ff a8bd 26c9 703d 327a 35bd a591 663d
000001b0: 5923 4bbc b856 5e3d adb6 2fbd 2a59 613d
000001c0: 8df2 6cbd 58a0 c4bc f057 82bd 5ae9 a93d
000001d0: af11 b8bc f909 84bd e4ff 47bd 698f 5dbd
000001e0: 7937 9b3b 8e1d 193d 84e9 b1bc 982b c3bd
000001f0: 10f3 5abd fbad b9bd 91c3 2fbd 14c9 8fbc
00000200: 8ca7 b1bd 1cc2 ce3c c16d 543d 33ea f5bc
00000210: 7c28 9fbd 4dbb 4fbd d819 5f3d 671a 0d3d
00000220: 7534 463d f914 5d3d 8f79 acbd fed4 d73c
00000230: 5877 85bd f549 983c f5a0 8bbd deee 6abd
00000240: 33c5 0e3d aa60 2f3d ebc7 0bbd 4172 dabc
00000250: 0603 da3c ee80 9bbd 3a21 d23b ecaa 933d
00000260: 086e 67bd 7839 4e3d 5023 8d3d db87 923c
00000270: fd7e 70bd a8cb 883d 674a dc3c ad1b b33a
00000280: 36df e93b 7430 e03c 63ad a2bc 1ad0 c23c
00000290: 0fdd 38bd f0e9 573d d16e 36bc 9d18 2f3c
000002a0: f09f 2d3c 9852 883d b458 56bd 3454 9e3d
000002b0: e44f c6bc 4e04 54bd cbbf 09bd 7a85 613d
000002c0: 2cb3 6c3d 3380 c63c 3b3b 5f3d df08 1bbd
000002d0: 32a2 753c fffe b0bc 8c61 973d eafc aa3d
000002e0: 64ed 48bd 650d 13bc 9aea ad3d b545 913d
000002f0: 011d 6bbd 35e5 603d de8f dcbc 0284 6a3d
00000300: 452c e03b 1515 6ebd 5435 a93d 5f90 87bd
00000310: 3669 b1b9 a7f6 643a d29f ec3c 25db 9c3d
00000320: 0bd6 1ebb 0f6e 693d 041b 3cbd 18e8 193d
00000330: 8bf0 b6bc c0f3 873d e373 14bb bd09 31bd
00000340: 5c81 ca3c 8cf7 b13d 6d56 993d 8280 543d
00000350: 4a79 0ebd e72e d03c 3913 063d 2624 84bd
00000360: 1884 6bbd 47d0 f5bb 8fcf 65bd 054a 8ebd
00000370: 1fcb 78bd 010a e03c 9238 a83c c40c aabd
00000380: d9fe a0bd ea65 123d 37a1 8a3b 2c7e 623d
00000390: 0497 edbc 6a6f be3c c73e 913c ad0a 553d
000003a0: 8eb6 ae3d 77c3 abbd e752 56bd f2fa 71bd
000003b0: 64af 5b3c 6b08 053d 0ad4 853d aefc cfbc
000003c0: 3b95 47bd b3e8 b6bd efe0 1f3c f555 06bc
000003d0: 74ef 063d 08a7 f33c d545 4e3d 6338 f53c
000003e0: 1900 fd3b b7f8 e03c e40c 8ebd 43a2 9c3d
000003f0: 6f33 b1bd 4aa3 803d e7b0 5a3d 4faf 6c3d
0.06515107 -0.07253093 0.07572211 -0.0068110903 -0.07481092 0.07257299 -0.08808011 -0.08396974
0.019236408 0.041632432 0.017086543 -0.091498055 -0.07645076 -0.074674174 -0.0022281236 0.027855843
0.032161467 0.053315986 -0.07894803 0.05387827 0.022910798 -0.071127966 -0.0561173 -0.07203627
-0.047002558 0.016227027 0.04839437 -0.010025733 0.016516421 -0.030119013 -0.054028045 -0.020747
-0.03932212 -0.010760964 0.08346038 -0.057369288 0.031700455 0.065759055 -0.0882563 -0.047902267
-0.05498911 -0.071694985 0.068430655 -0.061724495 -0.050641935 -0.06819535 0.0046011033 -0.09201005
0.042502142 0.04798221 0.006557259 0.06534638 -0.071614526 -0.039103236 -0.04934741 -0.028679494
-0.057430577 -0.0010769144 0.013556568 0.044223834 0.045628823 -0.013920983 0.033015646 0.014901415
-0.057890967 -0.07477154 0.067957915 0.018679535 -0.08611066 -0.03373084 0.040773086 0.037223045
-0.06340558 -0.042665135 0.026499966 -0.076792434 -0.0042136153 -0.046433523 -0.0077589285 0.06366571
-0.017338967 0.048079226 0.07190793 -0.07598198 -0.0663635 -0.034955762 0.07420607 -0.026133537
-0.03765886 0.07652659 -0.07423312 0.014484318 0.02598362 0.005258698 0.013358772 -0.032771796
-0.011043484 -0.031020647 0.04771106 -0.04074179 0.03162856 0.050468493 -0.08313725 -0.039462805
-0.08251943 0.05878558 -0.044305988 0.05629124 -0.012398564 0.05428192 -0.042898823 0.055016674
-0.057848502 -0.02400224 -0.06364429 0.082964614 -0.02246937 -0.06447215 -0.04882802 -0.054091845
0.0047368375 0.0373817 -0.021717794 -0.09529799 -0.05345446 -0.09066387 -0.042911116 -0.017551936
-0.08674535 0.025239043 0.051862482 -0.030018901 -0.07771394 -0.050715733 0.054468006 0.034449007
0.04838987 0.05397508 -0.08421623 0.02634668 -0.06516904 0.018589953 -0.068178095 -0.057356708
0.034856033 0.042816795 -0.034126204 -0.026665809 0.02661277 -0.07592951 0.0064126523 0.07210335
-0.05650142 0.050347775 0.06891501 0.017887047 -0.058714855 0.06679469 0.026890947 0.0013664864
0.0071372045 0.027366854 -0.019858068 0.023780871 -0.045132693 0.052713335 -0.011134819 0.010687021
0.010597214 0.066563785 -0.052330688 0.07730904 -0.024208017 -0.051761918 -0.033630174 0.055058934
0.05778806 0.024231052 0.054499846 -0.037850257 0.014992284 -0.021605967 0.073916525 0.08349021
-0.04905452 -0.0089753615 0.08492012 0.07093374 -0.057400707 0.05490609 -0.02692407 0.0572548
0.006841215 -0.058125574 0.08262125 -0.066193335 -0.0003383846 0.0008734264 0.028884802 0.07658986
-0.0024236466 0.056989726 -0.0459242 0.037574857 -0.022331497 0.066382885 -0.0022652082 -0.043222178
0.024719886 0.08689794 0.074871875 0.051880367 -0.03478364 0.02541299 0.032733176 -0.06452207
-0.05749902 -0.0075016352 -0.056106146 -0.06947712 -0.060740586 0.02734852 0.020534787 -0.08303216
-0.07861108 0.035741724 0.004230644 0.055296108 -0.029002674 0.023246486 0.01773013 0.052012134
0.08530913 -0.08386891 -0.052325156 -0.05907721 0.013408516 0.03247873 0.06534584 -0.025389042
-0.0487263 -0.089311026 0.009758218 -0.008199205 0.032943204 0.029742733 0.050359566 0.029934114
0.007720959 0.027462346 -0.069360524 0.076481365 -0.08652388 0.06281145 0.053391363 0.057784375

projection_layer.4.bias f4 [128]
00000000: 09bc d23c 7300 663d cbce 9a3d b4f8 093c
00000010: 9eb1 9f3d 6494 aa3d c581 8b3d 3af5 013d
00000020: 9882 263d 4c08 a33d d06e 4fbd 124e 88bd
00000030: 538a 84bc ca08 963d a916 dbbc e9fd 3a3d
00000040: 48e9 ab3c 10bd 04bc ad0d a1bd f65d 913d
00000050: b249 acbd 06f9 8fbc 821e 9ebc e1fb 8a3d
00000060: f6bb de3b 0f9d 073d aa7b 32bd c13f 323d
00000070: 8b59 3abd 3859 b4bc 704f a93d e774 983d
00000080: b530 703b f197 b13d e847 ad3c defb 0dbd
00000090: 881b 92bd c0d9 c03c e0ac 723d 8031 2d3d
000000a0: 816b 8a3d 11c9 82bd 6daa 86bd 5502 203c
000000b0: afce 133d 5362 b0bd 3f8d 84bd ff01 07bc
000000c0: 9a1c aa3d eb46 45bc 5c86 bdbd ca76 e5ba
000000d0: 1942 ff3c 6205 2cbc a7e0 93bd 3ba2 d63c
000000e0: e60e ae3d 2682 943d 973f 8ebd 9da9 12bd
000000f0: 0c07 813d fd35 a2bc d37c 843d 7c9c 863c
00000100: def4 12bd 9328 773d a4e9 653d 3f8a 44bd
00000110: 3a3a 943d 61da 56bd a809 27bb 0f5f 61bd
00000120: c3c4 383d b0b6 ffbc 3a4c df3b b47d 10bd
00000130: ec1d 60bd 89d4 613d 3adb c03b 05a9 b0bc
00000140: 4d4c dbbc 8060 453d ca53 ff3c 41a0 8dbc
00000150: 5b0c dd3c 4f17 083d a34c 983d bb37 763d
00000160: 562c 45bd 9229 a03d 148e 8dbd 4d69 babd
00000170: 3e38 533d 5406 2c3d c708 403c e44f 86bc
00000180: e6bc 583c a311 5f3d a106 7abd fbd7 283d
00000190: bf53 23bb 01e3 30bc b95f 8f3d 1e90 193c
000001a0: a005 173d ce23 6d3c ef06 e93c 415f c63a
000001b0: d1ea a0bb 558f 843c 4103 a53d 826a aa3d
000001c0: 7b7c 083c f91b 3cbd 9973 96bd 4720 afbd
000001d0: ebc1 b0bd 5380 b4bd 8c92 a63d 5293 4d3d
000001e0: 3764 12bd b544 acbc 64da 0e3d 9a52 3abd
000001f0: accd 80bd fb72 7c3b 231f 433d b1ab 1e3b
0.025724428 0.056152772 0.07558974 0.008421112 0.0779755 0.083290845 0.06811861 0.031728007
0.040651888 0.07960567 -0.05064279 -0.06655516 -0.01617924 0.07325895 -0.026744204 0.045652304
0.02098526 -0.008101717 -0.078639366 0.07098 -0.08412494 -0.017574798 -0.019301657 0.06786323
0.006797309 0.033108767 -0.043574966 0.04351783 -0.04549555 -0.022015199 0.082671046 0.07444172
0.0036650125 0.08671559 0.021152452 -0.034664027 -0.071341574 0.023541331 0.059246898 0.042283535
0.06758786 -0.063860066 -0.06575475 0.009766181 0.03608578 -0.08612504 -0.06472253 -0.008240222
0.083062366 -0.012040834 -0.09254143 -0.0017506715 0.031159448 -0.01049933 -0.072205834 0.026200404
0.084989354 0.07251386 -0.069457226 -0.035806287 0.06300172 -0.019801134 0.06469121 0.01643204
-0.035878055 0.06034143 0.05613102 -0.047983404 0.07237668 -0.052454356 -0.0025487933 -0.055022296
0.04510952 -0.031215042 0.006814507 -0.03527613 -0.054716036 0.05513433 0.005885509 -0.02156497
-0.026769781 0.048187733 0.031167883 -0.01728833 0.02698343 0.033225354 0.07436492 0.060111742
-0.048137985 0.07820429 -0.06911865 -0.09102116 0.05156731 0.041998222 0.011720843 -0.016395517
0.013228631 0.05446018 -0.061041478 0.0412216 -0.0024921743 -0.010796309 0.070006795 0.009372739
0.0368706 0.0144738685 0.028445689 0.0015134589 -0.004910805 0.016181627 0.08057261 0.08321096
0.00833046 -0.045925114 -0.07346267 -0.08551078 -0.08630737 -0.088135384 0.0813342 0.050189324
-0.035740104 -0.021028856 0.034876242 -0.04548893 -0.06289229 0.0038520682 0.047637116 0.0024211223

output_layer.weight f4 [1, 128]
00000000: 1323 e63c cc9d ec3c 0978 b23c a412 113c
00000010: 55be 5fbd 6779 923c d463 723d f635 c3bc
00000020: 2031 59bd d62f 7a3c 5d40 a1bd d70f a13d
00000030: 933b 84bd 2d96 7cbc 2d14 82bc e6e2 af3d
00000040: 825b 4cbd 4c31 253c e5aa 623d 4d36 44bd
00000050: 8b83 9b3d 1593 463d 5d82 83bd 8559 9bbc
00000060: b59c 06bd 7d53 8ebd 059c 77bd a555 6ebd
00000070: 4a71 ae3d 1d95 c0bb 6a37 dabc 17aa c53b
00000080: a3bc 93bd 0d44 3c3d d731 383c 0849 b0bc
00000090: e3c4 58bd 8cd1 8b3d f919 893d 6d4e c6bd
000000a0: 4749 553d 255e f0bc 6076 74bd 27f3 123d
000000b0: 5f92 3a3c 4fd6 aabc e00e 00bd 18ed 48bd
000000c0: 4ff9 2fbd e307 773c 6135 57bd 2f5a 64bd
000000d0: c02b 063d a040 4b3d a02d e43c 9fff 3fbc
000000e0: 4f9a 3b3d c0bc e33b 9e5a 973c 7ed6 8fbd
000000f0: 0b34 073d 8a08 033d d0e9 033d 0579 8ebd
00000100: a66d 2abd 2dde 73bd a16a eebc b271 42bc
00000110: 3814 97b9 44fa 57bd 0e46 36bd c625 d9bc
00000120: 5adb a2bd d64e 213d 8809 803d d8a3 323d
00000130: cceb 55bd 3264 0b3d f3ce 5b3d b7ca 47bd
00000140: 1032 97bd 0715 ae3d 131a 98bd f1b2 63bd
00000150: 2033 24bd 8168 953d 3bb2 2fbc 3d7d 0b3c
00000160: 7882 1e3d e201 563c 35ad 8abc 2770 2ebd
00000170: 5eb6 843d 6b54 073d 16c3 363d 75a1 353c
00000180: c773 8f3d c98b c9bc 5d3b 21bb 9411 d7bc
00000190: f7b4 ed3c 2839 48bd 7c07 babc b47b 1fbd
000001a0: fc2a 1bbd 342b b0bd 0957 903d 56d8 153d
000001b0: 4b49 a2bd ace1 94bd dd4c 953d 837a 5ebd
000001c0: 7222 033d 5a7a 253d 06c7 4d3d 1785 4dbd
000001d0: 6af7 183d d0de 48bd 1d07 063d e41c 0d3c
000001e0: f742 963d f481 b23d c75b 9c3d 3e6f a7bd
000001f0: bdd2 bbbd c15b 24bc b210 a53d 3717 4bbd
0.028092897 0.028883837 0.021785753 0.008854542 -0.054624874 0.017880155 0.059177235 -0.023829442
-0.053025365 0.015270194 -0.078736044 0.07864349 -0.064566754 -0.015416664 -0.015878761 0.08588199
-0.049891956 0.010082554 0.05533876 -0.047903348 0.07593449 0.048480112 -0.06421349 -0.018963585
-0.03286429 -0.06949518 -0.060451526 -0.058187146 0.08517702 -0.0058771507 -0.026637752 0.006032239
-0.07213714 0.045963336 0.0112423515 -0.021519199 -0.05292214 0.06827077 0.06694407 -0.09682927
0.052071836 -0.029341767 -0.059683204 0.03587642 0.011387437 -0.020854143 -0.031264186 -0.049054235
-0.04296237 0.015077564 -0.05254114 -0.05575007 0.032756567 0.049622178 0.027853787 -0.01171866
0.045801457 0.006949991 0.018475827 -0.07023333 0.033008616 0.031990565 0.032205403 -0.069566764
-0.041608475 -0.059538055 -0.029103579 -0.011867927 -0.00028816028 -0.052728906 -0.044500403 -0.02650727
-0.07951994 0.039381824 0.06251818 0.043613285 -0.052226827 0.0340311 0.05366416 -0.04877731
-0.073825955 0.085001044 -0.07426848 -0.055590574 -0.04008782 0.07295323 -0.010723646 0.008513746
0.038698643 0.013061972 -0.016928295 -0.042587426 0.06480096 0.03303949 0.044619642 0.011085858
0.07004505 -0.024602788 -0.0024602034 -0.0262535 0.029016955 -0.048882633 -0.022708647 -0.038936332
-0.03788279 -0.0860199 0.07047851 0.036583267 -0.07924136 -0.07269606 0.07290051 -0.054316055
0.03201527 0.040399887 0.05023863 -0.050175752 0.037345327 -0.049040616 0.032721628 0.008612845
0.07336991 0.08716193 0.07634693 -0.08175515 -0.091710545 -0.010031641 0.08059825 -0.049582686
