Checkpoints/HR_V/valence_s06.pth (torch, 461905 bytes, 29 tensors)

input_layer.weight f4 [128, 29]
0.10888697 -0.14984165 0.14624174 0.122863434 0.08491597 0.17913596 -0.117298916 -0.02665193
0.014975377 0.061162893 0.17129472 0.00963658 -0.18452072 0.054056715 -0.18265598 -0.13379274
0.15141821 0.0008504511 0.1271499 0.10509972 0.12130318 0.06007763 -0.14120525 0.075628825
-0.13090236 -0.15230516 -0.06084391 0.17355582 -0.17165662 -0.03421368 -0.026703322 -0.15003116
-0.11775816 -0.1503363 0.053405818 0.04039496 -0.116389476 0.105922304 -0.04354802 0.19863638
-0.09741363 0.11020046 -0.015654463 -0.03889866 -0.16637518 -0.15444441 -0.010403225 0.07099102
-0.09072897 -0.009307399 0.14020897 0.08583842 -0.19379494 0.02962654 0.16864018 0.11146109
-0.06760013 -0.048195563 0.08203803 0.15103689 0.05062977 -0.18307276 0.07580262 0.19051854
-0.05300396 0.17196366 -0.0121021215 -0.11499552 0.013940748 0.021464191 0.025842702 -0.018023998
0.16326487 -0.12951627 0.03898417 -0.009990374 -0.040181745 -0.13786818 0.046173774 -0.02205551
-0.051195428 0.16472384 -0.074720554 -0.14387187 0.053260725 -0.1485698 -0.08842263 0.083951056
0.04589297 -0.16994137 0.013626253 -0.0070750983 -0.08427088 -0.16194494 -0.08931246 0.0912459
-0.16512659 0.15203033 -0.08844081 0.029413715 0.14911936 0.08713707 -0.14111154 0.065143645
-0.07580447 -0.061312243 -0.18344949 0.12426567 -0.20254384 -0.053440265 0.012556377 0.16258089
-0.038992863 -0.1557353 0.038840532 0.06904623 -0.01456408 0.118035674 -0.09272629 0.1424222
0.17038786 0.02188862 0.07711825 -0.024355197 -0.14299633 -0.20033967 -0.048123922 -0.010649855
0.058657974 -0.032799512 -0.13277952 0.13880596 0.14769061 0.115987495 0.03867916 -0.030493075
0.10625392 0.10440251 0.021454426 -0.08283194 -0.03792815 -0.10102155 -0.007855336 -0.031644348
-0.03503938 0.045949098 -0.025138274 -0.15183653 -0.002444986 -0.14057487 0.18588762 -0.09936748
0.0054309564 -0.08446278 -0.063717276 0.028141633 0.08309396 -0.010916192 0.04260198 0.106620185
0.056268536 -0.19634432 -0.06050627 0.01669286 0.13681233 -0.12287644 0.072053 0.15795824
0.010256325 -0.06170416 -0.064150274 0.13312922 0.12125947 0.09857625 -0.08922951 0.10891245
-0.16805755 -0.17354923 0.10897011 0.10047667 0.15781376 -0.03852997 -0.04748189 0.14038253
-0.058627304 0.059423383 -0.16697598 0.105390556 -0.06461448 -0.14386874 0.033539366 0.1082036
0.14009152 0.13899997 0.09115608 0.19141176 -0.13284081 0.06918645 -0.15052894 0.1813829
0.0029481421 -0.040627208 -0.14589165 -0.016486142 -0.18074414 -0.09155477 -0.018352184 -0.048707414
-0.15176843 0.1098253 0.13948232 0.051144868 0.17457074 0.13430208 -0.17415965 0.1171885
-0.052762628 0.060320478 0.15034707 -0.1296272 0.055310722 0.098450676 -0.0058868 0.17872803
0.1307365 -0.12169757 -0.15054949 0.0831057 0.1073947 0.15415564 -0.18376003 -0.15564312
-0.031584527 -0.0844728 0.007779018 -0.15273918 -0.011047948 0.16620976 -0.09956186 0.025170593
0.014309672 0.12012174 0.18897802 -0.0119212335 0.1642727 -0.117883265 0.13044494 -0.16130416
0.050861362 0.06507375 -0.14493114 -0.1556844 0.071890615 0.044419102 -0.05928154 -0.008528733
00000000: 2200 df3d 1770 19be 65c0 153e d39f fb3d
00000010: 6de8 ad3d 6b6f 373e 6a3a f0bd 2655 dabc
00000020: 495b 753c f185 7a3d e267 2f3e bfe2 1d3c
00000030: 00f3 3cbe 936a 5d3d 2b0a 3bbe f700 09be
00000040: 600d 1b3e cff0 5e3a 9533 023e 863e d73d
00000050: cd6d f83d f613 763d 1c98 10be 49e3 9a3d
00000060: 450b 06be e2f5 1bbe 7737 79bd 9eb8 313e
00000070: c1c6 2fbe a523 0cbd edc0 dabc c5a1 19be
00000080: 312b f1bd c2f1 19be 0fc0 5a3d 3075 253d
00000090: 9b5d eebd cbed d83d 695f 32bd 5667 4b3e
000000a0: cc80 c7bd c7b0 e13d ca3d 80bc 3454 1fbd
000000b0: 415e 2abe ad26 1ebe 4a72 2abc bd63 913d
000000c0: 1cd0 b9bd 107e 18bc f192 0f3e 0ecc af3d
000000d0: 2e72 46be 5cb3 f23c 03b0 2c3e b645 e43d
000000e0: f071 8abd b668 45bd 8e03 a83d 6aa9 1a3e
000000f0: 2961 4f3d 6d77 3bbe 673e 9b3d 4b17 433e
00000100: ae1a 59bd 3e17 303e fa47 46bc c582 ebbd
00000110: bc67 643c acd5 af3c 13b4 d33c 10a7 93bc
00000120: e82e 273e ea9f 04be ddad 1f3d aaae 23bc
00000130: 9d95 24bd 512d 0dbe b620 3d3d c2ad b4bc
00000140: 4cb2 51bd 5ead 283e 1707 99bd 2653 13be
00000150: eb27 5a3d af22 18be ed16 b5bd 88ee ab3d
00000160: 44fa 3b3d 1c05 2ebe a640 5f3c 3ad6 e7bb
00000170: 3696 acbd e5d4 25be 73e9 b6bd 21df ba3d
00000180: f216 29be d7ad 1b3e 7520 b5bd 08f5 f03c
00000190: bfb2 183e ec74 b23d 8b7f 10be 086a 853d
000001a0: 603f 9bbd 8c22 7bbd 2fda 3bbe 007f fe3d
000001b0: a767 4fbe 2ee4 5abd 43b9 4d3c 9b7b 263e
000001c0: fbb6 1fbd 1379 1fbe 4017 1f3d 1c68 8d3d
000001d0: 2e9e 6ebc b0bc f13d 48e7 bdbd 20d7 113e
000001e0: 287a 2e3e c34f b33c 2cf0 9d3d 8d84 c7bc
000001f0: a16d 12be d825 4dbe 971d 45bd bb7c 2ebc
00000200: 5843 703d c858 06bd 5bf7 07be 2623 0e3e
00000210: 353c 173e da8a ed3d 0a6e 1e3d 9dcc f9bc
00000220: a89b d93d fcd0 d53d 31c1 af3c cba3 a9bd
00000230: 8c5a 1bbd 63e4 cebd abb3 00bc 819d 01bd
00000240: 7485 0fbd 1f35 3c3d c8ee cdbc 097b 1bbe
00000250: 0f3c 20bb dcf2 0fbe 5359 3e3e 2d81 cbbd
00000260: 2af6 b13b d2fa acbd 347e 82bd 4889 e63c
00000270: 2b2d aa3d d4d9 32bc 6a7f 2e3d af5b da3d
00000280: d679 663d 7c0e 49be 6cd5 77bd 77bf 883c
00000290: 8818 0c3e a5a6 fbbd 8690 933d cebf 213e
000002a0: 250a 283c 80bd 7cbd 3861 83bd 0753 083e
000002b0: e356 f83d 58e2 c93d f6bd b6bd 7e0d df3d
000002c0: 4717 2cbe e4b6 31be b92b df3d b6c6 cd3d
000002d0: ee99 213e 9ad1 1dbd 5f7c 42bd 70c0 0f3e
000002e0: 2f23 70bd ef65 733d c0fb 2abe 01d7 d73d
000002f0: 9954 84bd 5452 13be 9360 093d d999 dd3d
00000300: 2774 0f3e 0256 0e3e 0ab0 ba3d 7201 443e
00000310: 6c07 08be a0b1 8d3d 4224 1abe 70bc 393e
00000320: 9e35 413b b768 26bd 9f64 15be f20d 87bc
00000330: fe14 39be 1181 bbbd 5257 96bc 6d81 47bd
00000340: 2f69 1bbe 16ec e03d 74d4 0e3e 487d 513d
00000350: acc2 323e 7c86 093e e856 32be 8600 f03d
00000360: a01d 58bd 9b12 773d 95f4 193e febc 04be
00000370: 7f8d 623d 82a0 c93d 0fe6 c0bb 7b04 373e
00000380: cadf 053e 933c f9bd a529 1abe 5233 aa3d
00000390: c1f1 db3d fada 1d3e 972b 3cbe e960 1fbe
000003a0: c75e 01bd 1300 adbd 22e7 fe3b a967 1cbe
000003b0: 7402 35bc e432 2a3e 17e7 cbbd 8f32 ce3c
000003c0: 1d73 6a3c 6302 f63d 7483 413e 4751 43bc
000003d0: 1a37 283e c86c f1bd 5c93 053e eb2c 25be
000003e0: 0154 503d 6345 853d d468 14be bb6b 1fbe
000003f0: 633b 933d cef0 353d 33d1 72bd 19bc 0bbc

input_layer.bias f4 [128]
0.0064774263 0.059858214 0.048734277 0.034183566 0.010576715 -0.00010935705 0.028424023 0.013925781
3.6949073e-06 -1.989409e-05 0.024178397 3.73058e-05 0.087539926 0.001302275 0.026799649 -0.08321068
-0.021987729 -0.0037542975 -0.09449368 -0.023694074 0.08499158 0.050566643 0.00010689488 -0.04933847
-6.1980436e-06 -0.05867725 6.0032693e-05 0.09124939 0.0018707758 3.713178e-05 -0.04801865 0.09010511
0.012473306 -0.067753956 0.0008303951 0.07836847 -0.011556657 -0.05968394 -0.0001915787 0.06337887
-0.061511323 0.051270198 -0.0050970246 -0.05596696 0.00059466186 0.0002135808 -0.062278196 0.00018188382
0.088072084 0.06283376 0.0056542577 -0.030763378 0.0273994 0.061562903 -2.735038e-05 -0.007460623
-0.06706087 0.07799058 0.016631221 0.0014309114 0.06898364 -0.07979794 -0.01805567 -0.09300421
0.060302746 0.021275425 -0.03701744 0.08658866 -0.05822899 -2.5975842e-05 0.06954709 0.0822576
-5.7934754e-05 0.010790975 0.06867407 0.08932148 -0.00010385857 0.082034715 0.07533442 0.03288149
-0.014853879 0.008165387 -0.011468432 -0.017807642 -0.09473256 0.052425727 6.954418e-05 0.09257985
-0.014625733 -0.00012107133 -0.050676532 0.086165726 0.059278026 0.04691834 -0.00014530268 -0.06501431
0.06811171 0.005759314 -0.08196658 -0.0071964124 0.04031199 -0.013725083 -0.0101554105 -0.016347732
-0.057165187 -0.011416455 -8.229027e-05 0.035666693 0.008549691 6.970458e-05 0.04911093 -0.09008406
9.407244e-05 -0.06525344 -0.032192614 0.02790532 -0.0037532172 -0.0007838804 0.03388706 -0.056801848
-0.00020306112 -5.720941e-05 0.02264215 -0.0042666607 7.579497e-06 -0.024277497 0.00013155445 -0.010041475
00000000: 9740 d43b e32d 753d 989d 473d 1104 0c3d
00000010: f549 2d3c 9f56 e5b8 7fd9 e83c f528 643c
00000020: 06f6 7736 3ce2 a6b7 c611 c63c cc78 1c38
00000030: 2248 b33d 19b1 aa3a f08a db3c 5c6a aabd
00000040: 9c1f b4bc a90a 76bb e785 c1bd 131a c2bc
00000050: 1110 ae3d f81e 4f3d c02c e038 2317 4abd
00000060: caf8 cfb6 8e57 70bd 9dcb 7b38 f6e0 ba3d
00000070: d234 f53a f2bd 1b38 34af 44bd 0789 b83d
00000080: d65c 4c3c 96c2 8abd dfae 593a a67f a03d
00000090: 2258 3dbc 2677 74bd 84e2 48b9 c8cc 813d
000000a0: 4cf3 7bbd b300 523d f104 a7bb 9c3d 65bd
000000b0: 15e3 1b3a a9f4 5f39 6c17 7fbd 11b8 3e39
000000c0: 235f b43d fdae 803d 5a47 b93b 7b03 fcbc
000000d0: b574 e03c 6229 7c3d 7e6e e5b7 3e78 f4bb
000000e0: 3657 89bd 86b9 9f3d 333e 883c 6b8d bb3a
000000f0: 4b47 8d3d 1a6d a3bd 7ce9 93bc fe78 bebd
00000100: 0300 773d cd49 ae3c 999f 17bd 6555 b13d
00000110: 8581 6ebd b2e6 d9b7 b46e 8e3d ac76 a83d
00000120: f8fe 72b8 a1cc 303c fea4 8c3d 2eee b63d
00000130: a5ce d9b8 d101 a83d ef48 9a3d beae 063d
00000140: af5d 73bc 1ec8 053c 17e6 3bbc 55e1 91bc
00000150: 2503 c2bd 5cbc 563d 3fd8 9138 819a bd3d
00000160: c5a0 6fbc ade7 fdb8 3292 4fbd a877 b03d
00000170: 84cd 723d 722d 403d 645c 18b9 3926 85bd
00000180: 277e 8b3d a1b8 bc3b 18de a7bd e2cf ebbb
00000190: 2f1e 253d 2cdf 60bc e162 26bc aeeb 85bc
000001a0: 0b26 6abd 150c 3bbc 4193 acb8 3d17 123d
000001b0: 0114 0c3c 5d2e 9238 8b28 493d fe7d b8bd
000001c0: c248 c538 98a3 85bd 67dc 03bd b399 e43c
000001d0: 89f8 75bb 537d 4dba 28cd 0a3d 0ea9 68bd
000001e0: ceec 54b9 23f4 6fb8 087c b93c 58cf 8bbb
000001f0: 6253 fe36 9ae1 c6bc e1f1 0939 0085 24bc

projection_layer.0.weight f4 [128, 128]
-0.037604377 0.035151165 -0.031254496 0.027050236 -0.045897577 -0.09247139 -0.033838164 -0.08710432
0.07836321 0.024828946 -0.04029541 -0.021359311 -0.04529434 0.061782993 0.049144275 -0.040226266
-0.087187216 0.004029184 -0.04055712 -0.03909497 0.055357777 0.0122237075 -0.020326093 -0.060559317
0.09512342 -0.0076744547 -0.07125844 0.007940597 0.05872116 0.057801317 0.012096406 0.008238496
-0.080055706 0.01257721 -0.0678928 0.03802234 -0.092981175 -0.053828306 -0.053293806 0.0585546
-0.01584504 -0.052820005 0.0012992354 -0.048538726 -0.063539006 -0.012218967 0.013357434 0.04884886
0.052530095 -0.03872492 0.047048494 -0.066899516 -0.066688694 0.0072726393 0.054947585 0.0039714705
-0.028581789 0.053668573 -0.035172302 -0.05710368 -0.055419665 -0.0027953705 -0.023293132 -0.07254802
0.094720155 0.009049884 -0.055001937 0.033059232 0.027588112 -0.0067208996 0.048241574 -0.010678302
0.060876943 0.058027677 0.0521983 0.019233549 -0.05835681 -0.04943846 -0.002864336 -0.034972213
-0.06175348 -0.047622297 -0.057725757 -0.04692905 0.06123256 -0.011771074 0.021373281 -0.045628197
-0.027792953 0.029959029 -0.036744352 -0.083015226 -0.012924958 -0.0006710492 -0.013518656 -0.058669277
0.073123 -0.052789647 -0.08102406 0.056998737 0.041689947 0.033698093 -0.064673305 0.050482213
0.061431237 0.008013399 0.05110712 -0.06961352 0.045510735 0.053525884 -0.0026435272 -0.028113728
-0.011032608 0.081094325 -0.061924614 0.062676735 2.9400524e-05 -0.034968324 0.04967976 0.0140842395
-0.071484655 -0.0771758 0.008805038 0.045831766 0.07208722 0.05151738 0.003931442 0.038910326
0.014202076 0.0034379724 -0.019273402 -0.07748446 0.061103314 -0.017967528 -0.069519095 0.014179649
-0.040270045 0.027103476 -0.043920886 0.09177706 -0.015822232 0.014527559 0.09957171 -0.037984665
-0.04814392 -0.06489603 -0.09907215 -0.01065474 0.049955357 0.07181785 0.019726075 -0.016989285
0.050541267 -0.07716733 0.019934462 -0.0068612397 0.036020324 0.08644885 -0.053331643 -0.060454834
-0.094601534 0.01584578 -0.019127272 -0.014968783 -0.070060894 -0.10692111 0.0353459 0.05205233
0.022006012 0.0019147629 0.014774277 -0.059238765 -0.025749274 -0.003074203 0.08037386 -0.0060645523
0.029263439 -0.046360675 0.030640123 0.04142149 0.036068827 0.05715665 0.016054254 0.023848064
0.077385604 -0.016629718 -0.06450777 -0.026095977 0.030805467 0.04454415 -0.058143668 0.034525234
0.042560115 -0.025717402 0.005297415 0.022138603 -0.017268227 -0.032219645 0.057662353 -0.053283077
-0.03966347 -0.03164434 0.042237934 0.07589885 0.011195913 -0.050309524 0.01173401 0.03665408
-0.013433458 0.054661006 -0.0040646824 0.09762502 -0.049335625 0.036727794 -0.01617331 -0.028054371
0.017345581 -0.023125174 -0.019998059 0.04927746 -0.02696313 0.05988869 -0.033856977 -0.079868354
-0.086527295 -0.06979173 -0.044045154 0.076523885 -0.078553274 0.020705119 0.088012695 0.053046506
-0.045449503 0.06477862 -0.04042148 0.06676321 -0.03164803 0.010065269 0.029378936 -0.014871268
-0.057011917 0.03843109 0.08298055 0.019246515 -0.01651762 -0.05750438 -0.06222432 0.03409153
0.056461066 -0.02778918 -0.050828736 0.0097729685 -0.027208062 0.038082466 0.0047803763 0.05425616
00000000: 0c07 1abd abfa 0f3d b704 00bd 7598 dd3c
00000010: 19ff 3bbd a461 bdbd e399 0abd c063 b2bd
00000020: e47c a03d 1366 cb3c cd0c 25bd b9f9 aebc
00000030: 8f86 39bd 2a10 7d3d 824b 493d 4cc4 24bd
00000040: 368f b2bd 3f07 843b 391f 26bd 0c22 20bd
00000050: d6be 623d f245 483c e882 a6bc 0c0d 78bd
00000060: 11d0 c23d fe79 fbbb f2ef 91bd 4719 023c
00000070: 9985 703d 13c1 6c3d 0130 463c c2fa 063c
00000080: 3ff4 a3bd a410 4e3c 610b 8bbd 50bd 1b3d
00000090: ea6c bebd 127b 5cbd 9b4a 5abd f3d6 6f3d
000000a0: 75cd 81bc ca59 58bd 1b4b aa3a 8bd0 46bd
000000b0: bd20 82bd 1032 48bc 24d9 5a3c be15 483d
000000c0: cc29 573d 069e 1ebd ecb5 403d 9d02 89bd
000000d0: 1594 88bd 524f ee3b b810 613d 1c23 823b
000000e0: 5b24 eabc 94d3 5b3d d510 10bd 8ce5 69bd
000000f0: bbff 62bd 8932 37bb 3dd1 bebc 0e94 94bd
00000100: a4fc c13d f745 143c b649 61bd 1e69 073d
00000110: 7700 e23c fe3a dcbb f598 453d 0bf4 2ebc
00000120: 1a5a 793d 6eae 6d3d e2cd 553d ad8f 9d3c
00000130: 8d07 6fbd fc7f 4abd 95b7 3bbb 063f 0fbd
00000140: 38f1 7cbd 990f 43bd d871 6cbd ad38 40bd
00000150: fece 7a3d 76db 40bc 0517 af3c a2e4 3abd
00000160: 0cae e3bc a36c f53c 3f81 16bd e303 aabd
00000170: 34c3 53bc 59e9 2fba 5a7d 5dbc 324f 70bd
00000180: 83c1 953d f539 58bd f1ef a5bd 8277 693d
00000190: 14c3 2a3d 0307 0a3d 7073 84bd 70c6 4e3d
000001a0: 529f 7b3d a24a 033c b355 513d 8891 8ebd
000001b0: 7769 3a3d f53d 5b3d 073f 2dbb c34e e6bc
000001c0: 1dc2 34bc c814 a63d aaa4 7dbd a95c 803d
000001d0: 25a1 f637 f23a 0fbd 017d 4b3d 95c1 663c
000001e0: 8c66 92bd 590e 9ebd 0243 103c 17ba 3b3d
000001f0: 77a2 933d e303 533d 53d3 803b 6f60 1f3d
00000200: d3af 683c 9b4f 613b 41e3 9dbc 2cb0 9ebd
00000210: 7847 7a3d a330 93bc 0760 8ebd c251 683c
00000220: 34f2 24bd 1c08 de3c 63e6 33bd 9cf5 bb3d
00000230: a09d 81bc 0005 6e3c 41ec cb3d cf95 1bbd
00000240: 8f32 45bd 36e8 84bd 57e6 cabd 3891 2ebc
00000250: fd9d 4c3d 3d15 933d 9498 a13c 1d2d 8bbc
00000260: 5c04 4f3d e809 9ebd 994d a33c 40d4 e0bb
00000270: 0c8a 133d 180c b13d 4872 5abd 7d9f 77bd
00000280: 73be c1bd 02cf 813c ccb0 9cbc a03f 75bc
00000290: 167c 8fbd 74f9 dabd ddc6 103d d334 553d
000002a0: f445 b43c c8f8 fa3a cf0f 723c 59a4 72bd
000002b0: 24f0 d2bc 9178 49bb 0d9b a43d 27b9 c6bb
000002c0: e1b9 ef3c b1e4 3dbd ff00 fb3c 95a9 293d
000002d0: e8bc 133d 171d 6a3d 3684 833c 045d c33c
000002e0: 587c 9e3d 0c3b 88bc a61c 84bd 3bc7 d5bc
000002f0: bf5b fc3c ed73 363d 0e28 6ebd 556a 0d3d
00000300: 8453 2e3d 4dad d2bc f095 ad3b 045c b53c
00000310: 1976 8dbc bff8 03bd 5c2f 6c3d 5b3f 5abd
00000320: 2a76 22bd 7f9d 01bd af01 2d3d db70 9b3d
00000330: 106f 373c 5c11 4ebd 0140 403c 9722 163d
00000340: 0218 5cbc 38e4 5f3d 0731 85bb a0ef c73d
00000350: 2714 4abd e26f 163d e47d 84bc 48d2 e5bc
00000360: 5218 8e3c 0171 bdbc f8d2 a3bc 29d7 493d
00000370: c8e1 dcbc d84d 753d 9dad 0abd 0592 a3bd
00000380: 3935 b1bd f7ee 8ebd b168 34bd 8eb8 9c3d
00000390: 8ae0 a0bd c89d a93c 0040 b43d 4b47 593d
000003a0: 4229 3abd a7aa 843d fe90 25bd 26bb 883d
000003b0: 5da1 01bd cce8 243c 18ac f03c 9ea6 73bc
000003c0: 5485 69bd eb69 1d3d b5f1 a93d deaa 9d3c
000003d0: f64f 87bc b689 6bbd eede 7ebd 8fa3 0b3d
000003e0: b843 673d 22a6 e3bc cb31 50bd cd1e 203c
000003f0: 71e3 debc 5cfc 1b3d b4a4 9c3b b53b 5e3d

projection_layer.0.bias f4 [128]
4.618509e-05 -0.0064562783 9.473781e-05 0.00019512408 -0.012443964 0.0041132425 -7.527975e-05 0.00015597818
-0.00019817517 0.00029410992 -0.0001686128 -3.0164142e-06 -0.0010405623 -4.0007308e-05 0.0024554194 -0.00015727474
-0.0058249366 0.012158209 4.077048e-05 -0.010143631 0.00023263607 0.0032225444 -0.0050330167 0.0068694833
-0.0013429405 0.00034086205 0.00011660394 -0.012039629 5.089833e-05 1.3559119e-05 -0.0021229046 -0.009537697
0.00011076185 -0.0014716175 -0.00020072532 8.7370565e-05 -4.456317e-05 -0.012685505 0.008380979 0.00022995785
0.00029457855 0.00018244807 5.111654e-05 -0.016090894 -0.0043474976 -2.8233377e-05 -0.005865243 -2.898585e-05
0.00013259046 0.009247095 -0.010080383 0.0001182471 -0.009520998 0.0043793386 0.003767426 0.00025477266
0.0020897544 0.009275548 -0.011163997 0.00011293875 -0.0078119263 0.0055323793 0.00016686191 2.1927648e-05
-7.12195e-05 0.00060576294 -0.00010845715 -0.0035362225 -0.0021869207 4.3301134e-05 0.015693465 0.00168403
-0.007530057 1.6181464e-05 -6.5474174e-05 -4.073081e-05 -0.0027587079 -0.014397375 -0.0001337537 -0.0135096405
0.007898415 0.0048787813 -0.007933598 0.0007280337 -0.004176093 -0.009321157 6.6690634e-05 0.00015888108
-0.000353673 8.284851e-05 -3.3975968e-05 0.004634744 1.4134047e-05 -0.0006716902 5.994463e-05 0.012579959
4.1102616e-05 -1.5491845e-06 0.01352237 0.00018969251 0.00010113141 6.5647844e-05 -0.00016671131 5.307028e-05
-0.00020290363 0.0074182963 -6.6956263e-06 -1.19100405e-05 1.8506977e-05 -0.0007667809 0.006950286 0.00052293733
-0.0037603977 -3.8189217e-05 0.00021042171 -0.00044392596 0.011288348 0.011488585 0.00753904 0.0032978067
0.0048901206 -0.017152563 0.0020591053 0.00014049369 4.541697e-05 -0.017057583 -0.000100904195 4.3410924e-05
00000000: ddb6 4138 308f d3bb f9ad c638 399a 4c39
00000010: c5e1 4bbc 61c8 863b 82df 9db8 138e 2339
00000020: 3ecd 4fb9 c432 9a39 a7cd 30b9 9a6d 4ab6
00000030: 7a63 88ba 85cd 27b8 1aeb 203b 1eea 24b9
00000040: 1cdf bebb 3a33 473c f800 2b38 7931 26bc
00000050: c5ef 7339 5331 533b 01ec a4bb 6719 e13b
00000060: 9b05 b0ba bbb5 b239 4389 f438 dd41 45bc
00000070: aa7b 5538 f97b 6337 6e20 0bbb 0044 1cbc
00000080: d148 e838 4ae3 c0ba cb79 52b9 b73a b738
00000090: 57e9 3ab8 ddd6 4fbc 6050 093c d720 7139
000000a0: aa71 9a39 884f 3f39 f865 5638 0dd1 83bc
000000b0: 7475 8ebb b7d6 ecb7 3931 c0bb a426 f3b7
000000c0: fb07 0b39 2181 173c 3128 25bc 6efb f738
000000d0: f6fd 1bbc 8e80 8f3b ebe6 763b 0293 8539
000000e0: 43f4 083b 78f8 173c 33e9 36bc 88d9 ec38
000000f0: 30fb ffbb f648 b53b a7f7 2e39 44f1 b737
00000100: ae5b 95b8 10cc 1e3a 7d73 e3b8 f8bf 67bb
00000110: 7152 0fbb 3d9e 3538 958f 803c acba dc3a
00000120: b2be f6bb 6ebd 8737 2e4f 89b8 60d6 2ab8
00000130: 70cb 34bb f8e2 6bbc 3c40 0cb9 8a57 5dbc
00000140: 5b68 013c 2fde 9f3b ecfb 01bc 84d9 3e3a
00000150: 9bd7 88bb c4b7 18bc 43dc 8b38 5199 2639
00000160: 306d b9b9 f5be ad38 6b81 0eb8 0ddf 973b
00000170: 4521 6d37 5e14 30ba 0e6d 7b38 2c1c 4e3c
00000180: 9965 2c38 93ed cfb5 ee8c 5d3c 32e8 4639
00000190: 8316 d438 6bac 8938 3acf 2eb9 c797 5e38
000001a0: 87c2 54b9 2e15 f33b feaa e0b6 3cd1 47b7
000001b0: 6e3f 9b37 cc01 49ba 3abf e33b bb15 093a
000001c0: 0171 76bb 5c2d 20b8 a6a4 5c39 bcbe e8b9
000001d0: c3f2 383c 9e3a 3c3c 0d0a f73b 0420 583b
000001e0: 4e3d a03b 8883 8cbc 0ef2 063b 7d51 1339
000001f0: 1a7e 3e38 58bc 8bbc 879c d3b8 2014 3638

projection_layer.1.weight f4 [128]
0.99605244 0.98720974 0.9853062 0.9967631 1.0059047 1.0179065 1.005299 0.99650234
1.0089318 1.012529 1.0149362 1.0024539 1.007056 0.99891484 1.025156 0.98739505
1.0135703 0.9835779 1.0384793 0.9909027 0.99229985 0.99762285 1.0034505 1.0045171
0.9905179 1.023587 0.99969536 1.005833 1.0016023 1.0114638 1.0164373 0.9952253
1.022232 1.0056398 0.99171686 0.9931012 1.0099108 1.0070429 0.9845355 1.0085711
1.001301 0.9861821 1.0093172 1.0269388 1.0225016 1.0096822 0.99230886 1.0157616
1.0359797 1.0258594 1.0423021 1.0225426 1.0116278 1.022875 1.0013702 1.0190021
1.0013429 1.0143932 1.006772 0.9969796 0.99409235 0.9866549 0.99145144 1.0102875
1.005824 1.0238032 0.99608123 1.0022285 1.0020113 1.0056683 1.0247462 1.0113823
0.9885742 1.0251718 0.9873288 0.98896927 1.0162491 1.0260882 0.99862915 1.0228975
1.0192797 0.9964434 1.0212497 1.0237764 0.9843622 1.0017512 0.9999651 0.999965
1.0259173 1.0094401 0.994963 1.0062939 1.0176215 1.0086458 1.0141842 1.0282274
1.0090357 1.0145468 0.98990995 0.9996282 0.99514145 1.0097563 0.99903464 1.0001912
1.0205728 1.0071852 1.0148387 1.0107989 1.0097356 1.0134839 1.0002455 0.99938357
1.013482 0.9614334 1.0147166 1.0146585 1.0016853 0.991411 0.9980647 0.9978977
1.0265821 1.0186594 1.0050929 0.98919517 1.0122501 1.0302294 0.9970323 1.003608
00000000: 4bfd 7e3f c7b9 7c3f 073d 7c3f de2b 7f3f
00000010: 7cc1 803f c34a 823f a3ad 803f c71a 7f3f
00000020: ad24 813f 8d9a 813f 6ee9 813f 6950 803f
00000030: 36e7 803f e2b8 7f3f 5038 833f ecc5 7c3f
00000040: acbc 813f c3cb 7b3f e4ec 843f cdab 7d3f
00000050: 5d07 7e3f 3664 7f3f 1171 803f 0494 803f
00000060: 9592 7d3f e604 833f 09ec 7f3f 23bf 803f
00000070: 8134 803f a577 813f 9e1a 823f 16c7 7e3f
00000080: 80d8 823f ceb8 803f 28e1 7d3f e13b 7e3f
00000090: c244 813f c8e6 803f 850a 7c3f dc18 813f
000000a0: a22a 803f 6e76 7c3f 4e31 813f bb72 833f
000000b0: 55e1 823f 443d 813f f407 7e3f 7a04 823f
000000c0: fc9a 843f 5c4f 833f 286a 853f ade2 823f
000000d0: 057d 813f 91ed 823f e62c 803f a96e 823f
000000e0: 012c 803f a3d7 813f e8dd 803f 0e3a 7f3f
000000f0: d67c 7e3f 6a95 7c3f c3cf 7d3f 1a51 813f
00000100: d7be 803f fc0b 833f 2eff 7e3f 0649 803f
00000110: e841 803f bdb9 803f e22a 833f fa74 813f
00000120: 3313 7d3f d438 833f 95c1 7c3f 172d 7d3f
00000130: 7314 823f dc56 833f 29a6 7f3f 4eee 823f
00000140: c277 823f ea16 7f3f 4fb8 823f 1b0b 833f
00000150: 29ff 7b3f 6239 803f b6fd 7f3f b5fd 7f3f
00000160: 4251 833f 5535 813f e5b5 7e3f 3dce 803f
00000170: 6c41 823f 4e1b 813f cad0 813f f59c 833f
00000180: 1528 813f abdc 813f bd6a 7d3f a2e7 7f3f
00000190: 97c1 7e3f b23f 813f bcc0 7f3f 4406 803f
000001a0: 21a2 823f 72eb 803f 3ce6 813f dc61 813f
000001b0: 043f 813f d7b9 813f 0b08 803f 9ad7 7f3f
000001c0: c7b9 813f 8020 763f 3ce2 813f 54e0 813f
000001d0: 3937 803f 1ccd 7d3f 2b81 7f3f 3976 7f3f
000001e0: 0b67 833f 6e63 823f e2a6 803f e53b 7d3f
000001f0: 6991 813f 8fde 833f 823d 7f3f 3a76 803f

projection_layer.1.bias f4 [128]
-0.021197231 -0.024211612 -0.026185932 -0.0099875415 -0.021642936 -0.032769345 -0.012919458 -0.011543673
-0.0070889 -0.008104426 -0.008897446 -0.00938861 0.0041421023 -0.019722188 -0.013436299 -0.03005566
0.0005296293 -0.025084399 0.0051353336 -0.012575553 -0.022329193 -0.011359396 -0.02589183 -0.0077182613
-0.016481012 -0.007353829 -0.002061968 -0.023200972 -0.023854712 -0.003626399 0.0052137095 0.005891356
-0.0061795455 -0.009029803 -0.012914178 -0.010548327 -0.012577944 -0.0026405656 -0.01561279 -0.01206214
-0.029485937 -0.022383915 0.0035030714 -0.02030684 -0.009518195 -0.00093783764 -0.004661489 0.004209054
-0.003265307 -0.011255299 0.0023003013 0.0013203557 -0.012360237 -0.016421884 -0.00030754253 -0.0027952576
-0.01852302 -0.0030221033 -0.01127165 -0.014723328 0.0037108387 -0.0119426185 -0.0032122526 -0.0047334083
-0.019184005 -0.00032698453 -0.0007366933 -0.0285121 -0.01861083 -0.012298568 0.017970324 -0.0029893913
-0.026593877 -0.0014074183 -0.016913066 -0.01609068 -0.013495308 -0.014042217 -0.010306976 0.0040700156
-0.00085468846 -0.007707844 -0.0014957194 -0.030174604 -0.020492248 -0.015917482 -0.026306072 -0.015282367
-0.002796774 -0.01408589 -0.009348998 -0.022941092 -0.03346419 -0.015274375 -0.021037575 0.0032007482
0.017192744 -0.00027382124 0.0036100603 -0.022912616 -0.0034923495 -0.0074649584 -0.022214882 -0.0029498348
0.0073661455 -0.020686788 -0.019403748 -0.01880512 0.007881354 -0.03605657 -0.017073331 0.007326735
-0.012487724 -0.028458904 -0.005262042 -0.0056057326 -0.012650579 -0.037867736 -0.0096110925 -0.03361552
-0.016407957 -0.013714646 -0.016426018 -0.027438432 -0.0080077145 -0.015808968 -0.0174025 0.009178674
00000000: d1a5 adbc 6e57 c6bc e183 d6bc c9a2 23bc
00000010: 874c b1bc 2639 06bd 22ac 53bc ad21 3dbc
00000020: 014a e8bb 6dc8 04bc 98c6 11bc afd2 19bc
00000030: 79ba 873b 6d90 a1bc ec23 5cbc 4a37 f6bc
00000040: d2d6 0a3a cc7d cdbc 4d46 a83b b109 4ebc
00000050: b6eb b6bc c31c 3abc 1a1b d4bc 78e9 fcbb
00000060: 3003 87bc 64f8 f0bb 1522 07bb f70f bebc
00000070: f56a c3bc e1a8 6dbb c4d7 aa3b 470c c13b
00000080: c97d cabb bdf1 13bc fd95 53bc e4d2 2cbc
00000090: b913 4ebc 570d 2dbb cacc 7fbc 48a0 45bc
000000a0: 7e8c f1bc 795e b7bc c993 653b 885a a6bc
000000b0: 34f2 1bbc 38d9 75ba 67bf 98bb 1bec 893b
000000c0: c3fe 55bb 2568 38bc a7c0 163b c90f ad3a
000000d0: 9782 4abc 3087 86bc a93d a1b9 a430 37bb
000000e0: 97bd 97bc 7b0e 46bb baac 38bc 1d3a 71bc
000000f0: 8b31 733b f9aa 43bc a884 52bb b51a 9bbb
00000100: c627 9dbc 1f6f abb9 a71e 41ba 3592 e9bc
00000110: bd75 98bc ef7f 49bc 8036 933c aae9 43bb
00000120: 67db d9bc 1f79 b8ba 458d 8abc 9ad0 83bc
00000130: 6d1b 5dbc 5411 66bc 97de 28bc c45d 853b
00000140: 2c0d 60ba 1592 fcbb 040c c4ba bb30 f7bc
00000150: 5cdf a7bc 6165 82bc d57f d7bc e562 7abc
00000160: 154a 37bb 81c8 66bc 8a2c 19bc f5ee bbbc
00000170: bf11 09bd 5f41 7abc fe56 acbc a5c3 513b
00000180: ccd7 8c3c aa8f 8fb9 c396 6c3b 3db3 bbbc
00000190: e7df 64bb 9c9c f4bb fcfb b5bc 0452 41bb
000001a0: b55f f13b 5777 a9bc 9cf4 9ebc 320d 9abc
000001b0: cb20 013c 0eb0 13bd 5fdd 8bbc 1c15 f03b
000001c0: 5099 4cbc a622 e9bc 356d acbb 4bb0 b7bb
000001d0: 6044 4fbc 331b 1bbd d877 1dbc 6db0 09bd
000001e0: fb69 86bc 65b3 60bc db8f 86bc 90c6 e0bc
000001f0: ca32 03bc cf81 81bc b08f 8ebc 2662 163c

projection_layer.1.running_mean f4 [128]
0.06553847 0.027657587 -0.01917657 0.01155612 -0.0022652347 -0.076477505 0.044715654 -0.0061820066
-0.040055983 -0.014108905 -0.009612425 0.008912692 0.010710021 0.0423007 -0.009751752 -0.032163817
-0.019944027 0.05362113 -0.0037072385 0.004525315 0.035231907 -0.024237819 0.004819435 0.015399751
0.0013626871 -0.002518724 0.004505413 -0.07410752 -0.025293674 -0.0095690545 -0.008063233 0.020052003
0.020210704 -0.031429864 -0.07008097 0.023357183 -0.0113151865 -0.02822827 0.012323992 0.028625263
-0.0045957696 0.049521532 -0.110852376 -0.10461371 0.018724183 -0.029074555 -0.02457785 -0.046460625
0.03597957 0.00081315904 -0.023523409 0.022848703 0.014373482 0.004831139 0.03540143 -0.054128863
-0.008946819 -0.0122121805 -0.06881964 -0.02906106 -0.055116136 0.038532015 -0.05000893 0.039312832
0.050334923 0.022591364 0.046933014 -0.02078522 -0.05023352 -0.018855441 0.046207525 -0.017406555
-0.01592488 -0.011595348 0.029012874 0.13549995 -0.022485202 0.018680887 0.010541897 -0.024337836
0.028842418 0.048555303 -0.006754023 -0.008159042 0.044096254 -0.03705289 0.029641943 -0.01299478
-0.0030949905 -0.026965238 -0.033924893 0.0009558037 -0.020975066 0.0070392657 0.014477697 -0.007465091
-0.008805014 -0.009662899 -0.022348812 0.042877886 -0.016331883 -0.06126134 0.01659126 0.030465992
0.021001015 -0.00358808 0.040929623 -0.018438796 0.03462825 0.044716775 -0.065444335 -0.027937775
-0.04728952 0.051414866 -0.035207238 -0.050643794 -0.012827939 -0.022586057 0.037913542 -0.022405073
0.011726948 -0.08459586 -0.022151826 0.020466184 0.013870959 -0.051206436 0.018264078 -0.004635504
00000000: 0939 863d 2a92 e23c 2f18 9dbc e155 3d3c
00000010: 5574 14bb 3da0 9cbd c327 373d 6e92 cabb
00000020: be11 24bd 0929 67bc 6f7d 1dbc 8a06 123c
00000030: 1579 2f3c 8043 2d3d d0c5 1fbc 35be 03bd
00000040: a861 a3bc d4a1 5b3d 24f5 72bb 1849 943b
00000050: 554f 103d 648e c6bc 5aec 9d3b 3d4f 7c3c
00000060: 319c b23a 2d11 25bb 25a2 933b afc5 97bd
00000070: ae34 cfbc 86c7 1cbc a71b 04bc 1944 a43c
00000080: eb90 a53c 9abc 00bd 9d86 8fbd 9057 bf3c
00000090: 5563 39bc f93e e7bc 92ea 493c 877f ea3c
000000a0: 1c98 96bb 17d7 4a3d 9206 e3bd b63f d6bd
000000b0: 7563 993c c32d eebc 7d57 c9bc 7f4d 3ebd
000000c0: 505f 133d 2e2a 553a 2ab4 c0bc 342d bb3c
000000d0: c17e 6b3c 884e 9e3b 1701 113d 3ab6 5dbd
000000e0: ae95 12bc 9915 48bc 50f1 8cbd 7611 eebc
000000f0: 75c1 61bd bfd3 1d3d 2ad6 4cbd 7e06 213d
00000100: fe2b 4e3d 8611 b93c d53c 403d c445 aabc
00000110: aac1 4dbd ba76 9abc 1a44 3d3d 3198 8ebc
00000120: e574 82bc 6afa 3dbc 68ac ed3c 80c0 0a3e
00000130: e332 b8bc a908 993c ecb7 2c3c 2460 c7bc
00000140: ef46 ec3c ede1 463d da50 ddbb 81ad 05bc
00000150: 469e 343d c5c4 17bd a9d3 f23c 0fe8 54bc
00000160: 53d5 4abb 34e6 dcbc d4f4 0abd e78e 7a3a
00000170: e7d3 abbc a4a9 e63b dd33 6d3c b99d f4bb
00000180: e842 10bc 2351 1ebc db14 b7bc b9a0 2f3d
00000190: 71ca 85bc 2ced 7abd 65ea 873c d193 f93c
000001a0: 520a ac3c fe25 6bbb d2a5 273d f50c 97bc
000001b0: 5ad6 0d3d f028 373d ae07 86bd c3dd e4bc
000001c0: a8b2 41bd 6598 523d 7735 10bd de6f 4fbd
000001d0: 472c 52bc 6506 b9bc 3b4b 1b3d d88a b7bc
000001e0: 6322 403c 9840 adbd bf77 b5bc b3a8 a73c
000001f0: 0543 633c d7bd 51bd 8c9e 953c 6de5 97bb

projection_layer.1.running_var f4 [128]
0.23464437 0.11221685 0.17917123 0.111214206 0.14050704 0.073514834 0.096643455 0.11266821
0.22886536 0.14719471 0.16400465 0.12078989 0.091158845 0.22158413 0.11611 0.11334801
0.1785483 0.15518923 0.10897175 0.12601314 0.13515905 0.1887771 0.085092135 0.18061379
0.1329826 0.07702465 0.11181809 0.15714295 0.1514313 0.108826965 0.16197553 0.15154095
0.11176093 0.1688769 0.23411612 0.16320203 0.18552655 0.120319426 0.15643714 0.109183885
0.11300065 0.13584824 0.16968696 0.12394393 0.12080015 0.13028502 0.15388583 0.09745136
0.13700448 0.07818371 0.15367192 0.12305238 0.101684935 0.11281032 0.1630233 0.11798468
0.08811874 0.21564227 0.11272284 0.124160044 0.11365304 0.18822442 0.14980546 0.1432399
0.124985896 0.11673462 0.12874794 0.13674644 0.15939702 0.14857404 0.10903396 0.2115699
0.13412389 0.11554673 0.13099773 0.15048587 0.1338124 0.09512264 0.25417262 0.1642226
0.16060495 0.07798581 0.12251892 0.13313112 0.24677339 0.08702271 0.19593535 0.09930941
0.10707573 0.18139055 0.15935102 0.18024291 0.14613985 0.16312043 0.11647148 0.1239251
0.1335622 0.21899301 0.18709981 0.15104876 0.14467338 0.09832057 0.22357647 0.18364169
0.105704114 0.16923687 0.14095633 0.19845223 0.124634996 0.14241123 0.14233348 0.23915626
0.09395835 0.234816 0.10243097 0.11353394 0.12539771 0.114332944 0.12043717 0.26809937
0.1630727 0.16827774 0.10905084 0.14402883 0.15149635 0.20352736 0.11904306 0.120051295
00000000: 9d46 703e f3d1 e53d aa78 373e 46c4 e33d
00000010: 14e1 0f3e f28e 963d 01ed c53d 97be e63d
00000020: ae5b 6a3e 36ba 163e d6f0 273e b160 f73d
00000030: 7db1 ba3d f3e6 623e 14cb ed3d 0023 e83d
00000040: 5ed5 363e ede9 1e3e 952c df3d 9709 013e
00000050: 2267 0a3e c94e 413e c944 ae3d d2f2 383e
00000060: 972c 083e 1abf 9d3d e200 e53d 15ea 203e
00000070: cf10 1b3e ace0 de3d eadc 253e 8d2d 1b3e
00000080: eae2 e43d 11ee 2c3e 23bc 6f3e 6f1e 273e
00000090: acfa 3d3e 086a f63d 0f31 203e cd9b df3d
000000a0: e36c e73d cd1b 0b3e 6bc2 2d3e 51d6 fd3d
000000b0: 1266 f73d 7069 053e 3f94 1d3e 9494 c73d
000000c0: e74a 0c3e c81e a03d 2c5c 1d3e e302 fc3d
000000d0: 3140 d03d 1909 e73d 94ef 263e f4a1 f13d
000000e0: 9977 b43d 54d1 5c3e 3bdb e63d 9f47 fe3d
000000f0: edc2 e83d e7bd 403e 9a66 193e 7bad 123e
00000100: 9bf8 ff3d 8f12 ef3d 80d6 033e 4207 0c3e
00000110: f938 233e cb23 183e 324d df3d c8a5 583e
00000120: c657 093e c4a3 ec3d 4524 063e f818 1a3e
00000130: 1e06 093e a9cf c23d ea22 823e f829 283e
00000140: a075 243e 06b7 9f3d 33eb fa3d 8653 083e
00000150: 2ab2 7c3e f638 b23d 47a3 483e bb62 cb3d
00000160: 854a db3d 72be 393e ea2c 233e 9991 383e
00000170: afa5 153e 0b09 273e 9988 ee3d 71cc fd3d
00000180: 88c4 083e b43f 603e 1897 3f3e 87ac 1a3e
00000190: 4225 143e 4c5c c93d 3bf1 643e 910c 3c3e
000001a0: 667b d83d 6e4c 2d3e db56 103e 1037 4b3e
000001b0: a240 ff3d 40d4 113e debf 113e 61e5 743e
000001c0: 3c6d c03d 9b73 703e 54c7 d13d 7b84 e83d
000001d0: 4268 003e 6427 ea3d c3a7 f63d 5244 893e
000001e0: 88fc 263e 0051 2c3e 0c56 df3d 4b7c 133e
000001f0: dc21 1b3e 7a69 503e d9cc f33d 74dd f53d

projection_layer.4.weight f4 [128, 128]
-0.029701917 -0.075074546 0.051233772 -0.03750631 -0.08324746 0.028654166 -0.07572594 0.0007282183
0.089734554 -0.010185819 -0.11139277 0.0011442153 -0.07422628 0.024970219 0.099813625 -0.021628262
-0.07578714 -0.0072400467 0.08068378 0.017091226 -0.008888627 -0.017558036 0.030912453 0.030028798
0.024728326 -0.035555597 0.046383463 0.05509193 -0.023801172 -0.048170496 0.003951535 -0.06594139
0.088115565 0.06595776 -0.03759213 -0.050325375 -0.0689384 -0.09102495 0.03695989 0.005614366
0.054355655 0.048005696 0.013515484 -0.05459506 0.064368606 -0.07165747 -0.12877432 -0.11250164
-0.081504606 -0.042104598 0.014908314 -0.079570025 0.0421676 -0.08687032 -0.021470437 0.030288056
0.028419385 0.015613795 0.020142023 0.045632154 0.078037106 0.026105627 -0.076150335 -0.076775834
0.041754927 -0.05723277 -0.0825679 -0.06375035 0.036995377 0.048949853 -0.008122242 -0.06710392
-0.05034513 -0.014824752 0.06316363 0.027155804 0.07197764 -0.061005775 0.027533215 0.0021516965
-0.007375377 -0.076296166 0.0054148696 -0.06067391 -0.03478321 0.005385683 0.043185562 -0.006236594
-0.002664454 0.06914721 -0.025689453 0.033427343 0.029906921 0.061238162 -0.009166436 0.08357905
-0.053061917 0.086236976 0.035346024 0.030571384 0.016529843 -0.07314366 -0.068786226 0.03440616
-0.0395429 0.047251828 -0.021008098 0.027171629 0.029984392 0.007993567 -0.040360026 -0.0720142
0.08866413 -0.008989769 0.07074506 -0.10490959 -0.059888687 0.06918701 -0.05310163 0.080831885
0.091012135 0.09787883 0.016412333 0.034308482 -0.09291045 0.0374553 -0.0489998 -0.02707253
-0.041279662 0.057720665 0.038475044 0.019762762 -0.05916626 -0.06935724 -0.013364602 0.015568986
-0.09741721 -0.08366317 -0.023536667 0.06352814 -0.0791127 0.0821522 0.008799204 0.005970389
-0.06091353 0.04176478 -0.08849255 -0.067183755 -0.057221718 -0.054705154 0.0005163077 0.005784591
0.008280837 0.08009418 0.042317007 -0.0067191646 -0.058169328 -0.06911667 -0.08536465 -0.066073895
-0.057778362 -0.02590815 0.083839856 -0.00793982 0.019203546 -0.0051123304 -0.0714846 0.0017239985
-0.10464427 -0.048747923 0.06232259 -0.018601047 -0.030536762 0.04610428 0.0591538 0.07247736
0.060522188 -0.06985749 0.06406009 0.041385334 0.09127183 -0.027687678 0.032721743 -0.072242044
-0.04957823 -0.038852975 -0.0017703837 -0.10711651 0.006094492 0.027586276 -0.05285143 0.037773147
0.085007094 -0.03415301 -0.016390601 -0.0013013775 0.036181595 0.040845834 -0.08524942 0.0541902
0.043629352 -0.06355849 0.068032965 0.06238004 -0.025517428 0.034070846 0.05988944 0.040935367
-0.06891255 0.0805086 0.054739732 -0.011658407 -0.028637018 -0.030066468 -0.018848173 0.07332286
0.11463685 0.009915012 0.08837882 0.0052138935 0.008279105 -0.048731923 0.08189751 -0.06815537
-0.058716167 -0.009976242 0.03665888 0.0876361 -0.07247842 -0.012982791 0.05077969 -0.05250287
0.035977982 -0.08394072 0.03975104 0.08040325 -0.022541082 0.0033697812 -0.06560684 0.01829031
-0.017223416 -0.029350495 -0.010277813 -0.007297301 -0.06686159 0.062482517 -0.00087383506 -0.06163188
-0.024889415 -0.054547857 -0.03664046 0.06732763 0.05631217 -0.096426636 -0.04184892 -0.096122675
00000000: 6f51 f3bc afc0 99bd 81da 513d 37a0 19bd
00000010: a57d aabd 24bc ea3c 3416 9bbd e7e5 3e3a
00000020: c0c6 b73d 6ce2 26bc e521 e4bd 7ff9 953a
00000030: f303 98bd 588e cc3c 166b cc3d c12d b1bc
00000040: 4a36 9bbd ea3d edbb 8a3d a53d e602 8c3c
00000050: 9ba1 11bc dfd5 8fbc 1d3c fd3c f4fe f53c
00000060: 0f93 ca3c bfa2 11bd 96fc 3d3d 13a8 613d
00000070: adfa c2bc 6d4e 45bd e17b 813b 480c 87bd
00000080: ef75 b43d dd14 873d 35fa 19bd fb21 4ebd
00000090: 932f 8dbd 4a6b babd 4163 173d b7f8 b73b
000000a0: 09a4 5e3d 9fa1 443d 0c70 5d3c 129f 5fbd
000000b0: b0d3 833d 27c1 92bd 6add 03be 4367 e6bd
000000c0: e3eb a6bd df75 2cbd 0042 743c 9cf5 a2bd
000000d0: efb7 2c3d 11e9 b1bd c5e2 afbc a81e f83c
000000e0: c5cf e83c 01d1 7f3c e200 a53c c8e8 3a3d
000000f0: ebd1 9f3d 78db d53c b5f4 9bbd a63c 9dbd
00000100: 3707 2b3d e96c 6abd 5c19 a9bd 8b8f 82bd
00000110: 7788 173d a47f 483d 2713 05bc c86d 89bd
00000120: b236 4ebd 84e3 72bc ef5b 813d d975 de3c
00000130: 0369 933d 31e1 79bd 568d e13c 7a03 0d3b
00000140: 26ad f1bb 2a41 9cbd 386f b13b 3585 78bd
00000150: d778 0ebd 627a b03b 58e3 303d 585c ccbb
00000160: 1f9e 2ebb 0d9d 8d3d b072 d2bc 1ceb 083d
00000170: 5cff f43c ded4 7a3d d22e 16bc 7e2b ab3d
00000180: 7457 59bd 039d b03d fec6 103d d770 fa3c
00000190: 9869 873c 58cc 95bd cbdf 8cbd 79ed 0c3d
000001a0: bcf7 21bd 228b 413d 2d19 acbc 0997 de3c
000001b0: d4a1 f53c 73f7 023c 8e50 25bd 2e7c 93bd
000001c0: 8a95 b53d d349 13bc c9e2 903d d7da d6bd
000001d0: d74d 75bd ebb1 8d3d 1881 59bd 308b a53d
000001e0: 9264 ba3d b274 c83d 2873 863c 0d87 0c3d
000001f0: d647 bebd bb6a 193d 04b4 48bd 36c7 ddbc
00000200: dd14 29bd 816c 6c3d 0298 1d3d 84e5 a13c
00000210: 5258 72bd 2b0b 8ebd 34f7 5abc 0f15 7f3c
00000220: ad82 c7bd 9957 abbd f8cf c0bc 0b1b 823d
00000230: d705 a2bd 6a3f a83d 892a 103c 41a3 c33b
00000240: 7780 79bd 8c11 2b3d 953b b5bd a397 89bd
00000250: 5261 6abd 8312 60bd d358 073a ab8c bd3b
00000260: 59ac 073c 6b08 a43d 9954 2d3d 702c dcbb
00000270: f642 6ebd 0a8d 8dbd a9d3 aebd c051 87bd
00000280: 01a9 6cbd 543d d4bc 3bb4 ab3d 0516 02bc
00000290: c150 9d3c 5685 a7bb 8566 92bd caf7 e13a
000002a0: bc4f d6bd e7ab 47bd f945 7f3d 3961 98bc
000002b0: 3b28 fabc d7d7 3c3d 414b 723d 036f 943d
000002c0: 1de6 773d 7211 8fbd f031 833d ab83 293d
000002d0: baec ba3d 45d1 e2bc 3c07 063d a3f3 93bd
000002e0: 8b12 4bbd 4c24 1fbd 380c e8ba e75f dbbd
000002f0: 4eb4 c73b 9dfc e13c be7a 58bd 04b8 1a3d
00000300: 3318 ae3d 07e4 0bbd 9545 86bc fc92 aaba
00000310: 2733 143d f64d 273d 3f97 aebd 8bf6 5d3d
00000320: b1b4 323d f42a 82bd de54 8b3d 3682 7f3d
00000330: ed09 d1bc df8d 0b3d a14e 753d d8ab 273d
00000340: 0622 8dbd b1e1 a43d c536 603d e702 3fbc
00000350: 2e98 eabc f44d f6bc 7c67 9abc 4c2a 963d
00000360: bac6 ea3d 9372 223c f4ff b43d 4fd9 aa3b
00000370: 15a5 073c 209b 47bd e2b9 a73d 0b95 8bbd
00000380: 5d80 70bd 6473 23bc 9f27 163d 8e7a b33d
00000390: 916f 94bd c6b5 54bc 5dfe 4f3d 400d 57bd
000003a0: a65d 133d 1de9 abbd fdd1 223d 76aa a43d
000003b0: 13a8 b8bc 8cd7 5c3b e15c 86bd 8fd5 953c
000003c0: 1f18 8dbc 7370 f0bc 4664 28bc 331e efbb
000003d0: bbee 88bd abed 7f3d 1412 65ba b671 7cbd
000003e0: e3e4 cbbc 936d 5fbd 4f14 16bd 12e3 893d
000003f0: 97a7 663d 547b c5bd c669 2bbd f7db c4bd

projection_layer.4.bias f4 [128]
-0.05235484 -0.0389718 0.04813151 0.082669295 -0.07500133 0.055051625 -0.024088772 0.016295085
0.0006651002 -0.010266746 0.07292153 0.03492572 -0.03556968 -0.015193064 -0.05790117 -0.04513386
-0.015604457 0.07731058 -0.08031231 0.03635232 0.06549955 0.024306927 0.01680955 0.058993924
-0.071009845 0.049289357 0.07454628 -0.023140054 -0.019661644 -0.05813572 -0.0072116028 -0.022925006
0.060788576 -0.0492383 -0.07213228 -0.054863747 0.030533746 0.038513258 -0.058587335 0.043911986
-0.031217368 -0.06459002 0.06370215 0.07085767 6.8891546e-05 0.03176705 0.049659442 -0.04531077
0.03971343 -0.0067433743 -0.005775842 -0.06501395 -0.06571374 -0.06879284 0.018334832 0.085621424
-0.06828077 0.022236485 -0.05625846 0.09332692 -0.023173783 0.022614066 -0.013698722 0.08382894
-0.0026556484 -0.0030182218 -0.03780579 -0.044948656 0.0527719 0.062504746 -0.09067723 0.022957146
0.00211084 0.09032537 0.056253392 -0.042261753 0.011749917 -0.07831481 -0.0045759883 -0.041330118
-0.03750916 -0.016783454 0.052031193 0.032360483 -0.040174924 0.06003087 0.018070307 0.016288465
0.04677452 0.058398563 -0.014809374 0.06069714 0.03410915 0.036932983 -0.06826694 -0.06156909
0.073109046 0.023180293 0.051829383 0.039844364 0.047508568 0.03983274 -0.033694353 -0.09091298
-0.03166744 0.021367762 0.07635458 0.083975315 0.01615272 -0.001291917 -0.0435847 -0.045141187
-0.068138085 -0.07454835 0.0027185567 -0.025624365 -0.051670086 0.063035816 -0.037692193 -0.018425174
0.0063751824 -0.019947965 -0.014432196 -0.055854093 -0.062833406 0.049100693 0.06737822 0.021840744
00000000: 0772 56bd e5a0 1fbd 8c25 453d 854e a93d
00000010: 4c9a 99bd d07d 613d d155 c5bc 457d 853c
00000020: 1e5a 2e3a db35 28bc e257 953d 460e 0f3d
00000030: 83b1 11bd 54ec 78bc c729 6dbd 48de 38bd
00000040: d6a9 7fbc 0255 9e3d c87a a4bd 2ce6 143d
00000050: a124 863d 521f c73c 2eb4 893c 9da3 713d
00000060: 9c6d 91bd a3e3 493d b8ab 983d 3690 bdbc
00000070: 7511 a1bc b91f 6ebd 4f4f ecbb 39cd bbbc
00000080: 71fd 783d 1aae 49bd 17ba 93bd cfb8 60bd
00000090: e821 fa3c 14c0 1d3d 46f9 6fbd 0edd 333d
000000a0: 91bb ffbc c647 84bd 4676 823d d31d 913d
000000b0: de79 9038 2b1e 023d b367 4b3d c997 39bd
000000c0: 8daa 223d 86f7 dcbb 4643 bdbb 0926 85bd
000000d0: ed94 86bd 43e3 8cbd ee32 963c 495a af3d
000000e0: cad6 8bbd 4a29 b63c 456f 66bd 2f22 bf3d
000000f0: f2d6 bdbc 2241 b93c 9b70 60bc 82ae ab3d
00000100: 630a 2ebb 5ccd 45bb 3eda 1abd 151c 38bd
00000110: 5927 583d 7d02 803d fcb4 b9bd a010 bc3c
00000120: 0556 0a3b 82fc b83d f569 663d a91a 2dbd
00000130: b982 403c 8463 a0bd 2cf2 95bb c549 29bd
00000140: 34a3 19bd 747d 89bc a91e 553d 6d8c 043d
00000150: 768e 24bd eee2 753d 2e08 943c 636f 853c
00000160: a496 3f3d 5533 6f3d 04a3 72bc 909d 783d
00000170: 09b6 0b3d 0a47 173d 8acf 8bbd df2f 7cbd
00000180: 32ba 953d 99e4 bd3c 0c4b 543d d833 233d
00000190: 5898 423d a827 233d 1703 0abd 9630 babd
000001a0: b8b5 01bd 720b af3c ca5f 9c3d 40fb ab3d
000001b0: b652 843c 8b55 a9ba df85 32bd f7e5 38bd
000001c0: fb8b 8bbd ceac 98bd d029 323b 30ea d1bc
000001d0: 03a4 53bd ec18 813d 2163 1abd 64f0 96bc
000001e0: e8e6 d03b ea69 a3bc 0475 6cbc 43c7 64bd
000001f0: cdae 80bd cf1d 493d 98fd 893d 5ceb b23c

output_layer.weight f4 [1, 128]
0.10885191 0.11118061 -0.037676644 -0.051300276 0.102094516 -0.016739113 0.08603552 -0.07715139
-0.05802122 0.047601063 -0.0144115025 0.089023225 -0.07400322 0.059183087 -0.06922664 -0.072936244
0.096824706 0.074895956 -0.054143794 0.08549937 0.06973512 -0.0009364528 -0.015760235 0.0437626
0.046508387 -0.08568795 0.0886656 -0.068080276 -0.108903565 0.038609408 -0.079362534 -0.06882671
0.027948929 -0.05513729 -0.029991496 -0.10100562 -0.080867104 0.024923172 0.054207753 0.100352034
0.080060504 -0.013907597 -0.033906516 0.07930881 -0.0743541 0.014177569 0.015353051 0.056756664
-0.024258755 -0.07232386 -0.01763825 -0.08025572 -0.025573123 -0.07783843 -0.09202878 0.05744559
0.033637643 -0.04704484 0.105268665 0.04156757 -0.043916155 -0.11368619 0.041174233 -0.05156386
-0.053778265 -0.045930058 -0.007757879 0.038323116 0.036481682 -0.05770567 0.008711739 -0.051471703
0.07222441 0.08964072 -0.09658853 -0.032390047 0.11624233 -0.040289797 -0.08825171 0.05298031
0.087073565 0.06729923 -0.08478439 -0.055785783 -0.040628366 0.057103448 0.03154074 0.09982232
-0.07507931 -0.024643907 -0.14131339 0.04649529 -0.06531647 -0.047976125 0.03085033 0.034686252
0.041918926 0.062344212 0.08820054 -0.036617327 0.055088192 0.09145262 -0.03855369 0.07472182
0.04837637 0.067990266 -0.016407803 0.056060012 -0.029360235 -0.0781969 0.07583014 -0.072187506
-0.045531396 0.0047370717 0.08016723 0.09681295 0.06179249 0.02296017 0.029355688 0.038960956
0.020404644 -0.024312485 0.044929747 -0.041264582 -0.08928439 -0.08691745 -0.044526305 0.10062302
00000000: c0ed de3d a9b2 e33d d352 1abd 3d20 52bd
00000010: ee16 d13d 7720 89bc 6433 b03d 8c01 9ebd
00000020: a9a7 6dbd 55f9 423d 391e 6cbc cf51 b63d
00000030: 008f 97bd f769 723d b2c6 8dbd 995f 95bd
00000040: 084c c63d 0d63 993d e2c5 5dbd 4b1a af3d
00000050: 49d1 8e3d 497c 75ba 9c1b 81bc 6940 333d
00000060: 947f 3e3d 2a7d afbd 4f96 b53d ac6d 8bbd
00000070: d508 dfbd e624 1e3d d388 a2bd 05f5 8cbd
00000080: 27f5 e43c a4d7 61bd bab0 f5bc 09dc cebd
00000090: a79d a5bd ae2b cc3c f308 5e3d 5e85 cd3d
000000a0: c3f6 a33d b1dc 63bc 8fe1 0abd a86c a23d
000000b0: f646 98bd 0949 683c 5d8b 7b3c ad79 683d
000000c0: 4cba c6bc 881e 94bd 177e 90bc 1c5d a4bd
000000d0: ba7e d1bc c169 9fbd 9679 bcbd 114c 6b3d
000000e0: a0c7 093d 17b2 40bd 1997 d73d c242 2a3d
000000f0: 6de1 33bd 4ed4 e8bd 50a6 283d a034 53bd
00000100: 9946 5cbd 2821 3cbd ce35 febb b3f8 1c3d
00000110: d16d 153d c85c 6cbd afbb 0e3c fed3 52bd
00000120: 64ea 933d 8e95 b73d 35d0 c5bd 6dab 04bd
00000130: 7510 ee3d ea06 25bd 50bd b4bd e201 593d
00000140: a053 b23d 2ed4 893d 70a3 adbd a27f 64bd
00000150: ee69 26bd 4ee5 693d dd30 013d a56f cc3d
00000160: 2ec3 99bd 05e2 c9bc 75b4 10be d871 3e3d
00000170: a4c4 85bd 9d82 44bd d5b9 fc3c 2c13 0e3d
00000180: 2eb3 2b3d a55c 7f3d 7ca2 b43d 0dfc 15bd
00000190: 28a4 613d 834b bb3d 79ea 1dbd c107 993d
000001a0: 4d26 463d 7b3e 8b3d a869 86bc 2f9f 653d
000001b0: e084 f0bc b225 a0bd d54c 9b3d 0bd7 93bd
000001c0: 217f 3abd 7039 9b3b b72e a43d de45 c63d
000001d0: 1f1a 7d3d f716 bc3c 577b f03c 8695 1f3d
000001e0: a427 a73c fa2a c7bc 4108 383d 0d05 29bd
000001f0: bcda b6bd c701 b2bd 3761 36bd 7113 ce3d
