Checkpoints/HR_V/valence_s04.pth (torch, 461905 bytes, 29 tensors)

input_layer.weight f4 [128, 29]
00000000: cc20 10bd 01d3 0e3e 90bd 87bd 37da 373e
00000010: 8aa3 833c 689f b63c 2279 08be 32c5 453e
00000020: a09d d5bc 6e47 fdbd 3f0f 0cbe 5b9e 87bd
00000030: 9edc 903c 4d93 123c b9b8 13ba 5d6c 2b3d
00000040: 56df 07be 103d f93d 678a b3bd 361b 383e
00000050: 9f4e ae3c 6cc7 d93d b694 aaba f21c 41be
00000060: 821c 7d3c e7ec bc3c c150 37be da55 303e
00000070: 9d6c 903d 071b 493e 5483 0bbe 9786 9ebd
00000080: facb 0c3e c22e 3f3e 744e f83d 1e4d 883d
00000090: 8df7 f5bd 1332 1dbe 1ccf 43be 2094 a8bd
000000a0: 885b 0e3e 8a48 03be 8cbd 2abe 17d2 ccbd
000000b0: 3ea4 103e e4a9 703d 20bf 63bd 3dc6 293d
000000c0: 7fc5 30be a2f4 f2bc d934 643d 2463 e23d
000000d0: 39a9 fb3d 9a99 12be 4ce2 09be 3baf 183d
000000e0: d0a7 c4bd 8a8d 713c 5b0a ca3d 1415 8ebd
000000f0: b1fe 083e 414c 35bc 9d63 723c b43b 00be
00000100: b91b 473e ac91 9abd aff1 153d 2bb0 1abe
00000110: 291f debd d998 313e 87e5 07be 81c3 0d3e
00000120: eeee b33d f582 123e 058f 40bd ee92 813d
00000130: be9a 1fbe 2041 89bd 6906 9fbd cd66 fa3b
00000140: 64cd f43d 0f5b e43d 7c79 aabd b915 94bd
00000150: dab8 bb3d 2db4 60bd 126f 11bd 5398 f03d
00000160: 5c0c 31be 50fa da3d 6971 a0bb 3cf5 e3bd
00000170: 8282 d03d f529 18bd 66b7 37bc 0908 01be
00000180: 63f7 8e3d a00f 08be 2633 2f3e b38c 46bd
00000190: 0596 36be 633c c13b 90b5 163e 4de6 2e3c
000001a0: 2297 4b3e 439b 84bd aaa5 1d3e 0cce 133e
000001b0: b728 b43c 58ab 1f3e cd9f 2d3e a2a8 113e
000001c0: 2e4a f83d 451f cb3d c34a 19be 2856 d8bc
000001d0: 8b1f 25bd 6d3b 31be 75e6 d9bd f55d e83c
000001e0: 10e6 0dbe cc09 a8bd 2db4 3e3e c534 3dbe
000001f0: 2fb6 323e 10d4 0c3e d6aa 053d 2eca ab3b
00000200: 3720 f4bd 4dd8 40be 299f f43d 19b0 1dbe
00000210: 5d6f 043e 3202 af3d 9158 b43d 1899 cfbc
00000220: 24d2 22be 2f48 99bd de75 b53c 340e f23d
00000230: d362 1cbe 4d4c 8b3d c630 313e fb7d 813d
00000240: 0fde d53c 9aa7 d13d aa09 eabd 4808 d03d
00000250: 0499 31be a046 afbb 616a 51bc 6d15 b23d
00000260: 34a8 f93d fe33 f63d 4165 303e b054 bdbd
00000270: d405 653d 5da6 c4bd 119a 3c3e d670 13bd
00000280: b54e 993c 042c 14be c643 fd3a f690 42bd
00000290: d3f0 1cbe 25b6 c5bd d95c a13d 6573 e63d
000002a0: 9a16 acbd 9a0b 093e 34eb 853d 5ab0 4abc
000002b0: e54c 3bbe a2c8 253c 70ec eebc fd01 21be
000002c0: bb51 103e 7e6c db3b 7f79 0d3e 6bcd 6ebd
000002d0: 699a 72bc 9318 2bbe db7a 34bd 4ef0 9bbd
000002e0: 3f3f 043e f04e 6b3d c376 35be 3b20 06be
000002f0: 8f4e 323e b914 be3d 5fcc dcbd edf3 31bd
00000300: bf50 bd3c c4ec 9dbc 801d c33c b54d 013e
00000310: dd9d 103e 5c88 7abb ab14 013e 86ac 3ebc
00000320: e4d3 6abd 7098 ea3d 1ebe 1abe d827 e23d
00000330: 3800 81bc d876 313c 9b16 d3bd 0cb9 2c3e
00000340: 37b2 313e 1749 fc3d 80a0 6a3d 53ca 78bd
00000350: 071c ecbd 4b42 0fbc 0c42 fdbd f2e4 4cbc
00000360: d5b9 08be 9e7e 13be 09c6 2a3e 5c90 3f3d
00000370: 8579 24be 73df 363e d920 bfbd 9a26 aebc
00000380: 1cde 2ebe 7a30 093e 4177 863b 9065 04be
00000390: 1dca e2bd cfbf ad3d 7c33 a0bd 2f22 c0bd
000003a0: 861c 273e 5f16 813d 00c2 413d 78b0 d23d
000003b0: 779c bdbd 8843 1b3d 7338 033e 6eb6 393e
000003c0: a140 9cbc 2fb4 46bc 75bc 223d 44fe c73d
000003d0: 9037 6ebc fbe6 1abe 1b04 cfbd 0089 7e3d
000003e0: f0bf b03d 9e59 183e a8c8 e33c 5729 cbbd
000003f0: 7a6e 24be f558 693d 245a ecbd a792 043e
-0.035187528 0.13947679 -0.06627953 0.17954336 0.016069192 0.022292808 -0.13327459 0.19313505
-0.026076138 -0.1236714 -0.13677691 -0.06622001 0.017683323 0.008946252 -0.0005635131 0.04185139
-0.1326879 0.1216985 -0.087666325 0.1797913 0.021277724 0.1063374 -0.001301429 -0.18858698
0.015448691 0.023062183 -0.17901899 0.1722025 0.07051966 0.19639216 -0.13624316 -0.07740515
0.13749686 0.1867018 0.12124339 0.06655334 -0.12010107 -0.15351133 -0.19121975 -0.082313776
0.13902104 -0.1282064 -0.16673869 -0.10001009 0.14125153 0.05875577 -0.055602193 0.04144882
-0.17262839 -0.029657666 0.055714462 0.11054066 0.12288136 -0.14316407 -0.13465232 0.037276488
-0.0960232 0.014743218 0.098652564 -0.06937614 0.13378407 -0.011065544 0.0147942575 -0.12522775
0.19444169 -0.07547316 0.03660744 -0.15106265 -0.10845787 0.17343463 -0.13271151 0.1384411
0.087858066 0.14307769 -0.047011394 0.06326853 -0.15586373 -0.06701875 -0.077648945 0.0076416493
0.11953238 0.111501805 -0.083239526 -0.07230706 0.09166117 -0.05485933 -0.035506316 0.117478035
-0.17289871 0.106922746 -0.004896332 -0.11130759 0.101811424 -0.03714939 -0.011213159 -0.12600721
0.06980779 -0.1328721 0.17109355 -0.048474025 -0.17830665 0.0058970912 0.14717698 0.010675025
0.19881871 -0.06474926 0.15395227 0.1443407 0.02199207 0.15592706 0.1695549 0.14224485
0.12123524 0.099180736 -0.14969926 -0.02640827 -0.040313285 -0.17307825 -0.10639659 0.028365115
-0.13857293 -0.082049936 0.18623419 -0.18477161 0.1745231 0.1375277 0.032633625 0.0052426076
-0.11920207 -0.18832512 0.1194442 -0.15399207 0.12933107 0.085453406 0.08805955 -0.025341555
-0.15900475 -0.07484471 0.02215093 0.11819115 -0.15272073 0.068016626 0.17303762 0.06322857
0.026106862 0.102370456 -0.114276245 0.101578295 -0.17343527 -0.0053489953 -0.01278171 0.08695493
0.12190285 0.120216355 0.17226125 -0.092446685 0.05591376 -0.09602044 0.18418147 -0.03599628
0.018714288 -0.14469916 0.0019322566 -0.047501527 -0.15326242 -0.09653882 0.078790374 0.112524785
-0.084027484 0.13383332 0.06539002 -0.012371147 -0.18291052 0.010118635 -0.029165477 -0.15723415
0.14093678 0.006696283 0.13815878 -0.05830137 -0.014807322 -0.16708593 -0.044062477 -0.07614194
0.12914751 0.057448328 -0.17721085 -0.13098232 0.1741278 0.09281296 -0.10781168 -0.043445516
0.023109792 -0.019277938 0.023817778 0.12627299 0.1412272 -0.003822825 0.1260554 -0.0116378125
-0.05733098 0.114548564 -0.15111586 0.11042756 -0.015747175 0.010831557 -0.10307046 0.16867465
0.1735314 0.12318628 0.05728197 -0.060739826 -0.11528783 -0.008743833 -0.12366113 -0.012505757
-0.1335214 -0.1440377 0.16677107 0.04676853 -0.16061981 0.17858677 -0.09332437 -0.021258641
-0.17076916 0.13397399 0.0041035716 -0.12929368 -0.11073706 0.0848385 -0.0782232 -0.0938152
0.16319475 0.06303095 0.047304153 0.10287565 -0.09258359 0.0379062 0.12814502 0.18135998
-0.019073786 -0.01212792 0.039730508 0.09765294 -0.014539614 -0.15127175 -0.10108205 0.062142372
0.08630359 0.14877936 0.027805641 -0.09919994 -0.16057768 0.0569696 -0.115406305 0.12946568

input_layer.bias f4 [128]
00000000: d5ca 143d 1276 e4bc 056c 89b9 b6cc 22ba
00000010: ccc7 df3d e405 f5bd 3e90 423b 33e6 3b3d
00000020: 58f8 25ba 0a68 303d 1bf6 b0bc 2606 6ebd
00000030: 3ae1 37bc 2056 bb38 db3c ccbd 7144 9c3d
00000040: ca8a 6ebc af22 893b d1a4 aebb b0e7 7e3d
00000050: 7f1e e93c 7e8a 94bd afae b73d 7b3f 4cb8
00000060: 0a2a be3c d7a0 e9bd 277a 213a 2fb3 2dbd
00000070: f135 babd 5a9d 033d 3ab9 fdbc 2b63 173d
00000080: 4469 f43d a538 04be 30df c6bd 7af6 7b3d
00000090: 1b4a e038 b623 5bba 0c5f 38ba f44a 04be
000000a0: baf2 f63d 8b05 febd 0f7b 53bd 9b33 c7bc
000000b0: 96b5 823c 42f0 fdbd e45d 033d 48b5 4d3c
000000c0: 05ba ff3d cc92 dd3d 3001 1e3a 13ce b0bd
000000d0: cb3a cb3b 05f2 033e f498 b0bd b66d 8a3d
000000e0: 96ba 113d 83a6 babd 7114 203a d704 e1bd
000000f0: 0a03 10bd 0275 5a3b a414 be3d dc89 c23b
00000100: ed1b 2a3d 3fd9 03be c88a e83c 6f73 f8bd
00000110: 0e0e 2dba 48a3 613a 479d a9ba 32f8 38bd
00000120: 2d72 c3b8 d47b 8c3d 4ebd f1bc 7bae b0b8
00000130: c769 12bc 597a b8bd 59d1 98bd be05 bebb
00000140: c6a1 f33c 3c34 8c3c 61df 2fba da0a cfbd
00000150: effb 01be 094c 893d 9e07 773b 8f4d 023d
00000160: 6439 0dbd 048f be3d d189 d9bd 3f05 2839
00000170: bce3 ecbc 2880 2639 af75 3ebd 9eab afbd
00000180: 7daa 4c3d 03f8 c2bc c056 083e ba1a f03d
00000190: 1373 a7bc e809 7f3c 36a1 8cbd ebab 703d
000001a0: 825a 913b d473 ee3a d8b5 9f3d bc09 b9bc
000001b0: a374 523c 46e2 8a39 f442 e9bd 8493 d83d
000001c0: 8ab7 983d b272 01be 8e0c 0a3e 9cdd 943c
000001d0: 0c20 7dbd 3573 a7bb e5fd 703d 418b e1ba
000001e0: 67ec 473d 623b fd3d 491c 95bb 4014 d0bd
000001f0: 6979 f2bc 5f12 9cbd 1866 bebd 201e 0ebc
0.03632625 -0.027888332 -0.00026211157 -0.0006210314 0.1092678 -0.11964014 0.0029688026 0.045873832
-0.00063312566 0.04306797 -0.021601727 -0.058111332 -0.011223132 8.932897e-05 -0.09972545 0.07630242
-0.014559457 0.004185043 -0.0053297062 0.062232673 0.028456924 -0.07252978 0.08968865 -4.869651e-05
0.023213405 -0.11407631 0.0006159865 -0.04240721 -0.0909232 0.032132484 -0.030972112 0.03695981
0.1193414 -0.12912233 -0.097105384 0.061514355 0.000106949556 -0.00083595084 -0.0007033206 -0.12919217
0.12058015 -0.12403401 -0.05163103 -0.0243166 0.015955728 -0.12399341 0.032071963 0.012555428
0.12486652 0.10819015 0.00060273986 -0.086330555 0.006202077 0.12885292 -0.086229235 0.06759207
0.035578333 -0.09113791 0.00061065616 -0.10987251 -0.03515915 0.0033333902 0.09281281 0.0059368443
0.04153054 -0.12875842 0.028386489 -0.12131392 -0.00066015206 0.00086073996 -0.0012940549 -0.045158572
-9.3195915e-05 0.06859556 -0.029509213 -8.4248335e-05 -0.008936352 -0.09007711 -0.07461805 -0.0057990244
0.029740226 0.017114751 -0.0006709006 -0.10109492 -0.12693761 0.06703956 0.003769375 0.031812247
-0.03447856 0.09304622 -0.106219895 0.00016023683 -0.028917186 0.00015878736 -0.04649895 -0.08577655
0.049967278 -0.023799902 0.13314342 0.11723848 -0.020440614 0.015566327 -0.06866686 0.058757704
0.004435838 0.0018192478 0.07798356 -0.02258765 0.012845191 0.00026489998 -0.113897234 0.105750114
0.07456882 -0.12641409 0.13481352 0.018172078 -0.06179814 -0.0051101693 0.058835883 -0.0017207639
0.048809435 0.12364842 -0.004550491 -0.101601124 -0.029598908 -0.076206915 -0.092968166 -0.008674175

projection_layer.0.weight f4 [128, 128]
00000000: 8902 96bd 548b 463d 5ed0 70bc e7ba 9dbc
00000010: ee44 f6bc 9cbf cc3c 5c62 73bd c046 21bd
00000020: ed2b a5bd b4cc a63d 89cc b83d e016 e53c
00000030: 4cfb 2f3d 4d14 573d 5338 043c c589 263c
00000040: a899 f8bc 069f 7d3d c032 433d 4bd1 663d
00000050: 277d 713d 6d7f 983c 35da d6bc 3712 7b3c
00000060: 6057 e8bc 0b8f 4bbd e77b 8a3d 8317 2c3d
00000070: 0d88 663d c1ae 08bd 3db2 d03c 54c7 763c
00000080: 5f3d 77bc 3c7a 9ebd 652b 8fbd 4135 fdbc
00000090: 445f b5bd 5cd7 0d3c 383a 513d f86c bd3c
000000a0: bb0f 7ebd 91da 97bd b08a 103d 5ad9 37bd
000000b0: 0b1e 2dbd 41cb 893d e499 90bc a09f 56bb
000000c0: 824c 00bb 563e bbbd 06cb e9bc 4ccd cf3c
000000d0: 4c41 a63d d204 cdbd 3b89 09bd 60df c83c
000000e0: b5b3 ac3d 8b3b de3c 0260 7c3d d5ea 20bd
000000f0: 469b 9fbd 3a36 76bd d7ba 203d 4776 aa3d
00000100: 8223 03bd 55d0 abbd 5e27 4cbd 6f1b 8abc
00000110: 72b1 073c f4fc e03c ef2a 1e3d 350f bdbd
00000120: f9ca cabc b87f 5d3d 6b8f 8bbd a7e2 93bd
00000130: 9f01 2c3d 153a 4c3d fdc6 553d ac87 533d
00000140: 08f5 bcbb b218 a03d 7438 37bd f462 89bd
00000150: 3d46 25bc 3c64 b2bd abd0 57bc dbde 953d
00000160: 821c 95bd f9c1 2f3c 4859 b43d 432a 2abd
00000170: 4ae5 8dbd d9cc 10bd 2934 96bd c1cd 0cbd
00000180: da75 53bd 0205 15bc b760 a5bd 3d31 a53b
00000190: a08d 3cbc 827c 173d c678 363d 4e4e 95bd
000001a0: 12d3 4ebd 1df6 2e3d b17f 8bbd 20fe aa3b
000001b0: c494 323c 8a29 733d b8a3 0bbd 4bcd 90bc
000001c0: cad2 19bd 28eb 10bc 6bd3 7ebd 7eec 1b3d
000001d0: 15b8 7fbd 269f 493d 90c9 72bd 3198 9e3d
000001e0: 717e 99bd a36f 8dbd bf2c 8abd d2d2 a9bd
000001f0: 4f55 543d 0b20 403d e1d6 fabb f3b0 893c
00000200: 7715 d1bc d365 b93c d2d6 b4bd 214c 5a3c
00000210: 3093 8c3d f131 a8bd bfda d1bc a7dd b53a
00000220: dc06 babd 907d 28bd c5c5 8a3d 65b6 a2bd
00000230: 7724 5fbd f029 bebd 10fa 7bbd 2151 863d
00000240: cfab 32bd 09b2 5f3c 674f 8c3d fb8a 1dbd
00000250: 0165 49bd 43c0 88bc d29c a2bd 031d 8b3d
00000260: 076a a73d 65fa 6a3d 4521 913c 8271 843d
00000270: 6806 143c 2f53 a0bb 6126 bbbc bbb1 eeba
00000280: 46a8 833d 233a e6bc c01a 8f3d 5279 99bd
00000290: 3d40 9f3d fb46 a0bd 8f41 b2bd 10e6 803b
000002a0: 6e8b 88bd dc73 79bd 42f9 ac3d cfb5 aebd
000002b0: b838 3abd 28bb e03b 3b55 473d 279c c8bc
000002c0: 17f9 8c3d f9cf 9d3d f334 6f3d 651e aabd
000002d0: cc74 c53c f1db 943d 8331 d4bc a357 0c3d
000002e0: 1b37 03bd f0d1 8cbd e739 bf3d 6104 95bd
000002f0: c9cb 93bc 638c cbbc 0066 2c3d eab6 03bd
00000300: 4181 a2bc 7a06 a4bd 1ff7 47bc 97df 8cbd
00000310: 7b6f b5bc 8ad1 153d 88cf 8ebd 3c6f 9bbc
00000320: 8606 71bd 09b8 b33d 6da6 d2bc d842 8abd
00000330: 239d c8bc 6da9 903d 0bb6 a43d 3207 463d
00000340: 6adb a9bd ab1c 943d 4874 863a dc8b 7e3d
00000350: 1214 ffba 46d8 523c 85ab e5bc 2c2a 69bc
00000360: c5a2 553d 2ee0 c1bd 497c 973c d4aa bdbd
00000370: b721 1ebd 33c9 b0bd d38f 9c3d a896 7bbd
00000380: c734 6dbd c758 23bc 2636 af3d f8ac 03bd
00000390: f093 7dbd dade bd3c f397 b8bd 6efc 863d
000003a0: f1da 743d 7447 343d 2a36 0ebd 3541 edbb
000003b0: 0c0c 043d c6c9 6c3d ffe3 29ba 2273 03bd
000003c0: ebc1 63bd 04dc 763c 9c4f 873d b725 94bc
000003d0: 7321 58bd 4949 a0bd 6967 a43d 6304 373d
000003e0: aca4 213d 2d6f ed3b 9644 b4bc 2153 603d
000003f0: 9156 dcbc fb54 dcbc b49f e13c 0c72 343d
-0.07324702 0.048472717 -0.014698116 -0.019254161 -0.030062165 0.02499371 -0.059419975 -0.039374113
-0.08065019 0.08144513 0.09023387 0.02796501 0.042964265 0.052509595 0.008070069 0.010164683
-0.030346707 0.061919235 0.04765582 0.05635194 0.058957245 0.018615449 -0.026227096 0.015324167
-0.028361976 -0.049696963 0.06761914 0.04201461 0.056282092 -0.033369783 0.025475616 0.015062172
-0.015090316 -0.07738158 -0.06990699 -0.030909183 -0.08856061 0.008657303 0.051080912 0.02312325
-0.06202672 -0.07414735 0.035288513 -0.044885017 -0.04226498 0.06728221 -0.017651506 -0.0032748953
-0.0019576852 -0.09142749 -0.028539192 0.025366448 0.08117923 -0.10010685 -0.03357814 0.024520576
0.08432714 0.027128002 0.061614998 -0.039286453 -0.07793288 -0.06011031 0.039240684 0.08323341
-0.032016285 -0.083893456 -0.04984223 -0.016858784 0.008282052 0.027464367 0.038615163 -0.09231416
-0.024754988 0.05407688 -0.06814464 -0.07220965 0.041993733 0.04986008 0.052191723 0.05164306
-0.0057665147 0.0781721 -0.044731572 -0.06708327 -0.010087547 -0.087105244 -0.013172309 0.07317897
-0.07280828 0.010727399 0.088060915 -0.04154421 -0.06928499 -0.035351608 -0.073341675 -0.03437591
-0.051626064 -0.009095432 -0.080750875 0.00504127 -0.011508375 0.036983974 0.044548772 -0.07290326
-0.05049426 0.04271518 -0.068114646 0.0052182823 0.010899726 0.059365787 -0.03409168 -0.017676016
-0.03755454 -0.008845128 -0.062213343 0.038067333 -0.062431414 0.04922404 -0.059274256 0.07743872
-0.0749482 -0.06906059 -0.06746816 -0.08292164 0.05183917 0.04690556 -0.00765501 0.016808009
-0.02552293 0.022631561 -0.08830036 0.013323815 0.06864011 -0.082126506 -0.025617002 0.0013875262
-0.090833396 -0.04113537 0.06776003 -0.07944945 -0.054478135 -0.09285343 -0.061517775 0.06558443
-0.04362088 0.013653287 0.06851082 -0.03846262 -0.04916859 -0.01669324 -0.07940067 0.06792643
0.0817452 0.0573677 0.01771606 0.064669624 0.0090347305 -0.0048927288 -0.022845449 -0.0018210927
0.0642858 -0.028103894 0.06987524 -0.07493843 0.07775924 -0.078260385 -0.087039106 0.0039336756
-0.06667219 -0.060901508 0.0844598 -0.08530771 -0.045464247 0.0068582483 0.048665266 -0.024488522
0.068834476 0.07705683 0.058400106 -0.083065785 0.024103545 0.07268513 -0.025902515 0.034263264
-0.032034975 -0.0687598 0.09337216 -0.07276226 -0.018041508 -0.024847215 0.042089462 -0.032156862
-0.019837024 -0.08009048 -0.012204914 -0.06878584 -0.022147885 0.036576785 -0.06973177 -0.01897394
-0.05884411 0.08775336 -0.025714124 -0.06751031 -0.024488991 0.070635654 0.080425344 0.048346706
-0.08293803 0.072320305 0.0010258043 0.0621451 -0.0019460937 0.012868946 -0.028035888 -0.014231246
0.052157182 -0.09466587 0.018491881 -0.092610985 -0.03860637 -0.08632126 0.0764462 -0.061422974
-0.05791166 -0.009969897 0.0855525 -0.032147378 -0.061908662 0.023177553 -0.09013357 0.06591116
0.05977911 0.044013456 -0.034719624 -0.0072404393 0.03223805 0.057809614 -0.00064808124 -0.03209222
-0.055604856 0.015067104 0.06606981 -0.01808439 -0.052766275 -0.07826478 0.080275364 0.044681918
0.039463684 0.007245919 -0.02200536 0.054766778 -0.026896747 -0.02689599 0.027541973 0.044054076

projection_layer.0.bias f4 [128]
00000000: aee1 74bc 3465 e039 f791 1bba 3c7a 0abd
00000010: c4c5 16ba 9c15 64bc 7195 4f3b 51ce 573b
00000020: b56b 86bc 647e 453c 3fca 82bc 190f 2f3d
00000030: 9dbe 3a3c ae3f 48bc 0dbe 393a 535b 2d3d
00000040: 03aa 223d 0771 d13c 7b94 7b3c 00cc 68bc
00000050: cd93 f6bb 1883 9ab9 3a25 f4bc c2ae c938
00000060: 4b50 98bc 5ad7 d93b bdbc 7eb9 8009 f5bb
00000070: 7a83 103d 42e4 853b 61be cc39 98de 3ebc
00000080: c0ea 9539 109c 6039 dc41 213d 7d21 b9bc
00000090: a4f8 51bc 1123 18bd 90f4 d639 7db7 33bc
000000a0: 949c 0bb9 fc5c f1bb c75f 06bc 6473 063d
000000b0: 71d3 54b8 6aee 273c 4b97 143c 7a0e a139
000000c0: 177b 093c d607 303d 044f fcbc 4726 cf3b
000000d0: a363 143d aaaf 60b9 0825 993c cb21 a3bb
000000e0: 5bd8 0c3d 6eff d4b7 e6bf a4bc 1aae c63c
000000f0: dd37 c2bc ac44 0ebd fbd4 3dbc 0229 203d
00000100: b76b 9ebc 8561 e6bb 6d4c 083d a85b 6f3c
00000110: 0ff3 2b3a 7548 05bb 6293 76b9 ef49 fa3a
00000120: 1939 5c3c f8cd 43ba f360 583b 8251 f639
00000130: b537 9b3b 32de 473b 2992 9e3b 2d5c 31ba
00000140: 5e35 25bd 1ae9 743c f79e a1b8 2060 1fbd
00000150: 1bfd 233b e403 9b3b a843 dcbc 2c9d 303c
00000160: 18c9 9039 6686 a9bc 83b9 b33c 0af5 363a
00000170: 9330 e8ba 85dc 6b39 b2eb 1cba c907 043a
00000180: 9d6f 89bc d39f ee3b dded a4bb 178c 783c
00000190: 7bb4 cebc 7a57 15b9 df8e 66bc ea43 b53a
000001a0: caf8 b1bc 6c4f ce3c 89cb fdbc 0f37 2aba
000001b0: 180b 963c 87c4 e23a 0b01 cb3c 86d8 7e3c
000001c0: 81e6 253d f70b 533a 788a 2aba 8785 403c
000001d0: c936 3239 eece d8bc a282 9739 9d78 303d
000001e0: 9c2f de3b aa57 2dba a574 33bb 5c2b bfbc
000001f0: 82b8 203d e31b c03c 859f bcbc 527f 0b3d
-0.014946384 0.00042800012 -0.0005934531 -0.033807978 -0.0005751515 -0.013921168 0.0031674767 0.003292937
-0.01640878 0.01205406 -0.01596558 0.042739008 0.011397985 -0.012222214 0.000708551 0.04232342
0.039712917 0.025566591 0.015355225 -0.014208794 -0.0075249434 -0.0002947084 -0.029802907 9.616978e-05
-0.018592974 0.0066479864 -0.00024293638 -0.007477939 0.035281636 0.0040860483 0.00039051755 -0.01164975
0.00028594397 0.00021420442 0.03936945 -0.022598976 -0.012815628 -0.037142817 0.00040999474 -0.01096904
-0.00013314403 -0.007365821 -0.008201546 0.03282489 -5.074166e-05 0.010249713 0.009069274 0.000307191
0.008391163 0.042976223 -0.030799396 0.0063217017 0.036227833 -0.00021427745 0.018694416 -0.0049783937
0.03438602 -2.5391313e-05 -0.020111036 0.02425294 -0.023708278 -0.03473346 -0.011586423 0.039101608
-0.019338472 -0.007030668 0.03327601 0.014609255 0.0006559351 -0.0020337377 -0.00023515293 0.001909552
0.0134413475 -0.00074693514 0.003301677 0.00046981504 0.0047368654 0.003049743 0.004839201 -0.00067657494
-0.040334098 0.014948154 -7.706688e-05 -0.03891003 0.0025022689 0.0047306884 -0.02688773 0.01077966
0.00027615647 -0.020693969 0.021939045 0.00069792627 -0.0017714672 0.00022493496 -0.0005986049 0.00050365605
-0.016776854 0.007282236 -0.0050332383 0.015170119 -0.025232544 -0.00014242335 -0.014072149 0.0013829444
-0.021725077 0.025184356 -0.030980842 -0.000649319 0.018315837 0.0017301001 0.02478077 0.015554553
0.04050303 0.0008050794 -0.0006505619 0.011750585 0.00016995812 -0.02646586 0.00028898293 0.043083776
0.006780578 -0.0006612489 -0.0027382758 -0.023336105 0.03923846 0.023450797 -0.023025284 0.03405697

projection_layer.1.weight f4 [128]
00000000: adad 7e3f 8c85 803f 16f6 7d3f e291 803f
00000010: 5b1f 803f 3023 803f 5951 7e3f e86f 803f
00000020: 0f05 7e3f c7e3 823f 2a69 803f e0d1 7e3f
00000030: 49aa 7d3f 61c6 7d3f ef1d 7e3f 44ef 7b3f
00000040: a1f7 813f efa1 803f 4592 803f 997b 803f
00000050: ac3a 7c3f 07d0 7f3f 19f7 7f3f 3989 803f
00000060: 2631 803f 1acc 7e3f f6b9 7e3f d1fe 7d3f
00000070: dd3d 803f aad9 7f3f 9819 813f fe75 803f
00000080: dfaa 7c3f 4cb9 7c3f 2b2e 7e3f 766c 7e3f
00000090: 7a54 7c3f 6885 7d3f efe4 7c3f 244c 803f
000000a0: 8768 803f 9e88 7d3f 680d 7e3f dc32 7e3f
000000b0: 42a5 7f3f 0bfe 7f3f 4919 7e3f 288f 813f
000000c0: e899 7e3f ba29 7e3f 4a2d 803f ca59 803f
000000d0: 070f 7e3f 4d36 7b3f 1c1a 7e3f d339 7f3f
000000e0: 89f3 7a3f 9c7f 813f 59fc 7f3f a3c9 7f3f
000000f0: d383 813f edf3 7f3f b3c2 7f3f e328 7e3f
00000100: da1c 7f3f 2c93 7f3f c05f 7f3f afe4 7d3f
00000110: 57af 7b3f bcf7 7c3f 3e84 7e3f 99ec 803f
00000120: 8c78 7f3f 99dc 7d3f 87fd 7d3f 8ff3 7d3f
00000130: 894a 823f 774d 7b3f a2a3 7e3f 987b 7d3f
00000140: 501c 803f 6ba6 803f bf6b 7e3f 5be2 7c3f
00000150: e7d0 7d3f 3c15 7d3f 2c70 813f 0132 7f3f
00000160: b538 7e3f 497e 803f 6422 803f d339 7d3f
00000170: 9044 7e3f 59ac 7f3f b385 7d3f bf1c 7d3f
00000180: 9b05 7f3f c5fc 7f3f 64bc 7e3f b900 813f
00000190: cb21 7f3f 079f 7f3f 4356 803f ddd8 803f
000001a0: 7f3c 7b3f f5e4 7d3f 0973 803f ade8 7e3f
000001b0: bd99 7f3f a30d 7f3f e688 813f fb7b 7f3f
000001c0: 98ac 7a3f fe42 7d3f f6f5 7f3f 835b 7e3f
000001d0: 3f30 803f 56b7 7c3f c3ca 803f 56f9 823f
000001e0: 568a 803f cf45 803f ed89 803f f019 803f
000001f0: ab10 7e3f 6fdd 7d3f 542c 7f3f 097e 833f
0.9948376 1.0040755 0.9920362 1.004452 1.0009569 1.0010738 0.99342877 1.0034151
0.9922647 1.0225762 1.0032094 0.99538994 0.9908796 0.9913083 0.99264425 0.98411965
1.0153695 1.0049418 1.0044638 1.0037719 0.98527026 0.999268 0.99986416 1.0041877
1.0014999 0.99530184 0.99502504 0.99216944 1.0018879 0.99941504 1.0085936 1.0036008
0.9869823 0.9872024 0.99289197 0.9938425 0.985664 0.99031687 0.98786825 1.0023236
1.0031899 0.99036586 0.99239206 0.99296355 0.9986154 0.99997014 0.9925733 1.0121813
0.9945359 0.9928242 1.0013821 1.0027401 0.9924168 0.9812973 0.9925859 0.9969761
0.98027855 1.0117068 0.99994427 0.9991705 1.0118355 0.99981576 0.9990646 0.9928114
0.996534 0.9983394 0.9975548 0.9917707 0.9831442 0.9881551 0.99420536 1.0072204
0.99793315 0.9916473 0.9921498 0.99199766 1.0178996 0.98165077 0.99468434 0.99016714
1.000864 1.0050787 0.9938316 0.9878289 0.99146885 0.98860526 1.0112357 0.99685675
0.9930528 1.0038539 1.0010495 0.9891636 0.9932337 0.99872357 0.99032134 0.9887199
0.9961793 0.9999507 0.9950621 1.0078346 0.9966094 0.9985203 1.0026325 1.0066181
0.98139185 0.99177486 1.0035106 0.99573785 0.9984396 0.99630183 1.0119903 0.99798554
0.9791961 0.98930347 0.9998468 0.99358386 1.0014724 0.9871725 1.0061878 1.0232341
1.0042217 1.0021304 1.0042092 1.0007915 0.99244183 0.99166006 0.99677014 1.0272838

projection_layer.1.bias f4 [128]
00000000: e109 fcbb eea3 3db9 cbe9 adbb 3e99 cc39
00000010: 36af c5bb e211 6fbc 83c9 61bc 71bf 54bb
00000020: ec72 00bc e60c 823c dd82 6dbb cd1a 64bb
00000030: ebe3 25bc 34c9 20bc e91b c4bb 7d42 cfbb
00000040: d13e 913a cd0e b8bb 4488 ac3a f3cd 8dba
00000050: cf39 01bc f595 1d3c 66e8 9bbc 30e1 1739
00000060: 9529 85bb 5213 98bb 94ec 2bbb 0320 013b
00000070: 91c6 d0bb b459 14bc 4565 5dbb d61f 40bc
00000080: c08f 29bc 64e2 a6bc 3182 97ba 39b0 a6bb
00000090: 1ee5 4ebc fc06 6fbc 5d74 00bc 1187 0c3b
000000a0: 86e1 143b ed16 4bbc 52d5 9ebb 2ab3 82bc
000000b0: 6037 4abb 7763 90bb c99c 84bc 313a 833a
000000c0: 94c0 d3ba 723c b4bb c054 033c 1b14 4b3b
000000d0: 862b 34bc cc96 b5bc 21fc d2bb 06c1 5e3a
000000e0: 2919 a9bc 05b5 ea3b 8418 a5bb 7367 95bc
000000f0: d125 0f3c 7f2b 90bc 477a 50bc bf74 24bc
00000100: b7aa 7bb9 0a73 c4bb c474 1dbc 6c8d 9bbc
00000110: 49ff adbc 5ef1 13bc 16c3 81bb 8544 9cbb
00000120: dca4 18bc 3da8 9fbc fc76 b5bb 2b9b 16bc
00000130: 4d56 d13c d4b4 96bc 1c3f 2cbc ec41 6cbc
00000140: 6152 eebb 63c1 45bb 2fc6 2ebc 636e 93bc
00000150: 8dca 55bc c248 c6bc c90a 983b 0ba4 03bc
00000160: 7236 c4bb 3b74 11bb cf2b 993a f51f 12bc
00000170: dce0 2abc b597 bcba 0e2e a1bb c87e d4bb
00000180: e1c3 20bc f8d5 10bb 0fa7 bfbb eeb5 75bb
00000190: 1714 7abc 7c85 0ebc bddd 2bbc be5f 05bc
000001a0: 162c 28bc f6fb 58ba b8cb 1e3b 9368 0ebc
000001b0: 24a1 0c3c 59df edbb b1ea 5bbb 1383 c5bb
000001c0: 5929 91bc b872 0bbc 4c0b 8fbb 86b0 60bc
000001d0: 47d1 24bc eae8 18bc 55ee 50bb 9d68 a63b
000001e0: 7e14 f2b9 4c0b 803b a14d 2bbb 2359 983b
000001f0: f4a7 73bc 96c8 35bc 0a4e aebb ba90 473c
-0.0076916073 -0.00018085513 -0.0053074113 0.00039024086 -0.0060328497 -0.014591666 -0.013780954 -0.003246274
-0.0078398995 0.015875291 -0.003624133 -0.0034806014 -0.010125141 -0.009813596 -0.0059847725 -0.0063250647
0.0011081343 -0.0056169988 0.0013163169 -0.0010818824 -0.007887318 0.009618272 -0.019031715 0.00014484371
-0.004063795 -0.004640975 -0.002623354 0.0019702918 -0.006371327 -0.00905459 -0.0033782285 -0.01172634
-0.010349214 -0.020371623 -0.0011559186 -0.0050869253 -0.012627868 -0.014589068 -0.007840243 0.002144281
0.002271743 -0.012395603 -0.004847207 -0.015954573 -0.003085576 -0.0044063884 -0.016188042 0.0010011849
-0.0016155415 -0.0055003697 0.008015811 0.0030987326 -0.010996705 -0.022166632 -0.0064387475 0.00084973907
-0.02064188 0.0071626925 -0.005038323 -0.018237805 0.0087370435 -0.017598866 -0.012724466 -0.0100376
-0.00024000822 -0.005995159 -0.009610359 -0.018988334 -0.021239894 -0.009029714 -0.0039600236 -0.0047689104
-0.009316649 -0.019489402 -0.0055378657 -0.009192268 0.025553847 -0.018396772 -0.010513093 -0.014420014
-0.007273004 -0.0030175082 -0.010667368 -0.017996972 -0.01304878 -0.024204616 0.0046399576 -0.008034716
-0.0059879357 -0.0022194523 0.001168603 -0.008918752 -0.010429587 -0.0014388474 -0.00491882 -0.00648484
-0.009812326 -0.0022100192 -0.0058487724 -0.0037492472 -0.015263579 -0.008698817 -0.010489878 -0.0081405025
-0.010264417 -0.0008277291 0.0024230313 -0.008691925 0.008583341 -0.007259291 -0.0033556635 -0.006027588
-0.017719911 -0.008511238 -0.0043653604 -0.0137139615 -0.010059661 -0.009332875 -0.0031880338 0.005078389
-0.00046173105 0.0039075967 -0.00261388 0.004649298 -0.014871586 -0.011095187 -0.0053193616 0.012180502

projection_layer.1.running_mean f4 [128]
00000000: 4328 89bd ac1e bf3d 5eec 673c 4a22 0b3d
00000010: 9d8b 593c e61a 7bbd 75f4 233c 8478 61bd
00000020: 3d46 fbbc 23f1 523d f52f 45bd 4b52 d53c
00000030: 4844 073d 3757 31bd c9a3 86bc 9e0f 943d
00000040: ba64 2c3d 07b0 c13c 5fad c23d 8035 97bb
00000050: 6e37 373d a48a 893d 3781 863c 1c62 d9bc
00000060: b15b 16bc 9e79 dcbc 1662 8a3c a705 d3bb
00000070: 209d 1fbd 0cf5 5fbd 575f cf3c ffe8 a9bd
00000080: 2d85 37bd fc12 7e3b 62c6 503d bb8c 193c
00000090: 2e56 2ebd 0aab d5bc c240 293c 007d cabb
000000a0: e8ac 28bd 1434 bcbc aacf cfbd 0c53 233d
000000b0: 1c17 49bd 953c c33c 7e05 d4bc e6d7 7dbc
000000c0: 3d2e 1a3d 256b 423d c2ee 90bd a07b 943d
000000d0: 2674 343d 918b 42bc d5ab 3a3d 9eb0 b6bc
000000e0: 0ca3 603d e031 e9bd a38d 8bbd 34a9 a63d
000000f0: aa03 a5ba daa5 a7bc a42b ab3c 39a5 3f3d
00000100: 421a ad3d a489 cfbc 46ce d03d c47d 603b
00000110: 75f9 a6bb 5a30 3d3d 87d2 4b3c 148e 673d
00000120: 9fb8 49bc 804a 3ebc 5c51 6a3d d2e2 6a3d
00000130: d38a 8ebc d814 393d 9bb4 603d 7221 c8bc
00000140: d9bb 69bd ed4a 72bd e618 92bd b68f 1bbd
00000150: 3aa2 653d e01a 19bd 218b d3bc ac94 62bd
00000160: 87e9 1dbd e1a8 90bd 683e c03c a1e8 35bd
00000170: ce01 dfbc 7ed6 f2bc 4b30 d2bb c8ca 303d
00000180: 7680 133c 78e5 303d c1aa 6dbc 3218 33bd
00000190: 8499 61bd 31c8 303c 4701 693d d254 173d
000001a0: 53dc 953d 8c16 043d cd7f 88bd b1e7 18bc
000001b0: 72d4 373d c610 843c d90b 48bc 280c c33b
000001c0: 7f62 cb3d 4d66 53bc e36e 243d 6471 ae3d
000001d0: f818 53bc be7a 32bd 8d26 9cbc ff4e 843d
000001e0: 9130 aa3c eb38 1b3c 9e5a ebbc 38c5 0fbc
000001f0: a15a 9a3c f1b5 d7bc bfc8 c2bd 9661 5cbb
-0.066971324 0.09332022 0.014155475 0.033968247 0.013277915 -0.06130495 0.010007014 -0.055046573
-0.03067314 0.051499497 -0.04814144 0.026040217 0.033024102 -0.043296065 -0.01643552 0.07229541
0.042088248 0.023643507 0.09505724 -0.004614532 0.044730596 0.06715897 0.016419036 -0.02653604
-0.009177134 -0.02691346 0.016892474 -0.006439883 -0.038968205 -0.054677054 0.025314016 -0.082963936
-0.04480474 0.003876864 0.050970443 0.009371932 -0.042562656 -0.026082534 0.010330381 -0.006179452
-0.04118052 -0.022974052 -0.10147031 0.03987412 -0.049094304 0.023832599 -0.025881525 -0.015493369
0.037641753 0.047465462 -0.070767894 0.07250142 0.04405608 -0.011874096 0.045574028 -0.022301015
0.054842994 -0.11386466 -0.068141244 0.08137742 -0.0012589593 -0.020464826 0.020894833 0.046788428
0.08452274 -0.025334187 0.101955935 0.003425465 -0.0050956556 0.04618869 0.01244033 0.05653198
-0.0123120835 -0.011614442 0.057206497 0.05734522 -0.01740018 0.045185894 0.05485974 -0.02443001
-0.05706391 -0.059153486 -0.07133655 -0.03797885 0.056062914 -0.037379146 -0.025823178 -0.055317566
-0.038552787 -0.07063461 0.023467258 -0.044411305 -0.02722254 -0.029643293 -0.0064144484 0.043162137
0.009002795 0.04318759 -0.014506043 -0.043724246 -0.055078045 0.010789917 0.056885984 0.036946125
0.07317414 0.032248065 -0.06665001 -0.009332583 0.044880338 0.01612128 -0.012209856 0.005952377
0.09930896 -0.012902808 0.040144812 0.08517721 -0.012884371 -0.043574087 -0.019061351 0.0646038
0.020775111 0.0094740195 -0.028729733 -0.008775048 0.018842043 -0.026331874 -0.095109455 -0.0033627502

projection_layer.1.running_var f4 [128]
00000000: d513 023e 1948 103e 7413 e53d 793b 9c3d
00000010: fbcb c63d bead 123e b1ab 963d 887f 533e
00000020: 0145 ee3d 035e b93d 1941 ea3d d43d af3d
00000030: 0287 d73d b7a8 c63d 58ea e03d 6280 243e
00000040: 756e fb3d 6f92 1c3e 2f04 443e 319b 083e
00000050: dcaf 043e 78f7 b73d c7b5 023e 648a 143e
00000060: b467 bc3d 98d2 1a3e 3d95 213e 2a03 d93d
00000070: dd1d 053e 1bff 493e 11f5 ef3d 604f 0a3e
00000080: 35cd ef3d 221f 153e 7e62 aa3d 1e81 4e3e
00000090: ede8 473e beb6 0f3e 25ac 063e 252d 1c3e
000000a0: 24f1 b63d 81f9 ea3d 78f5 163e 9b1c a23d
000000b0: 79a2 e53d 3de5 e23d dd1b 3f3e 89d6 233e
000000c0: 4f3a 003e 4805 bb3d 5e70 013e 6a3b 0e3e
000000d0: 9f4d d43d 8120 663e 611c 083e 4fbc 113e
000000e0: 072a b73d 9fed b23d 7598 243e d8a1 de3d
000000f0: 6712 f43d c4e7 913d 1023 993d edf7 fb3d
00000100: f11a af3d 8be7 e53d 9323 253e 5041 ca3d
00000110: 3cea 143e 5ab9 013e 521c 343e f4f8 c53d
00000120: 54d1 143e b572 f33d d711 203e e939 283e
00000130: e9a4 dc3d b834 133e 8d29 2d3e b985 023e
00000140: 1d7a e23d 9fff 233e a895 2b3e eec8 e63d
00000150: fe59 e03d 3c91 a73d f71d e43d dfc3 093e
00000160: 5843 a33d f686 be3d 5853 d43d 2e00 453e
00000170: 8a25 223e 8619 343e dbe5 553e 4dce 083e
00000180: 673a 423e a419 fb3d ecd4 b13d 9eee 403e
00000190: e55a 193e 4c58 063e a126 373e 9183 023e
000001a0: e706 613e 6c4d 003e aedf f93d 6afb 283e
000001b0: 9114 0b3e 44dc dc3d 2fcd 183e cb55 ef3d
000001c0: 170d d33d d28d 363e 0b90 0d3e 8ab9 0d3e
000001d0: 9419 093e c34d 503e a702 3f3e 3997 843d
000001e0: fee9 dc3d c700 223e 8ef5 be3d 1594 073e
000001f0: fe1f fe3d a9f6 153e 8654 093e 6bda c23d
0.12702878 0.14090003 0.11185351 0.07628531 0.09706875 0.1432409 0.07356966 0.20654118
0.11634255 0.090511344 0.11438198 0.08556715 0.105237976 0.097001486 0.109821975 0.16064599
0.122769274 0.15290235 0.19142221 0.13340451 0.1295771 0.08982748 0.12764655 0.14505917
0.09199467 0.15119398 0.15779586 0.105963066 0.12999673 0.19726221 0.117166646 0.13506842
0.11709062 0.14562657 0.08319567 0.20166442 0.19522448 0.14034554 0.13151605 0.15251596
0.08932713 0.1147337 0.14742076 0.07915612 0.1121263 0.1107888 0.18662973 0.15999807
0.12522243 0.09131867 0.12640521 0.13889852 0.103663675 0.22473337 0.13292076 0.1423199
0.08943563 0.08736729 0.16073783 0.10870713 0.119175725 0.07124284 0.07477391 0.123031475
0.085500605 0.11225804 0.16126852 0.098757386 0.14542478 0.12668362 0.17588928 0.09666625
0.14532977 0.11887113 0.15631805 0.16428341 0.107736416 0.1437558 0.16910382 0.12746324
0.110584475 0.1601548 0.16756308 0.11268793 0.10954665 0.08181998 0.11138528 0.13453625
0.07971829 0.093030855 0.10367459 0.1923835 0.15834633 0.17587861 0.20888464 0.13359948
0.18967591 0.1226075 0.0868319 0.18841025 0.1497608 0.1311962 0.1788583 0.12745501
0.2197529 0.12529534 0.12200867 0.16502157 0.13582064 0.107842 0.14922021 0.116862856
0.10305231 0.17827538 0.1382448 0.13840309 0.13388664 0.20342164 0.18653356 0.06474156
0.10786818 0.15820609 0.093241796 0.13240083 0.12408446 0.14644875 0.1341115 0.09514316

projection_layer.4.weight f4 [128, 128]
00000000: fb68 59bd e18c 8b3d f703 053d 6d66 3f3d
00000010: 88a7 953d cdc8 62bd 0ff0 773b e851 14bd
00000020: 9bf9 123d 40fc 91ba 2119 97bd c5f0 edbc
00000030: c3bc 603c c138 d33c 236a 27bc 3719 cebc
00000040: 231f 9f3c f644 3a3d 2f4a a5bc b667 123d
00000050: e867 6e3d 8122 3bbd 413a 9fbd 0066 4ebd
00000060: 43c7 863d 2d27 a33d be67 6e3d 0833 a2bd
00000070: e1cd 5bbd 8f16 0b3d dd6f abbc 3726 65bd
00000080: c4d5 fdbc a5d7 a3bd 6832 d03c f024 713c
00000090: f795 e53a 5c0e a73d 5d07 9fbd 925a 253d
000000a0: 0065 aa3d 3b4c 00bb 5d71 babd e031 c63c
000000b0: 84c3 7f3b 2f5c 67bd e0d7 54bd 94f3 8e3d
000000c0: 2e55 5d3d 7f50 223d c191 70bd 2da3 4abd
000000d0: b15a cdbd 7fbf 563d 4975 4dbd 9d90 583d
000000e0: 4209 d4bc a8d1 7fbc 6de1 8fbd dd9e ba3d
000000f0: 1a52 c43c c874 2ebd 8951 dc3c 3f51 9b3d
00000100: 12ab afbd e304 8abb a686 10bd bbcb 3fbd
00000110: bd0a 81bc 25ff e93c ae26 6a3d ac0f 7e3c
00000120: e73a 51bd aa8b 2cbd 453a 1cbb 7e0a b2bd
00000130: a8a2 03bd edba 85bb ca9c 4dbc 853a 4b3d
00000140: 4fb3 883b dd36 383d 927d 503d 77e8 913d
00000150: 7178 253d 9b94 1e3d 4059 703c 24c6 693d
00000160: a7bf d5bc 61e1 10bc 373d 09bc b597 843c
00000170: 280a adbc b14d 9d3d eafc 8abd 83f3 8bbd
00000180: 242d 423d 5d08 933d 39ea 303d 431c 80bd
00000190: 840a 1d3d 5281 86bd 787f 66bd 29c8 453d
000001a0: 55ba 453d 23f0 22bd 04be 9cbd 5589 9bbc
000001b0: 8d41 2c3d 3e99 78bd 6872 013d 272e d53b
000001c0: c7e2 20bd e1e4 43bd 11ae b3bc 4bbb 6c3d
000001d0: 4977 2ebd 4c9a 60bd 800a 61bd ae0c 47bd
000001e0: 5054 4fbd 2f9b a13c 8634 7c3d 756a 93bd
000001f0: 79cc 783d 9686 88bd c081 08bd 2d72 4fbd
00000200: 2c5f 573c 2484 b43d 2e5d 8e3d 301e 973d
00000210: fb75 8ebd b6e6 9f3d 078c 953d a7c2 093b
00000220: 08c4 9cbd b60b 73bb 42b3 993d d676 ddbc
00000230: 165b 14bd b315 863c 4086 893d 33c5 a6bd
00000240: aad5 46bd e739 4f3c 314b 99bd e72a bebb
00000250: 6b78 acbc 3481 533d 8ac1 feba c1e9 04bc
00000260: b91a a4bc 2b54 4f3a ecb8 043d 0de3 8b3d
00000270: f361 a03d 774e dcbb a3b1 8bbd da5a 553d
00000280: 10a6 6cbd f759 a03d a4c1 603d dd44 84bd
00000290: 8f25 853d a443 7abd 5bd8 8c3c f4bb 583d
000002a0: 7463 8a3d d280 80bd 437b 96bd 9eab 26bd
000002b0: 4d6b 963d e8ad d8bc 3261 70bc 26fb dc3b
000002c0: 1990 98bc ab78 97bd 8c50 023d a815 c3bd
000002d0: 0ee0 983d 2f95 673b ba0f 3f3d fd9b 8c3d
000002e0: 38a5 923b 5349 2dbc 8ca2 c2bc 53a0 363d
000002f0: 4ecc 3a3d 8053 983c 6fd8 de3c 051f a03b
00000300: 2062 57bd 6add 0bbd 932e 72bd e30a 8bba
00000310: 78f2 95bc 7d35 bbbc 2aa1 88bd 39ed d1bc
00000320: d67a 2f3d 801f 5a3d 18db 48bd 6231 003d
00000330: 5eb8 913c f578 e0bc 354b 513b 798f 2abd
00000340: 8800 b6bd e565 b8bd 8adc aa3d 231f a13d
00000350: 990a cabb 33ef 4c3d fea9 a8bd e920 213d
00000360: 6ba1 95bd c188 b0bd 462b 163b 8bd8 77bd
00000370: 6103 a7bd 4363 aebd cef4 36bd e141 0f3d
00000380: e00b f83c ec6b cc3c 5cdd 333c 8b9a c2bc
00000390: 4b6c b9bc 5606 9ebd b3fb edbc 6d6d 1cbd
000003a0: 669e b03c dc80 fcbc 09a1 9b3d 9e9b d83b
000003b0: caf1 863c 23a9 413d 55c0 363d 26ad a33d
000003c0: b3ac 7b3d 0d2a 98bc bdd7 7dbd 6ee5 7b3d
000003d0: aa9e 28ba 8468 eabc 59de 56bc c2c0 b1bd
000003e0: 3d8c 6cbd b844 88bc 2ff6 653d 3349 abbd
000003f0: 2510 b2bd a985 a83d 13e8 553d f189 36bd
-0.053078633 0.0681398 0.032474484 0.04672854 0.07307345 -0.05536728 0.0037832295 -0.036210924
0.035882574 -0.0011137798 -0.0737784 -0.029045472 0.013716879 0.025783898 -0.010218176 -0.025158508
0.019424027 0.045475923 -0.020176975 0.035743438 0.05820456 -0.045687202 -0.07774783 -0.050390244
0.06580975 0.079664566 0.058204405 -0.0791989 -0.05366314 0.03395706 -0.020927364 -0.055944648
-0.03098572 -0.08000115 0.02541466 0.014718279 0.0017516006 0.08157036 -0.07765076 0.040369578
0.083200455 -0.0019576687 -0.091036536 0.024193704 0.0039026449 -0.056484398 -0.051963687 0.069800526
0.05403631 0.03962755 -0.05873275 -0.049472023 -0.10027064 0.05242872 -0.05016068 0.05287229
-0.02588332 -0.015613951 -0.070254184 0.09112332 0.02396493 -0.04259184 0.026894348 0.07583856
-0.08577551 -0.0042120083 -0.03528466 -0.046825152 -0.01575219 0.028564045 0.057165794 0.015506666
-0.051081564 -0.04212538 -0.0023838442 -0.086934075 -0.032137543 -0.004081121 -0.012549588 0.049616355
0.004171766 0.044974197 0.050901003 0.07124417 0.040398065 0.03871594 0.014669716 0.057073727
-0.026092364 -0.008842797 -0.008376411 0.01618562 -0.021123007 0.07680834 -0.06786521 -0.068335555
0.04740633 0.071793295 0.043192122 -0.062553905 0.038340107 -0.06567635 -0.056273907 0.04828659
0.048273403 -0.039779793 -0.0765343 -0.018986383 0.0420547 -0.06069302 0.031603247 0.006505746
-0.03927877 -0.047825698 -0.021933587 0.057795804 -0.042594228 -0.05483465 -0.054941654 -0.048596077
-0.050617516 0.019727318 0.061573528 -0.071980394 0.060741875 -0.06666295 -0.033326864 -0.050645996
0.013145249 0.08814266 0.06951366 0.07378805 -0.06956097 0.078076765 0.07302099 0.0021020563
-0.076545775 -0.0037085838 0.07504894 -0.027034204 -0.03621968 0.016367769 0.06715059 -0.081430815
-0.04854361 0.012648082 -0.07485045 -0.005803454 -0.021053514 0.05163689 -0.0019436341 -0.008112372
-0.020032274 0.00079089653 0.032402918 0.06830416 0.07831182 -0.006723221 -0.06820991 0.052088596
-0.057775557 0.078296594 0.05487217 -0.06458447 0.06501304 -0.061099663 0.01719301 0.05291362
0.067572504 -0.062745705 -0.07347729 -0.04069101 0.07344685 -0.026450112 -0.014671611 0.0067438064
-0.018623399 -0.073960625 0.031815097 -0.09525615 0.0746461 0.0035336723 0.046645857 0.0686569
0.004475262 -0.010576564 -0.023759149 0.04458649 0.045604996 0.018594503 0.027202813 0.0048865103
-0.052583814 -0.034146704 -0.059126448 -0.0010608103 -0.018304095 -0.022852654 -0.066713646 -0.025625812
0.042841755 0.053252697 -0.04903707 0.031297095 0.017788108 -0.027401427 0.0031935696 -0.041640732
-0.0888682 -0.0900381 0.08342846 0.07867267 -0.006165814 0.050032806 -0.082355484 0.039338026
-0.07306179 -0.08619834 0.0022913977 -0.060509246 -0.08154941 -0.085150264 -0.044667058 0.034974936
0.0302791 0.024953805 0.010978069 -0.023755332 -0.022634646 -0.07716052 -0.029050684 -0.038190294
0.021559905 -0.030823164 0.075990744 0.006610348 0.016472716 0.047280442 0.044617016 0.0799201
0.061443996 -0.018574739 -0.061973322 0.061498098 -0.0006432334 -0.02861429 -0.013114535 -0.08679344
-0.05775093 -0.01663433 0.056142982 -0.08363571 -0.086944856 0.08228619 0.052223276 -0.044565145

projection_layer.4.bias f4 [128]
00000000: 4a50 9fbd f19f 333d 7bf0 c03c 09c8 ed3b
00000010: 6549 a8bd df59 5bbd c630 81bd eac4 8bbc
00000020: 6023 63bd 16a9 1a3c cbf0 ba3d e93b 91bd
00000030: 90e5 5c3d 6f94 64bd a165 89bd d95a 9abc
00000040: 32ce 70bd 5ed7 d63c de2e 9fbd 6677 8dbd
00000050: b9d7 963d 1b53 b2ba 765b b63b 2a71 903b
00000060: 2f04 26bb 4ad9 d439 7780 ab3d ab09 aebd
00000070: 494b 783d 386e e73c 9a72 47bd b549 273d
00000080: 424f d3bc ffa5 8bbd c10f c7bc 9589 7a3c
00000090: a746 98bd 8556 9d3d 3b14 cbbb 3b54 3dbc
000000a0: 704e 92bc e442 8d3d ed9a 903b c724 50bd
000000b0: 064a 903d 0b3d 2dbd b131 ba3c 8704 58bd
000000c0: 72f4 82bd adc7 03bd ef97 7dbd 241a 0d3c
000000d0: a721 46bd 373c 7fbd 9e36 ecbc c537 093d
000000e0: 1f17 de3b 0991 0dbc 6b87 1d3d 1ca2 683d
000000f0: 5bee 1d3c d3e7 893d eb1c 52bc 4842 8c3d
00000100: 42bb 32bc aff6 243d cb7e 423d 8d74 82bc
00000110: 9fdf 703d 5ef0 233d 4018 953c 426b 433d
00000120: 653d c13c 3eb1 273b 9fb6 23bd bd8c e5bc
00000130: aff9 30bd 2306 94bd f475 be3b c02e 383d
00000140: 953a 4fbb 1456 b1bd 69a8 a6bd c379 04bd
00000150: 90ea 81bd d054 4d3d cefb 14bd e0b9 9d3d
00000160: 7310 49bd f103 43bd 733d 893d 7fc9 4d3a
00000170: db6c 38bc b40d d9bc d07d bbbc 02ef 6c3d
00000180: 57a1 8ebc 5216 223d a721 64bc a72c 733d
00000190: 28c0 8fbb 045b 35bc dd04 a23c 98ae 8bbb
000001a0: 2c61 86bd 50f0 1d3d cfba b2bd d727 963d
000001b0: d12b 73bd e80c c53c 1458 7abd f3c2 b5bd
000001c0: d754 663d a02c debc f631 70bd a380 6cbd
000001d0: b5e2 513d ef89 9bbd 924f 513d 4a2e 493b
000001e0: 1757 7abd 9959 093d 0179 fc3c 81d6 353d
000001f0: 3a8d fcbc 0e46 ff3c 68a1 fabc dda5 b9bd
-0.07778986 0.043853704 0.02355217 0.007256512 -0.08217124 -0.053552505 -0.06308131 -0.01706167
-0.055453658 0.009439727 0.09127959 -0.07091505 0.053929865 -0.05580562 -0.06708837 -0.018842148
-0.058790393 0.026225742 -0.07772611 -0.06907539 0.073653646 -0.001360509 0.005565102 0.0044080215
-0.0025332083 0.00040597684 0.08374112 -0.08497938 0.060618673 0.028250799 -0.048693277 0.040841777
-0.025794629 -0.068187706 -0.024299504 0.015291591 -0.07435351 0.07682518 -0.00619748 -0.011555727
-0.017859668 0.06897524 0.004413 -0.050816324 0.07045369 -0.042294543 0.022728773 -0.052738693
-0.063942805 -0.032172848 -0.061912473 0.008612189 -0.048371937 -0.062313285 -0.028834637 0.03350045
0.0067776586 -0.008640536 0.038459223 0.056795225 0.009639348 0.0673367 -0.012824277 0.0684858
-0.010908904 0.04027432 0.0474842 -0.015924716 0.05880701 0.040024154 0.01820004 0.04770971
0.023588846 0.0025587822 -0.039969083 -0.02802121 -0.043206867 -0.07227733 0.005812401 0.04496646
-0.003162061 -0.08658996 -0.081375904 -0.032342684 -0.06343567 0.05012971 -0.036372952 0.077014685
-0.049087953 -0.04761118 0.06701174 0.00078501547 -0.011256422 -0.026495792 -0.02288714 0.057845123
-0.017410917 0.039572068 -0.013924039 0.059368756 -0.0043869205 -0.011069063 0.01977771 -0.0042627566
-0.06561503 0.038559258 -0.08727037 0.073318176 -0.05936796 0.024054006 -0.061119154 -0.08875074
0.056233253 -0.027120888 -0.058641396 -0.057739865 0.051241595 -0.07594668 0.051101275 0.0030697756
-0.06111821 0.033532713 0.030819418 0.04439402 -0.03082906 0.031161334 -0.030594543 -0.09064839

output_layer.weight f4 [1, 128]
00000000: e6a3 c2bd 2ceb 3d3d f482 963d 260f 3fbd
00000010: 0482 c43d 407e 873c cd32 6cbd 7696 54bd
00000020: d976 0cbd 528d 77bb 92b6 373c 6e02 91bd
00000030: 73aa 9dbd c95b 14bd 1dd4 67bc 220a a13d
00000040: c5c4 503d 994e 203d 36f5 1cbd e15c 883d
00000050: ba4a cabb 31ec ec3a f4fe b63c b2e3 c23c
00000060: 8164 0e3d c6fd 82bd dbc3 7a3d 2772 9fbb
00000070: 3a4f 3d3b 1e0c 863c 97ac cc3c 4e46 64bd
00000080: 3feb 813d c475 423d a2f4 b1bc 2168 07bd
00000090: d760 6ebc c770 0a3d 4de4 2d3b 332b 76bd
000000a0: 2979 6fbd 9b4d 53bd 27dd 96bb 61f7 143d
000000b0: f3f4 60bd 4ad2 25bd 8fb3 98bd f1ab 693c
000000c0: 76e8 a83d be15 66bd eb22 b9bc f20e e1bc
000000d0: 1e3d 8fbc 2c39 2f3d 849d 833c f9bb 803d
000000e0: e265 70bb e6fa 7e3b c4b9 35bd a369 6ebd
000000f0: 88d5 383c 428c 553d 7f3e 49bd 657e 1fbd
00000100: d067 60bd fbe5 98bc de3f 013d 0547 46bd
00000110: 5642 f8bc 77f0 75bc 5560 e03c f62b 3f3d
00000120: 8d80 9ebc 4b9a 9c3d a332 a53b 02ef 833d
00000130: 5188 23bd 3cd6 313d 63a7 24bd 05b1 933d
00000140: d135 c6bc 9c54 723d 0236 02bd 87e3 82bd
00000150: 7539 9f3d 5420 b43c d3e9 a2bc d801 58bd
00000160: f75d 66bd e982 183d 6632 0dbd 0f2b 86bd
00000170: 61f0 b8bc 7a44 223d e1ff 42bd 966f 50bd
00000180: b0a2 88bd 60a4 4dbd 604b 3d3d b9c4 863c
00000190: dcee 9fbd daf2 ac3d 4f54 c83c fc8b 5fbd
000001a0: a472 8bbd 5202 59bd c9af 9abd 3850 b6bd
000001b0: 7d46 8abd abf1 883c bcd9 25bd a996 393c
000001c0: 33eb bebc cc88 a63c 5868 64bd e146 93bd
000001d0: 49b0 8ebd 4258 6d3c eaa1 853d 8754 afbb
000001e0: 7f1c 543d 6a5a 8dbd 5f74 04bd 8cdd 0bbc
000001f0: 6399 93bd b56f b63d 82fa 343c a241 f1bc
-0.095039174 0.046366856 0.07349196 -0.046645306 0.09595111 0.016539693 -0.057665635 -0.051901303
-0.03429303 -0.0037773442 0.011212962 -0.070805416 -0.07698526 -0.036220346 -0.014149693 0.07863261
0.050968904 0.039137457 -0.03831979 0.0665834 -0.006173459 0.0018075762 0.022338368 0.023790214
0.034763817 -0.0639606 0.06122194 -0.004865903 0.0028886334 0.0163632 0.024984641 -0.05573111
0.06343698 0.04747559 -0.021723095 -0.03305829 -0.014549456 0.03379896 0.0026533783 -0.06009979
-0.058465157 -0.051587682 -0.004604 0.03636873 -0.0549211 -0.04048375 -0.07456123 0.014262185
0.082474634 -0.05617308 -0.022599658 -0.027472947 -0.017485198 0.042779133 0.01606632 0.06285853
-0.003668182 0.0038906871 -0.044366613 -0.05820621 0.011281379 0.052135713 -0.049131867 -0.0389389
-0.054786503 -0.01866435 0.03155505 -0.048407573 -0.030305069 -0.015010945 0.027389685 0.046672784
-0.019348407 0.076466165 0.0050414368 0.064420715 -0.039924923 0.0434172 -0.040198695 0.07211498
-0.024195584 0.05916272 -0.031789787 -0.06391054 0.07774631 0.021988072 -0.019886887 -0.052736133
-0.056241956 0.03723422 -0.03447189 -0.065511815 -0.02257556 0.039616086 -0.047607306 -0.050887667
-0.06671655 -0.05020559 0.04621446 0.016451227 -0.07809231 0.08444758 0.024454264 -0.05457686
-0.06808975 -0.05298073 -0.075530596 -0.08902019 -0.06751726 0.016716799 -0.04049085 0.011327424
-0.023305511 0.020328902 -0.055763572 -0.071912535 -0.069672175 0.014486374 0.06525023 -0.0053506526
0.05178499 -0.06902011 -0.032337543 -0.008536708 -0.072069906 0.08908025 0.011046054 -0.029450241
