Checkpoints/HR_V/valence_s10.pth (torch, 461905 bytes, 29 tensors)

input_layer.weight f4 [128, 29]
000000 4f 64 2d 3e d3 0e 73 3c a9 4b 84 bc 8e 96 cc 3d
       0.16932796 0.014835077 -0.016149359 0.099896535
000010 84 7a c0 bd 13 42 39 bd 38 2a 12 3d 64 61 f1 bd
       -0.09398368 -0.04522903 0.035684794 -0.11786154
000020 32 1d 0f 3e 49 91 3a be c2 ba 18 be cc e8 a7 bd
       0.13975981 -0.18219484 -0.14914992 -0.08198699
000030 ad 9a bb 3d 6b 16 55 bd 44 79 0e 3e e9 fe f0 bc
       0.091603614 -0.052023333 0.13913447 -0.029418426
000040 8d 43 14 bd db 16 f1 bd c4 68 03 be 0d 1c c9 bd
       -0.036197234 -0.117719375 -0.12832934 -0.098198034
000050 ab e7 eb 3d 93 19 0d be 77 96 34 bd 0b 10 32 3d
       0.115187965 -0.13779287 -0.044088807 0.04347233
000060 42 2a d7 bd dc d6 57 bd 8f bd 73 3d 4b aa c0 bd
       -0.10506107 -0.05269514 0.05950695 -0.09407481
000070 84 8f 05 3e c9 fe 10 3e f8 d5 bb 3d 25 e7 de 3d
       0.13043028 0.14159693 0.09171671 0.10883931
000080 13 23 14 be a4 62 21 3d 51 2c 35 3e d1 c9 a6 3b
       -0.14466505 0.03940071 0.17692687 0.0050899764
000090 2f df 20 3c 34 5e 10 3e 75 78 ff bd 58 fd 01 3e
       0.009818836 0.14098436 -0.12474147 0.12694299
0000a0 26 e9 9d bd fd b7 3f 3d 85 5b 97 bd 30 5b 3f be
       -0.07710485 0.046806324 -0.07390503 -0.18687129
0000b0 f3 cd b7 bd 2e e9 f2 bd c0 6e 08 bd b2 ca 1f 3e
       -0.089748286 -0.11860882 -0.033308744 0.15604666
0000c0 93 ec a5 bd 71 ad 3c 3d b7 8d 90 3d c8 74 86 bd
       -0.081017636 0.046063844 0.0705828 -0.06565243
0000d0 0f dd 69 3d 4d b5 d4 3d cc e1 22 3e 63 e6 2e 3e
       0.057095584 0.10386143 0.15906447 0.17080073
0000e0 af 1f 1a be 4e 1d aa 3d 8e f5 29 be 77 3a 40 3e
       -0.15051149 0.08306371 -0.16597578 0.18772303
0000f0 91 3f 93 bd 7e 93 93 3d e1 0f 03 3e 41 bd 3a 3e
       -0.07189859 0.07205866 0.12799026 0.18236257
000100 86 68 f9 bd d6 d7 a3 3a e8 5c 4a bc 30 bd 2e 3c
       -0.121781394 0.0012500237 -0.012351252 0.010665223
000110 d5 1e a1 3d 0e 33 2f be 80 04 a9 3c 0d 17 d1 3d
       0.07867209 -0.1710932 0.020632029 0.10209475
000120 8d c4 95 bd 83 03 2f 3e 83 79 86 bc 6a 17 05 3e
       -0.0731288 0.17091183 -0.016415363 0.12997213
000130 15 e9 34 be 58 8a fc 3b f4 01 a1 3b b5 98 ff 3d
       -0.17667039 0.0077069215 0.004913563 0.124802984
000140 4c 66 bc 3d a2 8e 2b be 96 d9 1a be 2b 6b 2a 3e
       0.09199199 -0.16753629 -0.15122065 0.16642444
000150 68 5c 25 3e 66 a4 b5 bd 74 87 14 3e 62 d8 39 be
       0.16148531 -0.08869247 0.14504796 -0.1814895
000160 99 1e f6 bd b9 81 a6 bb fa 04 f4 bd a3 e4 85 3d
       -0.12017555 -0.005081382 -0.11915012 0.065377496
000170 93 88 62 3d f5 97 c7 bd 65 55 29 3e 25 bf ad 3d
       0.05530603 -0.097457804 0.16536482 0.084837236
000180 e5 eb 08 be 51 53 17 3e 65 36 80 3d 90 67 6f bb
       -0.13371237 0.14777876 0.06260375 -0.0036530234
000190 cb bf 6d 3d 2e d8 29 3e 3b 2a f5 3d 97 dd 09 3e
       0.058044236 0.16586372 0.119709454 0.13463436
0001a0 c4 b3 b7 3c aa 29 b0 bd 83 63 08 bd 3b bd 82 bd
       0.022424586 -0.08601697 -0.033298027 -0.06383749
0001b0 5d 03 2e be 6e aa 3a bd c4 ac 92 3d 6e 9f 58 bc
       -0.1699347 -0.04557269 0.07161859 -0.013221605
0001c0 9c 63 19 be 4a 27 d7 3d 41 02 e4 bd 65 d1 8a 3d
       -0.14979404 0.10505541 -0.111332424 0.0677822
0001d0 27 ce 4d 3c 63 64 13 3e 04 bd a7 bd 5a 72 11 3e
       0.012561358 0.14393763 -0.08190349 0.14203778
0001e0 52 41 9a bd f8 8a 31 be c5 fa 0a 3e 4f b9 73 3a
       -0.0753199 -0.17338169 0.13572223 0.00092973275
0001f0 d0 a6 f2 bb 1a 9c 9a bd ac 15 f3 bd c8 c2 85 bc
       -0.0074051395 -0.07549305 -0.11869368 -0.01632823
000200 8a bd cd 3d 63 6b 12 3e e7 b8 e4 bd 7b 4b a5 b9
       0.10045917 0.14298777 -0.1116808 -0.0003152749
000210 c3 7a aa 3d a4 1f 13 be 5d d2 0b 3e 8a be 80 3b
       0.08324196 -0.14367539 0.13654466 0.003928964
000220 1a bf 0e 3e b8 dd 25 3e f5 8d 12 be 2f 07 86 bd
       0.13940087 0.1619786 -0.14311965 -0.06544339
000230 e1 a2 d5 3d e7 b0 b5 3d dc 5e 33 3e 50 a5 f9 3d
       0.10431457 0.08871632 0.17516655 0.12189734
000240 ba f3 96 bd 2d 32 7b bd 9b 99 a6 3d dc a3 e9 3d
       -0.07370706 -0.06132715 0.08134767 0.11408207
000250 c0 a5 d7 3d 62 24 75 3d 49 58 bc bd 02 11 1a be
       0.10529661 0.05984915 -0.091965266 -0.1504555
000260 5a 90 03 3e 05 72 31 3e 67 66 29 be df bd 1a 3e
       0.12848035 0.17328651 -0.1654297 0.15111493
000270 46 e9 68 3d 51 c9 b2 3d 5e 98 cc bd 78 b2 4f 3d
       0.056863092 0.08729804 -0.09989999 0.05070731
000280 f1 79 23 3e cb 3b 28 3c ad 4e 69 bc be 71 37 be
       0.15964486 0.010268162 -0.014239949 -0.17914483
000290 15 76 01 3e ff cd 02 3e 1e 4b e6 bd 11 d4 3d bd
       0.12642701 0.12773894 -0.11244796 -0.04634482
0002a0 d3 ea 06 3d 7d 8e f7 bd 97 61 21 be c8 77 89 3d
       0.03293879 -0.12087724 -0.15759884 0.067122996
0002b0 e3 a3 d1 bd 19 ac 10 be 73 c5 c6 3d bf 28 ce 3d
       -0.10236337 -0.1412815 0.09705629 0.100663655
0002c0 3b 3d 9e bb 90 59 8e bd 86 27 78 3d c3 05 37 bc
       -0.0048290766 -0.069506764 0.060584567 -0.011170807
0002d0 92 ad 68 bc 06 2c 02 be ed d8 32 be 2d 90 32 be
       -0.014201539 -0.12712106 -0.17465563 -0.17437811
0002e0 1a 66 4b 39 c5 0c 30 be 68 f6 78 3b 95 72 fe 3c
       0.00019397624 -0.17192371 0.0037988666 0.031060496
0002f0 a9 1b 0c 3d 25 6e 2f be 70 1b 01 3e 3f 8b bd bc
       0.034206066 -0.1713186 0.12608123 -0.023137687
000300 23 e0 ba bd a6 0c 06 be 12 83 cd bc c0 36 11 be
       -0.09124782 -0.13090762 -0.025086913 -0.14181042
000310 8a 1d dc bd 28 7c 14 be 0b 07 10 bd 57 02 02 3c
       -0.10747822 -0.14500487 -0.035162967 0.007935128
000320 14 09 15 3e 62 53 20 be ca 9d 2a 3e ba 1a d0 bd
       0.14554244 -0.15656808 0.16661754 -0.10161348
000330 3c 3b 27 bd ca 54 16 3c f0 86 2f 3d 91 88 90 bd
       -0.040827975 0.009175489 0.042853296 -0.07057298
000340 63 45 ad bd f2 b8 c1 3d 20 36 27 3e c3 b5 1e 3c
       -0.084605 0.09459104 0.16329241 0.00968689
000350 6f 28 3c bd 06 8a 21 3e a5 85 1f 3e 9d dd e6 bb
       -0.045936998 0.15775308 0.15578325 -0.0070454613
000360 71 fa 96 3d f3 b3 e4 3d c5 01 fe 3d d6 0f ce 3c
       0.07371987 0.11167135 0.12402681 0.025154036
000370 c9 68 3a be ad cd dc 3a 1f 8b 1a be 9f a8 b9 bd
       -0.18204035 0.0016845964 -0.15092133 -0.09065365
000380 12 cb d3 3c 0f 55 00 3e d4 15 32 3d ad 54 1a 3e
       0.025853667 0.12532447 0.04347785 0.15071364
000390 e1 da e5 bd a6 d7 28 be ec 4f 31 bd fb e6 43 3d
       -0.112233885 -0.16488513 -0.04328911 0.047827702
0003a0 47 e9 83 3d ca b6 1c be 3d d3 db 3d a1 0e 75 3d
       0.064409785 -0.15304103 0.1073365 0.059828404
0003b0 2b 32 a3 3d 7d cf fe 3d d1 6b 84 bd 43 8e 32 be
       0.07968553 0.12441919 -0.06465877 -0.17437081
0003c0 87 26 5c bd 6d 54 23 be 3d a4 a1 3d 72 9a a8 3c
       -0.05374768 -0.15950175 0.07892654 0.020581458
0003d0 b1 9b ee 3d ba 9d 38 be f8 b4 af bc 04 2f a2 bd
       0.116507895 -0.18028918 -0.021448597 -0.07919124
0003e0 27 3d 6d bd be f6 c3 3d 90 bf 06 be d2 66 62 3d
       -0.057919648 0.09568547 -0.13159013 0.05527384
0003f0 d0 9b fd bd c6 b8 d8 3d fe 41 8a bc 81 8a f8 bb
       -0.123832345 0.10582118 -0.01687717 -0.0075848703

input_layer.bias f4 [128]
000000 d0 6f a9 3a 23 b1 05 3d d1 f2 f1 38 f8 ea ea bd
       0.0012927 0.032639634 0.000115370036 -0.11470598
000010 df 96 5e 3d d4 76 83 3d 67 9b b1 3d 6f b1 cc 3d
       0.0543431 0.06419149 0.08672219 0.0999478
000020 8e 5b 02 be 0e d8 29 3e 44 52 03 bb f5 a9 0a 3e
       -0.12730238 0.16586325 -0.0020038048 0.13541396
000030 91 25 0a be 33 5e 4e bd 50 0c 8f bd b8 91 a9 3b
       -0.13490893 -0.050382804 -0.0698477 0.0051748417
000040 7d cc 1e be 5a e6 8e bd a3 7e 62 3d fb f3 14 be
       -0.15507694 -0.0697753 0.05529655 -0.14546196
000050 80 79 78 3d 48 9f 09 bc 95 cb c0 3d 5a b8 00 3e
       0.060662746 -0.008399792 0.0941383 0.12570325
000060 f1 98 c6 3d ae 76 0f be 7c 8f 27 3e 56 f8 20 3e
       0.0969714 -0.14010116 0.16363329 0.15719733
000070 c9 59 78 3d d2 20 a4 38 ee fb b6 3d 35 40 5a 3c
       0.0606325 7.826243e-05 0.089347705 0.013320972
000080 22 63 26 be 5d 3e fc ba 11 51 9b bd cd b8 0b 3e
       -0.16248754 -0.001924466 -0.075838216 0.13644715
000090 9c b0 38 bd da e4 84 bc 10 e5 05 3e 9d ce 80 bc
       -0.045090303 -0.016222406 0.13075662 -0.01572352
0000a0 1b e5 85 3d 6b ae 8f bd f4 a5 1d be 0d 18 25 3e
       0.06537839 -0.070156895 -0.15395337 0.16122456
0000b0 95 2b f6 bc 9d ed 30 3c 43 c4 af bd 72 88 3b 3c
       -0.030050078 0.010798839 -0.08582356 0.011446105
0000c0 59 2a a1 bd 54 ad 04 be fc 17 00 3e e7 00 17 bd
       -0.07869405 -0.12956744 0.1250915 -0.036866095
0000d0 1b 38 03 be 03 fe 26 be 4f 55 ed b9 b5 aa af bd
       -0.12814371 -0.16307835 -0.00045267722 -0.08577482
0000e0 db eb e6 bd 6c a3 1d be 32 52 9f bc e2 ee 09 be
       -0.112754546 -0.15394372 -0.019448373 -0.13470033
0000f0 4d 93 8d 3d ef 04 03 3e 96 58 9a bd c0 36 d7 3d
       0.06912861 0.12794851 -0.07536428 0.105084896
000100 f8 23 46 3d a1 69 1f bd 92 a9 a8 bd 4a 68 c1 bd
       0.048374146 -0.038919095 -0.08235468 -0.0944372
000110 c4 7d 92 bd a8 29 19 3e ab 08 1b be d5 85 38 bd
       -0.07152894 0.14957297 -0.15140025 -0.045049507
000120 7c da f8 bd 0f 69 15 be 47 1f d2 3a 77 83 77 3d
       -0.121510476 -0.14590858 0.001603105 0.06042811
000130 52 59 ab 3d 76 4e cc bc f7 9c 24 3d 2e 25 be 3b
       0.08366646 -0.024939757 0.040188756 0.005802772
000140 61 de 33 bc 9f 2f 4a bd 6e f2 79 bd dd cc 94 3d
       -0.010978312 -0.04936182 -0.061022215 0.07265637
000150 87 d9 bf bd b5 18 a4 bc 47 39 fb bd 1b 19 63 bd
       -0.09367662 -0.020031312 -0.12266784 -0.055443864
000160 5b 45 6a 3d 2d 2f 20 3e 3e 7b f1 bd de 5a cd 3c
       0.05719505 0.15642996 -0.11791085 0.025067743
000170 a8 ac c8 3d 54 22 c8 3c b8 74 85 bd 65 bc 54 bb
       0.097985566 0.024430431 -0.06516403 -0.0032460925
000180 c2 20 2e 3e 69 15 16 be eb e8 0d be 5e a3 48 3d
       0.17004684 -0.14656605 -0.13858382 0.048983924
000190 e7 e0 39 3b a7 a8 0e 3e d6 21 e8 bd c8 bc a3 b9
       0.0028362812 0.13931523 -0.11334579 -0.00031230436
0001a0 f8 bf fe bc a3 76 08 3e 28 f9 dc 3d 85 ab de bd
       -0.031097397 0.13326506 0.1078971 -0.108725585
0001b0 95 ad 13 3e c7 92 8e 3d 8b 9c 66 3d eb 6f 10 be
       0.14421685 0.06961589 0.056301635 -0.14105193
0001c0 48 4c cc 39 aa b5 c7 3d aa 4b 0e 3e 34 ad b1 bc
       0.00038966746 0.097514465 0.13896051 -0.021689035
0001d0 d1 0a a6 bd fc e6 91 bd dd 44 07 be 31 8c ea 3d
       -0.08107532 -0.07124135 -0.13209863 0.11452521
0001e0 45 f4 41 3b e0 aa 8d 3d f4 70 fa 3d 6e ba 05 bd
       0.002959506 0.069173574 0.12228575 -0.032648496
0001f0 16 52 ca 3c 85 56 0c 3c c6 ae c8 bd 28 71 d1 3d
       0.024697345 0.00856555 -0.097989604 0.10226661

projection_layer.0.weight f4 [128, 128]
000000 b0 ef 25 3d 03 69 43 3d cc fd 5b 3d 51 b3 36 bd
       0.040511787 0.04770757 0.053708836 -0.044604603
000010 6e 87 f2 3c 5e 34 0f 3d 79 24 a8 3d 5f 0e 00 bd
       0.029605594 0.03496205 0.082100816 -0.031263705
000020 bb d5 47 bd 73 36 a9 3d 7d c2 85 3d cc 81 12 bd
       -0.048787814 0.082623385 0.06531236 -0.035768315
000030 90 57 66 bd 1a a7 27 3c 0c a8 96 bb bd 76 64 3c
       -0.05623585 0.010232711 -0.0045976695 0.013944325
000040 e8 a0 15 3c ee 29 b5 3d 28 46 37 3d 9f ea b4 3d
       0.009132601 0.08845888 0.04474464 0.08833813
000050 c0 c3 9d 3d 64 97 9d ba 59 2d 7c bd 9a 96 34 bd
       0.07703352 -0.0012023267 -0.061566684 -0.044088937
000060 b1 1d 8c 3c 16 02 5b bd 78 34 3a bd a8 b3 85 3d
       0.017104002 -0.053468786 -0.045460194 0.06528407
000070 37 93 aa bd 43 b4 87 3d 79 48 5f bd 24 3f 31 3d
       -0.0832886 0.06626179 -0.054512475 0.043273106
000080 5b 5a 5e bc e1 4a 72 3d 3c 3a 17 bd 2f 8e 9f 3d
       -0.013571347 0.05915344 -0.03692077 0.07790791
000090 0d f0 4d bd c9 21 7e 3d bf a2 8b bd 12 7d 5b 3a
       -0.05027776 0.06204394 -0.06818151 0.0008372824
0000a0 20 c5 8f 3c 74 9c 8a 3c 5e 3d ea 3c 97 bf ae 3c
       0.017550051 0.016920306 0.028593715 0.021331592
0000b0 8c b3 60 3b 91 ca a1 3d 8d 64 68 3b bc 35 58 3d
       0.0034286706 0.078999646 0.0035460324 0.05278562
0000c0 a8 f2 a0 bc 30 1c bb bd 8f 97 55 3c 7d 02 00 bd
       -0.019646958 -0.09136236 0.013036623 -0.031252373
0000d0 53 b1 30 bd 51 6b 8a 3d 1e da e3 39 0b 98 7d bc
       -0.04313786 0.0675875 0.00043459324 -0.015478144
0000e0 9a 29 8f 3c 20 67 61 3d cb 36 87 3d a3 0b 91 3d
       0.017475892 0.05502999 0.06602248 0.07082298
0000f0 5c f7 86 3c 63 ed 26 3d 11 d4 79 bc 3c 5e 4d 3d
       0.016475372 0.040753733 -0.0152483145 0.050138697
000100 47 6d 21 bd 52 01 2b bd 38 ec 3b bd d5 a9 84 3d
       -0.039410856 -0.041749306 -0.045879573 0.064777054
000110 5f 9e 38 bd 7f e5 a6 3d d5 21 0b 3d ba 31 37 3d
       -0.04507291 0.08149242 0.03396781 0.044725157
000120 7f b9 23 bd 09 1e 63 3d 5f d5 98 bc c6 0e be bc
       -0.039971825 0.055448566 -0.01865643 -0.023200404
000130 bd 98 4c bd a4 90 4c bd 26 8e 8e bd 4d 0d d9 3b
       -0.04995035 -0.049942628 -0.069607064 0.0066239
000140 b8 8b a2 bd 94 a9 6c 3d 87 6c 99 3c ab 8f 12 3d
       -0.079368055 0.05777891 0.018728508 0.035781544
000150 ff 6e f7 bc bd c6 8b bd e5 55 98 bd 77 4b b1 3d
       -0.030204294 -0.06825016 -0.07438258 0.08656972
000160 1d 83 1f bd 41 92 8f bd e7 be d3 3c d4 14 6d bc
       -0.0389434 -0.070103176 0.025847865 -0.014470298
000170 2a b7 80 bd 5e b4 8d 3d 38 d4 7e 3c f9 a5 6a bd
       -0.06284936 0.06919168 0.015553527 -0.05728719
000180 35 4d 53 bd 8e 4b b7 bd f1 09 01 3d 30 eb 46 bd
       -0.051587302 -0.08949958 0.03150362 -0.048564136
000190 bb 02 96 3d 72 e0 6d 3d 6f 49 97 3d 10 fb 1d bd
       0.073247395 0.058075376 0.07387053 -0.03856951
0001a0 08 7c fa 3c ef 84 cb bb 71 70 33 3b a1 8d 49 bd
       0.03057672 -0.0062109153 0.0027380253 -0.049207333
0001b0 96 72 40 3b 6c 40 87 bc 68 d3 71 bd 2e fc 96 bb
       0.0029365174 -0.01651021 -0.059039503 -0.004607699
0001c0 c7 a5 be bc c8 f2 8b ba dd a6 9e bd f6 09 9a bd
       -0.023272408 -0.0010677213 -0.077466704 -0.07521431
0001d0 6e eb 5a bd 86 12 97 bd bd 13 00 bd 35 55 06 3d
       -0.05344718 -0.0737658 -0.031268824 0.032796104
0001e0 dd 1c 33 bd b1 24 82 3d c7 5e 23 3c 22 b9 1b 3d
       -0.043728698 0.063546546 0.009971327 0.038018353
0001f0 b9 6d ec bc 02 99 8b 3d 2d 6b ed 3c 90 70 7d 3c
       -0.028860914 0.06816293 0.02898177 0.0154687315
000200 0d 0a 75 3d 5e 36 da bb 1d be 28 3d df f3 6c bd
       0.05982404 -0.006659313 0.04119693 -0.05784976
000210 e3 c4 32 3c a8 25 a7 3d 7b c7 de 3c 8f 1b 8a 3d
       0.010911199 0.08161479 0.02719473 0.06743538
000220 07 cf c2 3c 76 02 ff bb 16 6c bd bd 43 99 db bc
       0.023780359 -0.007782276 -0.092491314 -0.02680648
000230 af 97 16 3d fb 2a ad bd b3 ef 99 3c 41 2c 50 bc
       0.03676575 -0.084554635 0.018791055 -0.012705863
000240 72 9b 3d bc 26 8c 90 3c dc b6 0f bd 33 a7 93 3d
       -0.011572706 0.017644953 -0.035086498 0.07209625
000250 14 a2 0b bd 90 d5 80 3c bc 29 8d 3d ca c5 05 bd
       -0.034090117 0.015726835 0.06892726 -0.03265933
000260 5e 28 95 3d 5c 5b e6 bc c3 b8 7d 3d 1a df 86 3d
       0.0728309 -0.028119735 0.06194378 0.06585522
000270 3d 86 fd bc 6f 1b b2 bd f7 56 b7 3d cd 00 ca bd
       -0.030947799 -0.08696639 0.08952134 -0.09863434
000280 56 20 9a 3d c5 6a 89 3d 12 e2 8a bc b2 96 92 3c
       0.07525699 0.06709818 -0.016953502 0.017894123
000290 a9 2e fe bc e9 f0 a4 3d 1c c3 28 bd 5e a8 94 bd
       -0.031028109 0.080537625 -0.041201696 -0.07258676
0002a0 78 cd b6 bd 97 0a 32 3a 64 58 eb 3c d2 9f c8 bc
       -0.08925909 0.0006791739 0.028728671 -0.02449027
0002b0 c1 cc a5 bd 48 73 0e bd e6 5d 90 bd 39 65 29 bd
       -0.08095694 -0.03477791 -0.0704916 -0.0413563
0002c0 68 dc 84 3c 03 1d b5 3d ac b5 ed 3c 2b 8d df 3c
       0.01621838 0.08843424 0.029017292 0.027288994
0002d0 5d 0b 95 3d d2 e0 6e bc b1 67 0e 3d 21 8a 81 bd
       0.07277558 -0.0145799685 0.034766857 -0.06325174
0002e0 ec 8f b1 3d 5c b8 89 bd 45 11 98 3d cf a2 2c bd
       0.08670029 -0.06724617 0.07425169 -0.042147454
0002f0 f0 02 04 bd 01 aa 75 3c 61 aa 46 3d 67 05 9c 3d
       -0.032229364 0.014994145 0.04850233 0.07618218
000300 f3 9e 3f 3d 53 67 a3 bd b6 38 68 3d 3c d4 6a 3d
       0.046782445 -0.07978692 0.05669471 0.05733131
000310 d2 9d 24 3d 05 94 94 3c 3b 76 49 bd fe 06 67 bd
       0.04018957 0.018136987 -0.04918502 -0.056403153
000320 c2 a0 65 3d 9d 2c 17 3d 8c b7 ae 3d 8a c6 9c 3d
       0.056061514 0.03690778 0.085311025 0.07655056
000330 cc cc af 3d 7a d0 aa 3c 66 74 8d 3d c9 0a bb bd
       0.08583984 0.020851362 0.06906967 -0.091329165
000340 2e 70 87 bd ee 9b 94 bd c5 ab 5f 3c b5 06 d1 3c
       -0.066131935 -0.07256304 0.013651793 0.025515893
000350 34 86 22 3d ae 8d 85 bd 74 00 8d 3c f1 fe 64 3d
       0.039678767 -0.06521164 0.01721213 0.055907194
000360 32 84 52 bd 68 7e 5e bd 26 b3 99 3d 05 37 ba bc
       -0.051395603 -0.05431977 0.07504873 -0.022731313
000370 9d b3 48 3c 49 d3 a4 3d b2 e5 ac 3d 01 96 78 bd
       0.012249854 0.08048112 0.084422484 -0.06068993
000380 21 36 9a 3d 10 ae 4d 3d 51 bf 75 bd dd 0c 9a bd
       0.075298555 0.050214827 -0.059996907 -0.07521985
000390 b2 8c 8d 3d b3 0a 1c bb d1 5c 87 3b 2b d1 89 bd
       0.06911601 -0.0023810088 0.0041309376 -0.06729349
0003a0 06 47 ed 3c 29 cb df 3c ac 6b 01 bd e5 71 93 3d
       0.02896453 0.027318554 -0.031596825 0.07199458
0003b0 ac 81 6e 3d 3c 68 7c bd 05 83 61 3d d3 57 08 3d
       0.058229133 -0.061622843 0.05505659 0.03328688
0003c0 d7 08 bb bc b6 c5 3d 3d 4a 01 28 bd 4c f6 58 bd
       -0.022831364 0.04633113 -0.041016854 -0.052969262
0003d0 1e 0d 54 3d 22 05 1a bd cb 01 10 bd 46 2e 34 3d
       0.051770322 -0.03760255 -0.03515796 0.043989442
0003e0 85 98 88 bd df 51 1d bd e4 11 67 3d d2 97 d7 ba
       -0.06669716 -0.038408156 0.056413546 -0.0016448444
0003f0 e2 77 fc bc 34 e9 10 bd 83 63 8f 3d a0 d7 b2 3d
       -0.030818883 -0.03537865 0.07001402 0.087325335

projection_layer.0.bias f4 [128]
000000 92 fb 51 3d ac 2d 30 bd 2f f2 24 bc b7 f1 0f 3d
       0.051265307 -0.043012306 -0.010067507 0.035142627
000010 5a 4f 4c bd b9 a8 a8 3a 50 23 bc bc 21 a1 c8 bc
       -0.049880363 0.0012867666 -0.022966057 -0.024490895
000020 c0 93 0a bd 22 00 a4 3c 8e 99 1b 3d c5 27 20 bc
       -0.03383231 0.020019595 0.037988238 -0.009775107
000030 76 5d 93 bc 92 a6 e8 3b 3c 2b ad 3c 3d 73 61 bd
       -0.017988902 0.007099935 0.02113878 -0.05504154
000040 3e 07 ee 3b 9d 77 62 3c 4d 9e 8c 3d 0c 2b 08 b8
       0.007264047 0.013822463 0.06866131 -3.2465017e-05
000050 93 07 ad 3c 59 94 29 bc 48 bd 3d 3d 83 a6 17 3d
       0.021121776 -0.01035031 0.04632309 0.037024032
000060 7e 3c c3 3c 9a b6 72 bd 43 49 c0 bb 10 1a 36 3d
       0.023832556 -0.059256174 -0.0058681085 0.04445845
000070 92 ce 94 bc de df 9b ba 3e 48 93 3d 63 17 8b 3d
       -0.018164907 -0.0011892279 0.071915135 0.0679157
000080 0b 88 76 bd 6a 44 29 ba d2 1a 08 3c 3d 4c 8d 3c
       -0.060188334 -0.0006457033 0.008307176 0.017248267
000090 45 7b 83 bd 37 72 70 3c be 5e 4f bc 5e 4c 1f 3d
       -0.06419996 0.014675668 -0.012656866 0.03889119
0000a0 82 9f b5 bc cb b4 a7 bc 3a fb 95 bd 08 8b ba bc
       -0.022170786 -0.020471951 -0.07323308 -0.022771373
0000b0 33 3b 28 b8 60 70 92 bc dc f8 d8 3c d7 67 81 3d
       -4.0109455e-05 -0.01787585 0.026485853 0.06318634
0000c0 56 02 a4 3c 31 6c fe 37 59 0a 2f b9 d4 37 83 3a
       0.020020645 3.032954e-05 -0.00016693155 0.0010011145
0000d0 c9 ac 73 bd f7 e0 6b 3d 27 7b 0e bd 0a 1a fd 38
       -0.059490953 0.05758759 -0.034785416 0.0001206883
0000e0 27 f3 62 bd 7a f9 68 39 e3 bf 74 bd 11 f2 18 bd
       -0.05540767 0.00022218181 -0.05975331 -0.037340228
0000f0 b0 90 73 3d 81 f0 89 3d 82 d1 f6 3c 26 5b 8b bd
       0.059464157 0.067353256 0.030129198 -0.068044946
000100 8a 01 13 3d f6 16 64 3d d9 70 ca bc 58 55 24 bd
       0.03589014 0.05568596 -0.024712013 -0.040120453
000110 7e 5f 01 3b 48 9a 27 bd 04 b0 cd ba a9 14 0a bd
       0.0019740756 -0.04091862 -0.0015692716 -0.03371111
000120 cf 48 15 ba f0 9f f9 bb 3f 0f 47 bd fc 7b 5b bb
       -0.0005694748 -0.007617943 -0.048598524 -0.0033490648
000130 f8 c1 12 bd 95 92 23 3d 37 3a 45 3d f7 d4 c3 3c
       -0.035829514 0.039934713 0.04815122 0.02390526
000140 c0 73 dd bc cd 24 27 3c 66 4d 87 3c 1b e3 ba bc
       -0.027032733 0.010201645 0.016516399 -0.02281337
000150 36 c1 4a 3d db 60 f2 3b b2 dd 80 3d a5 6a 82 bd
       0.049500667 0.0073968 0.06292285 -0.06367997
000160 37 15 2f bd 3f 3b e6 bc d1 bb 3e 3b 14 9b 58 bd
       -0.04274484 -0.028104423 0.0029103647 -0.05288227
000170 4d 75 66 bd cb 55 24 3d 38 f4 6a 3c b0 c8 07 3d
       -0.05626421 0.04012088 0.014340453 0.033150375
000180 b7 c1 7e 3d a0 6d 8c bb 56 f3 56 3d 34 94 3b bd
       0.06219646 -0.0042855293 0.052478157 -0.045795634
000190 87 19 90 bd 87 c4 4b 3b b1 f4 8f 3d f1 6e 8d b8
       -0.07036119 0.0031092481 0.07029093 -6.7440684e-05
0001a0 26 f2 6e 3c eb e7 13 3c 65 04 e1 3c 1a 62 23 bc
       0.0145841 0.0090274615 0.027467916 -0.00997212
0001b0 a7 16 a5 3c 78 36 89 bc cb 3c 33 3c 5b 0e 68 3c
       0.020152403 -0.016749606 0.010939787 0.014163579
0001c0 93 af 66 3d 7c c3 1a 3c 55 a8 ff bc 95 35 a2 bc
       0.056319784 0.009446021 -0.031208197 -0.01980094
0001d0 cb 59 bb bc 9c 44 3d 3c ba 62 7b 3c b2 af 4b 3b
       -0.022869965 0.011552002 0.015343362 0.0031080064
0001e0 9b 5e 38 bd ef 2d 16 bd d5 e3 96 3d 9a 62 2a bd
       -0.045012098 -0.0366649 0.07367674 -0.04159794
0001f0 6b 13 8a bc cf 1b 87 bd 7a 9f 91 3d 74 10 95 3b
       -0.016854962 -0.06597101 0.07110496 0.0045490805

projection_layer.1.weight f4 [128]
000000 49 e2 7f 3f 4b df 7f 3f 9d 0e 7f 3f d3 43 7f 3f
       0.9995466 0.99950093 0.99631673 0.99712867
000010 7a 4d 7e 3f e9 8e 7e 3f fc 31 80 3f 33 d4 80 3f
       0.9933697 0.99436814 1.0015254 1.0064758
000020 5f 4e 7e 3f 35 35 80 3f d0 87 7e 3f 76 a4 7d 3f
       0.99338335 1.0016237 0.99425983 0.9907907
000030 4c 7d 7e 3f b8 21 80 3f e4 14 80 3f 5e 13 7f 3f
       0.9940994 1.001029 1.0006375 0.99638927
000040 41 13 80 3f 30 3d 80 3f 8f f1 7f 3f a4 8a 7f 3f
       1.0005876 1.0018673 0.99977964 0.99820924
000050 74 61 80 3f f0 76 7e 3f 66 b9 7f 3f 64 46 7e 3f
       1.002974 0.99400234 0.9989227 0.9932616
000060 e5 fb 7e 3f a5 fc 7f 3f 87 fd 7d 3f 55 3e 7e 3f
       0.9960311 0.9999488 0.9921498 0.9931386
000070 0d 14 7e 3f 28 4c 7f 3f ee 4d 7f 3f 66 4d 7f 3f
       0.99249345 0.9972558 0.99728286 0.99727476
000080 99 1c 7f 3f e2 b4 80 3f 64 a1 7c 3f 8a b8 7f 3f
       0.9965301 1.0055201 0.9868376 0.9989096
000090 f1 bd 7d 3f 5d 93 7f 3f 2e 1b 7e 3f 8d 12 80 3f
       0.9911795 0.99834234 0.9926022 1.0005661
0000a0 9d bf 7d 3f 34 d5 7e 3f f3 7c 7e 3f 31 04 80 3f
       0.99120504 0.9954407 0.9940941 1.0001279
0000b0 83 44 7f 3f 43 a1 7f 3f b4 3a 7f 3f 86 14 80 3f
       0.99713916 0.9985544 0.9969895 1.0006263
0000c0 29 f0 7f 3f f4 05 80 3f ff 36 7f 3f 7a 43 7f 3f
       0.9997583 1.0001817 0.9969329 0.99712336
0000d0 b5 b9 7f 3f da b1 7f 3f d2 5a 80 3f dc 68 7f 3f
       0.9989274 0.99880755 1.0027716 0.9976938
0000e0 f5 39 7f 3f d3 3a 7e 3f 31 3f 7f 3f 0e f0 7d 3f
       0.9969781 0.9930851 0.997058 0.9919442
0000f0 ca 39 7f 3f eb f1 7d 3f 16 73 7e 3f 5a e9 7f 3f
       0.99697554 0.9919726 0.9939436 0.9996544
000100 fb 64 7f 3f bf 47 7d 3f a2 4b 7f 3f 35 66 7e 3f
       0.9976346 0.989376 0.9972478 0.99374706
000110 66 b8 7e 3f 93 f9 7c 3f 3e f2 7e 3f 17 8c 7e 3f
       0.9950012 0.9881832 0.9958838 0.9943251
000120 31 0c 80 3f 9d 5c 80 3f 6c f8 7e 3f b5 97 7f 3f
       1.000372 1.0028263 0.9959781 0.9984086
000130 e4 67 80 3f 50 d4 7d 3f 7b d6 80 3f 38 ca 7c 3f
       1.0031705 0.9915209 1.0065454 0.9874606
000140 6d 1c 7e 3f cd 97 7d 3f 47 8f 7f 3f 14 ad 7d 3f
       0.99262124 0.99059755 0.99828 0.9909222
000150 29 0c 7d 3f 19 8f 7f 3f 53 43 7e 3f 64 17 7f 3f
       0.9884668 0.99827725 0.9932148 0.99645066
000160 b8 3e 7f 3f 93 46 7f 3f 80 a6 7f 3f 9f 6c 80 3f
       0.99705076 0.9971706 0.99863434 1.0033149
000170 f1 0c 7d 3f b9 2c 7f 3f 3b de 7d 3f 46 19 7f 3f
       0.9884787 0.99677616 0.9916722 0.9964794
000180 95 77 7f 3f f7 13 80 3f fa 25 7e 3f 8a fb 7e 3f
       0.9979184 1.0006093 0.992767 0.9960257
000190 b6 60 7e 3f 81 f7 7e 3f 40 a0 7e 3f 62 1d 80 3f
       0.9936632 0.9959641 0.9946327 1.0008967
0001a0 b2 93 7d 3f 64 98 7d 3f 27 62 7e 3f fe 1a 80 3f
       0.9905349 0.99060655 0.9936852 1.0008237
0001b0 b6 df 7e 3f 52 86 7f 3f 7a c0 7f 3f 0c a0 7f 3f
       0.99560106 0.9981433 0.9990307 0.9985359
0001c0 86 f7 7e 3f 4b 7e 7e 3f a5 8e 7f 3f 01 69 7e 3f
       0.9959644 0.9941146 0.99827033 0.99378973
0001d0 e8 63 7f 3f 15 fe 7c 3f 5a d9 7e 3f 44 56 7f 3f
       0.9976182 0.988252 0.995504 0.99741006
0001e0 d9 04 7f 3f 06 f9 7e 3f 0e 45 7e 3f e1 0d 7e 3f
       0.9961677 0.9959873 0.9932412 0.9923993
0001f0 c7 0b 80 3f 73 d7 7d 3f ab f2 7c 3f 0d c3 7f 3f
       1.0003594 0.99156874 0.9880778 0.99907

projection_layer.1.bias f4 [128]
000000 5e 34 e4 b9 9a 9d 01 ba 53 af 98 ba c4 8e b9 bb
       -0.00043526565 -0.0004944444 -0.001164893 -0.005662771
000010 9f 95 d8 bb 74 2f 8d bb 83 e6 9f ba d6 ed 14 3b
       -0.006609633 -0.0043086354 -0.0012199435 0.002272477
000020 63 52 07 bc aa 5f a6 39 27 2c ca ba 0d 3d f9 bb
       -0.008259389 0.00031733263 -0.0015424535 -0.007606155
000030 20 b8 1f bc 66 c0 14 3a 37 13 c1 ba f1 c8 08 bb
       -0.009748489 0.00056744216 -0.0014730458 -0.0020871724
000040 c5 50 6a 3b 39 c0 9c 3a b0 b8 d3 37 1a 90 b7 ba
       0.0035753709 0.0011959142 2.5239162e-05 -0.0014004738
000050 20 49 69 3b 8a d5 b1 bb 58 45 71 3a 69 cf 63 bb
       0.0035596564 -0.005427067 0.00092037534 -0.0034761077
000060 43 70 a0 3a 66 2a e5 3a ba 47 02 bc 1f 56 bc bb
       0.0012240488 0.0017483949 -0.007951671 -0.005747571
000070 e3 a7 ed bb d0 e9 24 bb 0a e0 28 bb 54 bc 4c bb
       -0.0072526797 -0.0025163777 -0.0025768303 -0.0031240182
000080 91 4d 3f bb 97 4e 87 3b 5a 2e 55 bc 6d 21 27 3b
       -0.002919052 0.0041292417 -0.013011539 0.00255021
000090 13 0c 11 bc c7 a1 43 3a ec cc 2d bb f5 8b 48 b9
       -0.008852976 0.00074627664 -0.0026519848 -0.00019125624
0000a0 52 10 d3 bb f6 5a 60 bb 34 8b c5 ba 56 eb 29 3b
       -0.0064411545 -0.0034233904 -0.0015071393 0.0025927625
0000b0 7a 82 8c 3a ba f3 29 ba b8 7b 41 bb 80 af d0 ba
       0.0010720037 -0.00064831565 -0.0029523205 -0.0015921444
0000c0 35 0d 7e b9 de ad 5c ba 3e c4 48 bb c3 e7 e7 ba
       -0.00024228248 -0.0008418242 -0.0030634548 -0.0017692972
0000d0 33 c1 71 bb 25 d3 52 bb 88 89 27 3c 60 1a 19 bb
       -0.0036888837 -0.003216931 0.010225661 -0.0023361668
0000e0 37 a2 06 3b 1c dc 63 bb 35 1c 16 37 96 53 0e bc
       0.0020543465 -0.0034768647 8.947264e-06 -0.008686921
0000f0 12 31 85 bb 87 5b 00 bc de 47 e3 bb e5 71 81 3b
       -0.0040646875 -0.007834322 -0.0069360575 0.003950345
000100 67 bf 83 3a 6c 22 1e bc f5 cd 52 bb d2 82 ae bb
       0.0010051549 -0.0096517615 -0.0032166217 -0.0053256536
000110 da 5d d0 bb e0 98 3c bc 40 0e 84 bb 8a 2c f5 bb
       -0.006358844 -0.011511058 -0.004030019 -0.007482116
000120 39 85 3c 3b 54 d7 3f 3b 52 27 98 ba 82 59 93 3a
       0.002876593 0.0029272633 -0.0011608398 0.0011241885
000130 f5 e5 e3 b9 73 9f 2d bc d5 03 fe 3b 42 f3 39 bc
       -0.00043468145 -0.010597098 0.0077519217 -0.011349501
000140 73 3b cf bb 59 be 24 bc a0 ec 7d 3b cf b7 d8 bb
       -0.0063242256 -0.010055148 0.0038745776 -0.0066137086
000150 6a a4 22 bc 4f 2e 02 39 01 49 b1 bb b2 1c 2f bb
       -0.009926895 0.00012415017 -0.005410314 -0.0026719985
000160 7b 76 0f bc d2 67 ee b9 b3 f1 f2 3a 20 6a 10 3a
       -0.008756275 -0.0004547225 0.0018535167 0.0005508978
000170 32 f2 3b bc 10 69 29 bb b3 f2 fd bb b1 b0 16 3b
       -0.011471318 -0.0025849976 -0.0077498793 0.00229935
000180 a2 f3 d0 3a 80 a0 c4 39 5b 4e 04 bc d0 ae c3 bb
       0.0015941749 0.00037503615 -0.008075322 -0.005971767
000190 f4 c3 bf bb 56 94 c2 ba 04 fe 86 bb ab fe 21 3a
       -0.005852217 -0.0014845233 -0.0041196365 0.0006179611
0001a0 4a bd 2d bc f9 10 0b bc 74 4c 10 bc eb ad e9 3a
       -0.010604212 -0.008487933 -0.00880729 0.0017828321
0001b0 30 ef b8 bb 1b 0d 41 3a 38 8f 4e b8 fc 23 b1 ba
       -0.0056437477 0.00073643186 -4.924761e-05 -0.0013514752
0001c0 a7 a7 7a bb a7 d6 9f bb 5d f5 5f bb a1 4d d7 39
       -0.0038246901 -0.0048778835 -0.0034173348 0.00041065834
0001d0 76 e3 1d ba 67 71 33 bc 16 5b 2f bb d7 fb 9a bb
       -0.0006022969 -0.01095233 -0.0026757172 -0.0047297287
0001e0 03 f2 50 3b c6 26 dd bb 2c 3d 21 bb cc ae b3 bb
       0.0031882531 -0.006749007 -0.0024603112 -0.005483484
0001f0 32 b2 2e 3a 2c 86 19 bc 88 8a 0c bc 16 23 55 b9
       0.00066641264 -0.009370368 -0.00857795 -0.00020326333

projection_layer.1.running_mean f4 [128]
000000 d6 01 97 3d 51 10 0a bd 3e 50 d0 bc 86 91 b1 bc
       0.07373397 -0.033706967 -0.025428887 -0.021675836
000010 8b f0 dd 3c fa cd 3a 3c e7 e4 ac 3d a1 65 9f bd
       0.027092239 0.011401648 0.08442097 -0.07783056
000020 58 be 53 bd ea 43 6e 3d 64 bb a7 3d d3 1d 2e bd
       -0.051695198 0.058170237 0.08190039 -0.04250891
000030 de 4f 7d bd b6 03 b2 3d 96 11 7c bd ea 0d 0c bd
       -0.061843745 0.08692114 -0.06154021 -0.034192957
000040 56 61 43 3d 08 04 e5 3c af a4 7d 3d 48 25 a5 bd
       0.04770025 0.027956024 0.061924633 -0.080637515
000050 25 ac 99 3c 1b 5c d2 3c 1d 7a 51 3d 55 1c 85 3d
       0.018758843 0.025678685 0.051141847 0.064995445
000060 fd 66 15 3d 80 1f a9 bd 7b 8d d2 3d 92 e6 b8 bc
       0.03647517 -0.08257961 0.102808915 -0.022570882
000070 59 74 ad 3c ed fb 95 bc c0 f6 34 3e 05 ec 12 3e
       0.021173643 -0.018308604 0.17672253 0.14347847
000080 c0 b9 17 bd 42 c2 bc bc 25 65 2f bd 69 e6 29 bc
       -0.03704238 -0.023041848 -0.04282107 -0.0103698755
000090 e3 f6 cd bd d4 99 72 bb c0 a4 23 3c 14 40 47 3c
       -0.100568555 -0.0037017958 0.00998801 0.0121612735
0000a0 d6 14 37 3b a5 18 19 bd 74 41 ae bd f5 09 d3 bc
       0.0027936003 -0.03737702 -0.08508578 -0.025761584
0000b0 df f9 ca bd bf cd 99 bc 9d ae 15 3d 15 9d 1e 3d
       -0.099109404 -0.018774865 0.036543477 0.038724024
0000c0 9e be 63 3d de a9 fc 3b 70 54 ad 3c cc 7a b9 bd
       0.05560171 0.0077106794 0.021158427 -0.09056625
0000d0 e5 7a a6 bc c7 2c c8 3d d9 b2 fd bd 2c b2 42 3c
       -0.020322273 0.097741656 -0.12387628 0.0118833
0000e0 50 a1 54 bd 27 94 22 3d a6 34 30 bd ef df 9e bd
       -0.051911652 0.03969207 -0.04301896 -0.07757556
0000f0 21 c7 af 3d 08 c1 d0 bc b4 0d 58 bd fa 5f ac 3a
       0.08582903 -0.02548267 -0.052747443 0.0013151162
000100 61 a7 06 3e 73 89 f3 3c 0f a7 3b bd 95 b9 25 3d
       0.13149787 0.029728627 -0.045813616 0.040460188
000110 15 9a 8b bd b4 81 de bd f2 12 52 bd 93 de ee bc
       -0.06816498 -0.10864583 -0.0512876 -0.029158866
000120 b2 12 87 3a 31 03 75 3c 4d a1 16 bd 25 c7 e7 bc
       0.0010305254 0.014954374 -0.036774922 -0.028293202
000130 1d 23 1a 3d d7 dc e1 3c 9f 11 91 bc c2 e0 05 3d
       0.037631143 0.027571125 -0.017708598 0.03268505
000140 40 f7 05 bd 68 20 01 3d ab da 3c 3d de 8d 7a bd
       -0.0327065 0.031525046 0.046106976 -0.06117045
000150 69 aa 97 3d 14 a7 44 3d c6 57 4d 3d c3 7b a4 bd
       0.0740555 0.0480109 0.050132535 -0.08031418
000160 ea 02 5b bd 12 b2 7a bd 7e 6b 88 3d 6d 44 8b 3c
       -0.053469576 -0.061204977 0.066611275 0.017000401
000170 ea 5c 72 3c 0a 93 65 3d 78 0b 00 3e fd 23 0a 3d
       0.01479266 0.05604843 0.12504375 0.033725727
000180 54 ae e1 3d 0c 53 4d 3d 5d f5 08 3d cf 77 3d bb
       0.110195786 0.050128028 0.03343712 -0.0028910523
000190 dc 60 78 bd a3 78 32 bd eb bc 0d 3d 0f f1 99 bd
       -0.060639247 -0.04357208 0.034603994 -0.075166814
0001a0 af e0 3d 3d d3 e2 c3 3d 9f 9d 90 3d f2 e1 ca 3c
       0.046356853 0.09564748 0.07061314 0.024765942
0001b0 95 d0 6d 3d d0 ed 76 bd 09 68 a0 3d 6a 62 d7 3c
       0.058060247 -0.06028539 0.07832343 0.026292045
0001c0 0b 48 d8 3c 2b 05 4e 3d 2b 57 e7 bb 5e 9d 17 bd
       0.02640154 0.050297897 -0.007059952 -0.03701531
0001d0 d9 24 a8 3c b1 62 4d 3d 47 89 07 bc f9 a2 2e 3d
       0.020525383 0.050142948 -0.008272476 0.04263589
0001e0 45 a9 6f bd 60 aa 95 bd c1 c4 b2 3c c9 46 bd bd
       -0.058511037 -0.07307887 0.021822335 -0.09242017
0001f0 95 4f 45 bc 22 82 c6 bc db 6e 5d 3c 7b 45 49 3d
       -0.0120429 -0.024231974 0.0135152 0.049138527

projection_layer.1.running_var f4 [128]
000000 da 06 8c 3e 63 69 a2 3e af b8 b8 3e c0 a1 71 3e
       0.27348977 0.3172103 0.36078402 0.23596859
000010 57 83 88 3e b5 5f 7a 3e 82 59 87 3e 62 3b 90 3e
       0.26662704 0.24450572 0.26435477 0.28170305
000020 15 a4 97 3e 1a 9a 8d 3e 74 63 9d 3e 1a 01 98 3e
       0.29617372 0.27656633 0.3073994 0.2968834
000030 47 09 9f 3e ba be 89 3e 83 b0 91 3e eb c8 97 3e
       0.31061766 0.26903325 0.2845498 0.29645476
000040 84 75 86 3e 89 d2 90 3e b2 50 85 3e a0 5c 8c 3e
       0.26261532 0.28285626 0.26038128 0.27414417
000050 ff ee 8e 3e d6 65 7a 3e 78 ad 9d 3e 6f 02 83 3e
       0.27916715 0.2445291 0.3079641 0.25587794
000060 d8 18 85 3e 18 95 8c 3e 65 40 8d 3e 4d 16 93 3e
       0.25995517 0.274575 0.27588192 0.28727952
000070 a1 3c 86 3e 06 0a 90 3e 7e 9f 8f 3e 00 2a 89 3e
       0.2621813 0.28132647 0.2805137 0.26789856
000080 71 e6 8c 3e dd 98 88 3e 89 3d 91 3e fa 25 86 3e
       0.27519563 0.26679125 0.2836726 0.2620085
000090 49 7b 8d 3e cc c6 85 3e 19 06 94 3e 65 a1 81 3e
       0.27633122 0.26128232 0.28910902 0.25318447
0000a0 bf fb 90 3e c4 39 a0 3e 15 11 92 3e d2 10 82 3e
       0.28317067 0.31294072 0.28528658 0.25403458
0000b0 7c 37 8d 3e 16 9f 89 3e c7 fa 83 3e be 2e 99 3e
       0.27581394 0.26879185 0.25777265 0.29918474
0000c0 18 e4 ad 3e 7e 7d 93 3e a8 ae 90 3e 15 08 9f 3e
       0.33963084 0.2880668 0.28258252 0.31060854
0000d0 fe c0 87 3e 22 e6 6f 3e c8 6e 93 3e 21 ed 9e 3e
       0.2651443 0.23427632 0.28795457 0.3104029
0000e0 fc 08 6b 3e 55 02 6b 3e be c6 75 3e 59 de 91 3e
       0.22952646 0.22950108 0.24001595 0.2848995
0000f0 5d e2 9f 3e 88 eb 9b 3e 70 e4 8f 3e 79 68 89 3e
       0.3122739 0.30453134 0.2810397 0.2683752
000100 78 b4 8c 3e 43 d2 8c 3e fa a5 8e 3e 4a 37 96 3e
       0.27481437 0.27504167 0.27861005 0.29339057
000110 31 c7 8d 3e 8f 72 77 3e e6 c6 8b 3e a1 6b 96 3e
       0.27691033 0.24164794 0.27300185 0.2937899
000120 b5 46 94 3e 29 f2 8c 3e 7a 54 75 3e 32 af 6e 3e
       0.28960195 0.27528504 0.23958007 0.23309019
000130 e2 4f 9d 3e ce 73 85 3e 57 98 83 3e ea d1 88 3e
       0.30725008 0.26064914 0.25702164 0.26722652
000140 b6 4a 93 3e bc 07 91 3e 37 dd 87 3e 98 6f 5e 3e
       0.28767937 0.28326213 0.2653596 0.21722257
000150 ce 7c 82 3e ac 1c 6f 3e 72 ff 81 3e d1 8d 9d 3e
       0.25485843 0.23350781 0.25390202 0.3077226
000160 40 8d 93 3e e2 c5 76 3e 8a 3f 91 3e fc 10 8a 3e
       0.28818703 0.24098924 0.2836879 0.26966083
000170 f7 04 92 3e 81 b0 9d 3e b6 43 96 3e 48 ec 93 3e
       0.28519413 0.30798724 0.29348534 0.28891206
000180 58 83 89 3e 02 3c 71 3e e4 39 83 3e 5b 5a 92 3e
       0.2685802 0.23558047 0.25630105 0.2858456
000190 6e 91 98 3e 79 cd 9e 3e 69 d6 8c 3e d1 65 82 3e
       0.29798454 0.31016138 0.27507332 0.25468305
0001a0 0a eb 97 3e 5f c5 76 3e 11 71 a9 3e d8 5d 92 3e
       0.29671508 0.24098729 0.33094075 0.28587222
0001b0 56 4b 93 3e c7 44 9d 3e 13 be 8d 3e aa 51 73 3e
       0.28768414 0.30716535 0.27684078 0.23761621
0001c0 91 76 93 3e a8 ed 92 3e 10 ad 92 3e 3d a1 84 3e
       0.28801396 0.28696942 0.2864766 0.25904265
0001d0 62 8f 88 3e 1d 2b 95 3e b5 ef 9e 3e 65 52 7a 3e
       0.26671892 0.29134455 0.31042257 0.24445494
0001e0 ba cd 86 3e 3a 13 80 3e fa a1 8f 3e aa ee 82 3e
       0.26328832 0.2501467 0.28053266 0.2557271
0001f0 e1 b4 8c 3e 1a 64 8b 3e 9f 53 8a 3e 7f 8b 8e 3e
       0.2748175 0.2722481 0.27016923 0.27840802

projection_layer.4.weight f4 [128, 128]
000000 7c 9a bc bd 3c 49 a3 3d ce 71 e7 3b eb 99 90 bd
       -0.09209153 0.07972953 0.007063127 -0.070606075
000010 00 0c b9 bd 12 bf 75 bd 89 0a 39 bd 4f 4a 8a 3d
       -0.09035492 -0.059996672 -0.045176063 0.067524545
000020 7e ca 8b bc 10 8c 6f 3d 46 0e 1d 3d 8f a1 88 3d
       -0.01706433 0.058483183 0.03834369 0.0667144
000030 41 04 e9 3c ba 47 af 3d 07 4f 22 bc 07 9b af 3d
       0.028444411 0.08558603 -0.009906537 0.08574491
000040 e9 fc 0a 3d ce 7f f9 3b fa e1 3a bc 86 76 3b 3d
       0.0339326 0.0076141125 -0.011406416 0.04576733
000050 44 3d 11 bc 70 48 06 3d e5 0d 68 3d 5f 65 8a 3d
       -0.0088647045 0.032783926 0.056653876 0.06757616
000060 77 d3 32 3d a5 4e 13 bd 6d dd 0d 3c d0 08 8e bd
       0.0436587 -0.035963673 0.008658749 -0.069352746
000070 c0 14 8b 3d 44 4e a6 bd ee aa 3c 3d 8c 85 b8 3c
       0.06791067 -0.08120397 0.04606145 0.022524618
000080 84 97 ac 3c 31 80 a2 bd 7c 93 45 bd 81 3d a1 3d
       0.021068342 -0.07934607 -0.048236355 0.07873059
000090 ec 6d 4e bd 2f 0b c6 bb e6 68 86 3c 54 b2 86 bd
       -0.0503978 -0.0060438137 0.016407441 -0.06576982
0000a0 a4 88 58 b9 a6 1a 9a 3d 8f 3d 4d 3d 09 f2 6f 3d
       -0.00020650268 0.07524614 0.050107535 0.058580432
0000b0 e0 42 a6 bd 32 07 32 bb 96 9b aa bd 1a 4d 4d 3d
       -0.08118224 -0.0027164933 -0.08330457 0.050122358
0000c0 56 9a 5c 3d 86 f0 11 3d f1 31 fd ba 57 c1 46 bd
       0.053858124 0.03562977 -0.0019317252 -0.048524227
0000d0 38 b3 f8 3c a4 46 00 bd 8a b2 9d bd a6 fa a8 3d
       0.030358896 -0.03131737 -0.07700069 0.082509324
0000e0 1c 1d 2b 3d a4 5c 08 bd 31 9a 57 bd 19 fe f4 3c
       0.041775808 -0.033291474 -0.052637283 0.02990632
0000f0 46 77 81 bd 1a 42 0c bd e5 5b 60 bd 1f 51 5d bd
       -0.06321578 -0.034242727 -0.054775137 -0.05403244
000100 09 30 10 bc 68 d1 87 bd 40 7e a6 bd 50 50 a8 3d
       -0.008800515 -0.06631738 -0.08129549 0.082184434
000110 83 85 08 3c f2 e7 2c 3d 5a 72 8e 3d 65 bb 38 3b
       0.008332613 0.042213388 0.069554046 0.0028187868
000120 c2 5a 7f 3d e0 dd 72 3c 6f 70 2b 3d 82 e4 0d bc
       0.062342413 0.014823407 0.041855272 -0.008660438
000130 d0 c9 8e bd cc 7f c8 bc 65 aa 87 bd 94 6b 6a 3c
       -0.069720864 -0.024475 -0.06624297 0.014307875
000140 c4 95 9f bd ae 60 81 3d 47 4e f6 3b 2f 60 8a bc
       -0.077922374 0.06317268 0.0075166556 -0.016891567
000150 bd 30 a6 bc 03 2a 94 3d ab 5d bc 3c 14 a5 3e 3c
       -0.020286912 0.072345756 0.022993883 0.011636037
000160 8e 81 89 bd 0a 08 3e 3c 37 12 4f bc 03 a9 fa 3c
       -0.06714164 0.011598596 -0.01263862 0.03059817
000170 91 f0 92 bd 15 b3 0d 3d b5 79 a3 bc 18 29 87 bb
       -0.07174791 0.034594614 -0.019955495 -0.004124772
000180 50 ef 5f bc 91 13 99 bd 44 e5 6d 3d cd de 92 bc
       -0.013667896 -0.07474435 0.058079973 -0.017928505
000190 d5 5e 01 bd a4 8a 2f bd 59 58 de 3c 12 e4 9b bd
       -0.03158458 -0.042856827 0.027141737 -0.0761186
0001a0 e3 ab b1 bd 72 95 95 3d 04 37 69 bd ef 2d 84 3d
       -0.08675363 0.07303895 -0.056937233 0.06454074
0001b0 40 e7 13 3d 7d 75 9c 3d c0 d8 8f bd e7 26 87 bd
       0.03610921 0.076395966 -0.07023764 -0.06599217
0001c0 75 d6 6c 3d 70 16 53 bd 81 c9 91 3d a9 ee 98 bd
       0.05782171 -0.05153507 0.07118512 -0.07467396
0001d0 a9 43 50 bd 55 84 0c bd fa bd 97 3d f0 44 88 3d
       -0.050845776 -0.03430589 0.07409282 0.06653774
0001e0 08 d7 7a 3d 63 78 a6 3d 3d ac a5 bd f5 10 80 bc
       0.061240226 0.08128431 -0.080894925 -0.015633086
0001f0 20 ac 83 3d 31 43 ad 3c 50 1f 84 3d d2 ff 25 3c
       0.064293146 0.021150203 0.06451285 0.010131793
000200 2a 06 16 3d ef 5d 84 3d 1e 3d c0 bb ab 85 50 bd
       0.036626972 0.06463229 -0.0058666607 -0.050908726
000210 62 2a 21 bd e1 d2 3c 3d 86 47 9c 3d 21 c0 90 bd
       -0.03934706 0.046099547 0.076308295 -0.07067896
000220 20 45 5e bc 59 5a 53 3d 82 33 39 bd 4a 33 41 3c
       -0.013566285 0.051599834 -0.045215137 0.011792013
000230 83 2a 5c 3d d9 dd 48 bd f3 f7 85 bd 5e a3 40 3c
       0.05375148 -0.049039695 -0.06541433 0.0117577
000240 00 72 bc bd 30 fe 4d bd 86 bf a1 bd f7 f9 aa bd
       -0.09201431 -0.05029124 -0.07897858 -0.08348458
000250 70 42 46 bd 3d b1 3e 3d 6c 4b 38 bd e3 87 91 3c
       -0.048403203 0.046555746 -0.044993803 0.017764991
000260 2d 71 fe 3c 8b 37 b1 3c 3d 87 3a 3d ef c4 19 ba
       0.031059826 0.02163293 0.04553913 -0.0005865832
000270 61 6c 52 3d bd c6 06 bd a2 02 35 3d b2 65 3d 3c
       0.05137289 -0.032904375 0.044191964 0.011559891
000280 87 ac 9c 3d f1 59 21 bd c2 ac 24 bc dc ba ac bd
       0.076500945 -0.039392415 -0.010050954 -0.08434078
000290 bc 48 a7 3d 4d 91 8e bd 7e 23 90 bd 4e f0 35 3b
       0.0816817 -0.06961308 -0.070380196 0.002776164
0002a0 f7 f9 bc 3c d1 b2 98 3d e0 f6 36 bc 53 e5 b2 3c
       0.023068411 0.074559815 -0.011167258 0.021837866
0002b0 04 d8 55 3d 2f 37 4d bc 11 0e 84 3d 26 57 72 3c
       0.05220796 -0.012525364 0.064479955 0.014791286
0002c0 99 a0 56 bd c0 39 69 3c 01 48 39 3d 25 0a a3 3c
       -0.05239925 0.01423496 0.045234684 0.019902298
0002d0 50 ea 2b bd bf 58 42 3d 52 9e 9b bc 77 e2 07 bd
       -0.041971505 0.047447916 -0.018996391 -0.033174958
0002e0 d6 17 97 3d 40 7a 84 3d 8e 0a 8e 3d 53 e1 69 3d
       0.07377593 0.0646863 0.06935607 0.05709965
0002f0 ca 82 8b 3d 71 c3 4f bd 44 d0 95 3c ea d6 8b bd
       0.068120554 -0.050723497 0.018287785 -0.06828101
000300 ee 61 95 bd 77 5f 9f 3d d4 e8 a6 3b c6 7a 92 3d
       -0.07294069 0.0778188 0.0050936732 0.071523234
000310 bd 9d 80 3d 18 9e c7 bb 55 54 82 bd ab d3 90 bc
       0.06280086 -0.0060918443 -0.06363741 -0.017679056
000320 c3 74 8d bc 4d 1c 3b bd e6 05 fa bc 87 1d 43 3d
       -0.01726759 -0.045681287 -0.03052039 0.04763558
000330 28 86 2d 3d cc 10 e5 3c 04 e8 70 3d 8a 85 7b 3b
       0.04236427 0.027962111 0.058815017 0.0038379156
000340 a5 e7 63 3d af a7 35 3d 01 09 31 bd ea 1c d9 bc
       0.055640835 0.04434937 -0.043221477 -0.026503045
000350 92 de 76 3d 62 26 b3 bd 37 4c 98 3b 00 10 7d 3d
       0.060270853 -0.08747555 0.0046477574 0.061782837
000360 bd 20 9e 3d 1b 1c 79 bd 5c b7 a0 3b 68 fc 99 bd
       0.07721088 -0.06081782 0.0049046706 -0.07518846
000370 8c 11 c7 3c a8 49 a8 3d 49 e4 a1 bd fe ae 92 3d
       0.02430036 0.08217174 -0.0790487 0.07162283
000380 fe de 9c bd 01 62 3e bd 81 44 22 3c 7d d7 3b 3b
       -0.0765972 -0.046480183 0.009904028 0.0028662377
000390 55 17 5b 3c 96 b1 a2 bd 3a 63 62 3d 26 9f 51 3d
       0.013372262 -0.07944028 0.05527041 0.051177166
0003a0 f6 8a 8b bb 3c 3e 15 3d 85 5b 86 bd e3 f1 14 bd
       -0.004258509 0.036436304 -0.06560425 -0.036363494
0003b0 14 74 2a bc 92 75 aa 3d ac c1 34 3d 7a 90 a1 bc
       -0.010403652 0.08323206 0.044130012 -0.019722212
0003c0 c1 1c 7d bc 1a 73 3d 3d 8b 4f 59 bc a8 a8 63 bd
       -0.01544875 0.046252348 -0.013263593 -0.055580765
0003d0 9d 12 33 3d f6 5c 88 3d a4 d2 f6 3c 63 06 2d bd
       0.043718923 0.06658356 0.030129738 -0.04224242
0003e0 b9 7b 91 3c fe f7 4b 3d 90 16 8a bd 2c 1a 72 3d
       0.01775919 0.04979705 -0.06742585 0.05910699
0003f0 c3 5b b5 bc e6 95 f5 3b d2 71 8b 3d 9b a4 2b bc
       -0.022138482 0.007494676 0.06808819 -0.010476257

projection_layer.4.bias f4 [128]
000000 48 91 c3 3c 00 76 c6 bc 3d ab 89 3d 2e 77 0d bd
       0.023872986 -0.024226189 0.06722114 -0.034537487
000010 77 d9 e9 3c d1 26 8e bd 2b 9c 78 bc 4e dc 39 3d
       0.028546078 -0.069409974 -0.015173952 0.045376115
000020 8b 74 a0 3d 64 fd 14 3d ca c2 f6 bc 62 20 66 bc
       0.07834729 0.036374465 -0.03012218 -0.014045807
000030 78 08 53 3d f3 11 22 bd e9 37 a3 3b 0d 20 af bd
       0.05152175 -0.0395679 0.0049810302 -0.08551035
000040 6c e2 8a 3d f9 30 95 3d 60 d0 8c 3b 99 12 9c bd
       0.06781468 0.072847314 0.004297301 -0.07620735
000050 37 e4 bf bd 81 29 4c 3d 7c 5a 01 bd e3 66 38 3b
       -0.093697004 0.04984427 -0.031580433 0.0028137497
000060 e9 50 88 3d ad 0a 53 bd fd cc f1 3c a8 58 e1 3c
       0.066560574 -0.051523853 0.029516691 0.027508095
000070 87 a9 78 bc 1a 8d 91 bd 07 ed 5e bc 0c de 54 bd
       -0.015177137 -0.07106991 -0.013606316 -0.051969573
000080 00 f3 a6 bc c6 17 ac bd 74 1b 9c bd a3 2d b2 bd
       -0.020379543 -0.08402972 -0.07622424 -0.08700111
000090 c1 dc 56 3d 86 fb a3 bd 4d af ad 3d 95 ac a0 3c
       0.05245662 -0.08006959 0.084807016 0.019613544
0000a0 18 fc 45 bd 23 89 21 3d f2 1d 23 3d ea 99 33 ba
       -0.04833612 0.039437424 0.03982348 -0.0006851243
0000b0 8b e0 53 3c aa 97 a8 bd 46 f3 49 bd 09 34 99 bd
       0.012931953 -0.082320526 -0.04930427 -0.07480628
0000c0 b5 3a 96 bd db e8 60 3d ab 64 60 bc 37 e8 13 bd
       -0.07335416 0.05490957 -0.013695876 -0.03611013
0000d0 7a 0c 68 bc a5 f2 8b 3b 72 ac 18 bd bf 02 a8 3c
       -0.014163131 0.004270869 -0.03727383 0.020509122
0000e0 64 8a 69 3d c0 97 b0 38 75 2c 7d bb 59 64 45 bc
       0.057016745 8.4205996e-05 -0.0038631235 -0.0120478505
0000f0 f9 b5 4c 3d d6 ef 0e bc 08 58 a8 bd 42 99 ac bd
       0.04997823 -0.0087241735 -0.08219916 -0.08427669
000100 f3 25 96 bd 35 1a 39 bd 4f 23 d2 3c af 1b f7 ba
       -0.07331457 -0.04519101 0.025651602 -0.0018852855
000110 cf 4c 83 3b ed 71 8a bd 36 40 68 bd 4c e4 09 3c
       0.004006959 -0.06760011 -0.05670186 0.008416247
000120 f0 08 3a bd 1a 5f a2 3d 7b c9 f0 3c 25 96 2c bd
       -0.04541868 0.079282954 0.029392948 -0.042135376
000130 02 11 96 3d e9 62 41 bd fe de a8 3b d2 6b 44 bd
       0.07327463 -0.04721347 0.005153536 -0.047954388
000140 ee f8 94 3c 6a ac a0 bd db c5 9b 3d 0e c2 44 3d
       0.018185105 -0.078453854 0.07606097 0.048036627
000150 8d 6c 07 3d c8 e6 60 bd c0 43 0f 3b 67 c2 9b 3d
       0.033062506 -0.05490759 0.002186045 0.07605439
000160 a9 0c 65 3d fd a9 70 3c 96 83 87 3d 48 7c 7d bd
       0.055920277 0.014688966 0.06616895 -0.061886102
000170 e2 1f 6b 3d f3 17 2d bd 8e ba d5 bb 07 e1 28 bd
       0.057403453 -0.042259168 -0.006522483 -0.041230228
000180 8a 72 ce ba cc 73 1d 3d ae 71 d2 3c 80 44 a0 3d
       -0.0015750688 0.03844051 0.025688972 0.07825565
000190 18 ca 16 3d 83 9d b0 bd 84 f6 9a bd 39 31 a9 3d
       0.036813825 -0.08623793 -0.075665504 0.082613416
0001a0 0b 55 8c bc 7e 72 71 3c 6b 24 4b 3d 64 32 aa bb
       -0.017130395 0.01473677 0.049595278 -0.0051939953
0001b0 35 da 83 3d de d0 73 3d dc f5 1d 3d 6d c5 9e 3c
       0.06438104 0.059525363 0.038564548 0.01938125
0001c0 f1 6e 8f bb 05 33 57 3d 8b d0 a7 bd 5d 54 78 3d
       -0.004377239 0.05253889 -0.08194073 0.06062733
0001d0 22 fc 06 bd a6 27 2f 3d 5b 1d 86 3d bb c5 13 bc
       -0.032955296 0.04276242 0.06548568 -0.009019311
0001e0 0d 7b b7 3c 55 fc c3 3c e3 ac 9c bd 80 ae 77 bd
       0.022397542 0.023924032 -0.07650163 -0.06046915
0001f0 f4 7b 20 3d b8 77 0d bd cb 1f df bc 2f 61 9d 3d
       0.03918071 -0.034538 -0.02723684 0.07684552

output_layer.weight f4 [1, 128]
000000 7f 86 e1 bc 39 33 92 bd 0e fa 6b 3d 85 f6 59 3d
       -0.027529953 -0.07138676 0.057611518 0.053213615
000010 0c 0d a2 bd d9 23 e9 3c 00 99 48 3d 4d fa a1 3d
       -0.07912645 0.028459476 0.048974037 0.07909069
000020 f3 53 59 3d 95 ed a1 3d d4 39 9b bd 88 e3 82 bd
       0.053058576 0.07906643 -0.07579389 -0.063910544
000030 ea ef 02 3b a8 fa 25 3c be 5a 8e bd 31 af 3a 3d
       0.0019979426 0.010130562 -0.069509014 0.04557723
000040 12 3b 0e bd 3f 84 58 3d d7 bf 9f bd f2 71 5a bd
       -0.034724303 0.052860495 -0.078002624 -0.053331323
000050 e2 83 58 bd 1b 04 ee 3c dc 43 ba b9 74 66 ae 3d
       -0.05286015 0.029054692 -0.00035527244 0.08515635
000060 c4 5f 71 bc 88 cb f0 3c 48 18 00 bd 31 0e 9e bd
       -0.014732305 0.029393926 -0.031273156 -0.077175505
000070 8e 38 90 ba 75 6f 8e bc 7e 06 50 3d 71 1d 1a 3d
       -0.0011003183 -0.017387131 0.05078744 0.037625734
000080 97 7d a1 bd d7 75 58 3c 58 c6 98 3d d9 cc 8b 3d
       -0.078852825 0.013211689 0.07459706 0.06826181
000090 51 a9 39 bd 9b 2f 2c bd e0 de 95 3d b6 17 ff bc
       -0.04532749 -0.042037588 0.07317901 -0.031139236
0000a0 55 12 18 3d 37 30 72 bb 3d 9e e1 3c 5c 49 2b bd
       0.037126858 -0.0036955008 0.027541274 -0.041818008
0000b0 2e cf 66 3d 9d 0d 8d bd 0d 7c 04 3d 38 42 34 bc
       0.056349926 -0.06887362 0.032344867 -0.011002116
0000c0 5a 4c f1 3c 2e 28 71 3b d9 89 49 ba 32 04 6d bd
       0.029455353 0.003679763 -0.00076880824 -0.05786533
0000d0 7b 29 87 bc 82 d7 d8 bc 14 56 8f 3d 47 8f 45 3d
       -0.016499272 -0.02646995 0.0699884 0.048232343
0000e0 35 be d2 bc 0a ce a9 3d 87 25 a8 3d 92 30 88 3c
       -0.025725463 0.08291252 0.08210283 0.016624723
0000f0 5a 7e 9a bc 7c 07 93 3d 2f 90 0f 3d 5f c0 2e bd
       -0.018859077 0.07179162 0.035049614 -0.042663928
000100 a9 03 a5 3d b1 35 1f bc 63 c4 a7 3d 8d 15 93 bd
       0.08057339 -0.009717391 0.08191755 -0.07181845
000110 da aa 32 3d d1 25 95 3d 7a 8d 9e 3c b0 ee 90 bd
       0.043619968 0.072826035 0.01935457 -0.07076776
000120 3a 1c a6 3d 90 87 e3 bc 9d c6 93 3d 57 45 15 bd
       0.081108525 -0.027774602 0.07215617 -0.03644308
000130 e2 92 3b bd e5 63 42 bd cc 3f 6f bd 19 d2 f7 3c
       -0.045794375 -0.047458548 -0.05841045 0.03025155
000140 ca 4d d3 bc 8e 06 53 3d ab ab 68 bd 6b 9f 6d bd
       -0.025793929 0.051519923 -0.05680434 -0.05801336
000150 2d d3 28 bb ad 0b c4 3c ea b7 9e bd 11 14 b3 bb
       -0.0025760636 0.023931349 -0.077499226 -0.0054650386
000160 bb 65 d6 bc 9f 33 89 3d 0e f9 f5 3c 1a 35 8c 3c
       -0.026171556 0.06699299 0.030025985 0.017115165
000170 f1 7b 11 bd 19 b9 1b 3d 88 85 88 3b c8 0a 4a bd
       -0.03551859 0.03801832 0.004166309 -0.049326688
000180 b8 bc 51 bd bb ff 0c bd 66 e4 fc 3c 5d ab 26 bd
       -0.051205367 -0.03442357 0.030870628 -0.04069077
000190 86 a6 6b 3c 06 fd 57 3b 4d ff 7a bc 3f 66 cc 3c
       0.014382964 0.003295721 -0.0153196575 0.024951098
0001a0 a8 cb d8 3c 1f f9 06 bd 55 bb 84 3d 56 44 b7 3c
       0.026464298 -0.032952424 0.06481043 0.022371452
0001b0 2f c9 a7 bd 78 b3 33 3d f7 6f 36 3d 87 00 0b bd
       -0.081926696 0.043872327 0.04454037 -0.03393605
0001c0 78 67 ab 3b a7 ce 34 bd d9 98 59 3c 12 8e 9e bd
       0.0052308403 -0.04414239 0.013281071 -0.077419415
0001d0 fc b7 5d 3d 3f 22 8e bd 06 8d b2 3c c8 72 94 3d
       0.05413054 -0.06940126 0.02179576 0.07248455
0001e0 bb 9d 8f bc 6a 29 30 3d 74 bf 64 3c e2 b2 d4 bb
       -0.017531266 0.043008246 0.013961662 -0.006491051
0001f0 e1 32 7f 3d 8a 13 e6 3b 66 57 51 bd 48 45 fd bc
       0.06230438 0.007021372 -0.05110874 -0.030916825
