Checkpoints/HR_V/valence_s05.pth (torch, 461905 bytes, 29 tensors)

input_layer.weight f4 [128, 29]
00000000: 5483 3e3e 7a3a e93d 3861 2dbe 960b 2d3e
00000010: 0943 18bd 25db 073e 1474 c7bd 9dd4 e93d
00000020: 4a8a 063e c9f4 8ebd 8da5 24bd dbdc cabd
00000030: 4eca b33c aa2c f33d c2fb 663d 0af5 59bd
00000040: 581c c4bd 728a c5bd 34ef 0bbe 017e 803d
00000050: f91c a2bd b5be 1bbe f8ff 0abe 42a3 3b3e
00000060: 05f8 b4bd 1f91 0b3e 0860 513d 4490 f43d
00000070: 8ad2 bd3b 64e1 08be 3f7f 89bd 0eb8 133d
00000080: 6c57 f33d 4663 1fbe 65b2 0b3b 6f25 883c
00000090: 0fdd 523d 3cf4 d03b 4877 9dbd adab ef3c
000000a0: ba19 9bbc d8cc 9bbc 9fb1 f33d cba2 20be
000000b0: 9f04 8abd 3d83 e53c 07ff 8c3c e097 7039
000000c0: 91fa 30be 3f92 753d f5f9 62ba f732 19be
000000d0: 8970 ecbd 81ef 403d 8a42 bebd f33b 1abd
000000e0: f44f adbd c8a3 f63d bb22 eb3d 810f 283e
000000f0: f39e 14be 74e2 443d d920 9bbd bd1a 073d
00000100: 5dc7 a13c 7465 593d 5f7b b43d ee35 f7bd
00000110: 27ce 813d 7228 70bd d4ea a1bd beda 50bc
00000120: 7a28 eb3d 48be 91bd 1b54 2abe 545f c5bc
00000130: 4d35 19bd 9518 6c3d 4c20 2ebe e58f 003d
00000140: 8e04 0abe 2ed0 a3bd 8028 5abc 0cbd 873d
00000150: 8c75 073e 6992 0abe e895 333e 1c94 c63d
00000160: 75a7 f9bd 798a 93bd ac2e 17be ae5e c63d
00000170: 64c9 15be 25e9 01be cad1 9c3d 5b7d 553b
00000180: 4386 cc3d 5694 d13d 6b08 e3bb e9fd b3bd
00000190: ad2b b4ba 611b 2c3d 559e 18be cd0c 173c
000001a0: a006 053b ddfa a1bd 110b 083e c2eb 65bc
000001b0: 042d 153e ce73 1cbe e2cf 353e 6b83 24be
000001c0: 97f0 203d a60d 673c 6605 523d 92da 92bb
000001d0: 06d1 083e 726d 0ebe dba7 313e 99a7 50bc
000001e0: de8c 83bd 9718 bebd a98c 2b3e d07d 73bd
000001f0: 5149 b13c 3e53 9a3d 6f79 96bd ca81 0abe
00000200: b8b4 efbd 2ba9 a73c 920f 833d fc13 223e
00000210: 5108 09be c377 3b3d 9b8f bc3c 0f4f dabd
00000220: 92f2 873d 7203 143e 5f36 c53d 40ba a7bc
00000230: 4084 0abe a303 ebbd 19f4 7dbd 0f0d 343e
00000240: 33e5 3abe d6d2 22bd f4fc 223e 8f4c 4ebd
00000250: e94b 2c3e e172 48bd 09a6 4e3c 6c99 2b3e
00000260: 20d4 243d 74ac b93d 4a1d 58bd afeb 933d
00000270: 7e34 1b3e ba9a 3f3d 33cb 3c3e 7108 1d3e
00000280: 586b 17be 54cb 23be 3c7b c7bd 05f6 0d3e
00000290: 3548 fb3d 8bf0 e0bd f520 dfbd d7a9 133e
000002a0: 62ef 2fbe 1724 2c3e 01f7 9ebb b664 86bd
000002b0: 0753 33be 60c4 0ebe 0b14 2b3e 042a acbb
000002c0: d25c c33d e192 33bc 16d3 2fbe 8f1a 57bd
000002d0: 3c35 1e3e 0511 a1bc a7bd 4abc de53 073e
000002e0: 8672 f03d d251 a13d 021e 19bd efbf 1dbe
000002f0: 7c7b f03d 94e1 21be 4bc4 fbb9 596e 673c
00000300: 5bb9 c6bd db77 09be 161c 563d bf76 ec3d
00000310: a76b 233e 83ad 0bbe 3b97 943d 45a9 25be
00000320: fb00 c1bd 05bd 96bc 2f6b 25be d828 0a3e
00000330: de4c 43bd b6e5 39be 18cc 17bd 6309 b2bd
00000340: 756c 993d dd9b 0fbe fd40 b93c e9c3 e7bd
00000350: dd3e acbd d692 72bc 624d eabd 410e a4bd
00000360: 986f 893d 909e 15be 3e1a b33d bb02 0bbe
00000370: 77e5 e8b8 6cd1 a2bc 2453 adbd 5ddd 07be
00000380: 05e9 0d3e a1c3 c93d a689 073e de82 9cbc
00000390: 6f1f 22be a6ca aa3d 77c1 26be f654 383e
000003a0: a9c1 153d 2968 1f3e 7cde 0fbe 34eb 013e
000003b0: d3e7 b73b 523f 90bd ce66 dcbd 962c 183e
000003c0: 687f 053e 2d3f ab3b d5df 723c dc35 21be
000003d0: 4279 ccbd 2764 87bd 5f31 cdbd 9437 113d
000003e0: b4d9 88bd e300 0d3e 6fde 2bbe 7f4d 0f3c
000003f0: be38 70bd 1741 163e ef29 093d 5318 19be
0.18604785 0.11388107 -0.16931617 0.16898951 -0.037173305 0.13267191 -0.09738937 0.11417506
0.1313869 -0.06980283 -0.040196944 -0.09905406 0.021947052 0.11873753 0.05639244 -0.053212203
-0.09575719 -0.09645547 -0.13665468 0.06274033 -0.07915682 -0.15209468 -0.13574207 0.18323997
-0.088363685 0.13629578 0.051116973 0.11941579 0.0057929205 -0.1336723 -0.067137234 0.0360642
0.11881909 -0.15565214 0.0021316048 0.016619412 0.05148035 0.0063767713 -0.07688767 0.029256666
-0.018933166 -0.019018576 0.11899113 -0.156871 -0.06739163 0.02801668 0.01721145 0.00022944761
-0.17283083 0.059953924 -0.00086584623 -0.14960848 -0.11544902 0.04710341 -0.09290035 -0.03765483
-0.084625155 0.120429575 0.11481234 0.16412164 -0.1451376 0.048067525 -0.075746246 0.032984484
0.019748384 0.05307527 0.08812594 -0.12070833 0.063381486 -0.05863232 -0.07906118 -0.012747465
0.1148233 -0.071163714 -0.16633646 -0.024093308 -0.037404347 0.05764063 -0.17004508 0.03138723
-0.134783 -0.079986915 -0.01331532 0.06627855 0.13228434 -0.13532414 0.17537653 0.09696218
-0.12190143 -0.07204146 -0.14763898 0.096860275 -0.14627606 -0.12686594 0.076572016 0.0032575938
0.09986546 0.10233371 -0.0069284937 -0.08788664 -0.0013745927 0.042018298 -0.14904149 0.009219361
0.0020298138 -0.079091765 0.13285471 -0.01403326 0.14567953 -0.15278551 0.17755082 -0.16065757
0.039291944 0.014102375 0.05127468 -0.004481622 0.13360986 -0.13908938 0.17349188 -0.012735271
-0.06423353 -0.09282034 0.16752876 -0.059446156 0.021641405 0.075354084 -0.0734738 -0.13526073
-0.11704391 0.020466408 0.06399454 0.15827936 -0.13382079 0.04576851 0.023017695 -0.106596105
0.066380635 0.1445444 0.09629511 -0.020474553 -0.13527012 -0.11475303 -0.062000368 0.17583106
-0.18251495 -0.03975185 0.15916806 -0.05036598 0.16825832 -0.048937682 0.012612828 0.16757745
0.04024136 0.09066096 -0.052762307 0.072226875 0.15156743 0.046778418 0.1843689 0.15335251
-0.14787042 -0.15995532 -0.09740302 0.1386338 0.12269632 -0.1098338 -0.10894958 0.14420258
-0.17181161 0.16810642 -0.0048512225 -0.06562178 -0.17512141 -0.13942099 0.16706865 -0.005254032
0.095391884 -0.010960312 -0.17170367 -0.052515563 0.15449995 -0.019661436 -0.012374318 0.13215587
0.117405936 0.07876934 -0.037382133 -0.15405248 0.11742303 -0.15808707 -0.000480207 0.01412543
-0.097033225 -0.13424627 0.05227288 0.115460865 0.15959035 -0.13640408 0.072554074 -0.16177852
-0.09424015 -0.018400678 -0.16154169 0.13492143 -0.04768073 -0.18154034 -0.037059873 -0.086931966
0.0749139 -0.14024301 0.022613997 -0.11316664 -0.08410428 -0.014805516 -0.11440541 -0.08010531
0.06710738 -0.14611268 0.0874524 -0.1357526 -0.00011105363 -0.01987525 -0.084631234 -0.13268037
0.13858421 0.098517664 0.13236102 -0.019105371 -0.15832303 0.08339433 -0.16284738 0.1800116
0.03656164 0.15567078 -0.14049715 0.12687379 0.0056123524 -0.070433274 -0.10761796 0.14860758
0.13036883 0.005226037 0.0148238735 -0.15743202 -0.099840656 -0.066108994 -0.100191824 0.035453394
-0.066821486 0.1376987 -0.1678407 0.008746504 -0.058647864 0.14673267 0.033487257 -0.14950685

input_layer.bias f4 [128]
00000000: 5654 a4bd c9f6 9a3d c936 ab3c b5f8 adbc
00000010: a157 723c 855d ad3c 8c97 2abd b81e a4bd
00000020: 8489 053e 895c 21be c0b2 19be 0c5e 5cbd
00000030: 6542 91bd a53f 993d e8aa 813d d7f5 b23d
00000040: 6c88 6d3c f136 88bd fbc0 103e 29e3 63bd
00000050: 3362 22be 92ad 07bc 5da0 3f3c 23d2 233e
00000060: ba98 fdbb 4390 84bd ef81 983d 2328 e73c
00000070: 3ab3 20be 7d4c a7bd 19b2 48ba 1bef 34be
00000080: a7f2 c3bb 6e22 d53d 472c 06be eb00 2e3d
00000090: 1935 193d a4e2 783d 8aff edbd 9f02 0dbe
000000a0: 9a67 163e 4ae8 0a3e 28e6 233e cbd9 4cbd
000000b0: 4450 2ebe fb94 c73d 3acb e63d 3bbb 00be
000000c0: 7389 963d 1561 8f3d bb80 183b deb4 85bd
000000d0: d358 66bd b1e2 36be 7368 be3d b240 c23d
000000e0: 3351 02be 6278 a6bd 8f8a 16bd 47d5 bcbc
000000f0: b8c3 f7bc 2e59 d13d 5ce8 c53c aac7 b9bc
00000100: 8faa 95bd 6549 883c 56d3 20bd c8a0 88bd
00000110: 0e79 debd 9bcf 483d af44 6dbd 88b1 d7bd
00000120: dcb4 35be e8e5 e4bd 57cb d73d 8c9c e23d
00000130: c22d 7e3d 4dbb 4e3d a9b3 04be 6cf4 063e
00000140: 5b35 863d 908a e1bb afd6 2bbe a6f9 39be
00000150: 2fee 36be a2a3 243e b075 4d3d 6cff a53c
00000160: 5936 cfbd bc41 cc3d 63b0 ea3d dd8f 13bd
00000170: 04c9 6cbd fbd2 e7bc fbdf 7f3d 461e 863d
00000180: 5974 323d 7ff4 37bd 7022 8c3d d851 bfbd
00000190: d5ad 093e 0b95 fb3d f88e 233d 2095 55bd
000001a0: c7f1 9bbd 1934 263e 44b6 343c 85ef 8cbd
000001b0: d3b5 113e 7d7d 13be 1c5f 3a3d e5d9 153e
000001c0: acba 813d 2f74 ed3c b1bf f83d a749 b7bd
000001d0: 7341 543c c89f 4a3d 38cc 203e 3e9c 803d
000001e0: 763b 91bb 09a7 31bb 97b4 17be 027f d3bd
000001f0: 9255 80bb 013b 4cbb 221a 463d a828 2c3c
-0.08023898 0.07566602 0.020900147 -0.021236757 0.0147914 0.021162758 -0.041648433 -0.08013672
0.1304074 -0.15757956 -0.15009594 -0.053800628 -0.07092742 0.07482842 0.06331426 0.087382965
0.014497858 -0.06651104 0.14136116 -0.05563656 -0.15857773 -0.0082811285 0.011695948 0.1599813
-0.0077391537 -0.06472828 0.07446658 0.02821738 -0.1569337 -0.08168886 -0.0007655933 -0.17669336
-0.005979854 0.104069576 -0.13102828 0.042481344 0.037404153 0.060763016 -0.11621006 -0.13770531
0.14687958 0.13565174 0.16005766 -0.05001239 -0.17022806 0.09745213 0.11269231 -0.12571423
0.07350435 0.07000939 0.0023270089 -0.06528638 -0.056237053 -0.17859913 0.09297266 0.09484996
-0.12726288 -0.0812843 -0.036753234 -0.023050917 -0.030244693 0.10222088 0.02415865 -0.022678215
-0.07307922 0.01663656 -0.039264046 -0.066712916 -0.10862933 0.049026113 -0.05792683 -0.10531908
-0.17744774 -0.11176664 0.10536831 0.11065015 0.062055357 0.050471593 -0.1295916 0.13179177
0.065531455 -0.006882973 -0.16781114 -0.1816164 -0.17864297 0.16078046 0.050161064 0.020263396
-0.10117788 0.09973475 0.11459424 -0.03602587 -0.05780889 -0.028298846 0.062469464 0.06548743
0.04356799 -0.044910904 0.06842506 -0.09341782 0.13445218 0.12284287 0.039931267 -0.05214417
-0.07614475 0.16230811 0.011029784 -0.06881622 0.14229517 -0.14403339 0.04550086 0.14633901
0.06334433 0.028986065 0.12145937 -0.08949595 0.012955057 0.049468786 0.15702903 0.06279801
-0.004432137 -0.0027107617 -0.14814983 -0.10326959 -0.003916451 -0.0031163099 0.048364766 0.01050774

projection_layer.0.weight f4 [128, 128]
00000000: c3ca e6bb 1fc5 683d fcf3 d5bc 0c08 91bd
00000010: 357c 843d 855a a2bd 7298 753d f035 40bc
00000020: e054 9dbd 73b3 9c3d 3ec9 583d 9e2f a7bd
00000030: 481f 41bd 408a 16bd 0cf0 f0bc 82a5 0abd
00000040: 676d a13d a599 02bc 2eb8 3c3d 99e1 87bd
00000050: 7344 41bd b60d 1f3c 615a c33b 20f8 02bd
00000060: f7ff 833d b96a 81bd 119f 91bc 67e8 03bd
00000070: 03fe 563c 9d7e a4bd ac95 343d 83a0 d23c
00000080: d1c3 f0bc 6e22 283b 0b63 9339 0fc7 83ba
00000090: 250c 13bd 35b9 8b3d e517 fd3b ef12 b4bd
000000a0: e23a 363d ee8d a4bd 3cfe 5e3d 08c1 983b
000000b0: 0c8e dc3b 0567 f43c 8717 2e3d 3ed9 debb
000000c0: 5c09 883c ff8a 01bd 145b 033d de0a a53d
000000d0: 9ca7 7f3a 5d76 a5bc 25f1 913b bf99 1abc
000000e0: fcf5 a6bc c90f 803d 2f87 7e3d 2b4b 903d
000000f0: b3a7 623d 8010 9c3d dfac 9a3c 4295 1b3c
00000100: e517 f53b 7985 85bd 193b bbbc 2f66 1c3d
00000110: 3933 c2bc 8883 b53b ed2f 5e3d 6ef7 da3c
00000120: 27bf 9f3d 75dd c23c 4172 b03d e334 3dbd
00000130: 20b2 873d 7307 78bd 262e af3c a1e0 80bd
00000140: c133 e4bc dcbf f3bc de1f 23bd f77f 2fbb
00000150: e5cb 473d 5cf7 72bd 4a9d 07bd 9321 383b
00000160: c33a 413d bb34 c4b9 2ea6 98bd f617 6fbd
00000170: 2a87 183c ba4d 34bd bb27 4a3d f5e9 353d
00000180: e8f6 ccbc f05b 48bd 45bc d0bc d1a1 e23c
00000190: 9939 8c3d 68c6 863d 9fff 373d 475d 9f3d
000001a0: aa6c b3bb a81d 9d3d da26 923d 01ed 353d
000001b0: d52a a1bd fa35 b4bd 1996 2bbd fe84 1d3d
000001c0: 5633 7dbd 2473 4f3d 0485 2fbc e059 03bd
000001d0: 4c7e 85bb b01d c9bc f4ec 46bd b55f a9bc
000001e0: 4bf6 b5b8 650a 19bb 2071 eb3b 8bc9 793c
000001f0: ef37 893b 9954 60bc c016 9f3d a78d 6d3d
00000200: eba3 9ebd 87e5 99bd 40a3 55bb a41b 6b3d
00000210: e8fd 613c 603b 9dbd 41f1 2c3d cba5 09bb
00000220: e629 a2bc 9990 8dbb a5f0 8dbd b471 913d
00000230: 66b6 d23b 98ea f33c 9c9e 123d cde8 a3bd
00000240: 1c6f 87bd 3449 51bc e656 9bbd 4f46 6d3d
00000250: 9b91 953d 03cc 423d 6f94 dbbb 427c e43b
00000260: 6c2f ecbc ff0b a53d 7cd3 eb3c 370f 81bd
00000270: fac4 63bc 8728 0f3d 75be 8b3d 4a3c 90bd
00000280: 1bbb 023a 4aac 23bd c8c3 0fbc f141 0f3d
00000290: f6fd 553c dc3b 753c c437 3b3d edcf f43c
000002a0: 3c04 84bc 8217 2fba fd15 5abd 0801 9abd
000002b0: 125a 413b dee7 0c3d 62fb 4abc 5671 a4bc
000002c0: 2654 01bd a212 753d 5080 9dbd 16c7 663d
000002d0: b5ff 963c 1088 393c d21e aebd e035 d5bc
000002e0: 8297 ee3c 184f 23bb 7b09 b83d 9772 d03c
000002f0: a14e 953d 5a25 e43b 0c17 34bd 6a26 a73c
00000300: ca60 933d cfed 883d 4e4d a2bc 7593 7b3d
00000310: 0057 29bd 67c6 b7bc dbb9 70bd b3b2 aabd
00000320: 8fdc 993d 4861 68bd 0066 013d 7fa9 76bd
00000330: 2198 543d 0ba0 ee3c 56dc 14bb d41a 6ebc
00000340: 4a25 8a3d 67c8 713c 51a6 7f3d f224 563d
00000350: aaac b6bc 77e3 88bc 5109 2abd 874a 5d3d
00000360: eb7f 633d 6f74 663c 8c3d 6dbd e73d 5b3d
00000370: 6ac8 993c 378e d83c 6054 cc3c 06ab 013d
00000380: f04f 8e3d 3d44 a93b 99ad b33d ee94 21bd
00000390: 5984 5dbc 3c25 7ebd 934c 623b 89a3 183b
000003a0: 1fc9 e4bb ab2e 863d abed ba3c 6325 a3bc
000003b0: 89fb 83bd 3476 b2bd 0716 653d 36dc 05bd
000003c0: 324d 9e3c 83fb 2cbc 66a1 8a3d 6c57 74bd
000003d0: 16d5 053d 5e1d ccbc ab8b 3dbb e11c 90bc
000003e0: 5422 8d3c cecd 8d3c 25ba 9dbd 3c99 1f3d
000003f0: 260e 18bc 513d 433c ad99 8e3c 7f77 903d
-0.007043214 0.056828614 -0.026117317 -0.07081613 0.06469003 -0.079274215 0.059959836 -0.01173161
-0.07682204 0.07651415 0.052926295 -0.08163379 -0.047148973 -0.03675294 -0.029411338 -0.033849247
0.07882195 -0.007971202 0.046074085 -0.06634826 -0.04718442 0.009707859 0.0059617017 -0.03197491
0.06445306 -0.06319184 -0.017776044 -0.032204058 0.013122085 -0.08031962 0.04408805 0.025711304
-0.029390248 0.0025655287 0.00028111818 -0.0010053831 -0.035900254 0.06822435 0.0077237957 -0.08792674
0.04448975 -0.080348834 0.054441676 0.004661683 0.0067308005 0.02983428 0.042502906 -0.0068007996
0.016606025 -0.031626698 0.03206928 0.080587134 0.0009752454 -0.020198042 0.0044537955 -0.00943607
-0.020380966 0.06253011 0.06214064 0.07045587 0.05533571 0.076203346 0.01888126 0.009496035
0.007479655 -0.065195985 -0.022855328 0.038183387 -0.023706065 0.0055393614 0.054244924 0.026729312
0.07800131 0.02378724 0.08615542 -0.046193015 0.066257715 -0.06055398 0.02138431 -0.062928446
-0.02785671 -0.029754572 -0.039825313 -0.0026779154 0.048778433 -0.05931793 -0.033108987 0.0028096184
0.04717518 -0.0003742332 -0.07453571 -0.05837246 0.009309569 -0.04401944 0.049354296 0.044412572
-0.025020078 -0.048915803 -0.025480399 0.02766505 0.068469234 0.06580812 0.044921514 0.07781463
-0.0054756003 0.07671672 0.071363166 0.044415478 -0.07869498 -0.08799358 -0.04189119 0.03845691
-0.061816536 0.050646916 -0.010712866 -0.032068133 -0.0040738937 -0.024550289 -0.04856582 -0.02067552
-8.676628e-05 -0.0023352143 0.0071851164 0.0152458055 0.004187576 -0.013692045 0.07768011 0.05799642
-0.077461086 -0.07514482 -0.0032598525 0.057399407 0.013793446 -0.076773405 0.042222265 -0.0021003361
-0.01979537 -0.004320216 -0.06930665 0.07101765 0.006430435 0.029774949 0.035795793 -0.080033876
-0.06612989 -0.012773801 -0.07584934 0.05792838 0.07303163 0.047557842 -0.0067010443 0.0069728205
-0.028831206 0.08058929 0.028787367 -0.0630173 -0.013901943 0.03495076 0.06823436 -0.07042749
0.00049869873 -0.03995923 -0.008774705 0.034974996 0.013061037 0.014967885 0.04570748 0.029884303
-0.0161153 -0.0006679223 -0.053243626 -0.07519728 0.002950315 0.034400813 -0.012389036 -0.020073574
-0.03157439 0.059832223 -0.07690489 0.056342207 0.018432477 0.011323944 -0.08501972 -0.026026666
0.029124979 -0.002491897 0.08986183 0.025445266 0.07290388 0.0069624605 -0.04396729 0.02040406
0.071961954 0.066859834 -0.019812252 0.061419923 -0.041342735 -0.022433473 -0.058770996 -0.083348654
0.07512771 -0.0567334 0.031591415 -0.060220238 0.051902894 0.029129049 -0.0022714338 -0.0145327635
0.067453936 0.014757252 0.06241447 0.052281328 -0.02229913 -0.016710026 -0.04151279 0.054026153
0.055541914 0.014065846 -0.057920024 0.05352583 0.018772323 0.026435 0.024942577 0.03165724
0.069488406 0.0051656053 0.087733455 -0.03944867 -0.013520324 -0.06204723 0.0034530505 0.0023290834
-0.0069819833 0.0655187 0.022818407 -0.019915288 -0.06444461 -0.08713952 0.05592921 -0.032680713
0.019323919 -0.010558012 0.067690656 -0.059653684 0.032673918 -0.024916347 -0.002892236 -0.017591896
0.017228283 0.01731005 -0.0770152 0.038964495 -0.009280717 0.011916474 0.017407263 0.07054042

projection_layer.0.bias f4 [128]
00000000: 561c 46bc fd0b 693d bd0b bebc 3ba6 863b
00000010: f6bc 64bb cc3a bb3c e284 d03b 7483 23bd
00000020: 568f 37bd 645e 2bba 28e1 933d f80c 6a3d
00000030: 7337 02bd 89fc 6cbd f2eb 333d 11d8 c6bc
00000040: 7336 0e3d bca0 7bbd 7659 9c3d e4fc a23a
00000050: 0271 913d 7070 9c3d e592 9d3d 8396 953c
00000060: f8c8 8e3d 82f0 6e3d ed13 24bd c595 963d
00000070: ca43 a7bd 24bc 893d 33d1 503d 3974 293c
00000080: 4c8c abbd 1fb7 bcbc 4ecd 853d b9c4 cdba
00000090: d4a0 5a3d 9926 7cbd 428e 4b3c d2e4 a43c
000000a0: 6d68 853b 7972 52bd af06 8cbd 7f27 2ebd
000000b0: a170 dabc 94b6 3bbc f0d9 643d 9394 b9bc
000000c0: abb4 26bd 6ff4 2abd ee51 943d 65f6 953d
000000d0: cf2a 8c3c 1b7f 343d 916f 48bd f22b 54bd
000000e0: 5e64 75bc 7b0b 1ebb 0343 71bd 042a acbd
000000f0: dd54 b6bb 22f1 d93c 83a8 a7bd 87a6 33bd
00000100: db7d 313d 185b ccbc 669e 913d 1807 c33c
00000110: 81dc 903d 598e 733d 69d6 423c 810b 0c3d
00000120: 7af1 6abd 23d1 93bc f521 ce3c a82d 1fbd
00000130: 110d 8abc 5ab7 733d 3257 4abd 7c5a 8abc
00000140: 1f56 b8bc f6b9 4dbd 89e4 e8bc 88b5 c339
00000150: 14ae 453c fcb2 acbd 1cb1 e33c b6ef 393c
00000160: fd80 4ebd 01d6 f33c 5a52 9a3d ff80 90bd
00000170: 934f 88bd 95fd f9bc 70fb 773c 914c a9bd
00000180: c4d7 4dbd 2d23 8f3c 540b bf3b ff71 95bc
00000190: 438f 763a 354e a9bd b5f3 613c b63a d9bb
000001a0: 9401 783d 0a26 93bd fe0c 993d d6c3 9e3d
000001b0: 4f96 67bd 5a51 373d bd6e 53bc 2f62 1a3d
000001c0: 5c08 a6bd 7773 bc3c c1c3 a1bd 1c00 443d
000001d0: c241 aabd 5318 413d d70b 97bc 0995 adbd
000001e0: e9f1 9bbc d45c 86bd adc4 7ebc e66a 93bc
000001f0: a864 6e3d 9635 42bd 1c6f 85bd be0f 8a3c
-0.012091717 0.0568962 -0.023198957 0.0041091717 -0.0034902669 0.022855185 0.006363497 -0.039920285
-0.04481443 -0.00065371976 0.072206795 0.057141274 -0.03179116 -0.057858024 0.043926187 -0.02427295
0.034719896 -0.061432585 0.07634251 0.0012434986 0.07101633 0.07638633 0.076940335 0.018260246
0.069719255 0.058334835 -0.040058065 0.07352785 -0.081672266 0.06725338 0.050980758 0.010342651
-0.08376369 -0.023036538 0.065332994 -0.0015698887 0.053376034 -0.061560247 0.012424054 0.020128641
0.0040712864 -0.0513787 -0.06837212 -0.042518135 -0.026665034 -0.011457104 0.055871904 -0.022653854
-0.040699642 -0.041737016 0.07242189 0.07322387 0.017110256 0.04406653 -0.048934523 -0.051799722
-0.014977543 -0.002411573 -0.058901798 -0.08406451 -0.0055643157 0.026604239 -0.08186438 -0.043859985
0.043332916 -0.02494578 0.0711029 0.023807094 0.07073308 0.059461925 0.01189194 0.03419066
-0.057359196 -0.01804406 0.025162676 -0.0388619 -0.016851934 0.05950103 -0.049399562 -0.01688885
-0.022502003 -0.050226174 -0.028429287 0.0003732855 0.012065429 -0.08432576 0.027794413 0.011348655
-0.05041598 0.029765131 0.075352386 -0.07055854 -0.066558026 -0.030516425 0.015135631 -0.08266557
-0.0502546 0.017472828 0.005830208 -0.018242834 0.0009405503 -0.0826687 0.013791014 -0.0066293133
0.06054838 -0.0718499 0.07473181 0.077521965 -0.05653983 0.044755317 -0.01290482 0.03769129
-0.08107063 0.023004277 -0.07898665 0.047851667 -0.083133236 0.047142338 -0.018438263 -0.08475692
-0.01903625 -0.06560674 -0.015549821 -0.01799531 0.058201462 -0.047414385 -0.06515333 0.01685321

projection_layer.1.weight f4 [128]
00000000: df0f 803f 6d7f 7f3f bdad 7f3f f5be 7f3f
00000010: 35c1 7f3f 0b16 803f 5563 7f3f 5612 803f
00000020: 9058 803f 4806 803f 776a 803f 7162 7f3f
00000030: c32d 803f 451f 7f3f 2e23 803f 9afe 7f3f
00000040: b074 7f3f edd1 7f3f 038b 7f3f ae6e 803f
00000050: ffe4 7f3f a029 803f b724 803f 9e59 7f3f
00000060: e0e1 7f3f bccc 7f3f d56c 7f3f d414 803f
00000070: 87cd 7f3f 5782 7f3f 487e 7f3f e84d 7f3f
00000080: 9554 803f ee56 7f3f 2c2a 803f 14b0 7f3f
00000090: da83 7f3f 92d2 7f3f fc44 803f b4be 7f3f
000000a0: 5aa4 7f3f ba0f 7f3f 99e1 7f3f cc41 803f
000000b0: 59c4 7f3f ec9d 7f3f 9cff 7f3f f9c6 7f3f
000000c0: 3e6a 7f3f 9891 7f3f c814 803f 3d83 7f3f
000000d0: 054a 803f c711 803f eaba 7f3f 3f18 7f3f
000000e0: 4c81 7f3f cac8 7f3f cb34 803f 15d3 7f3f
000000f0: e38b 7f3f 96df 7f3f b8b2 7f3f 6e89 7f3f
00000100: 1b2b 7f3f 891d 803f 611a 803f a644 7f3f
00000110: 4b22 803f 741f 7f3f 35aa 7f3f 44fc 7f3f
00000120: f296 7f3f 5d4c 803f 2d20 803f f00e 7f3f
00000130: 2a31 7f3f 483e 7f3f fc1c 7f3f eefb 7f3f
00000140: 8c29 7f3f b1d7 7f3f 6101 7f3f 5944 803f
00000150: 8f4d 803f 4736 7f3f 03cf 7f3f 1ee9 7f3f
00000160: 6178 7f3f 9805 7f3f 3950 803f f929 7f3f
00000170: a713 7f3f e011 7f3f 278a 7f3f 6368 803f
00000180: 0c39 803f b0fa 7e3f f8df 7f3f 6592 7f3f
00000190: cc27 803f 5ec5 7f3f c673 7f3f ef29 7f3f
000001a0: 27c8 7f3f 3327 803f 48ca 7f3f 8468 803f
000001b0: 1743 803f f496 7f3f c50d 7f3f bdc0 7f3f
000001c0: 1631 7f3f b3f9 7f3f 0856 7f3f 3f36 803f
000001d0: 2363 7f3f c0e2 7f3f 7835 7f3f f0ca 7f3f
000001e0: b700 7f3f ec3a 7f3f 4711 803f 7e74 7f3f
000001f0: 74f3 7f3f 4feb 7f3f 3219 7f3f 824c 7f3f
1.0004843 0.9980381 0.9987448 0.9990075 0.99904186 1.0006727 0.99760944 1.0005596
1.0027027 1.0001917 1.003249 0.99759585 1.0013965 0.9965709 1.0010736 0.99997866
0.99787426 0.99929696 0.9982149 1.0033777 0.99958795 1.0012703 1.0011204 0.9974612
0.9995403 0.99921775 0.9977544 1.0006356 0.99922985 0.9980826 0.99802065 0.9972825
1.0025812 0.9974202 1.001287 0.9987805 0.99810565 0.9993068 1.0021052 0.99900365
0.99860156 0.9963337 0.9995361 1.002008 0.9990898 0.99850345 0.99999404 0.99912983
0.9977149 0.99831533 1.0006342 0.9980963 1.0022589 1.0005425 0.99894583 0.9964637
0.99806666 0.99915755 1.0016111 0.9993146 0.99822825 0.9995054 0.9988208 0.99819076
0.9967515 1.0009013 1.000805 0.99714124 1.0010465 0.9965737 0.9986909 0.999943
0.998397 1.0023304 1.0009819 0.9963217 0.99684393 0.9970441 0.996536 0.9999379
0.9967277 0.99938494 0.9961148 1.0020858 1.0023669 0.99692196 0.9992525 0.99965084
0.9979306 0.9961791 1.0024482 0.9967342 0.9963936 0.9963665 0.9982018 1.0031856
1.0017409 0.9960127 0.99951124 0.99832755 1.0012145 0.99910533 0.9978603 0.9967336
0.99914783 1.0011963 0.9991803 1.0031896 1.0020474 0.9983971 0.99630386 0.9990347
0.99684274 0.99990386 0.9974065 1.0016555 0.99760646 0.9995537 0.9969096 0.99919033
0.99610466 0.9969928 1.0005273 0.9978713 0.99980855 0.9996843 0.9964782 0.99726117

projection_layer.1.bias f4 [128]
00000000: d825 7639 e725 9738 ced6 86ba 2f44 c1ba
00000010: fc26 7eba 00a6 9f39 5cb9 b0ba 7cfe 9e3a
00000020: 98d1 f53a c588 25ba 4e33 4a3b 2e65 f1ba
00000030: 9e6e 813a a918 3ebb 6d0a ba3a 36d5 3bb9
00000040: 9d59 8fba 83e5 be3a 821e 96ba efd4 303b
00000050: 5cb1 80ba fc9b 933a bdcd 643a 0b15 07bb
00000060: d1b5 9738 78cb ab38 e8ca 5dbb 7dae fb39
00000070: 4876 93ba 5615 0dbb 7c12 15bb ee78 1dbb
00000080: 78ab 5a3b 0bf0 50bb 3081 b73a 305c ebba
00000090: aab7 85ba 7407 a4ba 16fb 143b 53d9 bdba
000000a0: c9ef 43ba 8267 46bb ccd3 ffb9 6f49 553b
000000b0: 562e 97ba e85e d7ba e629 b4b9 d214 903a
000000c0: 38d7 6e3a 7c35 07bb a404 853a c6ba 24bb
000000d0: 54bd 2a3b defa e53a 1439 91ba a256 57bb
000000e0: aa67 adba 64ac 29bb ca39 853a 9752 53bb
000000f0: 2a21 32ba 0e59 b83a 6e2e 29bb 97ed ceba
00000100: fb5a 573a 4755 4f3a 6066 803a 9c1c 52bb
00000110: ec99 183b 7427 58bb fc12 07bb 99ae 8bba
00000120: 0a26 1cba 2ee9 6c3b 5683 b23a dfd3 7abb
00000130: 46bf 44bb 9495 42bb 1c71 7cbb 05e4 d2b9
00000140: 465e 3abb 4362 6b3a 7d2b 74bb 1797 8639
00000150: 014e 263b 0592 5dbb 74d9 92b9 3006 e3b9
00000160: a74f 76bb 126e 58bb 4c86 053b 5350 51bb
00000170: 087c 73bb 8f06 68bb 8813 e3ba 52fe 573b
00000180: 908f 6a3a 30f7 5dbb 040e 88ba 9433 caba
00000190: 23a9 95ba 0f53 10ba ee06 eeba 968d ddba
000001a0: 7eaa 40ba 1bb2 613b 6864 13b9 b50d 793b
000001b0: 8df9 383b 0def 19bb b8df 6fbb 27b3 c8b8
000001c0: 2e5f a3b9 d8f8 d439 3cfa 1bbb 1985 213b
000001d0: 34dd feba 353b 3fb9 f4f3 37bb b98a ca3a
000001e0: 4a82 7cbb cd48 02bb 5496 d13a 84b2 34bb
000001f0: 1b67 5fba fa23 5cba 0abe 18bb ba11 24bb
0.00023474486 7.207301e-05 -0.0010287405 -0.0014745052 -0.000969514 0.00030450523 -0.0013482976 0.0012130286
0.001875448 -0.0006314631 0.0030853334 -0.0018416995 0.0009874885 -0.0029006398 0.0014193781 -0.00017913137
-0.0010936741 0.001456425 -0.0011453184 0.0026982387 -0.0009818482 0.0011261697 0.0008728167 -0.0020611908
7.234107e-05 8.1918144e-05 -0.0033842865 0.00048004455 -0.001125046 -0.002152761 -0.0022746613 -0.0024028379
0.0033366363 -0.0031881358 0.0014000293 -0.0017956551 -0.0010201831 -0.0012514428 0.0022732667 -0.0014484323
-0.00074743904 -0.0030274098 -0.0004879519 0.003254499 -0.0011534195 -0.0016431483 -0.00034363492 0.0010992533
0.00091110496 -0.0020631244 0.0010148478 -0.002513574 0.002605279 0.0017546078 -0.0011079633 -0.0032858034
-0.0013229747 -0.0025890106 0.0010164317 -0.0032245272 -0.0006795103 0.0014064626 -0.0025815028 -0.001578736
0.0008215156 0.00079091307 0.0009796135 -0.003206051 0.0023285104 -0.00329825 -0.002061068 -0.0010656893
-0.0005956596 0.0036149728 0.0013619463 -0.0038273258 -0.0030021234 -0.0029691206 -0.0038519567 -0.0004022421
-0.002843754 0.0008979181 -0.0037257366 0.00025671042 0.0025376084 -0.0033808958 -0.00028009305 -0.00043301424
-0.0037584098 -0.0033024591 0.0020374237 -0.0031938746 -0.0037152786 -0.00354043 -0.0017324546 0.0032957983
0.0008947784 -0.003386926 -0.0010380154 -0.0015426748 -0.0011418205 -0.0005505541 -0.0018160024 -0.0016903158
-0.0007349624 0.0034438435 -0.00014056417 0.0038002555 0.0028224916 -0.0023488433 -0.0036601853 -9.570113e-05
-0.00031160697 0.00040621194 -0.0023800274 0.0024645983 -0.0019444586 -0.00018237236 -0.0028068991 0.001545272
-0.0038529807 -0.0019879818 0.0015990236 -0.0027572224 -0.0008522139 -0.0008397695 -0.0023306631 -0.002503498

projection_layer.1.running_mean f4 [128]
00000000: 8e12 16bc 1080 b63b 1c12 50b7 2dde 13bd
00000010: 4254 333d 96fc f83c 341d b13c 3952 063c
00000020: ba9b 54bd 4152 bebc 1e96 503c f541 783c
00000030: 7c54 3abc 6fcf 1abd d364 843c 9d95 503c
00000040: 3c41 3f3c 25fd e1bc d6ce ba3b 6623 fbbb
00000050: 2aab 283c 0394 363d 8fcf 2fbc b6ff 6d3b
00000060: b234 daba a78c fd3b dfe2 a2bc 974f 5e3d
00000070: c8eb 32bd 36f8 203d 3427 913c 41a7 0b3d
00000080: 532c 3cbc c685 643c 8121 c93c 76a3 9dbc
00000090: 6ed9 d73c b454 1dbd 3664 e23c 8fcb 213d
000000a0: 28b0 21bd 9b43 60bc 0206 993c eb39 50bb
000000b0: 116c a33c 0fe2 01bc b657 40bc 4f2f b4bc
000000c0: 10cc 50bb 2b6b 0fbd 0f1a 01bc c422 013d
000000d0: f804 8fbb f89c e13c 16c3 2ebc 0392 1fbd
000000e0: 42c1 95bc 861e 9dbc eb53 dcbc 74d4 fcbc
000000f0: d657 b7bc 1a4d 193d d44c 59bd e539 b3bb
00000100: 01a9 0dbc b90d 45bb 90e2 153d 17e1 a2bb
00000110: 0911 e63c 6914 10bc c53d babb 66a8 883c
00000120: 7c22 37bd df4b 89bc 74b6 babc 853f 5abd
00000130: 8f3a a73c bdf1 973c 21c8 a0bc e4ea 9ebc
00000140: 883e 933c e69b 4c3c 22d0 0bbd 69c0 adbc
00000150: 415d fabb db45 e1bc 1ee9 fd3c 5ea3 e73c
00000160: f7b1 81bb 8d8e 933c 4607 643d 7cf0 123b
00000170: cd4e d73c 3707 0dbd ad8c 3bbc 1a78 4fbd
00000180: 5416 92bd 93a3 fd3c fd7a 59bc 403a 88bb
00000190: 040d 34bc dbbc d0bb 4d40 17bb 89f9 9dbb
000001a0: 9c09 1c3d 1180 29bd f447 203d 6aca 553c
000001b0: 0268 8abd 5a00 66bc 92f0 dbbc 04b9 2f3d
000001c0: c313 aebc 589e dd3c ed0c 3dbd 1bd9 ea3c
000001d0: e261 12bd d432 d6bc a4dd 3bbc 5be6 43bd
000001e0: 7228 9e3c 49fd 00bd 7701 5abd 210e 9e3b
000001f0: 3a10 023c 4152 5bbc d300 4cbd c83a 323c
-0.009159697 0.0055694655 -1.24019825e-05 -0.036100555 0.043781526 0.03039388 0.02162037 0.008198314
-0.051906325 -0.023232581 0.012731103 0.015152444 -0.011372682 -0.03779548 0.016161358 0.012730983
0.011673268 -0.027586529 0.0057009263 -0.007664132 0.010294715 0.04457475 -0.010730638 0.0036315746
-0.0016647785 0.0077377143 -0.019883571 0.05427512 -0.04368189 0.039299212 0.017718889 0.034095053
-0.011485177 0.01394791 0.024552109 -0.019242983 0.026348796 -0.038410857 0.027635675 0.03950077
-0.039474636 -0.013687993 0.018679623 -0.0031772803 0.019948991 -0.007927432 -0.011739662 -0.021995215
-0.0031859912 -0.035014313 -0.007879748 0.031527296 -0.004364606 0.027540669 -0.010666629 -0.038957607
-0.018280629 -0.019179594 -0.026895484 -0.030863024 -0.02238075 0.037427045 -0.053051785 -0.005469548
-0.008646251 -0.0030067994 0.03659302 -0.0049706805 0.028084295 -0.008793929 -0.005683633 0.016681861
-0.04471062 -0.016759811 -0.022792079 -0.053283233 0.020413665 0.018547887 -0.019626679 -0.019399114
0.017974153 0.012488341 -0.034134038 -0.021209912 -0.0076405113 -0.02749913 0.030994948 0.028276142
-0.0039579826 0.01801231 0.055671 0.0022421172 0.026282692 -0.03443071 -0.011447114 -0.050651647
-0.07133165 0.030961787 -0.013273952 -0.0041573346 -0.010989431 -0.0063701696 -0.0023079098 -0.0048210067
0.0380951 -0.0413819 0.03913112 0.013048748 -0.06758119 -0.01403817 -0.026848111 0.042901054
-0.021249657 0.027053043 -0.046154905 0.028667977 -0.03573788 -0.026147284 -0.011466417 -0.047827106
0.019306395 -0.03149155 -0.053224053 0.0048234616 0.007938439 -0.01338631 -0.049805474 0.010878272

projection_layer.1.running_var f4 [128]
00000000: a7e5 323f 4f13 2e3f 8c1e 323f 3280 303f
00000010: 65f5 343f 4b99 323f c6e4 333f 4540 2d3f
00000020: ad60 2f3f 2a47 333f e73b 2c3f bf9b 303f
00000030: 0f8a 2e3f 92e5 323f f1b8 2f3f 66fb 2f3f
00000040: d0c9 313f 07bd 2d3f d198 463f e364 363f
00000050: 5f41 313f 301f 383f 02fd 2d3f 2882 303f
00000060: 6937 303f 8684 323f 46d6 2e3f c928 313f
00000070: 840c 353f 67f8 313f 30b3 363f b5ea 2e3f
00000080: 0c23 2e3f 83d2 303f 3722 353f ff01 303f
00000090: 8fba 2d3f f8bd 353f ee77 2e3f 9aa7 3a3f
000000a0: 7443 2d3f e7d4 333f 2f28 2f3f 8f95 2f3f
000000b0: e6e9 353f bca3 333f 87a4 343f 36f4 303f
000000c0: dd22 2d3f ff6f 2d3f 7100 2e3f 6a6c 373f
000000d0: 59b8 2f3f bafb 2f3f f7fa 373f 251c 303f
000000e0: 5d79 383f 7f1b 303f 3c09 343f 9231 333f
000000f0: 2434 313f 7e9f 313f db31 2f3f 0a5a 2f3f
00000100: f769 313f b10b 383f 0db3 323f d707 313f
00000110: 43f2 323f bde8 303f 459c 313f 626f 373f
00000120: 8e2e 323f 7a61 333f a894 323f 1bd8 303f
00000130: ed52 333f 7074 303f fdf8 323f d094 2e3f
00000140: 6624 303f 17b5 323f 3965 373f fbf4 363f
00000150: 73a9 303f 310e 2f3f cbf9 2e3f 70df 343f
00000160: a360 313f 8d04 323f 0d32 2f3f f12a 313f
00000170: 5318 353f 0bc6 2f3f 2650 3a3f 6c75 2e3f
00000180: d379 373f eca7 363f 99c7 333f b6aa 2d3f
00000190: 8365 2d3f e530 373f 9c56 383f 0574 333f
000001a0: 9600 333f d8d5 2f3f 35de 303f e493 303f
000001b0: 8229 2d3f 2092 373f 5307 313f a8df 333f
000001c0: 2a05 353f fbe7 2c3f ef32 353f 3aaf 303f
000001d0: fd93 343f ef42 3a3f a47c 303f 8c06 373f
000001e0: e3e0 313f e717 2f3f 6059 2e3f 9d23 313f
000001f0: fa61 333f 5199 333f cf10 353f 5a32 323f
0.6988167 0.6799821 0.6957786 0.6894561 0.7068694 0.69765157 0.70270956 0.6767619
0.6850689 0.7003046 0.67278904 0.6898765 0.6817941 0.69881546 0.68641573 0.6874298
0.69448566 0.6786656 0.7757693 0.7124769 0.69240373 0.7192259 0.67964184 0.689486
0.6883455 0.69733465 0.68295705 0.6920286 0.7072222 0.69519657 0.7136717 0.68326885
0.6802223 0.69071215 0.7075533 0.68753046 0.6786279 0.70992994 0.6815175 0.7291199
0.6768105 0.7024674 0.6842069 0.68587583 0.71060026 0.70171714 0.7056355 0.69122636
0.6763132 0.6774902 0.67969424 0.716498 0.6864067 0.6874348 0.71867317 0.68792945
0.72060186 0.68791956 0.7032659 0.69997513 0.69220185 0.6938399 0.6843545 0.68496764
0.69302315 0.7189284 0.6980446 0.6915259 0.6990091 0.6910513 0.69379073 0.7165433
0.69602287 0.7007061 0.6975808 0.6907975 0.7004841 0.6892767 0.69911176 0.6819582
0.6880554 0.6980757 0.7163883 0.7146756 0.6900856 0.6838103 0.68349904 0.7065344
0.6928808 0.69538194 0.68435746 0.6920615 0.7074024 0.68661565 0.72778547 0.6814792
0.71670264 0.7134998 0.70226437 0.6783861 0.6773302 0.7155898 0.72007155 0.70098907
0.6992277 0.68685675 0.6908906 0.68975663 0.6764146 0.71707344 0.691518 0.7026315
0.70711005 0.67541474 0.70780843 0.69017375 0.7053831 0.7275838 0.68940187 0.71494365
0.69483775 0.6839585 0.68105125 0.69194967 0.70071375 0.7015582 0.7072877 0.6960808

projection_layer.4.weight f4 [128, 128]
00000000: abe1 b23d 3f0f 26bc fef5 ef3c fc54 72bc
00000010: 2de1 2b3d beeb 223d 4994 7e3d 7f0a fb3c
00000020: ecc2 883c 9512 f23c 1234 153d 3b77 553c
00000030: e3a4 0abd 368f 96bc 249d 023d 8339 a43d
00000040: 6140 2a3d 2b34 1a3d ed50 98bd 053e 55bd
00000050: be7c 833c d47c ab3d 54df 2b3d 337f a6bd
00000060: ad41 25bd 2367 453d 2810 833d 5732 90bb
00000070: 1587 ad3b edda a23d 0040 de3c 00e8 953d
00000080: 4750 453c 376e 293d 4f45 a6bc 015d fc3b
00000090: 024d eebb eea2 90bb 026e afbd 4687 bbbc
000000a0: 314a 46bd 8ffe 76bd d291 a2bd 1ab2 28bd
000000b0: 1e80 8fbd b659 9dbd 979e 093c 6b9a 92bd
000000c0: 2e66 45bd 8364 13bd 36c3 8abd 94ea aabd
000000d0: 8d32 59bd ed21 39bd c0d8 903d 29e2 3e3d
000000e0: f486 8abc 4461 d93a de26 74bd 04cb 8dbc
000000f0: 9e99 8d3c 2008 36bd 6c65 b33c 76cf a3bc
00000100: 9797 9c3d 3b78 693d 7d84 86bd 47b5 35bd
00000110: 0c93 473c 98ae 02bc 7542 51bd 800f a63d
00000120: 8a7b a2bd cc58 b03d 0206 63bd 6623 5cbd
00000130: 455d 44bd 48e7 a8bd f51e 23bc ef84 323d
00000140: b077 acbc c21a 833d a6f7 5abd 0998 23bd
00000150: f4a3 2a3d 8219 cf3c 85e5 ac3d ec2c 433d
00000160: 9da8 2abd bb67 253d 4fef 02bd cb5d 563d
00000170: 04e4 ae3d e282 b13d 18ad 66bd d220 a1bd
00000180: 72be 3d3d 7a1d 343d 4402 39bd f35e cbbc
00000190: 1b2d 1bbd 2931 69bd 4fb5 08bd 384c 1e3d
000001a0: ead9 40bb aa21 723d 89b6 64bd 1b3e a8bd
000001b0: a9ae 7e3d e7a6 563c 75a4 89bc fac5 7d3d
000001c0: fdd0 07bd 6763 3bbd e6e6 64bc 853e eebb
000001d0: c082 303c 72a8 d8bb e71a 903d fd8f 52bd
000001e0: 709f bdbc a99d f3bc d022 0b3d 14a2 77bd
000001f0: 6f41 a43d e7f1 b63d bf02 913c c11d 66bd
00000200: 292e 9dbd 1e7f 35bd a49e 48bd 6290 a1bc
00000210: 5826 af3c a0a2 86bd d1a2 95bd a302 a1bd
00000220: 1064 2dbc a22d 46bd e7ad 83bd 61a7 9f3c
00000230: aa24 aabd 4705 debc d6fd 0d3c 7b23 acbd
00000240: c032 183d 95b4 b0bd bebc cb3b 5266 5e3d
00000250: 287a 573d ca8e 8bbd 77c2 fcbc 9a56 e7bc
00000260: 7324 03bd 5e32 103d 60f8 13bd 83e2 68bd
00000270: 4deb b13b 8434 913d c67c 723d 614e 9fbd
00000280: 9769 e53c 97e8 debc 918d 47bb 3375 8bbd
00000290: cfc6 8cbd 1870 253d 2554 353d 7615 45bd
000002a0: 04ff 003d 2e25 52bd 4afc 63bd 1895 593b
000002b0: afa9 a73d d11d 10bc 6b6c a5bd 3d57 d2bc
000002c0: 376b 60bc deec 7b3c 329a 903d 1763 193d
000002d0: 25f1 e2bb 22fe aa3d af89 933d 9c01 48bd
000002e0: 49f5 bebc af99 423d 3af5 023d bd34 b33d
000002f0: e56d a1bb e49a b3bd 858a 4d3d cf4f 34bd
00000300: 485b 40bc 6a40 59bb 6ad8 473c 7acd 313c
00000310: bc0b 98bd 50f2 d3bc 2d80 113b 2136 42bd
00000320: 1b0c 4b3d 15d4 cbbb fb59 4b3d aec9 8bbd
00000330: f0ed 03bd 556a e43c 277c 1cbd c401 d1bc
00000340: 18f5 7cbc 4a24 28bd b341 643d 0994 4f3d
00000350: c4bf 8dbd fef5 643d d00e ac3d 1822 093c
00000360: 4285 77bc b5a6 3a3c 0ea8 af3b d2ea afbd
00000370: 8ed0 61bd ae91 57bd 61fd 2e3d e80d 663d
00000380: 1228 0fbd 011f 7e3d bb64 10bd 0910 09bd
00000390: b9bc ca3b d9d3 c43c 04b0 543d 21cd 66bd
000003a0: 71d7 fa3c 8f8d ed3c 3175 f43c 3ebc 623d
000003b0: f730 bfbc 2f9b 40bd 5086 82bd 3aa7 5cbc
000003c0: 3674 0ebc 60c3 01bd e66f 89bd d5cd 94bd
000003d0: de67 b83c e20d 813c e9cc 8bbd d7b0 80b9
000003e0: 47aa 163d a8f8 c13c 0ace 083d c7bb 403d
000003f0: 3e49 a63d 51a0 8c3d 4047 14bd e3c8 d3bc
0.08734449 -0.010135471 0.029292103 -0.01479077 0.04196279 0.039775603 0.062153134 0.030644653
0.016694508 0.029549876 0.03642661 0.013028915 -0.033848654 -0.018378835 0.031888142 0.08018782
0.041565303 0.037647408 -0.0743731 -0.0520611 0.016050693 0.083734185 0.04196103 -0.0812973
-0.040345836 0.048194062 0.06399566 -0.004400532 0.005295644 0.07951913 0.027130127 0.07319641
0.012043065 0.041364875 -0.02029672 0.0077015166 -0.0072723636 -0.004413954 -0.08565904 -0.022891652
-0.0484106 -0.06030136 -0.07937969 -0.041185476 -0.07006858 -0.07683127 0.008399627 -0.07158359
-0.04819315 -0.035984527 -0.06775515 -0.083455235 -0.053026725 -0.04519837 0.07072592 0.046602402
-0.016910054 0.0016584774 -0.05960738 -0.01730872 0.017285164 -0.044441342 0.021898948 -0.019996386
0.07646101 0.056999426 -0.06568239 -0.044362333 0.012181055 -0.007976197 -0.05108877 0.08108425
-0.079337195 0.08610687 -0.05542565 -0.053744696 -0.04794051 -0.082472384 -0.009956111 0.043583807
-0.021053165 0.06401588 -0.053458832 -0.039939914 0.041660264 0.025280718 0.08442215 0.047650263
-0.04166471 0.04038213 -0.031966504 0.05233554 0.08539584 0.08667542 -0.05631742 -0.07867588
0.0463242 0.043973424 -0.045168176 -0.024825549 -0.037884813 -0.05693165 -0.033376034 0.038646907
-0.0029426762 0.059114136 -0.05583814 -0.08214971 0.062178288 0.013101316 -0.016802052 0.061956383
-0.03315829 -0.045749094 -0.013971066 -0.0072706365 0.010773361 -0.006611877 0.07036381 -0.05140685
-0.023147315 -0.029738264 0.033968747 -0.060457304 0.08020293 0.08932858 0.017701505 -0.05618072
-0.0767482 -0.04431068 -0.048979416 -0.019722167 0.021380588 -0.06573987 -0.073064454 -0.07861831
-0.010582939 -0.048383363 -0.064296536 0.019488992 -0.08307774 -0.027102126 0.008666476 -0.08405205
0.037157774 -0.08628193 0.006217568 0.0542968 0.05260673 -0.06814344 -0.030854447 -0.028239537
-0.032017183 0.035204284 -0.03612554 -0.056856643 0.0054296614 0.07090095 0.059201024 -0.077786215
0.02800445 -0.027210517 -0.003044937 -0.06809463 -0.06873857 0.040390104 0.0442697 -0.04811617
0.0314932 -0.05130499 -0.055660523 0.003320044 0.081866615 -0.008796171 -0.0807732 -0.025676364
-0.013697437 0.015376298 0.070606604 0.037448015 -0.0069257193 0.08349253 0.072039954 -0.04882966
-0.02331032 0.047509845 0.031972148 0.087502934 -0.0049264305 -0.087697774 0.05018093 -0.044021424
-0.011740513 -0.0033149966 0.012197593 0.010852212 -0.07424113 -0.02587238 0.0022201643 -0.047414903
0.04957209 -0.0062203505 0.04964636 -0.06825577 -0.032209337 0.027882734 -0.03820434 -0.025513537
-0.015439294 -0.041050233 0.05572672 0.050678287 -0.06921342 0.05589866 0.08401263 0.008369945
-0.015107455 0.011392285 0.00536061 -0.0858971 -0.055130534 -0.052629165 0.04272211 0.056165606
-0.034950323 0.062041286 -0.035252314 -0.033462558 0.0061870483 0.024026798 0.051925674 -0.05634797
0.030620309 0.028998164 0.029841037 0.055355303 -0.023338778 -0.047022995 -0.06373274 -0.013467604
-0.008694699 -0.031680465 -0.06710796 -0.07265822 0.022510465 0.01575369 -0.06826193 -0.00024545818
0.036783483 0.023678139 0.03339962 0.04705408 0.081194386 0.068665154 -0.03620076 -0.025852626

projection_layer.4.bias f4 [128]
00000000: e34d bcbc 36b2 613d 2fd8 aebd e134 893d
00000010: 96bd 77bd ac01 a53d 1060 27bd 76cc 08bd
00000020: c194 2dbd f597 20bd aa51 45bd b47f 00bc
00000030: 943c 4a3d d943 633d d9ae 7abd 93dc c0bb
00000040: 9c9b 623c a184 993d 7b3d dfbc f11e 85bd
00000050: 6895 923c 6dd5 75bb 030e dfbb cd48 68bd
00000060: 1d92 19bd f7a4 83bd eadf f83c a700 beba
00000070: 3e14 95bd 226c 9e3b 6690 2abd 4ea9 10bd
00000080: 0907 c9bc ba5d 83bc cba8 2d3d 07e5 453d
00000090: c588 13bd ef8b 483d 4282 223c 62d7 5e3d
000000a0: 801f 723d d6b6 9ebd 66aa 833d 6426 5c3d
000000b0: 5314 96ba 0a6b 833d 4835 abbd 4481 6b3d
000000c0: eaf7 64bd 3e9a 34bc 762a 033d f0c4 97bc
000000d0: e6cf 6fbd f3a4 af3c e9d4 0e3d 3aea 803d
000000e0: 5a41 04bd 81ec abbd 8ed0 7fbd 9897 493d
000000f0: f843 97bd 4dfc b0bc 3d6e 41bd 7e34 093b
00000100: 0fca b23d 2b94 253d 23c3 743b ebf1 9b3b
00000110: c8e5 b53d 0030 083c 8973 20bd c4ef e5bb
00000120: 7aa6 afbd a07b a13d ebcd fc3c 7843 a23d
00000130: 4b8b 9a3d 78ce 4a3b d578 d1bc 8aff 963d
00000140: bd5d 783d 982c aa3d d03c 953c 401e 543b
00000150: 8e6b 3fbd 06fc 5a3d 7e4f a1bd 50fb 21bd
00000160: e5b8 4c3d 7a3e a73d bb7f de3b 2053 c73c
00000170: 1f98 1cbc 6cb9 2e3d 74d2 853c 1e7d 843d
00000180: d936 893d b10d 6fbd d6cc e2bc 422e de3c
00000190: d547 96bc c4d3 b3bd 1975 0fbd 845f 993d
000001a0: 06b6 973c 1fea bb3c e126 053c 1895 24bd
000001b0: b342 a2bb 3f98 9dbb 506e 0f3d c7db ba3c
000001c0: c2ea 86bd f23a 89bc fef0 8a3d 8059 bebb
000001d0: bcf4 6d3d f178 95bd e71a b33d 8395 0b3d
000001e0: 2326 00bd 8f7d 41bc 1996 8d3c 0af7 36bd
000001f0: f3c1 d3bc 1219 a23d 6ed3 dd3c 23fc 8a3d
-0.022986358 0.055101596 -0.085373275 0.06699539 -0.060483538 0.080569595 -0.040863097 -0.033398114
-0.04237819 -0.039207418 -0.048173584 -0.007842947 0.049374178 0.055484626 -0.061201904 -0.0058856695
0.0138310455 0.07496 -0.027250996 -0.06500042 0.017893508 -0.0037511245 -0.0068070902 -0.056710053
-0.03749286 -0.06427949 0.030380208 -0.0014496044 -0.072792515 0.004834668 -0.041641615 -0.03531771
-0.024539487 -0.016035903 0.0423973 0.04831412 -0.036019105 0.048961576 0.009918751 0.054404624
0.059112072 -0.07749717 0.06428985 0.05374755 -0.0011450149 0.064169005 -0.08359772 0.057496324
-0.05590049 -0.011023102 0.032022916 -0.018526524 -0.058547877 0.021440959 0.034871016 0.06294675
-0.032288887 -0.08394719 -0.062454753 0.049216837 -0.07386011 -0.021604681 -0.047224272 0.0020935829
0.08729946 0.040424507 0.0037347756 0.0047590635 0.08881718 0.008312225 -0.039172683 -0.0070171077
-0.08576675 0.07884908 0.030859908 0.07923025 0.07546099 0.003094582 -0.025570313 0.07372959
0.06063627 0.08309287 0.018217474 0.0032366663 -0.04673343 0.053463005 -0.0787649 -0.03954631
0.049981017 0.08166213 0.006790129 0.02433163 -0.009557753 0.0426573 0.016335703 0.06469177
0.066999145 -0.058362667 -0.027685564 0.027121667 -0.018344799 -0.087806255 -0.035023782 0.07488921
0.018519413 0.022938786 0.008126945 -0.04018125 -0.004951799 -0.004809409 0.03501731 0.022809876
-0.06587745 -0.01675174 0.06784247 -0.005809009 0.058094725 -0.07298458 0.087453656 0.034078132
-0.03128637 -0.011809721 0.017283486 -0.04466919 -0.025849318 0.07914938 0.027078357 0.067863725

output_layer.weight f4 [1, 128]
00000000: e644 133d 64a0 38bd 0f26 99bd 59eb 85bd
00000010: e2d9 2bbd 4b8d a33c 5333 afbd 57dc 8bbd
00000020: a5fb aabd 9ba9 48bd 2694 82bd e37f a8bd
00000030: 934b 323d 4cba e4bb b6da 8c3d b973 a2bd
00000040: bb53 4cbd 4bd3 823d cb16 ad3d cd7a a8bb
00000050: b125 41bd 0227 cb3c 7535 2f3b fd6e 083d
00000060: 2b4a bcbc 31cf 463d 4e0f a13c 8f9f 433d
00000070: 4103 223d 2eaa a33c 180c 753d cd63 39bd
00000080: c7f3 94bd 7429 a53d 188e 77bd 007e 493d
00000090: c42a 273d 3a5a 1b3d 4c3a 98bc 6be1 5f3d
000000a0: 8d1e 723a a9b2 65bd 8767 383d 674d 9fbd
000000b0: f410 8cbc 89bb 763c 39da 8d3c 2d96 5fbd
000000c0: f1bc 823d ec70 713d 49b4 0ebc 3b66 b9bc
000000d0: 73ca 863d 181b 963d eb38 afbd 5668 aabd
000000e0: 6f5e 9fbd dd40 b3bb 588f 39bd fff2 a5bd
000000f0: bbf6 88bd 7b29 17bd 4cb6 5ebd e46a a6bd
00000100: d09b 803d d477 cabb a161 c4bc 8834 d4bc
00000110: f665 a83d 51ef 8bbd a812 6e3d 54cb 1abc
00000120: fe6b 163d 66ab a33c c93f db3c 1a60 89bc
00000130: bfd6 52bd b562 163d eadb a6ba a9ab 01bd
00000140: 6932 59bd fd21 d4bc 28d5 31bb 1b66 6e3d
00000150: 5a71 4bbc 2663 bd3a ea3a 603b d75b 653d
00000160: e909 c63c 8425 2f3d 91d9 fcbc 4dcf ba3c
00000170: 98df b3bb 24dc 8a3c 30a5 19bd a3b7 603d
00000180: 9980 543c 649a 9d3d 97d9 92bd 9131 613c
00000190: 5445 9d3d 0812 98bd 1dc7 853c d4ae 9a3d
000001a0: ccc1 0b3d cc62 583d 6dc7 c53c ff0e 1ebd
000001b0: c454 9dbd b332 9abd d7db 76bd 6e3d aa3d
000001c0: d7bc 1f39 9285 313b ea49 ad3d 5ed2 90bd
000001d0: e68b 4b3b 8f5e a23d 6f73 bd3c 13de 9dbd
000001e0: c1fc 98bd 8c33 52bd 3c01 84bd 9855 15bc
000001f0: 349c b0ba 8774 4d3d d6b3 133d d37a f4bc
0.03595438 -0.045074835 -0.07477962 -0.0653903 -0.041955836 0.019964835 -0.08554711 -0.06829136
-0.08348779 -0.048989873 -0.06375913 -0.082275175 0.043529104 -0.006980216 0.06877653 -0.079322286
-0.04988454 0.06387957 0.08451613 -0.005141592 -0.047155086 0.024798874 0.0026734744 0.03330897
-0.022984585 0.048537437 0.019660618 0.04775959 0.039553884 0.019978609 0.059825987 -0.045261193
-0.07273059 0.08064547 -0.060438246 0.04919243 0.04081227 0.037927844 -0.018582486 0.054658335
0.000923612 -0.056078587 0.045020606 -0.07778435 -0.017097928 0.01505936 0.01731597 -0.05458658
0.06383694 0.05894558 -0.0087099755 -0.022631755 0.06581583 0.073293865 -0.08555778 -0.08320682
-0.07781684 -0.005470379 -0.04530272 -0.081029885 -0.06687685 -0.036904793 -0.05437307 -0.081258565
0.06279719 -0.0061788354 -0.023972334 -0.025903955 0.082225725 -0.06832755 0.05812326 -0.009447891
0.036724083 0.01997919 0.026763814 -0.016769458 -0.05147433 0.036715228 -0.0012730334 -0.03165785
-0.05302659 -0.025895113 -0.0027135108 0.058202844 -0.012417162 0.0014449104 0.0034214803 0.05599579
0.024174647 0.042760387 -0.030865462 0.022803927 -0.005489301 0.016950674 -0.03751105 0.05486263
0.012970113 0.07695463 -0.07170408 0.013744728 0.07679239 -0.07425314 0.016330296 0.07552877
0.034120366 0.052828595 0.024142945 -0.03858852 -0.076821834 -0.07529201 -0.06026825 0.08312498
0.0001523377 0.002708767 0.084613636 -0.07071374 0.0031058728 0.07928192 0.023126332 -0.07708373
-0.07470084 -0.05131869 -0.06445548 -0.009114645 -0.0013474287 0.050159957 0.036060177 -0.029843723
