Checkpoints/HR_V/valence_s19.pth (torch, 461905 bytes, 29 tensors)

input_layer.weight f4 [128, 29]
0	0x3d441e8b	0.04788069
1	0xbd9212f8	-0.07132524
2	0x3e2561b2	0.16150549
3	0xbd931f82	-0.07183744
4	0xbd095807	-0.033531215
5	0xbdc9bc5f	-0.09850382
6	0x3de04312	0.10950293
7	0xbdf3aef1	-0.11898602
8	0x3bda0108	0.006652955
9	0x3e4373c7	0.19087134
10	0x3d6f344b	0.05839948
11	0xbe11f26e	-0.14252636
12	0x3dc0b533	0.09409561
13	0xbe233b40	-0.15940571
14	0x3ca0e0eb	0.0196385
15	0x3bb3bd5b	0.0054852194
16	0x3e3a3200	0.18183136
17	0xbd532646	-0.051550172
18	0xbc4d08ae	-0.012514276
19	0xbe31d0f3	-0.17364864
20	0xbd2eb7f1	-0.04265589
21	0x3c839592	0.016062532
22	0x3e104262	0.14087823
23	0xbe243926	-0.16037425
24	0x3e2f630b	0.17127626
25	0x3e33cb26	0.17557964
26	0xb9af80ed	-0.00033474658
27	0xbdf07e58	-0.11742848
28	0xbe1a29bb	-0.15054981
29	0xbc7e2a9a	-0.015513087
30	0xbe347421	-0.17622425
31	0xbdda280b	-0.10652169
32	0x3c20c5f5	0.009812822
33	0x3e0b0a4c	0.13578147
34	0xbe29e631	-0.16591717
35	0xbe3ecf0a	-0.18633667
36	0xbd8013a1	-0.06253744
37	0xbe32db95	-0.17466576
38	0x3d32b441	0.043628935
39	0xbd8a24f6	-0.06745331
40	0xbe189de3	-0.14903979
41	0x3d5ffe05	0.05468561
42	0x3e0eff4b	0.13964574
43	0xbe0f6a8e	-0.14005491
44	0x3d9977cd	0.07493553
45	0x3e31c941	0.17361929
46	0xbd0e22f4	-0.034701303
47	0xbb0f7c66	-0.0021894216
48	0xbe21b634	-0.15792161
49	0x3e32d1aa	0.17462793
50	0x3dd40c1c	0.10353872
51	0x3dc5a681	0.09650899
52	0xbd47f5d0	-0.04881841
53	0xbe3892f6	-0.18024811
54	0xbdd4b3b8	-0.10385841
55	0x3e1726a0	0.14760828
56	0xbd4a1ee1	-0.049345855
57	0x3d7f2334	0.06228943
58	0xbcacca56	-0.021092575
59	0xbdbf701d	-0.09347556
60	0x3cb950de	0.022621568
61	0x3e120db9	0.14263047
62	0x3e0f5173	0.13995914
63	0xbbd4e459	-0.0064969477
64	0x3dd86140	0.10565424
65	0xbd7d84aa	-0.061894096
66	0x3e382c04	0.1798554
67	0x3dff61fe	0.124698624
68	0x3e33bc19	0.17552222
69	0xbe330755	-0.17483266
70	0x3e1cb8a8	0.15304816
71	0x3d07ec0b	0.033184092
72	0xbd5c3edc	-0.053770885
73	0xbd4f3cdb	-0.050595146
74	0x3dc2a2c4	0.09503701
75	0x3df5bbf2	0.11998738
76	0x3d3c983b	0.046043616
77	0xbe145e14	-0.14489013
78	0xbe0df187	-0.13861667
79	0xbe0ee07f	-0.13952826
80	0x3d3747d8	0.04474625
81	0xbcf83759	-0.03029983
82	0x3cca5800	0.024700165
83	0x3c5e7e1d	0.013579872
84	0xbd337ae5	-0.043818373
85	0x3d3516f3	0.04421134
86	0xbdda590b	-0.10661515
87	0xbd945c55	-0.072441734
88	0xbdb04915	-0.08607689
89	0xbcf27537	-0.029596908
90	0x3e07dbc3	0.13267426
91	0x3e27b1f5	0.16376479
92	0xbd197bf8	-0.03747174
93	0xbdda6554	-0.10663858
94	0x3d3d58b7	0.046227183
95	0x3d640ca1	0.055676106
96	0xbdc8650c	-0.09784898
97	0x3cf0d27a	0.029397238
98	0x3e2c58a9	0.16830696
99	0xbd1a4cdd	-0.03767096
100	0xbdc6a6a8	-0.09699756
101	0xbd2312f7	-0.03981301
102	0xbe18867f	-0.14895056
103	0xbe23148c	-0.15925807
104	0xbe33f332	-0.1757324
105	0x3db7177d	0.08940027
106	0x3e3558a6	0.17709598
107	0xbcfc071c	-0.030765109
108	0xbddf4e77	-0.10903638
109	0xbd9c7b7e	-0.07640742
110	0xbe0d6ba7	-0.13810597
111	0xbd5eea52	-0.054422684
112	0xbe112084	-0.1417256
113	0x3e2ca5b2	0.16860083
114	0xbe007f81	-0.12548639
115	0xbe00ddc5	-0.12584598
116	0xbd2c5621	-0.042074326
117	0xbe10fef4	-0.14159757
118	0x3c251cd2	0.010077672
119	0xbc689c88	-0.014197476
120	0x3c8255f0	0.015910119
121	0xbcc5ca2a	-0.02414425
122	0xbdae8b44	-0.085226566
123	0x3def8a27	0.11696272
124	0x3da34f80	0.07974148
125	0x3d296a0b	0.041360896
126	0xbd9820a2	-0.07428099
127	0xbc41d0fa	-0.011829609
128	0x3de2be72	0.11071481
129	0x3d41b7ed	0.047294546
130	0xbdee1573	-0.11625185
131	0x3e3a6440	0.18202305
132	0x3cf7695b	0.030201605
133	0xbd94d004	-0.07266238
134	0x3e1ae7ea	0.1512753
135	0x3d3ab45c	0.04558216
136	0xbe1b5c02	-0.15171817
137	0xbd0303bf	-0.031985994
138	0x3e0a0121	0.13476993
139	0x3e07b9b6	0.13254437
140	0x3e36d188	0.17853367
141	0x3e34eb8c	0.17667979
142	0x3dd1ebc1	0.102500446
143	0x3e161bf1	0.14659096
144	0x3e1fbef8	0.15600193
145	0xbde583a3	-0.11206748
146	0xbe0d9b64	-0.13828808
147	0x3e179a79	0.1480502
148	0xbd9c134e	-0.076208696
149	0xbdb3a8d5	-0.087724365
150	0xbe3e3975	-0.18576606
151	0xbb26075c	-0.0025333976
152	0xbdb03c38	-0.08605236
153	0x3e2ec3f8	0.17066944
154	0x3db6f384	0.08933166
155	0xbe1a5850	-0.15072751
156	0xbd9547a7	-0.07289057
157	0x3c6418ce	0.0139219295
158	0xbe2727e2	-0.16323808
159	0xbe2410de	-0.1602206
160	0x3d4b0098	0.049561113
161	0xbcde2b8a	-0.02712037
162	0x3c20be0e	0.009810938
163	0xbd22a3bb	-0.039706927
164	0x3d7a6af8	0.06113717
165	0x3c5365b5	0.012902667
166	0x3d3847f1	0.044990484
167	0x3e19c4b9	0.1501645
168	0x3db102ab	0.08643087
169	0xbe2ebcf1	-0.17064263
170	0x3dafe3eb	0.08588394
171	0xbe00f9eb	-0.12595336
172	0xbe196dab	-0.14983241
173	0x3d145696	0.036215387
174	0x3e2c2dcf	0.1681435
175	0x3d2c8158	0.04211554
176	0xbd9e0eb0	-0.07717645
177	0xbccbcb53	-0.024877226
178	0x3d727455	0.059192974
179	0x3d61c31b	0.055117708
180	0xbcc3bceb	-0.023893794
181	0xbdffeae6	-0.12495975
182	0xbc926f39	-0.0178753
183	0x3dfdef02	0.12399103
184	0xbdd970f4	-0.10617247
185	0xbd87fb46	-0.066397235
186	0x3caed6f2	0.021342728
187	0x3e31dd87	0.17369662
188	0x3da65004	0.081207305
189	0xbd7a6e83	-0.06114055
190	0x3dfd6024	0.12371853
191	0x3d9fda7e	0.07805346
192	0x3d708ddc	0.058729038
193	0x3d7de2d9	0.061983917
194	0x3dae3755	0.085066475
195	0x3e01513f	0.12628649
196	0xbce7b7d8	-0.028285906
197	0xbdf94bf2	-0.121726885
198	0xbd7fefca	-0.06248454
199	0x3d899857	0.0671851
200	0xbe2906c1	-0.16506483
201	0xbdba6b07	-0.09102445
202	0x3c2ccdbc	0.010547098
203	0xbe0d453d	-0.13795944
204	0x3d856ffb	0.06515499
205	0xbd6f51a6	-0.058427475
206	0x3dc741b0	0.09729326
207	0xbe2af0aa	-0.16693369
208	0x3dac420e	0.084110364
209	0x3db18426	0.086677834
210	0x3c7c9bd3	0.015418011
211	0xbe377a74	-0.17917806
212	0x3ca4425f	0.02005118
213	0xbd725974	-0.05916734
214	0xbd8f4f42	-0.06997539
215	0x3d94ac4c	0.072594255
216	0xbdf09329	-0.117468186
217	0xbd083491	-0.033253256
218	0xbdf63afc	-0.12022969
219	0x3d40b392	0.04704625
220	0x3d920ed6	0.07131736
221	0x3d1dddd7	0.03854164
222	0x3e22e8d8	0.15909135
223	0x3bee2ea8	0.0072687455
224	0xbdf73828	-0.12071258
225	0x3e2946db	0.16530935
226	0xbd866fc9	-0.0656429
227	0xbd9c2394	-0.076239735
228	0x3c9a4577	0.018831952
229	0xbd77a109	-0.06045631
230	0xbda44ff6	-0.08023064
231	0xbd871291	-0.06595338
232	0x3c20b0b8	0.009807758
233	0x3bc4338d	0.0059875906
234	0x3daf9977	0.08574193
235	0xbe3ea5ec	-0.18617982
236	0xbe38c7de	-0.18044993
237	0xbd792f71	-0.06083626
238	0xbd41ab53	-0.047282528
239	0x3e18c658	0.14919412
240	0xbb220076	-0.0024719513
241	0x3e411bdc	0.18858284
242	0x3cd68ac5	0.026189217
243	0xbcd746c5	-0.026278863
244	0xbcdfdeb4	-0.027327873
245	0x3dcc91f7	0.09988778
246	0x3dcdc135	0.10046617
247	0xbe115d76	-0.14195809
248	0x3cf6a082	0.030105833
249	0xbd1b6c48	-0.037945062
250	0x3d50a75b	0.050940853
251	0xbb8a5f7b	-0.004222808
252	0x3e0a90ee	0.13531849
253	0x3b6115c7	0.0034345256
254	0x3e0e83e7	0.13917504
255	0xbd87cacc	-0.06630477

input_layer.bias f4 [128]
0	0x3e3151fe	0.17316434
1	0x3e00d891	0.12582614
2	0xbddeba3d	-0.10875366
3	0x3d0fa094	0.03506525
4	0xbd36af8a	-0.044601
5	0x3e19fbce	0.15037462
6	0xbd7ed4c7	-0.06221464
7	0xbda92eab	-0.08260854
8	0x3e2efbaf	0.17088197
9	0xb8e350b0	-0.00010839233
10	0x3e0c7644	0.1371699
11	0xbe03b225	-0.12860925
12	0xbe1d52bd	-0.15363593
13	0xbd9d8fc2	-0.07693435
14	0xbdcf5994	-0.101245075
15	0xbcb71dbe	-0.02235305
16	0x3e26ff1e	0.16308257
17	0x3dcf1acc	0.10112533
18	0x3c7ad577	0.015309683
19	0xbd6ff613	-0.058584284
20	0x3c811e32	0.015761469
21	0x3bf5d87e	0.0075026145
22	0xba7e4418	-0.0009699478
23	0xbb99d34e	-0.004694379
24	0x3ded120e	0.11575709
25	0x3e10d358	0.14143121
26	0x3c951590	0.018198758
27	0xbe1d6923	-0.15372138
28	0x3d410aec	0.047129557
29	0xbe0f8a5b	-0.14017622
30	0xbd07048a	-0.032963313
31	0x3e0fcfb2	0.14044073
32	0x3de4dab3	0.11174526
33	0xbd69b020	-0.05705273
34	0xbe07a729	-0.1324736
35	0xbcd4a890	-0.025959283
36	0xbe19f392	-0.15034321
37	0xbc53051b	-0.012879635
38	0xbc6f7afe	-0.014616726
39	0x3be64d3c	0.00702825
40	0xbd06e37e	-0.032931797
41	0xbdba8af5	-0.09108535
42	0xbd70bcbd	-0.058773745
43	0x3d9e14fd	0.07718847
44	0xbdd927d6	-0.10603301
45	0xbd97bf7a	-0.07409568
46	0xbe1963b5	-0.14979441
47	0x3dada7ca	0.08479269
48	0x3a682aeb	0.0008856493
49	0x3e023ecd	0.12719269
50	0xbdfd70b0	-0.12375009
51	0x3e12e156	0.14343771
52	0xbe22dd33	-0.15904693
53	0xbdb8a432	-0.09015693
54	0x3e300d54	0.17192584
55	0x3d7d37e5	0.061820883
56	0xbcf1ed45	-0.029532084
57	0xbd59175d	-0.053000797
58	0xbce5c685	-0.028048763
59	0x3d1c5c31	0.038173858
60	0x3d786e79	0.06065223
61	0xbcfb0ead	-0.030646646
62	0x3d3a5aa8	0.045496613
63	0x3e2cc417	0.16871677
64	0x3e02ef46	0.12786588
65	0xbdb70f9f	-0.08938526
66	0xbe133ff4	-0.14379865
67	0x3e11554c	0.14192694
68	0xbe2359aa	-0.15952173
69	0xbd2ab86f	-0.041679796
70	0xbd93c08b	-0.07214459
71	0xbd9ac050	-0.07556212
72	0xbcc5a3a8	-0.024125889
73	0xbb3349bc	-0.0027357182
74	0x3dfbc252	0.12292923
75	0xbde143df	-0.109992735
76	0x3e018b4d	0.12650795
77	0xbe1d9ce3	-0.15391879
78	0x3dec239b	0.11530229
79	0x3e1d8f3c	0.15386671
80	0x3d9f62ae	0.077824935
81	0xbdb216d4	-0.0869576
82	0xbdc83743	-0.09776165
83	0x3d8c7ef6	0.068601534
84	0x3d8bee16	0.06832521
85	0x3de6a1df	0.11261343
86	0x39087723	0.00013014353
87	0x3db68dbf	0.08913755
88	0xbdab03bd	-0.083503224
89	0xbdce53ed	-0.10074601
90	0x3da0dbbd	0.07854412
91	0x3d02c7d6	0.03192886
92	0xbd86ee1c	-0.065883845
93	0xbd386c77	-0.045025315
94	0xbd5bb483	-0.053638946
95	0xbd955f1e	-0.07293533
96	0xbdeab2fa	-0.11459918
97	0xbd9b022c	-0.075687736
98	0x3d59440b	0.053043406
99	0xba07b20a	-0.0005176371
100	0x3e069ec5	0.13146503
101	0xbdfe660e	-0.12421809
102	0xbcfdb2b2	-0.030968998
103	0x3e2c5f9c	0.16833347
104	0xbd7e9a91	-0.062159125
105	0x3d0a7b71	0.03380913
106	0x3dcfdc97	0.10149496
107	0x3dc88b70	0.097922206
108	0x3dda79ab	0.106677376
109	0xbc9f7b83	-0.019468075
110	0x3e08595c	0.13315338
111	0x3cfeb2a0	0.031091034
112	0xbc485a3c	-0.012228545
113	0xbdd71027	-0.10501128
114	0x3dd5ae85	0.104336776
115	0x3cf0e247	0.029404772
116	0xbdf7e3b1	-0.121039756
117	0x39232b2b	0.00015560973
118	0xbbc3583c	-0.005961446
119	0xbd9e2ca6	-0.0772336
120	0xbe26584d	-0.16244622
121	0x3db99f9b	0.090636455
122	0xbd5ed8d1	-0.05440599
123	0x3ddbc2f5	0.107305445
124	0x3dff6356	0.12470119
125	0xbe30a847	-0.17251693
126	0xbcb53b21	-0.022122921
127	0x3d05984f	0.032615956

projection_layer.0.weight f4 [128, 128]
0	0xbd5ee1be	-0.054414503
1	0xbdc487a5	-0.09596185
2	0x3daf6356	0.08563869
3	0xbc1a54b1	-0.009419606
4	0xbbd444c5	-0.0064779245
5	0xbca723da	-0.020402838
6	0x3d692b35	0.05692597
7	0x3c0b9fdb	0.008521999
8	0x3d15237a	0.036410786
9	0x3d350dde	0.044202678
10	0xbdb6ab1c	-0.08919355
11	0xbcb83a74	-0.02248881
12	0xbcbc8932	-0.023014639
13	0x3db20acd	0.08693466
14	0x3aa57abd	0.001262508
15	0xbd0344aa	-0.032047905
16	0xbd5c57c1	-0.053794626
17	0xbaef11ce	-0.0018239559
18	0xbdb0fdbe	-0.086421475
19	0x3c522147	0.012825317
20	0xbd37d12b	-0.044877212
21	0x3d056505	0.032567043
22	0xbc684cf3	-0.014178502
23	0x3d728e8f	0.059217986
24	0x3d4127b8	0.04715702
25	0x3d80a209	0.06280906
26	0x3cadd4ce	0.021219637
27	0x3b96e32b	0.0046047173
28	0x3d1c5685	0.03816845
29	0xbda412dd	-0.080114104
30	0xbceb0537	-0.02868901
31	0x3c96899e	0.018376168
32	0x3da43d48	0.08019501
33	0x3c01b5fc	0.007916924
34	0x3d52e807	0.05149081
35	0x3d70d0d2	0.058792897
36	0xbc21f0cb	-0.00988407
37	0xbd1a5d00	-0.037686348
38	0xbcb37d09	-0.021910207
39	0x3da1c8fd	0.078996636
40	0xbacdf83c	-0.0015714238
41	0xbcbff995	-0.02343444
42	0xbdb03b43	-0.08605053
43	0xbb59187d	-0.0033126168
44	0xbd1851ca	-0.037187375
45	0x3ccffd06	0.025389206
46	0xbb9f6d2a	-0.0048653083
47	0x3ca2337f	0.019799946
48	0x3c38b9a6	0.011274731
49	0xbcfba793	-0.030719554
50	0x3d9dc6f4	0.07703963
51	0x3d68a337	0.05679628
52	0xbcb716d8	-0.02234976
53	0xbd80eac1	-0.06294776
54	0x3cb60c83	0.022222763
55	0x3ba8bcee	0.0051494753
56	0x3d83325e	0.06406091
57	0x3d54f287	0.051989105
58	0xbd071a90	-0.032984316
59	0x3d9fa6f9	0.077955194
60	0x3a50e068	0.00079680094
61	0xbdb348b3	-0.08754101
62	0xbcac4e8c	-0.021033548
63	0xbd9b1b0e	-0.0757352
64	0xbce5c4e0	-0.028047979
65	0x3d39c312	0.04535205
66	0x3d758f01	0.059950832
67	0xbc87fb2d	-0.016599262
68	0xbda2a74c	-0.079420656
69	0xbd9eba44	-0.07750371
70	0x3cdc29c8	0.026875392
71	0xbd66dadb	-0.05636106
72	0x3d4717f8	0.048606843
73	0x3d0a5e58	0.03378138
74	0xbcf65c65	-0.030073354
75	0x3ba3f1ee	0.0050032055
76	0xbdadec27	-0.08492308
77	0xbda1b889	-0.078965254
78	0xbcb7b40c	-0.02242472
79	0xbd9dc814	-0.077041775
80	0xbd884eae	-0.06655632
81	0xbc846b2e	-0.016164389
82	0xbdb765f3	-0.08954992
83	0xbdadc51d	-0.08484862
84	0x3db55767	0.08854561
85	0x3cab4323	0.020906037
86	0x3cc4f521	0.024042668
87	0x3c5313c0	0.012883127
88	0xbd359e45	-0.04434039
89	0x3d4a9540	0.049458742
90	0x3d9e7757	0.07737606
91	0x3d87655a	0.06611128
92	0xbd86dabe	-0.065846905
93	0xbc8752d7	-0.016518993
94	0x3d4beaa8	0.049784333
95	0x3d76515a	0.060136177
96	0xbc3214de	-0.010869233
97	0x3c24c68e	0.010057105
98	0x3db69daf	0.089167945
99	0xbcf731ce	-0.030175116
100	0xbc4f5c3d	-0.012656269
101	0xbd6d7e1e	-0.057981603
102	0xbc3edcda	-0.011649335
103	0x3caa2180	0.020767927
104	0xbd1b5424	-0.03792204
105	0x3db35d18	0.087579906
106	0x3d42985c	0.047508582
107	0x3d054e7d	0.032545555
108	0x3d8b52dc	0.068029135
109	0xbda0d172	-0.078524485
110	0x3bc617f3	0.0060453354
111	0xbd640605	-0.055669803
112	0xbcc1296f	-0.023579327
113	0x3aaa0e87	0.00129743
114	0xbc958ed4	-0.018256582
115	0x3d987630	0.074444175
116	0xbd9ff69a	-0.078107074
117	0xbd37bb05	-0.04485609
118	0xbc35c5ef	-0.011094554
119	0x3c56a826	0.013101613
120	0xbcdb433c	-0.026765458
121	0x3c73522a	0.014851132
122	0x3ceaff7e	0.028686281
123	0x3daa7d53	0.08324685
124	0x3d45b8e2	0.04827202
125	0xbcb9895f	-0.022648511
126	0xbd897a50	-0.067127824
127	0xbcec6269	-0.02885552
128	0x3da4727c	0.08029649
129	0x3d146018	0.036224455
130	0xbabf8eaf	-0.0014614667
131	0xbd31bb56	-0.043391548
132	0xbd98c2e9	-0.07459051
133	0xbd7ab73c	-0.061209902
134	0x3d7744c5	0.060368318
135	0xbd85f8c8	-0.06541592
136	0xbc9ef425	-0.019403527
137	0xbc724fd9	-0.014789545
138	0xbb8f5130	-0.004373692
139	0xbda56942	-0.08076717
140	0xbd9151b3	-0.07095661
141	0x3c9a4d75	0.018835763
142	0x3d9ed929	0.07756264
143	0xbd9e3b1a	-0.077261165
144	0xbd797bcd	-0.06090908
145	0xbcbc068a	-0.022952337
146	0xbd0399a0	-0.03212893
147	0x3ce966c0	0.028491378
148	0xbbfbf40a	-0.007689004
149	0x3daf340b	0.08554848
150	0xbd1d8f1b	-0.038466554
151	0xbc43b641	-0.011945308
152	0x3d89b9d9	0.06724901
153	0x3da564df	0.0807588
154	0xbd3d3280	-0.04619074
155	0xbd33ab2b	-0.04386441
156	0xbc933587	-0.01796986
157	0xbb882ea7	-0.004155952
158	0xbda372ba	-0.07980867
159	0xbced27a1	-0.02894956
160	0xbd9acfc6	-0.07559161
161	0xbd15e8fe	-0.03659915
162	0xbc06cd6d	-0.008227688
163	0xbc7a96ba	-0.015294725
164	0xbcfe4fab	-0.031043848
165	0x3d405d19	0.046963785
166	0x3d6e2b84	0.05814697
167	0xbd5f66aa	-0.054541267
168	0xbd981a62	-0.07426907
169	0x3d100c6c	0.035168096
170	0xbd901351	-0.07034934
171	0xbd126d01	-0.035748485
172	0x3d96459b	0.07337495
173	0xbb82c451	-0.003990688
174	0x3d4a3aab	0.049372356
175	0x38fa2229	0.00011927292
176	0x3d5d057c	0.05396031
177	0x3c71fbc6	0.0147695
178	0x3cb2d4c2	0.021829966
179	0x3c23c1c3	0.009994927
180	0x3cc217be	0.023692962
181	0xbd7bcafb	-0.061472874
182	0x3cbd2598	0.023089215
183	0xbd04a11f	-0.03238022
184	0xbdbdba78	-0.09264082
185	0x3d9fa46a	0.07795031
186	0x3d86ac84	0.065758735
187	0xbcda4828	-0.026645735
188	0x3d64952b	0.05580632
189	0xbaaf7609	-0.0013386618
190	0x3dad44c2	0.0846038
191	0xbd7d90dc	-0.061905727
192	0x3c858abd	0.016301507
193	0xbd103d0c	-0.03521447
194	0xbce8873c	-0.028384797
195	0x3da3426e	0.07971655
196	0xbd421532	-0.047383495
197	0x3dad8e92	0.08474459
198	0xbda3e35b	-0.08002349
199	0xbd545f17	-0.051848497
200	0x3d52e1c5	0.05148484
201	0x3d95d664	0.073162824
202	0xbd127eb9	-0.035765383
203	0xbda12f99	-0.07870407
204	0xbd88a7d5	-0.066726364
205	0xbccbbee3	-0.024871295
206	0x3daad776	0.08341877
207	0xbc82fa7d	-0.015988583
208	0xbd7c4bc1	-0.061595682
209	0xbd9021b8	-0.07037681
210	0xb97e51dd	-0.00024253824
211	0x3ca5b2ca	0.020226855
212	0xbd70f7cc	-0.058830068
213	0x3beecf9a	0.0072879316
214	0x3d1ff934	0.039056018
215	0xbd380ac6	-0.04493215
216	0xbd3b95cf	-0.045797165
217	0xbd0fa446	-0.035068773
218	0x3d7ad70f	0.061240252
219	0x3d3e4228	0.04644981
220	0xbd34e2b4	-0.044161513
221	0xbd84e753	-0.06489434
222	0xbdb00098	-0.08593863
223	0x3dbadcd9	0.091241546
224	0x3d96a1f1	0.073551066
225	0x3b9f52e7	0.0048621777
226	0x3d2605cb	0.04053287
227	0x3d992156	0.074770615
228	0xbd9fbcb4	-0.07799664
229	0x3caf9774	0.021434523
230	0x3d88e9d5	0.06685225
231	0xbd99ca48	-0.07509285
232	0xbd151bde	-0.03640353
233	0xbd72fa06	-0.059320472
234	0x3db7313a	0.08944936
235	0x3c41face	0.011839582
236	0xbd80b661	-0.06284786
237	0x3cf97c90	0.030454904
238	0xbcfbdc5f	-0.03074473
239	0xbd4cdf44	-0.05001761
240	0xbc91dd98	-0.01780586
241	0xbc95f0d1	-0.018303307
242	0x3cff8448	0.031191006
243	0x3cf72065	0.030166814
244	0xbc902d71	-0.017599793
245	0xbd9ae863	-0.075638555
246	0x3d750612	0.059820242
247	0xbd45884b	-0.048225682
248	0x3c0847a1	0.008317859
249	0xbb187d64	-0.0023268098
250	0xbd6efb82	-0.058345325
251	0x3d9eb802	0.077499405
252	0x3d15f605	0.036611576
253	0xbd679e6e	-0.056547575
254	0x3d960541	0.07325221
255	0x3d585092	0.052811213

projection_layer.0.bias f4 [128]
0	0xbc9ac97a	-0.0188949
1	0xbc88663e	-0.016650315
2	0x3d48c14a	0.04901246
3	0xbd5dedbb	-0.054181796
4	0xbc11dde3	-0.008903
5	0x3d800042	0.06250049
6	0xbb0482ab	-0.0020219486
7	0x3d70e9dd	0.05881678
8	0xba458487	-0.0007534702
9	0xba303ccd	-0.0006722927
10	0x3cac78af	0.02105364
11	0x3d5484a8	0.051884323
12	0xbd461aee	-0.048365526
13	0x398a9256	0.0002643044
14	0xbbee23ad	-0.0072674365
15	0x3cdf9a4d	0.027295256
16	0x3ce63ecc	0.028106116
17	0xbd34ae47	-0.044111516
18	0xbd6ee0b7	-0.058319774
19	0xbd185c1f	-0.03719723
20	0x3d302357	0.043002453
21	0x3d37fe58	0.044920295
22	0x3d3d591f	0.04622757
23	0x3d818190	0.0632354
24	0xba6f3662	-0.000912523
25	0xbc5d5639	-0.013509327
26	0x3d2bc4e7	0.041935828
27	0xbb16c7d2	-0.0023007286
28	0x3a31fe88	0.0006789942
29	0x3d3a92e1	0.04555023
30	0x3d724191	0.05914456
31	0x3c88ec47	0.016714228
32	0xbd9d7411	-0.076881535
33	0xba3cf19c	-0.00072076335
34	0x3c9760e0	0.01847881
35	0xbb8d9fae	-0.004322014
36	0xbd86684c	-0.06562862
37	0xbaf35250	-0.001856396
38	0x3c339142	0.010959925
39	0xbd9dc194	-0.07702938
40	0xbd8abd7e	-0.06774424
41	0xbb3a6084	-0.0028438875
42	0xbc903243	-0.017602092
43	0x3d676c42	0.056499727
44	0x3d9807ca	0.07423361
45	0x3d91a32e	0.07111202
46	0x3d273890	0.040825427
47	0xbd8c565a	-0.06852408
48	0x3c870c8a	0.016485471
49	0x3d78b5e6	0.060720347
50	0x3c2be0e2	0.010490628
51	0xbd03e6f3	-0.032202672
52	0xbc8c0e70	-0.017096728
53	0xbd9cb96c	-0.07652554
54	0xbd855cad	-0.06511817
55	0xbba8b8e5	-0.0051489943
56	0x3d2a498d	0.04157405
57	0x3d85e67b	0.06538101
58	0x3a8e4b1e	0.0010856127
59	0xbb3be9aa	-0.002867321
60	0x3d2e6a53	0.042581867
61	0x3d875898	0.06608695
62	0x3d34c661	0.0441345
63	0xbd4bb6dd	-0.04973494
64	0xb9996e9d	-0.00029264847
65	0xbd847e98	-0.06469458
66	0xbd13dcb0	-0.036099136
67	0xbd43f2ef	-0.0478391
68	0x3bdf1a25	0.0068085366
69	0x3d6a7a47	0.05724552
70	0xbd73512d	-0.059403587
71	0xbc8abb03	-0.016934877
72	0xba058d0c	-0.0005094565
73	0x3d98e6fb	0.07465931
74	0x3d35878b	0.044318717
75	0x3d97c923	0.07411411
76	0x3c1da039	0.00962072
77	0x3d46656f	0.04843658
78	0xbcff2f64	-0.031150527
79	0xb8ffa9d2	-0.00012190979
80	0xbcc4231e	-0.023942526
81	0xbd085dd4	-0.033292606
82	0x3d98bcfa	0.074579194
83	0x3ccc4f92	0.024940286
84	0xbc2a6e77	-0.010402313
85	0x3d9a6620	0.0753901
86	0x3c2c0cb7	0.010501078
87	0xbb89e927	-0.004208702
88	0x3d5bdd7a	0.053678013
89	0xbcfe920b	-0.031075498
90	0x3d93c71d	0.07215712
91	0x3d033e66	0.03204193
92	0x3c8b68ba	0.017017711
93	0xbd84f85c	-0.06492683
94	0x3c4c9084	0.012485627
95	0xbc8b1f97	-0.016982837
96	0x3d5ca0fb	0.05386446
97	0xbce20478	-0.027590021
98	0x3c4edf1a	0.012626434
99	0xbc6cdcc3	-0.014456931
100	0xbc1bec0e	-0.009516729
101	0xbd7724d1	-0.060337845
102	0xbd328aa1	-0.043589238
103	0xbd237fe4	-0.039916888
104	0x390f278f	0.0001365228
105	0x3af7d73b	0.0018908748
106	0xbd72bb7e	-0.059260838
107	0x3aa4bce7	0.0012568504
108	0x3d9c0a60	0.076191664
109	0xbcf6cd9d	-0.03012734
110	0xbd9df9ff	-0.077136986
111	0xbc3e99a6	-0.011633312
112	0xbd965b0e	-0.07341586
113	0xbd626acd	-0.055277634
114	0x3d83dc65	0.06438521
115	0x3d8a258b	0.06745442
116	0xbd210cc9	-0.039318834
117	0x3c5f5532	0.013631152
118	0xbc199850	-0.009374693
119	0x3d503949	0.05083588
120	0xbd3b3014	-0.045700148
121	0xbca24a82	-0.019810919
122	0x3d00db4e	0.031459145
123	0xbcda073d	-0.02661478
124	0xbd95d7e2	-0.07316567
125	0xbd2a40b4	-0.041565612
126	0x3c554dff	0.013019084
127	0x39ca4d46	0.00038586016

projection_layer.1.weight f4 [128]
0	0x3f7e77f9	0.99401814
1	0x3f7f0e65	0.9963134
2	0x3f7f0076	0.9961008
3	0x3f7ee6f9	0.99571186
4	0x3f7dfa4f	0.99210066
5	0x3f80cd6a	1.0062687
6	0x3f7da5cd	0.99081117
7	0x3f807d3b	1.0038217
8	0x3f7ebdc4	0.9950831
9	0x3f807223	1.0034832
10	0x3f802da6	1.0013931
11	0x3f80bb10	1.0057087
12	0x3f801738	1.0007086
13	0x3f7fa4c8	0.9986081
14	0x3f7d7b3d	0.9901617
15	0x3f802479	1.001113
16	0x3f8094f9	1.0045463
17	0x3f7e5b62	0.9935819
18	0x3f81102d	1.0083061
19	0x3f7fa529	0.9986139
20	0x3f7e9904	0.99452233
21	0x3f7e63c0	0.99370956
22	0x3f7e6856	0.99377954
23	0x3f7e68ba	0.9937855
24	0x3f7fd302	0.9993135
25	0x3f7ff276	0.9997934
26	0x3f7e11ab	0.9924571
27	0x3f7db305	0.9910129
28	0x3f7e55a5	0.99349433
29	0x3f80c9a5	1.0061537
30	0x3f7f6025	0.9975608
31	0x3f7ec8b0	0.99524975
32	0x3f7e08bd	0.99232084
33	0x3f7f8787	0.99816173
34	0x3f7e51aa	0.9934336
35	0x3f809a5b	1.0047106
36	0x3f7f962d	0.99838525
37	0x3f7e30a8	0.99292994
38	0x3f7ed0c1	0.99537283
39	0x3f7f88ed	0.9981831
40	0x3f7eff22	0.9960805
41	0x3f801790	1.0007191
42	0x3f7e894e	0.9942826
43	0x3f800c5d	1.0003773
44	0x3f7f8970	0.9981909
45	0x3f802ea3	1.0014232
46	0x3f7f8c6c	0.9982364
47	0x3f7f01fb	0.99612397
48	0x3f7e72a9	0.9939371
49	0x3f7e61f4	0.99368215
50	0x3f7e678e	0.9937676
51	0x3f7f15e6	0.9964279
52	0x3f809813	1.0046409
53	0x3f7e6032	0.9936553
54	0x3f7ea41d	0.99469167
55	0x3f7e2290	0.9927149
56	0x3f7f404b	0.9970748
57	0x3f7f9352	0.9983417
58	0x3f7ee176	0.99562776
59	0x3f7e0cb1	0.99238116
60	0x3f802eb8	1.0014257
61	0x3f807628	1.0036058
62	0x3f7f0514	0.99617124
63	0x3f804d0d	1.0023514
64	0x3f7df809	0.99206597
65	0x3f809e7e	1.0048368
66	0x3f7e358a	0.99300444
67	0x3f7fb805	0.99890167
68	0x3f7f2f32	0.9968139
69	0x3f80e716	1.0070522
70	0x3f80a1f9	1.004943
71	0x3f808c88	1.0042887
72	0x3f804cf2	1.0023482
73	0x3f7fa456	0.9986013
74	0x3f7f8776	0.9981607
75	0x3f7fa140	0.9985542
76	0x3f7fd4a9	0.9993387
77	0x3f7e067f	0.9922866
78	0x3f7f411b	0.9970872
79	0x3f802bd5	1.0013376
80	0x3f7e362f	0.9930143
81	0x3f7e5b94	0.9935849
82	0x3f80901d	1.004398
83	0x3f806107	1.002961
84	0x3f7ffbb1	0.99993426
85	0x3f7ec951	0.99525934
86	0x3f805bde	1.0028036
87	0x3f7e2f68	0.99291086
88	0x3f806254	1.0030007
89	0x3f7d9c3c	0.9906652
90	0x3f7eb753	0.9949848
91	0x3f7f21a7	0.99660724
92	0x3f801db7	1.0009068
93	0x3f7f3f0f	0.99705595
94	0x3f7fc275	0.9990609
95	0x3f7eb142	0.99489224
96	0x3f7e0c1f	0.99237245
97	0x3f7ef868	0.9959779
98	0x3f7f2b5d	0.9967554
99	0x3f7d6bc0	0.9899254
100	0x3f7f7d0b	0.99800175
101	0x3f7f84de	0.99812114
102	0x3f7e9cf3	0.99458236
103	0x3f7de45f	0.9917659
104	0x3f804078	1.0019674
105	0x3f80241b	1.0011019
106	0x3f7faee5	0.9987624
107	0x3f7ead9c	0.99483657
108	0x3f806462	1.0030634
109	0x3f7ea103	0.99464434
110	0x3f7dc982	0.991356
111	0x3f7e4b1f	0.99333376
112	0x3f8000ac	1.0000205
113	0x3f7dd6d0	0.991559
114	0x3f8064f7	1.0030812
115	0x3f7f85a2	0.9981328
116	0x3f7f7a15	0.9979566
117	0x3f7fecf4	0.99970937
118	0x3f7e9d55	0.9945882
119	0x3f7eee33	0.99582213
120	0x3f800f93	1.0004753
121	0x3f7f1ff8	0.99658155
122	0x3f7fbdf5	0.99899226
123	0x3f7fed60	0.9997158
124	0x3f7ebf59	0.99510723
125	0x3f7f461b	0.9971635
126	0x3f7f536c	0.99736667
127	0x3f7f91de	0.9983195

projection_layer.1.bias f4 [128]
0	0xbbfabe8d	-0.00765211
1	0x3ad07580	0.0015904158
2	0xbb18f47e	-0.0023339088
3	0x38d17481	9.987597e-05
4	0xbbf7e7ad	-0.0075654597
5	0x3b162687	0.0022911148
6	0xbc0a352d	-0.00843553
7	0x3b9e8ad1	0.0048383255
8	0xbb1b8fa9	-0.0023736751
9	0x3bc03b71	0.005866461
10	0x3b11677e	0.002218693
11	0x3bbda791	0.0057877977
12	0x3aae6c93	0.0013307504
13	0xbaae5769	-0.0013301197
14	0xbc175a53	-0.009237844
15	0xbb56e38a	-0.0032789432
16	0xbb0f5c64	-0.0021875137
17	0xbb605bfe	-0.003423452
18	0x3b1f52e3	0.002431088
19	0xbb16af9b	-0.0022992853
20	0xbbac3aec	-0.0052560475
21	0xbbf1a408	-0.0073742904
22	0xbbdf8940	-0.0068217814
23	0xbb512196	-0.0031910888
24	0x3b485972	0.0030570892
25	0x3a861488	0.0010229507
26	0xbbaaaef4	-0.0052088443
27	0xbba62766	-0.0050706146
28	0xbb84cd1e	-0.004052772
29	0x3ba499a6	0.005023199
30	0xbbc586f2	-0.0060280496
31	0xbbc164b3	-0.005901897
32	0xbc2006ef	-0.009767278
33	0xbbcb0d5f	-0.0061966623
34	0xbb0b610f	-0.0021267568
35	0x3bcf2b53	0.0063223033
36	0xbb39ca04	-0.002834917
37	0xbbc30537	-0.0059515494
38	0xbbcfca2a	-0.0063412385
39	0xbb6b9e74	-0.00359526
40	0x3a4a5211	0.00077179173
41	0x3ac64df1	0.001512943
42	0xba3b6034	-0.0007147819
43	0xbaae5c1c	-0.0013302597
44	0x3b732df2	0.0037106243
45	0x3b72c905	0.0037046087
46	0x3abe4e5f	0.0014519206
47	0xba962722	-0.0011455754
48	0xbb38ac2e	-0.00281788
49	0xbba85264	-0.005136775
50	0xbb8b3cd8	-0.0042491965
51	0x3b9668e2	0.0045901397
52	0x3b3377a4	0.0027384544
53	0xbaf61fb2	-0.0018777756
54	0xbb388e13	-0.0028160855
55	0xbb891199	-0.004183006
56	0xbbf46b86	-0.007459107
57	0xbb975ddf	-0.0046193446
58	0xbbbf65dc	-0.005841
59	0xbb689053	-0.0035486415
60	0x3b2b97ac	0.0026182933
61	0xba29f4e9	-0.0006483333
62	0xbb09aaa3	-0.0021006248
63	0x3b1294ec	0.0022366596
64	0xbc0fa879	-0.008768194
65	0x3ba91c39	0.005160835
66	0xbbec66ee	-0.0072144186
67	0x3ab4a1fa	0.0013781183
68	0xbab24a67	-0.0013602496
69	0x3c0a144e	0.008427693
70	0x3bc05b8c	0.0058702882
71	0x3bbf5a70	0.0058396384
72	0x37cdeddc	2.4548666e-05
73	0xbbaea203	-0.005329372
74	0xbaee2619	-0.0018169313
75	0xbaca5b83	-0.001543865
76	0xbb28cfb0	-0.0025758557
77	0xbb63efe7	-0.0034780444
78	0xbba09a96	-0.0049012406
79	0x3a12ed64	0.0005604832
80	0x3ad6a356	0.0016375582
81	0xbaea549c	-0.0017877999
82	0xba98aadc	-0.00116476
83	0xb93fbf5e	-0.0001828647
84	0xbac347f0	-0.0014898758
85	0x38276a3a	3.9914834e-05
86	0x3c05589e	0.008138804
87	0xbb93900e	-0.0045032566
88	0xbad7e256	-0.0016470652
89	0xbbe53d08	-0.006995801
90	0xbb86d87b	-0.004115162
91	0x39e7d4f0	0.00044218404
92	0x39bfed3f	0.0003660712
93	0x3afd359b	0.0019318344
94	0xbb9f15a9	-0.004854877
95	0x3a4caae6	0.0007807448
96	0xbbbae97a	-0.005704102
97	0xb9f8684b	-0.0004737995
98	0xbb61827c	-0.003441005
99	0xbc2116ec	-0.009832125
100	0xbb106aba	-0.002203627
101	0xbc06a1b6	-0.008217266
102	0xbbc0d616	-0.005884896
103	0xbbfbff91	-0.007690378
104	0xbb63e7d4	-0.0034775632
105	0x3b39ec54	0.0028369622
106	0x3b57a5e1	0.0032905268
107	0xbb571427	-0.0032818408
108	0x3ac7289a	0.0015194595
109	0xbb5ae93c	-0.0033403179
110	0xbc1590a9	-0.009128728
111	0xbbc6998a	-0.0060607838
112	0xbb3e682d	-0.0029053793
113	0xbc135d63	-0.008994433
114	0x3b47da6d	0.0030495182
115	0x39f4d92e	0.00046701118
116	0xbaffc928	-0.0019514905
117	0x3bd5b611	0.006521948
118	0xbbec08fe	-0.0072032204
119	0xbb4db145	-0.0031386178
120	0xbb9760f7	-0.0046197134
121	0xba70c730	-0.00091849547
122	0x3a554b7e	0.00081365544
123	0x3bb235c3	0.005438538
124	0xbbf18243	-0.0073702647
125	0x3ba5df0b	0.005061989
126	0xbb45d808	-0.003018858
127	0xbb497765	-0.003074133

projection_layer.1.running_mean f4 [128]
0	0x3ccdcbe9	0.025121646
1	0x3cd12c8e	0.02553394
2	0x3dd4b506	0.1038609
3	0xbd08d519	-0.03340635
4	0x3d56ca10	0.052438796
5	0x3d6a8384	0.05725433
6	0xbc8c4a2e	-0.017125215
7	0x3dad7335	0.084692396
8	0x3cd0f7e4	0.025508828
9	0x3d0e83b3	0.034793567
10	0x3d679de3	0.056547057
11	0x3d0d79af	0.034539875
12	0xbd080a78	-0.03321311
13	0x3b30abe5	0.0026957926
14	0xbd7ea3d9	-0.062167976
15	0x3d2af7d6	0.04174026
16	0x3cdf5aed	0.027265036
17	0xbdcbcc9a	-0.09951134
18	0xbd6d0ccc	-0.057873532
19	0x3d7698ed	0.060204435
20	0x3d851982	0.06499006
21	0x3d19e993	0.03757627
22	0x3c514c41	0.012774528
23	0x3d8145e0	0.06312156
24	0xbd1560ad	-0.03646915
25	0x3cac2b76	0.021016818
26	0x3d31b987	0.043389823
27	0xbcc1d2ce	-0.02366009
28	0x3d40fe8f	0.047117766
29	0x3dbc3b68	0.09191018
30	0x3db3db8f	0.08782112
31	0x3d6144fa	0.05499742
32	0xbdc20e9b	-0.09475442
33	0xbce0b5e5	-0.027430484
34	0xbd73c131	-0.059510414
35	0xbbc142ee	-0.005897871
36	0x3c213e66	0.009841537
37	0xbcee1864	-0.029064365
38	0xbd9d4cfb	-0.076806985
39	0xbe0757cd	-0.13217087
40	0x3c710870	0.014711484
41	0xbd8e50b1	-0.069489844
42	0x3cae250d	0.021257902
43	0x3da4e573	0.080515765
44	0xbb1a8d90	-0.0023582913
45	0x3d4c9f15	0.0499564
46	0x3dad5dd3	0.08465161
47	0xbcd5d895	-0.02610425
48	0xbd8b35be	-0.0679736
49	0x3cb9f39f	0.022699175
50	0xbd552d47	-0.052045133
51	0x3ae59cf4	0.0017518089
52	0xbb630513	-0.0034640476
53	0xbd9ca0e0	-0.07647872
54	0xbdd7ebb8	-0.10543007
55	0xbd1e2919	-0.038613413
56	0x3d16f917	0.036858644
57	0x3d1bfae9	0.038081083
58	0x3cb67533	0.022272682
59	0x3aa9698e	0.0012925135
60	0x3d87f241	0.06638003
61	0xbb07592c	-0.0020652516
62	0x3d257a70	0.04039997
63	0x3c5f107b	0.013614769
64	0xbb4b0afd	-0.0030981891
65	0xbd261659	-0.040548656
66	0xbdb4dc08	-0.0883103
67	0xbda060f7	-0.078309946
68	0x3c53d609	0.012929448
69	0x3d88279b	0.06648179
70	0xbd135f40	-0.03597951
71	0xbd509895	-0.050926764
72	0xbd4251c3	-0.047441255
73	0x3d933027	0.07186919
74	0x3b4c21ed	0.003114815
75	0x3dd33a79	0.10313887
76	0xbb6aad55	-0.003580888
77	0x3c93a365	0.018022249
78	0xbce907c4	-0.028446086
79	0xbcb47984	-0.0220306
80	0xbc97c56e	-0.018526759
81	0x3c26d2ec	0.010182124
82	0x3c95af46	0.018272053
83	0xbc6bda82	-0.014395358
84	0xbd31a10a	-0.04336647
85	0x3dfe684e	0.12422238
86	0xbd8668ca	-0.06562956
87	0x3d5e8af8	0.05433175
88	0x3d93d028	0.07217437
89	0xbd56e254	-0.052461937
90	0x3cf91485	0.030405292
91	0x3d66bf55	0.056334812
92	0xbc82ad16	-0.015951674
93	0xbe0d3962	-0.13791421
94	0xbc7e15e4	-0.015508149
95	0x3b458cdd	0.0030143776
96	0x3dff9ec8	0.12481457
97	0xbd3ef5f0	-0.046621263
98	0x3cca63cb	0.024705788
99	0xbd3c656f	-0.045995172
100	0x3d08e897	0.03342494
101	0xbde808ba	-0.113297895
102	0xbd99883a	-0.07496686
103	0xbda526cb	-0.0806404
104	0xbba745f7	-0.005104776
105	0x3c8690f3	0.016426539
106	0xbd9db2d5	-0.07700125
107	0x3ceb969f	0.028758345
108	0x3d96a937	0.07356494
109	0xbb724d41	-0.0036972316
110	0xbe134186	-0.14380464
111	0xbd043f69	-0.032287035
112	0xbd9c2316	-0.076238796
113	0x3ce98995	0.028507987
114	0x3d2baebe	0.041914694
115	0x3df2ba0e	0.11851893
116	0xbd697a1e	-0.057001226
117	0xbce52f77	-0.027976735
118	0x3cfa7623	0.03057391
119	0x3ce40b59	0.027837442
120	0xbda4418d	-0.08020315
121	0x3aec60e0	0.0018034242
122	0x3d0ddd3b	0.03463481
123	0xbd752f6a	-0.05985967
124	0xbd5d2e60	-0.053999305
125	0xbd2eb5aa	-0.042653717
126	0xbc06967f	-0.008214592
127	0x3cf8b286	0.030358564

projection_layer.1.running_var f4 [128]
0	0x3ead4e9a	0.3384903
1	0x3ecd0517	0.40042946
2	0x3ec5b058	0.38611102
3	0x3eab785f	0.33490273
4	0x3eb24a68	0.34822392
5	0x3eb2d899	0.34930876
6	0x3edde6c2	0.43340117
7	0x3ebe003a	0.37109548
8	0x3ead8384	0.338894
9	0x3ed7f5ff	0.42179868
10	0x3ec17174	0.3778187
11	0x3eb9f43a	0.36319143
12	0x3edb230c	0.42800176
13	0x3eafe24e	0.34352344
14	0x3eafba41	0.34321788
15	0x3ea965ae	0.33085388
16	0x3eb6ab09	0.35677364
17	0x3eb0153a	0.34391195
18	0x3ebf5b8e	0.37374538
19	0x3ebdeea4	0.3709613
20	0x3ec42bec	0.3831476
21	0x3eb8fdfb	0.36131272
22	0x3ebf7a51	0.37398008
23	0x3eaf7180	0.3426628
24	0x3ea38f49	0.31945255
25	0x3ebcfe1c	0.3691262
26	0x3eac135e	0.33608526
27	0x3ebced7c	0.36899936
28	0x3ebd5d9a	0.36985475
29	0x3eba236d	0.36355153
30	0x3eb684dd	0.35648242
31	0x3ea819b9	0.32832125
32	0x3eb34a8d	0.35017815
33	0x3ec3b567	0.38224337
34	0x3ec125cd	0.37724152
35	0x3ed44535	0.4145905
36	0x3eb3bb06	0.35103625
37	0x3eafe91a	0.3435753
38	0x3eb2a58c	0.34891927
39	0x3ec235bc	0.3793162
40	0x3eaa16b6	0.33220452
41	0x3ebbe2ca	0.36696464
42	0x3eb68bdc	0.3565358
43	0x3ed01a3c	0.40645015
44	0x3eb92b34	0.36165774
45	0x3ea9ec4c	0.33188093
46	0x3eb17f17	0.34667274
47	0x3ebcd5fd	0.3688201
48	0x3eb44936	0.35212106
49	0x3ebe5004	0.37170422
50	0x3eb50e98	0.35362697
51	0x3eba2a8b	0.36360583
52	0x3eaff55f	0.3436689
53	0x3ebee0df	0.37280938
54	0x3ebc8937	0.36823437
55	0x3ec0e7b3	0.37676772
56	0x3ebd9d5c	0.37034118
57	0x3ebe9611	0.37223867
58	0x3eba3524	0.36368668
59	0x3ebc6e32	0.36802822
60	0x3ec14075	0.3774449
61	0x3eb79365	0.3585464
62	0x3eb6a7fb	0.35675034
63	0x3ea84476	0.32864732
64	0x3eae1236	0.3399827
65	0x3ec39795	0.38201585
66	0x3eb273dd	0.34854022
67	0x3ec48071	0.38379243
68	0x3eaf8224	0.34278977
69	0x3ecba049	0.39770725
70	0x3ebf244d	0.37332383
71	0x3ebef919	0.3729942
72	0x3eab39d9	0.33442572
73	0x3ec4cdab	0.38438162
74	0x3eb1e00a	0.3474124
75	0x3ec9b937	0.3939912
76	0x3eb6fbac	0.35738885
77	0x3ebed9f6	0.37275666
78	0x3eba20d4	0.3635317
79	0x3ebc4087	0.3676798
80	0x3eb0dbf9	0.34542826
81	0x3ebc7ab1	0.36812356
82	0x3ed21f14	0.41039336
83	0x3ebaf5d9	0.36515692
84	0x3ebc3ed9	0.367667
85	0x3ebe81e9	0.3720849
86	0x3eb0d197	0.34534904
87	0x3eb62390	0.35574007
88	0x3eb5de36	0.35521096
89	0x3eada7c5	0.3391706
90	0x3eb7f7d7	0.35931274
91	0x3ec4799e	0.38374037
92	0x3ec044ff	0.3755264
93	0x3ec0de7f	0.3766975
94	0x3eb0fe0e	0.34568828
95	0x3eb04569	0.34427956
96	0x3ea50ef3	0.32237968
97	0x3ebf8d9e	0.37412733
98	0x3ebedded	0.3727869
99	0x3eaca7ed	0.33721867
100	0x3ec04147	0.37549803
101	0x3ebc6dd9	0.36802557
102	0x3ececc04	0.40390027
103	0x3ebc0a1c	0.36726463
104	0x3ec60637	0.38676617
105	0x3eb4298a	0.35187942
106	0x3ec442d9	0.3833225
107	0x3ec1217a	0.37720853
108	0x3eb4e5e3	0.3533164
109	0x3ec35c3a	0.381563
110	0x3eab5685	0.33464447
111	0x3ec05332	0.37563473
112	0x3eb82a29	0.35969666
113	0x3ebae599	0.36503294
114	0x3ecfa703	0.40557107
115	0x3eaf4f51	0.342402
116	0x3ebe38db	0.37152752
117	0x3ea85c58	0.32882953
118	0x3eab5552	0.33463532
119	0x3eb1472f	0.3462462
120	0x3eb6c878	0.3569982
121	0x3ea72aab	0.3264974
122	0x3eda2eff	0.4261398
123	0x3eb1fb04	0.34761822
124	0x3ea999a9	0.33125046
125	0x3eacac90	0.33725405
126	0x3eba24ae	0.3635611
127	0x3eb93336	0.36171883

projection_layer.4.weight f4 [128, 128]
0	0x3da12331	0.0786804
1	0xbd5c3603	-0.053762447
2	0xbd96e88a	-0.07368572
3	0x3d90815a	0.07055922
4	0xbd4e678e	-0.050391726
5	0x3caf400f	0.02139285
6	0xbc76805e	-0.015045254
7	0x3d049595	0.032369215
8	0x3d0c334e	0.034228615
9	0xbc76c459	-0.015061461
10	0x3d8eea47	0.069782786
11	0x3c4f7ed4	0.0126645155
12	0x3d6c5202	0.057695396
13	0xbdaaea34	-0.08345452
14	0x3d2965e9	0.041356955
15	0xbd99b3c0	-0.07504988
16	0x3d42c5c5	0.04755189
17	0x3d28a3ee	0.04117196
18	0xbd503a35	-0.05083676
19	0x3d341371	0.043963853
20	0x3d070eaa	0.03297297
21	0xbd28e4d3	-0.04123385
22	0xbd0afef5	-0.033934552
23	0xbd90bad2	-0.07066883
24	0x3b25ed84	0.0025318572
25	0x3d5df035	0.054184157
26	0xbd262335	-0.04056092
27	0x3c85da96	0.016339581
28	0x3d3b2d1e	0.045697324
29	0xbda60f77	-0.081084184
30	0x3d5cbc3e	0.05389046
31	0x3d9a7ff9	0.0754394
32	0xbdacdad3	-0.08440175
33	0xbd1ae035	-0.037811477
34	0xbd8d0b9f	-0.06886982
35	0xbdb10ebc	-0.086453885
36	0xbd780b47	-0.06055763
37	0xbdaf2212	-0.0855142
38	0xbda5db26	-0.0809844
39	0xbd92081b	-0.07130452
40	0xbcb2889f	-0.021793662
41	0xbd194e08	-0.037427932
42	0x3b80ad7f	0.0039269323
43	0x3d3482c9	0.04407004
44	0x3cb2adea	0.021811444
45	0xbda31963	-0.079638265
46	0x3c9ccdeb	0.019141158
47	0xbd2601d4	-0.040529087
48	0x3d5aa09d	0.05337583
49	0x3d816aaf	0.063191764
50	0xbd1e4afe	-0.038645737
51	0xbdaf39b0	-0.08555925
52	0xbd4f32ae	-0.05058544
53	0xbda9db3c	-0.08293769
54	0xbd2ecb16	-0.042674147
55	0x3c015d24	0.007895742
56	0x3d4d03d4	0.05005248
57	0x3d70186f	0.05861705
58	0xbd478066	-0.048706435
59	0x3c407c5c	0.0117484
60	0xbb4d2b74	-0.0031306418
61	0xbd73e07a	-0.05954025
62	0xbda6f562	-0.08152272
63	0xbd881003	-0.06643679
64	0xbd85523d	-0.06509826
65	0xbd2b5671	-0.041830484
66	0x3da4ad47	0.080408625
67	0xbcb09225	-0.021554062
68	0x3c577c1b	0.013152148
69	0xbd1b6989	-0.037942443
70	0x3c01fd39	0.007933908
71	0xbd7b83d5	-0.06140502
72	0x3bdf6fe9	0.0068187607
73	0xbbaebec3	-0.005332799
74	0xbd97475d	-0.07386658
75	0x3c3b9921	0.011450083
76	0xbd85cab3	-0.065328024
77	0xbd5e0c6f	-0.054211076
78	0xbd9a27b9	-0.07527108
79	0xbcbccae9	-0.023045974
80	0x3d675f1b	0.056487184
81	0xbcc00801	-0.023441317
82	0x3da94e1e	0.08266853
83	0x3d97a6a9	0.07404835
84	0xbc37a641	-0.011209072
85	0xbbc6c43b	-0.006065873
86	0x3db02b0a	0.08601959
87	0xbd8f51f0	-0.0699805
88	0x3da95a5f	0.0826919
89	0x3d4bff8c	0.049804255
90	0xbd58c8e1	-0.052925948
91	0x3da29716	0.079389736
92	0x3d63b614	0.055593565
93	0x3d0b7822	0.034050114
94	0xbca767c5	-0.020435223
95	0x3c93eeef	0.018058268
96	0xbcdc76bf	-0.026912091
97	0x3cbb00a4	0.022827454
98	0xbd027ef0	-0.03185934
99	0x3d770a4f	0.060312565
100	0xbd66a643	-0.056310903
101	0xbc93a7a5	-0.018024275
102	0x3b7f3244	0.0038939873
103	0xbd8e2135	-0.069399275
104	0x3d3b540c	0.04573445
105	0x3d644ed8	0.055739254
106	0x3cd96e98	0.026541993
107	0xbda349d4	-0.07973066
108	0xbd91b656	-0.07114856
109	0x3ca41c4d	0.020033026
110	0xbd1dd833	-0.03853626
111	0x3d611c93	0.05495889
112	0x3d76245d	0.060093272
113	0xbd3cc014	-0.046081617
114	0x3cd99193	0.026558673
115	0xbd4a3f25	-0.049376626
116	0xbd3cbe5d	-0.046079982
117	0xbd950409	-0.0727616
118	0xbda00fc6	-0.078155085
119	0xbcf05223	-0.02933604
120	0x3d04dc90	0.032436907
121	0xbb796735	-0.00380559
122	0xbd83351d	-0.06406615
123	0xbd209afb	-0.0392103
124	0x3d127114	0.03575237
125	0x3db13bf1	0.08654011
126	0x3d263dcb	0.040586274
127	0xbd953458	-0.072853744
128	0xbd895b3e	-0.06706856
129	0xbd50fb70	-0.05102104
130	0x3d5a1e41	0.05325151
131	0xbc31b677	-0.010846726
132	0x3d85385d	0.06504891
133	0xbd830562	-0.06397511
134	0x3c204143	0.009781185
135	0xbd34ef22	-0.044173367
136	0xbc62c28a	-0.013840327
137	0xbd484773	-0.048896264
138	0xbd23882f	-0.039924797
139	0xbc3945a6	-0.011308109
140	0x3cb62c8d	0.02223804
141	0x3d0a0a60	0.0337013
142	0xbd4fcbc7	-0.050731447
143	0xbd5b1cd5	-0.053494293
144	0xbd6b1386	-0.057391666
145	0xbd5811ab	-0.052751224
146	0xb9b01d62	-0.00033591228
147	0xbc0af1f1	-0.008480535
148	0x3d720938	0.059090823
149	0xbb829ce3	-0.0039859875
150	0xbc7999be	-0.015234409
151	0xbda51fd5	-0.08062712
152	0xbda0af9a	-0.07845993
153	0xbd760f96	-0.060073458
154	0x3d9d1c95	0.07671467
155	0x3d820e7f	0.06350421
156	0x3d8290bf	0.063752644
157	0x3ba0d2ee	0.0049079573
158	0x3d291c7c	0.04128693
159	0x3a70fd24	0.00091929943
160	0x3d88606e	0.066590175
161	0xbd51585b	-0.051109653
162	0x3d31a904	0.043374076
163	0x3d29aa59	0.04142222
164	0x3d0afb17	0.033930864
165	0xbc617750	-0.0137613565
166	0x3d53a6c9	0.05167273
167	0x3d756f93	0.05992086
168	0xbd193bfe	-0.03741073
169	0xbd52125b	-0.051287036
170	0x3d475d72	0.0486731
171	0x3d70a91c	0.058755025
172	0x3dab3ea8	0.0836156
173	0x3d5b4725	0.053534646
174	0x3da18d0f	0.07888233
175	0x3daa5784	0.083174735
176	0xbd1357e1	-0.03597248
177	0xbcc02790	-0.023456365
178	0xbd303772	-0.043021627
179	0xbd59180c	-0.05300145
180	0xbc8dc82f	-0.017307369
181	0xbd1837e6	-0.037162684
182	0xbd5c8690	-0.053839266
183	0x3b8f1231	0.0043661823
184	0x3b3711be	0.002793416
185	0x3d9be5f5	0.0761222
186	0x3c996473	0.018724656
187	0xbce5e9f0	-0.028065652
188	0x3cac0f2b	0.021003326
189	0xbd3e997d	-0.046533097
190	0x3c11c529	0.008897104
191	0xbda6859e	-0.08130954
192	0xbd811e53	-0.06304612
193	0xbd162dc2	-0.03666473
194	0x3d103a37	0.035211768
195	0xbd7a8c4e	-0.06116896
196	0x3d410bd3	0.047130417
197	0xbcbd86f3	-0.023135638
198	0xbc4015c3	-0.011723938
199	0xbd86476d	-0.06556592
200	0xbd5bb9f6	-0.053644143
201	0x3bce502e	0.0062961793
202	0xbd6aa270	-0.05728382
203	0xbd86b417	-0.06577318
204	0x3d0d5672	0.03450627
205	0x3d94a031	0.072571166
206	0x3b7add0c	0.0038278727
207	0x3d228b76	0.03968378
208	0xbd93f3a3	-0.072242044
209	0x3d16c804	0.036811844
210	0x3bfa4d9e	0.007638647
211	0x3d765d89	0.060147796
212	0xbd4f204f	-0.05056792
213	0xbd8c9f3d	-0.0686631
214	0x3da20046	0.079102084
215	0xbda10724	-0.0786269
216	0xbda6d62b	-0.08146318
217	0x3cc45693	0.023967063
218	0x3bc07860	0.005873725
219	0xbdb766f6	-0.08955185
220	0x3d7859cd	0.060632516
221	0xbc7bde52	-0.0153728295
222	0x3db56d88	0.08858782
223	0xbd4d0b36	-0.05005952
224	0x3cc8c4bc	0.024507873
225	0x3d994fd0	0.07485926
226	0x3cfc6166	0.030808162
227	0xbcfe2e65	-0.031027982
228	0xbdb3f9cf	-0.087878816
229	0x3d900635	0.07032434
230	0x3cb3f4c5	0.021967301
231	0x3c8f6842	0.017505769
232	0xbda4d523	-0.08048465
233	0xbcae2f8d	-0.021262908
234	0x3cf94fd5	0.030433575
235	0x3d6f562f	0.0584318
236	0xbacc322c	-0.0015578917
237	0xbd98fda7	-0.07470255
238	0x3d283df1	0.041074697
239	0xbd9b68e4	-0.07588366
240	0x3daf7718	0.08567637
241	0xbc012063	-0.007881257
242	0xbc1e694d	-0.00966866
243	0xbcd1c6cd	-0.02560749
244	0x3d986dfa	0.07442851
245	0x3d014620	0.031561017
246	0x3c34b538	0.011029534
247	0xbd4127df	-0.047157165
248	0xbd184c87	-0.037182357
249	0x3da206cc	0.07911453
250	0x3d024183	0.031800758
251	0xbcf8b695	-0.0303605
252	0xb94b2106	-0.00019371891
253	0x3d537b45	0.05163123
254	0x3d6beae3	0.057597052
255	0x3c2d6371	0.010582791

projection_layer.4.bias f4 [128]
0	0xbd562a75	-0.052286584
1	0xbd7f5480	-0.062336445
2	0xbc5f1cae	-0.013617678
3	0xbc90cf53	-0.017676985
4	0x3d28f0f8	0.04124543
5	0xbd993742	-0.07481243
6	0x3da1ee6a	0.07906802
7	0xbcb71b4a	-0.02235188
8	0xbd4cdbf5	-0.050014455
9	0xbc876de3	-0.01653189
10	0x3d17a5d6	0.037023388
11	0x3da6c061	0.08142162
12	0xbab2f346	-0.0013652823
13	0xbc8e3814	-0.017360725
14	0x3cc176a3	0.02361614
15	0xbca248ec	-0.019810162
16	0xbc6b6b54	-0.014368851
17	0xbcc37c56	-0.023862999
18	0x3d49b29a	0.049242593
19	0xbd32a2de	-0.043612354
20	0xbce85b09	-0.028363721
21	0xbd98ca87	-0.07460504
22	0x3db0dfd3	0.08636441
23	0x3d89bd66	0.06725578
24	0xbd9265e6	-0.07148342
25	0xbd8b1e00	-0.067928314
26	0xbcbeccb6	-0.023290973
27	0x3d5020ef	0.050812658
28	0xbd8a7547	-0.0676065
29	0xbd24f189	-0.04026941
30	0xbd6aabd7	-0.057292785
31	0xbbaf7723	-0.0053547784
32	0x3c68dbab	0.014212529
33	0xbcf3bff1	-0.02975461
34	0xbb731e86	-0.003709705
35	0x3d91bc5c	0.07116005
36	0x3da916f6	0.082563326
37	0xbbdf533d	-0.0068153427
38	0x3c24628b	0.01003326
39	0x3d9b0917	0.07570093
40	0xbcb0a737	-0.02156411
41	0xbdad00ce	-0.08447419
42	0xbcaa1eb7	-0.0207666
43	0x3d174129	0.036927376
44	0x3c00fa02	0.0078721065
45	0xbbb15458	-0.005411666
46	0x3c477c54	0.012175638
47	0xbc047f12	-0.008086937
48	0x3b89cc09	0.004205231
49	0xbd191393	-0.037372183
50	0x3d2ed9b0	0.04268807
51	0x3d2261a0	0.039643884
52	0x3d164461	0.036686305
53	0x3d6b003b	0.057373267
54	0x3dad9600	0.08475876
55	0xbd341694	-0.043966845
56	0x3b0da50b	0.0021613266
57	0xbb20b2bb	-0.0024520594
58	0xba8a6313	-0.0010558091
59	0x3cbe835e	0.023256
60	0x3bb873cf	0.00562904
61	0xba283e1e	-0.00064179476
62	0x3d07ae13	0.033124994
63	0xbd5fc606	-0.05463221
64	0x3d64fb15	0.055903513
65	0xbbb7270c	-0.0055893715
66	0x3d11ed73	0.03562684
67	0x3cf6802d	0.030090416
68	0xbce474f5	-0.0278878
69	0xbc903d93	-0.017607486
70	0xbc2aad99	-0.0104173655
71	0x3c413245	0.01179177
72	0x3d9a6e8a	0.07540615
73	0x3da452b3	0.08023586
74	0x3c4f8a42	0.012667241
75	0x3cb74acb	0.022374531
76	0x3d014090	0.031555712
77	0xbd99c406	-0.07508092
78	0xbd6828be	-0.05667948
79	0x3c8229b9	0.015889036
80	0x3d452aa5	0.048136372
81	0x3d390e19	0.04517946
82	0x3d7cbb08	0.061701804
83	0xbd4f1a7f	-0.050562378
84	0xbd535371	-0.051593248
85	0x3c5743ac	0.013138693
86	0x3d830410	0.06397259
87	0x3bebd8f2	0.0071974928
88	0xbc98cc4c	-0.018652104
89	0xbd783ec0	-0.060606718
90	0xbd85ad85	-0.06527237
91	0x3d17a2db	0.037020545
92	0xbd9ed86d	-0.07756124
93	0xbd132045	-0.035919446
94	0x3c8b0fbd	0.016975278
95	0x3d18c725	0.037299294
96	0x3d66d09f	0.0563513
97	0xbab01671	-0.0013434422
98	0x3c72a5d1	0.0148100415
99	0xbd7657b3	-0.06014223
100	0x3c2ecbe2	0.010668727
101	0x3da5a37f	0.08087825
102	0x3b6dd2b9	0.003628893
103	0x3b8af362	0.0042404393
104	0x3d3f3d66	0.046689413
105	0xbd01dbb1	-0.031703655
106	0xbcf61748	-0.030040398
107	0x3dab3350	0.083593965
108	0xbc97182d	-0.018444145
109	0xbc375d67	-0.011191702
110	0xbd95f8a1	-0.07322813
111	0x3cb115c7	0.02161683
112	0xbd8ce0b2	-0.06878795
113	0x3d5c5049	0.053787503
114	0xbda08985	-0.0783873
115	0x3d45f8d6	0.04833301
116	0x3d1d5f58	0.038421005
117	0x3d98b946	0.07457213
118	0x3d987f60	0.0744617
119	0x3dad12be	0.084508404
120	0x3cf3e392	0.0297716
121	0x3cd276cd	0.025691414
122	0xbdb48d09	-0.08815963
123	0x3bbed0ba	0.005823222
124	0xbd4d9d58	-0.050198883
125	0xbda6986c	-0.08134541
126	0xbdbfc718	-0.09364146
127	0xb9e73f96	-0.0004410713

output_layer.weight f4 [1, 128]
0	0x3d88e25b	0.06683799
1	0x3d95e999	0.07319946
2	0x3d98d647	0.07462745
3	0xbbe1b052	-0.006887474
4	0xbcee8104	-0.029114254
5	0xbd3c90e5	-0.04603662
6	0x3d1d03fa	0.03833387
7	0xbd5bda00	-0.053674698
8	0x3cbfd4b1	0.023416849
9	0xbd9c20fa	-0.07623477
10	0xbc9436a4	-0.01809246
11	0x3d56cd0c	0.05244164
12	0x3d953f90	0.07287514
13	0x3cd52f59	0.026023554
14	0x3d71b06d	0.059006143
15	0x3d9db461	0.0770042
16	0x3d7a1ebc	0.061064467
17	0x3d94c629	0.072643586
18	0xbda48f61	-0.0803516
19	0x3d8bde94	0.06829563
20	0xbd053980	-0.03252554
21	0x3d9efd62	0.07763173
22	0xbd396e30	-0.0452711
23	0xbd13bd1e	-0.036069028
24	0xbd8ed242	-0.06973697
25	0xbda909b2	-0.08253802
26	0xbd25be76	-0.04046484
27	0x3d72f50e	0.059315734
28	0xbd0ce4ed	-0.03439801
29	0xbc2ec86f	-0.010667904
30	0x3d87ea4e	0.06636487
31	0xbd9cdf20	-0.07659745
32	0x3d9ac363	0.07556798
33	0x3caff5f0	0.021479577
34	0x3c4580f4	0.012054671
35	0x3ca1fe04	0.019774444
36	0xbcc9e4e4	-0.024645276
37	0x3d322ba9	0.04349867
38	0x3d7a482c	0.061103985
39	0xbd1a9f83	-0.03774978
40	0xbd46f521	-0.048573617
41	0xbd9cc475	-0.07654659
42	0x3d643b8b	0.055720847
43	0xbd3ac4fc	-0.045598015
44	0x3d683b2e	0.056697063
45	0x3d5c847f	0.053837296
46	0x3d3d2f2b	0.04618756
47	0x3d83d164	0.064364225
48	0xbd69854f	-0.0570119
49	0x3ceccd28	0.02890642
50	0x3da7232a	0.08161004
51	0xbd9839ce	-0.074329
52	0x3d9cecc7	0.07662349
53	0xbce58ac0	-0.028020263
54	0xbca6fd82	-0.020384554
55	0x3cc34c77	0.023840172
56	0xbd4cd91f	-0.05001175
57	0xbca203f1	-0.01977727
58	0xbd8c5856	-0.06852786
59	0x3d824063	0.06359937
60	0x3d483872	0.048881955
61	0xbd891600	-0.06693649
62	0x3c46a189	0.012123474
63	0xbbe6a1fc	-0.007038353
64	0x3c535618	0.012898944
65	0x3d0607dd	0.032722343
66	0xbc71b568	-0.014752723
67	0xbd716044	-0.058929697
68	0x3c01a2a7	0.0079123145
69	0x3d2ff305	0.04295637
70	0xbcece62b	-0.028918346
71	0x3cc2963b	0.023753276
72	0xbd1b60b2	-0.037934013
73	0xbd0e4707	-0.034735706
74	0xbd20892d	-0.03919332
75	0x3d11dff0	0.035613954
76	0xbc9e03fd	-0.019289011
77	0xb9c42031	-0.00037408018
78	0xbbf0e9ba	-0.007352081
79	0xbd1eb0f6	-0.03874298
80	0x3da02df0	0.07821262
81	0x3d307b34	0.043086246
82	0x3c97e839	0.01854335
83	0x3b897fc1	0.0041961377
84	0xbd9245a3	-0.071421884
85	0x3db68f40	0.089140415
86	0x3c3644fd	0.0111248465
87	0x3d673a58	0.056452125
88	0xbd7b202d	-0.061309982
89	0xbb1c214b	-0.0023823555
90	0xbd8b37b1	-0.06797732
91	0xbc89156c	-0.016733848
92	0x3cd830af	0.026390402
93	0xbb889fd8	-0.0041694455
94	0x3d9f3154	0.077730805
95	0x3c2784af	0.010224505
96	0xbd9b4a70	-0.07582557
97	0xbd8ba3b9	-0.06818337
98	0xbcc0cd96	-0.023535531
99	0x3d0ab23d	0.033861388
100	0xbd63b2bc	-0.055590376
101	0xbd7b5f15	-0.061369974
102	0x3ca7809f	0.020447074
103	0xbcd5167a	-0.026011694
104	0x3c9f4230	0.01944074
105	0x3d11c57c	0.035588726
106	0xbd11c4df	-0.03558814
107	0xbd6f531b	-0.058428865
108	0xbccb9145	-0.024849543
109	0x3cfc9521	0.030832829
110	0x3d921d90	0.07134545
111	0x3cfc6f7f	0.030814884
112	0x3d500217	0.050783243
113	0x3cf68e7e	0.030097242
114	0x3d6fdce4	0.058560267
115	0xbd807e4a	-0.06274088
116	0x3d35a24b	0.044344228
117	0x3cf3b490	0.029749185
118	0xbd37bb41	-0.044856314
119	0xbd30f5bb	-0.043203097
120	0x3d06bfe6	0.032897852
121	0xbcde895a	-0.027165104
122	0xbd466c8b	-0.04844336
123	0x3c2a38e5	0.010389541
124	0x3d770888	0.06031087
125	0x3d8d611a	0.06903286
126	0x3d58a0db	0.05288778
127	0x3ce24f3f	0.027625678
