Checkpoints/HR_V/valence_s15.pth (torch, 461905 bytes, 29 tensors)

input_layer.weight f4 [128, 29]
0.15504645 0.07193712 0.036002435 0.039390326 -0.15309457 0.089397214 -0.1653743 0.09415962
-0.013863424 -0.17400089 -0.10112177 -0.03351718 -0.008259334 -0.16207038 -0.1469295 -0.022669543
-0.039441127 -0.04795557 0.16631688 -0.034223452 -0.17926013 0.19301356 -0.0030251418 0.12929645
-0.18410502 -0.023053901 -0.09307281 0.087987006 0.09421332 -0.06897565 -0.00914435 0.080676965
-0.11172409 0.07516869 -0.03898902 0.019842751 0.10481223 0.09695852 0.05616126 0.18761306
-0.115135744 -0.1852379 0.06886935 -0.0468983 0.02715251 -0.17598683 -0.15296471 0.0632752
-0.034248583 -0.02623241 -0.05794148 0.15903477 0.07036501 -0.05547486 -0.077338204 -0.07452403
-0.09033279 0.12386883 0.08495468 0.017560177 -0.016710114 0.1395776 -0.16142732 -0.083184354
-0.051833313 -0.10310939 0.041468594 -0.06985013 -0.12543951 -0.16241513 0.03350285 0.20738822
0.05905665 0.09167003 -0.058343258 -0.14974223 -0.06894008 -0.11714979 0.039105844 0.14057814
0.06747814 -0.15941918 -0.09814237 -0.026365498 -0.07862806 -0.105213776 -0.123552315 0.18071038
0.07968114 0.07008652 0.117357895 0.13278903 0.06677333 0.051801383 0.11616587 -0.04366873
-0.036897805 0.1765589 0.0018789959 -0.053058032 0.06349464 0.034835633 -0.12640396 -0.011848839
-0.15232028 0.011790995 0.122097336 0.17250495 0.12925842 0.058929738 -0.086169206 0.1774962
-0.17188327 0.07626181 -0.14081402 0.091035545 0.12841941 -0.009393504 -0.082506955 -0.1351962
0.10809332 -0.07631906 -0.14025834 0.0675892 0.08026949 0.20064345 -0.12118634 -0.18156943
0.1676023 0.0755652 -0.04756991 -0.098596185 -0.13778299 0.05555793 0.107049786 -0.01625295
-0.0054085325 -0.035518475 -0.13786703 0.059600025 0.028953986 -0.15889135 0.006343834 -0.14535744
0.10704738 0.13507512 -0.037328746 -0.15132421 -0.020945057 0.066457756 -0.08471641 0.13462293
0.12777267 0.12246048 -0.10151648 -0.12531495 0.05858492 0.1563668 -0.17567438 -0.18627064
-0.09569891 0.017484952 0.07929326 0.14337566 0.12243476 0.081540644 -0.18966596 0.029884694
0.07287165 -0.057595808 -0.11107032 0.11112377 0.028981583 0.059039958 -0.1568168 0.19000053
-0.134358 -0.122044645 -0.16079482 0.037804842 0.15145375 -0.033286624 0.035814226 -0.09605505
0.09690085 0.13770027 -0.06055244 0.179099 0.120906465 0.016842676 -0.09665476 -0.045534305
-0.13964596 -0.15301685 0.01347053 -0.17656262 -0.08076523 0.032389093 0.1488394 0.12129449
-0.17692943 -0.0320616 0.12605973 -0.16559848 0.07862987 0.21942621 0.015864715 -0.10687114
-0.044137653 0.09024619 0.09518176 0.0025663346 -0.019349538 -0.121870935 0.012405233 0.17707989
0.13429858 -0.08924041 0.07512851 0.017959684 0.15005982 0.006786674 0.0200752 -0.10356586
0.16017365 0.03299702 0.13353272 0.030684447 0.10651703 0.07679653 0.0024638139 0.120386556
-0.10680486 0.180945 0.1136744 0.05895414 0.105478875 0.14166357 0.031774893 0.11451793
0.03526005 0.088177375 0.18557613 0.13997138 0.07462499 0.12466092 -0.0060183182 0.057500113
0.060673475 0.07321933 -0.100539975 0.063725665 0.1440795 -0.03192095 -0.18206817 -0.062150747
00000000: 7fc4 1e3e c553 933d 4a77 133d c057 213d
00000010: d3c4 1cbe e315 b73d e157 29be c2d6 c03d
00000020: 6a23 63bc 4a2d 32be ee18 cfbd 4f49 09bd
00000030: 2852 07bc c7f5 25be b074 16be 7ab5 b9bc
00000040: 058d 21bd 0f6d 44bd f94e 2a3e e42d 0cbd
00000050: f88f 37be 59a5 453e 7541 46bb 4a66 043e
00000060: 0786 3cbe 89db bcbc f59c bebd 8832 b43d
00000070: eaf2 c03d 1b43 8dbd 2fd2 15bc f739 a53d
00000080: 9acf e4bd 0bf2 993d f3b2 1fbd 448d a23c
00000090: cba7 d63d 3092 c63d 5909 663d a31d 403e
000000a0: 4acc ebbd 01af 3dbe 600b 8d3d 6f18 40bd
000000b0: f16e de3c e435 34be c8a2 1cbe 6e96 813d
000000c0: 3e48 0cbd 5ae5 d6bc 0c54 6dbd 03da 223e
000000d0: 881b 903d 9b39 63bd 7e63 9ebd 0ea0 98bd
000000e0: 6600 b9bd f1ae fd3d b8fc ad3d 5cda 8f3c
000000f0: a6e3 88bc 6eed 0e3e 344d 25be 8f5c aabd
00000100: 2b4f 54bd 042b d3bd f9da 293d 960d 8fbd
00000110: 3773 00be 2750 26be 493a 093d 945d 543e
00000120: 63e5 713d 7fbd bb3d 57f9 6ebd 0756 19be
00000130: 7530 8dbd 3bec efbd 732d 203d b7f3 0f3e
00000140: fb31 8a3d c83e 23be defe c8bd 75fc d7bc
00000150: c007 a1bd 527a d7bd ff08 fdbd 240c 393e
00000160: de2f a33d 8589 8f3d 5659 f03d d9f9 073e
00000170: 75c0 883d b02d 543d 5fe8 ed3d fbdd 32bd
00000180: 2722 17bd dbcb 343e a448 f63a 6153 59bd
00000190: 7a09 823d cfaf 0e3d 0a70 01be a221 42bc
000001a0: d9f9 1bbe 042f 413c 2b0e fa3d 23a5 303e
000001b0: 525c 043e 4f60 713d 7b79 b0bd 90c1 353e
000001c0: 2b02 30be 272f 9c3d 8d31 10be d870 ba3d
000001d0: 6180 033e 36e7 19bc 68f9 a8bd df70 0abe
000001e0: 0860 dd3d 2b4d 9cbd e29f 0fbe 356c 8a3d
000001f0: 5564 a43d 7a75 4d3e 8b30 f8bd 56ed 39be
00000200: f09f 2b3e edc1 9a3d aad8 42bd ccec c9bd
00000210: fc16 0dbe b690 633d eb3c db3d e824 85bc
00000220: 0f3a b1bb d27b 11bd 042d 0dbe 281f 743d
00000230: e930 ed3c 6ab4 22be f0df cf3b 95d8 14be
00000240: a83b db3d 2251 0a3e 07e6 18bd bcf4 1abe
00000250: f894 abbc 011b 883d cc7f adbd 98da 093e
00000260: d7d6 023e 8fcc fa3d dfe7 cfbd 9052 00be
00000270: bef6 6f3d 9e1e 203e fce3 33be bbbd 3ebe
00000280: cafd c3bd 9a3c 8f3c 8164 a23d 12d1 123e
00000290: 13bf fa3d c8fe a63d cb37 42be bfd0 f43c
000002a0: bb3d 953d 95e9 6bbd d678 e3bd dc94 e33d
000002b0: c96a ed3c e2d3 713d 9594 20be 808f 423e
000002c0: 2595 09be 8bf2 f9bd 66a7 24be 40d9 1a3d
000002d0: b116 1b3e 8e57 08bd f0b1 123d 83b8 c4bd
000002e0: f473 c63d 4d01 0d3e d605 78bd ba65 373e
000002f0: cf9d f73d a7f9 893c eef2 c5bd 2e82 3abd
00000300: 5aff 0ebe 73b0 1cbe 7fb3 5c3c d5cc 34be
00000310: 3e68 a5bd 6daa 043d 5b69 183e 3f69 f83d
00000320: fd2c 35be 0653 03bd cd15 013e a692 29be
00000330: b308 a13d 44b1 603e b8f6 813c 42df dabd
00000340: afc9 34bd ffd2 b83d a8ee c23d f32f 283b
00000350: ec82 9ebc 7897 f9bd 523f 4b3c 6e54 353e
00000360: 9185 093e adc3 b6bd fadc 993d 3020 933c
00000370: 48a9 193e bf62 de3b bf74 a43c 561a d4bd
00000380: 9004 243e e227 073d cdbc 083e f35d fb3c
00000390: 9a25 da3d 8047 9d3d f077 213b 3a8d f63d
000003a0: 82bc dabd a549 393e 20ce e83d e579 713d
000003b0: 4f05 d83d 4110 113e 6426 023d 6088 ea3d
000003c0: d86c 103d 5796 b43d ab07 3e3e a854 0f3e
000003d0: fdd4 983d 394e ff3d 5035 c5bb 3d85 6b3d
000003e0: c084 783d 04f4 953d e7e7 cdbd 9a82 823d
000003f0: 9489 133e 8bbf 02bd 1470 3abe c891 7ebd

input_layer.bias f4 [128]
0.00059279613 -0.04785853 5.925385e-05 0.048446752 -0.07126086 -0.060713705 -7.073026e-05 -0.052779343
-5.377895e-05 -0.07164355 0.0027897966 0.026491085 0.009573042 1.8028019e-05 0.0065714833 -0.021353094
-0.033770416 2.9987137e-05 0.05465168 -0.023163188 0.05126822 7.850396e-06 0.00010849708 0.0035453758
-0.00019611299 0.00012625841 5.1376177e-05 0.04520649 0.06033521 7.8153244e-07 8.152845e-05 0.00013029833
0.054690965 0.001648064 0.0290416 -7.5086587e-06 0.019802598 -0.0684477 -7.523771e-05 0.0036094252
0.00050569454 -0.011208411 0.00011849248 0.032783106 -0.070154674 -0.024122577 0.008868642 9.294411e-05
-0.002082102 6.7365545e-05 -0.03011604 0.030857649 0.014502419 0.03425542 -0.0061036097 0.021091696
-0.05529392 0.0049877367 0.015642142 9.4535004e-05 0.022362845 0.0068571265 0.052628025 -0.028446248
-4.9076323e-05 -0.056214716 0.016295346 -0.026937619 0.0012736663 0.064344704 -0.03878107 0.0047203247
-5.314013e-05 -0.07438849 6.406952e-05 -8.753215e-06 -0.0001215 -1.3380892e-05 -0.0044263285 0.044567883
3.443094e-05 0.036109257 -0.07487202 -0.033725504 0.033491462 -0.00019195052 0.0019166163 0.05229192
0.07363001 -0.006307608 0.009298721 -0.05946028 -0.0001535806 7.7183926e-05 5.2988195e-05 6.5413515e-05
-0.00015786712 -0.020225067 0.052253876 0.0012200584 -6.4583015e-05 0.02588614 -0.008308234 0.0016829318
-0.00010341449 -0.00041328816 0.015762823 -1.7224911e-05 -0.065616265 -0.0068355626 6.665207e-05 -0.06857185
-0.06058318 3.3591834e-05 0.0051418473 0.048160404 -9.049349e-05 0.07481011 0.041113943 0.055737432
-0.0017961753 0.06503521 -0.00010443478 7.85849e-05 -5.403335e-05 -0.07236841 0.06569976 0.00017645206
00000000: e065 1b3a 4e07 44bd 5687 7838 1a70 463d
00000010: 37f1 91bd efae 78bd 0555 94b8 272f 58bd
00000020: b590 61b8 dbb9 92bd 05d5 363b d503 d93c
00000030: 40d8 1c3c e03a 9737 9955 d73b afec aebc
00000040: d952 0abd e38c fb37 71da 5f3d bac0 bdbc
00000050: a0fe 513d 32b5 0337 ed88 e338 8959 683b
00000060: aea3 4db9 3c64 0439 c07c 5738 712a 393d
00000070: 0e22 773d 80ca 5135 41fa aa38 b1a0 0839
00000080: a203 603d da03 d83a a6e8 ed3c e3f2 fbb6
00000090: 0f39 a23c 4f2e 8cbd f0c8 9db8 1b8c 6c3b
000000a0: 9690 043a 7ca3 37bc 2a7f f838 9447 063d
000000b0: 41ad 8fbd b69c c5bc c84d 113c fdea c238
000000c0: e073 08bb 9a46 8d38 eab5 f6bc 2ec9 fc3c
000000d0: 8e9b 6d3c 694f 0c3d ca00 c8bb 7ec8 ac3c
000000e0: e17b 62bd 2b70 a33b f323 803c 1841 c638
000000f0: 4932 b73c bfb1 e03b 7c90 573d 1b08 e9bc
00000100: 4dd7 4db8 6741 66bd d17d 853c 48ac dcbc
00000110: 26f1 a63a 28c7 833d e6d8 1ebd f4ac 9a3b
00000120: c8e2 5eb8 fe58 98bd 105d 8638 c6da 12b7
00000130: d1cd feb8 7e7e 60b7 bc0a 91bb d08c 363d
00000140: f169 1038 4de7 133d 8056 99bd c123 0abd
00000150: 582e 093d 5346 49b9 f936 fb3a 0d30 563d
00000160: 55cb 963d 0db0 cebb aa59 183c 9f8c 73bd
00000170: 7a0a 21b9 cedd a138 a43f 5e38 9d2e 8938
00000180: 2289 25b9 0aaf a5bc 2908 563d 5eea 9f3a
00000190: be70 87b8 2c0f d43c 421f 08bc d295 dc3a
000001a0: 3be0 d8b8 99ae d8b9 0921 813c 377e 90b7
000001b0: d261 86bd dbfc dfbb 8fc7 8b38 666f 8cbd
000001c0: 1226 78bd f5e4 0c38 f17c a83b d843 453d
000001d0: 53c7 bdb8 0b36 993d 1867 283d ef4c 643d
000001e0: a46d ebba 2e31 853d ff03 dbb8 f2cd a438
000001f0: dea1 62b8 e435 94bd 998d 863d fd05 3939

projection_layer.0.weight f4 [128, 128]
0.018170375 -0.027851567 -0.061067358 -0.06359615 -0.064101554 0.048427787 0.027671846 0.026804162
-0.042807337 -0.0337506 0.07470728 -0.09241943 0.07611558 0.068913735 -0.045369092 0.015194672
-0.08629984 0.024185939 0.043444276 -0.04391433 -0.047842186 0.07724502 0.045856558 0.0022424003
0.023728663 -0.017040787 0.0023281646 -0.01804493 -0.088353604 0.060553588 -0.0101402765 0.062235713
-0.06472292 0.006625009 0.03442612 0.09739727 0.025187366 0.07775091 0.004950308 -0.011897429
0.06474906 -0.029444294 0.0039839833 -0.024260597 -0.10498365 -0.04713141 -0.0014488471 -0.04506438
0.026133822 0.00085387944 0.031999305 0.0440214 -0.047682986 0.07124686 -0.04432452 0.003627668
0.024946056 -0.035396922 -0.05109553 0.03647355 0.004420168 0.034809094 0.049441464 0.076577686
-0.03683344 0.031860992 -0.035891745 0.024146698 -0.050408967 0.07289311 0.03956048 -0.038113456
0.086111665 -0.029063543 0.020811237 0.0092790555 -0.040345926 0.00046368944 -0.0720324 -0.10534749
-0.023804137 -0.059897937 -0.025671938 0.07017787 -0.060262963 -0.106898025 0.0077415267 -0.0772787
-0.06812577 -0.044959493 -0.031076023 0.02486418 -0.062496707 0.028852822 -0.030676858 0.014374393
0.05001719 -0.027383648 -0.039366987 0.023196947 -0.03399007 0.015768008 0.04281677 -0.039965447
-0.06329961 -0.028600613 -0.029079743 0.03416707 0.004541424 0.079101756 0.033100735 0.06161402
-0.046668068 0.0014957873 0.085462324 -0.086294666 -0.028396474 0.015578722 0.05965053 -0.015049556
0.013649783 0.02403814 0.024401808 0.075702235 0.082273446 -0.010053066 0.042045202 -0.0055151074
-0.09538983 0.023007601 -0.042782314 0.094559774 0.028863644 -0.017643638 0.015128801 0.0049655205
-0.0020213998 -0.017489724 0.038188253 0.010978568 0.0741366 -0.033227537 0.049817722 -0.10062196
-0.0016013345 0.068950005 -0.008339419 -0.029873468 -0.06683496 0.06615331 0.034909844 0.06562608
0.0637521 -0.0063181343 0.0661859 -0.058019493 -0.0055572735 -0.072862454 -0.06121754 -0.06328961
0.03361505 0.00029810466 -0.0118104005 -0.04692097 0.006451132 0.09845809 -0.078760356 -0.041214265
-0.09502801 -0.078345194 -0.0058183447 0.1080828 0.0931213 -0.053802464 0.06762751 -0.030423602
-0.04769018 0.06936638 -0.06358006 -0.017157963 -0.09814041 -0.077232555 -0.029003745 0.009319796
0.024659803 -0.040187914 0.055012517 -0.030973036 0.07200975 -0.04037114 -0.014657657 -0.048314884
0.025248228 -0.06684259 0.04950709 0.0101720225 0.057404097 -0.053256072 0.033949617 0.0431752
-0.009198578 -0.01705876 0.08959587 -0.05092816 0.002147319 -0.03833397 0.031955145 0.021488452
-0.0072214785 -0.1071245 0.013370304 0.060372956 0.027178332 -0.10610257 0.048288945 -0.033444684
0.006856366 -0.034120783 0.068541765 0.04273173 0.045119945 0.0710209 0.05148405 0.041912083
-0.05615215 0.038828127 -0.043893576 -0.030106345 0.044434164 0.013506458 -0.059781134 -0.07283866
-0.07212736 -0.060708098 -0.022340987 0.05829988 0.041287072 0.051763948 0.0058961455 0.02752627
-0.07965861 -0.09701001 -0.03701302 0.041268513 0.07306046 -0.059820995 0.046146788 0.016044881
-0.012844835 -0.06424299 0.04908672 -0.05009926 0.035019834 0.064757675 0.107614875 -0.042024318
00000000: 0ada 943c f828 e4bc c421 7abd b33e 82bd
00000010: ad47 83bd 375c 463d 11b0 e23c 6794 db3c
00000020: bf56 2fbd 123e 0abd 2100 993d 6646 bdbd
00000030: 7ce2 9b3d a522 8d3d f1d4 39bd 13f3 783c
00000040: f8bd b0bd 9721 c63c a0f2 313d 83df 33bd
00000050: 2bf6 43bd a332 9e3d 16d4 3b3d 3cf5 123b
00000060: 9d62 c23c 1f99 8bbc 1f94 183b f6d2 93bc
00000070: bcf2 b4bd 0a07 783d 6723 26bc e0ea 7e3d
00000080: 738d 84bd 9a16 d93b 6702 0d3d 3878 c73d
00000090: bc55 ce3c de3b 9f3d 3136 a23b 6fed 42bc
000000a0: 289b 843d 2935 f1bc 138c 823b 29be c6bc
000000b0: ab01 d7bd de0c 41bd 3ee7 bdba 6d95 38bd
000000c0: 9916 d63c e1d6 5f3a b411 033d c94f 343d
000000d0: 3c4f 43bd e0e9 913d a18d 35bd 2bbe 6d3b
000000e0: ac5b cc3c 5dfc 10bd 8c49 51bd 4a65 153d
000000f0: 0fd7 903b fb93 0e3d 2283 4a3d c3d4 9c3d
00000100: a9de 16bd ac80 023d 3903 13bd 4ccf c53c
00000110: a279 4ebd fc48 953d 2b0a 223d db1c 1cbd
00000120: 505b b03d ab16 eebc 547c aa3c 2e07 183c
00000130: c541 25bd 581b f339 b985 93bd 6dc0 d7bd
00000140: e500 c3bc 8a57 75bd f54d d2bc 6ab9 8f3d
00000150: 4cd6 76bd 5aed dabd a2ac fd3b 4c44 9ebd
00000160: 8685 8bbd 7227 38bd 2593 febc f7af cb3c
00000170: 8cfc 7fbd c15c ec3c 094e fbbc 9382 6b3c
00000180: d3de 4c3d ac53 e0bc 473f 21bd 8607 be3c
00000190: 2c39 0bbd e92b 813c a360 2f3d cfb2 23bd
000001a0: 3aa3 81bd d54b eabc a438 eebc c5f2 0b3d
000001b0: 3ad0 943b 1a00 a23d a394 073d fc5e 7c3d
000001c0: 0427 3fbd 4b0e c43a df06 af3d 42bb b0bd
000001d0: b99f e8bc e53d 7f3c 1d54 743d 6a92 76bc
000001e0: 57a3 5f3c a2eb c43c 4de6 c73c c609 9b3d
000001f0: fb7e a83d 9db5 24bc 9737 2c3d 13b8 b4bb
00000200: be5b c3bd 707a bc3c 823c 2fbd 8ea8 c13d
00000210: 7373 ec3c 6489 90bc cade 773c ceb5 a23b
00000220: 7679 04bb 9c46 8fbc 496b 1c3d 74df 333c
00000230: eed4 973d 9919 08bd ab0d 4c3d e312 cebd
00000240: dfe3 d1ba a935 8d3d 0fa2 08bc 34b9 f4bc
00000250: c4e0 88bd 637b 873d a0fd 0e3d f766 863d
00000260: 7690 823d 5a08 cfbb 798c 873d d9a5 6dbd
00000270: ca19 b6bb e938 95bd 3ebf 7abd fc9d 81bd
00000280: efaf 093d ee4a 9c39 6980 41bc 3430 40bd
00000290: 0464 d33b 65a4 c93d 1c4d a1bd 4ad0 28bd
000002a0: 0c9e c2bd 7273 a0bd d0a7 bebb 845a dd3d
000002b0: 61b6 be3d f95f 5cbd 4b80 8a3d eb3a f9bc
000002c0: c756 43bd f60f 8e3d 4336 82bd db8e 8cbc
000002d0: d7fd c8bd 1a2c 9ebd 4399 edbc 0fb2 183c
000002e0: 5b03 ca3c 159c 24bd ce54 613d 2abb fdbc
000002f0: d979 933d 355c 25bd ab26 70bc d4e5 45bd
00000300: 5fd5 ce3c c5e4 88bd f2c7 4a3d 8ea8 263c
00000310: 8f20 6b3d 0a23 5abd c10e 0b3d 7ad8 303d
00000320: a2b5 16bc d0be 8bbc 0a7e b73d 0c9a 50bd
00000330: 09ba 0c3b 1504 1dbd 66e3 023d 8d08 b03c
00000340: 27a2 ecbb 1764 dbbd 1f0f 5b3c a249 773d
00000350: 18a5 de3c 4e4c d9bd a1ca 453d 4bfd 08bd
00000360: 5eab e03b 3cc2 0bbd a05f 8c3d 7707 2f3d
00000370: b1cf 383d 6873 913d f0e0 523d 01ac 2b3d
00000380: ccff 65bd 3e0a 1f3d c0c9 33bd 95a1 f6bc
00000390: 9900 363d 314a 5d3c 10dd 74bd 6f2c 95bd
000003a0: 82b7 93bd 0ea9 78bd 7204 b7bc dbcb 6e3d
000003b0: a21c 293d 6f06 543d 7434 c13b c67e e13c
000003c0: 0e24 a3bd 2fad c6bd f79a 17bd 2c09 293d
000003d0: b9a0 953d dc06 75bd 6a04 3d3d 8e70 833c
000003e0: 2573 52bc d491 83bd 280f 493d e234 4dbd
000003f0: f570 0f3d ac9f 843d 3065 dc3d b121 2cbd

projection_layer.0.bias f4 [128]
0.008644012 -0.0069720396 -0.002779244 -0.00041137947 -4.503913e-05 -0.0043404903 0.00015086502 -0.0001241477
-0.0073780348 -0.0028582672 -5.823407e-05 4.6709218e-08 0.0012429173 -0.0003694573 9.54168e-05 0.0040238504
-0.005553334 0.00012712722 -0.00011022582 0.008298669 6.856799e-05 7.2740636e-06 -0.0026398688 -0.00012683403
-0.0074502327 -5.5653032e-05 0.008285303 0.00015338603 1.340723e-05 7.655078e-05 -4.2447773e-05 0.00021152066
3.321171e-05 0.00031750347 0.0076370575 0.00043454958 0.0020934702 -3.9868246e-05 0.0005058019 -7.306093e-06
5.182487e-05 -9.308148e-05 0.0001003715 -1.022109e-05 -0.007873254 -0.005104727 0.0032976093 0.0073623
-0.0004431172 -2.5625783e-05 -0.0059615467 0.0059867064 -0.008221196 0.0007943098 2.0650634e-05 -0.00012216317
-0.005777993 -2.3355322e-05 -0.0036293683 -2.8244405e-05 0.0009143822 0.006223204 0.007295546 -0.0035093483
-1.3318361e-05 0.0047831526 -0.0033191517 6.606377e-05 0.001139327 0.0002459654 -9.4752795e-05 -0.0024181248
5.6226057e-05 -5.2459886e-06 -0.0060664234 -7.141696e-05 0.0045871097 9.659296e-05 0.00010405555 4.542838e-05
0.00015806226 -0.0031092463 0.00021882135 -0.0019047231 -0.0010542119 5.811364e-05 -0.0028718917 -0.0031501746
-2.756068e-05 0.005412822 -5.6434583e-05 0.0019635214 6.714321e-05 -0.00035156243 6.2770676e-05 -0.00015993908
3.907882e-05 1.829552e-05 7.627209e-05 5.3941098e-05 0.00078793836 5.8647372e-05 0.00015786177 0.00014853379
0.0018618931 3.232472e-05 1.6594066e-05 0.00065649074 5.18983e-05 -2.088601e-05 0.007204363 9.881234e-05
0.00051919936 7.799635e-05 -0.0030621765 -0.00019641615 -2.1912974e-05 -3.8070106e-05 2.7040092e-05 -6.137106e-05
0.005575111 3.830108e-05 0.00033602884 -0.00455647 0.0031712 0.00506999 -0.0011290129 -8.2915976e-05
00000000: 9d9f 0d3c b575 e4bb fa23 36bb 6bae d7b9
00000010: 66e8 3cb8 ac3a 8ebb 8531 1e39 a52d 02b9
00000020: 71c3 f1bb c451 3bbb 5b40 74b8 549d 4833
00000030: 62e9 a23a b8b3 c1b9 811a c838 81da 833b
00000040: bef8 b5bb 744d 0539 0929 e7b8 24f7 073c
00000050: 29cc 8f38 bb13 f436 a601 2dbb c0fe 04b9
00000060: 1521 f4bb fd6c 69b8 14bf 073c 40d6 2039
00000070: 9def 6037 e389 a038 f309 32b8 a5cb 5d39
00000080: cd4c 0b38 9876 a639 4840 fa3b 42d4 e339
00000090: 9a32 093b 3438 27b8 ca97 043a dc26 f5b6
000000a0: 885e 5938 bd34 c3b8 8a7e d238 3f7b 2bb7
000000b0: d2fe 00bc 8e45 a7bb b41c 583b 733f f13b
000000c0: 2f52 e8b9 f3f6 d6b7 1459 c3bb 222c c43b
000000d0: 32b2 06bc 3a39 503a e63a ad37 ed18 00b9
000000e0: 5155 bdbb 2ceb c3b7 b2da 6dbb 66ee ecb7
000000f0: 27b3 6f3a 05ec cb3b 7a0f ef3b 18fd 65bb
00000100: ed71 5fb7 febb 9c3b 2086 59bb b78b 8a38
00000110: 7855 953a ebf4 8039 05b6 c6b8 6779 1ebb
00000120: 45d4 6b38 b306 b0b6 d9c8 c6bb b0c5 95b8
00000130: 774f 963b f391 ca38 6638 da38 5a8a 3e38
00000140: 84bd 2539 7fc4 4bbb 6973 6539 e7a7 f9ba
00000150: 7b2d 8aba 0cbf 7338 5936 3cbb 2973 4ebb
00000160: 1c32 e7b7 0b5e b13b 2cb4 6cb8 6cae 003b
00000170: 3dcf 8c38 e951 b8b9 c0a3 8338 52b5 27b9
00000180: 90e8 2338 5479 9937 44f4 9f38 d03e 6238
00000190: a68d 4e3a 23fc 7538 b287 2539 bcbf 1b39
000001a0: c40a f43a 6794 0738 7c33 8b37 5918 2c3a
000001b0: 60ad 5938 5d34 afb7 9412 ec3b 7939 cf38
000001c0: e11a 083a f991 a338 ccae 48bb 0ff5 4db9
000001d0: c1d1 b7b7 77ad 1fb8 28d4 e237 56b4 80b8
000001e0: 6caf b63b 79a5 2038 072d b039 714e 95bb
000001f0: e8d3 4f3b 2922 a63b 63fb 93ba 2de3 adb8

projection_layer.1.weight f4 [128]
1.0093883 1.031839 1.0046937 1.00517 0.99681133 1.0007906 1.0131747 1.0315524
1.0128645 1.0199519 1.0151926 1.006626 1.0059397 1.0110842 1.0155565 1.0386629
1.03332 1.0266969 1.0269169 1.0091506 1.0234764 1.0201012 1.0308449 1.0392231
1.0148772 1.018277 0.99965924 1.0130813 1.0087087 0.99291515 1.0071503 1.02485
1.0230354 1.0243565 1.0272818 1.0324188 0.9916712 1.0046039 1.0184114 0.99212724
1.0256829 1.0076109 1.0381237 0.9988008 1.0308799 1.0003535 1.0097735 1.0124891
1.0245755 0.997559 1.0075456 1.0114363 0.9791029 1.0330428 1.0062197 1.0248888
0.9969079 1.0266256 1.0247966 1.0126619 1.0014884 1.013033 1.0060085 1.0211649
1.019879 0.99928516 1.0380481 1.0290512 1.0306044 1.0169803 1.0129898 1.0313658
1.0176928 0.99347687 1.0029479 0.9918517 1.0225838 1.0073769 1.0000595 1.0021039
1.0029984 1.0203546 1.0355493 1.0319409 1.0103 1.0000323 1.0190796 1.0394814
1.0077032 1.0468744 0.99628437 0.995 0.9965335 1.0096015 1.0125672 1.0214086
0.9901506 1.0196382 1.0084788 1.0262572 1.0185444 1.0286258 1.0240855 1.0204588
1.0230402 0.9985216 0.99200076 0.99526024 1.0369587 1.0120454 1.0056175 1.0024995
1.0531902 1.0137491 1.0215809 1.0206138 1.0188073 0.99963355 1.0257511 1.0127602
1.0319206 1.0367638 1.0225981 1.0494335 1.0217459 1.0163088 1.0239906 1.0268258
00000000: a333 813f 4d13 843f ce99 803f 69a9 803f
00000010: 072f 7f3f e819 803f b5af 813f e909 843f
00000020: 8ba5 813f c98d 823f d5f1 813f 1fd9 803f
00000030: a2c2 803f 356b 813f c1fd 813f e8f2 843f
00000040: d443 843f ce6a 833f 0372 833f d92b 813f
00000050: 4601 833f ad92 823f baf2 833f 4305 853f
00000060: 7fe7 813f e756 823f abe9 7f3f a6ac 813f
00000070: 5e1d 813f b02f 7e3f 4dea 803f 492e 833f
00000080: d3f2 823f 1d1e 833f f87d 833f 4d26 843f
00000090: 2ade 7d3f dc96 803f 4e5b 823f 0dfc 7d3f
000000a0: 9449 833f 65f9 803f 3de1 843f 69b1 7f3f
000000b0: dff3 833f 950b 803f 4240 813f 3e99 813f
000000c0: 4a25 833f 0760 7f3f 41f7 803f bf76 813f
000000d0: 7da6 7a3f bf3a 843f cfcb 803f 8e2f 833f
000000e0: 5b35 7f3f 7868 833f 892c 833f e89e 813f
000000f0: c630 803f 11ab 813f e3c4 803f 88b5 823f
00000100: 658b 823f 27d1 7f3f c3de 843f f3b7 833f
00000110: d8ea 833f 692c 823f a6a9 813f cb03 843f
00000120: c243 823f 8054 7e3f 9960 803f fee9 7d3f
00000130: 07e4 823f baf1 803f f301 803f f144 803f
00000140: 4062 803f fb9a 823f e18c 843f a416 843f
00000150: 8351 813f 0f01 803f 3371 823f ba0d 853f
00000160: 6bfc 803f fbff 853f 7e0c 7f3f 52b8 7e3f
00000170: d21c 7f3f 9f3a 813f cd9b 813f 84bd 823f
00000180: 827a 7d3f 8183 823f d515 813f 655c 833f
00000190: aa5f 823f 03aa 833f 3c15 833f 659e 823f
000001a0: fbf2 823f 1d9f 7f3f c3f3 7d3f 60c9 7e3f
000001b0: 10bb 843f b48a 813f 13b8 803f e751 803f
000001c0: f0ce 863f 88c2 813f 2ac3 823f 79a3 823f
000001d0: 4768 823f fce7 7f3f d04b 833f 20a2 813f
000001e0: f915 843f adb4 843f 7fe4 823f d653 863f
000001f0: 92c8 823f 6816 823f 2012 833f 076f 833f

projection_layer.1.bias f4 [128]
-0.019614344 -0.044169135 -0.025225827 -0.032771513 -0.030155564 -0.032219317 -0.0231078 -0.01294215
-0.01920857 -0.03240698 -0.012775656 -0.02117109 -0.016208833 -0.040322147 0.0037839015 -0.0054637888
-0.0024311005 -0.032799892 -0.0119356075 -0.029590635 -0.029301692 -0.02763459 0.0030320436 -0.005198205
0.012098077 -0.021233661 -0.04444698 -0.017287303 -0.021399956 -0.007525033 -0.023987759 -0.0093908645
-0.018638223 -0.028880838 -0.020261953 0.014015863 -0.03482 -0.012644 -0.0129711265 -0.00847167
0.011988143 -0.007482859 -0.022243582 -0.021365115 -0.0022757656 -0.02290093 -0.035359547 -0.029688982
-0.020464113 -0.05733772 -0.0060438463 -0.036905132 -0.033415537 -0.020066658 -0.010479075 -0.045128312
-0.0081312135 -0.026577057 0.00061544066 -0.017600683 -0.029662222 -0.0064229514 -0.02035221 0.022217307
-0.0048571397 -0.026749302 -0.012035404 -0.018646043 -0.013156302 -0.011955115 -0.016774619 -0.0074776737
0.0074664773 -0.027824428 -0.026641306 -0.043250225 0.0034130136 -0.031715274 -0.02369385 -0.023281876
-0.036149006 -0.041713133 -0.011245422 0.0055494453 -0.037591845 -0.017002119 -0.013733814 -0.006023869
-0.013858148 0.016201451 -0.03202371 -0.029069483 -0.035389367 0.0067731123 -0.036809787 -0.027700428
-0.03215827 -0.02361031 -0.00974794 -0.018131334 -0.003719948 -0.0040807184 -0.019786995 -0.030912662
-0.019311236 -0.025808219 -0.03379939 -0.013209904 -0.010760017 -0.032452427 -0.02157896 -0.02318343
-0.032146405 -0.011420881 -0.0064246226 0.00058475276 -0.015892968 -0.025201995 -0.013783338 -0.038439836
-0.02808006 0.009400164 -0.03303449 -0.00058094494 0.017119516 -3.16719e-05 -0.017491968 -0.02350749
00000000: 43ae a0bc b2ea 34bd 65a6 cebc 6c3b 06bd
00000010: cd08 f7bc 67f8 03bd 924c bdbc 500b 54bc
00000020: 4a5b 9dbc 2ebd 04bd fc50 51bc fe6e adbc
00000030: 63c8 84bc d628 25bd 55fb 773b 9509 b3bb
00000040: 1953 1fbb 2e59 06bd 918d 43bc 0f68 f2bc
00000050: 1a0a f0bc f061 e2bc 40b5 463b b455 aabb
00000060: 0337 463c 37f2 adbc 090e 36bd 1a9e 8dbc
00000070: f64e afbc 8d94 f6bb fa81 c4bc 24dc 19bc
00000080: 30af 98bc 8297 ecbc 65fc a5bc caa2 653c
00000090: 6b9f 0ebd c828 4fbc d984 54bc c2cc 0abc
000000a0: eb69 443c c532 f5bb 2c38 b6bc e505 afbc
000000b0: 0325 15bb bb9a bbbc 2cd5 10bd 4f36 f3bc
000000c0: 5ba4 a7bc f5da 6abd 750b c6bb d629 17bd
000000d0: bbde 08bd d562 a4bc 6db0 2bbc 77d8 38bd
000000e0: c838 05bc 21b8 d9bc 8655 213a 4f2f 90bc
000000f0: 30fe f2bc 9f77 d2bb aeb9 a6bc 1201 b63c
00000100: a428 9fbb 5a21 dbbc 2530 45bc 96bf 98bc
00000110: 888d 57bc 63df 43bc ed6a 89bc 4607 f5bb
00000120: 5aa9 f43b 0ef0 e3bc de3e dabc 2627 31bd
00000130: deac 5f3b e0e7 01bd 9b19 c2bc a2b9 bebc
00000140: fb10 14bd 64db 2abd b83e 38bc 1fd8 b53b
00000150: e8f9 19bd 0748 8bbc ca03 61bc e063 c5bb
00000160: 490d 63bc e8b8 843c 4b2b 03bd 2023 eebc
00000170: 71f4 10bd fcf0 dd3b dcc5 16bd 02ec e2bc
00000180: 64b8 03bd 696a c1bc d3b5 1fbc 2a88 94bc
00000190: 5fca 73bb 8cb7 85bb 5618 a2bc 8d3c fdbc
000001a0: 9932 9ebc c26b d3bc 3b71 0abd 5a6e 58bc
000001b0: c84a 30bc d6ec 04bd 5cc6 b0bc 2deb bdbc
000001c0: f3ab 03bd a61e 3bbc a485 d2bb 184a 193a
000001d0: f831 82bc 6a74 cebc 82d3 61bc 1773 1dbd
000001e0: 2708 e6bc 2503 1a3c 2c4f 07bd 8e4a 18ba
000001f0: 3a3e 8c3c 72d7 04b8 514b 8fbc c892 c0bc

projection_layer.1.running_mean f4 [128]
-0.010201739 -0.012172124 -0.050526585 0.04931229 0.016987901 0.0035881388 -0.031305466 -0.02764348
0.03218115 -0.023936572 -0.0114581045 0.0020545502 -0.019930031 0.020217443 0.020929016 0.0016734357
-0.034486927 0.00804289 0.00057625835 -0.010884676 -0.04003031 0.014852391 -0.016055547 0.04311873
-0.016880166 -0.0074241273 -0.00036982776 0.0017284013 0.028714724 0.03950848 -0.016215498 0.03242399
-0.043078262 -0.019582262 -0.017426997 0.022821102 -0.023101807 -0.03040953 -0.030213987 0.0059904587
-0.02073871 -0.027730193 0.03069376 0.058000065 -0.043012846 -0.061277203 -0.03463712 -0.0015810722
0.014141603 0.011984064 -0.018391458 0.020151347 -0.0066547142 -0.012792484 -0.0043166843 0.010750632
0.0061127264 0.008127051 0.030492458 0.008056947 -0.01792122 0.0062169726 0.024318023 -0.049579732
0.019121265 0.008122654 -0.008457485 -0.023148214 0.035561077 0.008182547 -0.02701498 0.015203501
-0.027136981 -0.003677319 -0.035589494 -0.020064076 -0.040489525 -0.026733749 -0.029321555 -0.021239586
0.018050648 0.04215386 0.016270902 0.043801334 -0.016588012 0.018560007 0.0065756068 -0.0056441305
0.014248984 0.027730899 0.03124927 0.004823405 -0.04707408 -0.029754372 -0.020002816 -0.020936478
-0.029734457 -0.03340547 0.0052375435 -0.023728153 0.033410236 -0.0013568748 0.009550129 -0.014949564
0.064790905 -0.03997094 0.004651061 -0.023779895 -0.004884476 -0.02200314 -0.029915886 -0.032420974
0.026938682 0.02165423 -0.044322014 0.047248725 -0.0052908333 -0.006064675 0.002598148 0.036242504
0.02709599 0.007849938 0.04393525 -0.013125387 0.0001302788 0.056797985 0.032763705 -0.0060491846
00000000: 3225 27bc 976d 47bc f7f4 4ebd affb 493d
00000010: 362a 8b3c fb26 6b3b 293a 00bd 9474 e2bc
00000020: 62d0 033d a116 c4bc c6ba 3bbc a2a5 063b
00000030: 4e44 a3bc 0d9f a53c 5473 ab3c 2f57 db3a
00000040: 2a42 0dbd 53c6 033c 0b10 173a a455 32bc
00000050: d3f6 23bd 7157 733c ec86 83bc 449d 303d
00000060: 4648 8abc 1846 f3bb 71e5 c1b9 868b e23a
00000070: 243b eb3c a5d3 213d 5dd6 84bc 05cf 043d
00000080: d572 30bd fb6a a0bc 10c3 8ebc 52f3 ba3c
00000090: 0040 bdbc 681d f9bc 5383 f7bc 9c4b c43b
000000a0: 3ae4 a9bc 6e2a e3bc 7b71 fb3c 7a91 6d3d
000000b0: 3d2e 30bd cefd 7abd a7df 0dbd fb3b cfba
000000c0: 2fb2 673c cf58 443c afa9 96bc 7014 a53c
000000d0: ca0f dabb 9197 51bc f972 8dbb 6b23 303c
000000e0: 444d c83b 5327 053c 52cb f93c 4901 043c
000000f0: 86cf 92bc bfb7 cb3b 9736 c73c 1e14 4bbd
00000100: 33a4 9c3c e114 053c 4391 0abc 53a1 bdbc
00000110: 7ea8 113d 1710 063c 854e ddbc 1b18 793c
00000120: 604e debc 2dff 70bb 4ac6 11bd 6b5d a4bc
00000130: 58d8 25bd bc00 dbbc c233 f0bc a4fe adbc
00000140: f4de 933c 87a9 2c3d 8e4a 853c 0769 333d
00000150: 95e3 87bc 280b 983c 3078 d73b 66f2 b8bb
00000160: 9274 693c e92b e33c 78fe ff3c a70d 9e3b
00000170: c0d0 40bd 71bf f3bc f2dc a3bc fa82 abbc
00000180: ad95 f3bc 2dd4 08bd b39f ab3b 8b61 c2bc
00000190: 2cd9 083d 2ad9 b1ba 2578 1c3c 04ef 74bc
000001a0: 18b1 843d 92b8 23bd ed67 983b 0ece c2bc
000001b0: f40d a0bb ee3f b4bc 2912 f5bc dbcb 04bd
000001c0: 83ae dc3c 3664 b13c 008b 35bd e187 413d
000001d0: ba5e adbb 2eba c6bb b145 2a3b 0573 143d
000001e0: 69f8 dd3c 079d 003c 73f5 333d dd0b 57bc
000001f0: 739b 0839 01a5 683d 3c33 063d 3d38 c6bb

projection_layer.1.running_var f4 [128]
0.113311045 0.14021008 0.13188732 0.16816501 0.12632412 0.109516285 0.13391025 0.14745925
0.097338684 0.14257799 0.1314281 0.1234161 0.14440191 0.11275327 0.12836431 0.09223943
0.1678785 0.14890257 0.18161118 0.11149216 0.1005007 0.11230932 0.098957606 0.13327855
0.12503356 0.15943688 0.19048792 0.11241739 0.15095593 0.13484803 0.16609009 0.14077729
0.09745949 0.13867858 0.18551764 0.1350096 0.14872567 0.14713544 0.14295746 0.12219506
0.16875637 0.10669089 0.1956835 0.109337665 0.13909326 0.13327943 0.13740061 0.1443304
0.106261 0.12681939 0.17679027 0.13339506 0.13760005 0.114871874 0.19021256 0.21245055
0.13284452 0.14179714 0.17268474 0.21536961 0.12295603 0.12693205 0.15854166 0.1503541
0.09212696 0.1978718 0.1250356 0.12973815 0.2267964 0.09167871 0.13908906 0.11529118
0.10879122 0.18318938 0.11813159 0.18834051 0.1416777 0.10792845 0.143961 0.2331982
0.15861808 0.1461564 0.15195413 0.17251037 0.13800822 0.27854064 0.13747999 0.14823303
0.2139761 0.122959286 0.15152921 0.12862864 0.14311087 0.10415156 0.14532828 0.15527198
0.12312046 0.118602425 0.13308834 0.2082053 0.119845204 0.18556161 0.18675669 0.15111479
0.14410554 0.1586294 0.21819921 0.15054645 0.09279691 0.2218727 0.2112953 0.14708489
0.12523696 0.20636612 0.12513313 0.10339079 0.16387196 0.14248225 0.119283944 0.17202026
0.08846535 0.17460924 0.10648275 0.10169975 0.14480798 0.16069135 0.15554869 0.13174073
00000000: 9f0f e83d 3b93 0f3e 780d 073e 7333 2c3e
00000010: 1c5b 013e 134a e03d c51f 093e 8fff 163e
00000020: 8159 c73d f7ff 113e 1695 063e 95c1 fc3d
00000030: 18de 133e 30eb e63d ef71 033e 07e8 bc3d
00000040: 57e8 2b3e ea79 183e 48f8 393e 0056 e43d
00000050: 50d3 cd3d 6e02 e63d 49aa ca3d 2c7a 083e
00000060: cc08 003e 6c43 233e 440f 433e 173b e63d
00000070: 3194 1a3e 9a15 0a3e 8513 2a3e ec27 103e
00000080: d798 c73d c201 0e3e 56f8 3d3e f53f 0a3e
00000090: 8b4b 183e acaa 163e 7163 123e 6741 fa3d
000000a0: 78ce 2c3e c180 da3d 4161 483e 6dec df3d
000000b0: 776e 0e3e 677a 083e bfb2 0c3e 59cb 133e
000000c0: 5e9f d93d f1dc 013e 8208 353e b798 083e
000000d0: 07e7 0c3e f241 eb3d 15c7 423e a38c 593e
000000e0: 6508 083e 4533 113e 45d4 303e da89 5c3e
000000f0: 5fd0 fb3d 7afa 013e bf58 223e 6df6 193e
00000100: 0fad bc3d e89e 4a3e 5509 003e 14da 043e
00000110: 513d 683e 0cc2 bb3d 5d6d 0e3e c81d ec3d
00000120: eecd de3d ff95 3b3e faee f13d 56dc 403e
00000130: f613 113e 9709 dd3d 836a 133e 82cb 6e3e
00000140: c76c 223e 06aa 153e dd99 1b3e 8fa6 303e
00000150: 0752 0d3e e19c 8e3e 8ec7 0c3e 66ca 173e
00000160: 8d1c 5b3e 14d2 fb3d 792a 1b3e 3ab7 033e
00000170: a88b 123e 6a4d d53d f0d0 143e 9eff 1e3e
00000180: 9426 fc3d d4e5 f23d 4f48 083e c533 553e
00000190: 6771 f53d dd03 3e3e 253d 3f3e d6bd 1a3e
000001a0: 6790 133e bf6f 223e 9d6f 5f3e d928 1a3e
000001b0: 4e0c be3d 9932 633e cc5d 583e 6c9d 163e
000001c0: 1e3e 003e a451 533e e622 003e 8dbe d33d
000001d0: 0dce 273e dee6 113e 244b f43d 1426 303e
000001e0: 522d b53d c4cc 323e a113 da3d f547 d03d
000001f0: 8b48 143e 468c 243e 2848 1f3e 0be7 063e

projection_layer.4.weight f4 [128, 128]
0.0049021067 0.002651206 0.06503921 0.07558338 0.058785528 -0.08653126 -0.106929354 0.06859553
-0.02235508 -0.006799483 0.089324966 -0.011133789 -0.07891639 0.06634036 -0.07258061 -0.0690593
0.06196727 -0.050651807 -0.09043635 -0.06516955 -0.07351099 0.050834443 0.00067134073 -0.095486864
-0.06838733 0.084245846 0.086370595 0.05855198 -0.011127246 0.0155676305 -0.020261291 0.05843023
-0.061716948 -0.0017145757 -0.014858786 0.023782011 -0.052491985 0.0943479 -0.035732847 0.03409564
0.079331204 -0.03751612 0.013914452 0.08228814 0.0015220157 -0.068611905 0.04332674 0.06611634
-0.05622101 0.04219781 0.083789706 0.04778993 -0.05633459 0.054833528 -0.006780039 0.10846992
0.04035917 0.06680103 -0.06138109 0.038876176 -0.008672936 -0.045354147 -0.04871066 0.025602277
-0.044292856 -0.012524733 -0.099375315 -0.06244777 0.06501646 -0.08621215 0.093264945 0.036449164
-0.11350917 0.06964618 0.05793961 0.04271011 0.07494101 -0.0551562 0.03398336 0.10187036
-0.080944285 -0.008432104 -0.065238014 -0.077687554 -0.068530686 -0.0804103 0.05814802 -0.052036446
-0.032094482 0.009054846 -0.011892023 -0.090017185 0.05520336 0.0051601757 -0.05751692 0.102874726
-0.06598128 -0.039309263 0.002491534 0.03703135 -0.083782904 -0.035498112 0.024659557 0.091648184
-0.0038364707 0.05939047 -0.016055157 -0.020946588 0.007506956 -0.06423552 -0.04695191 0.0218833
0.07087574 0.022473192 0.0048011118 0.015705815 -0.061486807 -0.11756277 0.0057628793 -0.034293313
-0.041840017 0.0688954 -0.082198046 -0.03196076 -0.10140157 0.05340943 0.107371934 -0.07985126
0.060417667 -0.008872793 -0.006730243 -0.048604477 -0.052342728 0.010926157 -0.004160087 0.009558717
0.054250687 -0.033155486 0.047600254 0.05007866 0.022671685 0.053361055 -0.09330499 0.045740146
-0.045230646 -0.05579709 -0.047598295 -0.0042452305 -0.07205038 -0.05141253 0.07268425 -0.09247861
-0.010659252 -0.060676314 0.014647775 0.038944893 -0.008722076 -0.07564383 0.031009251 0.0230921
-0.034403462 0.0951292 0.092490844 -0.00739163 0.052069876 0.004009537 -0.012280545 0.04355243
0.041357193 0.034066472 -0.016418874 0.07029946 0.0008087247 0.023700029 -0.063944995 -0.026848054
0.004028496 -0.024792513 -0.0112567935 0.071235426 -0.0056777974 0.04262566 0.060050175 -0.0743285
-0.0746567 -0.0730169 0.11113915 -0.0047667506 -0.06328739 -0.069795795 -0.00037676044 -0.05193887
-0.040920272 0.00016370746 0.06684897 -0.10445249 -0.07264782 0.05986954 -0.019566335 0.060663003
0.047607522 0.03020978 0.03018599 0.03708059 -0.063242525 0.04208191 -0.01822014 0.061735164
-0.024786364 0.07245072 -0.07474094 -0.0925495 -0.043876346 -0.028737634 -0.045774788 -0.043960355
-0.015533648 -0.03569181 -0.011713392 -0.012367735 0.0048799985 0.0022362934 -0.001094113 0.064291425
0.04248009 0.09373955 0.05595774 -0.08852395 -0.042289604 0.04433892 0.07567953 -0.06253958
0.10917898 -0.059472956 0.034717213 0.042791992 -0.06346437 0.063804224 -0.041196343 -0.0002661937
-0.093205415 0.001613636 0.031229638 0.040226597 -0.073496595 0.0004936895 0.013763611 -0.03831056
0.054901104 -0.11821659 -0.035630725 -0.06831612 -0.062140964 -0.06979644 -0.07772661 0.040926285
00000000: daa1 a03b dbbf 2d3b 4733 853d 76cb 9a3d
00000010: 18c9 703d 4d37 b1bd c7fd dabd d07b 8c3d
00000020: 0022 b7bc 33ce debb 02f0 b63d 7f6a 36bc
00000030: eb9e a1bd 74dd 873d 25a5 94bd f66e 8dbd
00000040: 64d1 7d3d 4578 4fbd b136 b9bd 9d77 85bd
00000050: ee8c 96bd c737 503d eafc 2f3a 9e8e c3bd
00000060: a80e 8cbd 1689 ac3d 11e3 b03d 33d4 6f3d
00000070: 0d4f 36bc 600f 7f3c 02fb a5bc 8954 6f3d
00000080: e9ca 7cbd 9dbb e0ba 4472 73bc 7ed2 c23c
00000090: d601 57bd 7939 c13d 9b5c 12bd dfa7 0b3d
000000a0: 6678 a23d 81aa 19bd 71f9 633c af86 a83d
000000b0: 5f7e c73a 6684 8cbd 6177 313d 0168 873d
000000c0: 0048 66bd 9cd7 2c3d f099 ab3d 60bf 433d
000000d0: 19bf 66bd 1f99 603d 172b debb 7a25 de3d
000000e0: a84f 253d face 883d bd6a 7bbd a03c 1f3d
000000f0: ee18 0ebc 45c5 39bd d484 47bd debb d13c
00000100: 6d6c 35bd 8a34 4dbc 4985 cbbd 3cc9 7fbd
00000110: 5a27 853d ff8f b0bd b101 bf3d b84b 153d
00000120: 7f77 e8bd a8a2 8e3d 1652 6d3d ccf0 2e3d
00000130: ac7a 993d 78eb 61bd 2332 0b3d 68a1 d03d
00000140: 1ec6 a5bd cf26 0abc 829b 85bd a71a 9fbd
00000150: d159 8cbd 28ae a4bd 9e2c 6e3d 2b24 55bd
00000160: 8175 03bd c75a 143c c2d6 42bc ee5a b8bd
00000170: eb1c 623d b116 a93b dd96 6bbd fcaf d23d
00000180: 3121 87bd c002 21bd 0149 233b 2fae 173d
00000190: 5f96 abbd 7866 11bd d702 ca3c 0bb2 bb3d
000001a0: 4c6d 7bbb 6c43 733d 1b86 83bc 2e98 abbc
000001b0: e9fc f53b ea8d 83bd a550 40bd 9b44 b33c
000001c0: 4d27 913d b319 b83c a552 9d3b 7ba9 803c
000001d0: 97d9 7bbd c0c4 f0bd 89d6 bc3b 2577 0cbd
000001e0: 7060 2bbd 0819 8d3d 7357 a8bd 49e9 02bd
000001f0: a0ab cfbd d9c3 5a3d d1e5 db3d 0f89 a3bd
00000200: 8478 773d 315f 11bc 5f89 dcbb 7d15 47bd
00000210: 5465 56bd a003 333c 5751 88bb 2a9c 1c3c
00000220: f835 5e3d 0cce 07bd 7cf8 423d 481f 4d3d
00000230: f8b9 b93c 1f91 5a3d b016 bfbd 055a 3b3d
00000240: c543 39bd 7d8b 64bd 6ef6 42bd 931b 8bbb
00000250: 268f 93bd f295 52bd 7bdb 943d 6d65 bdbd
00000260: 25a4 2ebc ba87 78bd 39fd 6f3c ae84 1f3d
00000270: 0ae7 0ebc 27eb 9abd 1d07 fe3c a52b bd3c
00000280: a5ea 0cbd 19d3 c23d d76b bd3d 7d35 f2bb
00000290: 3947 553d 6f62 833b 5734 49bc 0864 323d
000002a0: 2966 293d 4989 0b3d e080 86bc 2af9 8f3d
000002b0: 9900 543a 9026 c23c 98f5 82bd 73f0 dbbc
000002c0: 7901 843b ab19 cbbc 6a6e 38bc e1e3 913d
000002d0: d10c babb 3e98 2e3d 2cf7 753d 8a39 98bd
000002e0: 9de5 98bd e289 95bd ec9c e33d 6732 9cbb
000002f0: d29c 81bd 19f1 8ebd ee87 c5b9 dabd 54bd
00000300: 049c 27bd e3a8 2b39 1de8 883d 30eb d5bd
00000310: 61c8 94bd c339 753d 9449 a0bc c579 783d
00000320: 1b00 433d 807a f73c 9c48 f73c d1e1 173d
00000330: 4c85 81bd 155e 2c3d 6742 95bc 03de 7c3d
00000340: c60c cbbc 0b61 943d c711 99bd 988a bdbd
00000350: afb7 33bd 306b ebbc 587e 3bbd c60f 34bd
00000360: d880 7ebc 9331 12bd 87e9 3fbc 0aa2 4abc
00000370: 65e8 9f3b c78e 123b 5768 8fba 39ab 833d
00000380: 9aff 2d3d 85fa bf3d f133 653d 0b4c b5bd
00000390: dd37 2dbd ba9c 353d dffd 9a3d c014 80bd
000003a0: 3b99 df3d ea99 73bd a333 0e3d a846 2f3d
000003b0: 9cf9 81bd caab 823d 7fbd 28bd ea8f 8bb9
000003c0: 7be2 bebd a480 d33a 4cd5 ff3c a5c4 243d
000003d0: 6285 96bd f16a 013a c580 613c 89eb 1cbd
000003e0: fbdf 603d 8a1b f2bd 86f1 11bd 52e9 8bbd
000003f0: 8687 7ebd 70f1 8ebd 212f 9fbd 52a2 273d

projection_layer.4.bias f4 [128]
-0.029139917 -0.04870771 -0.04993828 0.043841805 0.081101544 -0.086453214 0.073079355 0.08315267
-0.03241682 -0.016685521 0.05307775 0.04055033 -0.025445148 0.028150836 -0.08325904 0.04143769
0.07268435 0.054275237 -0.07513451 0.04714306 -0.042832237 -0.022172716 -0.053121965 0.036585927
0.06912659 0.022432664 -0.050215244 0.026764283 -0.013111093 -0.062009145 -0.003065636 -0.04098821
0.062471047 -0.02114162 -0.058907624 -0.049951028 0.016337797 0.049329188 -0.0490352 0.019447276
0.03563052 0.060063165 -0.013509745 -0.031317923 0.030369466 0.083537035 0.051778756 0.02091177
-0.042263024 -0.02213711 -0.0026973847 0.0027571728 -0.052955527 -0.009373512 0.006212937 0.024816204
-0.04983279 -0.065737456 0.022448651 0.034612324 -0.030572472 0.003888995 0.0018109252 -0.01640797
-0.054084856 0.049350023 -0.04482594 0.019031065 -0.040083356 -0.09360916 0.023940682 0.066925995
-0.08385172 0.04047123 0.050815023 0.017024584 -0.027444812 -0.0027258678 0.0690108 -0.0031496726
0.047030527 -0.08307342 -0.030906416 0.05477999 0.0151029825 -0.0359137 -0.016841184 0.009930708
0.0444117 -0.03444099 0.0472289 -0.02837196 0.0074186693 -0.08543396 -0.048743807 -0.058732968
-0.06823756 -0.0015391478 0.004910141 -0.055109695 0.07729102 -0.06342707 -0.00958934 0.046964522
-0.047124226 -0.03596566 -0.054581273 -0.032987494 0.011984668 -0.024174392 0.012124298 -0.067732766
-0.036150772 0.07053877 0.06066564 -0.066233136 -0.09992991 -0.061822876 -0.08565261 -0.012760711
0.08036818 -0.057582337 -0.06965397 -0.045490008 -0.050288018 -0.07543646 0.059894133 -0.021788785
00000000: d6b6 eebc bc81 47bd 158c 4cbd 7793 333d
00000010: 9118 a63d 620e b1bd a1aa 953d f24b aa3d
00000020: 80c7 04bd 13b0 88bc 0e68 593d 1a18 263d
00000030: 5872 d0bc 959c e63c b783 aabd 91ba 293d
00000040: 88db 943d b64f 5e3d 1fe0 99bd 1519 413d
00000050: db70 2fbd 8ea3 b5bc 6b96 59bd 20db 153d
00000060: 3e92 8d3d b5c4 b73c 80ae 4dbd c540 db3c
00000070: e9cf 56bc 4dfd 7dbd d6e8 48bb 41e3 27bd
00000080: a4e1 7f3d 3131 adbc 1f49 71bd 7399 4cbd
00000090: d8d6 853c 670d 4a3d 22d9 48bd e54f 9f3c
000000a0: 4ff1 113d cb04 763d fa57 5dbc 3947 00bd
000000b0: 63c9 f83c 7715 ab3d f615 543d 294f ab3c
000000c0: fe1b 2dbd e258 b5bc 9bc6 30bb afb1 343b
000000d0: e5e7 58bd 5c93 19bc e595 cb3b 5a4b cb3c
000000e0: 781d 4cbd 5ca1 86bd 3ce6 b73c a7c5 0d3d
000000f0: 1f73 fabc 82de 7e3b 915c ed3a 026a 86bc
00000100: 1588 5dbd 4023 4a3d 689b 37bd 09e7 9b3c
00000110: 722e 24bd 29b6 bfbd 401f c43c 7f10 893d
00000120: 73ba abbd 29c5 253d 6a23 503d 2477 8b3c
00000130: f1d3 e0bc 79a4 32bb 8955 8d3d bd6a 4ebb
00000140: 15a3 403d 6622 aabd 742f fdbc fc60 603d
00000150: 8072 773c 3e1a 13bd 86f6 89bc 69b4 223c
00000160: 0be9 353d ff11 0dbd 1773 413d 506c e8bc
00000170: 4f18 f33b 00f8 aebd 96a7 47bd fb91 70bd
00000180: 22c0 8bbd 3bbd c9ba 40e5 a03b b4ba 61bd
00000190: c14a 9e3d 0de6 81bd 9b1c 1dbc df5d 403d
000001a0: 5505 41bd ba50 13bd 9d90 5fbd e51d 07bd
000001b0: 575b 443c 6009 c6bc fea4 463c 7ab7 8abd
000001c0: d512 14bd a176 903d 897c 783d 3da5 87bd
000001d0: 0da8 ccbd fc39 7dbd a36a afbd 4d12 51bc
000001e0: 1398 a43d 75db 6bbd bea6 8ebd bb53 3abd
000001f0: cffa 4dbd 6e7e 9abd 8d53 753d 657e b2bc

output_layer.weight f4 [1, 128]
0.05601042 -0.07773557 -0.05593598 -0.02867177 -0.13751014 0.08582448 0.08615243 -0.04238491
-0.1108335 0.09198982 0.07821535 -0.017515322 0.014981185 -0.010547884 0.020373493 -0.05579388
0.0105398 0.095731825 0.04420482 0.04951321 -0.03596659 -0.10840904 0.053334285 0.0140181
-0.09951937 0.06266604 0.02197578 0.02817717 -0.07404353 0.12583107 -0.04818731 -0.07200427
0.024299711 0.023598589 0.018197618 0.074625194 -0.046078905 -0.08301601 -0.038387105 0.09319269
-0.09811222 -0.12236753 -0.052396882 0.13517083 -0.14225256 -0.10789268 0.01410055 0.120291226
0.012261656 0.095896 -0.062876984 -0.07446645 0.08400982 -0.05552804 -0.04314424 -0.06316389
-0.031600166 0.05001706 -0.012354467 0.045483187 0.033245925 0.07305517 -0.096745744 -0.08479836
-0.059814062 0.05478721 -0.032665767 0.050046895 0.10004955 0.080990694 -0.14639811 0.10604024
0.010969688 -0.0027800044 0.031378876 -0.12449444 -0.032735016 -0.07278423 0.017863465 -0.07772837
-0.060094845 0.10484026 0.02632725 0.04096079 0.053466193 0.057638835 0.030219361 -0.12825218
0.043975346 -0.02531114 -0.09453612 -0.080986835 0.09202638 -0.087020986 -0.09233507 0.022712909
-0.090226375 0.12715071 0.07791773 0.12703197 0.102703445 0.09955876 0.057550523 0.10928718
0.041566312 -0.048552025 -0.054948278 0.08157771 -0.036310505 -0.05397882 0.03801614 -0.019553807
-0.03129512 0.0602169 -0.033963405 -0.06351563 0.08039555 -0.036934115 0.029954847 0.071301885
-0.0367012 0.018151166 -0.06782858 -0.13406625 -0.042214517 -0.083993234 -0.011642978 -0.026108142
00000000: 2f6b 653d d433 9fbd 201d 65bd 0fe1 eabc
00000010: 75cf 0cbe bfc4 af3d af70 b03d cd9b 2dbd
00000020: adfc e2bd 2965 bc3d 5f2f a03d 4b7c 8fbc
00000030: a573 753c 08d1 2cbc 50e6 a63c 2088 64bd
00000040: 20af 2c3c 0c0f c43d 1d10 353d 5dce 4a3d
00000050: b451 13bd 8f05 debd 0d75 5a3d 2cac 653c
00000060: d0d0 cbbd 0e57 803d 8d06 b43c cfd3 e63c
00000070: 22a4 97bd dcd9 003e 0f60 45bd fa76 93bd
00000080: 3010 c73c d451 c13c 2c13 953c 18d5 983d
00000090: 3cbd 3cbd 4c04 aabd cc3b 1dbd cfdb be3d
000000a0: 0fef c8bd d49b fabd 1d9e 56bd 396a 0a3e
000000b0: a8aa 11be d6f6 dcbd fe05 673c 3f5b f63d
000000c0: 1de5 483c 1f65 c43d a6c5 80bd de81 98bd
000000d0: 570d ac3d 5f71 63bd 04b8 30bd 125c 81bd
000000e0: 2d6f 01bd b0de 4c3d 646a 4abc 944c 3a3d
000000f0: e12c 083d f39d 953d a222 c6bd c3aa adbd
00000100: 97ff 74bd 8e68 603d 8acc 05bd f9fd 4c3d
00000110: c7e6 cc3d 73de a53d 63e9 15be a02b d93d
00000120: 35ba 333c bc30 36bb 2387 003d f1f6 febd
00000130: 2715 06bd e60f 95bd 6756 923c 0d30 9fbd
00000140: 0326 76bd 7eb6 d63d 3fac d73c 80c6 273d
00000150: 5eff 5a3d b316 6c3d 988e f73c 8a54 03be
00000160: 7e1f 343d 4f59 cfbc 279c c1bd 6ddc a5bd
00000170: 5478 bc3d 0f38 b2bd 2b1a bdbd 6c10 ba3c
00000180: 9bc8 b8bd cc33 023e 5593 9f3d ab14 023e
00000190: 2f56 d23d 77e5 cb3d 19ba 6b3d f5d1 df3d
000001a0: 7041 2a3d 7dde 46bd 7211 61bd 3712 a73d
000001b0: 53ba 14bd e518 5dbd d0b6 1b3d 4e2f a0bc
000001c0: 502f 00bd ffa5 763d 361d 0bbd 7c14 82bd
000001d0: 6ca6 a43d 3a48 17bd de63 f53c b906 923d
000001e0: ff53 16bd c1b1 943c b6e9 8abd aa48 09be
000001f0: 21e9 2cbd a504 acbd 30c2 3ebc bee0 d5bc
