Checkpoints/HR_V/valence_s14.pth (torch, 461905 bytes, 29 tensors)

input_layer.weight f4 [128, 29]
-0.048718836 -0.11674543 -0.12727377 0.10688966 0.09734482 0.118169606 0.022302715 0.062187225
-0.17157397 -0.068323545 0.008842554 -0.102424376 0.18042573 0.09105825 0.049426753 -0.031366523
0.030030662 -0.061057683 -0.03624453 0.11727886 0.06377651 0.093716 0.10756476 -0.02829672
0.04027715 0.04219901 0.103023775 0.041773554 -0.10725145 -0.16149147 -0.100169376 -0.12294737
0.057595957 -0.1266494 -0.14268613 0.14783801 0.14845036 -0.06886547 -0.034329668 -0.110561036
-0.083961315 0.056656793 0.07409409 -0.17586657 0.164539 -0.059188113 -0.041460957 -0.0053272606
0.08359641 0.08395803 0.0284609 -0.0049383407 -0.12403181 -0.06512511 -0.04999641 0.13770375
-0.14268163 0.034935117 -0.024945501 0.04220499 -0.085021175 0.09799458 -0.16141143 0.0152491005
-0.1675251 -0.14639176 -0.031549037 0.040248755 -0.07939603 -0.12940125 -0.008245013 0.14071624
0.044539727 -0.1632097 -0.12695718 -0.07873839 0.033747535 0.10722842 -0.07919436 0.19194919
0.053166427 0.14193897 0.058076058 -0.12354303 0.026152719 0.085282035 0.16451882 -0.14598419
0.04489961 -0.013598995 0.05240732 -0.029372236 -0.023772899 -0.054183427 -0.0028045087 -0.058925025
-0.10011199 0.04788808 0.11350999 0.12508346 0.033915788 -0.057686552 -0.1325778 -0.09111724
0.14377396 -0.11395083 -0.17530082 0.15598002 -0.07205316 -0.10284006 -0.17663148 -0.10206174
-0.0983536 -0.12847863 -0.110041276 0.10315274 0.07124187 0.071043365 0.16266418 0.1361074
-0.10982435 -0.011122547 -0.07695395 -0.12076495 0.062383864 -0.17517981 0.05484509 -0.14438127
0.16091684 -0.006000831 0.029610071 0.033280652 0.039456062 0.18483263 0.1681279 0.13685055
0.16008073 0.17326869 -0.14210975 -0.066424005 -0.08750035 -0.09306789 -0.10348449 -0.08729431
-0.120777376 -0.13768762 0.18394433 -0.13227534 -0.12828512 0.16131155 -0.084134206 -0.07698373
-0.060275327 0.14204676 0.16262655 -0.04946023 -0.06618851 0.045660913 0.1533452 -0.1460362
-0.12532917 -0.09548053 -0.06431605 -0.14656654 0.13718563 -0.0433633 0.0312814 -0.00046817667
-0.087059386 0.09069305 -0.1714431 0.07249249 -0.03036128 0.066964254 0.05246275 0.112622805
0.04261955 -0.092982836 -0.07346039 0.007971133 0.13987917 0.002951509 -0.07396948 -0.12065685
0.10924028 0.052999623 -0.13038616 0.14443891 -0.12926188 0.14604317 -0.0978967 0.13600634
-0.018738654 -0.06540108 -0.1699494 -0.16620187 0.17697588 0.1776927 0.12295578 0.15189657
0.06682779 0.057431757 0.15764877 -0.15300997 -0.005559717 -0.061145205 -0.034164228 -0.07638845
-0.17451711 0.14880122 0.0642266 -0.04205845 0.13998766 -0.058743726 0.095442936 -0.07239635
-0.13358422 -0.018442284 -0.1013911 -0.18820012 0.13885872 0.044450097 0.18893312 0.15999037
-0.0024255936 -0.07836474 -0.0431688 -0.118923046 -0.07609891 0.10460304 -0.019342234 -0.077928394
-0.040690072 -0.1142847 -0.06388035 0.077662535 0.06578907 0.15932845 -0.14587922 -0.15797654
0.13483445 0.0889037 -0.11143695 -0.042531814 -0.1640308 0.1473345 -0.12758285 0.08291785
-0.025061652 -0.037644897 0.0020885782 -0.16186379 0.17942072 0.04298595 0.114513345 -0.042950463
00000000: 678d 47bd 3a18 efbd 0e54 02be f7e8 da3d
00000010: b95c c73d e802 f23d 2fb4 b63c 08b8 7e3d
00000020: 16b1 2fbe 37ed 8bbd 5ce0 103c dfc3 d1bd
00000030: 86c1 383e bf7c ba3d b573 4a3d 2f7a 00bd
00000040: dd02 f63c 9f17 7abd 2575 14bd e62f f03d
00000050: 429d 823d 2dee bf3d ea4a dc3d 86ce e7bc
00000060: a7f9 243d ded8 2c3d 21fe d23d bf1a 2b3d
00000070: a6a6 dbbd 055e 25be 9a25 cdbd d5cb fbbd
00000080: bde9 6b3d 61b0 01be 501c 12be d962 173e
00000090: 5f03 183e 5709 8dbd 449d 0cbd d36d e2bd
000000a0: e9f3 abbd f410 683d a4be 973d 5e16 34be
000000b0: e97c 283e 3c6f 72bd f7d2 29bd 4d90 aebb
000000c0: 9834 ab3d 30f2 ab3d d526 e93c ced1 a1bb
000000d0: 6404 febd 5060 85bd 09c9 4cbd 3602 0d3e
000000e0: 221b 12be 2018 0f3d 825a ccbc 24df 2c3d
000000f0: 951f aebd 62b1 c83d 0a49 25be 5dd7 793c
00000100: b38b 2bbe b9e7 15be 9039 01bd e1db 243d
00000110: 639a a2bd c381 04be 1716 07bc eb17 103e
00000120: 4a6f 363d 7220 27be 1001 02be 9841 a1bd
00000130: db3a 0a3d 939a db3d a730 a2bd 548e 443e
00000140: 0ac5 593d 7358 113e 29e1 6d3d 2104 fdbd
00000150: 3a3e d63c 59a8 ae3d 9f77 283e e17c 15be
00000160: a7e8 373d 52ce 5ebc 0fa9 563d 0b9e f0bc
00000170: 62bf c2bc 71ef 5dbd d9cb 37bb 5e5b 71bd
00000180: 8407 cdbd 4b26 443d ed77 e83d e115 003e
00000190: 48eb 0a3d bc48 6cbd 7ac2 07be ad9b babd
000001a0: 7b39 133e 0e5f e9bd 0f82 33be 3ab9 1f3e
000001b0: 9b90 93bd cf9d d2bd e2de 34be bf05 d1bd
000001c0: 9d6d c9bd e78f 03be 525d e1bd be41 d33d
000001d0: 42e7 913d 2f7f 913d 7091 263e bd5f 0b3e
000001e0: 97eb e0bd 583b 36bc 089a 9dbd 9d53 f7bd
000001f0: 3986 7f3d 5662 33be 3fa5 603d afd8 13be
00000200: 62c7 243e 9ea2 c4bb d290 f23c 4b51 083d
00000210: ae9c 213d c444 3d3e b829 2c3e 8d22 0c3e
00000220: 34ec 233e 596d 313e 3885 11be 4f09 88bd
00000230: 6233 b3bd 619a bebd adef d3bd 5cc7 b2bd
00000240: 215a f7bd fcfd 0cbe e75b 3c3e 3073 07be
00000250: 2d5d 03be db2e 253e 8e4e acbd a5a9 9dbd
00000260: 43e3 76bd b574 113e 9387 263e cf96 4abd
00000270: d78d 87bd f006 3b3d 8606 1d3e 838a 15be
00000280: 4a56 00be 4c8b c3bd 22b8 83bd 8a15 16be
00000290: 647a 0c3e b79d 31bd ed20 003d 9c75 f5b9
000002a0: 314c b2bd 47bd b93d c88e 2fbe f176 943d
000002b0: 38b8 f8bc 8e24 893d 2ee3 563d c9a6 e63d
000002c0: d691 2e3d c96d bebd 6772 96bd 5b99 023c
000002d0: 7c3c 0f3e 1b6e 413b 507d 97bd f01a f7bd
000002e0: 5eb9 df3d 2216 593d f383 05be cbe7 133e
000002f0: 3a5d 04be 578c 153e 117e c8bd 3f45 0b3e
00000300: ce81 99bc 00f1 85bd 3707 2ebe d330 2abe
00000310: 2a39 353e 13f5 353e 3dd0 fb3d c68a 1b3e
00000320: 02dd 883d 903d 6b3d ae6e 213e a5ae 1cbe
00000330: 492e b6bb 6573 7abd caef 0bbd 8c71 9cbd
00000340: 9db4 32be 595f 183e 3c89 833d 7b45 2cbd
00000350: ed58 0f3e 439d 70bd 9677 c33d 8a44 94bd
00000360: 4dca 08be 4614 97bc 23a6 cfbd 88b7 40be
00000370: fb30 0e3e 4e11 363d af77 413e 84d4 233e
00000380: b5f6 1ebb b17d a0bd c5d1 30bd ed8d f3bd
00000390: bfd9 9bbd 1e3a d63d 9b73 9ebc ec98 9fbd
000003a0: a2aa 26bd 190e eabd b3d3 82bd 890d 9f3d
000003b0: 6cbc 863d ff26 233e 5d61 15be 9ac4 21be
000003c0: 0b12 0a3e 2513 b63d 0e39 e4bd d735 2ebd
000003d0: b1f7 27be dbde 163e 14a5 02be d5d0 a93d
000003e0: 184e cdbc 8931 1abd 87e0 083b 9fbf 25be
000003f0: 11ba 373e 0912 303d f985 ea3d d3ec 2fbd

input_layer.bias f4 [128]
0.11255061 0.010702635 -0.1642586 -0.031431925 -0.06495112 -0.0699828 -0.06902735 -0.0747132
-0.08478571 0.013254051 -0.13290197 -0.018934634 0.048738558 -0.0076733064 0.09034268 -0.12364736
0.12125191 -0.11721005 -0.1297412 -0.05330479 -0.1406552 0.1458428 -0.09171868 0.090829164
0.09736936 -0.016769426 -0.009604247 -0.12721907 -0.084960274 -0.08344433 0.16839084 0.07621982
-0.0038578855 -0.11659157 -0.09171591 0.05259634 -0.1375403 -0.08341141 -0.130363 0.04468619
0.065185085 -0.10578178 -0.1433402 -0.13144596 -0.0023536268 0.16582105 -0.12659237 0.11900197
0.0009089055 0.009767141 -0.11466163 0.09122784 0.13210616 0.15685569 -0.021931985 0.14404885
-0.0007073709 0.16003619 0.088798255 -0.029221194 -0.0015454433 -0.04800802 0.0028190848 -0.00013805297
-0.14440973 0.075220406 0.14077294 -0.016580816 0.007368822 0.005416958 0.15188487 0.10759436
0.0622089 0.008401858 -0.02310518 0.058023304 -0.0013459612 0.1065051 -0.15148431 -0.10404517
0.010360319 0.110655405 -0.13480906 -0.03642221 0.16890508 0.104865335 0.12855837 0.10567934
0.13234624 0.0008568113 0.039859552 -0.022925233 -0.042133767 -0.050650913 0.051759146 -0.0729849
0.027488066 -0.1469934 0.107791156 0.110962056 -0.0053299023 -0.077432245 0.030692369 -0.101722315
0.030914797 -0.09609937 -0.15142654 -0.025297655 0.026315553 0.0018639389 0.15562399 -0.14236964
0.16757622 -0.0957504 -0.08115997 -0.09594257 -0.030663142 0.015340611 -0.1629222 -0.1615464
-0.10458345 -0.031739272 -0.08619025 0.0034230796 -0.031705376 -0.009436285 0.057318106 -0.16583632
00000000: ef80 e63d 1b5a 2f3c 6833 28be c3be 00bd
00000010: 1805 85bd 2453 8fbd 365e 8dbd 3c03 99bd
00000020: 21a4 adbd 8527 593c 7417 08be ce1c 9bbc
00000030: 15a2 473d 5c70 fbbb 9505 b93d d43a fdbd
00000040: ec52 f83d d30b f0bd e1da 04be 2056 5abd
00000050: eb07 10be d157 153e 01d7 bbbd a404 ba3d
00000060: 9669 c73d 0960 89bc 225b 1dbc b745 02be
00000070: a7ff adbd dce4 aabd a66e 2c3e 2319 9c3d
00000080: 94d4 7cbb 90c7 eebd 8dd5 bbbd 436f 573d
00000090: 5dd7 0cbe 9ad3 aabd e17d 05be de08 373d
000000a0: c27f 853d 1ea4 d8bd c6c7 12be c599 06be
000000b0: 4e3f 1abb fecc 293e 6ea1 01be 4eb7 f33d
000000c0: 9e43 6e3a 5c06 203c b7d3 eabd a9d5 ba3d
000000d0: d646 073e c79e 203e b5aa b3bc 8b81 133e
000000e0: dc6e 39ba 87e0 233e dcdb b53d 4961 efbc
000000f0: 7990 caba 0fa4 44bd 65c0 383b 50c2 10b9
00000100: 25e0 13be 280d 9a3d c826 103e 7ed4 87bc
00000110: 2976 f13b bd80 b13b b587 1b3e 6f5a dc3d
00000120: c2ce 7e3d f2a7 093c 1347 bdbc d8a9 6d3d
00000130: f76a b0ba 591f da3d b41e 1bbe a215 d5bd
00000140: 54be 293c 4d9f e23d 630b 0abe 752f 15bd
00000150: 74f5 2c3e a3c3 d63d cea4 033e 696e d83d
00000160: c685 073e a29b 603a c543 233d b3cd bbbc
00000170: 7594 2cbd 5577 4fbd 6601 543d 1b79 95bd
00000180: a72e e13c 7085 16be 9cc1 dc3d 1340 e33d
00000190: 76a6 aebb cc94 9ebd 906e fb3c ca53 d0bd
000001a0: 0741 fd3c bfcf c4bd 8f0f 1bbe 073d cfbc
000001b0: b793 d73c 694f f43a e55b 1f3e 59c9 11be
000001c0: 1a99 2b3e c918 c4bd 3337 a6bd 8a7d c4bd
000001d0: 4531 fbbc 3057 7b3c 14d5 26be 6b6c 25be
000001e0: d92f d6bd 0a01 02bd 8484 b0bd bf55 603b
000001f0: 7fdd 01bd a69a 1abc 64c6 6a3d ffd0 29be

projection_layer.0.weight f4 [128, 128]
0.058091696 0.044508602 -0.053973835 0.046956763 -0.055785872 -0.08172096 -0.019513505 0.023000127
-0.02222112 -0.011756466 0.06927463 -0.08422474 -0.04344498 -0.07550971 -0.053015523 -0.03620077
0.057346486 0.05415819 0.024916708 -0.012136172 0.011078037 0.008765703 0.03502038 -0.056214266
0.022910096 -0.019541293 -0.018766899 0.040312685 -0.03656328 0.05221415 0.052740037 0.08034263
0.0112775285 0.074357115 0.08431366 0.03640881 0.05048403 0.052822594 0.023786709 0.04999153
0.052391443 0.024605386 -0.05059961 0.02263112 -0.07025247 0.027839439 0.013147222 0.025662424
-0.032425728 -0.044151735 -0.094654426 0.0074060266 -0.012132823 0.023185112 -0.018294536 -0.016382476
-0.059206992 0.08951993 -0.059538346 0.07131086 0.0069626006 -0.047919355 -0.018003868 -0.053773295
-0.051751792 -0.00070267275 -0.089323126 0.021707147 -0.008057843 0.0057703205 0.07659841 0.053564776
0.040794507 -0.05460666 0.04546038 0.06281131 0.07463682 -0.024499213 0.062135626 -0.06627675
-0.0024425816 0.022736859 0.03224331 0.078990765 -0.049626224 -0.089516215 -0.05232434 0.03386742
0.09308859 0.04409883 0.049492072 0.04320421 -0.064724155 -0.05143474 0.054890547 -0.01889548
-0.04956426 0.06758178 0.005458212 -0.007759573 0.07322442 -0.05990027 -0.065487966 0.0011828328
0.028746039 0.016254343 -0.029435525 0.0023157247 0.05232343 -0.022304254 -0.012041639 0.06969993
-0.0358759 -0.023818146 0.0557874 -0.041374482 0.04650934 0.09296319 0.075127885 0.062082827
0.017459558 -0.079440005 0.0005954363 0.041907288 -0.05210257 0.060555857 0.022513006 -0.01422459
-0.08614497 -0.04254618 0.071442686 0.059567124 0.07622669 0.014966398 -0.025038267 -0.028376553
0.00064415665 0.08208834 -0.08029738 0.035858735 -0.021816043 0.07344772 0.01770846 0.08247106
-0.032400776 -0.08996696 -0.037080426 0.02964868 0.00843508 0.07246995 -0.089633875 -0.048905823
-0.03272173 0.070521265 0.062374655 -0.02046066 0.050451048 -0.08382615 -0.023690732 -0.057545133
0.004985775 0.027241938 -0.011684563 0.08427237 -0.020462347 -0.04209259 0.0271395 -0.00598158
-0.08151686 0.06350942 -0.04704421 -0.04857434 -0.044752114 -0.048044894 -0.0524021 0.07541974
0.09615925 -0.009605133 -0.031652153 0.045194715 -0.045400262 0.07550767 0.011620476 0.076407306
0.0033614114 -0.079606526 0.008501504 0.08217484 0.039581712 0.06549776 0.019215276 0.030391427
-0.085194394 -0.04367266 -0.007509659 0.018621914 -0.048581444 0.08236922 0.033885255 0.026151102
-0.075062394 -0.009473482 0.04203966 -0.04400652 0.06653743 0.06627434 0.091370806 -0.043695617
-0.0073581017 0.009917003 -0.07019405 0.03954931 0.019352581 -0.017249683 0.0341297 -0.05484185
-0.065329656 -0.00023808454 0.018840086 0.042519014 0.05960248 0.030350432 -0.044724688 0.039545547
-0.018846616 0.0655974 -0.043778256 -0.028235523 -0.033383105 0.09035973 0.058838986 -0.03916674
0.018203454 -0.05752812 0.028993683 -0.04658221 0.046866972 -0.03375817 0.044764157 0.002169236
0.0665638 0.0856984 -0.06792331 0.068208024 0.0659547 0.05222811 -0.053947806 0.0030947053
0.027421532 -0.024695229 0.077483155 -0.02735426 0.0069582947 0.03897416 -0.07768878 -0.032957003
00000000: 8ff1 6d3d a74e 363d ab13 5dbd bc55 403d
00000010: ba7f 64bd 525d a7bd c9da 9fbc c36a bc3c
00000020: 1109 b6bc 319e 40bc dbdf 8d3d 057e acbd
00000030: 5df3 31bd d6a4 9abd ce26 59bd 4247 14bd
00000040: 26e4 6a3d fad4 5d3d 201e cc3c cbd6 46bc
00000050: a880 353c 069e 0f3c 8871 0f3d ee40 66bd
00000060: f4ad bb3c 1015 a0bc 0abd 99bc ea1e 253d
00000070: 61c3 15bd 81de 553d f005 583d ad8a a43d
00000080: 62c5 383c 8b48 983d a4ac ac3d 6821 153d
00000090: 58c8 4e3d 815c 583d 58dc c23c ebc3 4c3d
000000a0: 6998 563d 3c91 c93c 8941 4fbd e664 b93c
000000b0: 87e0 8fbd 890f e43c 7267 573c 013a d23c
000000c0: d7d0 04bd 73d8 34bd 2eda c1bd 41ae f23b
000000d0: bfc8 46bc b4ee bd3c 6cde 95bc 8b34 86bc
000000e0: 0883 72bd 3a56 b73d 7bde 73bd 6e0b 923d
000000f0: 8726 e43b 1647 44bd d97c 93bc 6341 5cbd
00000100: b0f9 53bd 9233 38ba 0bef b6bd 30d3 b13c
00000110: 0b05 04bc f514 bd3b a1df 9c3d bd66 5b3d
00000120: 2418 273d 3cab 5fbd aa34 3a3d 37a3 803d
00000130: 30db 983d 93b2 c8bc ed81 7e3d 1bbc 87bd
00000140: b813 20bb a642 ba3c 9011 043d e9c5 a13d
00000150: de44 4bbd 4754 b7bd 0c52 56bd 90b8 0a3d
00000160: 3ba5 be3d faa0 343d 33b8 4a3d e6f6 303d
00000170: 198e 84bd 3cad 52bd e9d4 603d b2ca 9abc
00000180: e503 4bbd 5168 8a3d cdda b23b 0444 febb
00000190: aff6 953d fc59 75bd 8e1e 86bd 4809 9b3a
000001a0: d07c eb3c d427 853c c522 f1bc 6ac3 173b
000001b0: 1851 563d 69b7 b6bc 4b4a 45bc d6be 8e3d
000001c0: 9cf2 12bd 461e c3bc 5481 643d 4a78 29bd
000001d0: 9480 3e3d 7c63 be3d a6dc 993d 904a 7e3d
000001e0: 5907 8f3c 71b1 a2bd 0e17 1c3a faa6 2b3d
000001f0: 8169 55bd 6b09 783d 326d b83c 410e 69bc
00000200: c66c b0bd e744 2ebd 8b50 923d a8fc 733d
00000210: bd1c 9c3d 9f35 753c 0d1d cdbc f275 e8bc
00000220: 9fdc 283a ee1d a83d f472 a4bd 9ce0 123d
00000230: 8fb7 b2bc c26b 963d 5511 913c 96e6 a83d
00000240: adb6 04bd 9940 b8bd a5e1 17bd cae1 f23c
00000250: 4a33 0a3c 206b 943d f791 b7bd 7951 48bd
00000260: 3907 06bd 746d 903d 917c 7f3d 1d9d a7bc
00000270: c2a5 4e3d 0bad abbd 1113 c2bc 72b4 6bbd
00000280: b65f a33b 7c2a df3c 9c70 3fbc fe96 ac3d
00000290: a7a0 a7bc 4869 2cbd a853 de3c 2101 c4bb
000002a0: 50f2 a6bd 3a11 823d 6eb1 40bd e3f5 46bd
000002b0: fe4d 37bd b9ca 44bd 96a3 56bd aa75 9a3d
000002c0: 24ef c43d d95e 1dbc b0a5 01bd 181e 393d
000002d0: a0f5 39bd c4a3 9a3d cf63 3e3c 6f7b 9c3d
000002e0: 204b 5c3b bf08 a3bd e449 0b3c 484b a83d
000002f0: 6f20 223d b123 863d 5b69 9d3c 71f7 f83c
00000300: 667a aebd 1ae2 32bd 9613 f6bb fc8c 983c
00000310: 56fd 46bd 32b1 a83d 44cb 0a3d d63a d63c
00000320: 50ba 99bd aa36 1bbc c731 2c3d 2e40 34bd
00000330: c744 883d d7ba 873d 9e20 bb3d 2dfa 32bd
00000340: 3b1c f1bb ed7a 223c e6c1 8fbd 75fe 213d
00000350: 4e89 9e3c 354f 8dbc 96cb 0b3d d9a1 60bd
00000360: 8ecb 85bd 55a6 79b9 8656 9a3c 6b28 2e3d
00000370: bb21 743d 78a1 f83c 3c31 37bd 83fa 213d
00000380: 3864 9abc ee57 863d d450 33bd 2f4e e7bc
00000390: b9bc 08bd 860e b93d 2601 713d 4e6d 20bd
000003a0: 691f 953c 9ba2 6bbd 2984 ed3c fdcc 3ebd
000003b0: 95f7 3f3d 0246 0abd 9f5a 373d be29 0e3b
000003c0: 9a52 883d a582 af3d 601b 8bbd a6b0 8b3d
000003d0: 4213 873d 25ed 553d 60f8 5cbd 8ad0 4a3b
000003e0: 1fa3 e03c a64d cabc 7daf 9e3d 0b16 e0bc
000003f0: 6802 e43b 5ea3 1f3d 4c1b 9fbd ecfd 06bd

projection_layer.0.bias f4 [128]
-0.032347504 0.067805216 0.0402565 -0.065524094 0.027910698 0.04394297 -0.052308023 0.011779388
-0.035876308 0.0064902655 0.013410394 0.041760422 0.008429241 0.061792526 0.018043857 -0.021342894
0.01630972 -0.039090566 0.045546513 0.003435407 -0.042975448 0.04217358 -0.01256934 -0.024377659
-0.053098533 -0.048142146 0.0012060158 0.04581121 -0.047611777 0.027814997 0.0022483207 -0.010898221
0.0009675932 -0.040628266 -0.0024280995 0.011691145 -0.009333619 -0.029504333 -0.0194788 0.028493607
-0.07362413 -0.0007250748 0.01951104 0.003011927 0.04947448 0.028251033 -0.005309013 0.00022139201
-0.038390327 0.059968248 0.043442216 -0.042758245 -0.070986845 0.06258328 -0.005815328 -0.011438639
0.011594134 3.7490805e-05 0.034495536 -0.05674365 -0.04064387 0.03228939 0.04704539 0.042680785
0.0065882597 0.054952964 -0.06771134 -0.021388674 -0.015233248 -0.023952471 0.014490115 0.07178294
-2.3401864e-05 -0.040955253 -0.053716294 -0.065421574 0.055203363 0.04064864 0.04305238 0.036741298
0.04346558 0.056174945 0.047588237 0.06277534 -0.016795227 0.023816936 0.074159555 -0.00012599927
-0.0425381 0.036036275 -0.073774904 0.043755367 0.0024883098 0.054977335 -0.006177788 -0.01344583
0.046530105 -0.007780822 -0.019909972 0.071464114 -0.044017576 -0.068824396 -0.00092999125 0.0020041636
-0.017522551 -0.05417942 -0.023338912 0.051551487 0.0625243 -0.06445339 0.01776239 0.042989124
-0.06811708 -0.057260487 -0.005500946 -0.00033440397 -0.032179076 -0.06207543 0.033872556 -0.05560545
0.0003817706 0.0026930068 0.057021946 -0.03510722 3.2305947e-05 9.554378e-05 -0.029868094 0.0032404223
00000000: d17e 04bd 76dd 8a3d 00e4 243d 7f31 86bd
00000010: faa4 e43c 8bfd 333d f040 56bd 56fe 403c
00000020: 09f3 12bd 4bac d43b 45b7 5b3c fa0c 2b3d
00000030: cd1a 0a3c 291a 7d3d b6d0 933c 4bd7 aebc
00000040: f69b 853c 6e1d 20bd fb8e 3a3d 9124 613b
00000050: 0607 30bd 34be 2c3d a2ef 4dbc a8b3 c7bc
00000060: d97d 59bd b330 45bd 2d13 9e3a 89a4 3b3d
00000070: 9104 43bd 47dc e33c 9058 133b 748e 32bc
00000080: 15a6 7d3a d369 26bd c020 1fbb 378c 3f3c
00000090: 09ec 18bc 12b3 f1bc 0192 9fbc 6d6b e93c
000000a0: 3fc8 96bd f212 3eba 9ed5 9f3c c063 453b
000000b0: c1a5 4a3d b66e e73c 3bf7 adbb 7725 6839
000000c0: 2d3f 1dbd 44a1 753d 77f0 313d 4523 2fbd
000000d0: 8d61 91bd aa2b 803d 828e bebb 2169 3bbc
000000e0: 53f5 3d3c 723f 1d38 314b 0d3d 086c 68bd
000000f0: 307a 26bd e141 043d abb2 403d 0cd2 2e3d
00000100: 54e2 d73b 5c16 613d 3eac 8abd 4d37 afbc
00000110: df94 79bc f937 c4bc f367 6d3c ef02 933d
00000120: 1f4f c4b7 b2c0 27bd 9e05 5cbd bffb 85bd
00000130: ec1c 623d 307f 263d b157 303d 0b7e 163d
00000140: f708 323d b317 663d e2eb 423d 5c90 803d
00000150: 2596 89bc bc1b c33c f7e0 973d ac1e 04b9
00000160: 6e3c 2ebd c69a 133d 4c17 97bd d438 333d
00000170: e912 233b ea2f 613d 0b6f cabb e64b 5cbc
00000180: 5a96 3e3d 44f6 febb 3d1a a3bc c75b 923d
00000190: c64b 34bd cef3 8cbd a8ca 73ba 4958 033b
000001a0: 748b 8fbc 3deb 5dbd 3f31 bfbc a727 533d
000001b0: bd0c 803d 2400 84bd 6f82 913c 5d15 303d
000001c0: f880 8bbd f989 6abd 4841 b4bb f152 afb9
000001d0: 35ce 03bd ce42 7ebd f3bd 0a3d 8ac2 63bd
000001e0: 6228 c839 287d 303b d88f 693d 97cc 0fbd
000001f0: 3f80 0738 ad5e c838 efad f4bc 445d 543b

projection_layer.1.weight f4 [128]
0.995278 1.0007845 0.9977633 0.9976773 0.99334353 0.9913392 0.9917628 0.99680674
1.0010142 0.9972058 0.9936561 0.9910495 0.99713504 0.98949194 1.0015526 0.9924696
1.0004866 0.99523145 0.99795145 0.9941925 0.9950575 0.99079716 0.9980879 0.9978384
0.99598724 0.9949867 0.9929358 1.0078033 1.0034401 1.0007898 0.9921058 0.9955353
0.9941862 0.9959629 0.99058455 0.9940799 1.0066581 0.9901932 1.001057 0.9923538
0.98821676 1.0086374 0.99797475 0.9987659 0.98975134 0.9934705 0.99732417 1.0031124
0.99985635 1.0020593 1.005074 1.0001677 0.99319506 0.9989415 1.0032223 0.9910468
0.99729466 0.99340796 0.9917142 0.9886017 0.9939683 0.99903136 1.00689 0.992711
0.99203646 0.9947513 0.99159425 0.99532884 1.003862 0.9918344 1.0048783 0.9968751
0.99228805 0.9927338 0.99105424 0.99469393 0.9938763 0.9965656 0.99607116 0.99903685
1.0002203 0.9981283 0.99175733 0.99772847 0.9970874 0.9932923 0.9881164 0.99749017
0.9920659 0.99141043 0.99141663 1.0026687 0.99816823 0.9963225 0.9973649 0.99896514
0.9954598 0.9969952 0.9963517 0.9963088 0.9945591 0.9957499 1.0009409 0.997703
1.0107042 0.99063426 0.9938925 0.9982997 1.0008684 0.9973136 0.99553484 0.9940357
0.99874485 0.9925481 0.9958917 1.0068823 0.98838556 0.99910635 1.0020945 0.9998323
0.99369276 0.9965196 1.0008003 0.9997902 0.9943889 0.99927175 0.9928812 1.0015538
00000000: 8aca 7e3f b519 803f 6a6d 7f3f c867 7f3f
00000010: c34b 7e3f 68c8 7d3f 2be4 7d3f ba2e 7f3f
00000020: 3c21 803f e148 7f3f 3f60 7e3f 6cb5 7d3f
00000030: 3e44 7f3f 584f 7d3f e032 803f 7d12 7e3f
00000040: f20f 803f 7dc7 7e3f bf79 7f3f 6683 7e3f
00000050: 17bc 7e3f e2a4 7d3f b082 7f3f 5672 7f3f
00000060: 05f9 7e3f 73b7 7e3f 0a31 7e3f b3ff 803f
00000070: ba70 803f e119 803f a5fa 7d3f 67db 7e3f
00000080: fd82 7e3f 6df7 7e3f f396 7d3f 057c 7e3f
00000090: 2cda 803f 4d7d 7d3f a322 803f e60a 7e3f
000000a0: c6fb 7c3f 081b 813f 467b 7f3f 1faf 7f3f
000000b0: 5860 7d3f 1554 7e3f a350 7f3f fd65 803f
000000c0: 96f6 7f3f 7b43 803f 44a6 803f 7f05 803f
000000d0: 0842 7e3f a1ba 7f3f 9769 803f 3eb5 7d3f
000000e0: b44e 7f3f fc4f 7e3f fbe0 7d3f 0015 7d3f
000000f0: b574 7e3f 85c0 7f3f c6e1 803f 4f22 7e3f
00000100: 1af6 7d3f 05a8 7e3f 1fd9 7d3f dfcd 7e3f
00000110: 8d7e 803f dce8 7d3f da9f 803f 3533 7f3f
00000120: 9706 7e3f cd23 7e3f bbb5 7d3f 43a4 7e3f
00000130: ad6e 7e3f ec1e 7f3f 85fe 7e3f e1c0 7f3f
00000140: 3807 803f 5685 7f3f cfe3 7d3f 226b 7f3f
00000150: 1f41 7f3f 6748 7e3f 32f5 7c3f 845b 7f3f
00000160: 08f8 7d3f 13cd 7d3f 7bcd 7d3f 7357 803f
00000170: f487 7f3f fe0e 7f3f 4e53 7f3f 2ebc 7f3f
00000180: 74d6 7e3f 143b 7f3f e810 7f3f 180e 7f3f
00000190: 6d9b 7e3f 77e9 7e3f d51e 803f 7769 7f3f
000001a0: c15e 813f 359a 7d3f bd6f 7e3f 9290 7f3f
000001b0: 751c 803f f24f 7f3f 5fdb 7e3f 2079 7e3f
000001c0: bead 7f3f a217 7e3f c2f2 7e3f 85e1 803f
000001d0: d606 7d3f 6fc5 7f3f a244 803f 02f5 7f3f
000001e0: a662 7e3f e91b 7f3f 391a 803f 40f2 7f3f
000001f0: 4590 7e3f 46d0 7f3f 762d 7e3f ea32 803f

projection_layer.1.bias f4 [128]
-0.011557909 -0.0009971798 0.0007723313 -0.0031839872 -0.007772205 -0.0072801365 -0.012518826 0.0029174753
0.004506725 0.001197442 -0.0063684518 -0.008643203 -0.0035566443 -0.008355625 -0.00043382405 -0.008425335
-0.0005349706 -0.0060454668 -0.0027744249 -0.0026299977 -0.0031915908 -0.007620677 -0.003725246 -0.005204981
0.0003501701 -0.0073622926 -0.005030301 0.0038904045 -0.00086203305 -0.0013516768 -0.008006315 -0.002897134
-0.005704106 -0.005732516 -0.007342563 -0.0041426052 0.009247738 -0.011393771 -0.00138017 -0.005102668
-0.011219439 0.002555978 -0.004547409 0.00085814425 0.0005573957 -0.007875961 -0.003967461 0.005390356
-0.0037652066 -0.0029466944 0.0040542292 0.003770791 0.0037695966 -0.009404795 0.007191374 -0.004026751
0.0041004866 -0.0032314677 -0.0061740703 -0.009185912 -0.0062696454 -0.0021928174 0.006985312 -0.0048677446
-0.009539616 -0.00789531 -0.011523325 -0.0019298162 0.005623954 -0.0061003664 -0.0021596411 -0.004475198
-0.0075948522 -0.009274071 -0.006079374 -0.0038630432 -0.0038522673 -0.0057448195 0.0017199191 0.00012857532
-0.00020115222 0.0017759019 -0.00012070835 0.0011226304 -0.0007016102 -0.003857786 -0.011314606 0.00051460956
-0.004763073 -0.010655825 -0.00747445 0.0037828612 -0.001680046 -0.002025354 -0.0059547788 -0.004754057
0.0011800295 -0.0048309867 -0.0061823726 -0.00089023425 -0.0031198282 -0.0040939725 0.0006736291 0.0039694263
0.0034872936 -0.007717849 -0.005575152 0.0004574701 0.0025484648 -0.000717006 -0.0013048376 -0.008136929
-0.0039053236 -0.0066842795 -0.00048530567 0.006769492 -0.009981231 0.0002785751 -0.0034914506 -6.940379e-05
-0.006764197 -0.0047190497 -0.0042367293 -0.00066545256 -0.0042367866 0.005984107 -0.0065203723 -0.007788013
00000000: 625d 3dbc cdb3 82ba 4776 4a3a 71aa 50bb
00000010: fbad febb 368e eebb c31b 4dbc 1d33 3f3b
00000020: 26ad 933b 7cf3 9c3a 72ae d0bb 399c 0dbc
00000030: 9716 69bb 08e6 08bc e172 e3b9 6b0a 0abc
00000040: 453d 0cba 0d19 c6bb 20d3 35bb 0a5c 2cbb
00000050: 022a 51bb dfb6 f9bb 4223 74bb 8c8e aabb
00000060: 0997 b739 633f f1bb 39d5 a4bb 28f6 7e3b
00000070: 0ffa 61ba bf2a b1ba eb2c 03bc d8dd 3dbb
00000080: 82e9 babb d4d7 bbbb e299 f0bb b1be 87bb
00000090: d383 173c f0ac 3abc d2e6 b4ba 4834 a7bb
000000a0: bdd1 37bc 3282 273b 6e02 95bb 16f5 603a
000000b0: 311e 123a 2d0a 01bc 7a01 82bb 95a1 b03b
000000c0: afc1 76bb 541d 41bb 57d9 843b 601f 773b
000000d0: 560b 773b 9216 1abc 9ea5 eb3b d6f2 83bb
000000e0: 605d 863b 08c7 53bb db4f cabb 8280 16bc
000000f0: 9971 cdbb 5fb5 0fbb 0be5 e43b 9a81 9fbb
00000100: 0d4c 1cbc 555b 01bc 54cc 3cbc e3f1 fcba
00000110: 2549 b83b 95e5 c7bb c488 0dbb afa4 92bb
00000120: 3dde f8bb 46f2 17bc 7c35 c7bb 1c2b 7dbb
00000130: 5276 7cbb 0a3f bcbb e96e e13a 2dd2 0639
00000140: 63ec 52b9 61c5 e83a cd24 fdb8 3a25 933a
00000150: 43ec 37ba e9d2 7cbb e660 39bc dde6 063a
00000160: 8d13 9cbb c595 2ebc 3bec f4bb e1e9 773b
00000170: fd34 dcba cdbb 04bb 4e20 c3bb ecc7 9bbb
00000180: 38ab 9a3a 414d 9ebb 8095 cabb 9c5e 69ba
00000190: 0876 4cbb bb26 86bb 7c96 303a f611 823b
000001a0: 148b 643b 03e6 fcbb c4af b6bb 99d8 ef39
000001b0: 2504 273b 75f5 3bba 1607 abba c150 05bc
000001c0: 75f0 7fbb cd07 dbbb a070 feb9 9dd2 dd3b
000001d0: 5188 23bc b80d 9239 d2d0 64bb e08c 91b8
000001e0: 32a6 ddbb 42a2 9abb 43d4 8abb c471 2eba
000001f0: bed4 8abb 5416 c43b d9a8 d5bb 9732 ffbb

projection_layer.1.running_mean f4 [128]
-0.04841626 0.080911435 -0.013540321 -0.099125125 0.06960704 -0.042065926 -0.018063838 -0.045736197
-0.032820325 0.13448888 -0.013307007 -0.019819535 0.030213136 0.07581316 -0.03814057 -0.00079712353
0.031908073 -0.06481034 0.05622896 0.054915596 -0.056482676 0.042238396 0.099834345 0.017024565
-0.051067837 0.0111688115 -0.04802624 0.02752349 -0.07023802 0.083530776 -0.006670675 -0.022428172
0.0038516652 -0.0748118 0.016223589 0.0949282 0.011793986 -0.034016017 -0.0026969477 0.10220652
-0.10705919 0.0059020245 0.07104499 0.013841572 0.06419961 0.04741558 0.050324213 -0.019726858
-0.0980807 0.04557833 0.030935036 -0.120561235 0.0077184187 0.02242374 -0.024148045 -0.022717359
0.040448308 0.010947235 0.112379394 -0.074726924 -0.08780001 0.1251094 -0.04883965 -0.017662581
0.012221661 0.04958215 -0.08920735 0.009156566 -0.030902276 -0.038712688 -0.029136397 0.031012863
-0.09794993 -0.078379616 0.00043195803 -0.036020916 -0.020596463 0.080402315 0.107718155 0.08683134
0.07100889 0.016862936 -0.012905995 0.09847118 -0.07589073 -0.008638135 0.020114878 0.039498102
-0.029386422 0.044530597 -0.036670648 0.03524553 0.0006934111 0.048349824 -0.010200144 0.0028236937
0.13333814 -0.028677989 -0.041490488 0.093640134 -0.080010004 -0.047875922 -0.006599429 -0.05811381
0.009340071 -0.09163986 -0.08195118 0.06660934 0.13558204 -0.087245084 0.053985983 0.036188576
-0.065770596 -0.09488453 0.04218108 0.01094421 -0.080748506 -0.13089676 -0.03541843 -0.0833629
-0.0008395073 -0.056650776 0.08631738 -0.020744925 -0.08030911 0.084105484 -0.015125058 0.055413008
00000000: 2150 46bd e5b4 a53d 39d8 5dbc 1d02 cbbd
00000010: 238e 8e3d 524d 2cbd 9dfa 93bc e155 3bbd
00000020: 9b6e 06bd 74b7 093e a205 5abc 945c a2bc
00000030: 8a81 f73c ee43 9b3d 4939 1cbd 0ef6 50ba
00000040: 0ab2 023d 49bb 84bd 5750 663d 2def 603d
00000050: 615a 67bd 2b02 2d3d f375 cc3d 1a77 8b3c
00000060: 822c 51bd 64fd 363c 2ab7 44bd f178 e13c
00000070: f3d8 8fbd 2f12 ab3d ad95 dabb 49bb b7bc
00000080: 386c 7c3b ee36 99bd 55e7 843c b769 c23d
00000090: 903b 413c 6154 0bbd 46bf 30bb a751 d13d
000000a0: d941 dbbd c565 c13b 0980 913d c3c7 623c
000000b0: 167b 833d d736 423d c320 4e3d 389a a1bc
000000c0: 89de c8bd 58b0 3a3d 796b fd3c cfe8 f6bd
000000d0: caea fc3b feb1 b73c 1fd2 c5bc c119 babc
000000e0: 20ad 253d 085c 333c 2b27 e63d 6e0a 99bd
000000f0: 7ed0 b3bd ae1c 003e 160c 48bd 1eb1 90bc
00000100: 5d3d 483c a716 4b3d 58b2 b6bd 6c05 163c
00000110: c526 fdbc 3291 1ebd 74af eebc b00e fe3c
00000120: f999 c8bd 7e85 a0bd 6d78 e239 ab8a 13bd
00000130: eab9 a8bc f8a9 a43d 569b dc3d a1d4 b13d
00000140: 1c6d 913d 2424 8a3c ab73 53bc 42ab c93d
00000150: 996c 9bbd f786 0dbc f5c7 a43c c3c8 213d
00000160: cbbb f0bc b765 363d f633 16bd 9e5d 103d
00000170: 08c6 353a 770a 463d 811e 27bc b80d 393b
00000180: cb89 083e 1aee eabc eef1 29bd 66c6 bf3d
00000190: 49dc a3bd 8b19 44bd 0640 d8bb bf08 6ebd
000001a0: 1907 193c aead bbbd 05d6 a7bd 7a6a 883d
000001b0: 05d6 0a3e 8dad b2bd 6820 5d3d 793a 143d
000001c0: bcb2 86bd d252 c2bd 11c6 2c3d 584f 333c
000001d0: 795f a5bd cd09 06be ea12 11bd 2bba aabd
000001e0: 6212 5cba a50a 68bd 2bc7 b03d 43f1 a9bc
000001f0: 1a79 a4bd 7f3f ac3d 17cf 77bc c0f8 623d

projection_layer.1.running_var f4 [128]
0.29113993 0.2896071 0.22809355 0.26098076 0.32684022 0.30572817 0.25015706 0.2716251
0.23692214 0.30422765 0.2820869 0.26386485 0.24396847 0.29781199 0.27738884 0.2677543
0.27064076 0.32319528 0.32789287 0.25610358 0.2244936 0.27375576 0.32602903 0.2752647
0.27748698 0.26497537 0.2635867 0.3093134 0.23616369 0.27611014 0.31410235 0.2705366
0.2908755 0.26497093 0.28675553 0.2863189 0.25050983 0.2525097 0.30249423 0.28169352
0.29335904 0.2955694 0.26346534 0.27843073 0.3039597 0.2534629 0.28938583 0.26956907
0.28582 0.3290354 0.28579003 0.29141137 0.2677455 0.2541794 0.27340862 0.3092076
0.31201345 0.24747373 0.23885578 0.29142365 0.24831574 0.26287597 0.2657972 0.24703483
0.2828037 0.3142907 0.26070663 0.26388794 0.2625315 0.25748044 0.26399878 0.30221948
0.2713091 0.276322 0.28457236 0.27624378 0.2537571 0.29887515 0.29446793 0.31519005
0.2993343 0.2569637 0.28349507 0.2562833 0.24478617 0.30870908 0.26175588 0.24458061
0.32257712 0.27449372 0.241159 0.267464 0.2788436 0.24295297 0.27626893 0.23288962
0.3012292 0.28596768 0.26465017 0.33526742 0.2931993 0.27081934 0.2594321 0.29338643
0.24358259 0.29232877 0.2337488 0.2762533 0.28202197 0.25432453 0.29135123 0.34553853
0.23726913 0.27554697 0.25447997 0.27583984 0.33196354 0.25990948 0.25423172 0.25148937
0.25219887 0.28174654 0.2582515 0.29942617 0.2746113 0.27369693 0.24523434 0.2910195
00000000: 4b10 953e 6247 943e 5b91 693e 459f 853e
00000010: 9a57 a73e 6788 9c3e 9614 803e 7212 8b3e
00000020: b89b 723e bac3 9b3e b26d 903e 4b19 873e
00000030: dfd2 793e d07a 983e e905 8e3e 1717 893e
00000040: 6d91 8a3e da79 a53e 93e1 a73e 0220 833e
00000050: a6e1 653e b729 8c3e 47ed a63e 7fef 8c3e
00000060: c612 8e3e daaa 873e d6f4 863e 535e 9e3e
00000070: e5d4 713e 4f5e 8d3e 06d2 a03e c683 8a3e
00000080: a2ed 943e 45aa 873e 9fd1 923e 6498 923e
00000090: d342 803e f448 813e 86e0 9a3e 223a 903e
000000a0: 2833 963e df54 973e eee4 863e 798e 8e3e
000000b0: 9ba0 9b3e e4c5 813e 612a 943e f504 8a3e
000000c0: 0057 923e 5477 a83e 1253 923e df33 953e
000000d0: f015 893e cd23 823e 37fc 8b3e 7550 9e3e
000000e0: 3ac0 9f3e c169 7d3e 9c96 743e 7b35 953e
000000f0: 7b46 7e3e ae97 863e 9216 883e b3f6 7c3e
00000100: a6cb 903e b6ea a03e 577b 853e 521c 873e
00000110: 876a 863e 7ad4 833e d92a 873e 83bc 9a3e
00000120: 07e9 8a3e 147a 8d3e 78b3 913e d36f 8d3e
00000130: 73ec 813e 2a06 993e 80c4 963e 9760 a13e
00000140: 5842 993e bf90 833e 4426 913e 9137 833e
00000150: 3aa9 7a3e 1e0f 9e3e de04 863e 5773 7a3e
00000160: d428 a53e 718a 8c3e 63f2 763e 0bf1 883e
00000170: 97c4 8e3e aac8 783e 1f73 8d3e 9e7a 6e3e
00000180: b73a 9a3e 5b6a 923e 3a80 873e 2ca8 ab3e
00000190: 381e 963e d5a8 8a3e 49d4 843e bf36 963e
000001a0: b76d 793e 1eac 953e d85b 6f3e 1371 8d3e
000001b0: 2f65 903e d336 823e fd2b 953e 6dea b03e
000001c0: aef6 723e 7e14 8d3e 334b 823e e13a 8d3e
000001d0: 20f7 a93e db12 853e a92a 823e 37c3 803e
000001e0: 3620 813e 1541 903e 8a39 843e 634e 993e
000001f0: da99 8c3e 0122 8c3e b61e 7b3e 8200 953e

projection_layer.4.weight f4 [128, 128]
0.06607606 -0.001927316 -0.048423637 0.0069975113 -0.06710557 0.05491137 0.043548673 0.035590935
0.037735667 -0.037239105 -0.049077943 -0.06653567 -0.016974468 0.09710967 0.054128714 0.050004993
-0.05727201 -0.009013455 0.046848714 0.0013282434 0.08625414 0.0026718478 0.02684971 0.03436856
0.0047556604 0.08895662 0.038474094 -0.034194674 0.007897805 0.07390288 0.060766954 0.037014607
-0.020889377 0.024668328 -0.020523073 0.0394848 -0.07052091 -0.042075492 -0.034876253 0.06399799
-0.040338002 -0.0065938965 0.0018867966 0.060619477 0.03256901 0.050559875 0.029775286 -0.03818285
-0.075089484 -0.041648548 -0.093101405 0.0066747004 -0.012726495 0.020030484 -0.066846594 0.024506917
0.056967072 0.08433135 -0.03840243 0.06304638 -0.010825029 0.049344923 0.08384659 -0.052920245
-0.059043076 -0.064101525 0.05314292 0.037941057 -0.061511327 -0.074134946 0.065266825 -0.018527627
0.04366758 0.047665562 0.044829767 -0.06662619 0.041854043 0.060292374 -0.025285777 -0.060668968
0.02881713 -0.04352196 0.0808027 0.05000621 -0.04975222 0.072225176 0.026782792 0.063849844
0.08254361 -0.08246022 -0.059003163 -0.062963545 -0.08377796 0.06713625 -0.08047866 -0.08813987
0.07398284 0.005347098 0.007939135 -0.029370733 -0.06997341 -0.05978067 -5.162041e-05 0.080326565
-0.009143096 0.08072336 0.061527018 0.031544574 0.013043711 0.058212806 -0.07407226 -0.05091856
-0.048213184 -0.09066844 -0.02833208 -0.021695258 0.033800732 -0.03137211 -0.049715042 0.07485851
0.023298865 0.0734486 0.0068903663 0.06850986 -0.030856043 -0.058401387 -0.01622823 0.04796571
0.07204601 0.07949826 -0.0379799 -0.020722471 -0.048422053 -0.02036425 -0.048965793 -0.0072614336
-0.040484704 -0.009577992 0.044185128 0.075429164 0.07142711 -0.042944066 -0.08962979 0.051375277
0.030855851 0.022562059 0.01315671 -0.019417578 0.054138463 -0.0636556 0.08430373 0.0009946711
-0.029185545 -0.0754356 -0.034408223 0.094112605 -0.055792093 -0.03211093 -0.06921494 -0.07940211
-0.020547083 0.013292228 -0.0076446817 -0.03126268 0.005564052 0.004397487 0.042776216 0.048149366
-0.043245934 -0.053976834 -0.08756122 -0.07453451 -0.07699302 0.03309044 -0.072853126 0.032561023
-0.029504882 0.01702519 -0.022815611 -0.07896116 -0.021133259 -0.020609068 -0.056736514 0.017972188
-0.0055069337 0.06731502 -0.07586255 0.012857517 -0.06891787 -0.012657716 -0.006589506 0.07464809
0.06387685 0.056122333 0.07184054 -0.06314852 0.055954084 0.0020610143 0.019818215 -0.052528217
-0.054681066 -0.047529485 0.027051553 0.057051484 -0.06369849 -0.02920015 -0.048504453 -0.014009168
0.059525378 0.057756882 -0.064371504 -0.002749239 0.0138922 -0.01963779 -0.008840473 0.056413487
0.0051781395 -0.08044999 0.06508513 -0.0827384 -0.03202227 -0.041001476 -0.03038085 -0.0694679
-0.07356532 -0.07831746 -0.005118423 0.029372174 0.047171954 -0.0026377619 -0.08128153 0.045819312
0.024519635 0.056116864 0.06957554 -0.040717594 0.024116535 0.088346004 0.07901231 -0.06164451
-0.023580331 0.0059154653 -0.06395368 -0.014784371 -0.07903592 -0.06219457 0.08572051 -0.05874531
-0.063675895 -0.07246787 -0.0016827856 -0.030604724 -0.042364795 -0.029737659 -0.0067678615 0.008088788
00000000: e352 873d fe9d fcba dd57 46bd 614b e53b
00000010: a56e 89bd bfea 603d 1860 323d cdc7 113d
00000020: b790 1a3d 0888 18bd f405 49bd da43 88bd
00000030: 0a0e 8bbc 6fe1 c63d 12b6 5d3d 09d2 4c3d
00000040: 0e96 6abd 2cad 13bc 70e4 3f3d 7418 ae3a
00000050: 03a6 b03d 2b1a 2f3b ecf3 db3c 0cc6 0c3d
00000060: 5fd5 9b3b e32e b63d 0397 1d3d b70f 0cbd
00000070: cc65 013c 655a 973d c5e6 783d a19c 173d
00000080: 3320 abbc 3c15 ca3c 0120 a8bc d0ba 213d
00000090: 446d 90bd 5a57 2cbd 67da 0ebd 6111 833d
000000a0: 7639 25bd 9d11 d8bb 634e f73a 214c 783d
000000b0: 1567 053d df17 4f3d 4deb f33c 9f65 1cbd
000000c0: 84c8 99bd ab97 2abd f3ab bebd 72b7 da3b
000000d0: ca82 50bc f816 a43c dee6 88bd bbc2 c83c
000000e0: 4e56 693d eab5 ac3d de4b 1dbd 761e 813d
000000f0: 765b 31bc e71d 4a3d c3b7 ab3d e6c2 58bd
00000100: 27d7 71bd a947 83bd 64ac 593d 1568 1b3d
00000110: 4df3 7bbd 10d4 97bd 9daa 853d 40c7 97bc
00000120: c7dc 323d f73c 433d 6b9f 373d 5073 88bd
00000130: 256f 2b3d 23f5 763d 1e24 cfbc 0680 78bd
00000140: e711 ec3c 1544 32bd e37b a53d 50d3 4c3d
00000150: fcc8 4bbd cbea 933d 9667 db3c b5c3 823d
00000160: a00c a93d e7e0 a8bd 4dad 71bd 08f3 80bd
00000170: c793 abbd bb7e 893d ffd1 a4bd ad82 b4bd
00000180: 5184 973d b636 af3b 2513 023c e49a f0bc
00000190: 384e 8fbd 93dc 74bd fe82 58b8 4182 a43d
000001a0: edcc 15bc 4a52 a53d c103 7c3d e234 013d
000001b0: 4ab5 553c 8d70 6e3d 32b3 97bd fb8f 50bd
000001c0: 307b 45bd 60b0 b9bd ae18 e8bc 41ba b1bc
000001d0: a372 0a3d 0b80 00bd 00a2 4bbd 6b4f 993d
000001e0: 43dd be3c 386c 963d 95c8 e13b e64e 8c3d
000001f0: d0c5 fcbc 4b36 6fbd 11f1 84bc b177 443d
00000200: dc8c 933d fccf a23d d090 1bbd 2cc2 a9bc
00000210: 3456 46bd edd2 a6bc 5b90 48bd 52f1 edbb
00000220: 4ad3 25bd 03ed 1cbc 77fb 343d 9b7a 9a3d
00000230: 6048 923d 1ee6 2fbd d38f b7bd e26e 523d
00000240: 69c5 fc3c 11d4 b83c 3e8f 573c 9d11 9fbc
00000250: 4bc0 5d3d de5d 82bd 6fa7 ac3d a05f 823a
00000260: 8616 efbc fb7d 9abd a3ef 0cbd 1cbe c03d
00000270: 4086 64bd c086 03bd 90c0 8dbd 939d a2bd
00000280: 5b52 a8bc a5c7 593c 3d80 fabb 4c0d 00bd
00000290: a752 b63b cb18 903b 1d36 2f3d 4538 453d
000002a0: a622 31bd d016 5dbd 4c53 b3bd 8da5 98bd
000002b0: 84ae 9dbd d789 073d 0534 95bd b55e 053d
000002c0: 39b4 f1bc 6978 8b3c cee7 babc 63b6 a1bd
000002d0: a81f adbc 59d4 a8bc 8c64 68bd 693a 933c
000002e0: 8273 b4bb 75dc 893d d35d 9bbd 56a8 523c
000002f0: d024 8dbd 4f62 4fbc c8ec d7bb 19e1 983d
00000300: ded1 823d 88e0 653d 2221 933d 0354 81bd
00000310: 1c30 653d 1512 073b cf59 a23c d427 57bd
00000320: 41f9 5fbd 47ae 42bd 389b dd3c d1ae 693d
00000330: 5b74 82bd 2735 efbc 9bac 46bd b686 65bc
00000340: e2d0 733d 7b92 6c3d 35d5 83bd 942c 34bb
00000350: 1c9c 633c 6edf a0bc a2d7 10bc d411 673d
00000360: 62ad a93b f7c2 a4bd 5a4b 853d c072 a9bd
00000370: c929 03bd 2af1 27bd 43e1 f8bc 3045 8ebd
00000380: 6aa9 96bd e864 a0bd 72b8 a7bb ea9d f03c
00000390: 6137 413d 4dde 2cbb ee76 a6bd 08ad 3b3d
000003a0: 67dd c83c ccda 653d 9f7d 8e3d 7ec7 26bd
000003b0: 0a90 c53c c0ee b43d 35d1 a13d f47e 7cbd
000003c0: 8a2b c1bc 85d6 c13b 26fa 82bd 253a 72bc
000003d0: 96dd a1bd bcbf 7ebd 3c8e af3d ec9e 70bd
000003e0: 8268 82bd 096a 94bd ea90 dcba c2b6 fabc
000003f0: b586 2dbd 649c f3bc f0c4 ddbb d686 043c

projection_layer.4.bias f4 [128]
0.0030847986 0.022253852 0.025251495 0.0056938427 0.067973316 0.004191732 -0.081667006 0.019058723
0.00734149 -0.006439734 -0.074133016 0.014570206 -0.055219896 -0.027954461 0.034544908 -0.056197274
-0.01242254 0.06163648 -0.076180875 0.07450898 -0.066864535 -0.06630076 -0.046829898 -0.0289337
0.042460863 -0.06392191 0.07960764 -0.091620624 0.055324916 -0.04485196 0.062308446 -0.0067468276
0.05623786 -0.04274329 0.009054909 -0.09330594 -0.054682422 -0.04572384 -0.068092175 -0.08000608
-0.03203176 0.049926016 0.07668879 0.017351763 0.07969411 0.066303074 -0.015212887 0.042717937
0.060395356 0.00032934413 0.059966803 0.020833513 0.026380653 -0.05493485 -0.025689287 0.06240068
0.03500202 -0.078909464 0.0008992579 -0.019879123 -0.0005114506 0.076647595 -0.065567985 -0.020228652
-0.06358125 0.0073769414 0.036176957 -0.019545292 0.010433235 0.062443156 0.076129675 -0.053557232
-0.038285054 0.049834475 0.057070676 -0.030416101 0.069809645 0.06387381 0.06710338 -0.0269145
-0.05801904 0.043196876 0.002942738 -0.04606146 -0.07957789 0.06425412 -0.050376035 -0.052101027
-0.06626424 -0.07801299 -0.042523414 -0.04327964 0.07809054 -0.030926427 0.083438255 -0.062974215
-0.0738755 0.059373666 0.0115336375 -0.014465774 0.030956458 0.07881605 0.08369212 0.053883333
-0.00043591502 0.019997992 0.031921413 -0.03637763 0.066369385 -0.08180358 0.07278818 -0.09260946
-0.050505817 -0.01603496 0.074276984 0.070624135 0.0458868 -0.06935778 0.06477081 -0.048848785
0.053134885 -0.005862876 0.064292185 -0.03197744 -0.04867475 -0.07991163 -0.085886754 -0.008082016
00000000: 552a 4a3b b64d b63c 39dc ce3c 6a93 ba3b
00000010: 9835 8b3d cc5a 893b 0841 a7bd 0a21 9c3c
00000020: e290 f03b 6704 d3bb 0dd3 97bd e0b7 6e3c
00000030: 422e 62bd c100 e5bc f67e 0d3d 1d2f 66bd
00000040: e987 4bbc 8976 7c3d b804 9cbd 2a98 983d
00000050: 46f0 88bd b1c8 87bd b5d0 3fbd 5e06 edbc
00000060: 71eb 2d3d 7ee9 82bd 5509 a33d 98a3 bbbd
00000070: 619c 623d b0b6 37bd 2437 7f3d 7e14 ddbb
00000080: ac59 663d 9713 2fbd 0b5b 143c 2f17 bfbd
00000090: adfa 5fbd ec48 3bbd e973 8bbd 3ada a3bd
000000a0: bc33 03bd 397f 4c3d 030f 9d3d 4925 8e3c
000000b0: aa36 a33d e8c9 873d 793f 79bc 01f9 2e3d
000000c0: 1f61 773d d2ab ac39 c09f 753d 0bab aa3c
000000d0: 3d1c d83c 5e03 61bd 5772 d2bc db97 7f3d
000000e0: 475e 0f3d 499b a1bd 2dbc 6b3a 8bd9 a2bc
000000f0: de12 06ba 6af9 9c3d 8248 86bd 8fb6 a5bc
00000100: e336 82bd 45ba f13b 4a2e 143d 731d a0bc
00000110: 29f0 2a3c 65c4 7f3d e0e9 9b3d d45e 5bbd
00000120: cad0 1cbd 3c1f 4c3d f1c2 693d 302b f9bc
00000130: 5cf8 8e3d 46d0 823d 7f6d 893d cc7b dcbc
00000140: 5fa5 6dbd 35ef 303d f3da 403b f1aa 3cbd
00000150: bcf9 a2bd aa97 833d 1a57 4ebd e367 55bd
00000160: 8cb5 87bd 46c5 9fbd 082d 2ebd fe45 31bd
00000170: efed 9f3d 6b59 fdbc ade1 aa3d a0f8 80bd
00000180: 0a4c 97bd cd31 733d 95f7 3c3c db01 6dbc
00000190: 6698 fd3c 4f6a a13d c666 ab3d c5b4 5c3d
000001a0: 868b e4b9 d4d2 a33c 07c0 023d b600 15bd
000001b0: acec 873d a388 a7bd f811 953d 07aa bdbd
000001c0: 30df 4ebd c05b 83bc 881e 983d 63a3 903d
000001d0: ccf3 3b3d 740b 8ebd 8fa6 843d aa15 48bd
000001e0: f7a3 593d 5e1d c0bb 9fab 833d c7fa 02bd
000001f0: 2d5f 47bd b5a8 a3bd 65e5 afbd 6f6a 04bc

output_layer.weight f4 [1, 128]
0.00079865067 -0.05490882 -0.03326565 -0.039123584 -0.04886374 -0.04493594 0.034760192 0.03923274
0.017674392 0.027368637 -0.04989729 -0.07735685 0.08253065 0.08529309 -0.0068219686 0.0117359795
-0.010117311 0.051279888 -0.08426372 0.0057873637 0.05258193 0.07262901 0.08190517 -0.08438801
-0.0664412 -0.04754256 0.06824552 -0.01963142 0.034697484 -0.05776038 -0.029267 0.07589052
-0.009006776 0.078323394 -0.07562057 -0.003644154 0.026431805 -0.053169306 0.07197273 -0.05100891
0.06730433 0.080156736 0.056068655 -0.07474593 -0.066647835 -0.049160182 0.0041217464 -0.06795512
0.07484445 -0.06429057 -0.072954305 0.051786926 -0.050373938 0.04674096 0.030564038 -0.0034115952
0.04970692 -0.037573654 0.04218779 0.022251094 0.05272777 -0.04822624 -0.07501722 0.00566553
0.05932659 -0.032084126 0.005815587 0.051123165 0.01454129 0.065509334 0.054764245 -0.06993551
0.06453616 -0.042912297 0.061479107 0.06800278 0.06355573 -0.031870928 -0.015059657 0.011668576
-0.05518243 0.03003098 -0.030665936 -0.0637026 0.058294367 -0.07300597 -0.005142416 -0.013850086
-0.06504838 0.023136761 0.045167014 0.02036651 -0.07330367 -0.011612827 -0.012335553 0.0010183015
-0.040334653 0.024102185 -0.079185754 0.02130556 0.049176127 -0.012026652 -0.06751767 0.048693873
0.060329083 -0.043743256 -0.0217001 -0.034663685 0.035837483 -0.015846629 -0.06899652 -0.035547644
0.0067139757 -0.060918618 -0.009356033 0.065526746 -0.04352405 -0.00543596 0.07567073 0.06555422
0.019639123 -0.041285977 -0.07568295 -0.0692532 -0.06586611 0.04372336 0.032262087 -0.025200227
00000000: 8a5c 513a 12e8 60bd 9041 08bd 0d40 20bd
00000010: 5825 48bd c00e 38bd b460 0e3d 82b2 203d
00000020: e3c9 903c 3134 e03c 1a61 4cbd 456d 9ebd
00000030: d405 a93d 25ae ae3d d28a dfbb 4448 403c
00000040: 14c3 25bc dc0a 523d 7592 acbd eda3 bd3b
00000050: 2660 573d 85be 943d e6bd a73d 9fd3 acbd
00000060: 5312 88bd fdbb 42bd 4fc4 8b3d 12d2 a0bc
00000070: f31e 0e3d 2696 6cbd 59c1 efbc 7d6c 9b3d
00000080: 2891 13bc 0468 a03d f5de 9abd c2d2 6ebb
00000090: 8387 d83c 0fc8 59bd 7066 933d b8ee 50bd
000000a0: dad6 893d 3729 a43d 3fa8 653d 6514 99bd
000000b0: a97e 88bd 305c 49bd b70f 873b 0e2c 8bbd
000000c0: 0c48 993d c6aa 83bd 1169 95bd 871e 543d
000000d0: e754 4ebd 7373 3f3d 6f61 fa3c 1295 5fbb
000000e0: 7c99 4b3d d5e6 19bd 1bcd 2c3d ed47 b63c
000000f0: 13f9 573d e188 45bd a1a2 99bd e9a5 b93b
00000100: 7000 733d a56a 03bd ae90 be3b 8666 513d
00000110: 973e 6e3c c229 863d 7950 603d 593a 8fbd
00000120: 892b 843d cec4 2fbd 84d1 7b3d 0b45 8b3d
00000130: 8229 823d 178b 02bd c8bc 76bc 8e2d 3f3c
00000140: f906 62bd 8803 f63c 2137 fbbc 8276 82bd
00000150: 13c6 6e3d 2784 95bd b681 a8bb 79eb 62bc
00000160: 1638 85bd 4e89 bd3c 0c01 393d abd7 a63c
00000170: 3c20 96bd ba43 3ebc 0f1b 4abc 8778 853a
00000180: f335 25bd f271 c53c 242c a2bd ff88 ae3c
00000190: e86c 493d 6f0b 45bc b446 8abd 3a73 473d
000001a0: a11b 773d 212c 33bd 68c4 b1bc 82fb 0dbd
000001b0: 53ca 123d cad0 81bc 0c4e 8dbd 689a 11bd
000001c0: e900 dc3b cd85 79bd 0c4a 19bc e332 863d
000001d0: 4646 32bd 2320 b2bb 41f9 9a3d 4a41 863d
000001e0: 3ae2 a03c 7c1b 29bd aaff 9abd 9fd4 8dbd
000001f0: d0e4 86bd 4417 333d 4025 043d b570 cebc
