Checkpoints/HR_V/valence_s21.pth (torch, 461905 bytes, 29 tensors)

input_layer.weight f4 [128, 29]
00000000: fd39 193e 7e8d b43d 562b 043e 7879 543b
00000010: 475d 0bbd 131c 1dbe 24f9 d93c f7f9 223e
00000020: 7e20 d33d 46c1 103e 4ff4 cfbd 83cb f7bd
00000030: d676 35be c3f7 123e 4255 08bd a054 f63d
00000040: ef97 c23d 444a 973d 15bb da3c db30 b73d
00000050: ed43 463e 9617 c0bd b90c 293e d379 e8bd
00000060: 2e9e 3fbe 4960 ca3d 09ea 1c3e a271 0d3e
00000070: e901 e13b fc24 123e f9c9 0ebe 8408 18be
00000080: 318b 29be be54 5fbd 7e8d debd f62a 2f3e
00000090: 729c 023d d36f 143e d228 a8bd a171 983d
000000a0: ab6c e8bd f668 2d3e c090 013e ff26 c83c
000000b0: 3207 2fbb 0f00 133e 2630 cc3d 934d 1fbe
000000c0: 705a c43d 0b03 573d c1ab 713d 34e3 07be
000000d0: e1b7 bf3b 4841 10be 6c6c 0dbe c2dc 7dbb
000000e0: 9cff ef3d b60f 9e3d 5869 dd3d 4af1 433d
000000f0: b66d 283e bc45 893d 3da9 0c3e 5afc 343d
00000100: 14ca e5bd ce3e eb3d ae5f a53d 752b 673d
00000110: 0a3d 493c 5159 2b3e bb6b aebc 7a5c 3ebe
00000120: 9aea 4d3d a6b6 a23b 2d1e 373e 84a1 f9bc
00000130: 7415 74bd cdc3 bf3c 43eb f9bd 3be8 fbbd
00000140: d5af c63d ec6a 383d ebf6 2dbd a5d2 fe3d
00000150: 9f98 a3bc 7700 b7bb 1358 37bd 8e5b 4e3d
00000160: fdb0 fabd d34e 143e 39d5 063e 182e 49bd
00000170: 43cd 4cbc 5cc1 353e 0954 f8bd b605 1bbe
00000180: d8e6 aa3d f317 b4bd b9ea 1a3e 5361 f23b
00000190: 68b5 1a3e 3eac 81bd 4ad8 1f3e b62d 7abc
000001a0: 4297 b63d 421f b9bd 5ba4 273e 00db f5bd
000001b0: 0dc8 82bd bf2f 0fbe 7568 ab3d 5989 4b3d
000001c0: 7d2a cb3d 88db 223e b79c da3d 00cf 6fbc
000001d0: 15d2 723d 1e11 5abd 1770 46be 02b1 e4bd
000001e0: 7561 5dbd e345 9b3d 938d b3bc 4e4e 383e
000001f0: d553 8b3d a7b0 c93d 25e7 523e e969 86bd
00000200: 85ff 203e 6668 2dbe 5562 79bb 36c0 3d3e
00000210: 882f bd3d bb94 a9bd 0498 a8bd ab88 a53d
00000220: 041d 9ebc cf63 c13c a106 8b3d 5332 90bd
00000230: c37d 30be c79a b73d b24b 8d3d 45af f5bb
00000240: 93cb 88bd 7722 35be b5a5 f0bd e582 87bd
00000250: 4549 343e 3b4f e03d cbba fabd d0ea 973c
00000260: f84a ab3d 7f23 1c3e 93e9 1e3e d334 2abd
00000270: 530e 4e3e 9bf3 e5bd b3cd 343d 153a ee3d
00000280: 1379 16be 6467 bfbd d049 b0bc 2ef1 d23d
00000290: e201 143e bed4 72b9 d4fd 2e3e 6fe4 23be
000002a0: 8ad1 eb3d 183b a1ba d0f4 2a3e d8fd ebbd
000002b0: 9e11 d03c 8722 193e 3158 14be 0dd0 023d
000002c0: 57c1 173e 21cd eabd 59fe 9cbc b6d4 303e
000002d0: d6fd 3f3e 16c8 1d3d dce7 27be e546 e43d
000002e0: d055 04be 83e2 403e ea75 aebc 56fe 07be
000002f0: 106a e13c 4205 1f3e f451 163d 9afb 8b3d
00000300: 24e7 423e d4ef bf3b 9d00 7abd 962a 9f3d
00000310: d0a9 3e3c 0ae6 13be 3640 0fbe 74f4 4f3d
00000320: e20b 0b3c 8751 d03d f68a 03bd 3671 ddbd
00000330: f3e3 e1bc 9d4c 2c3e aea8 353e 87e9 fabd
00000340: 7686 a33c 601d ec3c 54bd 9cbd 58d6 983c
00000350: 2efa b83d 6b13 90bd 6254 053d 8fa9 193e
00000360: 1a9e 80bc b056 f53c b1ea 473e 9cce 19be
00000370: ebcc 293d f3e6 e03d 6dbd 22be 02a1 e63d
00000380: 6c79 523d d779 173d d3b6 0ebe 463a 2c3e
00000390: bbe9 943d fe8e 023e 4ea6 19be dd88 d13d
000003a0: 50b8 073e 7f62 e5bc e659 2e3e 44f5 1bbe
000003b0: 1be0 e6bd de49 20be a71f 8b3b 6c1f 873d
000003c0: f9ec dc3c 458c a5bd b4e0 19be 9b02 e13d
000003d0: b0ca bc3c e6fd 393e 2b07 823c a488 0b3e
000003e0: 6695 083e 3e21 24bd 4e2d b43d 741f d6bc
000003f0: 9866 293d c94e 34be 3c1c 453d 5559 38be
0.14963527 0.0881605 0.12907156 0.0032421034 -0.034024503 -0.1534274 0.026608057 0.15915667
0.10308932 0.14136228 -0.1015402 -0.12099364 -0.17721114 0.14352326 -0.033284433 0.1202786
0.09501635 0.07387212 0.026700536 0.08944865 0.19361849 -0.09379499 0.1650876 -0.11351361
-0.18712685 0.09881646 0.15323652 0.13812879 0.006866683 0.14271921 -0.13944234 -0.14846998
-0.16557004 -0.054524176 -0.10866831 0.17106232 0.03188748 0.14495783 -0.08210911 0.07443548
-0.11348852 0.1693457 0.12652874 0.024432657 -0.002670717 0.14355491 0.09970121 -0.15556936
0.09587562 0.052493136 0.059001688 -0.13270265 0.0058507775 -0.14087403 -0.13810891 -0.0038736318
0.117186755 0.077178404 0.10811108 0.047837533 0.16448101 0.06702754 0.13736434 0.044185974
-0.11220184 0.114865884 0.0807489 0.05643793 0.012282619 0.1673329 -0.021291604 -0.18589965
0.05027256 0.004965621 0.17882605 -0.030472524 -0.05959077 0.023408795 -0.12203076 -0.12300154
0.09701506 0.045023844 -0.042471807 0.12442521 -0.019970236 -0.005584772 -0.04476173 0.050380282
-0.12240789 0.14483194 0.13167275 -0.049116224 -0.01250011 0.17749542 -0.121254034 -0.15138897
0.08344811 -0.087936305 0.15128602 0.007396856 0.15108263 -0.06331681 0.15609851 -0.015269687
0.08915569 -0.09039165 0.1637129 -0.120046616 -0.06385813 -0.13983057 0.08369533 0.04969153
0.09920213 0.15904057 0.10674422 -0.014636755 0.05928238 -0.05323898 -0.19378696 -0.11166574
-0.05404802 0.07581689 -0.021918094 0.17998621 0.06803099 0.09848147 0.20595987 -0.065631695
0.15722473 -0.16934356 -0.0038052995 0.18530354 0.092375815 -0.08280321 -0.0823212 0.08082708
-0.019300945 0.023607163 0.06788374 -0.070408486 -0.17235474 0.08965068 0.06899203 -0.0074977004
-0.06679454 -0.17688929 -0.11750356 -0.06616763 0.17606075 0.10952612 -0.12242659 0.018544585
0.083639085 0.15247916 0.15518789 -0.041554283 0.20122652 -0.11228105 0.044141483 0.11632172
-0.14694624 -0.09345892 -0.021519572 0.102999076 0.14453843 -0.00023158171 0.17089015 -0.16005109
0.11514576 -0.0012300937 0.16694951 -0.11523026 0.025399026 0.14954577 -0.14486767 0.031936694
0.14819847 -0.114649065 -0.019164251 0.17268643 0.18749174 0.038520895 -0.16397041 0.111463346
-0.1292336 0.18836407 -0.02129646 -0.13280615 0.027516395 0.1552935 0.03669925 0.068350986
0.19033486 0.005857447 -0.06103574 0.077717945 0.011637166 -0.14443222 -0.13989338 0.050770238
0.00848672 0.101718 -0.032114945 -0.10812609 -0.027574515 0.168261 0.17740127 -0.12251573
0.019961577 0.0288226 -0.07653299 0.018656895 0.09032093 -0.07034954 0.032551177 0.15006088
-0.015700389 0.029948562 0.19523121 -0.15020221 0.04145519 0.1098155 -0.15892573 0.112611786
0.05138533 0.03698143 -0.1393693 0.16819105 0.07271143 0.1274986 -0.15004846 0.10231183
0.13253903 -0.028001068 0.17026481 -0.1523028 -0.112732135 -0.15653178 0.0042457166 0.0659779
0.026968466 -0.08083395 -0.15027124 0.10986825 0.023045868 0.18163261 0.015872559 0.13626343
0.13338241 -0.040070765 0.08797704 -0.026138045 0.041357607 -0.17608179 0.04812263 -0.18002827

input_layer.bias f4 [128]
00000000: 93b8 ca3d 8b7f fdbc 28f5 d63d 3e12 c33d
00000010: f348 93bd 3fea 57bb 04f9 e1bd 9db9 c93d
00000020: 123d 093e dcd9 9cbc 6984 12bc 4a2a e23b
00000030: c6ee cabd 3d0b 0abe 531b c93d 8889 5b3c
00000040: 1424 ebbd a040 0d3e f38e 97ba 7b1c 723d
00000050: 300d a53c d0a4 f73b 77d8 c03c aaf8 6c3d
00000060: 6714 a6b9 3745 0d3e b68c e9b9 01f9 063d
00000070: d699 d33b a15f 3d3d c502 88b8 4849 363d
00000080: 0552 b2bd 08c5 a1bd f660 423c 147a 18bd
00000090: 9186 a7bd a496 313d 0fdb b6bc f16e 2ebd
000000a0: 997a 643d dde7 9c3b 0f35 9f3d c0b6 a837
000000b0: db57 05be 074e 8abc 148a d33d 0e96 03bc
000000c0: 738a dcbd a5cd b539 98df a33c fddd f23d
000000d0: 273d 013e a7ed 92bc f27e 80bb 2b58 bf3d
000000e0: 282c d8bd c020 33b6 d0d7 db3d 403e 263a
000000f0: 4043 aa3d 32a1 783d d7ca 6f3b 1c02 a1bd
00000100: c47c f7bc 6b35 ddbd 3211 e9bd 97ed 573d
00000110: 9fe5 babb b84b c8bd f67f c83d 76e8 8fbd
00000120: e445 edbd c373 593d 2008 da3d f34b 23bc
00000130: c2fe c63d 93c1 99bd 33a3 bb39 4281 ab3b
00000140: 9d86 c93d b302 edbd bfb1 563b c4ea df3c
00000150: a2ee a13b b327 1fba 60b4 5ab9 3b5e 053d
00000160: 954c b2bd ac5c 9c3d 5d9c c93c c63e 123b
00000170: ac0e cdbd 55a9 cdbb fa1b 9739 b016 7e3d
00000180: bdfd 0f3d c9b1 8a3b e7cf c9bd 37bf 953d
00000190: 00cd 3dbd d747 863c 6f63 5a3d e0c0 b23c
000001a0: 6e39 c2bc bf57 0b3e 9699 8fbd 10c2 a33d
000001b0: a269 2bbd 6213 803d c45d 5cbc 23f0 73bd
000001c0: 016e 2c3c efec e03d e06b 363d 2f08 403c
000001d0: f313 2cbc 9866 a3bd 32e6 abbd af61 a0bd
000001e0: b04d 83b9 f1d4 a2b9 51b4 9ebd dc85 913d
000001f0: a581 42bd 2410 e3bd 4365 16bd 3b9a 4cbd
0.09898486 -0.030944606 0.104959786 0.09524964 -0.07191648 -0.0032946018 -0.11033824 0.09849856
0.13402203 -0.019146852 -0.008942702 0.006902014 -0.09908824 -0.1348085 0.09819665 0.013399489
-0.11481491 0.13794184 -0.0011562988 0.059109192 0.02014789 0.007557489 0.023540718 0.057854332
-0.00031677188 0.13795935 -0.0004454606 0.032952312 0.0064575477 0.046233777 -6.485501e-05 0.04450348
-0.0870705 -0.07898909 0.011863938 -0.037225798 -0.081799634 0.043356553 -0.022321252 -0.04258627
0.05578098 0.0047883824 0.07773792 2.011226e-05 -0.13021795 -0.01688291 0.10329071 -0.008031381
-0.107685946 0.00034676227 0.020004079 0.11858747 0.12620984 -0.017935587 -0.003921383 0.093429886
-0.10555297 -2.6692142e-06 0.10734522 0.00063416734 0.08313608 0.060700603 0.0036589408 -0.078617305
-0.03021086 -0.10801204 -0.11380233 0.052716818 -0.0057036425 -0.09780067 0.097900316 -0.0702676
-0.11585596 0.053088915 0.10646081 -0.009966838 0.0971656 -0.075076245 0.00035789012 0.0052339146
0.098401286 -0.115727805 0.0032759754 0.027333625 0.0049417773 -0.00060712843 -0.00020857295 0.03256057
-0.08706013 0.07634863 0.024610693 0.0022315248 -0.10012564 -0.0062762895 0.00028821809 0.062033355
0.035154093 0.0042326194 -0.09854107 0.07311862 -0.04633808 0.016391678 0.053317484 0.021820486
-0.023709025 0.13607691 -0.07011716 0.07995999 -0.041848786 0.06253697 -0.01345009 -0.059555184
0.010524274 0.109826915 0.04453647 0.011720701 -0.010502803 -0.079785526 -0.08393516 -0.07831132
-0.0002504415 -0.00031057702 -0.077492364 0.0710561 -0.04748692 -0.11087063 -0.036717664 -0.049951773

projection_layer.0.weight f4 [128, 128]
00000000: dbc8 26bd 4325 cdbc 9a73 76bd 9581 88bd
00000010: a626 293c 0211 b63c b168 ee3c cf90 98bd
00000020: bf21 053c 50ec 183d d5e9 1abd aca3 913d
00000030: 15c1 4bbc 8bb5 abbd c6df 5c3c 99d3 963c
00000040: 4683 e23b 4301 3abd 202b 9f3d 4eaa 79bd
00000050: 342d 86bd 7eed afbc 6816 2fbd 55ea f13c
00000060: 10e5 b23d 0dcc af3c d6ab 8bbd 4314 223d
00000070: eb6c 02bd 6494 5f3d 08ff 723d 303c 73bc
00000080: 19c5 8dbd 36e9 a8bd e254 2a3d 73f9 913d
00000090: 53d9 fe3b e430 733d 3ec2 37bd 1a27 723d
000000a0: 1d6a 80bc 4f1d bebc b6b1 f63c d0a5 c8bc
000000b0: 9f7d 3a3c a1e1 783d beba fdbc 5969 85bd
000000c0: c980 bbbc 67f5 f93c dfbb 65bd e742 4ebc
000000d0: fe3d a03d db45 2ebd 22b4 8dbb 679f b7bb
000000e0: a08e d73c 6743 59bd 8b59 df3b 981b 013d
000000f0: 12e5 0dbd 0a15 d0bc c877 99bc c883 ce3c
00000100: 7251 a9bb 3e38 c63c 7c1b 08bd 3d21 98bd
00000110: 03bd dc3c 14c3 fbbb 4147 1dbd 830a 30bd
00000120: 7f92 bbbd 8749 8dbd e7a0 4e3d 6dd7 b33d
00000130: ac10 a23d 9548 a7bd 497e 04bd aa5c f8bc
00000140: 489a f2bc bce0 5ebd e25d 06bd cc95 693d
00000150: b6ab c3bb ac00 cd3b 37f2 c3bc dc34 463d
00000160: 40ea 093c 67e0 aebd 89b6 913c af06 043d
00000170: 2c19 9b3c aac8 4cbc 0e84 76bd 2050 7c3d
00000180: ddd0 7e3d a3c3 c3bc 9834 9d3d 9990 8bbd
00000190: cea6 d039 7511 72bd 8d55 9b3c 6f32 823c
000001a0: 103b d8bc 0db0 223d 2d26 8fbc 03fb 8c3c
000001b0: 91c4 743c f7fe ed3c 2484 d7bc 3e01 353d
000001c0: 550b 9ebd 4217 a1bd 838d 9c3c 7281 83bd
000001d0: 55ec 8f3d c65c 943d bcc4 2bbd a5cd 93bd
000001e0: d3d4 a73c eae0 5cbd 1b81 9ebc b386 6dbd
000001f0: acb5 12bd 782c 6fbd e57b 483d fade 56bd
00000200: 4264 953c c77f 113d 0a6c 8abd c32a 81bd
00000210: 2ab3 6b3d 914d 2e3d 8e48 253d 5034 c2bc
00000220: fe9a 70bd d840 9f3c f3bd 5cbd 43ed 793c
00000230: 58db b53d c1bf 9e3d 09e2 75bd 5163 63bd
00000240: a819 9f3c 40a8 323d bfb0 c43d 0ecf 28bd
00000250: 5929 123c 09c0 16bd b5ed 4f3d 3180 9d3d
00000260: cde7 24bd 5ace 5fbc a42c 93bd 2b01 123d
00000270: 07c2 dabd ec7f c53c f359 a7bd f1ba 4dbb
00000280: 0444 d2bc e8e7 123d 152c debb f23c 8f3d
00000290: f357 e7bc 1478 343d 38d4 94bd 08c9 1ebc
000002a0: 43e8 64bc dab4 ba3c 0a1b b4bd 8e05 be3d
000002b0: 2675 a0bd 78ea 65bd c637 633d c5f4 793d
000002c0: 210d 9e3d c237 2e3c 82a2 e93c c677 88bd
000002d0: ee4f 23bd c527 883c 0299 973d 98ea cabb
000002e0: fa1b 82bc 10b5 d93c 95b5 763d c1be 6a3c
000002f0: 30c3 903d a563 ad3d 4e9b 173d b778 333c
00000300: 38fe 503c e35c 35bd 0b1f d83b 3be0 533d
00000310: 4119 17bc 7ea8 8ebd eac8 8bbd 4dd2 62bd
00000320: 0645 39bc ecb5 ab3c cf20 9b3d 9e7e 66bd
00000330: 0385 7dbd 7082 573c f30c 9abd 504e d03b
00000340: 50b7 ab3d ce32 88bd 3433 eabc 075f 64bc
00000350: 7f89 59bc 433b 1bbd 6d35 51bd 9a4c bdbc
00000360: 3fa1 2a3c 6b43 293b ad84 95bd bb14 443d
00000370: 7912 07bd 4743 36bc 7df4 42bd faec 353d
00000380: ada1 8b3d 4130 323c 9a7a 9b3d f4a6 fabc
00000390: ed40 debc 6112 7cbd 0b7e 1abd eaaa 93bb
000003a0: 9749 533d 27e8 763d 605d 553d 4053 a33d
000003b0: 8990 c3bc 47bf f03c 7be7 d638 936e 71bd
000003c0: 6081 c2bd c3cf 8fbb 9e1d bfbd 51be bf3c
000003d0: 8d72 7abd 6f15 6e3b 0295 b0bd 4dab 883d
000003e0: 5723 443d 4348 9d3d 3ecb 94bd 2e40 5b3d
000003f0: 708e 4fbb 0cf7 2dbd 5725 5c3d b557 b0ba
-0.040718894 -0.025042182 -0.06016884 -0.06665341 0.010324156 0.022224907 0.029102655 -0.07449495
0.0081257215 0.03733474 -0.037820656 0.07111296 -0.012436171 -0.08384236 0.013481086 0.018411445
0.0069126217 -0.04541136 0.07771897 -0.06095343 -0.065515906 -0.02147555 -0.042745978 0.029530684
0.087350965 0.021459604 -0.068198845 0.039570104 -0.031842154 0.054584876 0.059325248 -0.014845893
-0.06922359 -0.082476065 0.041584857 0.07127657 0.007777372 0.059372798 -0.04486298 0.05911932
-0.015675599 -0.023207335 0.030114036 -0.024493128 0.011382489 0.06076205 -0.030972835 -0.06514234
-0.022888558 0.030512525 -0.05608737 -0.012589193 0.07824324 -0.042547088 -0.004324452 -0.005603719
0.026313126 -0.053042796 0.0068160943 0.031520456 -0.034642287 -0.025400657 -0.018733874 0.025209323
-0.0051671797 0.02419674 -0.033229336 -0.07428215 0.026945597 -0.0076831672 -0.03839803 -0.042978775
-0.09158801 -0.0689879 0.050446417 0.087813236 0.07913336 -0.08168141 -0.032346997 -0.030317623
-0.029614583 -0.054413542 -0.032804377 0.057027623 -0.0059713973 0.0062561836 -0.023919208 0.048390254
0.008417666 -0.08538895 0.017787235 0.032232936 0.018932901 -0.012499014 -0.06018453 0.06159985
0.062210906 -0.023896998 0.07676047 -0.06814689 0.0003979713 -0.05909868 0.018961692 0.01589319
-0.02639535 0.039718676 -0.017474258 0.017209535 0.014939443 0.02905224 -0.026308127 0.044190638
-0.07717005 -0.07865764 0.019110447 -0.06421174 0.07027499 0.07244258 -0.041935667 -0.07216958
0.020487225 -0.053925432 -0.019348672 -0.057989787 -0.035817787 -0.058392018 0.04894628 -0.05245874
0.018236283 0.03552225 -0.06758888 -0.06306984 0.05754391 0.04255444 0.040352397 -0.023706585
-0.058741562 0.0194401 -0.053892087 0.0152543215 0.08879727 0.07751418 -0.060030017 -0.055514637
0.019421414 0.043617487 0.09604024 -0.041213088 0.008920991 -0.036804233 0.050763804 0.07690466
-0.040260125 -0.013660038 -0.07186249 0.035645645 -0.10681539 0.02410885 -0.08171453 -0.0031391943
-0.025667198 0.035865694 -0.0067801573 0.06994046 -0.02824018 0.044059828 -0.0726704 -0.009691484
-0.013971391 0.022791315 -0.0879422 0.09278403 -0.07834844 -0.05613181 0.05547311 0.061024446
0.07717348 0.010633411 0.028519873 -0.0666347 -0.03987115 0.016620526 0.07402231 -0.0061925165
-0.01588248 0.026575595 0.060231764 0.014327706 0.07068479 0.08466271 0.037013344 0.010954074
0.012755923 -0.044278037 0.0065954975 0.051727515 -0.00922233 -0.06965731 -0.06825431 -0.05537634
-0.01130796 0.02096077 0.07574617 -0.056273095 -0.061894428 0.013153657 -0.07522001 0.006356992
0.083845735 -0.06650315 -0.028588869 -0.013938672 -0.0132774105 -0.037898313 -0.05107634 -0.023107816
0.010414421 0.0025827538 -0.073006965 0.047871333 -0.0329766 -0.011124439 -0.047596443 0.04441545
0.068179466 0.010875762 0.07591744 -0.030597188 -0.027130568 -0.061540965 -0.03771786 -0.0045064585
0.051583853 0.06027999 0.052091002 0.07974863 -0.02387263 0.029388083 0.00010247432 -0.058943342
-0.094973326 -0.004388781 -0.09331821 0.02340618 -0.0611444 0.0036328693 -0.08622171 0.06673298
0.047885265 0.076797985 -0.07265328 0.053528003 -0.0031670593 -0.04247193 0.053746548 -0.0013453873

projection_layer.0.bias f4 [128]
00000000: 636f 07bd 5a8e e1bc 0684 9abc 4509 2e3d
00000010: e9ef 313d dda8 0abc afbc 37bc ce3c 72bb
00000020: 6341 17b8 5aeb 3e39 f090 32ba 9459 613c
00000030: 4573 61bc 18e1 10bd d965 e8ba 7244 483c
00000040: 0e09 bebb 959b e933 1ab6 363a 3ba2 8639
00000050: 4e97 25bd 0b8c d13b 33dd 17bc 1d56 fd39
00000060: cdcf f8bc ac9a df3b 0877 013d db9d 0039
00000070: 62ec 033c 768b ab3c 6fb5 f33c 7b5c 7e3c
00000080: 20c4 6b3c baf6 093d f3f5 a23c b930 0f3d
00000090: 810b 5439 74b9 203d 4388 283a d4bc db39
000000a0: eb76 d53b 158e fc3c 5497 36bc 2e34 a53a
000000b0: 7abd 14ba 592e 0b3d 5a35 bdbc cb0f 493a
000000c0: 3c40 1bbb 20e0 46ba b02d 35bd 1559 29bd
000000d0: 93dc 7039 b605 0eb8 2966 fdbc 0241 f9b9
000000e0: 1e80 d6bc b4c9 11bc 35d6 efbc 635d 2ebd
000000f0: bece 18bc 98dc cc3c f52a 1a3c 20b9 83bc
00000100: 9078 d63c 0af0 98bc 7aa2 2ebc f12a 2839
00000110: 2149 08bd 0b66 e6bc 7146 ffbc 5763 2e3d
00000120: 10e0 1839 7657 2fbd 0f85 6eb9 014e 0abd
00000130: 79b3 5abc 1fd0 5bb9 9be6 573c 2470 04bc
00000140: cdc8 2cbc d091 3a3c 98d1 29b6 3756 1439
00000150: 57f4 55bb c7c6 a13c bf2c cb3c 8e0e 253a
00000160: 44d6 f23c 5fbb 99bc a4e1 05bd 6174 ee3b
00000170: 3e83 2ab8 6cf1 0e3d 0c9d cb3b c861 25bb
00000180: 6bb2 23bc eb4b dc3c e81f 0f3a 5ee6 5e3c
00000190: b3b5 8dbc 0832 25bd d288 7e3c 19ed 36b9
000001a0: a64a 4fbc 02c0 093d 9d54 a6bc a9c7 063c
000001b0: bba5 d13c cd28 11bd 39d8 35ba 9f6d 87b9
000001c0: 222f 04bd fd40 3cbb 2bb9 093a 0df8 403a
000001d0: c642 203d c052 f3bc 0560 e43c 9f54 d6bb
000001e0: f201 ad3c e0d5 dfbc 6f0f f0bc ed9b bc3c
000001f0: a806 37ba 221a c53c d202 2cbd 703a 823b
-0.03306521 -0.027533699 -0.018861782 0.04248931 0.043441687 -0.008463112 -0.011214419 -0.0036962512
-3.60621e-05 0.00018207487 -0.00068117585 0.013754267 -0.013760393 -0.035370916 -0.0017730548 0.01222335
-0.0057994192 1.0878208e-07 0.0006969884 0.00025679343 -0.0404275 0.0063948683 -0.009269047 0.0004832008
-0.030372525 0.0068238582 0.031607658 0.00012265837 0.0080519635 0.020940524 0.0297496 0.015524979
0.014390022 0.033682562 0.019892668 0.034958575 0.00020222181 0.039239362 0.0006428996 0.00041911623
0.0065144203 0.030829469 -0.011144478 0.0012604052 -0.0005673986 0.033979747 -0.02309673 0.0007669895
-0.002368941 -0.0007586498 -0.044233024 -0.04134472 0.00022970354 -3.3860757e-05 -0.030932503 -0.00047541416
-0.026184138 -0.008898187 -0.029276947 -0.04256953 -0.009326635 0.025007531 0.009409656 -0.016079485
0.026180536 -0.018669147 -0.010658855 0.00016037725 -0.033272866 -0.02812483 -0.031161519 0.042575207
0.0001457932 -0.04280802 -0.00022747017 -0.033765797 -0.013348454 -0.00020962999 0.013177539 -0.008083377
-0.0105459215 0.0113873035 -2.5304962e-06 0.00014146497 -0.0032646859 0.019748105 0.02480161 0.00062964193
0.029643185 -0.018766103 -0.03268589 0.007277057 -4.0653387e-05 0.034898207 0.00621379 -0.0025235284
-0.009991269 0.02689167 0.00054597715 0.0136047285 -0.017298555 -0.040330917 0.01553555 -0.00017445198
-0.012652075 0.03363038 -0.020304019 0.008226314 0.025591722 -0.0354393 -0.0006936822 -0.0002583088
-0.03227151 -0.002872526 0.00052537274 0.0007361181 0.03912618 -0.029702544 0.027877817 -0.0065408493
0.021119092 -0.027323663 -0.029304234 0.02302357 -0.0006981888 0.024060313 -0.041994877 0.0039742514

projection_layer.1.weight f4 [128]
00000000: 3ae4 803f 2240 803f fb32 7b3f 0d4e 7e3f
00000010: e521 7f3f 8a27 803f e9fa 7f3f 3ec0 7e3f
00000020: f10f 803f b967 803f 7321 803f 48fc 7e3f
00000030: ee05 803f c780 7c3f a4e2 803f 01f6 7f3f
00000040: d8fa 7d3f eeaa 7e3f 2ca0 803f 3265 803f
00000050: 7b1b 803f 080d 803f fd2f 803f aee3 7e3f
00000060: f692 7e3f 9a2e 7e3f 6e1f 7e3f daec 7b3f
00000070: f7ed 803f f8f8 803f 7945 7e3f 8cd4 7c3f
00000080: c9da 7e3f a25e 813f ad8d 7e3f 03c1 7d3f
00000090: cda0 7a3f 8598 7d3f 4088 813f 8212 7d3f
000000a0: bd45 7a3f 314f 7f3f 7ecd 7f3f 5f77 7f3f
000000b0: 8da1 803f 586d 7f3f feba 7f3f 4e13 803f
000000c0: 17da 7d3f 292c 803f 0787 7a3f fc33 7f3f
000000d0: 3d72 7e3f cb2a 803f 8bdc 813f cb23 7f3f
000000e0: fa42 7e3f cd43 7f3f e86d 803f 784c 7d3f
000000f0: fcd1 7e3f 905a 803f 8f5b 803f cb24 7e3f
00000100: a253 7d3f 823b 7f3f 7692 7e3f 2fcd 7d3f
00000110: b507 7d3f 58f5 7b3f 07c9 7f3f 436b 803f
00000120: c0e9 813f 0b57 7e3f ea19 7e3f cfac 7f3f
00000130: 4b38 7d3f b606 7d3f bf86 7f3f 5413 813f
00000140: db80 7d3f b83c 7d3f 52be 7f3f 8fb7 7e3f
00000150: 9b8b 803f 92f5 7e3f d627 803f ebcf 803f
00000160: 8ab8 803f 3141 803f db76 803f 6310 7e3f
00000170: 649f 7f3f e278 7d3f 5f66 803f 0104 7e3f
00000180: 456b 7d3f 47ea 7c3f dac9 7f3f 404e 7a3f
00000190: 04f7 803f 8805 7f3f 7cde 7e3f 5c24 7f3f
000001a0: e167 803f 8275 803f e76f 7f3f 768c 803f
000001b0: 3f2c 813f af1f 803f db39 7e3f c71a 7f3f
000001c0: 1c1b 823f c5f8 7d3f f5b7 7d3f 1ada 7e3f
000001d0: 7710 803f 2825 803f 2680 7f3f 11cb 7d3f
000001e0: 6480 7e3f 4d17 7c3f fcc3 7e3f f60f 7c3f
000001f0: 7611 7e3f e080 7d3f 46fe 7f3f f1c1 7d3f
1.0069649 1.0019572 0.98124665 0.99337846 0.99661094 1.0012066 0.99992234 0.9951209
1.0004865 1.0031654 1.0010208 0.996037 1.000181 0.98634 1.0069165 0.9998475
0.9921088 0.9947957 1.004888 1.0030882 1.0008386 1.0003977 1.0014645 0.9956616
0.99442995 0.9928986 0.9926671 0.9840828 1.0072621 1.0075979 0.99324757 0.9876182
0.9955259 1.0107005 0.9943493 0.9912264 0.9790161 0.9906085 1.0119705 0.98856366
0.9776266 0.9973021 0.9992293 0.9979152 1.0049301 0.9977622 0.998947 1.0005891
0.99160904 1.0013477 0.97862285 0.99688697 0.99393064 1.0013059 1.0145429 0.9966399
0.9932095 0.9971283 1.0033541 0.9894481 0.9953916 1.0027637 1.0027941 0.9927489
0.9895574 0.99700177 0.9944223 0.9914121 0.98839885 0.9842124 0.9991612 1.0032734
1.014946 0.9935157 0.9925829 0.9987306 0.9891402 0.98838365 0.9981498 1.0084023
0.9902474 0.98920774 0.9989978 0.9949884 1.0042604 0.9959346 1.0012157 1.0063452
1.0056317 1.0019895 1.0036272 0.99243754 0.99852586 0.9901258 1.0031241 0.9922486
0.98991805 0.9879498 0.99917376 0.9777565 1.0075383 0.99617815 0.99558234 0.99664855
1.0031701 1.003586 0.99780124 1.0042865 1.0091628 1.0009669 0.9930703 0.99650234
1.0164523 0.9920772 0.9910882 0.99551547 1.0005025 1.0011339 0.99804914 0.9913798
0.9941466 0.98473054 0.995178 0.98461854 0.99245393 0.9902477 0.99997365 0.99124056

projection_layer.1.bias f4 [128]
00000000: 147e 163b aa30 34bb 6c2e 8fbc f9b9 acbb
00000010: 8c97 4abc 63fe 21bc b4d6 acba 4974 41bb
00000020: 56b7 673b b5ed 323b 11db 07bc 791b 8ebb
00000030: 5ebc a13a b6ec 93bc 0349 2b3b 8123 0c3b
00000040: 9e37 d6bb b43e 84bb 30d5 9fba d981 9e3b
00000050: 0f45 f5bb aa1c fabb 004c 86bb 9841 fbbb
00000060: 3ce1 61bc 0c86 36bc 5373 45bc 6fb5 9bbc
00000070: d58b 2dbc 6181 f8bb d32e 14bb 6b16 8bbc
00000080: e536 96ba b8f3 6338 4699 82bc 13d9 5fbc
00000090: ddce bcbc 7809 a8bc 3142 42bb 8aa6 5cbc
000000a0: f91b acbc 3f40 92bb 6162 8abb 7174 94bb
000000b0: fefd 843a 71a7 b3bb 9e90 b3bb 39ea ff38
000000c0: 04b3 a5bc ce07 87bb b196 bebc 2c6f e3bb
000000d0: 3ce1 fdb9 d3d8 d3bb e440 7f3c bb75 9fbb
000000e0: 8848 81bc 762a 4abc 58b6 a6bb 259f a7bc
000000f0: 11cf 35bc 1261 07bc 2f8b 8a3a f75c 0dbc
00000100: bbe0 2cbc 51fc 18bc f038 1dbc 50b2 5fbc
00000110: acda 54bb 5186 87bc 62fd bebb 30a7 48bb
00000120: 4084 773c 1431 16bc 2383 e939 a26f 76bc
00000130: 31c8 88bc f97c 14bc 7714 9dbb 30f7 1d39
00000140: 973e 01bc eaed 5bbc 4861 59bc b009 b03a
00000150: bb86 0a3b 4098 76bb 4d1f 4bbb ca5f 58bb
00000160: 4f71 9cbb 4108 003b 5567 8ebb 61ca 96ba
00000170: 5542 70bc 7f30 0cbc 3996 02b9 22e6 d3bb
00000180: 5382 76bc 4fbc 1bbb 7645 d5ba 6622 b9bc
00000190: 7d9c 45bb cbbf 97bb 423c 40bc 0949 c5bb
000001a0: 5919 26bc b11c 17bc f955 33bc 80ce fc3b
000001b0: 2736 ceba 865b a1bb dad7 21bc 7970 1fbc
000001c0: 1073 263b dac0 cfbb 32e1 acbb a595 29bc
000001d0: eaf2 6abc b3ec ccbb 79f0 c9bb 8df1 4cbc
000001e0: aea1 eabb 9ca1 81bc a96c 0ebc 6f9e 64bc
000001f0: 39b8 70bc 8024 babb 0cac 10bc 9dae 0abc
0.0022963332 -0.0027494826 -0.01747819 -0.005271193 -0.012365233 -0.009887311 -0.0013186545 -0.0029518774
0.003535708 0.002730233 -0.008291976 -0.004336771 0.0012339463 -0.018057209 0.0026136048 0.0021383467
-0.006537392 -0.004035795 -0.0012194272 0.0048372564 -0.007485039 -0.0076328116 -0.0040984154 -0.0076677315
-0.01378661 -0.011140358 -0.012051421 -0.019007413 -0.010592421 -0.0075837825 -0.0022610917 -0.016978463
-0.0011460452 5.4348e-05 -0.015942227 -0.013662594 -0.023047859 -0.020512328 -0.0029641504 -0.01346744
-0.021009432 -0.004463225 -0.0042231535 -0.0045304825 0.0010146496 -0.005482607 -0.005479886 0.00012202975
-0.020226963 -0.0041208034 -0.023265215 -0.006940743 -0.00048423733 -0.0064650564 0.015579436 -0.0048663295
-0.015781656 -0.012339225 -0.005087655 -0.020461628 -0.011096732 -0.008262889 0.0010570044 -0.008628122
-0.010551627 -0.009337501 -0.0095960945 -0.013653353 -0.0032478971 -0.01654354 -0.0058285454 -0.003061723
0.015107214 -0.009166975 0.00044538928 -0.015041264 -0.016697021 -0.009062999 -0.0047936994 0.00015064771
-0.007888458 -0.013423422 -0.013267823 0.0013430621 0.0021137435 -0.003762737 -0.0030993999 -0.003301608
-0.0047742496 0.001953617 -0.004345814 -0.0011504405 -0.014664252 -0.008556484 -0.00012453728 -0.006466643
-0.01504572 -0.0023763364 -0.0016271311 -0.02259941 -0.0030153089 -0.004631018 -0.011733117 -0.0060206694
-0.010137879 -0.009223149 -0.01094579 0.0077150464 -0.0015732691 -0.0049242405 -0.009878123 -0.009731405
0.0025398172 -0.0063401284 -0.005275869 -0.010350619 -0.014340142 -0.0062538027 -0.0061627 -0.012508762
-0.007160387 -0.015824132 -0.008692899 -0.013953789 -0.01469236 -0.0056806207 -0.008830082 -0.008464483

projection_layer.1.running_mean f4 [128]
00000000: 1b8e e4bc 96a0 02bd da65 e1bc 47ba b23c
00000010: 448c bd3d f11f 22bc 32eb 21bd dc63 933c
00000020: c010 e2bc 958d ce3c 4c57 6b3d 59ec 19bd
00000030: a0b7 5cbd ad89 76bd b706 353d 16d4 c53c
00000040: 69ae 06bd eed6 e6bc 7601 c5bd 8004 babc
00000050: 1fc4 cf3b 6c88 afbb 60ae d53c 2f5d 833d
00000060: 4c82 20bd ae14 2abd 3347 043d 1f07 de3b
00000070: 2295 c23d 249b c1bc 614e 803d b759 383d
00000080: 475f 0bbd 8065 9e3d eb9c 773d a5f5 c13c
00000090: b19f 103c fe9e a23b 6d46 5fbd 9601 a3bc
000000a0: 5e0f 4bbd 9743 063d 3179 6f3c eb31 bb3b
000000b0: 4c91 14bc 8984 12bd 14cd 68bd 4f70 ab3d
000000c0: 06c8 43bd 87aa 113d dd8f 8bbd 1487 e7bd
000000d0: 3d24 fc3c 5582 21bd 84a8 55bd 2b1e 9dbd
000000e0: 8102 06be 2aeb 553d dfaa ce3d 932e b8bc
000000f0: f8b9 ea3c 53b0 7bbd 1704 5f3d b4a8 ebbc
00000100: 0727 c1bc f129 c5bd 1b28 413c d73d 3c3c
00000110: 31fe debc dc57 4cbc 8f76 abbd 428e f73c
00000120: 615f 14bd 44e8 19be 5560 833c 8f1c ecbb
00000130: fe63 0bbd 721b 20bb f858 2cbd 48c5 503d
00000140: 8b15 163d 1dc1 b6bc d326 383b 207c 643c
00000150: 2375 53bd f4fd 873c b60a a2bc 2b51 c23b
00000160: d277 b93d 6519 20bd 4002 15bc 5930 413c
00000170: 7c1c 1bbd 70f4 a23d 8918 1f3c 7a41 e53c
00000180: 7207 fcbb 3288 423d b925 273d 2a49 143d
00000190: e9da 88bd 51a1 e9bd faef b23c f0cc 8bbd
000001a0: a16c 673a 412b d43d 3b94 9bbc 6304 bf3d
000001b0: 930a c13c 6589 8d3d 87d6 aebb 3311 bebc
000001c0: b030 10bd 1ee4 e53d 4eb2 a1bd 5b7f 383b
000001d0: ccb5 f3bb 317b d0bc 1c64 d9bb 3723 08bd
000001e0: c514 113d 3682 80bd 2d66 aebb 45ac 513c
000001f0: e270 acbd 1e91 9c3d 4856 57bd c2eb 463d
-0.027899792 -0.031891428 -0.027514387 0.02181734 0.09255269 -0.009895311 -0.03953094 0.017991953
-0.027595878 0.025213996 0.0574563 -0.037578914 -0.053886056 -0.06018989 0.044195857 0.024148982
-0.032881174 -0.028178658 -0.09619419 -0.022707224 0.006340518 -0.005356839 0.026084125 0.06414258
-0.03918676 -0.041523628 0.032294463 0.0067757512 0.09501101 -0.023633547 0.062649496 0.045007434
-0.03402641 0.07734203 0.060452383 0.023676703 0.008827136 0.004962801 -0.054510523 -0.019898217
-0.049575202 0.032779302 0.014616297 0.005712738 -0.009067845 -0.035770927 -0.056836203 0.083710305
-0.04779818 0.03556302 -0.06814549 -0.11305061 0.030778999 -0.039430935 -0.052162662 -0.0767177
-0.13086893 0.052226223 0.10091185 -0.022483146 0.02865313 -0.061447453 0.05444726 -0.028766967
-0.02357818 -0.0962714 0.011789347 0.011489353 -0.027220817 -0.012472119 -0.08372223 0.030219201
-0.036223773 -0.15030009 0.016037146 -0.007205553 -0.034030907 -0.0024430421 -0.042077035 0.050969392
0.03664164 -0.02230888 0.0028099313 0.013945609 -0.051625382 0.016600586 -0.019780498 0.005930086
0.09056057 -0.039086718 -0.009094775 0.011791312 -0.03786896 0.07956779 0.0097104395 0.027985323
-0.0076913172 0.047493167 0.04080746 0.036202587 -0.06682379 -0.11407722 0.021842945 -0.06826198
0.00088281377 0.103598125 -0.01899158 0.093270086 0.023564612 0.069109716 -0.0053356322 -0.02320156
-0.035202682 0.112251505 -0.07895337 0.0028152082 -0.0074374434 -0.025449367 -0.0066342484 -0.03323671
0.035420198 -0.06274836 -0.005322239 0.01279742 -0.08419968 0.076448664 -0.05257252 0.04856468

projection_layer.1.running_var f4 [128]
00000000: 8e98 d93d d954 e93d 6006 563e 859c ed3d
00000010: f6e6 293e 8a6b 323e ffc3 d93d 2707 343e
00000020: 72a2 ab3d 21bd e83d 76e6 aa3d 92b4 213e
00000030: 4664 db3d db66 aa3e 43a9 063e bda0 1b3e
00000040: 2936 fb3d 8439 173e c838 223e d1b7 c63d
00000050: f328 cf3d df23 fc3d 5684 403e 9d63 de3d
00000060: a995 bc3d 4f47 3a3e 41dd 463e 1ec7 ca3d
00000070: b732 083e 0cc1 e73d b1a2 1a3e 69cf 953d
00000080: cdd5 b23d 9518 e43d 0693 8a3d 120e a13e
00000090: 2873 e33d ca2c 0b3e e948 d43d 9feb 253e
000000a0: f212 063e 292c d23d a766 ea3d 823b dd3d
000000b0: c8e2 ef3d e0a4 fb3d 18d2 193e 45c9 ec3d
000000c0: 25f8 023e 7dc0 d43d 3422 ea3d 3bcc 1d3e
000000d0: 902e 2d3e 583c e83d 2625 bf3d 7c15 1e3e
000000e0: 33c3 a53d 3dcc 003e 0d29 b33d 36ba f53d
000000f0: 15ff 153e 74b1 173e dcb2 5f3e c18d 453e
00000100: 034a 193e 3de3 f73d 449b cd3d 3730 263e
00000110: 8863 363e 2153 2f3e 8d97 083e f0ab 0f3e
00000120: 648d 553e e9a2 c63d 6340 c33d bd32 413e
00000130: ff22 2f3e 52eb 093e e634 f33d a781 f53d
00000140: 2b27 d43d 1034 ee3d 3451 1e3e 0a50 1b3e
00000150: 33d3 253e 5ecb f53d c76e 033e 28f3 d33d
00000160: 6ae6 c43d 5af3 eb3d a8cd eb3d a0a2 0c3e
00000170: 6577 033e ba19 393e 5d24 013e cffc 503e
00000180: 51cf ee3d 0122 363e 9ee8 d93d a4a2 ec3d
00000190: bae9 223e 966d f33d a6bc f73d b5ca 0d3e
000001a0: 7a8a 993d 0c25 173e 8985 303e 14d1 fb3d
000001b0: cd69 143e d0ea 513e 70ef d83d b8b8 fb3d
000001c0: 5e88 f43d c4c0 993d 7062 233e 5b73 383e
000001d0: 5046 0b3e bca2 173e 3c7b 183e 2cfb f53d
000001e0: c746 bf3d 2d41 163e 9393 2d3e 842d c73d
000001f0: 0b27 303e b508 343e 7472 f23d 586a e53d
0.106248006 0.113931365 0.2090087 0.11602119 0.16592011 0.17423835 0.106330864 0.17580853
0.08380593 0.113641985 0.08344738 0.15791538 0.10712485 0.33281597 0.13150506 0.15198036
0.122661896 0.14768034 0.15841973 0.09703029 0.10115232 0.12311529 0.18800482 0.108588435
0.09208233 0.18191265 0.19420339 0.0990126 0.13300596 0.11316118 0.15101124 0.07314951
0.087321855 0.11137501 0.06766324 0.31456047 0.11105949 0.13591304 0.10365469 0.16203164
0.13093165 0.10262329 0.11445361 0.10802366 0.11713177 0.12287307 0.1502155 0.115618266
0.12789972 0.10388277 0.11432305 0.15409939 0.16912293 0.11339635 0.093332574 0.15437883
0.08093872 0.1257791 0.08748064 0.119984075 0.14648087 0.14813787 0.21845573 0.19292356
0.1496964 0.12103889 0.1003938 0.1622933 0.17811406 0.17121555 0.13339062 0.14030433
0.20854717 0.096990414 0.09533765 0.18867011 0.17103194 0.13468674 0.11875324 0.1198762
0.10359033 0.11631024 0.15460664 0.15167251 0.16193847 0.1200168 0.12835227 0.10349113
0.096142605 0.11521025 0.11513835 0.13733912 0.12838514 0.1807622 0.12611528 0.20408939
0.11660636 0.17786409 0.10640071 0.11554459 0.15909472 0.11886136 0.12096529 0.13846858
0.074971154 0.14760226 0.1723844 0.12295738 0.14493485 0.2049973 0.10592544 0.12291092
0.119400725 0.0750747 0.1595552 0.18012755 0.13601041 0.14808172 0.1489076 0.12010798
0.093396716 0.146733 0.16950826 0.09725478 0.17202394 0.17581446 0.118382365 0.11201924

projection_layer.4.weight f4 [128, 128]
00000000: 3ad0 a5bd 309c 9bbb 7dfc 8f3d 5d6c fe3c
00000010: 0603 a73c 9d4d dc3b bda6 1e3d 946e 9ebd
00000020: 33f2 87bd d0aa f23a d51b 58bd 5be4 18bd
00000030: 4f74 5abb c173 13bc c2e3 57bd 5354 adbd
00000040: 781b 8bbd 3404 0c3d ce7f 733d e816 a73d
00000050: 3c06 4fbd c2b1 9a3c a1ce 393d c552 a03d
00000060: 739f 9b3d 280c 2bbd f9af 53bd 5252 d23c
00000070: 2def cebc cccc 9ebd 1c83 c73c bb19 a83d
00000080: 1d17 8fbd 5928 f4bc 6d85 18bd 9fb7 ac3d
00000090: dce6 7abd a76e 5ebd b191 2c3d b6b8 95bd
000000a0: a145 763d 36f4 df3c ea90 9dbd 67d7 3b3d
000000b0: 9f3c d4bc a5c3 723c 2338 82bd 806a 72bd
000000c0: c3d8 903c 2998 a43c c836 a9bc c025 20bb
000000d0: e8cc 43bc 780f 393d 93c3 1d3d 19f0 623c
000000e0: 5712 583c ddea 3bbd e793 09bd 4030 32bc
000000f0: 7ffe 423d 8ccd 84bd 0a42 083d cb80 dabb
00000100: f42e 8abc 6305 3ebd d75d f73c 8a35 d0bb
00000110: 8099 353d f80f 533d 46bf 963d 5313 d7bc
00000120: 25ad cdbb c7ed b43c e0ff 353c 07b6 38bd
00000130: f82b cd3c d998 2bbd ba92 6a3d 6e22 3f3d
00000140: 760f 4d3d f599 5e3c d1dd b1bd 394c cabb
00000150: 9d76 ea3c f493 b03d 3177 1fbc 7737 283d
00000160: 69df 8fbd fe5d 5c3d 6841 81bd ee32 c1bd
00000170: e261 afbd 7728 433d a5dc bbbd e05c 9bbd
00000180: 01c5 3abc 1b98 89bd 06fc 973d 2adf ac3d
00000190: 0b11 9ebd 5077 a2bc d862 b0bd f72f 9fbd
000001a0: d076 44bd bcb5 303d f20a 10bd e5ca 85bd
000001b0: 439b 80bd eaa4 bbbd f9dc 703d f62d 853d
000001c0: de68 4dbc d06a 8cbd a5a5 00bd 4514 a0bd
000001d0: 52e6 9f3d 2d91 8dbd cf5c 38bb 7308 85bc
000001e0: 12e3 073d fc4d a0bd ceee 543d 9380 a13c
000001f0: 0bc9 6abd 3bc6 94bd b875 be3d 34f4 973d
00000200: ee10 ac3d c2f4 15bb 700f 82bd 8b2e a4bb
00000210: 9552 bb3c a79c 943c 3bf6 533c 9fdc 3ebd
00000220: 3525 093c f863 99bd e601 253d eefc eb3b
00000230: 322b 0ebd a6ba af3b a6ef 1ebc 2c57 b9bc
00000240: 2873 38bd b758 ba3b b8e1 7f3d 309c 2fbd
00000250: f8aa 053d 8c25 673d 9980 683d 8142 e2bc
00000260: 5c58 39bc 860b 873d 9283 b23d b67a 783c
00000270: 3d63 b9bc b727 7dbd fcdc 8bbd c319 fd3b
00000280: d9db b3bc 1671 163d 9b0d 0dbd f5a4 a7bb
00000290: 0a69 ae3d 2f13 263b 869f c939 35c9 e53c
000002a0: f05a 56bd 0e8e e93c 8191 ce3c 71e0 34bd
000002b0: ac75 b83d be6a 633c 3996 863d f1f7 17bd
000002c0: ffb8 38bb e28a e13b 441c b6bd 4e15 4b3b
000002d0: d785 723d 3e26 0ebd 1978 37bd c79f 313d
000002e0: f7df 82bd 5142 79bd c00d 973c ae93 b1bd
000002f0: d13c 52bc 2cbd 863d dd28 883d 869c ae3c
00000300: f944 97bc 076b 84bd 1d62 2b3d ab93 4b3d
00000310: 2d19 87bd 770d 6abd 3cb2 a63d 9415 d83b
00000320: c58f 693d 7294 73bb aa3c 303b 108c 9dbd
00000330: 06db 2abd a46c 073d 6e17 57bd 09c1 8bbd
00000340: 63e9 763d 4573 2ebd 2a7c 28bd d95f 103d
00000350: 22d8 1ebc fdcb ad3c 338f cebb c127 bf3d
00000360: 5d15 8a3d 4c80 f4bc fb2e 0cbd 3b7a f53c
00000370: 8483 b5bd 2f54 893c 832a 0d3c ce25 66bd
00000380: 53e2 41bd 116f ee3c 4c54 8ebd 631b 293d
00000390: 7b43 253d 3f2d a2bd f178 9d3d 47f8 43bd
000003a0: 1418 7d3d 6c29 bc3d 237f 283b 2520 a3bd
000003b0: ce06 64bd 6d38 8bbd 69ad b5bd 60f0 21bc
000003c0: 46c7 843d 1f80 6cbd 92f1 673c c48f 4e3d
000003d0: 0ade 5dbd 9cc1 013c 91d8 83bc 6dc0 e63a
000003e0: 4cd0 d43b 21bc 8bbd b32d 50bc 6ee6 803c
000003f0: 207f c1bd 92ed bd3c 7470 cebc 411c a7bd
-0.08096357 -0.0047488436 0.0703058 0.031057531 0.020387184 0.0067231194 0.038733233 -0.07735935
-0.06637993 0.0018514041 -0.052760918 -0.03732715 -0.0033333485 -0.008999766 -0.05270744 -0.08463349
-0.067923486 0.034183696 0.059448056 0.08158666 -0.050543055 0.01888359 0.045363072 0.07828287
0.07598772 -0.04175964 -0.051681492 0.025674019 -0.025260532 -0.07753906 0.02435451 0.08208033
-0.069868304 -0.029804396 -0.03723662 0.084334604 -0.06125532 -0.054304745 0.04213113 -0.073106214
0.060124997 0.027338129 -0.07693656 0.04585972 -0.025907813 0.014817153 -0.063583635 -0.059183598
0.017681485 0.020092087 -0.020656005 -0.0024436563 -0.011950709 0.045180768 0.038516592 0.013851189
0.013187966 -0.04587828 -0.033588316 -0.0108757615 0.047605988 -0.064845175 0.033266105 -0.0066681853
-0.016868092 -0.046391856 0.030196114 -0.0063540386 0.044335842 0.0515289 0.07360701 -0.026254332
-0.006276744 0.022086037 0.011108369 -0.04509547 0.02504538 -0.041893814 0.057268836 0.046663694
0.050063573 0.013586511 -0.08684886 -0.006173637 0.028621012 0.0862197 -0.009733007 0.04106852
-0.07025034 0.053800575 -0.063113034 -0.09433542 -0.085635915 0.047646012 -0.09172944 -0.07586074
-0.011399508 -0.06718465 0.074211165 0.08441003 -0.077180944 -0.019832283 -0.08612603 -0.077728204
-0.04796487 0.043142065 -0.03516669 -0.0653284 -0.06279614 -0.09162314 0.058804486 0.06502907
-0.012537209 -0.0685631 -0.03140797 -0.07816366 0.07807602 -0.06912456 -0.002813149 -0.01623938
0.033175536 -0.07827374 0.051985554 0.01971463 -0.057320636 -0.07264372 0.09299797 0.07419625
0.084016666 -0.0022881483 -0.06350601 -0.005010431 0.022866527 0.018141104 0.012937124 -0.04659712
0.008370687 -0.07489771 0.040285014 0.0072017824 -0.034709163 0.0053628264 -0.009700691 -0.022624575
-0.045031697 0.005686845 0.06247112 -0.04287356 0.03263375 0.056432292 0.056763265 -0.027619602
-0.01131257 0.06593995 0.08716501 0.015165975 -0.022630328 -0.061805453 -0.06829259 0.0077240183
-0.021955417 0.03672894 -0.034436803 -0.0051161 0.08516128 0.0025341024 0.00038456562 0.028050045
-0.05233282 0.02851012 0.025215866 -0.044159357 0.09006819 0.01388043 0.065716214 -0.03710169
-0.0028186438 0.006883011 -0.0889211 0.003098804 0.05920967 -0.03470444 -0.04479227 0.043365266
-0.06390374 -0.06085426 0.018439174 -0.08670746 -0.012831883 0.065790504 0.06648419 0.02131487
-0.018465506 -0.06465726 0.041841615 0.049701374 -0.06596599 -0.057141747 0.08139464 0.006594369
0.057021875 -0.0037167338 0.0026891627 -0.076927304 -0.041712783 0.033062592 -0.05251258 -0.06823928
0.06028117 -0.0425904 -0.041134037 0.035247657 -0.009695085 0.021215433 -0.006303692 0.09333754
0.06742356 -0.029846333 -0.03422449 0.02996551 -0.08862975 0.016763775 0.008616093 -0.056188397
-0.04733498 0.029105695 -0.06949672 0.041285884 0.040347558 -0.07918786 0.07689083 -0.047844198
0.06179054 0.09187588 0.0025710545 -0.079651155 -0.055670552 -0.06797872 -0.08870966 -0.00988397
0.06483321 -0.057739373 0.014156716 0.050430074 -0.05416683 0.007919695 -0.016094478 0.0017604955
0.0064945575 -0.06822992 -0.012706208 0.015734877 -0.09448075 0.023184571 -0.025200106 -0.08159686

projection_layer.4.bias f4 [128]
00000000: e4ad 8b3c fd61 543d e6ec b23c a841 843d
00000010: bc17 b03d e811 96bb f8ba ca3c fea4 3d3d
00000020: edb0 833c 7e36 223d 3e82 a0bd f640 a4bd
00000030: b649 aebd 37ad 983d c4d9 933c bac3 b7bd
00000040: 8c27 19bd fed3 b8bd 4897 853c decb 3e3d
00000050: d2e0 44bc 021a 843d 4143 5b3b 91b0 12bc
00000060: 6427 893d 3540 3cbd f1f2 a53d 7833 5c3d
00000070: 9827 a73d fa3f eebc 87fe 483c f228 343d
00000080: 88ad 86bc e63b c13c 83f9 da3c 0468 6dbd
00000090: f14e f4bc 57db 51bd 39f9 9d3d 8cc7 aa3d
000000a0: b4c9 32bd 1dc7 1b3d 5bc7 a93c f4f6 38bd
000000b0: 3801 bb3c 3664 bbbb 4387 123d e30c 44bc
000000c0: f440 803d 93b0 e5bc 189e 17bd 8eac 6a3d
000000d0: 074a 60bb 39d2 8b3d dad4 8fbd c59f a83d
000000e0: c39e edbc d664 73bc 2976 d239 fefb 1839
000000f0: 87ee 6ebc 0386 26bc 2b56 a4bd e49b 913d
00000100: c735 8e3c 48c0 ae3d 20c7 6bbd 904c e7bc
00000110: fcf3 95bd e7b1 8fbd c38b 62bd 2240 b9bc
00000120: 6aaa 83bc aef1 4f3d e195 a03d ffd7 5f3d
00000130: b769 e4bb 38c4 4c3c ad4e 8a3d 63fe 23ba
00000140: 5ba0 acbc 95f1 aebd 843d d73c ef8a 9dbd
00000150: 2a60 64bb 3f44 bebd 3862 0ebd 607e 89bd
00000160: d64a 9ebd 7d40 cfbc 0273 583d 964e d4bc
00000170: 0e4c e33c e6b0 753c 80d6 453d 1dd2 72bd
00000180: c0dd 9fbd a1ce df3c 9bc9 e9bc 3171 8bbd
00000190: 4b1e 98bd c5bc 49bd a7ef 67bc 2f00 02bc
000001a0: fa15 d33c 0cc1 96bc 23b0 8cbd 8a6f e2bc
000001b0: 37c8 29bd a9b1 c0ba af6c 813d bba3 bcbd
000001c0: d8ea da3c 7781 a33b 5457 abbc ed32 813d
000001d0: 402b 2e3c fd42 47bc d0e5 f03c 3bfc 383c
000001e0: 92ec 87bc c76d 99bd 0a09 9f3d 7a2d 123d
000001f0: e18e 993d 5728 ac3d dbb0 89bd 2010 2d3d
0.017050691 0.05185126 0.021841478 0.064578354 0.08598277 -0.0045797713 0.024747357 0.046299927
0.016075576 0.03960275 -0.07837342 -0.08020203 -0.08510153 0.07454913 0.018048175 -0.08972879
-0.03739123 -0.09024809 0.016307488 0.04658114 -0.012016492 0.06450273 0.0033456834 -0.0089532295
0.06696966 -0.04595967 0.08102978 0.053760022 0.08161849 -0.02908324 0.012267715 0.04398436
-0.016440168 0.023588132 0.026730305 -0.057960525 -0.029822798 -0.05123457 0.07713551 0.08338842
-0.04364939 0.038031686 0.020724943 -0.045157388 0.02282773 -0.005718733 0.035773527 -0.011965963
0.06262389 -0.028038299 -0.037016004 0.057293467 -0.0034223811 0.06827206 -0.0702302 0.082335986
-0.029006368 -0.014855584 0.00040142357 0.00014589724 -0.014583237 -0.010163787 -0.08024248 0.07109812
0.017359627 0.085327685 -0.057562947 -0.02823475 -0.07321927 -0.07016354 -0.05530907 -0.022613589
-0.01607247 0.050767593 0.07841087 0.05464935 -0.00697061 0.012497954 0.067532875 -0.0006255863
-0.021072557 -0.08542172 0.02627445 -0.07692515 -0.0034847357 -0.09290361 -0.034761637 -0.06713557
-0.077291176 -0.025299305 0.052844055 -0.025916379 0.027746227 0.014995789 0.048300266 -0.05928241
-0.07805967 0.027320208 -0.028538516 -0.06808699 -0.07427653 -0.04925229 -0.014156259 -0.007934614
0.025767315 -0.018402599 -0.06869533 -0.027641077 -0.041450705 -0.0014701384 0.06319558 -0.092109166
0.02672331 0.0049897986 -0.020915665 0.063085414 0.010630429 -0.012161967 0.029406458 0.011290605
-0.016592298 -0.074916415 0.07765396 0.0356879 0.07497955 0.08406132 -0.06723186 0.042251706

output_layer.weight f4 [1, 128]
00000000: 34d0 583d b3a3 9b3d e3e2 603d 4c5e 763d
00000010: 7d0a dfbc f3de 943d f856 093c 5fc0 98ba
00000020: d10f a1bd ba60 103d 07ef 3b3d c8cb 823c
00000030: d83e ae3d 861a 153d 906c 28bc 6290 153d
00000040: 19e5 82bd 212b cebc 8ae9 65bd 08bd 593b
00000050: 1f16 813d 27bf 91ba a157 a1bd d555 c2bc
00000060: c70d 693d 2087 da3c fcb7 3c3d 6756 463d
00000070: 312a 2c3c ea02 d1bc 17aa b03d 5f3d 1d3c
00000080: 121b 603d fd19 a73d 86e1 5a3d 33b3 8fbd
00000090: 96a5 973d 54d6 493d f3ca 9c3d 7f5e 80bd
000000a0: fa15 f0bb 92a2 b0bd 641d 643c 672f 2ebd
000000b0: 3add 4b3b de57 d33c c7ed 7d3d 6679 913c
000000c0: 5806 0d3d 8537 573c 1cc3 dd3c 08b0 2c3d
000000d0: 1312 5ebd f8f6 9dbd f4e8 113c 23f9 c3bb
000000e0: 597c 67bd 0de1 cf3c 7593 96bd 1906 f73c
000000f0: 6fe6 a23d 65f6 07bd 1ab8 fd3b 1e28 72bd
00000100: 309b f4bc 6b7c 60bd 46c5 0b3d 0078 603b
00000110: 5a06 a93c ef3d a73d 4e94 0cbd d5d7 46bd
00000120: 6f95 87bc 47d8 bbbc d935 58bd 05ec 8b3d
00000130: ce87 983d 801e 9bbc f68e 9e3d 772e f23b
00000140: 3707 713d 4def 353d dcf8 81bd d2a5 103d
00000150: e457 713d 3e32 423b ad09 753d f569 8bbd
00000160: 9921 593d 5385 383d 1fea 8e3d a645 5c3d
00000170: a710 b53d 089b 113d bf29 01bd 0cb9 ec39
00000180: 6955 993d 2526 5b3d 2f5c fc3c a4fe 003d
00000190: 840a 4fbd a432 133d aa08 ea3c bb19 7d3d
000001a0: 9508 4fbc 7cbe a3bd 17db 333d d517 cd3c
000001b0: 8d25 8fbd 336e 133c 5e47 8cbd f68c f3ba
000001c0: 8db0 70bd bd54 623d 3e30 07bd 8871 a03d
000001d0: 182b 12bb 5aaa 883d 3788 883d aa81 cbbb
000001e0: da78 82bc 4edc 973c 1f1b 513d 3b36 223c
000001f0: 48b1 8ebd 4ad8 b8bd 3778 31bd ba7a 72bc
0.052932933 0.075995825 0.054903876 0.060148522 -0.02722668 0.07269087 0.008382551 -0.0011654011
-0.07864345 0.035248496 0.04588225 0.015966311 0.0850808 0.036402248 -0.01027979 0.036514647
-0.06391353 -0.02516705 -0.056130923 0.0033224244 0.063030474 -0.001111959 -0.07878042 -0.023722569
0.056897905 0.02667576 0.0460739 0.048422243 0.010508106 -0.025514085 0.08626192 0.009597152
0.054713316 0.08159254 0.053437732 -0.070166014 0.0740463 0.049276665 0.07655897 -0.06268024
-0.0073268386 -0.08624758 0.013923023 -0.042525675 0.0031107203 0.025798734 0.06199434 0.017758083
0.034429878 0.0131357955 0.027070574 0.042160064 -0.054216456 -0.07713121 0.008905638 -0.005980627
-0.05651507 0.025375867 -0.07352344 0.030154275 0.07954108 -0.033193965 0.007742894 -0.05912029
-0.029859155 -0.054806154 0.03412368 0.0034251213 0.020632911 0.0816611 -0.034321122 -0.048545677
-0.016550748 -0.022930278 -0.052785728 0.068321265 0.07447778 -0.018935442 0.077421114 0.007390793
0.05884477 0.044417668 -0.06346294 0.03531439 0.05892171 0.0029631997 0.05982368 -0.06807319
0.053010557 0.045049023 0.06978249 0.05377736 0.08841067 0.03554824 -0.031533953 0.00045151298
0.07486994 0.053503174 0.030805675 0.031492844 -0.050547138 0.035936967 0.028568584 0.061792117
-0.012636323 -0.079953164 0.043910112 0.025035778 -0.06989584 0.0089984415 -0.0684955 -0.0018581438
-0.058762122 0.055256594 -0.03300499 0.07834154 -0.0022303518 0.06673117 0.06666606 -0.0062105255
-0.015926767 0.018537667 0.051051255 0.009900625 -0.069674075 -0.09025629 -0.043327536 -0.014799768
