Checkpoints/HR_V/valence_s20.pth (torch, 461905 bytes, 29 tensors)

input_layer.weight f4 [128, 29]
00000000: b5d0 90bd e38f be3d 1544 aebd bbfb 3cbd
00000010: 0339 213e 4259 6abd a506 113c 24b8 2dbe
00000020: 4dc1 20be db1f 553d 1a8c 8c3c 091c 0a3d
00000030: dc3a dc3d 4d29 11be 3144 d63c b315 123e
00000040: 4b49 34be 67cb 833c 67a9 c8bd 6fdc 3c3e
00000050: d85f 473e db75 cbbd 57b5 c3bd 1b9c f8ba
00000060: d15a 2abe 55a3 103e 4b8b 8fbd ae82 2fbd
00000070: 5828 dc3d 04ef 4cbd f695 53bd 1985 303e
00000080: 2168 023e d6b6 a93c 898b 33be 8b2d b2bd
00000090: 57e5 eabc f004 023e 820b 103e a5ad 27bd
000000a0: 23eb eebd 4feb adbc ff0c 883d ead0 bfbd
000000b0: d382 d4bd 0f6b 853b 9eb9 dbbd 45bc 5a3d
000000c0: bd59 b93d 9ed3 2abe b38b dbbd 7904 a33d
000000d0: 542a 24be 3fc2 d03c 7ede 20be 15ec a6bd
000000e0: 92e9 133e 4f5c 753d ac92 d5bd b666 34bd
000000f0: aea6 1cbe ed8c d63d 3167 2fbe 8c26 2fbe
00000100: 977a 0e3e ab9a 27be c7d9 06bd 22f9 08be
00000110: 657c 8cbd edb4 9abd 338b 0ebc 9ed6 e0bd
00000120: b376 bb3d 1abd 7abd ec03 1a3e 8eda d6bc
00000130: 8c5b f1bd 1ebc 7dbd c4de 49be 618f 26be
00000140: d947 f63c 37b8 493d 0f03 393c d456 d0bd
00000150: 8a6e 22be 0ade 1dbe 81a2 05bd f506 e2bb
00000160: 88a9 093e 40cd e3bd 6ad9 61bd d822 1c3e
00000170: 3e20 2b3c bd92 9abd 5b80 af3c 8bfc 20be
00000180: 9069 91bb 05d3 53bc 8c90 25be 2e0b 0abe
00000190: 19d4 943c 4693 6abc bba0 de3d 6515 20be
000001a0: e781 1cbe 5114 2abe 56e5 1d3e 4aeb 2e3e
000001b0: 0a18 3fbe b1b9 343e c3ca 23be 99b6 d93b
000001c0: f935 1ebe e225 d8bc 7465 87bd 787e 673d
000001d0: 2528 2abe fa69 e33d c2bb 25be 6a5c ac3d
000001e0: fa0e 2abe f150 103e ed26 be3d c726 b6bd
000001f0: 571b 8b3d 22c2 ab3b 16af 38bd b94d 423d
00000200: e6d5 d9bd 3975 093e 6ae1 95bd 462e 43bd
00000210: e2ad d6bd bccc bb3c 4bf1 cb3c 86ba f83c
00000220: b74e d63b 97d6 363e 2258 373e efcb 0dbe
00000230: 5923 80bc 199a 1dbd 59b5 e1bd c9ff b03d
00000240: b267 6c3d 7bb8 0bbe cadb a83d 14ab be3d
00000250: 4da3 243e a1be 38be 1578 1e3d 090c 05be
00000260: 2189 243e 903c 02be 26ab 61bd 7f7e d93d
00000270: a058 a43d dc89 d03d f3cf bbbd ad9c 743c
00000280: 9472 f9bc e2d9 0f3e e002 05bd 7252 c8bd
00000290: 5076 26bc 0d5d 2e3e f557 13bd 922a 0cbe
000002a0: 6d31 c9bd a367 283d 3ab5 27be 8d4b 1f3b
000002b0: 6c5e 333d dc20 6d3d a41b 19be 4e3e 09be
000002c0: 4040 c4bc 2882 333d 5a4e 0dbe 83dc d5bd
000002d0: b9db c6bd c228 65bd 94df 22be 1dd3 8dbd
000002e0: 9ff0 113b d992 273e 9c7a ac3c 131c dc3d
000002f0: be2d eabd 508e 14be a882 163e f75a e3bd
00000300: e708 05bd 6411 17be ab6a 22be 55d4 573d
00000310: 15dd 353e ae37 0c3d 2562 303d 3b4b 25be
00000320: 399b f73b d949 f73d 1ccd fa3d a6b4 d2bd
00000330: bbef f7bd 7474 2d3e 72ee 0ebd 74ef 0e3d
00000340: b186 19be 8a6c 153e 8201 183e 9035 dabd
00000350: d0e4 3ebe f96a d7bd 5041 3abe 59f2 2a3e
00000360: d6ef ddbd 090b 9cbd c5cc 20bd 9ae6 04bc
00000370: 128d 723c 2cbf 31be f1c9 213d dd8d 6c3d
00000380: c8b4 a13d 4c41 3e3e 9473 f13d ea2b 4d3d
00000390: 4e43 cb3d 466b dbbd dd9b 253e 05c1 f9bd
000003a0: c76d 353e 8824 ae3d 2c59 2b3d dea5 12be
000003b0: 087e 173e da1b ab3d 85a4 8fbd 9854 d53d
000003c0: 9e73 eabd 7392 ef3b bc0a 213e cf30 81bd
000003d0: c7b5 8b3d fa31 1fbe 732d d4bd b644 b73d
000003e0: 6c37 bcbd bd59 84bd a4c4 30be f0dc a7bb
000003f0: 5635 143c d153 0d3e d66b 4f3d 06e3 81bd
-0.07071058 0.09304788 -0.08509079 -0.046138506 0.15744404 -0.05721403 0.008851682 -0.16964775
-0.15698738 0.052032333 0.01715665 0.033718143 0.10753414 -0.14175911 0.026155563 0.1426609
-0.17606084 0.0160882 -0.09797936 0.18443464 0.19470155 -0.099345885 -0.09556072 -0.0018967421
-0.16636206 0.14124806 -0.0700899 -0.042849235 0.107498825 -0.05003263 -0.051656686 0.17238273
0.12735035 0.020717066 -0.17533697 -0.08700093 -0.02867381 0.12697196 0.1406689 -0.040937085
-0.116659425 -0.021230368 0.06643104 -0.09366019 -0.10376515 0.0040716003 -0.10728763 0.053402204
0.09050319 -0.16682288 -0.10720005 0.079598375 -0.16031772 0.025483249 -0.15709874 -0.08150498
0.14444569 0.059902485 -0.10428366 -0.044043265 -0.15297958 0.10476098 -0.17129208 -0.17104548
0.13913952 -0.16367595 -0.032922532 -0.13376287 -0.06859664 -0.0755404 -0.00870018 -0.10978435
0.091534995 -0.061215498 0.15040559 -0.026227262 -0.11785039 -0.06194698 -0.19713885 -0.16265632
0.030063557 0.049247947 0.011292233 -0.10172811 -0.1586248 -0.15416732 -0.03262568 -0.006897802
0.13443577 -0.11123133 -0.055138983 0.15247667 0.010444699 -0.07547519 0.02142351 -0.15721337
-0.004437633 -0.012928729 -0.16168422 -0.13480827 0.018167542 -0.014317339 0.10870501 -0.15633161
-0.15283929 -0.16609313 0.15419516 0.17081943 -0.18661514 0.1764896 -0.15995316 0.006644082
-0.15450276 -0.026385251 -0.066111475 0.056517094 -0.16616876 0.11104198 -0.16184905 0.08416064
-0.16607276 0.14093377 0.09284768 -0.08894115 0.06792324 0.0052416483 -0.04508885 0.047437403
-0.10636501 0.13423623 -0.07318385 -0.04765155 -0.10482384 0.022924773 0.02489533 0.030362379
0.0065401453 0.17855297 0.17904714 -0.13847326 -0.015641855 -0.038477037 -0.110209174 0.08642537
0.05771608 -0.13644592 0.082450464 0.09309974 0.1607792 -0.18041469 0.038688738 -0.12992872
0.16067936 -0.12718415 -0.05509486 0.1061983 0.080247164 0.101825446 -0.091705225 0.014929933
-0.030450143 0.1404796 -0.032473445 -0.0978135 -0.010160044 0.17027684 -0.035972554 -0.13688114
-0.0982388 0.04111446 -0.16377726 0.0024306506 0.04379122 0.057892665 -0.1495195 -0.13402674
-0.023956418 0.0438253 -0.1379942 -0.1044245 -0.097098775 -0.055947073 -0.15905601 -0.06925032
0.0022268665 0.16364612 0.021054558 0.10747542 -0.11434506 -0.14507413 0.14698279 -0.111013345
-0.032479193 -0.14752728 -0.15861003 0.05269273 0.17760117 0.034232788 0.043062348 -0.1614198
0.007556346 0.12074632 0.12246153 -0.10288362 -0.12106272 0.16938955 -0.034895368 0.03489633
-0.14992787 0.14592186 0.14844325 -0.106547475 -0.18641973 -0.1051845 -0.18188977 0.16694011
-0.10836761 -0.07619292 -0.039257783 -0.00811162 0.014804142 -0.17358083 0.039499227 0.05775248
0.078958094 0.18579596 0.11789623 0.050090708 0.09924947 -0.1071382 0.16172738 -0.12195019
0.17717658 0.085030615 0.041833088 -0.14321086 0.14794171 0.08354922 -0.070138015 0.104165256
-0.114478335 0.0073111593 0.15726751 -0.063081376 0.06821781 -0.15546408 -0.10360231 0.089486524
-0.091902584 -0.06462429 -0.17262512 -0.0051227733 0.009045919 0.13801505 0.05063995 -0.063421294

input_layer.bias f4 [128]
00000000: 8398 eebb 77d8 a138 25e7 1cbd cb83 36bd
00000010: 78b7 09b9 c4d8 b4b8 a6b7 86bc b858 83bd
00000020: b2a2 323d 81cf 63bc bb89 8fbd 07e6 cf38
00000030: 0b5d a7bd 141a 30b8 ca31 5eb9 92ef c43d
00000040: 7f24 d1bb 0782 f7bb da31 13bd 3dab 3539
00000050: 24ff 903c 5b09 13bd 5b59 543d cd64 c03d
00000060: b648 3d3d cee8 c7bc 3588 93ba 4e53 c7bd
00000070: 3447 97bd e97f 033d 69b6 973d 2a0a 5fbb
00000080: a2fc c63d 88c8 103d 5bd4 a4bd 3af4 c33d
00000090: 5003 383c 1af2 713d 54f2 a2bd 9a16 99bc
000000a0: a8e8 b3bc 816b 273d e2e5 503d ea3f a93c
000000b0: 622b 313c b429 783d c8e5 883b 7b9b 253d
000000c0: 8644 b0b8 212d a43c ad23 bdbc c5fc 9abd
000000d0: 99bc 053d 5296 7abd 1540 29bc 8818 2937
000000e0: 031c c43b 84ab 513d 2851 c33d 4df0 933c
000000f0: 72f1 543d 0516 a2bc b360 b1bd 8ca4 b4bd
00000100: b3fc b2b8 53d3 f536 5149 2039 fda5 14bd
00000110: 820d 0ab9 bdaf b0bc 99a9 1b39 93a4 0a3d
00000120: 59ef 083d 24ce 953d 6c1c 95b8 1ff0 dfbc
00000130: a20f e13a 3dd9 b33d 08c2 22bd 783f 1b3d
00000140: d2e0 b63d ba14 e8bb cbd1 2e3c 75d0 8e3c
00000150: eae2 8dbd c3d7 bd3d 6933 b1bd 333d 5d3d
00000160: ce5d 89bd 45e4 a13b 5fb8 d535 7393 a03d
00000170: 6b0c 20bc 57cb b13d dd37 8338 4331 653d
00000180: 4caa 12b9 19b4 90bd 9f35 d338 b68a ff38
00000190: 1224 abbc 2879 443a 7d3e 9d3d 9acf 013d
000001a0: 9116 4d3d 952d 37b7 5f8b a3bb 6d65 f33c
000001b0: 52f8 aa3d 5365 a7bc 1b9a aebc 2836 3abc
000001c0: d698 2b3c 282c a73d c4e2 abbd 9fb3 8c3d
000001d0: ba1d a1bc 2101 273a 1329 2d38 89fd 53bb
000001e0: 4479 c83d 26d1 8abd 2aca 83bd 7578 e43c
000001f0: 4d96 f6b8 60b4 ecb7 5e69 edbc 4bd2 27bc
-0.0072813644 7.717398e-05 -0.038306374 -0.04455928 -0.00013133686 -8.6234446e-05 -0.016444992 -0.06413406
0.04361219 -0.013904453 -0.07008692 9.913375e-05 -0.081720434 -4.1985957e-05 -0.00021190118 0.09616007
-0.0063825245 -0.0075533423 -0.035936214 0.00017325296 0.017699786 -0.035897594 0.05184303 0.09394226
0.04621192 -0.024403002 -0.0011255803 -0.09732686 -0.07386628 0.032104407 0.07407839 -0.0034033158
0.09716155 0.03534749 -0.08048316 0.09568067 0.0112312585 0.059068777 -0.07956377 -0.018687535
-0.021961525 0.040874008 0.051000483 0.02066036 0.010813566 0.060586646 0.0041777827 0.04043148
-8.4050975e-05 0.02004105 -0.0230883 -0.07567743 0.032650564 -0.061178513 -0.01033022 1.0078897e-05
0.0059847846 0.05118896 0.09536964 0.01805892 0.051988073 -0.01978589 -0.08661022 -0.08820447
-8.53477e-05 7.3261704e-06 0.00015286102 -0.03629111 -0.00013165738 -0.021568174 0.00014845132 0.033848356
0.033431385 0.07314709 -7.110168e-05 -0.027336178 0.0017170797 0.08781669 -0.039735824 0.037902325
0.089296 -0.007082549 0.010670136 0.017433384 -0.06928046 0.09269669 -0.08652384 0.054013442
-0.06707345 0.004940542 1.5923396e-06 0.07840624 -0.009768586 0.08681362 6.256972e-05 0.055955183
-0.00013987086 -0.07065601 0.00010071252 0.000121851845 -0.020891223 0.00074948603 0.07677934 0.031692125
0.05007035 -1.0918263e-05 -0.0049909796 0.02971145 0.083481446 -0.020434057 -0.021313718 -0.011365451
0.010473451 0.08162719 -0.083928615 0.068701975 -0.019667495 0.00063707127 4.1284668e-05 -0.0032347164
0.097887546 -0.06778173 -0.06435044 0.02788947 -0.0001175819 -2.8217386e-05 -0.028980907 -0.010243009

projection_layer.0.weight f4 [128, 128]
00000000: 1efa 553d 03d0 d63c d7f9 85bb 0607 5b3d
00000010: e3bf 763d a85e b4bc 3d3c 633a ffdf 5f3d
00000020: 20f4 2c3d 54f4 aabd 2c3e 293d 0ae8 c1bd
00000030: 499c 903c 0a1b 55bd 2716 97bd c03a b93d
00000040: a51b 153d f39c 373d 5c15 71bc 08c5 fa3c
00000050: 0410 c1bd 82c6 6cbc dd16 f43c 342b b7bc
00000060: 6522 ccbc 1b6c e2bc 6d51 503d dda3 bcbd
00000070: d349 15bd 5be4 84bd a769 9ebd c69f 40bc
00000080: b7f5 ad3d a7ff 96bd 1846 d13c 4257 b23d
00000090: 0ede 5cbd 0bd6 05bd c1ee 38bd 2fd1 9d3d
000000a0: 2a8d 1c3c 216f 7dbd 2226 1dbd 7416 0d3d
000000b0: b19b f1bd c364 b13d 2bfd 6fbd fd70 09bd
000000c0: 662c 333d fdb1 953d 2358 27bd 9dd4 05bd
000000d0: 5379 0abd 071a 0d3d b264 203d 9814 823c
000000e0: 8564 5b3d 4918 b8bd 0993 813c 3bfe e53c
000000f0: 4ea6 3cbc 8f80 c43c b319 0cbc 9f05 9cbd
00000100: 29a8 993c 649f a7bd 23e3 503d ee8b 69bd
00000110: 2ccc 8c3d 6835 aa3d 41bd 8b3d 9487 53bc
00000120: 1cd6 35bd aeff 83bd d823 1cbd 547b 753c
00000130: 0565 543c ebff cbbd 8d3c 2dbd b64d 7bbd
00000140: a25c 1e3c 89d6 9f3d 24a2 e23c bb93 6c3d
00000150: 1bf9 7a3d 749f 9cbd 6c2a 733c e884 3d38
00000160: 7f90 b4bc 65af db3c cb5d 61bc 6333 a23d
00000170: a5dc 993d 06ed ebbb 3cf0 5d3b f10d 7d3d
00000180: 4f50 48bd 4695 873a 0c1c eebd 7e3d 84bd
00000190: 76fe 7dbb 3643 d6ba fb25 2bbd a89d 653d
000001a0: 4082 163d cf0f 70bd 1138 95bc 37f2 c3bb
000001b0: 2890 91bd 20d9 0fbd 8a50 01bd d549 c5bb
000001c0: 65af c0bc 9671 d5bd ddab 8cbd 52bf 903d
000001d0: d3a5 873d 24b1 883d 4301 a33d 9d59 c4bb
000001e0: 4e23 84bd f683 573d a0fe b83c 99bf 55bc
000001f0: 6c83 f13c 38f9 72bd 78c8 21bc a4bd e1bc
00000200: 1027 45bd b7f4 39bd e7a1 4b3d 6652 8c3d
00000210: f453 90bc b1df 9fbd e75e de3c cda9 a63d
00000220: d198 aebc 93da 23bd 4f6a 703d 6ecb 373d
00000230: bbdf 5d3c 1a12 6ebd f686 83bd 1c0b 81bd
00000240: 2dfc 983d 602f afbd c434 91bd a9d7 8d3d
00000250: 5e2c 7ebd c08d 7e3c 2387 443c de40 f3bc
00000260: a6f3 8f3d 803a 8c3d 4ab8 bdbc 532f 51bd
00000270: 614d 4bbd 43a0 8abd af6c bcbb f0f6 6d3d
00000280: 5e53 13bd 3cbe 983d d7ca afbd b45c 9fbc
00000290: 0ca5 80bc f88b 303d 2b25 57bd e583 0fbb
000002a0: 318d fc3c b231 a93c 0cca c53c 5374 4d3d
000002b0: 20c0 af3d 0ffb b5bd 498f e8bc ec14 303d
000002c0: 416e bebd 3dec cebc 4175 8d3d 6cdb c03a
000002d0: bc1b 463c 4b22 30bd aacd a3bd 74c3 a33d
000002e0: 1539 79bd 1965 3dbd adb9 bbbc afda 0abd
000002f0: acb7 633d f890 9bbd 7147 683d 1eb4 dd3c
00000300: de22 95bd 3b0a 433d b96f 2dbd 6f95 5abd
00000310: 3340 85bd 15be 16bb 5d8d 27bd ad12 c0bd
00000320: 1e27 5d3d 0edf 93bd 27fc 963d b2f3 93bd
00000330: b2c0 41bd f7bc eb3b 9783 313c d146 4e3c
00000340: 2803 413d e828 08bd b0f4 b2bd b039 13bd
00000350: da2b 1f3d 7b26 113d c7ee a3bd a1be 2cbd
00000360: 92ea 9abd f1e6 a9bd d8c2 263d 1761 5d3d
00000370: ca13 0b3d 66ac 823d 51c0 c7bd 5d62 ac3c
00000380: 942c 0dbd e955 b93c 190b aa3d 0112 64bc
00000390: 2f06 7d3d 3f7d 05bd 105a 88bc 72ce 1e3d
000003a0: c845 80bc 3413 d1bc a74f 86bd 5aad a2bd
000003b0: 6349 e23c 5e4d 2cbd ca51 ec3c 8fca 81bd
000003c0: e3a3 51bd baae 833d 7945 8cbd 522c 083d
000003d0: 98a4 163d 4efc 693d 104f 95bd f993 d33d
000003e0: f1d8 d23c 4cb5 913c bb07 6fbd 76c7 8bbd
000003f0: 9475 953d fe44 35bd 23ff 5dbd dae2 1dbd
0.052240483 0.026222235 -0.004088621 0.053473495 0.06024159 -0.022017792 0.0008668339 0.05465698
0.042225003 -0.08347383 0.041319057 -0.09468086 0.017652648 -0.05202774 -0.07377272 0.09044409
0.036403317 0.044827413 -0.014714565 0.03061153 -0.09426883 -0.014451625 0.029796058 -0.022359468
-0.024918744 -0.02763944 0.050858904 -0.09210942 -0.036447357 -0.06488868 -0.07734995 -0.011756843
0.08494132 -0.073729806 0.025546119 0.08708049 -0.053922705 -0.03267483 -0.04514957 0.07705914
0.0095551405 -0.06187356 -0.038366444 0.03444524 -0.11797274 0.08661797 -0.05859105 -0.03355502
0.043743514 0.07309339 -0.040855538 -0.032673467 -0.03380711 0.03444865 0.03915853 0.01587896
0.05356266 -0.08989007 0.015817182 0.028075328 -0.0115142595 0.023987083 -0.008551049 -0.0761826
0.018756943 -0.08184698 0.050997864 -0.057018213 0.0687488 0.08310968 0.06823207 -0.012910742
-0.044393644 -0.064452514 -0.03812012 0.014983017 0.012963538 -0.09960922 -0.042294074 -0.061353408
0.00966564 0.07804591 0.027665205 0.057758074 0.06127272 -0.07647601 0.014841657 4.518489e-05
-0.022041557 0.026817033 -0.013755272 0.079199575 0.07512788 -0.0071998863 0.0033865115 0.061780874
-0.048904713 0.001034417 -0.11626443 -0.06457041 -0.0038756407 -0.0016346935 -0.041784268 0.056058556
0.03674531 -0.058608826 -0.018215211 -0.005979802 -0.07107574 -0.035119176 -0.03157095 -0.0060207644
-0.023521135 -0.104220554 -0.06868718 0.070677415 0.06623425 0.06674412 0.07959225 -0.005992128
-0.06452046 0.052616082 0.022582352 -0.013046169 0.029481612 -0.059319705 -0.009874456 -0.027556248
-0.048132956 -0.045399394 0.04971495 0.06851654 -0.017618157 -0.078063376 0.027144862 0.08137856
-0.021313103 -0.04000337 0.058695134 0.04487174 0.013542111 -0.05812273 -0.06422226 -0.06300947
0.07469974 -0.08553958 -0.07090142 0.069258995 -0.06205403 0.0155367255 0.01199511 -0.029694017
0.07028894 0.068470955 -0.023159165 -0.051070523 -0.04963434 -0.06768849 -0.005750261 0.058096826
-0.035968177 0.07458159 -0.085836105 -0.019453384 -0.0157037 0.043102235 -0.05252568 -0.0021898684
0.030829044 0.02065358 0.024144195 0.050159764 0.08581567 -0.08885776 -0.028388636 0.042988703
-0.09298373 -0.025259132 0.0690713 0.001471383 0.012091573 -0.043001454 -0.07998212 0.07996264
-0.060845453 -0.046238992 -0.022915686 -0.03389996 0.055595085 -0.0759601 0.056708757 0.027063426
-0.07282041 0.04761718 -0.042342875 -0.053365167 -0.06506386 -0.0023001481 -0.0409063 -0.09378562
0.053992383 -0.07220279 0.07372313 -0.072242156 -0.04730291 0.007194157 0.010834596 0.012590126
0.04712215 -0.033242136 -0.08738077 -0.035943687 0.03886018 0.03543709 -0.080045275 -0.042173985
-0.07564272 -0.08296002 0.04071316 0.05404767 0.03395442 0.06380539 -0.09753478 0.021042997
-0.03446634 0.022623973 0.08302898 -0.013920308 0.061773475 -0.032590147 -0.016644508 0.0387711
-0.015658274 -0.025521852 -0.06558161 -0.079432204 0.027622884 -0.04206597 0.028847594 -0.06337463
-0.051181685 0.06429811 -0.06849188 0.033245392 0.036778063 0.057125382 -0.072904706 0.10330958
0.025738211 0.017786644 -0.05835698 -0.068251535 0.07297817 -0.04425525 -0.054198395 -0.03854642

projection_layer.0.bias f4 [128]
00000000: 668a 21bc 8866 1a39 9a93 98bc c4b8 c63b
00000010: c109 87b8 7d2f 19b9 92c1 8e3c df09 0338
00000020: 48b3 0e3b fb5b de38 5a23 8dbc eb7d 483c
00000030: 4089 1639 7ddf 5d39 d1ff 0b39 febd 18bb
00000040: 1dab 363c 2f7e 633b 45b1 6d38 3008 4138
00000050: b7c8 91bc 148e 56b8 58d0 9638 0466 a6b8
00000060: 3ee8 54bc 32bb 9e39 0f27 b6b7 6133 d7bb
00000070: 08cc 8ebb 8b81 be38 d709 7abc a92e 05bc
00000080: 4e21 673c 3250 233c b85a 903c c87c b53a
00000090: d7fa 413b 75c4 86b9 a3fe 7e3c 69ca 8e37
000000a0: 53a2 763c 6bb0 553b b928 50bc 73b2 3c39
000000b0: 98d9 2bbc 8868 51ba 63f4 f43b a25d 8d39
000000c0: 6c23 9fb8 0123 6f39 c918 79bc be37 12b9
000000d0: 80e5 47b9 8607 e9b8 a9b1 8b3b 145f 6cb9
000000e0: a768 b338 ee97 3c3c d3cb 9aba b99a 233c
000000f0: da26 4139 1746 beba 545e 4eb9 5bf6 a4b6
00000100: 9631 edba 5071 8d3c 6f2c 42b9 0fd6 d33b
00000110: dd7b 5bb8 6610 9037 b0b0 7738 208a 0d3c
00000120: 3d1c 0bbc 60c3 b439 554d 6e38 7522 95bb
00000130: 34c9 c9bb e51c 973b bf40 8abc 3189 3c39
00000140: 4382 bf3a 4f0f 6438 78ef 9f37 e0b8 3abc
00000150: c879 7b3b e404 90bb c2c3 953c 2910 0d3c
00000160: 4820 24bc 1547 743c edd6 c6b8 d0e1 66bc
00000170: 5065 a938 3c13 3739 06d9 a6ba f1a9 2bbc
00000180: b5a5 5dbc be09 2cbb d92d 83bb a2ed f4b8
00000190: 03e0 5d3c cab8 8f3c d00a 3a39 c725 863c
000001a0: cc2e cf38 c138 123c 73ca 35bc 5395 49b9
000001b0: 5216 6eb8 ea33 cabb c49e 86b9 6bf2 07bc
000001c0: 130f 973b 59a0 1939 78a8 033a 2a22 2bbc
000001d0: 02cb 1c39 f23a 03b9 c908 69b9 e0ce ecbb
000001e0: 89ba 1839 b03e 3db9 ed15 6437 db61 203c
000001f0: bf21 aabb 8ea2 afb8 6043 3f39 f2b3 29bc
-0.009859657 0.0001472478 -0.01862507 0.0060645062 -6.4391184e-05 -0.00014608908 0.017426286 3.1242027e-05
0.002177434 0.000106029176 -0.017228771 0.012237052 0.00014356244 0.00021159458 0.00013351372 -0.0023306604
0.011149195 0.0034712662 5.66703e-05 4.602241e-05 -0.017795904 -5.1153896e-05 7.1913644e-05 -7.934499e-05
-0.012994824 0.0003027558 -2.1714279e-05 -0.006567404 -0.0043578185 9.084035e-05 -0.015261135 -0.0081288
0.014107062 0.0099678505 0.017621383 0.0013846392 0.0029598975 -0.00025704844 0.01556364 1.7021974e-05
0.01505335 0.0032606374 -0.012705022 0.00017995555 -0.01048889 -0.00079882937 0.007475422 0.00026963378
-7.588309e-05 0.00022805856 -0.015203663 -0.0001394441 -0.00019063614 -0.00011111707 0.004263122 -0.00022542133
8.554878e-05 0.011510832 -0.0011810012 0.009985619 0.00018420388 -0.0014516738 -0.00019680831 -4.9162604e-06
-0.0018096443 0.017265946 -0.00018517835 0.0064647268 -5.2329025e-05 1.7173774e-05 5.9053942e-05 0.008638889
-0.008490619 0.0003447784 5.6815643e-05 -0.0045512267 -0.0061580185 0.004611599 -0.016876576 0.00017980185
0.0014610965 5.4373693e-05 1.9065788e-05 -0.011396617 0.0038372148 -0.0043951143 0.018281821 0.00860981
-0.010017462 0.014909525 -9.481409e-05 -0.014091924 8.077419e-05 0.00017459405 -0.0012729473 -0.010477529
-0.013528277 -0.0026250924 -0.004003268 -0.00011679089 0.013542178 0.017544169 0.0001774237 0.016375436
9.879246e-05 0.008924664 -0.011095631 -0.00019224481 -5.676441e-05 -0.0061707394 -0.0002567676 -0.008297543
0.0046099513 0.00014650951 0.0005022357 -0.010445157 0.00014952946 -0.00012515092 -0.00022223884 -0.00722681
0.0001456534 -0.00018047797 1.3594964e-05 0.009788956 -0.005192011 -8.3749284e-05 0.00018240279 -0.010357844

projection_layer.1.weight f4 [128]
00000000: cf41 7f3f c309 7a3f b967 7e3f 89dc 803f
00000010: 4df6 813f e20a 7e3f cc02 803f b1c3 7d3f
00000020: b6fa 803f 4322 813f 0409 813f 89db 823f
00000030: 1674 803f 2aeb 813f eda0 7f3f dde3 813f
00000040: 7fad 7d3f e0e2 813f da7c 823f 6f81 823f
00000050: 8faa 803f 97cd 803f cf2f 7f3f bc89 803f
00000060: 42b1 813f a1c1 7b3f d3f7 803f 8062 7a3f
00000070: 6c9e 7d3f f029 803f eb66 823f fa64 823f
00000080: 9c9a 823f 7982 823f f96a 833f 527d 803f
00000090: ab83 7f3f 891d 833f 407a 813f 2dc5 7e3f
000000a0: 6b77 7e3f 8b0b 853f 126e 803f 36ee 7d3f
000000b0: ebbf 7e3f 1dfa 803f bb8d 813f f536 823f
000000c0: 2bc1 813f 01eb 823f 1960 813f 7c39 823f
000000d0: ef32 813f c521 813f 467b 803f 0f4c 813f
000000e0: abd1 7e3f 1bbf 823f 0fb6 823f 1fff 783f
000000f0: 1112 813f 3596 803f ef47 7e3f ff86 803f
00000100: 95f3 803f 6bec 7e3f f0c2 7f3f a65a 823f
00000110: 3c53 803f 7409 843f 8191 813f d2b3 7b3f
00000120: 1ef2 813f 8fb7 813f e183 813f 2d0a 7b3f
00000130: fb70 843f 9d9e 833f 9484 7e3f 4624 813f
00000140: 004a 833f a057 803f d219 813f 7547 7a3f
00000150: b5dc 803f 0286 813f 2f9c 823f 635d 803f
00000160: 9d30 7d3f 3066 7b3f c79d 813f 5b7d 813f
00000170: 1870 803f a885 813f 4741 833f 4d5f 813f
00000180: 0ef2 823f 0115 7d3f cb0a 7e3f a503 803f
00000190: 5ca6 7e3f 389d 7f3f f14f 813f d4d3 803f
000001a0: ea8c 823f 0aa2 803f 58e8 7d3f dfd3 803f
000001b0: 5a79 833f b577 803f fee7 813f 028e 7d3f
000001c0: c47e 833f 0d1c 813f 211c 823f 2d04 833f
000001d0: c67f 833f 8ca4 813f 5456 813f 3ca5 813f
000001e0: 7e17 823f 2478 803f 5c1d 833f a6de 803f
000001f0: 3c16 803f cb11 843f e572 803f a057 7f3f
0.9970979 0.97671145 0.9937702 1.0067302 1.015329 0.99235356 1.0000854 0.99126726
1.0076511 1.0088581 1.0080876 1.0223247 1.0035427 1.0149891 0.9985493 1.0147663
0.9909286 1.0147362 1.0194352 1.019575 1.005205 1.0062741 0.99682325 1.0042033
1.013222 0.9834233 1.007563 0.9780655 0.9906986 1.0012798 1.0187658 1.0187066
1.0203433 1.0196067 1.026702 1.0038245 0.99810284 1.0243388 1.0115433 0.99519616
0.9940097 1.0394148 1.0033591 0.99191606 0.99511594 1.0076329 1.0121378 1.0173022
1.0137075 1.0227968 1.0107452 1.0173793 1.0093669 1.0088431 1.003762 1.0101336
0.9953868 1.0214571 1.021181 0.97264284 1.0083638 1.004584 0.9932851 1.0041198
1.0074335 0.99579495 0.99906826 1.0183914 1.0025401 1.0315385 1.0122529 0.9832126
1.0152013 1.0134143 1.0118371 0.980624 1.0346979 1.028278 0.9942105 1.0089195
1.0256958 1.0026741 1.0086005 0.97765285 1.0067354 1.0119021 1.0203913 1.0028499
0.98902303 0.982028 1.0126275 1.011638 1.0034208 1.0118914 1.0254296 1.0107208
1.0230119 0.98860174 0.9923522 1.0001112 0.99472594 0.9984927 1.0102521 1.0064645
1.0199254 1.004945 0.99182653 1.0064658 1.0271409 1.0036532 1.0148923 0.9904481
1.0273061 1.0086685 1.0164834 1.0235649 1.0273368 1.0128341 1.010447 1.012855
1.0163419 1.0036664 1.0243335 1.0067947 1.0006785 1.031793 1.0035063 0.9974308

projection_layer.1.bias f4 [128]
00000000: 947e 5bbc 82b4 ddbc 8098 96bc b4fe a3bc
00000010: 365d a4ba cf05 a1bc 47e7 c53a e6cc 9fbc
00000020: da24 2ebc e483 663b 7d2d 57bc 8417 6bb9
00000030: 70d6 8dbc 454d 9a3a c58d dabc 586b a6bb
00000040: a8de 31bd e82e 2abc ff59 a5bc ed7a 613b
00000050: f53b 09bb 3d24 f0bb 08af f33a 10cc 64bc
00000060: 1e64 56bc d941 6fbc 82d7 293a 69b7 a5bc
00000070: bfce bb3b 8c3f bcbc 2884 46bc 3117 f93b
00000080: 6ecb 57bc cf9c a5bc 0e85 60bc c6fa 24bc
00000090: 8d76 62bc a223 91bc d7a4 98bc afb4 b0bb
000000a0: 331b 83bc e579 3e3c caf2 f7b9 de2d 2dbc
000000b0: ad00 0fbc dde0 21bc 44e3 07bc f9c8 043b
000000c0: 4682 55bc 7c65 99bb 662c 95bc dee1 1ebb
000000d0: 7d25 a1bc 27fc 0dbb e13d 6fbc 01b3 0bbd
000000e0: 3031 02bc 2f69 46bc 9f46 c5bc dac4 b7bc
000000f0: 21f6 b739 56f9 14bc 9b84 c8bc d603 083b
00000100: 5ca8 c7bc c729 d2bc 9770 373b 94dc fa3b
00000110: 3844 fcbb a23e 25bb 7ed2 b9bb 9843 d1bc
00000120: b8b5 d33c 3aba 8f3b 27dd 08bc 7aec 9ebc
00000130: 588b 01bc 709c 53bc dfad b7bc 0c26 a5bb
00000140: 01bb 37bc dc5b f4bb 09fa 23bc df9d 1abd
00000150: b94f adba ac20 20bc 7a07 3dbc 16bd 3abc
00000160: 8bac ad3a 9cb4 fcbc aa6f eabc abcc a2bb
00000170: 151a 78bc 6338 45bc 8ed6 aebc f446 763b
00000180: 7995 afbb 9557 42bc bdd1 48bb cf37 e8bc
00000190: 4fb5 24bc ce2d 85bc 4b41 1b3b e2f9 f0bb
000001a0: f0e7 25bc 8adc 19bc 0dd3 87bc 6a06 59bc
000001b0: 5524 3f3c c279 debc 134c 06bc f4a8 05bd
000001c0: badb 40ba 9191 cdbc f39f a3bc 5800 c23c
000001d0: de98 74bc 18b5 3fbb 873e 8fbc 4e91 fcbc
000001e0: 1dba 09bc cf36 c7ba 2f6b aebb 9ab8 1cbd
000001f0: 2663 b0bc 35b6 f93b e337 ebbc f0d7 0dbb
-0.013396878 -0.027063612 -0.018383265 -0.020018913 -0.0012539986 -0.01965609 0.0015098833 -0.019506883
-0.010628903 0.0035173828 -0.013133404 -0.00022420107 -0.017314166 0.0011772296 -0.02667893 -0.0050787143
-0.043425232 -0.01038716 -0.020184515 0.0034405545 -0.0020940278 -0.0073285387 0.0018591592 -0.013964668
-0.013085393 -0.014603102 0.00064789515 -0.020229058 0.005731433 -0.02297952 -0.012116469 0.0076016416
-0.01317106 -0.020216374 -0.013703598 -0.010069555 -0.01382221 -0.017717186 -0.01863329 -0.005392633
-0.01600418 0.011625742 -0.00047292403 -0.010570018 -0.008728188 -0.009880272 -0.00829393 0.002026139
-0.013031548 -0.0046812873 -0.018209647 -0.0024243514 -0.019671196 -0.0021665187 -0.014602155 -0.03410626
-0.0079462975 -0.012110039 -0.024081526 -0.022432733 0.0003508786 -0.009092649 -0.024477294 0.002075424
-0.024372272 -0.025654687 0.0027990693 0.0076556895 -0.007698562 -0.0025214334 -0.0056708446 -0.025544927
0.025843486 0.0043862136 -0.008353508 -0.01939987 -0.007906757 -0.012915716 -0.022421775 -0.005039936
-0.011214019 -0.0074572396 -0.0100083435 -0.037748214 -0.0013222612 -0.009773415 -0.011537427 -0.011397621
0.0013250274 -0.03084784 -0.028617699 -0.004968246 -0.015142937 -0.012037369 -0.021342542 0.0037578912
-0.0053583947 -0.0118617015 -0.0030642592 -0.028346924 -0.010052993 -0.016257193 0.002369004 -0.007354007
-0.010126099 -0.0093909595 -0.016580129 -0.013246158 0.011666377 -0.027157668 -0.008196848 -0.03263183
-0.00073569606 -0.025093826 -0.01997373 0.023681805 -0.0149290245 -0.0029252227 -0.01748587 -0.030831005
-0.008406189 -0.0015198829 -0.005322836 -0.038261987 -0.021531653 0.0076205977 -0.028713172 -0.0021643601

projection_layer.1.running_mean f4 [128]
00000000: 5128 9ebd 3402 2e3c 45dc 3dbd 1acd 293c
00000010: 1049 153d 3b7e 56bc d00e 733b 88a1 33bb
00000020: 6a31 393b 43eb 67bb 7b8c 7bbd 37ba 1fbd
00000030: c841 593c 5a8c 24bd c3e9 1a3b d917 eb3c
00000040: f21b 223c 0c82 0e3d db24 58bc 4aaa 71bd
00000050: 43a8 8cbc 48cc 69bd b6be 0cbc 5fd8 133d
00000060: 23f8 d9bb cbe7 c33c fd2a f7bc b8e5 263c
00000070: 0d11 8dbc f7b1 ac3d 039a ea39 2260 203c
00000080: 7f63 81bc b13d a63d 3700 e33c 08d2 c6bc
00000090: b4e2 783c 7bc0 c4bc 2a6c 913c 7066 93ba
000000a0: 9478 4cbc 5176 853c 12b4 3cbd ec9d 573c
000000b0: 1cfe 2abc 4cbc 3bbd f9e2 453c b9bb c73c
000000c0: ff38 e2bc 7696 0cbd 6cef 04bd 75e8 a3bc
000000d0: 84e9 31bd 6b4b 0f3d d788 df3c 8ac0 4bbd
000000e0: ecf9 ff3c 7353 47ba 7a3c be3c 08fd 8c3d
000000f0: c6eb f6bc c289 9cbd 45a6 cbbc 8d73 693c
00000100: 683c b9bd 7a6f 0fbd d0aa 9c3c 8615 003d
00000110: 64f7 d5bc cf30 22bd 98fe 34bd 8083 07bc
00000120: 863b 0dbd c8f7 3fbc b979 08bd f43f 81bd
00000130: 4ffc 0abc 8ed6 163c b008 9fbd cfec 34bb
00000140: b2bb 1d3d e07a 3dbd 522d 53bc 764c 58bc
00000150: 7e79 15bd 35e4 f5bb f485 6d3d 59c8 24bc
00000160: 5691 873c af9f e33b 4800 8bbc a256 c3bd
00000170: 9174 dcbc b3d7 c03c 713a 24bd 676f 353c
00000180: ff97 353c f04e 44bd b2b2 16bd 7d3f d3bc
00000190: 36b0 553c a1bf a13d 0030 87bc b3de 5e3c
000001a0: cd30 9cbc 13ce 6b3d 01eb f1bc 6201 153d
000001b0: 9a7c 873b 73e2 a5bb c548 9cbd 585b 55ba
000001c0: e68e 3e3d 416b bcbc 0556 703c 93ed bdbc
000001d0: 206a f7bb 18a3 373d e5db 0b3c 0a8b 51bd
000001e0: e353 983d ede7 13ba a157 5fbc 9719 573d
000001f0: feb0 683c 381c 003d c071 b53c e389 a1bc
-0.077225335 0.010620642 -0.046352644 0.010363841 0.03644663 -0.013091619 0.0037087686 -0.0027409513
0.0028258213 -0.003538803 -0.06141327 -0.038995948 0.013260312 -0.040172912 0.0023637868 0.028697895
0.009894358 0.03479199 -0.013192381 -0.05900029 -0.017170077 -0.057079583 -0.008590391 0.03609502
-0.0066518947 0.023914238 -0.030171866 0.010186605 -0.017220045 0.084323816 0.00044746706 0.009788545
-0.015794514 0.081172355 0.027710063 -0.024270073 0.015190769 -0.024017563 0.017751772 -0.0011245739
-0.01247992 0.01629177 -0.046070166 0.01316021 -0.010436561 -0.04583387 0.01207804 0.024381505
-0.027615068 -0.03432318 -0.032454893 -0.020008305 -0.04343559 0.034984034 0.02728693 -0.049744166
0.031247102 -0.00076036825 0.023222197 0.068841994 -0.030141722 -0.07643463 -0.024859557 0.014248741
-0.09044725 -0.03501842 0.019124418 0.031270526 -0.026118942 -0.03959733 -0.044188112 -0.008271098
-0.034480594 -0.0117167905 -0.03331921 -0.06311026 -0.008483007 0.009206427 -0.07765329 -0.002760697
0.03850908 -0.04625976 -0.012889223 -0.013201823 -0.036492817 -0.007504011 0.057989076 -0.010057532
0.016548794 0.006946526 -0.016967908 -0.09538008 -0.026911052 0.023540353 -0.040094797 0.011073924
0.011083602 -0.047926843 -0.03679151 -0.02578711 0.0130425 0.078978784 -0.01650238 0.0136029
-0.019066239 0.057569575 -0.029531004 0.036378272 0.0041347267 -0.0050623952 -0.07631067 -0.00081389165
0.046522997 -0.023000361 0.014668946 -0.023184573 -0.007550493 0.044833273 0.008536314 -0.05115799
0.07437875 -0.00056421646 -0.013631732 0.05251464 0.0142023545 0.03127691 0.022148967 -0.01971907

projection_layer.1.running_var f4 [128]
00000000: 8722 613e 92cd 2c3e 762a 463e 777c 233e
00000010: ed14 403e 040f fa3d ca26 f43d 9059 e93d
00000020: b834 da3d 5962 193e 9aad a73d 50cf db3d
00000030: 1a64 b43d cc7d e33d ac4a d03d 55ee ea3d
00000040: a15e aa3d 61ce 1a3e 41d0 0e3e d593 053e
00000050: c288 153e 5b69 223e 638c 063e 8561 c43d
00000060: bdee 2b3e 2773 d73d 3924 053e c140 3b3e
00000070: 9c12 003e 8067 563e ee42 a83d 5a22 253e
00000080: 37fd df3d d87c 633e e1d9 fd3d 723e 063e
00000090: 885b 183e a2b2 003e fcf4 103e af38 2c3e
000000a0: 081e e43d b888 aa3d d033 4a3e 87bc 1f3e
000000b0: 6606 173e 8905 303e 97f2 0f3e 44cf f63d
000000c0: 34e7 063e 45f5 033e 05b7 df3d 7f13 383e
000000d0: e2e5 bf3d ece0 db3d e198 cf3d cad9 de3d
000000e0: 3af0 013e abde 043e abfa ce3d 5cae 8d3d
000000f0: 83f1 0a3e 93f8 1a3e a89e 013e 8d14 fb3d
00000100: 3af5 da3d b135 dc3d 4bcc 353e 13f6 fb3d
00000110: 3838 d23d 3bca eb3d ed81 243e ed5f 323e
00000120: 2faf 643e 1b51 403e 4f60 693e 6abd ec3d
00000130: 3c68 f13d 49f5 213e e492 023e 51cd 1e3e
00000140: 6a2c da3d e4c1 2f3e e5c9 603e a4cf 1c3e
00000150: 31a4 ee3d f4fa c63d 3943 ea3d f84c d43d
00000160: bfb0 1f3e 697f e63d 0ec8 163e 29c9 403e
00000170: e4bd 2d3e 2609 013e c671 b03d 354b 0b3e
00000180: f7f7 cc3d 4f5a df3d fc6a 263e f269 e93d
00000190: f4ab 243e 428d 243e 00ad d73d 39af ea3d
000001a0: 4d72 003e 5a17 ac3d 8e57 5a3e b7e4 113e
000001b0: f641 1e3e bab9 283e ac07 d63d 19db fa3d
000001c0: 72b4 b33d 2fe8 113e baf0 f53d b311 153e
000001d0: 8609 073e 58ee ec3d 2e44 073e 4641 3e3e
000001e0: 90c0 0f3e cae6 113e 9455 d03d 9864 993d
000001f0: 1d47 d33d c65d d93d c677 133e 1786 1a3e
0.21985827 0.16875294 0.19352135 0.15965448 0.18757983 0.12209895 0.11921461 0.11394036
0.106545866 0.14978923 0.08187409 0.10732901 0.08808155 0.11107978 0.101704925 0.114712395
0.0831883 0.1511779 0.1394663 0.13044675 0.1460295 0.15860502 0.13139491 0.09588913
0.1679029 0.105200104 0.13002099 0.1828642 0.12507099 0.2093792 0.08215891 0.16126385
0.10936969 0.22215593 0.12395073 0.13109758 0.14878666 0.12568143 0.14155954 0.16818498
0.111385405 0.08326858 0.19746327 0.15599261 0.14748535 0.17189611 0.14057384 0.120512515
0.13174134 0.12886532 0.1092358 0.17976187 0.093700185 0.1073626 0.10136581 0.10881384
0.12689295 0.12975566 0.10106405 0.06918022 0.13568692 0.15133886 0.12658179 0.12259779
0.106913045 0.10752428 0.17753713 0.12302794 0.10264629 0.11513182 0.16065188 0.17419405
0.22332452 0.1878094 0.22790645 0.11559565 0.11787459 0.15816225 0.12751347 0.1550801
0.106530026 0.17163807 0.21952017 0.15313584 0.11652411 0.09715834 0.11438603 0.10366243
0.15594767 0.1125477 0.14724752 0.18826737 0.16966969 0.12601146 0.086154506 0.13602908
0.10008233 0.10905897 0.16251749 0.113971606 0.1608122 0.1606951 0.10531044 0.11459202
0.12543602 0.084028915 0.21322462 0.14247404 0.1545485 0.16477099 0.10450682 0.12248821
0.087746516 0.14248727 0.120088056 0.14557533 0.13187227 0.11568898 0.13209602 0.18579587
0.140383 0.14248195 0.10172573 0.0748989 0.10316298 0.10613589 0.14401159 0.15090214

projection_layer.4.weight f4 [128, 128]
00000000: 58a9 8dbd 9f02 723d b38a 2c3d 98b2 d03c
00000010: 9714 b23d 3ae7 55bd 983f 7cbd 4ab2 263d
00000020: 5ec1 4cbd 03f9 1a3b b863 81bd 4920 9d3d
00000030: b67b 7c3d a5ec 033c f0c6 d33c 6558 58bd
00000040: 5ebf aebc de47 c7bc c95f 7fbd c197 c53d
00000050: 2bdb 3f3d 90b4 163c 4892 853d 056a 81bd
00000060: 39e9 803c e85c d7bc 88c1 a5bc 3b86 5abd
00000070: 7e6d 27bd 6702 a0bd 5361 eaba ad8e c1bd
00000080: d2f9 8d3d d71e 8bbd e57b 02bd a0e4 c33b
00000090: 095b 6f3d 2278 5abc c356 afbd eb57 2f3d
000000a0: 1502 adbd f172 893d 89ce a3bd b1c1 0b3c
000000b0: d9f7 323d d5f9 4ebc 42a1 02bc fdac b7bd
000000c0: f094 353d 7d18 8f3d 9373 fa3c f764 9fbd
000000d0: ae66 5d3d 2710 aabd 9171 f5bc 7bd0 9d3d
000000e0: 4399 c7bc 2bd5 a33d 1126 92bd c4a6 17bd
000000f0: 042c 8a3d a4eb bf3d 9de6 6f3d 3881 b5bd
00000100: 5b41 653c 742d 1cbd 14b7 ac3d efc6 713c
00000110: 57fc c03c 1473 e1bd 17ca 453b 1358 4e3d
00000120: 966a 3cbc 5495 013d e930 2abd 7fc6 ed3c
00000130: eee9 0ebd 4ab6 51bd 3df6 e6bc c00b b03c
00000140: 6fc0 84bd 208d cf3c 39c6 21bc 0c0e a13d
00000150: 35b4 92bd 84ae 67bd ee46 bcbb 553a 483d
00000160: ae46 57bd eb9f 6cbd 74cb 663c b562 11bd
00000170: 4994 8abd 512f 54bd 382a 943c 5ec3 713d
00000180: 9689 11bc f458 4cbd 653b 453d 7a9e 9e3d
00000190: 1c39 d9bc 2aff 8f3d e9e1 613d 73c9 d5bc
000001a0: 4be6 b4bd f1d7 7e3d c2bd ea3c 2bcd 1abd
000001b0: 8c10 9bbd 7ba0 0bbd e612 7a3d 4726 603d
000001c0: acd6 c2bc 17bd ba3b dcd5 09bc 868e 03bd
000001d0: 959e a3bd 8add a33c c839 473d d332 1b3d
000001e0: 2510 7d3d 82e2 26ba b75e 36bd 795f 273d
000001f0: f6de 0a3d 2988 483c ff84 733d 6426 b8bd
00000200: 5061 a9bc d914 f1bb 8402 703d 9656 383d
00000210: b295 3bbd 12cf fabc d798 c53c 7aba c9bc
00000220: 15d5 423d 7c6a 9fbd c0b6 aa3b ee09 c7bc
00000230: 4b84 27bd d2d3 3a3d 872d ca3b e336 a9bd
00000240: 65d8 84bc 6c38 1ebc a812 2b3c 8e6d 773d
00000250: e0eb 363d 5ba2 b8bd fef3 0b3d ba55 5d3b
00000260: 7eac b3bd f132 1abd 5ba4 b6ba 466d 6a3d
00000270: 10a4 b33b d999 713d a5ce 6139 f597 a93d
00000280: 57fd cb3c 1697 3e3d 9598 b03a dff7 6b3c
00000290: 20fd 8a3d efd1 47bd b4ea 7f3d 6fa3 0ebc
000002a0: 9775 073d d19d 98bd a1f4 843d a1ff 0abd
000002b0: bf77 1bbc 78d7 aabd 45fe eebc b633 82bd
000002c0: a7d5 b6bc 0c0d 0c3c f5e6 7abd 5c4d 1c3d
000002d0: 03a9 823d 03f5 adbb f1ff e83c 28a0 ac3d
000002e0: 77f1 8b3d 7b9c 2fbd 3863 e13b ccbb 9d3d
000002f0: fda1 96bd 3e30 363d b089 a3bd b68e 2fbc
00000300: 3579 5cbd bf2a 8f3d fbb3 10bd 7f41 78bb
00000310: 2c72 023d fb5c 293d 7659 2d3d defa 37bd
00000320: bbb3 7fbd 3405 193d 7cd8 913d 903a 8dbd
00000330: a97d 203d d062 5e3d a550 d2bc 0d10 d0bc
00000340: d065 e9bb 9755 823c a383 3f3d 3cb5 8fbd
00000350: 6c6b b5bd 4805 91bd 0784 b0bc 3b3e 093d
00000360: 8e89 a43d 6a98 053d 288c 8bbd 05b9 89bd
00000370: 4d61 bebd a8a8 a03b 50ac c4bd 2ab4 69bd
00000380: 2f75 623d a3c7 8c3d 9d4e ae3d 34ea a6bd
00000390: 40e9 5a3d 66a4 993d a762 823c 10ab b3bc
000003a0: febe 2b3d 40bd 9e3d d17d 823d eb14 c63c
000003b0: 9364 b33b 3e1c c6bd 7d00 03bd 7829 6ebc
000003c0: 4ac4 bb3c b159 123d 580d b5bc e46c 753c
000003d0: ce2a 1bbc f1a3 96bc dbd4 a439 4169 a83c
000003e0: 259b 8fbb 5a1e 823d 47e4 aabd 4022 38bc
000003f0: bab5 473c 2150 033d 968a 45bc 183b f7bc
-0.069170654 0.05908453 0.04212446 0.025475785 0.086953335 -0.052222468 -0.061584085 0.040697373
-0.049989097 0.0023646958 -0.06317848 0.076721735 0.061641417 0.008052026 0.025851697 -0.052818675
-0.021331485 -0.024326261 -0.062347207 0.096480854 0.046839874 0.009198323 0.065220416 -0.0631905
0.01573621 -0.026289418 -0.020233884 -0.05335067 -0.040875904 -0.07812958 -0.0017881788 -0.09451041
0.06932415 -0.067929916 -0.031856436 0.005978182 0.058436427 -0.013334306 -0.0856147 0.042808454
-0.08447663 0.067113765 -0.07998378 0.008530066 0.043693397 -0.012632807 -0.007973017 -0.08968542
0.04433149 0.06987093 0.030572688 -0.077829294 0.054053 -0.08303862 -0.02996138 0.0770578
-0.024365073 0.07999643 -0.07136167 -0.037024274 0.067466766 0.09371117 0.05856954 -0.08862537
0.013992633 -0.038129285 0.08433357 0.014756902 0.023557825 -0.110082775 0.003018027 0.050376963
-0.011500021 0.03163655 -0.04155055 0.029025314 -0.03489106 -0.051199235 -0.028193587 0.021489978
-0.06482016 0.025335848 -0.00987392 0.07864007 -0.07163278 -0.056562915 -0.00574576 0.048883755
-0.05255764 -0.057769697 0.014086593 -0.035494525 -0.067665644 -0.051802937 0.018086538 0.059024207
-0.008882901 -0.04988952 0.048152346 0.07745071 -0.02651649 0.070310906 0.055147085 -0.026097035
-0.088329874 0.062217657 0.028654937 -0.03779332 -0.075715154 -0.034088593 0.06105318 0.054724004
-0.023784004 0.005698811 -0.008412804 -0.032118343 -0.079892315 0.020003099 0.04863909 0.037890267
0.061782975 -0.000636615 -0.04452392 0.040862534 0.03390404 0.012239494 0.059453007 -0.089916974
-0.020676285 -0.0073572216 0.05859615 0.04500445 -0.045797057 -0.030616317 0.024120731 -0.024625052
0.047566492 -0.07783982 0.005209774 -0.024296727 -0.04089765 0.045612164 0.006169978 -0.08262422
-0.016216466 -0.009657007 0.01044146 0.060407214 0.04465854 -0.09015342 0.034168236 0.003377302
-0.08773135 -0.037646238 -0.001393448 0.057233118 0.0054822043 0.05898461 0.00021534653 0.08280937
0.024901075 0.046530806 0.0013473207 0.014402359 0.06786561 -0.048784193 0.06247969 -0.008705958
0.033071127 -0.07451976 0.06491972 -0.033935193 -0.009488999 -0.08341879 -0.02917398 -0.06357519
-0.022318674 0.0085480325 -0.061255414 0.038159713 0.06379893 -0.0053087487 0.028442355 0.08428985
0.06833165 -0.04287384 0.006878283 0.07701835 -0.073551156 0.0444796 -0.07985246 -0.010715177
-0.05382653 0.06990575 -0.035327893 -0.0037880836 0.031847164 0.04134844 0.042321645 -0.04491698
-0.062427264 0.037358478 0.07121369 -0.068959355 0.03918234 0.054293454 -0.02567322 -0.025398279
-0.0071227327 0.015909953 0.046756398 -0.070169896 -0.0885838 -0.070810854 -0.02154733 0.033506613
0.08034049 0.032616057 -0.06813842 -0.06724743 -0.092959024 0.004902918 -0.096031785 -0.057056583
0.055287536 0.06874015 0.08511088 -0.081501395 0.0534451 0.0750206 0.015916182 -0.021932155
0.04193019 0.0775094 0.06371654 0.024179896 0.005474636 -0.096733555 -0.031982888 -0.014536254
0.022920746 0.035730068 -0.02210109 0.014979575 -0.009470655 -0.01838872 0.00031439107 0.020558001
-0.0043825083 0.06353445 -0.08344322 -0.011238635 0.012189323 0.03205884 -0.012056967 -0.030179545

projection_layer.4.bias f4 [128]
00000000: 307e 913d 877e 49bd a66e a83d 6bd8 f1bb
00000010: 634b 26bc e4e8 3abd e459 8fbd 88d2 bd3c
00000020: a997 60bd 598b 3dbc 2eec e2bc b637 8b3d
00000030: ca6d b93c 7e19 1cbc 7f8d 8abd 18ce 5c3c
00000040: 2734 413d 2a4b 083d edb5 0f3d ff18 723d
00000050: a0df 883d 9da3 543c ce2d 893c 059c 28bb
00000060: e8ff de3b 9a25 14bd ae5c 993d 2d22 d1bc
00000070: fd2b c2bc dee3 66bd ac42 343d 1c44 6f3d
00000080: 4d6e 86bd bb0a 51bc a84a a5bd 9c96 713d
00000090: f472 023d ab75 d03c 4d5e e33c 909d ae3d
000000a0: cbb9 01bd b13c 9a3c a819 7e3d 9dd1 a2bd
000000b0: 54dc 96bd 13ab e63c 0da2 33bd f504 873a
000000c0: 9771 9e3b 935d a2bd 2151 663d d7ce 1dbc
000000d0: b8be 7c3d 356e 14bd 1fbd 9abd c330 99bd
000000e0: d0f4 a5bd a6ce 23bd ef13 abbc e323 86bd
000000f0: f5b1 c3bd 47ad 11bc 3e78 b6bb a059 583d
00000100: b742 35bd 6d04 9f3d bcf9 52bc 7c87 6fbd
00000110: 031f 963d e6fc 983c b8c2 2dbd 9d76 1f3d
00000120: 500c b73b 4181 8b3d 7737 d33c 0901 06bc
00000130: 102b bdbc 957c 98bc 67f5 67bd 4fcb 2dbd
00000140: 012a 1b3d 391a 2fbd 7d57 13bd 9d37 963c
00000150: d98f aabd 2028 6dbd 3e82 9abc c3a1 ddbc
00000160: 609f bd3c e1ac 43bb 3f8f a2bd a69e 963d
00000170: 3080 c7bd 5e5e ab3a a666 4bbd a152 1cbd
00000180: 6173 77bc 0a00 883c 94a8 b9bd 35b2 92bc
00000190: c59c 13bd 7e36 a3bd d4b7 a9bb 62ee 31bd
000001a0: 1312 65bd ede5 cdbd caf6 3abb be18 c03b
000001b0: 6cee 90bc 871c 69bd e960 763d 171f 02bd
000001c0: 1ae2 afbd 3397 53bd 6c07 7dbd 7895 89bb
000001d0: 78d8 28bd 70c8 38bd cd2a 6dbd 4b24 063d
000001e0: 5874 f3bb 75f3 9ebd 9fd6 a5bd 4d95 0e3c
000001f0: eaa1 7dbd 40a5 b83d 68ec aabc 1010 2d3d
0.071041465 -0.04919293 0.082242295 -0.0073805354 -0.0101498095 -0.045632258 -0.06999567 0.023171678
-0.054832134 -0.011568868 -0.02770051 0.067977354 0.02263536 -0.009527562 -0.067652695 0.013476871
0.047168877 0.033274807 0.035085607 0.05910587 0.06683278 0.012978462 0.016745474 -0.002572776
0.0068054087 -0.036168672 0.0748838 -0.025528992 -0.023702616 -0.056369655 0.044008896 0.058414564
-0.06564007 -0.012758906 -0.0807088 0.058981523 0.03184791 0.025446733 0.027754927 0.085261464
-0.031671327 0.018827768 0.062036186 -0.07950137 -0.07366243 0.028157746 -0.043855716 0.001030116
0.0048353183 -0.07928004 0.056229714 -0.009631834 0.06170532 -0.036237914 -0.07555603 -0.07480004
-0.08103335 -0.039991997 -0.020883529 -0.065498136 -0.09555427 -0.00889141 -0.005568533 0.052819848
-0.044253077 0.07764516 -0.012876924 -0.058478817 0.07330134 0.018675279 -0.042422026 0.038931478
0.0055861846 0.068117626 0.025783284 -0.008178958 -0.023091823 -0.018614093 -0.05663052 -0.04243022
0.037881855 -0.042749617 -0.035972107 0.018337065 -0.08328218 -0.057899594 -0.018860932 -0.027054673
0.023147285 -0.0029857683 -0.07937478 0.073544785 -0.09741247 0.0013074388 -0.04965844 -0.03816474
-0.015103192 0.016601581 -0.09065357 -0.017907241 -0.03603818 -0.07969378 -0.0051793847 -0.04344023
-0.05592544 -0.100536205 -0.0028528445 0.0058623245 -0.017691813 -0.05691197 0.060151014 -0.03176793
-0.08588047 -0.051657867 -0.061774656 -0.0041987263 -0.041222066 -0.045113027 -0.057902146 0.032749455
-0.0074296407 -0.077612795 -0.08097576 0.008702588 -0.06192199 0.09015894 -0.02086468 0.042251647

output_layer.weight f4 [1, 128]
00000000: 7434 95bc 24b2 b2bd cd5b a13d c095 b03c
00000010: 7f89 57bd 059d 513d 779f 783d 694b 66bd
00000020: cbdb 473c 3cbe 7d3d dbba 473d 873e cebc
00000030: b3e3 443d 236c 81bd 61d1 5bbd 44f0 c43d
00000040: bbb5 1dbd ec13 dcbc 2d75 ef3c 68d7 4a3d
00000050: 6022 b83d 9404 bcbd df03 cabd cb42 9dbc
00000060: 46e8 4abd 24f8 f23c 5628 4f3c da62 023d
00000070: 332f 4cbd ba5b e4bd bb36 cd3d fdc3 923c
00000080: 9951 853c ad4e 3c3c e731 abbd 2e7e 9b3d
00000090: ddea 8abc 80ce 30bd 2d08 c83c f9ce 7c3d
000000a0: 9e38 133d 540f 863d 7edf d63d 01b6 cf3d
000000b0: 621b 5e3c f606 9cbd c53c 4d3d c282 d93d
000000c0: 99f3 fc3c 80c5 9ebd 9be8 043d 77a7 9bbc
000000d0: cb5f 5a3c 0b86 6abd a71e 623c da0e 9f3d
000000e0: 91e8 853d 02e9 bdbd c28a 81bd 18b0 e3bd
000000f0: faee 873c bfe3 cf3d a20c cdbb 54d3 b5bd
00000100: 7966 90bd 276f 2ebd 9ecf 913d 296d 633c
00000110: bee9 68bd 664a 61bb 0e06 11bd 4b92 bfbd
00000120: 8de3 c63d ca89 373d e1ec 3cbd d45d 7e3d
00000130: 59d9 fc3c 1d86 cbbd a7f6 39bd c1e4 4abc
00000140: efff 59bd be5d 7a3d ae48 63bd 8c25 02ba
00000150: c8cf 98bd 45aa 6dbd 5029 b23d 7dab acbd
00000160: 59e5 96bd 7a5b 89bd 837f 913d c2a5 e83c
00000170: 2f20 a53d d8c8 b0bd a21d 853d 6e13 07bd
00000180: 88c3 cdbd 0ead aebd 8e89 d6bd 21f1 fd3c
00000190: 278e 503d 8e8b a93d fcc1 ba3d 697f eabc
000001a0: b855 663d 381b cf3b a962 893d f085 983d
000001b0: 9ccd 4a3c 3712 83bc 4877 54bd 0b02 b4bd
000001c0: 59cd 903d 510c aabd b981 843d c0b4 883d
000001d0: 0f44 af3c 3628 f7bc e553 a1bd a4f3 dbbc
000001e0: 5cad 573d ac40 313d de21 30bd 5d8c efbd
000001f0: 3bc0 c6bd 9c50 30bd 0d05 d0bd b154 943d
-0.018213488 -0.08725384 0.07878838 0.021555781 -0.05262136 0.051175136 0.060698953 -0.05622426
0.012198399 0.061949 0.048762184 -0.0251763 0.048068713 -0.063194536 -0.053666476 0.096161395
-0.03850339 -0.026864968 0.029230678 0.049521834 0.089909315 -0.09180561 -0.098640196 -0.019196888
-0.04953792 0.029659338 0.012643894 0.031832553 -0.0498497 -0.11150308 0.10020205 0.01791572
0.01627426 0.011493367 -0.083591275 0.07592426 -0.016957695 -0.043165684 0.024417961 0.061720822
0.035942666 0.06545892 0.104918465 0.10142136 0.013556333 -0.07618515 0.050106782 0.10620643
0.030877875 -0.07752514 0.032448392 -0.019000752 0.013328503 -0.05725674 0.013801253 0.077665046
0.06538499 -0.09272958 -0.06325294 -0.111175716 0.016593445 0.10150861 -0.0062576095 -0.08878198
-0.07050795 -0.042586472 0.07119678 0.013881006 -0.05686354 -0.003437662 -0.035406165 -0.09354075
0.097113706 0.04480914 -0.046124343 0.0621012 0.030865358 -0.099376895 -0.04540124 -0.012383641
-0.053222593 0.061124556 -0.055489235 -0.00049647014 -0.07461506 -0.05802371 0.08699286 -0.08431146
-0.07367963 -0.06706901 0.07104399 0.028399352 0.08062779 -0.08632058 0.06499793 -0.032977514
-0.1004706 -0.08529101 -0.10475455 0.030998768 0.050916817 0.08278571 0.09119031 -0.028625207
0.05623409 0.0063203834 0.06708271 0.074474216 0.012378123 -0.015999896 -0.051871568 -0.08789452
0.07070417 -0.083031304 0.06470055 0.066751 0.021394758 -0.030170541 -0.0787733 -0.026849575
0.052655563 0.043274567 -0.04300105 -0.11696694 -0.09704634 -0.043045625 -0.10157213 0.07242716
