Checkpoints/HR_V/valence_s17.pth (torch, 461905 bytes, 29 tensors)

input_layer.weight f4 [128, 29]
0	0x3d9cb322	0.07651354
1	0xbdfdf22c	-0.12399706
2	0x3dd1705f	0.10226511
3	0x3d4ec74c	0.050483033
4	0xbdf52ed1	-0.1197182
5	0x3dcf87a4	0.10133293
6	0xbde84333	-0.11340942
7	0xbe30b895	-0.17257912
8	0xbc77809f	-0.015106349
9	0xbd65cb51	-0.0561021
10	0x3e0cccbc	0.13749975
11	0x3cda088c	0.026615404
12	0xbe069737	-0.13143621
13	0x3e01e212	0.12683895
14	0x3dc6fb0c	0.09715852
15	0xbe3525fe	-0.17690274
16	0x3e3dce08	0.18535626
17	0xbe0f1266	-0.13971862
18	0xbe199961	-0.14999916
19	0x3d092aa5	0.033487935
20	0xbb6ff065	-0.0036611792
21	0xbdb093b9	-0.08621926
22	0xbd8896f9	-0.06669421
23	0x3c89f85d	0.016842062
24	0x3e156ebf	0.14593028
25	0x3e0244ac	0.12721509
26	0x3d3fc89e	0.046822183
27	0x3c36ce25	0.011157547
28	0x3e06cbdb	0.13163702
29	0x3e3ac774	0.18240148
30	0xbcc31001	-0.023811342
31	0x3e1932dc	0.14960808
32	0xbe1331d9	-0.14374484
33	0x3c7c694b	0.015405963
34	0x3e3e939a	0.18610993
35	0xbe0cd07f	-0.1375141
36	0x3db1f1ce	0.08688699
37	0xbdabc9d7	-0.08388107
38	0xbd84b48c	-0.06479749
39	0xbe006663	-0.12539057
40	0xbd229eb1	-0.03970212
41	0xbd7ecabf	-0.062205072
42	0x3dbd765a	0.092510894
43	0xbd3914be	-0.045185797
44	0x3df3732d	0.118872024
45	0x3d9f3efe	0.07775687
46	0xbe0cac7e	-0.13737676
47	0xbc5b3c15	-0.013381024
48	0x3d8b98e7	0.06816273
49	0xbdc98995	-0.09840695
50	0x3dd9cffd	0.10635374
51	0xbd9e4a7e	-0.07729052
52	0xbd92a8c1	-0.071610935
53	0x3e09b2ec	0.1344716
54	0x3d73544f	0.059406575
55	0x3dedb526	0.11606817
56	0xbd9456a1	-0.07243086
57	0xbdfde321	-0.12396837
58	0x3e2acb62	0.16679147
59	0x3d87c08b	0.066285215
60	0x3e1d7157	0.15375267
61	0x3e0a0a52	0.134805
62	0xbdd7759e	-0.105204806
63	0xbe22e5da	-0.15907994
64	0x3e3678af	0.17819475
65	0xbda352a1	-0.079747446
66	0x3d9573c1	0.07297469
67	0x3dedd7c4	0.1161342
68	0x3dce39c9	0.100696154
69	0x3daf20e7	0.085511975
70	0xbdab3f07	-0.08361631
71	0xba6fba9b	-0.0009144933
72	0x3d5bdd8f	0.05367809
73	0xbca65942	-0.020306233
74	0xbd8cd428	-0.06876403
75	0xbd9dc537	-0.07703631
76	0xbe383a6f	-0.1799104
77	0x3ccbb89c	0.024868302
78	0xbe358b63	-0.17728953
79	0x3e352de9	0.17693295
80	0xbe1451da	-0.14484349
81	0x3d875288	0.066075385
82	0x3b508cf5	0.0031822298
83	0x3d42a163	0.04751719
84	0xbcd6a046	-0.026199471
85	0xbc14c44c	-0.009080004
86	0x3c042952	0.008066492
87	0x3b7aabdc	0.0038249409
88	0x3e001588	0.12508214
89	0x3e21b6c6	0.15792379
90	0x3e02f5db	0.12789099
91	0x3c933b15	0.017972508
92	0x3e1838ca	0.14865413
93	0x3dabda3c	0.08391234
94	0xbdf4bedc	-0.11950466
95	0x3d9220db	0.07135173
96	0xbe0e5377	-0.13899027
97	0xbddab45c	-0.10678932
98	0x3d09b2e9	0.033617888
99	0x3ceafdfa	0.028685559
100	0xbe3693db	-0.1782984
101	0x3e1703e6	0.14747581
102	0xbe1c667a	-0.15273467
103	0xbcfe1550	-0.031016022
104	0xbb704b8d	-0.0036666126
105	0x3e066712	0.13125256
106	0xbdf31744	-0.11869672
107	0xbcd3f796	-0.025874894
108	0xbe17e7e4	-0.14834553
109	0x3e01fed8	0.12694871
110	0xbdecd68d	-0.1156436
111	0xbd990c01	-0.07472993
112	0x3d710a87	0.05884793
113	0xbd83e663	-0.06440427
114	0xbe3c2d82	-0.18376735
115	0xbd41b56b	-0.047292154
116	0x3c6b455d	0.014359799
117	0xbe08d58d	-0.13362713
118	0xbdc841c8	-0.09778172
119	0x3e3237c7	0.1740409
120	0x3dfade4a	0.122494295
121	0x3ceb5c2e	0.028730478
122	0x3d6fb28f	0.058519896
123	0xbe39a0ec	-0.18127793
124	0x3d01a64b	0.03165273
125	0xbd86286d	-0.06550679
126	0xbd2e80c2	-0.04260326
127	0xbddae5c0	-0.106883526
128	0xbdbd2c85	-0.09237007
129	0xbd88030b	-0.066412054
130	0xbd159db5	-0.036527354
131	0x3ce30722	0.027713362
132	0xbd3fd002	-0.04682923
133	0xbe17115a	-0.14752713
134	0xbe34eeac	-0.17669171
135	0x3dd5af3a	0.104338124
136	0x3e075c36	0.1321877
137	0xbe01b535	-0.12666781
138	0x3e31de2a	0.17369905
139	0xbe345d29	-0.17613663
140	0x3da64d64	0.0812023
141	0x3cff8449	0.031191008
142	0x3e2d57bf	0.16928004
143	0xbc2d0e28	-0.010562457
144	0x3ded9943	0.11601498
145	0xbc67d1a2	-0.014149101
146	0xbd12f253	-0.03587563
147	0xbcf8497d	-0.03030848
148	0x3d23de96	0.040007196
149	0x3e00f160	0.12592077
150	0xbe13c0a8	-0.14428961
151	0x3d47d582	0.0487876
152	0xbddf6fac	-0.109099716
153	0xbe19e3b6	-0.15028271
154	0x3e06fdba	0.13182727
155	0xbdb898d6	-0.09013526
156	0x3df9599a	0.12175293
157	0x3dd657d9	0.10465974
158	0x3dc65f0f	0.096861
159	0xbe1cae47	-0.15300857
160	0x3e079054	0.1323865
161	0x3e1ca5da	0.15297642
162	0x3e090103	0.13379292
163	0xbc80e6e5	-0.0157351
164	0xbd432545	-0.047642965
165	0xbe15d579	-0.14632215
166	0x3dcd40c7	0.10022121
167	0xbc292748	-0.010324307
168	0xbe3253ef	-0.1741483
169	0x3c7cf16b	0.015438418
170	0xbcd7e92a	-0.026356298
171	0x3e0066ad	0.12539168
172	0x3d876d40	0.06612635
173	0x3d71a3bf	0.05899405
174	0x3dfd4eee	0.1236857
175	0x3df55f5a	0.119810775
176	0xbdb990c3	-0.09060814
177	0x3e22b9f6	0.15891251
178	0x3d82c443	0.0638509
179	0xbe15c3db	-0.14625494
180	0x3cfb404d	0.03067031
181	0xbbffdbab	-0.007808169
182	0x3e2c195f	0.16806553
183	0x3e36b948	0.17844117
184	0xbe1d12f6	-0.15339264
185	0xbe37bbc7	-0.17942725
186	0xbe2b72be	-0.1674299
187	0xbd5b7645	-0.053579587
188	0x3e117297	0.14203869
189	0x3da9c706	0.08289914
190	0xbdf68b1a	-0.1203825
191	0x3da8eaa8	0.08247882
192	0xbdc3c4c0	-0.095590115
193	0x3e37a17c	0.17932695
194	0xbe053a8c	-0.13010615
195	0x3d8caeef	0.068693034
196	0x3d5469d3	0.051858734
197	0xbe3f06bd	-0.18654914
198	0xbe2254d1	-0.15852667
199	0xbcf4ad13	-0.029867684
200	0xbdd7a0dd	-0.10528729
201	0x3d18fd34	0.03735085
202	0x3d37db1a	0.044886686
203	0xbe1c15c8	-0.15242684
204	0xbc9960de	-0.018722948
205	0xbdd5aab0	-0.10432947
206	0xbe1c8fc5	-0.15289219
207	0x3e085311	0.13312937
208	0x3e3c9a09	0.18418135
209	0xbdbfe68e	-0.09370147
210	0xbd5d1d24	-0.05398287
211	0x3dd943c5	0.10608629
212	0x3d40d571	0.047078554
213	0xbe086fc4	-0.13323885
214	0xbb3f4af8	-0.0029188972
215	0xbdf0b59b	-0.117533885
216	0xbda266c2	-0.07929756
217	0x3c3f1ebf	0.011665045
218	0x3dfaf585	0.122538604
219	0xbd224264	-0.039614096
220	0xbe197191	-0.14984728
221	0xbe1c0ed9	-0.15240039
222	0xbd916c56	-0.071007416
223	0xbca396e2	-0.019969407
224	0x3cabc8b2	0.020969722
225	0x3db6551d	0.08902953
226	0xbdef068c	-0.116711706
227	0xbd892fe2	-0.06698586
228	0x3e30bd67	0.17259751
229	0x3d8eecbb	0.069787465
230	0x3dc43f5b	0.095823966
231	0x3e228723	0.15871863
232	0x3df830d0	0.12118685
233	0x3dbdd273	0.09268656
234	0xbde555b0	-0.11197984
235	0x3cc15d6a	0.023604114
236	0xbdd0222d	-0.101627685
237	0xbde686cd	-0.1125618
238	0x3e2d74ab	0.16939037
239	0x3da54d66	0.08071403
240	0x3e0ec86d	0.13943644
241	0x3e19efbd	0.15032859
242	0xbdf4dbfe	-0.11956023
243	0xbdf228a1	-0.118241556
244	0xbd9e79a8	-0.07738048
245	0xbe14ab11	-0.14518382
246	0x3e05bd01	0.1306038
247	0xbe3731e8	-0.17890131
248	0x3d8f2e7b	0.06991287
249	0x39d52797	0.00040656023
250	0x3d82e699	0.06391639
251	0xbdbb5405	-0.09146885
252	0xbe2d3c1e	-0.16917464
253	0xbdb23aa6	-0.087025926
254	0xbdcd52bd	-0.10025547
255	0xbcba416a	-0.02273627

input_layer.bias f4 [128]
0	0xbd1b18b1	-0.037865344
1	0xbd1427bb	-0.036170702
2	0x3da8646c	0.08222279
3	0xbe273e39	-0.1633233
4	0x3dee7388	0.116431296
5	0xbd805c51	-0.06267608
6	0xbe1fd16a	-0.15607229
7	0x3dc07ca5	0.09398774
8	0xbc9310e4	-0.01795239
9	0x3e077af4	0.13230497
10	0x3d694332	0.056948848
11	0xbca889a2	-0.020573441
12	0xbd2908c2	-0.041268118
13	0x3defcd50	0.11709082
14	0xbabc32f1	-0.0014358443
15	0xbe173eb7	-0.14770018
16	0xbcee5ee9	-0.029097991
17	0x3bcffce1	0.006347284
18	0x3e3055e6	0.17220268
19	0xbd74aedf	-0.059737083
20	0x3dc17418	0.09445971
21	0xbe08835c	-0.1333136
22	0xbd09798b	-0.033563178
23	0xbdec93d6	-0.11551635
24	0xbdf73c28	-0.12072021
25	0xbd814600	-0.063121796
26	0xbbfe19eb	-0.0077545545
27	0x3c8f4f71	0.017493935
28	0xbc898806	-0.016788494
29	0x3e154d04	0.1458016
30	0xbd26a30c	-0.040682837
31	0xbda8999d	-0.082324244
32	0xbd9ff4f5	-0.07810394
33	0x3cafb057	0.02144639
34	0x3d081e58	0.033232063
35	0xbd5bd2f7	-0.05366799
36	0x3d35376e	0.044242315
37	0x3d9ddca2	0.07708098
38	0x3d26180c	0.040550277
39	0xbdc7ce9b	-0.09756204
40	0xbe250d7a	-0.16118422
41	0xbe1043e0	-0.14088392
42	0x3e085d12	0.13316754
43	0xbd68b6c3	-0.05681492
44	0x3e2a8260	0.16651297
45	0x3e10fbcb	0.14158551
46	0x3decd63c	0.115642995
47	0xbb6a99fc	-0.0035797348
48	0x3ca9f829	0.020748215
49	0xbdd5829a	-0.10425301
50	0x3d588b0b	0.052866977
51	0x3e119f3d	0.14220901
52	0x3d975aa5	0.07390336
53	0xbe27cde2	-0.16387132
54	0xbe1d0bbc	-0.15336508
55	0xbd0d9089	-0.034561668
56	0xbe033c83	-0.12816052
57	0x3c0011bb	0.007816727
58	0x3decd39d	0.115637995
59	0x3deff51c	0.11716673
60	0xbdc3751c	-0.09543821
61	0x3dc58421	0.09644342
62	0xbc8cb16b	-0.017174443
63	0x3e25eb27	0.16202985
64	0x3df3ee8c	0.119107336
65	0xbdff81bf	-0.12475919
66	0x3bc1c9db	0.0059139556
67	0xbd53decb	-0.051726144
68	0xbbcf7143	-0.0063306405
69	0x3e1a2e98	0.15056837
70	0xbe23e63c	-0.16005796
71	0x3d155b7f	0.03646421
72	0x3deb6401	0.114936836
73	0x3e04a66d	0.12954111
74	0xbe242362	-0.16029122
75	0x3e0b6918	0.13614309
76	0xbd340656	-0.043951355
77	0x3d39a3ae	0.045322113
78	0xbdf5a4a8	-0.11994296
79	0xbd2aff55	-0.04174741
80	0xbd283d00	-0.0410738
81	0xbe1d8790	-0.15383744
82	0x3dc7b8d8	0.09752053
83	0x3c494279	0.012283915
84	0xbd8d7513	-0.06907096
85	0xbdfa1558	-0.12211102
86	0xbde62a37	-0.112385206
87	0xbbeca9ac	-0.007222375
88	0x3e02b65c	0.12764877
89	0x3e36a66a	0.1783692
90	0xbe11a796	-0.14224085
91	0x3e091e06	0.1339036
92	0xbbd9bcbb	-0.006644813
93	0xbd268b7d	-0.04066037
94	0xbda68bc0	-0.08132124
95	0x3e392b8c	0.18083018
96	0xbe253640	-0.16133976
97	0xbe03b6bc	-0.12862676
98	0x3db6cc21	0.08925653
99	0xbe20367c	-0.15645784
100	0x3d493402	0.049121864
101	0x3c813521	0.015772404
102	0xbe093827	-0.13400327
103	0x3d555632	0.052084155
104	0xbdf70e4a	-0.12063272
105	0x3e2f8f44	0.17144495
106	0x3d849c2b	0.06475099
107	0x3d4a5ac7	0.04940298
108	0xbd5babcc	-0.053630635
109	0x3e35aa85	0.1774083
110	0x3d897d51	0.06713355
111	0x3e352e1b	0.17693369
112	0x3de4a9cf	0.11165201
113	0x3d88b264	0.0667465
114	0x3ddfc45d	0.10926125
115	0x3d7300c1	0.05932689
116	0xbd3df754	-0.04637845
117	0x3d5a7b95	0.053340513
118	0xbdbfa5c0	-0.09357786
119	0xbe1af9e3	-0.15134387
120	0x3e141c6e	0.1446397
121	0xbd140703	-0.0361395
122	0x3e0c56b5	0.13704951
123	0xbdcd9cdf	-0.100396864
124	0x3e0e6f8f	0.13909744
125	0xbdd17cc4	-0.10228875
126	0x3e13759b	0.14400332
127	0x3c992ecb	0.01869907

projection_layer.0.weight f4 [128, 128]
0	0xbd07d836	-0.03316518
1	0xbd8ca2fd	-0.06867025
2	0x3dab2ee4	0.08358553
3	0x3d605db5	0.054776866
4	0x3d8da1af	0.06915604
5	0x3d19f3ec	0.037586138
6	0xbd39a790	-0.045325816
7	0xbd5fdf88	-0.054656535
8	0x3d263b9e	0.0405842
9	0xbd3647f5	-0.044502217
10	0x3d9e99a2	0.07744147
11	0x3cdf70e7	0.027275516
12	0xbd770b09	-0.06031326
13	0xbd94098e	-0.07228385
14	0x3c0e94b7	0.008702449
15	0x3d034c35	0.0320551
16	0x3ce0b013	0.027427709
17	0xbc703cb5	-0.014662911
18	0x3d3efe1c	0.046629056
19	0xbdad2a4d	-0.08455334
20	0xbd4e96b5	-0.050436694
21	0xbda4ed63	-0.080530904
22	0x3d684010	0.05670172
23	0xbd3958a9	-0.04525057
24	0xbba7bfa2	-0.00511928
25	0xbccd48e8	-0.025059178
26	0xbd696abf	-0.056986567
27	0x3d7da0f2	0.061921068
28	0x3daa7924	0.08323887
29	0x3cf5bbfb	0.029996863
30	0x3db5ad3e	0.08870934
31	0xbd3b374d	-0.045707036
32	0xbc435fb9	-0.0119246775
33	0xbd8dc755	-0.06922785
34	0x3d77141e	0.06032192
35	0xba8ead46	-0.001088538
36	0x3d15e85f	0.03659856
37	0xbd2833a9	-0.041064892
38	0x3da2ce67	0.079495244
39	0x3aea65f2	0.0017883165
40	0x3ca637fa	0.020290364
41	0x3d911204	0.07083514
42	0xbc18e56c	-0.009332042
43	0x3d2efeba	0.042723395
44	0xbc4b8748	-0.01242239
45	0x3d0b8e84	0.03407146
46	0xbd4f1b71	-0.05056328
47	0xbd1f5a3f	-0.038904425
48	0x3c0c18bc	0.008550819
49	0x3cdab2a6	0.026696514
50	0xbd843abb	-0.064565144
51	0xbcaff499	-0.021478938
52	0x3c3b08da	0.011415685
53	0xbd6567bf	-0.056007143
54	0x3a6c86f2	0.0009022794
55	0x3d7933bb	0.06084035
56	0xbd8054d8	-0.06266183
57	0xbd801d25	-0.06255559
58	0xbdae422e	-0.085087165
59	0x3d637988	0.055535823
60	0x3b52b93c	0.0032153865
61	0x3c4c2ced	0.012461883
62	0x3da945b0	0.08265245
63	0xbcdb6a0d	-0.026783967
64	0xbdaaf534	-0.0834755
65	0xbbfc9c6f	-0.007709078
66	0xbd8e87d8	-0.06959504
67	0x3d8d228e	0.068913564
68	0x3d338157	0.04382452
69	0xbd8c6ee5	-0.06857089
70	0xbc8d698d	-0.017262245
71	0x3b9b2b86	0.004735413
72	0xbcb25057	-0.021766825
73	0x3a39a43f	0.00070816645
74	0x3d81002d	0.06298862
75	0xbd3dad6f	-0.046307977
76	0xbd8faed7	-0.0701577
77	0xbda2cfdd	-0.07949803
78	0x3d2ba232	0.04190273
79	0x3d3e7033	0.04649372
80	0x3d074f72	0.03303475
81	0x3d9a0df5	0.07522193
82	0xbcb6f7b8	-0.022334918
83	0x3d95c6e4	0.07313326
84	0x3d4750c1	0.048660997
85	0xbbee5769	-0.0072736037
86	0xbc4daccf	-0.012553408
87	0xbd9a3049	-0.07528741
88	0x3dab9705	0.08378414
89	0x3d143071	0.03617901
90	0x3dae27e1	0.085037
91	0x3c7df1b6	0.015499523
92	0xbd66da5f	-0.0563606
93	0xbcb30501	-0.021852972
94	0x3cc22006	0.02369691
95	0x3c311e06	0.010810381
96	0xbb325d15	-0.0027216126
97	0xbda15b4a	-0.0787874
98	0xbd720058	-0.05908236
99	0x3d036abd	0.032084215
100	0x3b9b7a4f	0.004744805
101	0xbd58bb6a	-0.052913107
102	0xbb2f6e5d	-0.0026768663
103	0x3da9ea3b	0.08296629
104	0x3daa6fb0	0.08322084
105	0x3d9369a9	0.071978875
106	0xbdaab725	-0.08335713
107	0x3cbb67dc	0.022876672
108	0xbd8b901e	-0.068145975
109	0xbbab8c84	-0.0052352566
110	0x3d1503bc	0.036380515
111	0xbc392ace	-0.011301709
112	0x3d3b65d8	0.045751423
113	0x3d43fc38	0.047847956
114	0x3d19a1eb	0.037507933
115	0x3ccb4c66	0.024816703
116	0xbca57b31	-0.020200344
117	0x3bf05c08	0.0073351897
118	0xbd0b8d50	-0.034070313
119	0xbc02d673	-0.007985699
120	0x3d0cd6d2	0.034384556
121	0x3d7b11c6	0.061296247
122	0xbd23af84	-0.039962307
123	0xbd3f9a38	-0.046777934
124	0x3c961cbb	0.018324247
125	0x3d5024fc	0.05081652
126	0xbd8fbddf	-0.07018637
127	0x3cf1e896	0.02952985
128	0x3db2931a	0.08719464
129	0x3d19963b	0.037496787
130	0xbd114b54	-0.03547223
131	0xbd98b5b7	-0.07456534
132	0x3c2557fb	0.010091777
133	0xbd75f44d	-0.060047437
134	0x3c0d2eab	0.008617084
135	0xbb2e2cf3	-0.0026577085
136	0x3d1c8eab	0.038221996
137	0xbc5b7b28	-0.013396062
138	0x3cb9fd66	0.022703838
139	0xbd0adbff	-0.03390121
140	0x3d2780f5	0.040894467
141	0xbd993665	-0.07481078
142	0x3d5a8cc6	0.05335691
143	0x3d9de17a	0.07709022
144	0x3c39eecc	0.0113484375
145	0xbd8502a0	-0.06494641
146	0xbd118b64	-0.035533324
147	0x3ca35eb9	0.019942628
148	0xbd28cbc2	-0.041209944
149	0xbd25885f	-0.040413257
150	0x3d3c480a	0.04596714
151	0xbcce41ce	-0.025177862
152	0x3c7342ec	0.014847498
153	0xbda51574	-0.080607325
154	0xbd83398e	-0.06407462
155	0xbd537ff1	-0.051635686
156	0xbd65e549	-0.056126866
157	0xbd802d4a	-0.06258638
158	0x3d88bbaa	0.06676419
159	0x3d3a48ca	0.045479573
160	0xbca2bbc9	-0.019864934
161	0x3d8b4db1	0.06801928
162	0xba472be8	-0.000759779
163	0x3aa4e39f	0.0012580043
164	0xbd31f34f	-0.043444928
165	0xbd9f6ba1	-0.077842005
166	0xbd3670ff	-0.044541355
167	0xbd9ad427	-0.07559996
168	0xbcf76fa0	-0.030204594
169	0x3bd78ded	0.006578198
170	0xbd54becf	-0.05193978
171	0xbd3a581e	-0.04549419
172	0x3da0c8b5	0.07850782
173	0x3cac4ec6	0.021033656
174	0x3d1880e5	0.0372323
175	0x3db752d8	0.08951348
176	0x3d3efc62	0.04662741
177	0x3d938635	0.07203332
178	0xbd61a62f	-0.055090126
179	0xbd2be0ba	-0.041962363
180	0x3cd01d46	0.025404584
181	0xbc9a8905	-0.018864164
182	0xbc068ebd	-0.008212742
183	0xbd829cd5	-0.063775696
184	0x3ccdd5bb	0.025126329
185	0x3b82a702	0.003987194
186	0x3cb7fff8	0.022460923
187	0x3d9a31cb	0.075290285
188	0x3bb406f7	0.0054939943
189	0x3cd7853f	0.026308654
190	0xbd1efdf2	-0.0388164
191	0x3d10431e	0.035220258
192	0x3c94272c	0.018085085
193	0xbd1f844f	-0.03894454
194	0x3cd50daa	0.026007492
195	0xbda5cadf	-0.08095335
196	0xbab534ab	-0.00138249
197	0x3d8a97d5	0.06767241
198	0x3d81377e	0.063094124
199	0xbd8581c6	-0.06518893
200	0xbd6d5360	-0.05794084
201	0x3d94505e	0.07241891
202	0x3c5c68e1	0.013452739
203	0x3c3013b2	0.010746883
204	0xbcfcc87e	-0.03085732
205	0xb94fa412	-0.0001980218
206	0x3d0dfe6e	0.03466647
207	0xbd6628c1	-0.05619121
208	0xbaa43312	-0.0012527427
209	0xbd7efada	-0.06225095
210	0xbca1f203	-0.01976872
211	0xbc86a622	-0.01643664
212	0x3d29193c	0.04128383
213	0xbc46591e	-0.012106208
214	0x3d8d7a6d	0.069081165
215	0x3ca42ff6	0.0200424
216	0x3cfb281b	0.030658772
217	0xbdbae5f6	-0.09125893
218	0xbd0bc446	-0.034122728
219	0x3daf31ce	0.08554421
220	0xbb96dbd7	-0.0046038437
221	0x3ba166ea	0.0049255984
222	0xbd57c058	-0.052673668
223	0xbd52520f	-0.05134779
224	0x3d4dfd3e	0.05029034
225	0x3d6f6b2b	0.058451813
226	0x3c9c3f3e	0.019073125
227	0xbcd689bd	-0.026188726
228	0x3ca54c8f	0.020178108
229	0xbd3f0a02	-0.046640404
230	0xbd21cfb7	-0.039504733
231	0xbd08120f	-0.033220347
232	0x3d071bd8	0.03298554
233	0x3d0a4a0d	0.033762027
234	0x3cbb2e4f	0.02284923
235	0x3d871498	0.06595725
236	0x3d672474	0.05643125
237	0x3d07853d	0.03308605
238	0xbb8d946b	-0.0043206713
239	0x3cd62fc6	0.026145827
240	0xbdaeb475	-0.08530513
241	0x3d788dcc	0.060682103
242	0xbd560e59	-0.052259777
243	0x3c71fd98	0.014769934
244	0xbd84b695	-0.06480137
245	0x3d1baabf	0.038004633
246	0x3cca72eb	0.024713
247	0xbd3488c1	-0.04407573
248	0xbc104ac6	-0.00880689
249	0x3cf1a9bf	0.029499887
250	0x3d96b506	0.07358746
251	0x3c8dc125	0.017304013
252	0xbd0d7b77	-0.034541573
253	0x3c69a919	0.014261507
254	0xbd98702b	-0.07443269
255	0xbd3764dc	-0.04477392

projection_layer.0.bias f4 [128]
0	0x3d6eda37	0.058313575
1	0xbd138d75	-0.036023576
2	0xbd6f4c5f	-0.058422443
3	0x3dacf725	0.084455766
4	0x3ceb04cc	0.02868881
5	0xbb60eb88	-0.0034320075
6	0x3ce806eb	0.028323611
7	0x3d8d96e0	0.06913543
8	0x3b8999ba	0.004199234
9	0xbd031a99	-0.032007787
10	0x3d10ef4e	0.03538447
11	0x3d079f2e	0.03311079
12	0x3d08a660	0.033361793
13	0x3cf5c059	0.029998945
14	0x3cfc28f1	0.030781241
15	0x3d9fedaa	0.07809003
16	0xbd7faf80	-0.06242323
17	0xbb34f724	-0.0027613128
18	0x3b8e7bdb	0.004348261
19	0xbc129b02	-0.00894809
20	0xbd6bb72b	-0.05754773
21	0x3cbe94ea	0.023264367
22	0xbbdab523	-0.006674425
23	0xbc40ed94	-0.011775393
24	0xbd2a9956	-0.04165014
25	0xbd9b435b	-0.075812064
26	0xbcf11a74	-0.02943156
27	0xbcbb1785	-0.022838363
28	0x3d062302	0.03274823
29	0x3c7857fc	0.015157696
30	0x3b12e5e8	0.0022414867
31	0xbd915f42	-0.07098247
32	0xbd3d6d9d	-0.046247113
33	0xbb99113b	-0.0046712435
34	0x3d1e57fa	0.03865812
35	0x3d9c80a7	0.07641726
36	0xbd279ae9	-0.04091922
37	0xbc938d2f	-0.018011658
38	0x3d5d10eb	0.053971212
39	0xbd675165	-0.05647411
40	0xbcc6c399	-0.02426319
41	0xbd35cf8c	-0.044387385
42	0xbd40d09b	-0.04707394
43	0xbd324c4d	-0.043529797
44	0xbd3a0819	-0.04541788
45	0x3d02c70d	0.03192811
46	0x3d3c46db	0.04596601
47	0xbcd542f4	-0.026032902
48	0xbd615354	-0.05501111
49	0x3ce1fcc2	0.027586345
50	0xbd9e6e5b	-0.077358924
51	0xbd0d085e	-0.034431808
52	0x3cc51038	0.024055585
53	0xbd207d92	-0.039182253
54	0xbd93deca	-0.07220228
55	0x3d87857e	0.066172585
56	0x3d1afdf2	0.037839837
57	0xbcc0563b	-0.023478618
58	0x3d2e1444	0.042499796
59	0xbd582f6d	-0.052779604
60	0xbad7cd9b	-0.0016464473
61	0xba4cbe3b	-0.0007810329
62	0x3da2dbe4	0.07952097
63	0x3c62a52b	0.013833324
64	0xbc9b1cd8	-0.018934652
65	0x3d1c7afa	0.038203217
66	0x3d2b9f01	0.041899685
67	0xbd5d0c41	-0.053966764
68	0x3d6e229c	0.058138475
69	0x3d81b933	0.06334152
70	0xbd1a427d	-0.037661064
71	0xbc331769	-0.010930874
72	0x3b6d8fd2	0.0036249054
73	0xbd3ff88b	-0.04686789
74	0x3d5dbdb9	0.05413601
75	0xbc8613e9	-0.016366916
76	0x3d339f10	0.043852866
77	0xbda260ab	-0.07928594
78	0xbc5058f6	-0.012716522
79	0xbd755dcd	-0.05990391
80	0xbd83a471	-0.06427849
81	0x3d90e323	0.07074573
82	0xbd2f2a5f	-0.042765018
83	0xbcaab1f5	-0.02083681
84	0xbc6eda48	-0.0145784095
85	0xbda4050c	-0.08008775
86	0x3c96dbbe	0.018415328
87	0xbd6720ce	-0.05642777
88	0xbda1e9c2	-0.07905914
89	0xbd420de6	-0.047376536
90	0xbda58651	-0.080822594
91	0xbd57a849	-0.052650724
92	0x3d7b6e08	0.06138423
93	0xbb6c6259	-0.0036069362
94	0xbcb896a7	-0.022532774
95	0x3bb18a9f	0.0054181363
96	0xbd6960ea	-0.05697719
97	0x3d9ec1ab	0.07751783
98	0x3c8c5b34	0.017133333
99	0xbc1661ab	-0.009178559
100	0x3cd6dc59	0.026228117
101	0x3dacb403	0.08432772
102	0xbd90df18	-0.07073802
103	0x3d77afdc	0.060470447
104	0xbd440f87	-0.04786637
105	0x3dad3659	0.084576316
106	0xbd7374c2	-0.05943752
107	0x3c83ebdc	0.016103677
108	0x3ccc91ec	0.024971925
109	0xbcddddec	-0.02708336
110	0x3cb37151	0.02190462
111	0x3d7b282d	0.06131761
112	0xbd2b1258	-0.04176554
113	0x3d0f9e58	0.035063118
114	0xbd33b173	-0.0438704
115	0xbc71cb22	-0.014757903
116	0xbca1694f	-0.019703535
117	0xbd18fb99	-0.037349317
118	0x3d188426	0.0372354
119	0x3c8e8ef7	0.017402155
120	0xbda84b92	-0.08217539
121	0x3d9694ff	0.073526375
122	0x3d4c680d	0.049903918
123	0x3ca4a54d	0.020098353
124	0xbcfef7fa	-0.031124104
125	0x3d72e267	0.059297945
126	0xbd2036a3	-0.039114606
127	0xbd4dcd14	-0.050244406

projection_layer.1.weight f4 [128]
0	0x3f7f26e6	0.9966873
1	0x3f7f4ff8	0.997314
2	0x3f804dd7	1.0023755
3	0x3f7fd413	0.99932975
4	0x3f7f71ee	0.9978322
5	0x3f7fc279	0.99906117
6	0x3f8072de	1.0035055
7	0x3f801783	1.0007175
8	0x3f7f03f1	0.9961539
9	0x3f7ffc46	0.99994314
10	0x3f7f0e80	0.996315
11	0x3f7f63d0	0.99761677
12	0x3f800d96	1.0004146
13	0x3f7f0e47	0.9963116
14	0x3f7f116d	0.99635965
15	0x3f7fc2d6	0.9990667
16	0x3f803ff8	1.0019522
17	0x3f807baa	1.0037739
18	0x3f802a9b	1.0013002
19	0x3f7f27c8	0.99670076
20	0x3f7f18af	0.9964704
21	0x3f7ffc91	0.9999476
22	0x3f7f443d	0.997135
23	0x3f8032b2	1.0015471
24	0x3f7fffc3	0.99999636
25	0x3f8063e3	1.0030483
26	0x3f7f4f6c	0.99730563
27	0x3f7fbefa	0.9990078
28	0x3f7f3719	0.9969345
29	0x3f7f633a	0.9976078
30	0x3f7fcf3e	0.999256
31	0x3f801cc0	1.0008774
32	0x3f7f5ee5	0.9975417
33	0x3f807021	1.0034219
34	0x3f7f3989	0.99697167
35	0x3f8010a2	1.0005076
36	0x3f7efe63	0.99606913
37	0x3f7f6029	0.99756104
38	0x3f801380	1.0005951
39	0x3f7f4cd3	0.997266
40	0x3f7f4cb3	0.9972641
41	0x3f80758d	1.0035874
42	0x3f7ff811	0.99987894
43	0x3f7fca90	0.9991846
44	0x3f7f6e41	0.9977761
45	0x3f7f5b8d	0.9974907
46	0x3f7fd081	0.99927527
47	0x3f7f5136	0.99733293
48	0x3f7fb852	0.99890625
49	0x3f7f249b	0.9966523
50	0x3f807ba9	1.0037738
51	0x3f7f479f	0.9971866
52	0x3f8030ed	1.0014931
53	0x3f80752c	1.0035758
54	0x3f8009ec	1.0003028
55	0x3f7f2510	0.9966593
56	0x3f7f2aec	0.9967487
57	0x3f7f3a51	0.9969836
58	0x3f7f051d	0.9961718
59	0x3f7f02c2	0.99613583
60	0x3f7ff94f	0.9998979
61	0x3f7f2e76	0.9968027
62	0x3f7f2169	0.99660355
63	0x3f7f3935	0.99696666
64	0x3f7f1833	0.996463
65	0x3f7fceb3	0.9992477
66	0x3f7fc080	0.99903107
67	0x3f8022e5	1.0010649
68	0x3f8008a4	1.0002637
69	0x3f7f2964	0.9967253
70	0x3f80491b	1.002231
71	0x3f7fa5c7	0.9986233
72	0x3f7f9397	0.9983458
73	0x3f7fd882	0.9993974
74	0x3f8025e5	1.0011564
75	0x3f800445	1.0001303
76	0x3f8015cb	1.0006651
77	0x3f7fbc7c	0.9989698
78	0x3f7fdd88	0.99947405
79	0x3f7ef96c	0.9959934
80	0x3f7f2d74	0.9967873
81	0x3f7f603f	0.99756235
82	0x3f7f34fa	0.9969021
83	0x3f7f0f3a	0.9963261
84	0x3f8016fb	1.0007013
85	0x3f7f2af9	0.99674946
86	0x3f7fc26e	0.9990605
87	0x3f7fa243	0.99856967
88	0x3f7f8db5	0.998256
89	0x3f7f0bc9	0.9962736
90	0x3f803bb2	1.0018218
91	0x3f7fcc52	0.99921143
92	0x3f806881	1.0031892
93	0x3f7f0f73	0.9963295
94	0x3f802c30	1.0013485
95	0x3f7f28b4	0.99671483
96	0x3f7fa684	0.9986346
97	0x3f7f85cd	0.9981354
98	0x3f7f5c41	0.99750143
99	0x3f800893	1.0002617
100	0x3f7fac66	0.99872434
101	0x3f7fb7bd	0.9988974
102	0x3f7f3103	0.9968416
103	0x3f7ff638	0.99985075
104	0x3f803e0a	1.0018933
105	0x3f7f8866	0.998175
106	0x3f7f37e4	0.9969466
107	0x3f7fbec1	0.9990044
108	0x3f7f00a6	0.99610364
109	0x3f7f07ae	0.99621093
110	0x3f7fc7e7	0.999144
111	0x3f7f27a9	0.9966989
112	0x3f7f8cdf	0.9982433
113	0x3f7fbd5d	0.9989832
114	0x3f7f29d5	0.99673206
115	0x3f801172	1.0005324
116	0x3f7fbe28	0.9989953
117	0x3f7efc8c	0.99604106
118	0x3f803d72	1.0018752
119	0x3f7f234a	0.9966322
120	0x3f7f5ada	0.99748003
121	0x3f7f6388	0.9976125
122	0x3f7f43ee	0.9971303
123	0x3f803a3d	1.0017773
124	0x3f7f27d7	0.99670166
125	0x3f7fb94d	0.9989212
126	0x3f7fcfd8	0.9992652
127	0x3f80124c	1.0005584

projection_layer.1.bias f4 [128]
0	0xbae0eb54	-0.0017159977
1	0xbb41e273	-0.0029584437
2	0x3b354520	0.002765961
3	0xbb5efbc0	-0.0034024566
4	0xbb0397da	-0.0020079524
5	0xbb23df99	-0.00250051
6	0x3b21d251	0.0024692009
7	0x3b38ee55	0.0028218229
8	0xbb7f2709	-0.003893318
9	0x3b4a2d2c	0.0030849678
10	0xbae23e23	-0.001726095
11	0xba5213ab	-0.0008013795
12	0x3a881588	0.0010382393
13	0x39ad2573	0.00033025033
14	0xbb65b16b	-0.0035048376
15	0x3989f637	0.0002631412
16	0x3aff921d	0.0019498501
17	0x3b7f1ab6	0.0038925833
18	0x3a45a51f	0.00075395586
19	0xbb4e0442	-0.0031435643
20	0xbb6d2eac	-0.0036191149
21	0xbb169ad3	-0.0022980466
22	0x3a998610	0.0011712927
23	0x39b3b61d	0.00034277225
24	0xb979a0d0	-0.00023806398
25	0x3b478855	0.003044625
26	0xbb26d709	-0.002545776
27	0xb9ef4b32	-0.00045641657
28	0xbb69fee9	-0.0035704917
29	0xbaffbfd5	-0.0019512126
30	0xbb64ca8b	-0.0034910764
31	0x3a692225	0.00088933326
32	0xbb13b4c8	-0.0022538174
33	0x3b6d38d6	0.0036197207
34	0xbb32c141	-0.0027275833
35	0x3a98b607	0.0011650928
36	0xbb661b98	-0.0035111662
37	0x3a666ddd	0.00087901746
38	0x3a12ceb2	0.0005600258
39	0xbb568190	-0.0032731034
40	0xbb29a8cd	-0.0025887967
41	0x3b2d7da3	0.002647259
42	0x3b0896f2	0.0020841924
43	0xbb307a5d	-0.0026928403
44	0xbb0d3e95	-0.0021552194
45	0x3ae95577	0.001780196
46	0xbb751efa	-0.0037402497
47	0xbb3867c8	-0.002813803
48	0xba45e39d	-0.00075488706
49	0xbb5eb066	-0.0033979653
50	0x3b48f650	0.0030664392
51	0xbb2ebb45	-0.0026661914
52	0x3aea4007	0.0017871865
53	0x3a1199a0	0.0005554203
54	0xba761aa7	-0.0009388127
55	0xba433359	-0.0007446311
56	0xbb1c227e	-0.002382427
57	0xbb37e742	-0.0028061424
58	0xbb76cbb2	-0.0037658033
59	0xbb7e6321	-0.003881641
60	0xbb359e9b	-0.0027712944
61	0xbb68676b	-0.0035462033
62	0xbb61acac	-0.0034435196
63	0xbb486e9d	-0.0030583509
64	0xbb799e48	-0.0038088728
65	0x3aab9723	0.0013091307
66	0x3b58dbae	0.0033089924
67	0xbb812ba1	-0.0039419685
68	0x3b3e1752	0.00290056
69	0xbb5a251d	-0.0033286281
70	0x3b62e703	0.0034622557
71	0x3b4dafd3	0.0031385317
72	0xba128e64	-0.0005590676
73	0xb9c20ff9	-0.00037014464
74	0x3ab1bf4d	0.001356104
75	0xb99e72b2	-0.00030221563
76	0xb9afe8e4	-0.00033552118
77	0x3b260eb7	0.002533836
78	0x398e9fcc	0.00027203409
79	0xba651424	-0.0008738658
80	0x3a9dabd1	0.0012029355
81	0x3b2a3832	0.0025973436
82	0xbb3bd74a	-0.0028662258
83	0xbb6522c2	-0.0034963344
84	0xbacfb960	-0.0015848093
85	0xbb50d918	-0.003186768
86	0xbb732975	-0.0037103568
87	0xbaf70dbb	-0.0018848696
88	0xbaa811e2	-0.0012822712
89	0xbb813cec	-0.00394403
90	0x3a77457d	0.0009432657
91	0xba200506	-0.0006104264
92	0x3b3993ca	0.002831685
93	0xbb6a8114	-0.0035782503
94	0x3af52559	0.0018703147
95	0xbb244b72	-0.0025069383
96	0xbb1a2d72	-0.0023525623
97	0xbb0a1a69	-0.002107287
98	0xb869a49d	-5.5704837e-05
99	0x3a3ab7b2	0.00071227096
100	0x3b00c53c	0.001964881
101	0x39e2b614	0.00043241738
102	0xbb5c3a5a	-0.0033604116
103	0x3a3dffc6	0.0007247891
104	0x3b417ced	0.0029523924
105	0xbb53c85c	-0.0032315468
106	0xbb4424a6	-0.002992907
107	0x3a60b97e	0.00085725624
108	0xbb809504	-0.003924014
109	0xbb559bbd	-0.0032594048
110	0x39c92d2a	0.00038371357
111	0xbb3c5187	-0.0028735118
112	0xbb2bcb63	-0.0026213757
113	0xbb56e453	-0.00327899
114	0xbb5cd3f9	-0.0033695681
115	0x3a27330d	0.00063781516
116	0xbb71615d	-0.0036831715
117	0xbb6f6fd5	-0.0036535163
118	0x3b441126	0.0029917448
119	0xbb4809a8	-0.0030523334
120	0x3a5b5a45	0.0008367638
121	0x3a9aa664	0.0011798856
122	0x3a3a3b2d	0.0007104155
123	0x3b318491	0.0027087072
124	0xbb4180cc	-0.0029526232
125	0xbb442c66	-0.002993369
126	0xbb4b781e	-0.0031046937
127	0x39769714	0.00023516669

projection_layer.1.running_mean f4 [128]
0	0xbbe07303	-0.006849648
1	0xbc9db52f	-0.019251434
2	0xbd2253d7	-0.039630737
3	0x3d4cf931	0.050042335
4	0x3cecd539	0.028910266
5	0x3d35715e	0.04429757
6	0x3c59e2e2	0.013298722
7	0x3d4cc848	0.04999569
8	0x3b7c436c	0.0038492335
9	0xbd0c7345	-0.034289617
10	0xbd052080	-0.032501698
11	0xbc491e55	-0.012275298
12	0x3b613840	0.0034365803
13	0xbd01e969	-0.031716738
14	0x3d0aca53	0.033884358
15	0x3d4a5f4a	0.04940728
16	0xbca25086	-0.019813787
17	0x3d3851ae	0.04499977
18	0xbbe049fb	-0.0068447567
19	0xbd05d90e	-0.032677703
20	0xbcd5e3d4	-0.026109613
21	0x3cfcda85	0.030865917
22	0x3d105927	0.035241272
23	0x3d697322	0.056994565
24	0x3cff453c	0.031160943
25	0x3c56d15b	0.013111438
26	0xbcf2f373	-0.029657101
27	0xbce771bd	-0.028252477
28	0x3d4df341	0.050280813
29	0x3c8c537b	0.01712965
30	0xbb7aebe0	-0.0038287565
31	0x3ce437d8	0.02785866
32	0xbcd95481	-0.026529552
33	0xbd25ca66	-0.040476225
34	0x3d0bb300	0.034106255
35	0x3d632cbc	0.055462584
36	0x3be978a6	0.007124978
37	0x39abe52f	0.00032786417
38	0x3d0982e3	0.03357209
39	0x3cf95daf	0.03044018
40	0xbcb71956	-0.022350948
41	0xbc11bc10	-0.008894935
42	0xbcb298f5	-0.021801451
43	0x3bb5c45b	0.005547089
44	0xbd08c913	-0.033394884
45	0x3ce4c35a	0.027925182
46	0x3c851b34	0.016248323
47	0xbcc7579d	-0.02433377
48	0xbce90f54	-0.028449692
49	0x3c952cfb	0.018209925
50	0xbd8e0e68	-0.069363415
51	0xbb1bf372	-0.0023796228
52	0xbbb8bb9b	-0.0056375987
53	0x3c7634e9	0.015027263
54	0xbc9ea22d	-0.01936444
55	0x3d5ddacb	0.054163735
56	0x3cf66449	0.030077117
57	0xbd594d0a	-0.053051986
58	0x3d54d081	0.051956657
59	0xbcfa6b1a	-0.030568648
60	0xbb6abb18	-0.0035817083
61	0x3d0e2b5a	0.034709312
62	0x3bc904c0	0.0061345994
63	0xbd1a96f8	-0.03774163
64	0xbcab1431	-0.020883651
65	0x3cfa3e53	0.030547297
66	0x3d1550aa	0.03645388
67	0xbd5dcabc	-0.05414842
68	0x3daa678f	0.083205335
69	0x3cfff90e	0.031246688
70	0xbd0d31b0	-0.034471214
71	0xbce012ab	-0.027352652
72	0x3c7921bd	0.015205798
73	0x3b9c33d8	0.0047669224
74	0x3cd70c8a	0.026251096
75	0xbc43ad3b	-0.011943157
76	0xbc02ff96	-0.007995507
77	0xbb72ac93	-0.0037029132
78	0xbd126392	-0.03573949
79	0xbc12794e	-0.008940054
80	0xbc761482	-0.015019538
81	0x3cb03277	0.021508439
82	0x3cb872b8	0.02251564
83	0xbd46b6cc	-0.048514172
84	0x3c72b671	0.014814005
85	0x3cba443f	0.02273762
86	0x3d2e3cd2	0.04253847
87	0xbccecfb8	-0.025245532
88	0xbd744e4c	-0.059644982
89	0xbc44dc7a	-0.012015456
90	0xbd4bf0c2	-0.04979015
91	0xbd381dc1	-0.04495025
92	0x3d29615a	0.041352607
93	0xbd159b5e	-0.036525123
94	0x3bca9e65	0.006183433
95	0xbc23c2af	-0.009995147
96	0xbd55ad2b	-0.0521671
97	0x3b5e6978	0.0033937376
98	0x3c750469	0.014954665
99	0x3c903c8b	0.017606994
100	0x3c7080f7	0.014679185
101	0x3cd2fdb5	0.025755743
102	0xbbcdc209	-0.0062792343
103	0x3c9e240e	0.019304302
104	0xbc60aeaa	-0.013713518
105	0x3b90d203	0.0044195666
106	0x3c14b363	0.009075972
107	0x3c53f1d8	0.012936078
108	0x3bce7580	0.006300628
109	0x3c9f9209	0.019478815
110	0xb9a73531	-0.00031892353
111	0x3cc7dc6f	0.024397103
112	0x3cc25e17	0.023726506
113	0x3c219fe0	0.009864777
114	0xbcee65c4	-0.02910126
115	0xbd2a7402	-0.04161454
116	0x3c804897	0.015659614
117	0xbcb09547	-0.021555556
118	0xbc4f401c	-0.012649562
119	0x3db95279	0.090489335
120	0xbcdc023e	-0.026856538
121	0x3d32f53d	0.04369091
122	0x3cd6eb5c	0.026235275
123	0x3cdf422a	0.02725323
124	0xbc62dd83	-0.013846758
125	0xbccde469	-0.025133329
126	0xbbb5d5d3	-0.0055491715
127	0x3afd5985	0.0019329047

projection_layer.1.running_var f4 [128]
0	0x3f3635b7	0.7117571
1	0x3f3657cc	0.7122772
2	0x3f320d19	0.69551235
3	0x3f2fea73	0.68717116
4	0x3f334fd8	0.70043707
5	0x3f34a41a	0.705629
6	0x3f330827	0.69934314
7	0x3f31b7c8	0.6942105
8	0x3f323a47	0.69620174
9	0x3f335cfa	0.70063746
10	0x3f354bd6	0.7081884
11	0x3f3a1552	0.7268878
12	0x3f31a6bf	0.6939506
13	0x3f350b66	0.7072052
14	0x3f315635	0.69272166
15	0x3f344e40	0.704319
16	0x3f2dcf96	0.67894876
17	0x3f36e207	0.7143864
18	0x3f3439b7	0.70400566
19	0x3f3031ed	0.6882618
20	0x3f38f25e	0.7224482
21	0x3f30bda3	0.6903936
22	0x3f319fc0	0.69384384
23	0x3f3637cc	0.7117889
24	0x3f33922a	0.70144904
25	0x3f3157dd	0.69274694
26	0x3f2dd00a	0.6789557
27	0x3f323755	0.6961568
28	0x3f30ad7f	0.69014734
29	0x3f2f7ad2	0.68546784
30	0x3f31b5e0	0.69418144
31	0x3f2d5580	0.6770859
32	0x3f3016fc	0.6878507
33	0x3f321ce6	0.69575346
34	0x3f334ab6	0.70035875
35	0x3f3875f8	0.72055006
36	0x3f2fa471	0.6861029
37	0x3f2fbdeb	0.68649167
38	0x3f30cd2f	0.69063085
39	0x3f32b758	0.6981101
40	0x3f33d4bc	0.7024648
41	0x3f3370ea	0.7009417
42	0x3f30d09b	0.69068307
43	0x3f32a9c3	0.69790286
44	0x3f2f6e8c	0.68528056
45	0x3f2db539	0.6785465
46	0x3f2c50b7	0.6731066
47	0x3f2daed4	0.6784489
48	0x3f2dcc71	0.6789008
49	0x3f324670	0.6963873
50	0x3f37b932	0.7176696
51	0x3f301fcc	0.6879852
52	0x3f30a1ec	0.68997073
53	0x3f34b3d0	0.7058687
54	0x3f363cb7	0.71186393
55	0x3f323395	0.6960996
56	0x3f2ea303	0.68217486
57	0x3f360612	0.7110301
58	0x3f308075	0.6894601
59	0x3f34fe21	0.7070027
60	0x3f3254ab	0.69660443
61	0x3f31765d	0.69321233
62	0x3f34b760	0.7059231
63	0x3f34a881	0.70569617
64	0x3f34a36b	0.70561856
65	0x3f34c2f0	0.7060995
66	0x3f32cd9d	0.6984499
67	0x3f2f2c84	0.684273
68	0x3f3a6102	0.7280427
69	0x3f356f9a	0.70873415
70	0x3f2f4680	0.6846695
71	0x3f302b55	0.6881612
72	0x3f319e56	0.69382226
73	0x3f2f5fff	0.68505853
74	0x3f382b59	0.71941143
75	0x3f2e2598	0.68026114
76	0x3f3510a5	0.7072852
77	0x3f2f3a60	0.6844845
78	0x3f313e9e	0.6923617
79	0x3f3397fe	0.70153797
80	0x3f373a2b	0.7157313
81	0x3f352934	0.70765996
82	0x3f30fbc5	0.6913417
83	0x3f3641bd	0.7119406
84	0x3f30f5da	0.6912514
85	0x3f3094f0	0.6897726
86	0x3f2f91a4	0.68581605
87	0x3f336d10	0.7008829
88	0x3f2cb5f1	0.6746512
89	0x3f34c812	0.70617783
90	0x3f2bd0e5	0.6711562
91	0x3f3586fd	0.709091
92	0x3f328a0c	0.6974189
93	0x3f32c50c	0.6983192
94	0x3f319586	0.6936878
95	0x3f2f67a0	0.68517494
96	0x3f32e36d	0.69878274
97	0x3f311a95	0.69181186
98	0x3f301f7d	0.6879805
99	0x3f3341ec	0.70022464
100	0x3f2d9dc0	0.6781883
101	0x3f2c17ed	0.6722401
102	0x3f31125d	0.69168645
103	0x3f2c6fc0	0.67358017
104	0x3f304521	0.6885548
105	0x3f33e2c0	0.7026787
106	0x3f35c332	0.7100097
107	0x3f35d83d	0.7103308
108	0x3f354892	0.7081386
109	0x3f2ecec3	0.68284243
110	0x3f37873f	0.71690744
111	0x3f310247	0.691441
112	0x3f3857e5	0.72009116
113	0x3f2f329d	0.68436605
114	0x3f3538d2	0.70789826
115	0x3f2f7f50	0.6855364
116	0x3f2fed59	0.6872154
117	0x3f34bfa9	0.7060495
118	0x3f2edba0	0.6830387
119	0x3f3860a0	0.7202244
120	0x3f2ebf1f	0.6826038
121	0x3f2d6bc4	0.6774256
122	0x3f307462	0.68927586
123	0x3f32347c	0.69611335
124	0x3f2cc498	0.6748748
125	0x3f305ce1	0.6889172
126	0x3f370d37	0.7150454
127	0x3f356d28	0.70869684

projection_layer.4.weight f4 [128, 128]
0	0xbcdf3290	-0.02724579
1	0x3b0e4803	0.0021710403
2	0x3c54a48b	0.012978683
3	0x3d40227d	0.04690789
4	0x3d8e8733	0.06959381
5	0xbc8b043d	-0.016969794
6	0x3d1f4adc	0.03888975
7	0x3d8fdb0c	0.07024202
8	0xbc55e131	-0.013054178
9	0x3dadaf73	0.0848073
10	0x3ba51e32	0.005039
11	0xbd05b7c4	-0.032645956
12	0xb9e3e446	-0.0004346689
13	0x3d60d16f	0.05488723
14	0x3c0080fe	0.007843254
15	0x3c8393f5	0.016061762
16	0x3d7df824	0.062004223
17	0xbce12e11	-0.027487786
18	0xbd336b9c	-0.043803796
19	0x3aff15a4	0.0019461405
20	0xbd7aad00	-0.061200142
21	0xbc27ca19	-0.010241055
22	0xbd9d4da5	-0.07680825
23	0x3cfe31f2	0.031029675
24	0xbd4cca17	-0.049997415
25	0xbd523dfd	-0.051328648
26	0xbd8ce23b	-0.068790875
27	0xbcc7eaa0	-0.02440387
28	0xbd8808b4	-0.06642285
29	0xbd4fa2ec	-0.050692484
30	0x3d4de525	0.050267357
31	0x3d9e134b	0.077185236
32	0xbd8239bf	-0.063586704
33	0xbd1a503f	-0.037674185
34	0xbc3e0118	-0.01159694
35	0xbb170a76	-0.0023047007
36	0xbce282a1	-0.02765018
37	0xbd47564d	-0.048666287
38	0x3d53f89d	0.051750768
39	0x3bcc297c	0.0062305313
40	0xbdae0b95	-0.08498303
41	0xbd690aa4	-0.056894913
42	0x3d548e02	0.05189324
43	0xbd92ccf2	-0.071679965
44	0x3c64102e	0.013919873
45	0x3d8cb676	0.06870739
46	0xbb9778c0	-0.004622549
47	0x3da2aabf	0.079427235
48	0xbc7198b4	-0.01474588
49	0x3c696470	0.014245138
50	0x3c8bdde9	0.017073588
51	0xbd1fb78f	-0.038993414
52	0x3c5f5350	0.013630703
53	0xbd64d698	-0.055868715
54	0x3ccb3246	0.024804246
55	0x3cb9294f	0.022602705
56	0x3d878502	0.06617166
57	0xbc8d781a	-0.017269183
58	0x3ca529bf	0.020161508
59	0x3d1c127f	0.038103577
60	0x3d02881a	0.031868078
61	0xbb40c576	-0.002941457
62	0x3da5a9a9	0.08089001
63	0x3db5488b	0.08851727
64	0x3d095006	0.033523582
65	0x3d23ac62	0.03995932
66	0xbd533dae	-0.051572494
67	0x3ca1e958	0.019764587
68	0xbcb4bf2c	-0.022063814
69	0xbd63f936	-0.055657588
70	0xbd55c212	-0.052187033
71	0x3d797c4b	0.06090955
72	0xbd7f9958	-0.0624021
73	0xbd96451e	-0.07337402
74	0x3d8bc462	0.068245664
75	0xbd8c21f2	-0.06842412
76	0x3d7e80cc	0.06213455
77	0xbd7ca889	-0.061684165
78	0xbc2e921f	-0.010654955
79	0x3c8c9465	0.017160604
80	0x3d1c3529	0.038136635
81	0xbd07cdef	-0.033155378
82	0x3db1f9f4	0.08690253
83	0x3c727e35	0.014800598
84	0xbbf39c4d	-0.007434404
85	0xbd785428	-0.060627133
86	0x3cf60faa	0.030036766
87	0x3d9d94de	0.0769441
88	0xbbee9de7	-0.007282007
89	0x3c7d101e	0.015445737
90	0x3d5301c2	0.05151535
91	0x3d79f2af	0.061022457
92	0xbda9ed7c	-0.0829725
93	0xbd2c61b5	-0.04208537
94	0x3d6ab58e	0.05730205
95	0xbd2e7aab	-0.042597454
96	0xbd8d7711	-0.06907476
97	0x3d457304	0.04820539
98	0xbd30454e	-0.043034844
99	0xbd9750aa	-0.07388432
100	0xbc96df1e	-0.018416937
101	0xbd5d5ad1	-0.054041687
102	0xbd493e05	-0.049131412
103	0xbd9623f8	-0.07331079
104	0xbda4fda1	-0.080561884
105	0xbd7d230e	-0.06180101
106	0x3d8ce89d	0.06880305
107	0x3d6b9855	0.057518322
108	0xbdb2f60e	-0.087383375
109	0x3d91dc42	0.07122089
110	0xbd45270a	-0.048132934
111	0x3ce354c0	0.027750373
112	0x3c5dd5a1	0.013539703
113	0xbd379c2e	-0.04482668
114	0x3bd28be0	0.006425366
115	0x3ce59a79	0.02802776
116	0x3d928c0d	0.07155619
117	0xbd41cc1d	-0.0473138
118	0xbd936bb9	-0.07198281
119	0xbb915225	-0.004434841
120	0x3c79752e	0.015225692
121	0xbb5d7462	-0.0033791293
122	0x3c885afc	0.016644947
123	0x3d7165b0	0.058934867
124	0xbd9cc355	-0.07654444
125	0xbc828586	-0.01593281
126	0x3d5c848b	0.05383734
127	0xbda28229	-0.07934982
128	0xbd5a01b6	-0.053224288
129	0xbc1fdb9d	-0.00975695
130	0xbd91b40a	-0.07114418
131	0x3db70db1	0.08938158
132	0x3d706a60	0.058695197
133	0xbd3e7b95	-0.046504576
134	0xbcfc3608	-0.030787483
135	0xbd170214	-0.036867216
136	0xbad67b4f	-0.0016363653
137	0xbd82994a	-0.06376894
138	0x3cd46775	0.025928238
139	0xbd252e61	-0.040327433
140	0xbbca16a9	-0.006167252
141	0x3d9e99b0	0.07744157
142	0x3c6ba8bc	0.014383491
143	0xbd9b37f0	-0.075790286
144	0xbdb29719	-0.08720226
145	0x3cd5b751	0.026088389
146	0xbd36335a	-0.044482566
147	0xbd1a45d4	-0.03766425
148	0xbc240bf7	-0.010012618
149	0xbd9ac974	-0.075579554
150	0x3d3b5430	0.045734584
151	0xbc08a228	-0.008339442
152	0xbd096bcb	-0.033550065
153	0x3daf07d3	0.08546414
154	0xbc701199	-0.014652633
155	0x3d675bd6	0.056484066
156	0x3d56d019	0.05244455
157	0x3daaf78e	0.083479986
158	0xbd11eac6	-0.035624288
159	0xbd33486b	-0.043770235
160	0xbd72a94c	-0.059243485
161	0xbd8a56fe	-0.06754874
162	0x3d635f59	0.055510852
163	0xbd89ebb8	-0.06734413
164	0xba264ad0	-0.00063435454
165	0x3da6bb39	0.08141179
166	0xbd106bf4	-0.035259202
167	0x3bc14363	0.0058979257
168	0xbd42af6b	-0.047530573
169	0xbc2302db	-0.009949411
170	0x3d804a50	0.06264174
171	0x3c9ec67b	0.019381752
172	0x3b2d673c	0.0026459238
173	0xbc1b10b8	-0.009464435
174	0x3d93c9ce	0.072162256
175	0xbb952edb	-0.0045527047
176	0xbd8dcc02	-0.06923677
177	0xbc27ae98	-0.0102344975
178	0xbd6c21c0	-0.057649374
179	0xbcd8cd0b	-0.02646496
180	0x3c0ac3d3	0.00846954
181	0xbcf3d1dd	-0.029763157
182	0xbc2814d5	-0.010258873
183	0x3d565e48	0.052336007
184	0xbd36642e	-0.044529133
185	0x3d3a756e	0.045522146
186	0xbd8adac2	-0.06780006
187	0x3d647107	0.055771854
188	0xbd796515	-0.060887415
189	0x3d634ce7	0.05549326
190	0x3bf57be5	0.007491576
191	0xbb93a535	-0.004505778
192	0xbd1b4c32	-0.037914462
193	0x3d15d695	0.036581594
194	0xbd407bbb	-0.046993
195	0xbd8b962f	-0.068157546
196	0x3cfbac5e	0.03072184
197	0x3b9c9fc5	0.004779788
198	0xbb18cd93	-0.002331589
199	0xbd503045	-0.050827283
200	0xbd2bf6b2	-0.041983314
201	0x3c3c4682	0.01149142
202	0x3ca19718	0.019725367
203	0xbda42728	-0.08015281
204	0xbd62b1e4	-0.05534543
205	0x3d9c863f	0.07642793
206	0x3d13226a	0.03592149
207	0xbd00e21a	-0.031465627
208	0x3d9be535	0.07612077
209	0xbd92bab2	-0.071645156
210	0xbc95f8fe	-0.018307205
211	0x3d8db6a6	0.06919603
212	0xbda27cd2	-0.07933964
213	0x3d770b97	0.060313787
214	0x3d45b678	0.04826972
215	0xbcbffcf4	-0.023436047
216	0xbd803e2b	-0.062618576
217	0x3ae369a0	0.0017350204
218	0xbda0cb30	-0.07851255
219	0xbd9d2cb0	-0.07674539
220	0xbd0e22c5	-0.034701128
221	0x3c6222eb	0.01380227
222	0x3bae9f3e	0.0053290417
223	0x3bff66eb	0.007794251
224	0x3c58f76d	0.013242585
225	0xbd91f739	-0.07127232
226	0xbd9fb98a	-0.07799061
227	0x3d699891	0.057030264
228	0x3cc4a227	0.024003102
229	0xbd8254b3	-0.06363811
230	0xbcd06501	-0.025438787
231	0x3d01568a	0.03157667
232	0xbd0b3286	-0.03398373
233	0xbd920c4c	-0.07131252
234	0x3d7682c3	0.060183298
235	0x3d1c6434	0.0381815
236	0xbcd4d947	-0.025982512
237	0x3c88f41b	0.016717961
238	0xbc3ace4e	-0.011401726
239	0x3af77398	0.0018879054
240	0x3d0189f9	0.03162572
241	0xbdabe35c	-0.08392975
242	0xbc27eca8	-0.010249294
243	0xbd5cc9c5	-0.05390336
244	0xbda06800	-0.078323364
245	0x3d6d97b0	0.05800599
246	0xbd91cf6a	-0.07119639
247	0xbd7d9e1a	-0.061918356
248	0xbd4de875	-0.050270516
249	0x3d54108d	0.051773597
250	0xbd78901f	-0.06068432
251	0xbcadba67	-0.021207048
252	0x3d2e5fe6	0.042571925
253	0x3cd18b2a	0.025579054
254	0xbd923648	-0.071392596
255	0xbd929e15	-0.07159058

projection_layer.4.bias f4 [128]
0	0x3d2ea367	0.0426363
1	0x3c11ae57	0.0088916635
2	0x39beb241	0.00036372434
3	0x3d31b864	0.04338874
4	0xbc7412cc	-0.01489706
5	0x3d5d8855	0.054085094
6	0xbd239258	-0.039934486
7	0x3a84c650	0.0010129903
8	0x3d926496	0.071480915
9	0xbdadf512	-0.08494009
10	0xbd99320d	-0.074802496
11	0xbca88ff7	-0.02057646
12	0xbd816bdf	-0.06319403
13	0xbd8af654	-0.067852646
14	0xbd32a215	-0.043611605
15	0x3d25da61	0.040491465
16	0xbd6e3f0c	-0.058165595
17	0x3aa8c159	0.0012875005
18	0x3c87985d	0.016552145
19	0x3cb80580	0.02246356
20	0x3cee748b	0.029108306
21	0xbd7ee457	-0.06222948
22	0xbd1740ee	-0.036927156
23	0x3d7e257b	0.062047463
24	0x3d0bead8	0.03415951
25	0xbd2dbcec	-0.042416498
26	0xbce6f214	-0.028191604
27	0x3d82f3fc	0.063941926
28	0x3da1694f	0.07881414
29	0x3b8038f8	0.003913041
30	0xbd90625c	-0.070500106
31	0xbdb31198	-0.0874359
32	0x3db3619f	0.08758854
33	0x3d2ff66b	0.042959612
34	0x3da6822e	0.081302986
35	0xbd21fb4a	-0.03954629
36	0xbd18b768	-0.037284285
37	0x3d74f958	0.059808105
38	0xbd7c8c4d	-0.06165724
39	0x3d177c1f	0.036983605
40	0xbd6da71b	-0.058020692
41	0x3c63a400	0.013894081
42	0x3c356435	0.0110712545
43	0x3d2776a1	0.040884618
44	0xbda4b278	-0.08041853
45	0xbd56f6f3	-0.052481603
46	0xbda21095	-0.07913319
47	0x3d7aa029	0.061187897
48	0x3c75936e	0.014988763
49	0xbc6a205e	-0.0142899435
50	0xbd9d874f	-0.07691824
51	0x3cfd68ac	0.0309337
52	0x3d5c8797	0.053840246
53	0x3da11850	0.07865965
54	0x3cbe6396	0.023240846
55	0xbd0e0aff	-0.034678455
56	0xbd8b834e	-0.06812154
57	0x3d93b8ab	0.07212957
58	0x3ca6f67f	0.02038121
59	0xbbdf5216	-0.0068152053
60	0xbda2d68f	-0.0795108
61	0x3d8dd75e	0.06925844
62	0x3d8ecd92	0.06972803
63	0xbcadcce3	-0.021215862
64	0xbd40b832	-0.047050662
65	0xbc4a89dc	-0.01236197
66	0x3bfacb0c	0.0076535996
67	0x3be82513	0.0070844977
68	0xbd8066a4	-0.06269577
69	0x3da940f5	0.08264343
70	0xbcaa37e0	-0.020778596
71	0x3dad7037	0.08468669
72	0x3daa3f26	0.08312826
73	0xbc54c463	-0.012986275
74	0x3d923178	0.07138342
75	0xbd6bdcb0	-0.05758351
76	0xbce2d580	-0.027689695
77	0xbc0a3b0c	-0.008436929
78	0x3c957b56	0.018247288
79	0x3d84e7f6	0.064895555
80	0xbdac54e9	-0.08414633
81	0x3d8fcd03	0.07021525
82	0x3d2edc31	0.04269046
83	0xbc0a1bc9	-0.008429476
84	0x3d754c7f	0.059887405
85	0xbd382219	-0.044954393
86	0x3d8e9461	0.06961895
87	0xbc7acb90	-0.015307322
88	0x3d330a6f	0.043711122
89	0xbd57dcc1	-0.05270076
90	0x3c288559	0.010285699
91	0x3db216d7	0.086957626
92	0x3bd9b07e	0.006643354
93	0xbd1f5bc4	-0.038905874
94	0x3d3c21ba	0.0459306
95	0xbd3a6f14	-0.04551609
96	0xbb57818a	-0.0032883608
97	0xbda41383	-0.08011534
98	0x3d6b0d0c	0.05738549
99	0xbdae85f5	-0.08521644
100	0x3bba34ac	0.0056825485
101	0x3db205d4	0.08692518
102	0xbccfe5cf	-0.025378136
103	0x3c8d7954	0.017269768
104	0x3d8338ea	0.0640734
105	0x3bc97329	0.0061477614
106	0xbce8810f	-0.028381852
107	0xbc20cf58	-0.00981506
108	0x3b416e51	0.0029515217
109	0xbd82f705	-0.063947715
110	0xbda1224a	-0.07867868
111	0x3d0b434a	0.03399972
112	0xbd2a9472	-0.041645475
113	0x3d482c27	0.048870232
114	0x3d82c5c5	0.06385378
115	0x3d5849af	0.052804645
116	0x3d8c7e31	0.068600066
117	0x3d904718	0.0704481
118	0xbda6beab	-0.08141836
119	0x3c66f820	0.014097244
120	0xbca1b5f7	-0.019740088
121	0xbbe6c922	-0.00704302
122	0xbd6972b6	-0.056994162
123	0xbcc1ed8e	-0.023672845
124	0xbc7450af	-0.014911815
125	0x3c039524	0.008031163
126	0xbcc4f1ee	-0.024041142
127	0xbd2dc20a	-0.04242138

output_layer.weight f4 [1, 128]
0	0x3d29bba3	0.04143871
1	0x3d1f68c6	0.03891828
2	0x3c2322cf	0.0099570295
3	0x3c807306	0.015679847
4	0x3b7e6831	0.0038819427
5	0x3dba81b7	0.091067724
6	0xbc7e063d	-0.015504417
7	0xbd771f9f	-0.06033289
8	0xba4fba3d	-0.0007924175
9	0x3da6d091	0.0814525
10	0xbc441886	-0.0119687375
11	0xbd1ff5be	-0.039052717
12	0xbd99ceba	-0.07510133
13	0xbd3a4e00	-0.045484543
14	0xbcdabf67	-0.026702596
15	0xbd2d0d60	-0.042249084
16	0x3b31ccf6	0.0027130223
17	0xbc285544	-0.010274235
18	0xbd3f8ef3	-0.046767186
19	0x3dabe95e	0.08394121
20	0xbd4846dc	-0.0488957
21	0x3d43098c	0.047616526
22	0x3d4c2dc4	0.049848333
23	0xbd24e7a2	-0.040259965
24	0x3d1941f0	0.0374164
25	0x3bc89ce0	0.0061222166
26	0xbda059e5	-0.07829646
27	0xbda6c2a2	-0.08142592
28	0xbd07aac5	-0.033121843
29	0x3d163294	0.03666933
30	0x3cd679e4	0.026181169
31	0xbd9d3cac	-0.07677588
32	0x3caeb4fc	0.021326534
33	0xbd023c09	-0.031795535
34	0x3d4aa29a	0.049471475
35	0x3c73bbef	0.01487635
36	0xbdad8b47	-0.08473831
37	0xbd4a49c9	-0.049386773
38	0x3c8e31bc	0.0173577
39	0x3c9488a9	0.01813157
40	0x3da6fd9e	0.081538424
41	0x3d6fdf77	0.058562722
42	0x3cee8bff	0.02911949
43	0xbd667b27	-0.05626979
44	0xbd86fca2	-0.06591155
45	0x3d6b769d	0.057486165
46	0x3a88cd35	0.0010437133
47	0x3da23b15	0.07921425
48	0xbd5be6c7	-0.053686883
49	0x3ccd87ca	0.025089163
50	0xbcf34ce3	-0.029699748
51	0x3cf9caba	0.030492175
52	0xba1dc8e9	-0.00060190127
53	0xbcbeae0e	-0.023276355
54	0xbda62d89	-0.08114154
55	0xbdaa2679	-0.08308119
56	0xbbd25ac3	-0.006419511
57	0x3ccce023	0.02500922
58	0xbc2b9ff8	-0.010475151
59	0x3da95860	0.08268809
60	0x3c0d012f	0.008606239
61	0x3d7effa3	0.062255513
62	0xbd629a72	-0.05532307
63	0xbc5558ed	-0.01302169
64	0xbd170f24	-0.036879674
65	0x3d8fd56f	0.07023131
66	0x3db01cfa	0.08599277
67	0x3c9aba8b	0.018887779
68	0x3d85d46b	0.06534656
69	0x3ce9c31a	0.028535414
70	0x3d261435	0.040546615
71	0xbd3da158	-0.046296448
72	0xbd8b01a2	-0.06787421
73	0x3d094b1a	0.033518888
74	0x3da18088	0.078858435
75	0x3d91d4bb	0.07120653
76	0xbd786305	-0.060641307
77	0x3db72ae0	0.08943725
78	0xbc8f486b	-0.017490586
79	0xbd0bd66e	-0.034140043
80	0xbccac4f5	-0.02475212
81	0x3c4a8c73	0.012362587
82	0x3d853b86	0.06505494
83	0x3da5c1cc	0.080936044
84	0xbd1e964c	-0.038717553
85	0x3d7d766d	0.061880518
86	0xbd2a6167	-0.041596796
87	0xbd55c22b	-0.052187126
88	0xbd5b1e17	-0.053495493
89	0x3d1e03e2	0.03857792
90	0x3d31097d	0.04322194
91	0x3d9df265	0.07712249
92	0xbc994c5c	-0.018713169
93	0xbd8fd879	-0.07023711
94	0x3b4d0fde	0.0031289975
95	0x3d7ceb14	0.061747625
96	0x3bad82a6	0.0052951155
97	0xbd555b9d	-0.052089322
98	0xbd405125	-0.046952385
99	0xbd306e5e	-0.043074004
100	0x3cdb25ee	0.026751485
101	0xbcc9faeb	-0.02465578
102	0x38da44cb	0.00010407864
103	0x3b38781f	0.002814777
104	0x3ceef2c5	0.029168496
105	0x3bb40ae6	0.0054944633
106	0x3d44dba6	0.048061036
107	0xbd609d37	-0.05483743
108	0x3c6d2816	0.014474889
109	0xbd77f597	-0.060536947
110	0x3c687580	0.01418817
111	0xbd14b9e0	-0.036310077
112	0xbd3fd85e	-0.046837203
113	0xbc8dfe48	-0.017333165
114	0xbdae4307	-0.08508878
115	0x3d3db9aa	0.04631964
116	0xbda33015	-0.07968155
117	0xbd0728e2	-0.032997973
118	0xbd734a67	-0.059397127
119	0xbd729e63	-0.05923308
120	0x3d833cdd	0.06408093
121	0xbd3fb4e0	-0.046803355
122	0x3da5ce52	0.08095993
123	0xbccb34ae	-0.024805393
124	0xbd8f1347	-0.06986099
125	0xbcbb01d0	-0.022828013
126	0x390c0d32	0.00013356356
127	0xbc3d0907	-0.011537797
