Checkpoints/HR_V/valence_s25.pth (torch, 461905 bytes, 29 tensors)

input_layer.weight f4 [128, 29]
000000 5b 95 1a 3d 6d 59 1a be 97 c2 05 be be e0 cf bd
       0.037740093 -0.15073176 -0.13062511 -0.10150288
000010 b1 97 18 be 4a 97 ed bc c2 69 52 3c c2 a9 1f be
       -0.14901616 -0.029002804 0.012842597 -0.15592101
000020 10 c4 99 bd 1d f5 29 be 15 a0 d1 bd 2a e6 ec bd
       -0.07508099 -0.1659741 -0.10235611 -0.11567338
000030 29 4f 04 3e 4a 90 2d be 6c e1 0c bd 03 9a 33 be
       0.12920822 -0.16949573 -0.034394667 -0.1753922
000040 85 a1 ce bd 5d 70 c7 3d b6 bd a4 bd 6e a9 7d 39
       -0.10089401 0.097382285 -0.08043997 0.00024191078
000050 f4 e2 ff bc 7d 0e 1f be 08 cf a5 bd 29 76 35 be
       -0.03123615 -0.1553287 -0.08096129 -0.17720856
000060 f7 e9 0d 3e b4 0a 16 3d d5 05 f5 3d 69 4d 27 bd
       0.13858782 0.0366313 0.11964003 -0.04084531
000070 10 8a 12 be c7 ba 30 3e 91 aa b3 3d e8 cd d5 3d
       -0.14310479 0.1725875 0.08772767 0.10439664
000080 f1 c5 fa 3d 0e 94 c3 3d d1 d0 2e be 2d 2b 6c 3d
       0.122447856 0.095497236 -0.17071845 0.057658363
000090 bb 8f 13 3e 06 2f 2d be 8c 36 50 3c 4b f3 88 3d
       0.14410298 -0.1691247 0.0127083175 0.066870295
0000a0 72 68 12 3e 71 0e a8 bd e7 3e 67 3d e6 9e b7 bd
       0.14297655 -0.082058795 0.056456473 -0.08965854
0000b0 5f f4 fd 3c ab b6 2b 3e d7 34 ce 3d 69 a2 cb 3d
       0.031000314 0.16768901 0.10068672 0.09943087
0000c0 31 cd a9 3c 36 1f 71 bd 97 20 2f be 09 c9 43 3c
       0.020727726 -0.058867656 -0.17102276 0.011949786
0000d0 ed ae eb bb eb 82 fd 3d 61 b1 d1 3d 4d 2a 15 3d
       -0.0071924836 0.12378486 0.102389105 0.036417294
0000e0 c5 02 32 be f9 93 1c be eb ae 01 be 3c c5 f2 3d
       -0.17383869 -0.15290822 -0.12664382 0.11854026
0000f0 28 2a 2c 3e d3 ff 25 be 77 36 8a 3b d0 b5 9a bc
       0.16812956 -0.1621087 0.0042179185 -0.018885523
000100 48 ff 1a 3e 9a c4 14 3e e4 cb d8 bd 85 37 24 bd
       0.15136445 0.14528123 -0.10585764 -0.04009201
000110 3a 7c 14 3e 84 be 84 bd 5f fb 00 3e 54 30 a5 3d
       0.14500514 -0.064816505 0.1259589 0.080658585
000120 f1 a5 a2 bd 48 7d 0f 3d 7a 17 8f bd 33 c2 58 3d
       -0.07941807 0.035031587 -0.069869 0.052919578
000130 27 4a d5 3d 2e 1f 20 be dc da 32 bd cd 52 8b 3d
       0.10414534 -0.15636894 -0.04366575 0.06802902
000140 b8 d5 c4 bc a5 a8 2f be bf 81 11 3e 00 d6 37 3e
       -0.02402769 -0.17154177 0.1420965 0.17952728
000150 8f 54 83 3d f1 c8 2c be 6c 5f 06 3e 59 df ec bd
       0.06412613 -0.16873528 0.13122338 -0.11566038
000160 76 4c d0 3d f2 0c 13 3d ea be 3f 3e da 47 3c bd
       0.10170834 0.035901017 0.18725172 -0.04596696
000170 73 78 45 3d 50 fd 04 3e 61 05 a6 3d 84 81 42 3e
       0.048210572 0.12987256 0.08106495 0.18994719
000180 41 3e 93 bd 9e 43 32 be e7 48 34 be d9 d6 28 bc
       -0.07189608 -0.17408606 -0.17605935 -0.01030513
000190 6c d5 66 bc 96 2e 0f 3e 1d 8d db 3d 9a c8 81 bd
       -0.01408897 0.13982615 0.107202746 -0.0633709
0001a0 e9 d8 84 bd 8c 5d 26 bd cf 0d cc 3d bf 10 02 be
       -0.06486685 -0.040616557 0.09963571 -0.127017
0001b0 da ea cb bd 53 bf 29 be dd 88 28 be e1 b5 3e 3e
       -0.09956904 -0.1657689 -0.16458459 0.18624069
0001c0 83 7a 25 3e 5c 0a 37 be 3d 57 5d bd 4c 14 04 3d
       0.16160016 -0.17875046 -0.054038275 0.03224592
0001d0 41 0f 20 be 88 5d fe 3c 95 96 1c be 57 98 1a be
       -0.15630819 0.031050459 -0.15291817 -0.15097176
0001e0 5d 93 d0 3d 74 28 09 bd 69 d3 b9 bd bd a7 26 3e
       0.10184357 -0.033485845 -0.090735264 0.16274925
0001f0 5e 11 2e 3e 81 2c bb bd 25 d5 2e be 03 48 24 be
       0.16998813 -0.09139348 -0.17073496 -0.16043095
000200 af e2 03 3e db cf b2 bd 37 c9 2e be 3d 94 c6 bd
       0.12879442 -0.087310515 -0.17068945 -0.09696243
000210 5b f5 13 3e 4d 00 09 bd 57 94 0f bc 2c 22 7e bc
       0.14449064 -0.033447552 -0.008763394 -0.015511077
000220 6e 94 16 be 24 07 25 3d 6e c8 33 be a9 4c 0e 3e
       -0.14705059 0.040290013 -0.17556927 0.13896431
000230 23 a0 1f 3e 51 4d 03 3e e5 70 ed bd 01 a4 88 bd
       0.15588431 0.12822463 -0.115937985 -0.06671906
000240 45 ba 16 3e 67 b7 d7 bd 96 eb 4f bd 38 b6 b9 bd
       0.14719494 -0.10533028 -0.05076178 -0.090679586
000250 48 8e 31 3d b4 ac df bb 2f e9 c7 bd 3f f2 9c 3b
       0.04334858 -0.0068260077 -0.09761273 0.00478962
000260 f2 0a 3d bd 47 c1 17 be 11 db 8a bd 41 40 0b be
       -0.046153016 -0.14819823 -0.06780065 -0.1359873
000270 a5 8f 1d 3e e8 86 2e be 85 61 6a bc da d3 ec b9
       0.15386827 -0.1704365 -0.014305477 -0.0004517127
000280 4b 44 1b 3e c7 38 de 3d d2 ec 44 3c ba df 56 3d
       0.1516277 0.10850673 0.012019353 0.052459456
000290 7a 19 99 3d 7f d4 ea 3d 76 1e ba 3b b0 e7 21 3e
       0.074755624 0.11466312 0.0056799008 0.15811038
0002a0 ab 76 27 3d 1f 0b cd bd b1 6e 2e bd 26 49 fe 3d
       0.040884655 -0.10011887 -0.042586032 0.12416296
0002b0 58 62 2b 3e bf 37 58 bd 48 29 ea bd b5 20 fa 3d
       0.16736734 -0.05278754 -0.11433655 0.122132696
0002c0 29 1d ba 3d 32 17 8d 3d 1c 34 33 bd 71 cb 6b 3d
       0.09087593 0.0688919 -0.043750867 0.057567064
0002d0 31 04 7f bc d5 fd 2a 3e 4b 78 03 3e 09 dd 73 bd
       -0.015564964 0.16698392 0.12838857 -0.059536967
0002e0 a8 28 a9 bd c4 8e 69 3c 74 fe e0 3d 89 d5 e5 3d
       -0.08259708 0.014255229 0.10986033 0.11222369
0002f0 f3 ce 6e 3d fa 87 53 3d 7b 41 1b bb 42 93 33 3e
       0.05830283 0.05164335 -0.0023690152 0.17536643
000300 b6 49 5e bd cf b0 36 3e 32 f1 89 bd 8a 7a fd bc
       -0.054269515 0.17840885 -0.067354575 -0.03094222
000310 b3 a6 20 3e eb ad 3f be 1a 9d ac 3c 93 71 ec 3d
       0.1568859 -0.18718688 0.021071006 0.115451
000320 5e 56 0d be 48 5f 01 3b 9b a9 41 be 11 39 9b bd
       -0.13802478 0.001974063 -0.18912356 -0.07579244
000330 61 a7 c0 3d 91 40 03 be 94 86 af 3b b3 ae 81 bb
       0.09406925 -0.12817599 0.005356619 -0.0039575933
000340 10 c2 15 bd 80 46 31 be e0 9c fb bd bb ec d4 3d
       -0.036562026 -0.1731205 -0.12285781 0.10396715
000350 13 c7 09 bb 51 71 39 3e 3c b7 83 3d 02 ef 98 3d
       -0.0021023198 0.18109633 0.064314336 0.07467462
000360 fb d7 8a 3c 56 c0 29 be cf 56 12 3e dd 91 0f 3e
       0.01694869 -0.16577277 0.14290927 0.14020486
000370 16 cc 40 3c 6f 67 e8 bd 8b 41 ac 3d 51 20 39 3e
       0.011767408 -0.113478534 0.08410939 0.18078734
000380 fb 29 e8 3d 31 48 33 bd 1c 7a e4 bc 65 c3 a1 3d
       0.11336132 -0.04377002 -0.027890258 0.07898597
000390 94 95 af bc f9 b3 21 be 02 93 b2 bd 20 21 e4 3d
       -0.02143363 -0.1579131 -0.08719446 0.111391306
0003a0 e4 71 39 3e dd 3d d6 3d 48 f7 14 be 01 15 06 3e
       0.18109852 0.10461018 -0.14547455 0.1309395
0003b0 c6 e7 03 3d 06 f0 21 3d 41 dd 18 be d8 0e 95 3d
       0.03220346 0.039535545 -0.14928152 0.07278222
0003c0 4f b2 6d bd 26 01 13 3e 58 f9 ed bb c2 a5 ac 3d
       -0.058031376 0.14355907 -0.00726239 0.08430053
0003d0 09 11 d4 3b bc e0 aa bd 0e 7b 8e bd e6 b8 d8 bd
       0.0064717573 -0.08343646 -0.069570646 -0.105821416
0003e0 f9 59 e9 3d 4d 1d c9 ba 9a 18 d6 bd 4b 1c 3b 3e
       0.11394114 -0.0015343815 -0.10453911 0.18272512
0003f0 3a dd 17 bc f8 fd 08 3d 47 ea e5 bd 17 11 02 be
       -0.009269053 0.03344533 -0.112263255 -0.12701832

input_layer.bias f4 [128]
000000 d3 a4 12 3d db af 2f be d5 20 75 3d b6 af a4 3d
       0.03580172 -0.17156927 0.059845764 0.08041327
000010 f8 c7 8b 3d 6c b8 67 bd f5 14 44 bd 2d dc c3 bd
       0.068252504 -0.056572363 -0.04787155 -0.095634796
000020 f5 c0 0f bd 84 d6 e5 3d a0 0e 9d 3b c1 e3 0d be
       -0.035096128 0.11222556 0.004793003 -0.13856412
000030 d7 5c 01 3e 63 e1 19 3e 7a 1c 42 bd 2e 21 26 3e
       0.12633072 0.15027384 -0.04739044 0.16223595
000040 1e d2 84 bd f5 2c 12 be f1 78 32 be 82 66 06 3e
       -0.06485389 -0.14274962 -0.17428948 0.13125041
000050 bc 86 bc 3d 61 9d b0 bd 83 f2 01 be 3a 12 ee 3c
       0.09205386 -0.08623768 -0.12690167 0.029061425
000060 f1 f5 cc 3b be aa 2d 3e 3d 12 04 be 8e 40 20 3e
       0.0062549044 0.16959664 -0.12897582 0.15649626
000070 39 f3 d8 3a 47 ca c3 3d 55 e1 ba 3d 07 19 77 3d
       0.0016551978 0.09560066 0.0912501 0.060326602
000080 e2 05 0c 3c 1c b4 25 3e bd 3b 64 3d eb a4 37 3d
       0.008546324 0.16181988 0.055721033 0.044835012
000090 a3 d7 12 be dd 0f 2f bd 51 03 be bc 7d d9 16 be
       -0.14340071 -0.042739738 -0.02319494 -0.14731403
0000a0 55 c9 31 be 34 7c 19 be a4 8d d9 bd 4d 69 32 bd
       -0.17361958 -0.14988786 -0.10622719 -0.043557454
0000b0 5c c6 dd bd 5a 51 ab 3c 10 40 af 3d c0 2e d7 3d
       -0.1082885 0.020912815 0.08557141 0.10506964
0000c0 89 2f 72 3b 92 e1 0e be 0c 47 b3 3d c0 83 5e bc
       0.0036954603 -0.13953236 0.087537855 -0.013581216
0000d0 99 4d 92 3b 07 2d 2e 3c e4 4e 0a be e6 38 17 3e
       0.004464817 0.010630853 -0.13506657 0.14767799
0000e0 f7 56 0f 3e fd 65 95 3d 7e aa 88 3d 0c 1c bb 3c
       0.13998018 0.07294843 0.06673144 0.022840522
0000f0 f9 f3 fb bd 4b 58 17 be 16 ec b8 bc 74 79 35 be
       -0.123023935 -0.14779775 -0.022573512 -0.17722112
000100 d5 c4 25 be d5 64 21 3e 03 9c 64 bc 9d 11 da 3d
       -0.16188367 0.1576112 -0.013953212 0.10647891
000110 1b e2 aa bd a2 59 b6 3d 43 cd f0 bd 9a 38 7e 39
       -0.083439074 0.08903815 -0.117579006 0.00024244413
000120 55 2f 2a be ad 07 02 be 9a 4c 18 3e de 07 32 3e
       -0.16619618 -0.1269824 0.14872971 0.17385814
000130 3b ab bf bc 0d ce 7c 3c d8 0c 99 3d 3d 9f 18 3e
       -0.023397079 0.015429986 0.07473153 0.14904495
000140 2a ab c2 bc a1 6b 0f 3e 6c 07 1a 3e 06 5f 25 3e
       -0.023763258 0.14005901 0.15041894 0.1614953
000150 d0 1d b4 bc c8 bd 7f bd c3 9d 06 3d 53 6f 26 3e
       -0.021986872 -0.06243685 0.032865297 0.16253404
000160 bc a9 80 3d 0d df d9 3d 51 ac 1b bd 9c 22 0b 3e
       0.06282374 0.10638247 -0.03800613 0.13587421
000170 12 21 5b bd c8 f6 9e bd f7 47 05 be 74 d1 c6 bd
       -0.053498335 -0.077619135 -0.13015734 -0.09707919
000180 f5 15 ad 3d 23 ff 4f bc 10 5a fa 3d 6a 06 18 3e
       0.084514536 -0.012695107 0.12224209 0.14846197
000190 e5 23 35 be 1e 1b ae bd 75 55 80 bd bd 09 54 bd
       -0.17689474 -0.08501266 -0.062663 -0.0517671
0001a0 b4 af 2d 3e 44 a5 97 3d 37 60 cf bd ef a5 82 3d
       0.16961557 0.07404569 -0.101257734 0.063793056
0001b0 63 8b b2 bd 98 d1 39 3d 8b 49 bb bd 28 92 9d 3d
       -0.08717992 0.0453659 -0.091448866 0.07693893
0001c0 f7 3f cd 3c c1 a6 f6 3d e5 fd 08 3e 3e 7e d3 3d
       0.025054915 0.120435245 0.13378103 0.10326813
0001d0 15 9d 18 be 82 43 c8 bd 92 e2 d7 bb 66 c5 02 be
       -0.14903672 -0.09778501 -0.0065882886 -0.12770614
0001e0 25 d5 a5 3d bc ba 7e 3d c1 5d 7a bd aa d6 b0 bc
       0.08097295 0.062189803 -0.061124567 -0.021586735
0001f0 bc 40 ce bd cc 28 cf bd 67 35 36 3e 06 53 9e bd
       -0.10070941 -0.10115203 0.17793809 -0.07730679

projection_layer.0.weight f4 [128, 128]
000000 6c 9a d6 b9 50 97 94 3c bb 78 6e bd 6d 4b c8 3c
       -0.00040932314 0.018138558 -0.058220606 0.024450028
000010 bf e4 49 bd 17 d4 ac bc 61 00 7d bd f6 b0 1c bd
       -0.049290415 -0.021097226 -0.06176794 -0.0382547
000020 0d 28 95 3d e3 18 fa bc 16 41 5f 3d 47 4a d5 bc
       0.0728303 -0.030529445 0.05450543 -0.026036395
000030 9a 10 03 bd 7a 05 a3 3d d1 2f b5 3d 8c 88 a0 3d
       -0.031998254 0.07960029 0.08847011 0.07838544
000040 4f 62 9e 3d 7e a6 43 bd 0e 1d 75 bd 81 64 a1 bd
       0.077335946 -0.0477662 -0.05984216 -0.07880498
000050 d1 27 68 bd 50 f6 88 bc 59 44 af bc fe cf 11 3d
       -0.056678597 -0.016719013 -0.021394895 0.035598747
000060 51 1f 48 bd 62 63 53 bd 74 44 27 3d 27 39 a5 bc
       -0.04885799 -0.05160845 0.040836766 -0.020168854
000070 cf 6f f0 3b d3 85 a8 bd 4f bd f9 bc ae 0d 0f 3d
       0.0073375474 -0.0822865 -0.030485777 0.034925155
000080 93 2d dd 3c d4 55 41 bd 36 7c 36 bd c8 4d 0a bc
       0.02699927 -0.047200993 -0.04455205 -0.008441396
000090 2b 86 9a 3d 31 84 0d 3d 3f 93 5d 3c 70 54 85 3d
       0.07545122 0.034549896 0.013523876 0.06510246
0000a0 c8 72 99 3d 64 04 65 bd 29 4a ac 3d bd 0e 35 bd
       0.07492596 -0.05591239 0.084125824 -0.04420351
0000b0 a6 d0 01 bb 50 e3 ab 3d 0d c2 af bd 4f 15 b9 bc
       -0.0019808202 0.08392966 -0.08581934 -0.022593169
0000c0 b7 ec 4a 3b e1 1e 3d 3d 1d b2 97 3c b8 e4 c2 bc
       0.0030963847 0.046172027 0.018517548 -0.023790702
0000d0 84 64 ed bc 4e a5 ae bd 8d aa 27 3d 89 43 15 3d
       -0.028978594 -0.08527623 0.040934134 0.03644136
0000e0 1d 3e 8c bd 76 61 75 bd 01 88 cc bc c3 be c7 bc
       -0.06847785 -0.0599074 -0.024967195 -0.024382954
0000f0 2b 8a 50 bd e0 d8 64 bd cd dd 15 3c 8a 57 9e 3d
       -0.050913017 -0.05587089 0.00914712 0.077315405
000100 7a 8a 2c 3d 1b 0d b5 3c fb c1 bb 3c 6b 15 cc bc
       0.04212425 0.022100976 0.022919646 -0.024912557
000110 dd 05 7b bd 07 68 05 3b 1a eb a4 bd 2b b4 a3 bc
       -0.06128489 0.0020356195 -0.080526546 -0.019983372
000120 f9 f2 25 bc 86 e9 c3 3c 9e 29 8a 3b 1d 99 0a bd
       -0.01012873 0.023915064 0.004216387 -0.033837426
000130 b1 6e 38 bc 1c bd 7a bd 8e 23 7c 3b da 3a 9d bd
       -0.01125686 -0.061215505 0.003847334 -0.07677241
000140 27 ce 57 bd 9f b9 55 3c 28 3c eb bc 29 7b a0 3d
       -0.052686837 0.013044744 -0.028715208 0.07835991
000150 6c d5 b6 bd 7d f1 5e bc 41 19 8b 3d 69 6f a6 3c
       -0.08927426 -0.01360738 0.06791926 0.020316796
000160 b0 47 25 bd aa a5 70 bd 0d 54 6e 3d 68 13 c6 3b
       -0.04035157 -0.05875174 0.058185626 0.006044794
000170 1b 19 fb bc 99 c8 72 bd 4b 7e 66 3d 33 ac a6 3d
       -0.03065162 -0.059273336 0.056272786 0.08138313
000180 a4 48 3f 3d 43 ae 32 bc d1 15 86 3c 2a 5e 2f 3d
       0.046700135 -0.010905805 0.016367825 0.04281441
000190 d0 1c a0 3d c7 1a 4a bc c6 9c 11 bd f2 15 a9 3d
       0.078179955 -0.012335486 -0.0355499 0.08256139
0001a0 e4 a7 a6 3d 81 30 9e 3c ff 76 37 bc f1 da 20 bd
       0.08137491 0.019310238 -0.0111978045 -0.0392713
0001b0 83 78 b1 3d ba b9 d2 bc 12 d4 3d 3d b5 26 b0 3c
       0.08665564 -0.025723327 0.046344824 0.021502832
0001c0 17 55 99 3d cc b1 78 bd dd 2e 8c bb 3a 69 9c bd
       0.07486933 -0.060716435 -0.0042780475 -0.07637258
0001d0 1d e8 d5 bc ce 30 a5 3d 8c fb b1 3b e8 61 6f bd
       -0.026111657 0.080659494 0.005431598 -0.05844298
0001e0 f8 12 1a bc 26 eb 72 3d 87 42 1c 3d 7e bc ee bb
       -0.009403937 0.059306286 0.038149383 -0.0072856536
0001f0 6e b8 8a 3d 8a 2b 86 bc 7d b7 99 3d a4 94 a8 bd
       0.067734584 -0.016378183 0.07505701 -0.08231476
000200 7e 40 79 bd d2 0f c5 bb 66 bd 10 3d b2 e2 8d 3d
       -0.06085252 -0.006013849 0.035336874 0.06928004
000210 bc c1 8d 3d a4 05 2d 3b 96 a1 74 3d 83 7f 0e 3d
       0.069217175 0.0026401067 0.059724413 0.034789573
000220 ba d8 a8 bd be 01 65 bd 98 96 b5 bc 1f 58 dd bc
       -0.08244462 -0.055909865 -0.022166535 -0.027019558
000230 c2 fc 32 3c c8 72 84 bd f4 04 06 3d 4d 89 5f bd
       0.01092452 -0.06467205 0.032719567 -0.0545743
000240 21 5b 2a bd 72 43 e3 ba f1 1c bd 3c 83 a0 5b bd
       -0.041590814 -0.0017338826 0.02308509 -0.053619873
000250 a8 09 b3 3d 0a 90 26 3d f4 d1 25 3d 23 d6 65 bd
       0.08742076 0.04066471 0.04048343 -0.05611242
000260 ec 9f 6b 3d 68 58 88 3d e1 da 15 3d 40 97 8b 3d
       0.05752556 0.06657487 0.036585692 0.06815958
000270 dc cb ba bc 52 74 a9 3c 64 ad 85 bd 3c 23 7b bd
       -0.022802286 0.020685349 -0.06527212 -0.0613129
000280 e3 3e ad bc dc a3 8c 3c 7d 15 a9 bd d0 ac 6f bd
       -0.02114815 0.017167978 -0.08256052 -0.058514416
000290 ec f7 8b bd 5c 24 81 bd b0 50 89 bc 92 e9 6f bd
       -0.06834397 -0.06305763 -0.016762108 -0.05857236
0002a0 cc b8 33 bd 3f 64 cb 3c ca de 8f 3d fc 56 ac 3d
       -0.043877408 0.024828074 0.070249155 0.084150285
0002b0 98 45 6a bc 11 9b 15 3d 13 51 a9 bd 4c 6b 34 3d
       -0.014298819 0.036524836 -0.08267417 0.04404764
0002c0 28 51 2e 3d f8 3c 96 3d 08 da 14 3c 04 42 f1 3c
       0.042557865 0.073358476 0.009085186 0.029450424
0002d0 6f f3 13 bd ab 7b a1 3d b9 ca cb bb d9 bf 91 3d
       -0.03612083 0.07884916 -0.006219235 0.0711667
0002e0 dd df 66 bc e6 89 5a bd 51 50 09 3d df c0 f3 3c
       -0.014091459 -0.053354166 0.03352386 0.029755054
0002f0 92 94 57 bd 62 ce 86 bd 87 d3 aa bd ff 53 4a bd
       -0.052631922 -0.06582333 -0.08341127 -0.04939651
000300 16 77 1e 3d 54 fc 5e bd e9 63 25 bd 6c ad 82 bd
       0.038687788 -0.054439858 -0.040378485 -0.06380734
000310 93 eb 70 bd 17 5a b6 bc 4d ee 87 bc 91 4a fd bc
       -0.05881841 -0.022259755 -0.016593123 -0.030919345
000320 04 c1 0a 3d 0c 30 9e bd e5 eb 07 3d 70 8c 88 3c
       0.03387548 -0.07724008 0.03318395 0.016668528
000330 56 15 6e 3d 16 6d 0b bc 5d fc 44 3d da ca b2 3d
       0.058125816 -0.008509895 0.048092235 0.08730097
000340 b7 04 b0 bd d1 e2 9f bc e0 96 06 3d ba ab 8a 3d
       -0.08594649 -0.019517334 0.03285873 0.067710355
000350 b1 d0 3a bd 24 09 0d bd 41 be 8a bd 17 c7 9d 3b
       -0.04560918 -0.034432545 -0.06774569 0.004814993
000360 31 06 89 3d f8 1e 8d bd 07 a7 28 3b 5f 85 b8 3d
       0.06690634 -0.068906724 0.0025734322 0.090098135
000370 a4 f5 99 bd 2a 3a b5 3b 76 d0 6d bd 15 b7 aa 3d
       -0.07517555 0.0055306153 -0.058060132 0.083357014
000380 60 b5 95 bc a5 02 ca bc 63 b4 83 3d 7c 92 75 3d
       -0.018274963 -0.024659464 0.064308904 0.05995415
000390 c9 79 41 bd 54 f7 e6 3b 06 40 50 3d 4a 15 99 3d
       -0.047235284 0.007048527 0.050842308 0.07474764
0003a0 4a bd e9 bc 71 e1 d2 bc 04 0c a4 bd e1 89 9e 3c
       -0.028532643 -0.025742264 -0.08010104 0.019352855
0003b0 d1 03 79 bd 4d 3b a2 bd fa d2 76 bd 22 32 79 3c
       -0.060794655 -0.07921467 -0.060259797 0.0152097065
0003c0 90 b6 78 bc 82 75 c5 bc 7e 49 c3 3c 67 28 a9 3d
       -0.015180245 -0.024103884 0.023838755 0.08259659
0003d0 13 69 33 bd 30 3f ff 3b 1c 34 8b 3c 4e 92 90 bd
       -0.04380138 0.007789515 0.016992621 -0.070591554
0003e0 41 2b b6 3a ac 7f 68 3d f6 02 27 bc f2 fe 84 3d
       0.0013898389 0.056762382 -0.010193577 0.064939395
0003f0 c0 f0 af 3d 12 53 89 bd 75 a6 66 3d d0 18 82 3c
       0.08590841 -0.067052975 0.05631109 0.015880972

projection_layer.0.bias f4 [128]
000000 96 19 3e 3d 2a c5 03 3c b8 5c a4 3d 65 0b c7 bc
       0.04641112 0.008042613 0.08025497 -0.024297426
000010 f7 ac 9d bd 63 b6 bd 3c 4d 3c 71 bd 3c 32 cf 3c
       -0.07699006 0.023158258 -0.058895398 0.025292508
000020 fc 81 5b 3d d6 83 52 3d 92 28 00 3c 9f 03 08 3d
       0.05359076 0.05139526 0.007822173 0.03320658
000030 78 37 84 bc 8f 49 89 3d cd f4 fd 3c 5e b8 de bc
       -0.01613973 0.06703483 0.03100052 -0.027187523
000040 6d 19 ca bc 6b b4 05 bd 5b 91 4b bd 71 30 fb 3c
       -0.024670327 -0.032642763 -0.04969917 0.030662747
000050 b9 4c 86 3d a3 e7 51 3b d5 d8 3c bc c1 bd 10 bc
       0.065576024 0.0032028935 -0.011526306 -0.008834303
000060 7a ea f1 bb e7 bf 87 bd 95 e1 2e 3c 56 3a 2e bd
       -0.007382688 -0.06628399 0.0106739 -0.042536102
000070 97 5a 44 3d 86 81 7c 3d 5d 7a a5 bd a0 3b 0b 3c
       0.047937956 0.06164696 -0.080799796 0.008498102
000080 1d c3 d4 bc e8 68 10 bd b9 4c 08 bd 78 3a 29 3d
       -0.025971944 -0.035256296 -0.033276293 0.041315526
000090 82 cf 1b bd f8 bd 49 3c 39 b9 94 bd 18 8b a4 bd
       -0.03803969 0.0123133585 -0.07261891 -0.080343425
0000a0 e0 25 99 bd 52 84 91 3d 48 7d 86 3c 79 12 f9 3c
       -0.07477927 0.07105316 0.01641716 0.030404316
0000b0 3d 7f 1f 3d 63 e3 9b bd 7e 18 79 bd b3 b1 2c 3d
       0.038939703 -0.0761173 -0.060814373 0.042161655
0000c0 a4 48 5c 3d bd 06 67 3d c1 9f 80 3d 68 9b 89 3d
       0.053780213 0.05640291 0.06280471 0.067190945
0000d0 e8 a4 86 3d 7f e8 11 3d 54 24 56 3d d1 6c 8d 3d
       0.06574422 0.035622116 0.05228074 0.06905521
0000e0 00 88 35 bd 92 bb 9f 3b 3f c5 6d 3b 93 74 c4 bb
       -0.044319153 0.004874655 0.0036280898 -0.005995342
0000f0 81 d4 6c bd 18 ba 1b bd 38 b5 95 3d c5 a9 ff 3c
       -0.057819847 -0.03801927 0.07309955 0.031208882
000100 8b 9c 6d bd 82 d8 56 3d 9f f5 99 3d e6 d1 1a 3d
       -0.05801062 0.05245257 0.07517552 0.03779783
000110 7e 8e 80 ba 03 2f a1 3d 6c 09 3b 3d 96 f5 6a bd
       -0.0009808091 0.07870295 0.045663282 -0.057363115
000120 7b cb 4c 3d f0 a6 84 3a 05 b5 47 bd 26 2f a2 39
       0.04999874 0.0010120552 -0.048756618 0.00030934176
000130 d0 e2 9b 3d dd ef a0 bc d1 2a 71 bb 00 c5 91 3d
       0.076116204 -0.019645626 -0.0036799202 0.07117653
000140 5d 85 86 3d 1e e2 fb bc 46 13 62 bd 3c 21 92 b9
       0.06568406 -0.03074747 -0.05519416 -0.00027872052
000150 86 e0 9b 3c f8 e8 d8 bc e0 6c 07 3d 71 23 57 bd
       0.01902796 -0.026478276 0.033062816 -0.052524034
000160 91 32 a1 3d 51 ce 53 3d 59 cd 8e bd 15 22 a6 bd
       0.07870973 0.05171043 -0.06972761 -0.081119694
000170 48 46 3a bc e4 a3 07 bd 5f ef 92 3d 0b d3 e1 ba
       -0.011369295 -0.033115283 0.07174563 -0.0017229033
000180 df 2e 1e bd 8a 60 50 bd 57 a5 2e 3d e7 aa 7b bd
       -0.03861892 -0.050873317 0.04263815 -0.061442282
000190 64 75 0e 3c 98 ef 09 bc 39 5a 89 bb ad f3 84 3d
       0.00869498 -0.00841894 -0.0041916636 0.0649179
0001a0 62 11 84 3d 91 66 5b 3d 89 18 72 3d c5 70 2f bd
       0.06448628 0.05356461 0.05910543 -0.042832155
0001b0 de d9 79 3d 98 d1 2f bd 58 c2 c7 3c f2 7d b9 3c
       0.06099879 -0.042924494 0.024384663 0.022643063
0001c0 a2 0f 5d 3d 1e aa 42 ba 08 73 1c 3d ec 12 82 bd
       0.053969987 -0.0007425862 0.03819564 -0.06351265
0001d0 f6 59 4f bd 43 e1 3c bc 96 56 5f 3d 9d 06 c8 3c
       -0.050622903 -0.011528316 0.054525934 0.024417216
0001e0 0a 7f 56 3d b0 99 09 3d 97 13 1d 3d 19 72 64 3d
       0.052367248 0.033593833 0.03834876 0.055772875
0001f0 42 7e c8 3c e6 bb 1c bd eb 9d 5b bd 1b dd d6 bc
       0.024474267 -0.03826513 -0.0536174 -0.026228478

projection_layer.1.weight f4 [128]
000000 67 14 80 3f 1f b9 7f 3f 4c 7f 7e 3f 92 24 7f 3f
       1.0006226 0.9989185 0.9941299 0.99665177
000010 af f0 7f 3f 2d c7 7f 3f 00 6c 7f 3f b7 bc 7e 3f
       0.9997663 0.99913293 0.9977417 0.99506706
000020 68 e0 7f 3f 2a c2 7e 3f a0 ea 7f 3f 15 bb 7e 3f
       0.9995179 0.9951502 0.99967384 0.99504215
000030 84 5b 7f 3f df ce 7e 3f ce 23 80 3f 46 05 80 3f
       0.99749017 0.9953441 1.0010927 1.0001609
000040 87 38 7f 3f 40 a9 7f 3f 77 3d 7f 3f 9c 6a 7e 3f
       0.9969563 0.9986763 0.9970316 0.99381423
000050 8d 58 7f 3f 91 f1 7e 3f a4 16 80 3f b1 a5 80 3f
       0.9974449 0.9958735 1.0006909 1.0050565
000060 69 37 7f 3f e0 e2 7e 3f e8 8c 7e 3f f6 0a 7f 3f
       0.99693924 0.99564934 0.99433756 0.996261
000070 48 f8 7f 3f de 88 7e 3f 8c bd 7f 3f 40 2b 80 3f
       0.9998822 0.9942759 0.998986 1.0013199
000080 2e 21 7f 3f 92 c9 7e 3f ce 6c 7f 3f 4f cd 7f 3f
       0.99660003 0.9952632 0.997754 0.9992265
000090 46 fe 7f 3f 3a 21 7e 3f dd 3c 7e 3f 5c a3 7f 3f
       0.99997365 0.9926945 0.9931162 0.9985864
0000a0 4e e9 7f 3f 5c 80 80 3f 19 99 7e 3f d4 ba 7f 3f
       0.9996537 1.0039172 0.9945236 0.9989445
0000b0 1d 65 80 3f b2 40 7f 3f 6d e1 7f 3f 55 e0 7e 3f
       1.0030857 0.9970809 0.9995335 0.99561054
0000c0 60 c6 7e 3f 6d d0 7f 3f b8 42 80 3f fb 29 80 3f
       0.99521446 0.9992741 1.0020361 1.0012811
0000d0 51 7f 7f 3f ec 61 7f 3f f3 02 80 3f a5 1d 80 3f
       0.99803644 0.9975879 1.00009 1.0009047
0000e0 2c 10 80 3f 95 a0 7e 3f 77 e2 7f 3f d2 d5 7e 3f
       1.0004935 0.9946378 0.9995493 0.99545014
0000f0 af 3c 7e 3f d2 37 80 3f e9 fd 7f 3f 7d 26 7f 3f
       0.99311346 1.0017035 0.9999681 0.99668103
000100 26 e3 7e 3f 52 67 7e 3f aa bb 80 3f bf fd 7e 3f
       0.9956535 0.99376404 1.005727 0.99605936
000110 b1 d3 7f 3f c5 e0 7e 3f 71 5b 7e 3f ce 9e 7f 3f
       0.9993239 0.9956172 0.9935828 0.9985169
000120 9d 57 80 3f ba d7 7e 3f 43 e3 7e 3f 6b e4 7e 3f
       1.0026737 0.9954792 0.99565524 0.9956729
000130 1c 44 80 3f ed 09 80 3f 88 f4 7f 3f 61 c9 7e 3f
       1.0020785 1.0003029 0.999825 0.9952603
000140 24 30 80 3f a5 a0 7f 3f 97 21 80 3f e1 29 80 3f
       1.0014691 0.998545 1.0010251 1.001278
000150 81 78 7e 3f 96 24 7f 3f 1e da 80 3f bc d6 7f 3f
       0.99402624 0.996652 1.0066564 0.99937034
000160 07 0a 7e 3f 0d 1a 80 3f 5a 8e 7f 3f e9 87 7f 3f
       0.9923405 1.000795 0.99826586 0.9981676
000170 90 84 7f 3f b3 35 7f 3f b7 e3 7f 3f 11 65 7f 3f
       0.9981165 0.99691314 0.9995684 0.9976359
000180 82 9b 7e 3f 32 b5 7e 3f 28 5b 7f 3f e6 cf 7e 3f
       0.99456036 0.9949523 0.9974847 0.9953598
000190 80 be 7e 3f 9f d3 80 3f fe bd 80 3f 90 74 7f 3f
       0.9950943 1.0064582 1.0057981 0.99787235
0001a0 59 e7 80 3f 64 96 7f 3f f9 40 7f 3f 30 90 7f 3f
       1.0070602 0.9983885 0.99708515 0.9982939
0001b0 46 78 80 3f 85 91 80 3f c5 18 80 3f 94 17 7f 3f
       1.0036705 1.0044409 1.0007559 0.9964535
0001c0 11 1b 80 3f 55 e8 7e 3f b8 19 7f 3f 12 18 80 3f
       1.000826 0.9957326 0.9964862 1.0007346
0001d0 60 00 80 3f f8 31 80 3f 3f b7 7e 3f 2c 20 7f 3f
       1.0000114 1.0015249 0.9949836 0.99658465
0001e0 fa 35 80 3f e5 bb 7e 3f 97 4f 7f 3f 46 90 7e 3f
       1.0016472 0.99505454 0.9973082 0.99438894
0001f0 c0 21 7f 3f 3c 53 80 3f 78 1b 80 3f 57 7d 80 3f
       0.99660873 1.0025401 1.0008383 1.0038251

projection_layer.1.bias f4 [128]
000000 e6 cb 08 3b c3 42 a2 ba fb ad 16 bb 99 de c1 ba
       0.0020873486 -0.0012379516 -0.0022991884 -0.0014791071
000010 f9 74 6a 3a 13 ea dc ba 07 49 3c 3a 82 84 a2 bb
       0.0008943822 -0.0016854428 0.0007182513 -0.004959644
000020 ca c1 da b7 0c 81 c0 bb 51 3f 25 3a a0 08 b0 bb
       -2.6077865e-05 -0.0058747586 0.00063036854 -0.005372122
000030 db 7e 42 bb ee 24 c8 ba 83 7b c9 3a 47 7f 24 3a
       -0.0029677663 -0.0015269795 0.0015371892 0.00062750693
000040 bb 8a 6e bb 10 52 ce ba 5a bc da ba 47 39 af bb
       -0.0036398608 -0.0015741009 -0.0016688213 -0.005347404
000050 da 33 30 bb 82 14 4c bb 5c 81 18 3b 38 ab b7 3b
       -0.0026886375 -0.0031140153 0.0023270464 0.0056051277
000060 6e 0e 77 bb 49 3c 36 3a d2 65 66 bb 34 fa d4 ba
       -0.003769781 0.0006951732 -0.0035155904 -0.0016248883
000070 75 9e b6 3a db ca b9 bb 2f 71 8c ba 33 42 1f 3b
       0.0013932722 -0.005669934 -0.0010714884 0.0024300932
000080 f5 bd 26 bb e0 6c ad bb 2f 1b 60 bb 83 a9 a8 ba
       -0.0025442813 -0.00529252 -0.003419589 -0.0012867901
000090 aa 8e a8 3a 20 bb b5 bb e1 6a e5 bb 5b 73 18 bb
       0.00128599 -0.0055459887 -0.0070012663 -0.0023262117
0000a0 0f 08 f3 39 3e e6 8a 3b 2a 40 85 ba 6e ab 18 bb
       0.00046354576 0.004238873 -0.0010166217 -0.002329554
0000b0 27 f2 8c 3b a3 d8 06 bb 91 fb 87 3b 8a f3 a3 bb
       0.0043013277 -0.0020575903 0.004149862 -0.0050033974
0000c0 61 d8 94 bb 09 a9 22 3a 76 b3 ae 3a ef 8e fb ba
       -0.004542396 0.0006204998 0.001332863 -0.0019192378
0000d0 9c 52 5c ba ad c0 c5 ba be 69 b9 3b 25 3a 6e bb
       -0.0008404644 -0.0015087329 0.0056583574 -0.0036350575
0000e0 e5 bd 39 3b 19 c6 a6 bb 34 e3 01 bb 9c 2e bf bb
       0.0028341946 -0.005089533 -0.0019819262 -0.0058344137
0000f0 c8 76 61 ba ce 70 86 3a 95 a9 4c 39 d8 47 82 bb
       -0.00086007686 0.0010257007 0.0001951813 -0.0039758496
000100 02 77 81 39 e0 f0 df bb a6 d7 4f 3b a5 27 24 bb
       0.00024693465 -0.0068341345 0.003171423 -0.0025048044
000110 5b 6a 34 b9 7b fc 6c bb 77 81 db bb 1d 5c 89 b9
       -0.00017205758 -0.0036161232 -0.006698783 -0.00026199306
000120 32 18 1a 3b 21 93 1c bb 01 1d ff ba 75 5b f4 bb
       0.0023512957 -0.0023891407 -0.00194636 -0.0074571916
000130 08 60 91 3b 1c fa ed 39 7b 03 80 bb f3 3b a9 bb
       0.0044364966 0.0004539051 -0.003906665 -0.005164617
000140 40 ab 60 39 4f bd 8f 38 1c ad 67 3b 3c 1f 50 3b
       0.000214261 6.854033e-05 0.0035350984 0.0031756898
000150 82 86 e9 bb 76 9a 08 bb c4 45 d4 3b 90 bb 45 3b
       -0.0071266303 -0.002084402 0.0064780433 0.003017161
000160 81 0a 74 bb 72 73 97 3b 01 25 83 ba 2b 48 4b bb
       -0.0037237706 0.0046219165 -0.0010005535 -0.0031018357
000170 54 7b 8b 3b e6 05 26 bb fe e0 e4 39 df e6 96 bb
       0.004256645 -0.0025333106 0.0004365518 -0.0046051587
000180 85 58 a1 bb c4 e5 b0 bb ed 16 13 bb 0d 79 90 bb
       -0.0049238824 -0.005398484 -0.0022444085 -0.0044089616
000190 d5 97 da 3a 3a b7 a3 3b e4 4b 29 3b b3 8f ff ba
       0.001667733 0.0049962075 0.0025832588 -0.0019497782
0001a0 39 71 bc 3b 61 56 cb ba 9c f1 aa bb 86 8d 34 38
       0.005750802 -0.0015513414 -0.0052167904 4.304715e-05
0001b0 3b c2 43 3b 01 0e 82 3b 6b 8f 02 b9 e1 ec 2c bb
       0.002987041 0.0039689546 -0.00012451193 -0.0026386308
0001c0 73 73 bc 3a 53 7b bd bb 7c c1 8a bb 34 7e 1d 38
       0.0014377668 -0.0057825237 -0.004234491 3.7549253e-05
0001d0 75 31 03 ba d3 e6 71 bb e7 75 a3 bb 8e ea 4a bb
       -0.0005004623 -0.0036911264 -0.0049884203 -0.003096256
0001e0 88 3f 06 bb 31 be 7e bb 33 db 47 bb c3 bf ab bb
       -0.0020484645 -0.0038870687 -0.0030495643 -0.0052413656
0001f0 dd 15 ea 3a ab ff bd 3a b0 74 77 3b 4b 3a 08 3b
       0.0017859299 0.0014495751 0.003775876 0.0020786698

projection_layer.1.running_mean f4 [128]
000000 80 84 30 bc c8 28 9b 3d 42 81 e0 3d 94 66 85 bd
       -0.010773778 0.07576138 0.10962154 -0.06513706
000010 c6 88 06 3c f6 6c 38 bd 0b c6 a0 bc fd 14 37 3d
       0.00821132 -0.04502579 -0.019625684 0.04469775
000020 dc b7 08 3d e0 0e ba 3d 27 3b ce bc 0f aa 63 3c
       0.033378467 0.090848684 -0.02517469 0.013895526
000030 af 4c 2e bd 60 68 12 3d 72 b3 9d 3c f9 69 12 bd
       -0.0425536 0.03574407 0.019250605 -0.035745595
000040 e2 26 78 bc ac 92 f5 bc f9 9b 07 3d e2 35 14 3c
       -0.015145989 -0.029977165 0.03310773 0.00904605
000050 19 29 4e 3c 0a b6 b5 3b 62 06 87 bd 20 45 bd bc
       0.012583041 0.0055453824 -0.06593014 -0.02310425
000060 8a 65 8b bc 85 2e 3f bd 0f 7a 9b bd 5d ad 5c bc
       -0.017016191 -0.046675224 -0.0759164 -0.013469067
000070 9e 7b 92 3c eb 31 11 3d b4 4e 7f bd ad 7d 9c 3d
       0.01788121 0.035447996 -0.062330917 0.07641158
000080 5d 71 3a bc e4 16 4f bd a7 20 7b bd 14 8a 07 3d
       -0.011379567 -0.05055894 -0.061310437 0.033090666
000090 54 c2 1b bd 08 3c 2d 3d 5a 75 39 bd 00 a5 d6 3b
       -0.038027123 0.04229358 -0.04527793 0.0065504313
0000a0 65 f0 c3 bd e3 eb 85 3d cc 7f 7f 3c da bb f2 3b
       -0.09567336 0.065391324 0.015594434 0.0074076476
0000b0 da bb 87 3d 6d 0c d4 bd 96 11 3c bd 5e 9c 8c 3d
       0.06627627 -0.103539325 -0.04591521 0.06865762
0000c0 46 97 df 3c 9d 32 3f bc 58 cb cf 3d fe 1d 76 3d
       0.027293812 -0.011669782 0.101462066 0.060087197
0000d0 b6 2d c4 3c d5 dd 86 bc c1 ff 85 3d 40 e8 74 3a
       0.023947578 -0.0164632 0.06542922 0.0009342469
0000e0 1a 23 0e bc 01 e8 f3 3c e6 12 2a bc a8 ac 35 bd
       -0.008675361 0.029773714 -0.010380482 -0.04435411
0000f0 18 37 cf bc cf 7e ca bd e3 93 80 3d 44 f5 8d 3d
       -0.025294825 -0.09887468 0.06278207 0.06931546
000100 31 fc b6 3c be 5f ba 3d da 2a ff 3c da bc 5f bb
       0.022337051 0.091002926 0.031148363 -0.0034139664
000110 c5 99 5c 3d 64 e2 05 3d 49 b4 b0 3d db af 4b bd
       0.053857584 0.032686606 0.08628137 -0.049728256
000120 ee a2 10 3b 97 b9 1a bd 9c af a8 bd 4f 48 54 bd
       0.002206977 -0.03777465 -0.0823662 -0.05182677
000130 0b 8e c0 3d 44 ee 31 3d f7 2d bc 3c 57 da 93 3d
       0.094020925 0.04344012 0.022971136 0.072193794
000140 c0 3e 80 3c 6a 3e 8d bb 2c 89 63 bd 1d 45 b4 ba
       0.015654922 -0.004310419 -0.05555074 -0.0013753508
000150 89 9b c6 bc c0 bf 32 bd 4c 59 17 3c 24 c3 90 bd
       -0.024244087 -0.0436399 0.009237599 -0.0706847
000160 3f 25 bb 3c fb 29 22 3d 40 5c ac bd 3e 1f 92 bc
       0.022844909 0.039590817 -0.08416033 -0.017837163
000170 a6 71 bf 3a 7e a8 02 3d 21 72 a5 3b 9f 99 f2 3c
       0.0014606013 0.031898968 0.0050490056 0.029614268
000180 5a fb 93 3d 9a c8 9d 3b 3d 63 8a bb 71 54 7d bd
       0.07225676 0.0048151733 -0.004223256 -0.061848108
000190 52 d7 e4 3c a0 13 90 3d 22 3f 0b bd 28 e9 02 3d
       0.027934704 0.07034993 -0.033995755 0.031960636
0001a0 7c 25 32 3d c6 f2 05 bd 41 9a 1b 3b e4 c8 78 bd
       0.04349278 -0.03270223 0.0023743066 -0.06073846
0001b0 82 9f 46 bd c0 6d b3 3b 37 07 85 bc bf dc 75 3d
       -0.048491962 0.0054757297 -0.016238792 0.060024973
0001c0 36 fb 85 3d 30 d3 43 3d bb d1 51 3d df 09 0c bd
       0.06542055 0.047808826 0.051225405 -0.0341891
0001d0 3e a8 fa bd ae 40 e2 3c 1d 04 77 3c e0 39 2c 3d
       -0.12239121 0.027618732 0.015076664 0.04204738
0001e0 c3 a1 f7 3b 0f b0 c4 3d d7 52 e4 3c 19 4d d1 3d
       0.0075571253 0.09603893 0.027871532 0.10219783
0001f0 39 1c 08 bd a1 33 48 bd 42 d8 bc bc 0e 96 4f 3d
       -0.03323004 -0.048877362 -0.023052339 0.050680213

projection_layer.1.running_var f4 [128]
000000 39 b8 02 3f 92 ae f6 3e 4a ab 01 3f fa c4 06 3f
       0.5106235 0.48180062 0.5065199 0.5264431
000010 2d 4e fa 3e 6f 08 f7 3e 98 46 01 3f 3d 8b 0d 3f
       0.48887768 0.48248622 0.5049834 0.55290586
000020 8f b8 0c 3f 7c f8 fa 3e 91 a8 f8 3e 00 03 04 3f
       0.54969114 0.49017704 0.48566106 0.5156708
000030 cf ea 03 3f 06 c7 fe 3e 34 a0 f0 3e fd 3c 00 3f
       0.51530164 0.49761218 0.46997225 0.5009306
000040 84 14 0a 3f 5d 6a 04 3f 65 35 07 3f 45 cc 00 3f
       0.53937554 0.517248 0.5281585 0.5031169
000050 3b d3 f4 3e 0e 72 f9 3e 75 ad f5 3e 59 bb 02 3f
       0.47817406 0.4871983 0.479839 0.5106712
000060 e6 77 f3 3e 69 08 f9 3e 9f 4a 03 3f 69 4b fe 3e
       0.47552413 0.4863923 0.5128574 0.49666908
000070 00 9d f6 3e 41 3f 02 3f 1a 97 ff 3e 4c 59 f8 3e
       0.48166656 0.5087777 0.4991997 0.48505628
000080 cd 99 00 3f 44 c7 f1 3e f8 11 04 3f 98 4c ff 3e
       0.5023468 0.4722234 0.5158992 0.49863124
000090 ff d0 00 3f 3f 88 f0 3e 41 f5 ee 3e 9e f6 02 3f
       0.503189 0.46978948 0.4667149 0.5115756
0000a0 fb a3 00 3f 71 25 02 3f 66 a9 04 3f de 48 ff 3e
       0.50250214 0.5083838 0.5182098 0.4986028
0000b0 31 14 fc 3e d2 9f ff 3e 53 07 f7 3e 46 44 01 3f
       0.49234155 0.4992662 0.48247775 0.504948
0000c0 1c 2f 05 3f a7 97 f3 3e 7b 1b f2 3e a4 28 f6 3e
       0.5202501 0.4757664 0.4728659 0.4807788
0000d0 63 22 f4 3e 7a a4 f8 3e b5 e1 fc 3e df 34 f6 3e
       0.47682485 0.48562986 0.4939095 0.48087212
0000e0 47 99 f9 3e a2 64 fa 3e 1b 3c fb 3e 37 fc 03 3f
       0.48749754 0.48904902 0.49069294 0.51556724
0000f0 88 ed fe 3e 92 95 f5 3e c3 d2 07 3f 7c a1 ff 3e
       0.49790597 0.47965676 0.5305597 0.4992789
000100 0f b8 f6 3e 84 f6 f6 3e 61 79 f6 3e 9e e3 f4 3e
       0.481873 0.48234951 0.4813948 0.47829908
000110 45 ea f8 3e 85 dd 06 3f 4b 96 fc 3e 09 6f fe 3e
       0.48616233 0.5268176 0.49333414 0.49694088
000120 79 5f f9 3e 88 2f 05 3f a9 ba f5 3e 33 7e 10 3f
       0.48705652 0.5202565 0.47993973 0.56442565
000130 cf 34 03 3f f8 cc f7 3e 9a 79 02 3f 5b 65 fd 3e
       0.51252455 0.48398566 0.509668 0.4949139
000140 9d a0 fb 3e 5e 3c f1 3e f8 26 f0 3e 98 30 fe 3e
       0.49145976 0.4711637 0.4690473 0.4964645
000150 71 3a f8 3e 81 46 03 3f 66 69 f8 3e 68 3b 04 3f
       0.48482087 0.51279455 0.48517913 0.51653147
000160 1f 85 fb 3e 78 bb 01 3f 37 67 fd 3e ed a7 03 3f
       0.49125 0.5067668 0.4949281 0.5142811
000170 5e 69 06 3f 62 f7 fa 3e 53 d6 08 3f 2b 16 f9 3e
       0.5250453 0.49016863 0.5345203 0.48649725
000180 f2 f2 f7 3e 2c 68 f5 3e 51 be f1 3e 09 44 f6 3e
       0.4842754 0.4793104 0.47215512 0.48098782
000190 57 21 fe 3e 15 0d f2 3e 99 55 f5 3e 95 08 fa 3e
       0.4963481 0.47275606 0.47916868 0.48834673
0001a0 5b e3 f8 3e 98 5d f5 3e 28 4c fc 3e 43 71 f3 3e
       0.48610958 0.4792297 0.49276853 0.4754735
0001b0 2d bc f9 3e 39 85 fc 3e 24 23 fd 3e c4 a8 02 3f
       0.4877638 0.4932039 0.49440873 0.51038766
0001c0 de d5 fc 3e 58 06 09 3f 6b 11 f5 3e d3 af 06 3f
       0.49381918 0.53525305 0.4786485 0.52612036
0001d0 53 e3 fa 3e 35 42 f7 3e ba 46 00 3f f1 97 07 3f
       0.4900156 0.482927 0.5010792 0.5296622
0001e0 79 17 f8 3e 8f e6 01 3f f8 93 10 3f d3 83 f2 3e
       0.48455408 0.5074243 0.5647578 0.473662
0001f0 46 1c f4 3e c3 58 03 3f 28 13 fe 3e dd d3 04 3f
       0.4767782 0.51307315 0.4962399 0.5188578

projection_layer.4.weight f4 [128, 128]
000000 23 cf c8 bb 4b 7a 86 bd aa 21 55 3d 70 a7 85 bc
       -0.0061282082 -0.06566294 0.052034058 -0.016315192
000010 50 f9 8d 3d 89 0a 9c 3d 2a 44 26 bc 94 eb d3 3b
       0.06932318 0.07619197 -0.0101480875 0.006467292
000020 83 d2 ba bc e6 a7 e0 bc cf c1 12 3b 94 4d 76 bd
       -0.022805458 -0.02742381 0.002239335 -0.060132578
000030 cc c8 44 bd af b2 83 bd 6c ac a4 3b 3c 47 b1 3c
       -0.048043057 -0.064305656 0.005025437 0.021640413
000040 bc 53 48 3d 60 86 e5 bb b6 07 0e 3d 06 5a 46 bd
       0.04890798 -0.007004544 0.034675322 -0.048425697
000050 94 bb 9e bd 71 50 8b 3d db c4 63 3b 42 30 67 3c
       -0.077506214 0.06802452 0.0034754786 0.014110627
000060 f7 d8 97 bc f2 75 2d bd 15 a6 09 bc 54 0b 7e 3d
       -0.018536074 -0.04234881 -0.008401413 0.062022522
000070 b0 f1 19 3d 8f 61 49 3d b7 45 a1 3c 65 eb 9b bc
       0.037584007 0.049165305 0.019686563 -0.019033143
000080 34 c0 b0 3a 95 e3 31 bd ad a9 94 bd 78 4f 02 bd
       0.0013485015 -0.04342993 -0.072589256 -0.03181407
000090 82 2c b0 bb 10 76 8a bd 4b 84 2f 3d 2f 0c 84 3d
       -0.0053763995 -0.067608 0.042850774 0.06447636
0000a0 10 5a a4 bc bb a5 4c bd 9a b8 95 3d f4 a9 3e bd
       -0.020062476 -0.04996274 0.073106006 -0.0465488
0000b0 ec 41 4a 3d 5c bf 6e 3c 35 15 8a 3d 56 5d da bc
       0.049379274 0.014571991 0.06742326 -0.026655834
0000c0 5f 78 ad 3d c2 4a 81 bd 3d 0d 0b 3c 2f 19 5e 3d
       0.084702246 -0.06313087 0.008487043 0.054223236
0000d0 7a 38 83 3d 9e b9 7c 3d 78 d8 25 3d a3 19 8f bd
       0.064072564 0.061700456 0.040489644 -0.06987312
0000e0 ef 3e 11 3d 97 79 97 3d 8e b4 90 bc 85 85 e5 bc
       0.03546041 0.07396238 -0.01766422 -0.028017769
0000f0 cf ec 91 bd dd 62 9e 3d 1b 66 58 bd fa 4d 20 3d
       -0.07125246 0.077337004 -0.05283175 0.039136864
000100 c3 eb 15 3d d9 1d f6 bc 4f 14 82 3d 6b fb 25 bd
       0.036601793 -0.03004353 0.0635153 -0.040522974
000110 58 9c 95 3d 46 dd 2a bd ca 29 d3 ba 0e f0 a9 3c
       0.07305211 -0.04171493 -0.0016110477 0.02074435
000120 b9 17 49 bd 1b 72 3b bd 49 aa fb bc b0 03 02 bd
       -0.04909489 -0.045763116 -0.030720847 -0.031741798
000130 ab f9 ff 3b cf 6d 58 bd d2 25 0c 3d 83 3d 55 bd
       0.007811745 -0.052839097 0.034215756 -0.052060615
000140 44 b2 3e bd 15 48 20 3c 92 1d b5 3d b2 42 e1 3c
       -0.046556726 0.009782811 0.08843531 0.027497623
000150 f6 25 cf 3c ff f0 01 bd 66 f0 e2 3b d5 a2 29 3d
       0.025286656 -0.031723972 0.0069256304 0.041415054
000160 4f 3b 8e 3d d5 81 7f bd 1f 2a b1 bd 7a 2e 8d bd
       0.06944906 -0.062379677 -0.08650612 -0.0689363
000170 2b 52 7d bd be 30 c1 bb e3 23 2e 3d 97 52 30 3d
       -0.06184594 -0.005895703 0.042514693 0.043047514
000180 65 6d c8 bc 27 a7 8d bd 4e 1d be 3c b4 9a 3f 3d
       -0.024466226 -0.069166474 0.023207333 0.046778396
000190 03 a2 3b 3d 69 4d 37 3d 07 39 52 3d a7 c1 6f 3d
       0.045808803 0.04475156 0.051323917 0.05853429
0001a0 22 55 60 bc a5 09 5f 3d 36 08 2c 3d 78 e5 08 bc
       -0.013692172 0.054452557 0.042000018 -0.008355491
0001b0 09 60 58 bd 9f 82 84 3d b3 e3 85 3c aa 48 df bc
       -0.05282596 0.064702265 0.016343927 -0.027256329
0001c0 e9 85 83 3d 2d 0b 6f bd 70 37 94 3d db 04 d8 3c
       0.06422026 -0.058360267 0.07237136 0.026369503
0001d0 2e 78 ea ba 9d d2 05 3d ad aa 99 bc 76 a5 a6 3d
       -0.00178886 0.03267156 -0.018758142 0.08137028
0001e0 ea 40 9a 3d 74 24 e6 bc 37 3b a9 3d 69 8d cb 3c
       0.075319126 -0.028093554 0.082632475 0.024847703
0001f0 1d 64 81 ba cd fe 1e bd e8 72 db bc d9 6f 3a bd
       -0.0009871755 -0.038817216 -0.02678819 -0.045516822
000200 85 a6 88 bd e6 21 99 3d 4d 64 8a 3d 34 a5 fa bc
       -0.06672386 0.07477169 0.06757412 -0.030596353
000210 8d 84 09 3d ee 7c 32 3d 12 d2 ad 3d 34 7c aa 3c
       0.033573676 0.043576173 0.08487333 0.020811178
000220 ac ce ff bb 34 d7 69 bc d2 96 22 bd 48 12 dd bc
       -0.0078066196 -0.0142725 -0.039694615 -0.026986256
000230 d7 04 6c 3d 7c dd af bd df 52 69 bd 64 4d 43 bc
       0.057621803 -0.08587167 -0.056963798 -0.011920307
000240 bd 0f 9a 3d f9 1d 03 3d 09 c9 65 bd 34 b5 8a 3d
       0.07522533 0.032011006 -0.056099925 0.06772843
000250 c0 2f 83 bd 93 e7 17 bd e5 b3 24 bd c0 ef 31 bd
       -0.06405592 -0.03708608 -0.040210623 -0.043441534
000260 90 e9 4a bc 13 d2 3e bd 6a 54 12 3d d1 c3 dc bc
       -0.012384787 -0.04658706 0.035725035 -0.026948841
000270 76 38 ed bc 42 63 cd 3c b6 b3 13 bd e1 76 3e bc
       -0.028957587 0.025071744 -0.036060058 -0.011625023
000280 fc a0 8f 3d 55 a6 47 3d 71 17 48 bb 1f 6b 6e bd
       0.07013127 0.04874261 -0.003053155 -0.058207627
000290 9e b2 b3 bd f5 8f 3b bd 85 8a 84 3d d0 80 64 bd
       -0.08774303 -0.045791585 0.06471733 -0.055786908
0002a0 40 99 2d 3d 23 58 93 bd 1c 82 ab bd 03 4f 66 bd
       0.04238248 -0.07194545 -0.08374426 -0.056227695
0002b0 79 0d bd bc 0f ad 97 bd 7b 0c b1 bd 10 cb 1c 3c
       -0.023077713 -0.07406055 -0.086449586 0.009569898
0002c0 e0 e7 01 3d a3 07 8a bd c5 a9 48 bd b4 93 cc 3b
       0.031715274 -0.06739738 -0.04899003 0.0062431935
0002d0 32 d0 9b bc 7e a7 6e b9 eb f1 e9 bc 3b 28 9b bd
       -0.019020174 -0.00022759844 -0.028557738 -0.07576033
0002e0 fa 6d 1b bd ab e0 86 3d fb 09 6b 3d 93 63 9d bc
       -0.03794668 0.06585821 0.057382565 -0.01921252
0002f0 98 08 10 bd 3a ed 36 bd e6 f0 9e 3d c7 42 7e 3d
       -0.035164446 -0.04465983 0.077607915 0.062075403
000300 c9 29 8d 3c c0 e3 fe 3c a4 0b 94 3c cb 86 6f bd
       0.017231839 0.031114459 0.018071957 -0.058478158
000310 62 28 97 bd 85 23 0e bd a3 58 26 bd 51 53 7f 3d
       -0.07380749 -0.034701843 -0.040611874 0.062335316
000320 f2 04 1c 3d 2d ca b2 bc 8e f7 10 bc 14 0b 48 3b
       0.038090654 -0.02182492 -0.008848084 0.0030524181
000330 c1 4d 62 bd 51 e7 8f 3c fd 5c 0b 3d 3e 58 68 3d
       -0.055249933 0.017566355 0.034024227 0.05672478
000340 a0 9a eb 3c b9 f0 d9 bc c1 70 9c bc 2d a0 a8 3d
       0.028760254 -0.026604043 -0.019096734 0.08233676
000350 44 92 09 3d 84 e0 96 bd e9 b0 db 3c 6a eb 7d bd
       0.033586755 -0.07367042 0.026817756 -0.061992086
000360 48 b7 44 bd 61 c9 53 3d ef 8f 5b 3b 87 b7 f5 ba
       -0.048026353 0.05170572 0.003350254 -0.0018746712
000370 ae f5 0f 3d c7 67 b1 bd 1a 0c 2a 3d ae 96 0b bc
       0.035146408 -0.08662372 0.041515447 -0.008519812
000380 50 bf 2d bd 31 dd 1d 3d 41 94 45 bb c5 b5 09 3d
       -0.042418778 0.038541023 -0.003014818 0.033620615
000390 78 e7 98 bd e8 2e 43 3d e0 c1 8a 3d 8e 65 ce 3c
       -0.07466024 0.047652155 0.0677526 0.02519491
0003a0 f5 dd d3 bc 88 04 f7 3c 59 85 ab bd 2e ae 3b 3b
       -0.025862673 0.030153528 -0.083750434 0.0028637755
0003b0 f5 04 13 3d 59 72 a0 bd de 71 15 bc 59 cb 1f bd
       0.0358934 -0.0783431 -0.009121386 -0.039012287
0003c0 2e b4 49 bb 0e d6 12 3b a2 f5 87 3d 69 1b a6 3d
       -0.0030777561 0.0022405419 0.066386476 0.08110697
0003d0 58 ea 06 bc da 78 aa bc 4d 77 93 3d 6d de ad 3c
       -0.008234583 -0.02080958 0.07200489 0.021224225
0003e0 53 b9 3d 3d 10 26 6f bc 63 0c b7 bb c4 56 da bc
       0.046319317 -0.014596477 -0.0055861934 -0.026652701
0003f0 c9 1d c9 3c f9 bd bb bd 88 db 3f bd f3 64 3f 3d
       0.024550335 -0.09167094 -0.04684022 0.046727132

projection_layer.4.bias f4 [128]
000000 71 1d 97 3b d9 64 ab 3d 8c ca 67 b9 c4 dc 7f 3d
       0.004611664 0.083688445 -0.00022105331 0.062466398
000010 68 28 94 bd d3 c5 fd bb 47 be ab 3d fb 9a 64 3d
       -0.072342694 -0.0077445298 0.08385902 0.055811863
000020 57 ef 60 3d 4e be 6f 3d e3 51 58 bd 1f 61 8e 3d
       0.054915752 0.058531098 -0.05281247 0.06952118
000030 79 86 b8 3c 08 c1 bf bc 7e b9 4a bd e5 6e 47 bd
       0.022525059 -0.023407474 -0.049493305 -0.04868974
000040 ef 76 1b bb 04 2c 25 bd b1 3d 9d bc 09 3d 79 3c
       -0.0023722013 -0.04032518 -0.019194456 0.015212306
000050 d4 96 9b 3d 3e bb 2c 3d 49 70 f9 3c 3e 54 55 bd
       0.075971276 0.042170756 0.03044905 -0.052082293
000060 87 75 ee bc 5b e6 b7 bc 14 ac 49 bc 4a 7f 55 3d
       -0.029108776 -0.02244871 -0.012309093 0.052123345
000070 74 08 09 3d 29 71 21 bd 89 6c f2 bb cd 7b ea 3c
       0.033455327 -0.03941456 -0.0073981923 0.028623486
000080 b5 bb a0 bc aa fa 93 bd 89 47 05 bd f0 58 9d 3c
       -0.019620756 -0.07225545 -0.032538924 0.019207448
000090 fb 2e fb bc e6 ae 69 bd 0f 89 20 bd 90 c5 34 3d
       -0.03066205 -0.05705156 -0.03919321 0.044133723
0000a0 0c ab ae bd 5a eb 87 bd c2 2f a0 3d 71 08 97 bd
       -0.08528718 -0.066366866 0.07821609 -0.07374657
0000b0 a3 eb 84 bd ea a4 e8 3c 4d d0 a2 3d c5 4a c4 39
       -0.06490257 0.02839895 0.079498865 0.0003743974
0000c0 af f4 e5 3c a0 ac df ba 48 08 8d 3d 5c 74 b6 bc
       0.028070776 -0.0017064996 0.06886345 -0.022272281
0000d0 14 4a 42 bd f2 f4 1b 3d fa de 96 3d ec c8 91 3a
       -0.047433928 0.038075395 0.07366748 0.0011122501
0000e0 77 82 48 3d ba d1 9e bd 4b 69 94 bd e1 a5 55 bd
       0.048952546 -0.07754846 -0.072466455 -0.052160148
0000f0 8d a2 02 3d fc a1 a5 bb 88 83 a0 bb 09 10 52 bc
       0.0318933 -0.0050547104 -0.0048984922 -0.012821206
000100 1f d1 15 3d 65 05 4c ba 90 e8 cf bc 7a e0 15 3c
       0.036576387 -0.0007782786 -0.02537945 0.009147758
000110 11 04 07 bb 7b 6f b1 bc d1 85 77 3c a5 01 e3 bc
       -0.002060179 -0.021659603 0.015107588 -0.027710745
000120 d5 4b 89 3d 12 cc 4a 3d 56 a0 ba bc aa 8d aa bd
       0.06703917 0.049511023 -0.022781532 -0.083278015
000130 20 96 a5 bd a1 8b a5 3d b8 5e a3 bd 04 59 bd bb
       -0.08085275 0.08083273 -0.079770505 -0.0057784338
000140 78 6e 2f 3d 5b 1a 90 bd a0 95 90 bd 88 0f ee 3b
       0.04282996 -0.07036277 -0.07059789 0.007265035
000150 bd 1a 3e bd ce f7 5f bc 03 0f 0b 3d 17 35 e1 3b
       -0.04641222 -0.013669921 0.033949863 0.006872784
000160 fa cd 77 3d 81 b8 10 3a e5 0b 82 3c fc 47 9f 3d
       0.06049917 0.0005520657 0.015874812 0.07777402
000170 97 a3 40 bd f6 bb 52 bd cb 8c 02 bc c9 a7 a2 bc
       -0.04703101 -0.051448785 -0.007968138 -0.019855397
000180 d7 1c 2b bc d6 4e 92 3d d6 d9 8f 3c 60 4e bc bb
       -0.010443888 0.07143943 0.017559927 -0.0057466477
000190 8a 0c ca bc 4e 0e d8 bc 8a ca ae bd 40 c3 b1 3d
       -0.024664182 -0.026374009 -0.08534725 0.08679819
0001a0 3a 5c 8f bd 8d cf 88 bb f8 49 8e 3c b1 f1 9e bd
       -0.07000013 -0.0041751326 0.017369255 -0.07760943
0001b0 56 48 92 3d 5d 00 b6 3c b7 28 56 3c b4 a0 28 3c
       0.07142703 0.02221697 0.013071231 0.010292221
0001c0 8b a9 41 bd 2a 61 62 3d 15 79 5c bd ea 17 5f bd
       -0.04728083 0.055268444 -0.05382641 -0.054466166
0001d0 6e 80 8d 3d 45 b9 9f bd 9f 92 03 bd ec b6 65 bd
       0.06909262 -0.07799009 -0.03212225 -0.05608265
0001e0 ae 56 83 bd 0a 1d c4 bc 3b f3 da bc 94 ca ec bb
       -0.06413017 -0.023939628 -0.02672731 -0.0072262976
0001f0 3e 4a 0f 3c 28 ea 27 3c 29 82 91 bc 43 27 41 bd
       0.008745728 0.010248698 -0.01776226 -0.047156584

output_layer.weight f4 [1, 128]
000000 d5 30 7a bd 01 f2 57 bd 57 a6 3a bd 69 34 ab 3d
       -0.061081726 -0.052721027 -0.04556879 0.08359606
000010 da d9 a4 3d df 99 39 bd 63 6a 93 3c ed 60 a5 bc
       0.080493644 -0.04531276 0.017995065 -0.02018782
000020 e8 60 13 3c e1 b4 f3 bc 76 27 38 3d c7 82 59 3d
       0.008995272 -0.029749336 0.044959508 0.053103235
000030 e8 37 df 3c a8 15 19 3d 26 af 64 bd ad ab d3 bc
       0.027248338 0.03737417 -0.055831097 -0.025838697
000040 17 3f 88 3d d1 b6 8e bd 70 88 88 3d 51 b3 9f 3d
       0.066526584 -0.06968463 0.066666484 0.07797874
000050 36 a8 a1 bb 18 fa 35 3d d5 ee 13 bd cf 8b 68 3d
       -0.0049333824 0.04442796 -0.03611644 0.056773957
000060 22 07 84 3d e3 b1 b2 bb 1a 4a 6f 3d cb 4f 82 bd
       0.06446673 -0.0054533347 0.058420278 -0.063628756
000070 45 cb 96 bd 2f 4c 7b bd 2a 57 c8 bc 3b eb 81 3d
       -0.07362989 -0.06135195 -0.024455626 0.06343695
000080 05 56 4f 3d e0 45 97 bd 66 b1 77 bd 06 1a 02 bc
       0.050619144 -0.073863745 -0.060471915 -0.007940775
000090 fb fc 4f 3b ae d4 88 3c 91 eb 9b bd 44 e2 3c 3b
       0.0031736481 0.016702976 -0.0761329 0.0028821388
0000a0 a7 42 02 bc d5 73 0b bd 9b 07 75 bd 67 51 c4 bc
       -0.0079504615 -0.034046013 -0.059821706 -0.023964597
0000b0 80 48 a2 bd df eb ef bb 36 44 9b 3d f7 20 be 3c
       -0.079239845 -0.007321819 0.075813696 0.023209078
0000c0 de 73 80 3a 27 3d b8 3d bb 84 a3 3c b3 3c 9c 3d
       0.0009800156 0.08996039 0.019960752 0.07628765
0000d0 f3 fd 91 bd 47 e4 7f 3c 8d 0d a8 3d 6e b4 e1 bc
       -0.07128515 0.01561839 0.082057096 -0.027551856
0000e0 a6 50 ae bc 05 fa a8 bd 86 0b 48 bb c3 fa ab 3d
       -0.02127869 -0.082508124 -0.0030524447 0.083974384
0000f0 d8 01 a3 3d cc 0b 8e bd 68 de 8c 3c 65 49 83 bd
       0.07959336 -0.06935844 0.017195895 -0.06410483
000100 14 22 1f bc b4 82 e0 ba 94 36 ac bd fe a3 6a bd
       -0.009712715 -0.0017128796 -0.084088475 -0.0572853
000110 95 8f b1 3d 03 8e 8c bc 8b 86 cc 3c b1 01 86 3d
       0.08669964 -0.01715756 0.024966499 0.06543291
000120 14 1a 89 3d 2d f3 6e bc b5 30 e5 bc 9b 1f a2 bc
       0.06694427 -0.014584345 -0.027977327 -0.019790461
000130 83 1f aa 3d 2b 0f ac 3d b8 53 98 3b 40 a0 40 bd
       0.08306792 0.084013306 0.004648652 -0.047027826
000140 aa 83 b1 bb cb cb 83 bd 80 3f 2f bd 30 5d 07 3c
       -0.005417307 -0.06435355 -0.042785168 0.008261964
000150 98 a0 c8 bc ce b4 68 3d 52 2b a9 bd 30 a9 95 bd
       -0.02449064 0.056813054 -0.08260216 -0.073076606
000160 82 d0 ec bc f4 ef c9 38 ce 50 29 3d f2 e7 98 bc
       -0.028908018 9.6291216e-05 0.041336827 -0.018665288
000170 fa 0a 4f 3d 76 fb 44 3d a1 63 a7 bd bc e1 1d 3d
       0.050547577 0.048091374 -0.081732996 0.038545355
000180 9f e4 9c bd 1e 96 ad bd a0 c5 97 bd 2e f9 f7 3c
       -0.076607935 -0.08475898 -0.07410741 0.030270185
000190 00 56 9f 3a 14 fd 51 3d e0 4b 74 3d 55 dd 6b 3d
       0.0012156367 0.051266745 0.059642673 0.057584126
0001a0 68 8c 80 bd c4 07 b8 3d 9a 9b 3d 3d ca 86 2b 3d
       -0.0627678 0.08985856 0.04629097 0.04187659
0001b0 63 47 85 bd d1 f8 91 bd e1 e5 7c bd e9 bf 6b 3d
       -0.065077566 -0.07127536 -0.061742667 0.057556067
0001c0 dc 58 9a 3d 21 c0 21 3d 30 0f 99 bd c1 2a cd bc
       0.0753648 0.03948987 -0.074736 -0.0250448
0001d0 e1 44 90 bd 06 21 63 3c ef 56 72 3c 6a 5e 89 bd
       -0.070443876 0.013862854 0.014791234 -0.06707461
0001e0 16 08 ac 3d 17 36 23 3d b9 8a 9f bd 4f 38 ad 3b
       0.0839998 0.039846506 -0.07790131 0.0052862535
0001f0 ab dc 8f 3a 51 81 d1 ba 72 f8 f1 3b 8b 38 56 3d
       0.0010975798 -0.0015983974 0.0073843533 0.052300017
