Checkpoints/HR_V/valence_s31.pth (torch, 461905 bytes, 29 tensors)

input_layer.weight f4 [128, 29]
00000000: 23b9 e5bb ac0d 58bd 7a91 333e ac5b 97bd
00000010: 47ba 583d 9bb0 3d3e f706 0d3e 325d 813d
00000020: 8000 36bd 0045 123d 3b3c d33d d28f ac3d
00000030: a096 14be a97a 90bd 55a2 0cbd 13f6 32be
00000040: 293a c33d d615 febd af5e 313e 71ad 45be
00000050: 9337 3abc f5b3 12be 564f 97bc a3be 163e
00000060: d482 1fbc 9ae0 9bbb 96bc 54bd 91ee b7bc
00000070: 5cd9 07be 3986 0e3e 3383 e73d 755f 3abe
00000080: 082d d8bc 5164 54bd 9329 1cbe 5060 19be
00000090: e627 5e3d 5dac c93d 52ed e53d 6305 573d
000000a0: 2bbc 13bc 975d 25be 0edf abbb 9ef3 26be
000000b0: 0b1a 1ebd 1b97 203e 9ce6 b43d 5c27 513e
000000c0: ac5e 2c3d ced7 cfbd 08df 20be 5340 b53d
000000d0: f38d cebd 1ab7 f3bc f592 7c3b 066d c3bc
000000e0: 065c bebc 95fc a7bd 6ea6 17be bd93 173d
000000f0: dc36 e13c 1501 4c3e fc76 903c f7a2 8a3d
00000100: 2a9f 3cbe 7812 bdbd a597 213e 2cc2 2b3e
00000110: 3466 f73d 7716 0c3e e0ba 0cbe f222 09be
00000120: c7e7 023e 5236 09be 56c0 2e3e 23fb 08be
00000130: d717 273d c6b9 0f3c 7863 a03d 07a8 2c3c
00000140: 4828 f6bd 9bf6 bcbc 423c debc 704f 48be
00000150: 4d10 813d 173c 26be 5513 1abe 6a19 febd
00000160: 59d0 80bd 8ef2 04be 4bb1 163e 504d d53d
00000170: 0e0e 893c f326 e2bd 9c2e 0a3e 510c 843c
00000180: 70a1 ba3d 4a7a 253e 33a0 93bc 4311 bc3d
00000190: 913f 16be 4dd1 5dbd 1349 233d 6604 aa3d
000001a0: c5d6 a83d a17d 48bd b710 c83d ea3a 5cbd
000001b0: e829 0cbe 073a f93d 2f95 c83d c8c1 3d3e
000001c0: b82a 93bc 4f10 3dbe 3d1b 32be 71f9 a03d
000001d0: d1dd dfbb 34fb 8cbd dc86 1e3e f897 f13d
000001e0: 234e 143d 995f 21bd 7a1c 773d e417 af3d
000001f0: 870c 18be 5d71 d8bd bc4c 17be 62f5 d93d
00000200: e733 1f3e 0886 213d 6816 0c3e 79fc f5bc
00000210: b064 043e 9b31 d83d 5d0b 2abe 362d 1f3d
00000220: 6412 ffbc 5c05 82bd 16b4 0d3e 612e 3e3e
00000230: 4646 8a3d 7158 373e c697 d63d 0f3a a13d
00000240: 344f 9ebd bffd d6bd 5c87 873b 3214 55bd
00000250: 7253 10be 36c0 99bc 6483 343e 5571 4cbe
00000260: 3c05 293e 3e55 ddbc 1bf0 1dbe 799a e6bd
00000270: bea2 09be 2af1 503d d978 6e3d 4121 fa3d
00000280: cb94 ddbc 6fda 153e c2d7 163e e573 ef3d
00000290: 08ba f9bb 15e0 39bd fe7c 963a 21bc 433e
000002a0: e4b8 243d 3835 4b3d 5d61 fbbd 0622 01be
000002b0: cf1a 42be ff55 1d3d 90a5 423d 942e e2bd
000002c0: 559b f2bd 63cf 24be 3046 243d 5c9d 243e
000002d0: 5767 24be 08ca d93d 28c3 ae3d 4bc8 3d3e
000002e0: e86f 203d 1d0b 3b3d e75c 3abb cc0b 0d3e
000002f0: c8f0 0ebe 584f 0e3e 41b2 c4bd bf03 f13b
00000300: a52f f03d c02c a7bd b63e cdbd 9ffb 29be
00000310: 0a66 513d 0b4a bb3d 9b21 063e ee04 29be
00000320: 2298 c43d f9ae 953d 8235 eebc 087b 693c
00000330: 3ac8 c0bc 6f68 a03c 3227 a0bc 84a0 01be
00000340: a845 203d 6527 163e 6a26 12be 7466 033e
00000350: 6bd6 353c a4d2 efbd f05e d53c 74c2 393d
00000360: b382 2cbd 0c8b 643d 25f2 99bd d33b c8ba
00000370: 2aa1 22be 6ba1 2c3e 87d2 2ebe 139b 49be
00000380: 0438 453e 62df 7abd 1b72 1fbe 5c05 2dbe
00000390: 9bdb 393d 548f 34ba 4523 b0bc a49d 323d
000003a0: 87be 05be 8730 2d3e dc43 f83d 4aa8 023d
000003b0: ccbd 28be 5556 0cba 9183 cbbd 43de 33be
000003c0: 7785 853d e929 29bd 6260 d0bd 6ece 0f3c
000003d0: cda6 06be 4612 cf3d 7b83 183e 8169 8ebd
000003e0: acd2 d53b 1910 97bd efe4 89bd c07c e83d
000003f0: cb1a e3bc 34a0 6bbd 819a 123d 8c82 943c
-0.0070105954 -0.052747414 0.17535964 -0.07390532 0.052912023 0.18524401 0.13772188 0.06316604
-0.04443407 0.035710335 0.103142224 0.08425869 -0.14510584 -0.070546456 -0.0343345 -0.17476682
0.095325775 -0.124065086 0.17321275 -0.19304444 -0.011365789 -0.1432646 -0.018470448 0.1472116
-0.009735782 -0.004756999 -0.051937662 -0.022452625 -0.1326651 0.1391839 0.11304321 -0.18200476
-0.02638866 -0.05185348 -0.15250234 -0.14978147 0.05423727 0.09847329 0.11226906 0.05249537
-0.009017031 -0.16148983 -0.005245096 -0.1630387 -0.038599055 0.15682642 0.08833048 0.2042517
0.042082474 -0.10148583 -0.1571008 0.088501595 -0.100856684 -0.029750396 0.0038539742 -0.023855697
-0.02323724 -0.08202473 -0.14809582 0.03700613 0.02749198 0.19922288 0.017634861 0.06769364
-0.18420091 -0.09232038 0.15780504 0.1677329 0.120800406 0.13680445 -0.13743162 -0.13392237
0.12783729 -0.13399628 0.17065558 -0.13377051 0.04079422 0.008772319 0.07831472 0.010538108
-0.12019402 -0.02306681 -0.027128343 -0.19561553 0.06301937 -0.1623386 -0.15046437 -0.12407191
-0.06289739 -0.12983152 0.1471607 0.10415137 0.016730335 -0.11042585 0.13494343 0.016119154
0.09112823 0.16159931 -0.018020725 0.0918298 -0.14672686 -0.054154683 0.03986461 0.0830162
0.08244089 -0.048947934 0.09768813 -0.053767122 -0.13687861 0.12169271 0.097940795 0.18530953
-0.017964706 -0.18463252 -0.17393203 0.07860077 -0.0068318625 -0.06883851 0.15481132 0.11796564
0.03620733 -0.03939781 0.06032989 0.08549479 -0.14848529 -0.10568497 -0.14775366 0.10642506
0.15547143 0.039434463 0.13680422 -0.030027615 0.12929034 0.105563365 -0.16605897 0.038861476
-0.031136699 -0.063486785 0.13838229 0.1857238 0.06751685 0.17904831 0.10478167 0.07872402
-0.077299505 -0.10497617 0.004136009 -0.052021213 -0.14094332 -0.018768411 0.17628247 -0.19965108
0.16505903 -0.027018186 -0.15423624 -0.11259932 -0.13440987 0.051011242 0.058220718 0.12213374
-0.02704849 0.14634107 0.14730743 0.11692027 -0.0076210536 -0.045379717 0.0011481342 0.19114734
0.040215388 0.0496113 -0.1227443 -0.12610635 -0.18955539 0.03841209 0.047521174 -0.1104404
-0.118460335 -0.16094737 0.040106 0.16075653 -0.16055046 0.106342375 0.08533317 0.18533437
0.039169222 0.045664895 -0.0028436722 0.13774031 -0.13959038 0.13897455 -0.09604312 0.007355183
0.117278375 -0.08162832 -0.10021727 -0.16599892 0.051122703 0.09144982 0.13098757 -0.16505787
0.095993295 0.07308764 -0.029078249 0.014250524 -0.023532975 0.019581048 -0.01954994 -0.12658888
0.03912893 0.14663465 -0.14272466 0.12832052 0.0110984845 -0.117100984 0.026046246 0.04535146
-0.042116832 0.055796668 -0.075168885 -0.0015276618 -0.15881792 0.16858451 -0.17072497 -0.19688062
0.1925965 -0.06124819 -0.15570872 -0.16896576 0.045375448 -0.00068878126 -0.021501193 0.04360737
-0.13060962 0.16913043 0.12122318 0.031898774 -0.16478652 -0.00053534406 -0.09937204 -0.17565255
0.06519597 -0.041299734 -0.101746336 0.008777244 -0.13149567 0.10110907 0.14893906 -0.06953717
0.006525358 -0.07376117 -0.06733119 0.11351919 -0.027722737 -0.05752583 0.035791878 0.018128656

input_layer.bias f4 [128]
00000000: 12ce 3e3c af03 8d3c 8b9f 0539 85c4 a0bc
00000010: 0781 a238 51d4 2cb8 ba9f 2338 0882 6635
00000020: 8a6f 4d3c 598c be3b d0fc 6cb7 5ca2 d6b8
00000030: 7301 94b7 2387 b6b7 ebdd 6138 cac4 fabb
00000040: d1c0 9fb9 44d5 8739 bf5e 303b ac83 843a
00000050: 07fb 0bbc 4c66 39b9 60ca 7bb8 bf0d be37
00000060: 61e4 4cb8 6a6b ecb8 cf3d 5938 0503 d437
00000070: a8ac 9c3c 0c67 72ba f8f4 17b8 ba74 8838
00000080: 6d08 66bb 9fe2 8d39 8f56 0738 108f 833a
00000090: 019a 72bc 350d 373b 9be3 1239 8bc1 a6b7
000000a0: a88c 0e3c d21d a0b6 30ed b73b 0ee2 86b8
000000b0: 092a 1238 3777 1eb8 a7d0 16b8 88e2 b03b
000000c0: 004a d6bb 0a22 cdb7 4f7c c93c b50c 423b
000000d0: 5256 80b8 940b 49b8 e527 d938 ee16 61bb
000000e0: fbeb 623b 9d51 9436 6738 ae3c 545e 3d3b
000000f0: 5536 aab7 e7ef fc37 bbe0 be3c 2623 4238
00000100: dbf4 353a 10ce 753b 6009 9fbc 3e1b 7e3b
00000110: d17e afbc 61c9 5cba 17e9 1d38 2ee0 8037
00000120: 64df b13c 067a 59bc b8d1 973b 11f4 67b7
00000130: 3d2d 4d37 25d3 ba3b 6fb3 9fb8 d181 0db8
00000140: c934 9a39 6c85 febb 6382 dcba 7070 f8b8
00000150: 8a5f 94b7 56ee 46bc 6e82 8338 ed02 d9b8
00000160: fc89 933b df45 05bb 3931 52bb 15f6 1abc
00000170: a72e cd34 fedd d738 495a 4aba eedb 8739
00000180: f1cc 8038 abd4 6ab8 1a40 5bb7 db8e 8fbc
00000190: f5f8 4938 dcd5 95bb 7793 00b9 d0fc 3039
000001a0: b706 5ebc 8027 873a fc77 56b7 52d0 2f3c
000001b0: 2cda 0839 f1f7 9738 0dd4 0038 5c13 bfbc
000001c0: 532f 83bc 8b5c f2b7 8e25 bb38 3b53 14bc
000001d0: bfed 1cb7 676d cdbc 9923 eb38 a492 58ba
000001e0: 8027 6039 5095 c03c a925 5db9 4682 cb38
000001f0: e246 f13b 3a1e 9dbb 3a43 ea38 01ce 75b8
0.011645811 0.01721367 0.00012743303 -0.019624958 7.748795e-05 -4.120573e-05 3.9010985e-05 8.58709e-07
0.0125388 0.0058150706 -1.4125559e-05 -0.00010234557 -1.764365e-05 -2.1759019e-05 5.3850858e-05 -0.0076528536
-0.00030470503 0.00025908102 0.0026911942 0.0010110042 -0.008543736 -0.00017681083 -6.003154e-05 2.2656166e-05
-4.8850085e-05 -0.00011273364 5.1794395e-05 2.5273775e-05 0.019125298 -0.00092469226 -3.622935e-05 6.5067274e-05
-0.0035100237 0.00027062462 3.2267122e-05 0.0010037143 -0.014807225 0.0027931456 0.00014008435 -1.9878868e-05
0.008700527 -4.771843e-06 0.0056129918 -6.431724e-05 3.484826e-05 -3.7781163e-05 -3.595711e-05 0.0053980984
-0.006539583 -2.4453755e-05 0.024595408 0.0029609625 -6.119594e-05 -4.7932917e-05 0.00010354797 -0.0034345943
0.0034625519 4.4202447e-06 0.02126713 0.0028895335 -2.029088e-05 3.0152454e-05 0.02330052 4.628594e-05
0.00069410884 0.0037506856 -0.01941365 0.0038773562 -0.021422775 -0.0008422342 3.76488e-05 1.536318e-05
0.021712966 -0.013273722 0.0046331547 -1.3825499e-05 1.2229485e-05 0.00570144 -7.615133e-05 -3.373792e-05
0.00029412497 -0.00776737 -0.0016823526 -0.00011846505 -1.7687464e-05 -0.012141785 6.270861e-05 -0.00010347911
0.004502533 -0.0020335836 -0.0032072796 -0.009458085 3.821817e-07 0.00010293348 -0.0007719142 0.00025913067
6.141689e-05 -5.598801e-05 -1.3068342e-05 -0.017524173 4.8153994e-05 -0.004572613 -0.00012261966 0.00016878848
-0.013551406 0.0010311455 -1.278333e-05 0.01073082 0.00013051246 7.246424e-05 3.0715066e-05 -0.023324661
-0.016013777 -2.8891742e-05 8.92385e-05 -0.009053047 -9.353679e-06 -0.025076581 0.00011212304 -0.0008261597
0.0002137702 0.023508698 -0.00021090232 9.7040596e-05 0.007363186 -0.004794863 0.000111705114 -5.8604408e-05

projection_layer.0.weight f4 [128, 128]
00000000: 7e6c 7a3c ef07 bdbc 1e6d 6ebd 7f29 96bd
00000010: c413 423d 332a a93d fcc0 853d b93e 5ebd
00000020: 875c 0dbd be97 74bd 6528 843c b98c 843d
00000030: 1471 9e3c 9ef1 84bd 04b0 f73b 9350 fdbc
00000040: 3b5a 073d 5e2c 803d a709 50bd 294c 803d
00000050: 1f9c 513d d796 aa3d 25d3 87bc 04db 573d
00000060: 3f26 68bd ee12 b3bb d0af f33b a9fb 65bd
00000070: ddbd 523d 4bef 07bd 20af 0bbd aedd 33bc
00000080: 17ad 61bd 1007 ae3c 0706 2cbb 3737 aabc
00000090: 2dc2 6f3d 4949 743d 75ad a2bd 87d7 6fbd
000000a0: e7d9 653d 452d 81bd 4059 a7bd 5234 273d
000000b0: 716a e73b 3ed5 b3bc 7f11 85bd 3e41 bbbd
000000c0: f037 8a3d 4a4f ac3c ffcb 43bd 022c 2d3d
000000d0: 2ce4 81bb 8564 db3c 9604 6fbd 0dcb bd3d
000000e0: 0a34 963a 330f 36bd ab55 003d fb3c 843c
000000f0: feaf 373d d897 663b eb32 2abc f0f1 8d3d
00000100: 8ff4 003d 5758 043d 2605 4e3d 0202 1ebb
00000110: 6273 a6bd 9799 623d ae37 ca3c 8e93 a73d
00000120: aea3 2dbd 1dfa a8bd 027e 3d3d bb3e 23bd
00000130: 287d 97bc 446f dcbc a3d8 bdbc 171e 713d
00000140: bbde a43d a650 853d b466 a13d bbbb 3a3d
00000150: 1dd5 5abd eae2 913d 35dc 3f3c 1120 9dbd
00000160: 65de d23c 110d a33d 70b2 06bd 4fd9 55bc
00000170: 0b0e 05be 82a5 65bc 8f75 06bd 123e 4f3d
00000180: 8954 ed3c 3fc7 5f3d c075 a83d 5cc9 40bd
00000190: 173d 7b3d a1ce b1bd 3193 f93c bb3d 8b3d
000001a0: 9abf 973c da42 f3bc c279 36bd ca01 e1bd
000001b0: c869 9cbd 0891 abbc c3a7 a3bd 9e94 fe3d
000001c0: f179 a1bd ef6c a53c 6f07 78bc 699a b23d
000001d0: f1cb 8cbd 561d af3d 3c0d 25bd 1f9f 70bd
000001e0: e091 fd3c be20 3a3d 8bb1 41bd 1b07 f6bc
000001f0: edc8 b8bc a61e 873c 795f 4e3d db9e 83bd
00000200: ffc3 713c db91 7f3b 7ba8 d2bc 46d3 c53c
00000210: dd6e af3d 5920 5e3c b32c 37bd f543 133d
00000220: 78f8 a13d 44df 713c 9e03 44bd b8ea c23d
00000230: 4421 a53c 60df e2bd 06a9 413d 204a 6ebd
00000240: c578 d53c 2e5f a63d 7b0a 2b3a 5473 063d
00000250: 74f5 4dbd ac11 ffbb adf0 82bb 1406 a63d
00000260: 21b1 393d 57c9 a23d d85d 33bd 3364 ccbc
00000270: 37f7 353c 58ef 8cbd 72ec 963d bc65 76bd
00000280: f815 b33c 68ee 8fbd cef5 a2bd b96f 0abd
00000290: 0689 ae3c 627f 8b3d 68bc 9d3d 3b7b 16bc
000002a0: f4fc 593d e9fa 533d 330f d73d 14ce c5bd
000002b0: 70da c53c 5e0b 303d 7f82 263d 385b e13c
000002c0: c77a 443c 8b7d d43d ad63 433d f239 69bd
000002d0: 281a b4bd 3d2a 793d d5a0 c43d 9aeb b23c
000002e0: 0e68 b5bd 0e21 bc3b e781 09bd bb11 a03d
000002f0: 2896 b7bd 2e81 943d ae97 1c3c 8fdd 90bd
00000300: fc17 7d3d 8703 27ba d876 aa3c 578e 7fbd
00000310: 6d53 89bc 1cb0 963d 2284 91bd 75a9 813d
00000320: a86a 35bd 826a a33d 9ebf 4ebd 429a 31bd
00000330: 82eb 00bd 3e71 873d ee71 be3d 1614 e53c
00000340: 99ef 1d3d 497a c8bc 5278 3f3d f320 963d
00000350: d6e4 083d 4355 883d 8565 20bc 0461 8abd
00000360: 394c 0f3b 2089 99bd 51a8 803d 74df 84bd
00000370: 9c37 ca3d a4d4 ff3c 6f9d 0ebd 55ba 163d
00000380: 7190 8d3d 53b3 9bbd f54f 483d 1640 bebd
00000390: fbce 76bd 0209 363b ee7e 59bd c6ac 7fba
000003a0: a7e3 7c3d 91b7 f23c 45de cb3d 4dd6 81bd
000003b0: b6e9 25bc 4295 9abd edc6 8b3d d3ee e53d
000003c0: 777e 11ba 5b34 673d 01c4 fcbb 17c2 543d
000003d0: 2930 aabd 094b f0bc 758a 033d ba60 60bd
000003e0: 4eb2 683c 674a 35bd 399c 28bb 3cd5 e63c
000003f0: ba54 81bd 06dc 3a3d 807b 4fbd 6e66 653c
0.015284656 -0.023075072 -0.05820953 -0.073321335 0.04738213 0.08260002 0.065309495 -0.054259036
-0.03451207 -0.059715025 0.016132543 0.06472153 0.01934103 -0.06491397 0.0075588245 -0.03092221
0.033045035 0.06258462 -0.050790455 0.062645264 0.05117428 0.08329552 -0.016580174 0.052699104
-0.0566771 -0.005464903 0.00743673 -0.056148205 0.0514506 -0.033187192 -0.03410256 -0.0109781455
-0.055096712 0.021243602 -0.002624871 -0.020778282 0.05853479 0.059640203 -0.079432406 -0.058555152
0.05611601 -0.063074626 -0.0817132 0.04082138 0.0070622494 -0.021952268 -0.06497478 -0.09143303
0.067489505 0.021033902 -0.047801968 0.042278297 -0.003963968 0.02678133 -0.058353983 0.092672445
0.0011459601 -0.04444809 0.0313317 0.016142359 0.044845574 0.003518572 -0.010388116 0.069309115
0.03148323 0.03231081 0.05029788 -0.0024110083 -0.08127476 0.055322256 0.024684753 0.08182441
-0.042392425 -0.0825083 0.04626275 -0.039854746 -0.018492296 -0.026908524 -0.02317459 0.058866587
0.08050295 0.06509523 0.07880917 0.04558919 -0.053425897 0.071233585 0.011710216 -0.07672132
0.025740812 0.079614766 -0.032885015 -0.013052299 -0.12993638 -0.014016511 -0.032826956 0.050596304
0.028970974 0.054633375 0.08225584 -0.04706703 0.061337557 -0.086819895 0.030465694 0.067988835
0.01852398 -0.029694963 -0.04454971 -0.10986669 -0.07637364 -0.02094318 -0.079909824 0.1243069
-0.078845866 0.020193545 -0.015138491 0.08720858 -0.06874836 0.08550517 -0.040295824 -0.0587455
0.030953348 0.04544138 -0.04728846 -0.030032685 -0.022556746 0.016494107 0.05038402 -0.06426784
0.014756202 0.0038996849 -0.025715103 0.024148595 0.08566067 0.013557517 -0.044720363 0.03595348
0.0790872 0.014762703 -0.047855012 0.09517425 0.020157464 -0.11077762 0.047280334 -0.05817616
0.026058564 0.08123623 0.0006524694 0.03282483 -0.05028291 -0.007784089 -0.003995976 0.08106628
0.04533494 0.07948559 -0.04379067 -0.024950122 0.011106304 -0.06881589 0.07369317 -0.060155615
0.021861061 -0.07027894 -0.0795704 -0.033797953 0.021305572 0.06811406 0.07701951 -0.009184654
0.05321975 0.05175296 0.10500946 -0.09658447 0.02415201 0.04297959 0.040651795 0.027509317
0.011992163 0.10375508 0.04770248 -0.056940027 -0.087940514 0.060831297 0.09600989 0.02184086
-0.088577375 0.005741245 -0.03357115 0.07815882 -0.08964187 0.072512016 0.009557648 -0.07073509
0.06179045 -0.000637107 0.020808622 -0.062391605 -0.016763413 0.07357809 -0.071052805 0.063311495
-0.04429117 0.07979299 -0.05047571 -0.043360002 -0.031474598 0.06613396 0.09299074 0.02796368
0.038558576 -0.024472373 0.046745606 0.07330503 0.03342136 0.066568874 -0.009789829 -0.067567855
0.00218655 -0.07496858 0.06282104 -0.06487933 0.09873888 0.031229325 -0.03481811 0.036798794
0.06912316 -0.07602563 0.048904378 -0.09289567 -0.060255986 0.0027776365 -0.053099565 -0.0009753223
0.061740544 0.029628547 0.09954504 -0.06339703 -0.010126522 -0.07548 0.068250515 0.11227193
-0.0005550156 0.056446414 -0.007713795 0.05194291 -0.08309967 -0.029332655 0.032114465 -0.054779746
0.014202667 -0.04426041 -0.0025727882 0.02817785 -0.063149884 0.045619987 -0.05065489 0.014001472

projection_layer.0.bias f4 [128]
00000000: 34b7 cbb8 1514 f738 0aba cc38 9f5a 9438
00000010: 7bfd 84b8 4186 3335 eb56 68b8 7f1e 6538
00000020: 9ead f0b7 6996 6a38 c8e2 84b8 7e9a 1038
00000030: e4cb 1cb8 520f 89b9 ed5a 1f39 537b 62b8
00000040: 84a5 3eb7 d116 efb8 2e22 05b9 981a d2b8
00000050: 1611 f5b6 74ff 4239 f91f b7b7 2ac6 8a38
00000060: 0996 1fb8 bc55 16b8 90dc 42b8 47c2 3a39
00000070: 0856 d638 fdc3 91b8 cf0f 22b9 0bf3 efb7
00000080: 48b6 0db8 5534 1239 a06b bcb7 01eb 1e39
00000090: a28f 29b9 20e2 4b37 6a2d 14b9 e92f 6338
000000a0: 42ed 8fb8 8872 75b8 7232 7838 284d 11b8
000000b0: e257 f3b7 4819 4eb8 822c 9ab8 0410 1139
000000c0: 32ea 52b7 a698 3138 bb96 05b8 bcec 3d39
000000d0: 8258 9d38 72f6 9f38 2bfc 3cb9 e509 c9b7
000000e0: a5c6 12b9 925f b238 9468 9a38 6289 ffb7
000000f0: 5853 8837 1295 5635 0f0c 0eb8 1bdf 87b7
00000100: 1161 b4b8 5b49 5339 01b2 40b9 c38d c8b7
00000110: 2a00 a938 8e92 8039 2835 0539 1db9 84b7
00000120: 37dc 2eb8 ff0d 1b39 9e9d c0b8 1fd6 5639
00000130: 84b8 b5b6 ab06 8a38 a43a 9f38 db12 6637
00000140: f2f7 63b8 2209 3fb9 1ceb 7b38 167a b4b6
00000150: ecc2 84b8 fdbb 9eb7 76d9 3539 815e 0738
00000160: bd7c 2038 5d86 c1b8 8571 4e34 21e1 83b8
00000170: 7be4 49b9 5f63 85b9 72ba 47b8 96ac 58b7
00000180: 5aa5 bd37 c4a3 2fb6 bfe8 80b7 eda0 3838
00000190: 3f70 1539 547b 1eb9 215b 3bb9 e63c ae38
000001a0: 41e2 5237 cf71 0038 22b1 00b9 c5ac 7bb6
000001b0: cd4f 76b9 6c28 1ab8 efa3 2138 4466 43b9
000001c0: 5c86 51b8 85e1 f4b7 983b 92b8 a22c 6eb8
000001d0: 6b0a 3f39 5b5e 43b8 c0fc 44b8 c935 aab7
000001e0: 2974 52b7 9680 9cb8 24cb 8db8 5571 38b8
000001f0: 3749 cb38 3c74 be38 91a1 abb6 3375 9d37
-9.7139186e-05 0.000117816184 9.7621305e-05 7.0740694e-05 -6.341465e-05 6.687806e-07 -5.539406e-05 5.4626256e-05
-2.8691076e-05 5.5930028e-05 -6.336492e-05 3.4476157e-05 -3.7383186e-05 -0.0002614209 0.00015197294 -5.3997454e-05
-1.136342e-05 -0.00011400658 -0.00012696601 -0.00010018534 -7.303558e-06 0.00018596445 -2.1830188e-05 6.617264e-05
-3.8048285e-05 -3.5842633e-05 -4.645862e-05 0.00017810716 0.0001022034 -6.9506445e-05 -0.00015455413 -2.8604196e-05
-3.3786782e-05 0.0001394314 -2.2461463e-05 0.000151556 -0.00016170603 1.2152392e-05 -0.00014131298 5.4165637e-05
-6.862964e-05 -5.8519217e-05 5.917479e-05 -3.464255e-05 -2.9008781e-05 -4.9137772e-05 -7.3515825e-05 0.00013834244
-1.2571503e-05 4.2342253e-05 -3.185005e-05 0.00018112635 7.502829e-05 7.627615e-05 -0.00018023017 -2.3965675e-05
-0.00013997646 8.505503e-05 7.3627714e-05 -3.0462343e-05 1.6251273e-05 7.993814e-07 -3.386667e-05 -1.6197146e-05
-8.601149e-05 0.00020149855 -0.00018376858 -2.390787e-05 8.0585785e-05 0.00024523254 0.0001270367 -1.5821826e-05
-4.1689924e-05 0.00014787166 -9.184632e-05 0.00020488397 -5.415701e-06 6.581595e-05 7.5926335e-05 1.3713458e-05
-5.4351935e-05 -0.00018218582 6.0062026e-05 -5.3786307e-06 -6.3305575e-05 -1.8922607e-05 0.00017342516 3.227452e-05
3.8263144e-05 -9.227984e-05 1.9226543e-07 -6.2885e-05 -0.0001925397 -0.00025441774 -4.7618938e-05 -1.2914787e-05
2.2607554e-05 -2.6172356e-06 -1.536717e-05 4.4018892e-05 0.00014251562 -0.00015113998 -0.00017867658 8.30831e-05
1.2569654e-05 3.062357e-05 -0.00012273018 -3.750248e-06 -0.00023490116 -3.6754107e-05 3.8538066e-05 -0.00018634746
-4.9954615e-05 -2.9192082e-05 -6.972923e-05 -5.678519e-05 0.0001821906 -4.65795e-05 -4.6965433e-05 -2.0290625e-05
-1.2544021e-05 -7.462611e-05 -6.761242e-05 -4.3974567e-05 9.693432e-05 9.081556e-05 -5.115006e-06 1.8770434e-05

projection_layer.1.weight f4 [128]
00000000: 21a3 823f 13a7 833f 2fa2 823f f7f9 813f
00000010: 9f87 823f d4dd 863f f68b 833f 86f7 793f
00000020: 7a1a 863f bf2b 8a3f 170a 8a3f a4b9 823f
00000030: 5ddc 873f 65b3 813f fc4c 853f e9b5 823f
00000040: b97c 783f 58c0 813f 40d1 823f 774b 893f
00000050: cf17 853f 2933 813f fb19 7f3f 3af3 7e3f
00000060: 1e2a 813f d289 8a3f cd94 863f bfca 873f
00000070: 6bd9 793f 08b7 803f be80 873f 15ff 7f3f
00000080: f94f 833f a21f 843f 8b93 873f 2a08 843f
00000090: a24d 883f a5c9 863f 6e7f 833f 9329 883f
000000a0: d683 833f 49c2 853f c827 7f3f 244e 843f
000000b0: 76ef 833f d78f 823f cb28 813f c6a5 893f
000000c0: 4a82 843f 9df1 823f 975f 873f 7d0c 893f
000000d0: 81ab 813f 8144 853f b018 853f e3a6 803f
000000e0: 998c 893f 21f0 7e3f adca 843f 97ef 813f
000000f0: 018f 833f 01a7 833f 0c0a 833f 8d03 803f
00000100: fd69 863f 73d6 833f 21f6 843f 7afa 823f
00000110: 8b60 863f ca11 863f 7a21 843f 9ae1 863f
00000120: 4bd2 833f 0b8e 823f 7f8e 833f cb6b 863f
00000130: 6b8b 843f c855 853f 3387 823f ff20 7f3f
00000140: d6ec 813f dccf 833f 89c8 833f 260c 7e3f
00000150: 1778 873f 6204 893f 8ed4 873f ea4f 833f
00000160: 8181 853f 2fb8 7e3f 728d 803f 0ca3 823f
00000170: d6f3 813f d2e3 7c3f 879e 873f 3d90 843f
00000180: 85f8 813f 5ef3 853f cb4f 813f 93d6 873f
00000190: 33b9 823f 23eb 873f d9ae 823f 5887 813f
000001a0: 45c7 833f ba58 853f c5f5 813f 2a12 853f
000001b0: 6895 823f d101 813f ab84 873f c8f4 833f
000001c0: aeb5 873f 11ec 843f e1d6 813f 7657 7f3f
000001d0: c3e1 8a3f 47cd 863f b951 823f c946 823f
000001e0: 180d 813f c291 803f c295 823f 3450 7f3f
000001f0: 73f1 873f 75ad 833f 1ac5 853f f33b 813f
1.0206033 1.0285362 1.0205745 1.0154408 1.0197638 1.0536447 1.0277088 0.97643316
1.047683 1.07946 1.0784329 1.0212903 1.0614125 1.0132872 1.0414119 1.0211765
0.9706531 1.0136824 1.0220108 1.0726155 1.0397891 1.0093738 0.9964902 0.99589884
1.0090978 1.082331 1.051416 1.0608748 0.9759738 1.0055857 1.0586164 0.999986
1.0258781 1.0322154 1.0591902 1.0314991 1.0648692 1.0530287 1.0273263 1.0637687
1.0274608 1.0449916 0.99670076 1.0336347 1.0307453 1.0200146 1.0090574 1.0753715
1.0352261 1.0229985 1.0576047 1.0706936 1.0130464 1.0411531 1.0398159 1.005093
1.0746032 0.9958516 1.0374352 1.0151242 1.0278016 1.028534 1.0237441 1.0001084
1.0501095 1.029982 1.0387613 1.0232689 1.0498213 1.0474179 1.0322716 1.0537598
1.0298551 1.0199598 1.0277861 1.0501646 1.0355047 1.0416803 1.019751 0.99659723
1.0150402 1.0297809 1.0295573 0.9923729 1.0583524 1.0704463 1.0611742 1.0258763
1.0430146 0.9949979 1.0043166 1.0206008 1.0152538 0.98785126 1.0595254 1.0356518
1.0153967 1.0464895 1.0102476 1.0612358 1.0212768 1.0618633 1.0209609 1.0119429
1.0295187 1.0417702 1.0153128 1.0396168 1.0201845 1.0078679 1.0587362 1.0309076
1.0602319 1.0384542 1.0143701 0.9974283 1.0850147 1.0531396 1.018119 1.0177852
1.0082121 1.0044482 1.0201952 0.99731755 1.062056 1.028731 1.0450776 1.009642

projection_layer.1.bias f4 [128]
00000000: 4e39 4cbd ef2a 52bd 92cc 30bd 5ad3 7fbd
00000010: 93ce 0bbd c4a2 f5bc 95cf 44bd c7f8 6bbd
00000020: 2cc9 6abd 86df 0cbd 6b43 b6bc a039 52bd
00000030: ceb6 29bd 7c94 87bc 4c69 24bd 2601 7ebd
00000040: efaf a7bd 8917 f5bc 894b b63b d4b5 89bd
00000050: d050 61bd 782a 83bd 70a3 70bd 6a83 07bd
00000060: 2cf2 20bd 3bcd 03bd 5931 4ebd 09d4 85bc
00000070: 8ad2 4abd 9fde 86bd 9343 f3bc 1196 eabc
00000080: 0991 3bbd 394d 40bc 9601 13bd e763 c2bd
00000090: 7ba3 383c 15dd 91bd 83bd 16bd dd5c c3bc
000000a0: 7746 33bd feee 0cbd 197d 1abd 46eb d7bc
000000b0: dc87 45bd 196c 1bbc 97bb e8bc d7d3 223c
000000c0: e052 21bd e09e 66bd c388 18bd 02e2 b53c
000000d0: 30fd 29bd 5236 59bc 7ba8 0abd d84e 81bd
000000e0: 41f9 753b 9551 31bd 7d3d c4bc c589 81bd
000000f0: a4bb 0fbd 5d7c f0bc 1f12 aebc 4b9e 5bbd
00000100: 5df7 a6bc cc72 3ebd 627d 03bd 336a 8bbd
00000110: a544 4dbd 4adc 23bd 21fd a5bc 76f9 11bd
00000120: 166c d3bc 07e3 36bd 5d65 91bd 562e 79bd
00000130: 2323 27bd 760b b4bc e8b9 1abd 3fef a0bd
00000140: 66a6 33bd 12d5 d2bc fb69 29bd 6d7f 6ebd
00000150: e7ed 21bd ef72 54bb 8648 f7bc 37e6 7cbd
00000160: d488 0bbd cdfb f3bc 2151 2cbd 235a 1fbc
00000170: bb7f 03bd 81a7 87bd 2afb 13bd 12d0 f8bc
00000180: b93c a4bd d171 bbbc dff8 71bd 2f2a 0dbd
00000190: c3c0 5bbd 8f46 d2bb cdd2 07bd e20a 5ebd
000001a0: 96d1 4abc 13d3 31bd a395 a5bc 5f8f 42bb
000001b0: 5219 f4bc a4c7 6dbc f3a5 70bd f31e 3fbd
000001c0: 8615 b5bb 617c 50bd ac21 31bd 4341 58bd
000001d0: 4d2c 9bbd 0503 38bd d12b 8cbd 70f0 a5bd
000001e0: 9fd5 35bd 4b65 75bd 31cb 61bd e7e6 1fbd
000001f0: 0af2 23bd 2877 75bd dc21 09bd 2c30 10bd
-0.049859338 -0.051310476 -0.043163843 -0.06245742 -0.03413255 -0.02998484 -0.04804953 -0.0576103
-0.05732076 -0.034392856 -0.022248944 -0.051324487 -0.0414341 -0.016550295 -0.04013948 -0.062012814
-0.081878535 -0.029918449 0.0055632037 -0.06724134 -0.05500871 -0.06404585 -0.058749616 -0.03308431
-0.039293453 -0.032178145 -0.05034003 -0.016336458 -0.049517192 -0.0658543 -0.029695308 -0.02863601
-0.045792613 -0.011737161 -0.035890184 -0.09491711 0.0112694455 -0.07122246 -0.036801826 -0.023847992
-0.043768372 -0.03440761 -0.03771696 -0.026357304 -0.04822527 -0.009486222 -0.028409762 0.009938202
-0.039385676 -0.05630386 -0.0372398 0.022202495 -0.041501224 -0.01325758 -0.03385208 -0.063138664
0.00375326 -0.043290693 -0.023955101 -0.063251056 -0.035091057 -0.029356176 -0.021248875 -0.053617757
-0.020381624 -0.046496198 -0.032101996 -0.06807365 -0.050114293 -0.040005006 -0.020262303 -0.035638295
-0.025808375 -0.044650104 -0.07099412 -0.060835205 -0.040804993 -0.021978121 -0.03777495 -0.078581326
-0.04385986 -0.025736365 -0.041360836 -0.05822699 -0.039533522 -0.0032417139 -0.030185949 -0.061742987
-0.034066036 -0.029783154 -0.042069558 -0.00972608 -0.032104235 -0.06623746 -0.0361282 -0.030372653
-0.080193944 -0.02288142 -0.059075233 -0.034464058 -0.05365063 -0.0064171026 -0.03316002 -0.054209597
-0.012379071 -0.043414187 -0.020212954 -0.0029687507 -0.02979723 -0.01451293 -0.05875201 -0.046660375
-0.0055262474 -0.050899867 -0.043245003 -0.052796613 -0.07576809 -0.044924755 -0.06844295 -0.081025004
-0.044393178 -0.059911054 -0.05512542 -0.039038565 -0.04002575 -0.05992809 -0.033479556 -0.03520219

projection_layer.1.running_mean f4 [128]
00000000: 313d adbb dfd2 29bc d976 fdbb 7203 76bb
00000010: 7bdf 973c 6d81 d8bb ab3e 41bb 96a6 8c3a
00000020: 8aab 613c 3b5b c8bc 9996 2dbc d31c 873b
00000030: 8380 0ebb 90b0 01bd fac7 bc3c 9acf 5dbb
00000040: c868 5b3c 9c66 59bc f8f9 c93b 9a6d d9bc
00000050: b0ea 603c 1f5e 43bc fa70 933a f351 8cbc
00000060: 9a32 0d3b 8dc8 dd3b 2a30 8e3c 5187 903c
00000070: 7cda a63c 847d 1b3d e6af bcbb 39ec 67bb
00000080: b616 1c3c 26f1 223b a991 aa3c af8d 08bd
00000090: 8dcd d7bb 73ef c3bc b453 653c 94cd 31bc
000000a0: 9534 a33c 7790 00bc 6c41 16bb cc10 bdbc
000000b0: 0e27 fbbc 0b82 84bc f150 613c 9e8e c1bc
000000c0: 161a 0bbc 3aa8 0cba 950f b43c 29f9 88bb
000000d0: db20 a93c 14d1 fb3b bf05 b73b 5d8e 54bc
000000e0: ce74 e1bb 6708 ddbc 3ef3 66bb 79f7 a23b
000000f0: c515 61bc 8647 08bc cf11 a7bc 2e19 bf3c
00000100: 9d6a 22ba eb26 09bc 6b44 acbb e0fc 74bc
00000110: 30f2 ab3c 423f 283c 6dc4 56bc c852 f93c
00000120: b905 563b dfec 493c c5c7 0dbd 7a2a cc3c
00000130: cfce 8b3b 6373 a8bc 23e2 66bb b57a abbb
00000140: 7de6 91bc 7c3b e2bb 9186 c13b 855e eb3c
00000150: b9c7 403c e0ce 0d3d 6d85 1fbc 527d 2fbc
00000160: 6a57 bb3c 2fdd 0dbd c9b5 d63b 67bf f9bb
00000170: df19 87bc d75b d13b 41df f8bc a471 d83c
00000180: 26a9 32bd d1b9 c739 93cf 52bc 1e13 4cbb
00000190: 178f 843c e22f 0b3c 4a1a d43b af80 14bd
000001a0: 281d 65bc 68ea b6b9 c2d1 3a3c ab09 0e3d
000001b0: 1b92 943c 6147 403b 3643 dc3a f647 3f3c
000001c0: 9686 c1bc 8c10 5d3c 9fba f63b 4cc1 83bb
000001d0: ab48 f03c afbc 4fbc 64fc 58bb ecd7 813b
000001e0: 5d9e ff3a 6c64 453b 3fb6 76bc 53a6 d4bc
000001f0: dfaf 5a3c 6c26 11bb 3702 ecbc 8f55 8c3c
-0.0052868356 -0.010365217 -0.007735115 -0.0037538675 0.018539181 -0.0066072256 -0.0029486816 0.0010730799
0.013773808 -0.024457565 -0.010594987 0.004123309 -0.002174408 -0.031662524 0.023044575 -0.0033845664
0.013391681 -0.013269093 0.006163832 -0.02654152 0.013727829 -0.011924296 0.001124888 -0.01712892
0.0021545053 0.0067682923 0.01735695 0.017642649 0.020367853 0.037961498 -0.0057582734 -0.0035388602
0.009526899 0.0024862974 0.02082141 -0.033338245 -0.006585783 -0.02391789 0.013997007 -0.010852236
0.019922534 -0.007846943 -0.0022927178 -0.023079298 -0.030658271 -0.01617529 0.013752208 -0.023627575
-0.008490106 -0.0005365644 0.021980086 -0.004180093 0.02064555 0.007684836 0.005585402 -0.012973395
-0.0068803793 -0.026981546 -0.0035240198 0.0049733487 -0.0137381 -0.008317834 -0.020394234 0.023327436
-0.0006195696 -0.008371095 -0.0052571795 -0.014952868 0.020989507 0.010268988 -0.013108355 0.030434981
0.003265722 0.012324541 -0.034614343 0.024922598 0.004266597 -0.020562833 -0.0035230003 -0.0052331337
-0.0178101 -0.0069040637 0.005905934 0.028731594 0.011766368 0.03462112 -0.009736401 -0.010711031
0.02286883 -0.034634765 0.006552432 -0.007621694 -0.016491828 0.006389122 -0.030379893 0.026421376
-0.043618344 0.00038094682 -0.012866872 -0.0031139324 0.016181512 0.008495303 0.0064728605 -0.036255535
-0.013984002 -0.0003488839 0.011402549 0.03467719 0.018136075 0.002933942 0.0016804698 0.011674872
-0.023623746 0.013492715 0.007529571 -0.0040208455 0.029331526 -0.012679263 -0.003310942 0.0039625075
0.0019502152 0.003011967 -0.015058099 -0.025958216 0.013347595 -0.0022148145 -0.02880965 0.017130641

projection_layer.1.running_var f4 [128]
00000000: 8b37 1b3e aed3 0a3e b60a 823e 8d1a 113e
00000010: e869 073e 9230 2f3e 145b 003e 99dc 2f3e
00000020: b5a1 203e 1ad9 623e eeea 253e d391 1e3e
00000030: ddf0 0b3e 0af5 133e 91d2 333e b4d5 123e
00000040: da8f 623e add7 3f3e 02b0 643e fe60 213e
00000050: 54df 1b3e 78ef f43d ae6c 243e 109a 2f3e
00000060: dabb 033e 87f1 1b3e afa7 073e 024d 583e
00000070: aba7 0c3e 5602 413e affc 4d3e a74d 733e
00000080: fa3a 183e 5f7b 053e 0ee3 263e 15d1 263e
00000090: a7a8 513e b9a7 f93d aae2 073e e7a3 283e
000000a0: ba4e 633e 2c29 ee3d 7f28 3a3e 8506 cb3d
000000b0: 0439 163e 3461 7d3e a506 623e 56eb 823e
000000c0: b871 2a3e e05e 673e 103c 083e 8d12 2d3e
000000d0: 03d6 583e a2b3 5f3e 2ce0 2a3e e415 213e
000000e0: f2a1 293e 4e82 6b3e e7a1 103e e0b5 513e
000000f0: 18ec 0d3e 1beb 0b3e a11d 103e df0c 413e
00000100: 5ff7 083e 339b 3e3e 34e2 173e 91a3 553e
00000110: 3226 753e 8f31 103e 6153 213e 78e3 4b3e
00000120: 7ccc eb3d b09b 5a3e 8d28 8e3e b887 363e
00000130: aac2 0a3e cc53 ff3d 03e3 0a3e 5420 483e
00000140: dfe8 2d3e 3216 f13d 54b2 173e 1e70 7c3e
00000150: ecf3 3f3e 063f 463e e36a 1a3e be46 e13d
00000160: c396 443e ca7e 3b3e 86d6 8b3e 550c f93d
00000170: ca2a 273e 151b 233e b9f7 1b3e 1af6 cc3d
00000180: fcc0 f13d 657e fb3d 1d2a 2e3e f608 2d3e
00000190: 2e7b 433e e06d 113e 4bfd 453e e515 243e
000001a0: 20c0 193e 6e8d 2e3e 97be 3b3e 2a1f 2b3e
000001b0: 3b18 e73d 9b97 6a3e 6ec9 233e ae71 5d3e
000001c0: b298 603e f515 ae3d 016e 043e d8d1 0a3e
000001d0: f264 113e fef6 3a3e c9e9 673e 56bb 163e
000001e0: ba29 073e c00d 113e 4b36 4e3e f417 2d3e
000001f0: 6560 623e fa9e 063e 695e 2a3e 001d 2a3e
0.15157907 0.13557312 0.25398797 0.14170285 0.13223994 0.17108372 0.12534744 0.17173995
0.15686686 0.2215313 0.162029 0.15485315 0.13666101 0.14448944 0.17560793 0.14339334
0.22125188 0.18734618 0.22332767 0.15759656 0.15221912 0.119597375 0.16057083 0.17148614
0.12864628 0.15228854 0.1324756 0.21123126 0.13735835 0.18848547 0.20115922 0.23760091
0.14866248 0.13035344 0.16297552 0.16290696 0.20474492 0.12190194 0.13270059 0.16468774
0.22198 0.11628947 0.1817951 0.09913353 0.14670187 0.24744111 0.22072847 0.25570172
0.16644943 0.22594786 0.13304162 0.16901608 0.21175389 0.21845868 0.16687077 0.15731007
0.16565683 0.22998926 0.14124261 0.20479536 0.13859594 0.13663904 0.14073803 0.18852566
0.13375615 0.18613891 0.14832383 0.20863177 0.23940352 0.14081405 0.15754463 0.19910991
0.11513612 0.21348453 0.27765313 0.1782521 0.13550821 0.12467155 0.1356316 0.19543582
0.16983365 0.117718115 0.1481412 0.24652144 0.18745393 0.19359979 0.15079837 0.10999821
0.19198136 0.18310085 0.27312106 0.12160555 0.16324916 0.159283 0.15231217 0.10007878
0.11804387 0.12279967 0.17008252 0.1689795 0.19089958 0.1420207 0.19334905 0.16023977
0.15014696 0.17046139 0.18334423 0.16711107 0.112839185 0.22909395 0.15994808 0.21625397
0.21933249 0.08500282 0.12932588 0.13556612 0.14198664 0.18258283 0.22647776 0.147199
0.13199511 0.14165401 0.20137899 0.16903669 0.22107084 0.13146582 0.16637577 0.16612625

projection_layer.4.weight f4 [128, 128]
00000000: b384 8cbd 3b35 c4bd 0103 92bd 858d 313d
00000010: 2994 b5bd cfa7 e5bd 47ca 323d 1c03 263d
00000020: e817 afbc 95d0 553d a4cf d2bd c0e7 a53d
00000030: 7d31 933d 4469 223d 4b97 41bc bcfe 7b3d
00000040: 4b2a 8e3c 1436 e0bc cb1c e7bd b09e c03d
00000050: acac 843d af9b 1ebd b7b8 3dbd a2c0 b5bd
00000060: f3b0 583d da25 423d ce89 893d 1ac1 743d
00000070: a603 d93d 4232 443d f944 abbd 401c 273c
00000080: 7acb b33c 0065 1b3d 160f 7a3d 4212 ae3d
00000090: d0f1 78bd 645b 043d 4861 84bd a78b 3d3d
000000a0: b7ac 9f3d c535 f3bd afdb 70bd d04b a6bc
000000b0: cdb6 cbbd 38b7 143d 5456 67bd 0a40 653c
000000c0: 411b aa3b c9fa 9bbd 4b53 4a3d 57eb 023d
000000d0: fc97 a9bd 82e8 d23d 03d2 05bc b9e2 2bbc
000000e0: 4f71 013d ebb6 83ba 2dbb 5c3d 4578 3bbd
000000f0: 842b 40bc 8749 af3d 6530 6cbd aa8d f5bc
00000100: f435 7fbd e264 d2bc c401 7d3d 0aa0 a0bd
00000110: fcfc 52bd 1f39 76bc 2833 36bd 844d a63c
00000120: 4829 c03d 99d3 a9bd b532 cdbd db4c b43d
00000130: a21f 0e3d 0a76 cfbd ff66 503a 9ea6 023d
00000140: 3366 513d 525d 633d c0f7 50bd 319d 55bd
00000150: a40c 21bd 56df 3bbd 81ca 13bb 3994 853b
00000160: 5983 22bd cc54 6dbc cee5 b73b 7a21 8c3c
00000170: 97cf 1ebd bc69 a33c 343a ac3d 5c9e 213d
00000180: d693 823d 93eb 02bd 33de 59bd c2d7 7b3d
00000190: fcd1 b4bb ce41 b53d b726 283d 6235 853d
000001a0: 4c7f 203d e3b2 a6bd eb6f d0bd e694 11bc
000001b0: 5f95 9abd 2fc9 cf3c b6c1 bbbd 3f04 3b3b
000001c0: 1798 c4bd 1caa c8bc 72b6 953c 0d56 66bc
000001d0: f4bf 22bd fc36 07be f868 e33d 34e3 543b
000001e0: e528 4cbd 646a 82bd 932e dcbd 4bf0 93bd
000001f0: 1ec8 b63d ce83 833d 8625 d8bd 762c 413d
00000200: 0e53 97bc ac7b e0bc 9188 e93d ec88 72bd
00000210: a957 e3bc da68 b2bc 4512 02be 7889 173d
00000220: 7367 89bd 3fdc a3bd e418 a4bd 7197 c73c
00000230: 1aea 933d ffd2 b13a b56d 99bd 9028 ef3b
00000240: 446e 64bd 7fde ec3c 4921 75bd ba25 04be
00000250: cb90 063d b07c a83d 5a01 8dbd e2ab 233c
00000260: 5f63 06bd c125 73bd 7a71 0a3c 76ec 82bd
00000270: 8564 19bd deef a73d de26 72bd 2f5a 2b3d
00000280: a623 bdbc cb3f 003b 12b9 02be dd36 9abd
00000290: 648f 2c3c 5ef1 c23d a7e3 7ebd fed3 103c
000002a0: 4583 773d b2bc de3b 1227 863c 6e00 973d
000002b0: 2c05 ae3d 1303 22bd 2312 773d e298 5cbc
000002c0: 6df7 123d 8f55 54bd 3a30 efbc 750b 3e3d
000002d0: 67b9 5b3d f7c8 6b3c 2012 063c 5488 2dbc
000002e0: 6ba1 e139 e6cc 9d3d 1c3d c03c 69fe 703d
000002f0: a5cc 7ebd 667d 84bd 4610 863c 5962 9ebd
00000300: 0d32 ddbd 5e02 74bd 24a7 813c f324 833d
00000310: 79d7 853a d097 de3d f44d 37bd f2c8 5abd
00000320: 61ad cbbd 3cb4 2ebd 1679 643c 729d 08bc
00000330: 26f6 8d3d ae3c a13c 1209 72bd d504 5bbd
00000340: 96ff 913d 1ce2 833d d995 493d 6311 3c3c
00000350: e7fe cf3d ebde 10be bbde c03d fccf cc3a
00000360: 9c86 ad3a 4dfc 073d ab4c c43c 3fd1 223c
00000370: 5bc9 d7bc dec8 853d a1a6 303c 1073 23bd
00000380: 3ef8 59bd 3cd6 f3bb 5000 683d c9d1 ee3c
00000390: 5a81 aabc b8bb 76bd 48fe 7e3d 6401 94bd
000003a0: 4341 1ebd d8ff 91bc 1fcd fd3c c153 06bd
000003b0: 5ee4 22bd 6c69 c1bd 04ae 92bb c91b 14bd
000003c0: 604b b8bc 0434 f0bd a8a3 68bc 025f 433d
000003d0: c582 82bd cf62 41bd 8b38 a3bb 3303 57bd
000003e0: 3b14 a03c 446c c9bc 7ed1 1c3d f856 43bd
000003f0: d90e 80bc 22eb ac3d 82fd 833c d5f2 89bc
-0.06861248 -0.095804654 -0.07129479 0.043347854 -0.0886615 -0.112136476 0.043649938 0.04053031
-0.021373704 0.052200872 -0.102935106 0.081008434 0.071871735 0.03965117 -0.011815856 0.06152223
0.017354151 -0.027369536 -0.11284789 0.09405267 0.06478247 -0.03872269 -0.046318736 -0.088746324
0.052903127 0.04739938 0.06715737 0.05975447 0.10596399 0.047899492 -0.08362765 0.010199606
0.021947611 0.037938118 0.061049543 0.08499576 -0.060777485 0.03231372 -0.064638674 0.04627576
0.077966146 -0.1187549 -0.058803257 -0.020299822 -0.09946976 0.036307544 -0.056478813 0.013992319
0.005191237 -0.07616193 0.04939584 0.03196272 -0.08280942 0.102982536 -0.0081677465 -0.010491067
0.0316022 -0.0010049021 0.053889442 -0.045768995 -0.011729125 0.08558946 -0.05766334 -0.029974777
-0.062307313 -0.02568287 0.061769262 -0.07843025 -0.051510796 -0.015028267 -0.04448238 0.020300634
0.09382874 -0.08292312 -0.10019437 0.088037215 0.034698136 -0.10129936 0.0007949918 0.03189718
0.051122855 0.05550892 -0.051017523 -0.052151863 -0.039318696 -0.045867287 -0.0022551122 0.0040765074
-0.039676044 -0.014485549 0.0056121117 0.017105807 -0.03877219 0.019947879 0.08409539 0.039457664
0.06375854 -0.031962942 -0.05319042 0.06148506 -0.005518196 0.08850442 0.041052546 0.065043226
0.0391839 -0.08139589 -0.10177597 -0.008885598 -0.075480215 0.025364487 -0.09167807 0.0028536466
-0.09599321 -0.024495177 0.018275473 -0.014058602 -0.039733842 -0.13204569 0.111040056 0.0032484056
-0.049843688 -0.06367949 -0.10751071 -0.072235666 0.08924888 0.06421624 -0.10554032 0.047161542
-0.01847222 -0.027402721 0.11403001 -0.05921261 -0.02775176 -0.021778513 -0.12702282 0.036996335
-0.067091845 -0.08000993 -0.0801256 0.024364205 0.07222386 0.001356691 -0.07491628 0.0072985366
-0.05576922 0.028914688 -0.059846196 -0.12905017 0.03285293 0.08226907 -0.068850234 0.0099897105
-0.03280961 -0.059362177 0.0084499065 -0.063927576 -0.03744938 0.08200048 -0.059119098 0.041834053
-0.023088288 0.0019569274 -0.12765911 -0.075299956 0.010532234 0.095186934 -0.062228825 0.008839605
0.060427923 0.0067973966 0.016376052 0.07373129 0.0849708 -0.039553713 0.06032003 -0.0134641845
0.035880495 -0.051839408 -0.0291978 0.046397645 0.05364361 0.0143911755 0.008183032 -0.010591585
0.0004303561 0.07705097 0.02346664 0.058836374 -0.062206883 -0.0646923 0.016365182 -0.07733602
-0.10800562 -0.05957257 0.01582677 0.06403532 0.0010211311 0.108688 -0.044752076 -0.053414293
-0.09945179 -0.042652354 0.013944885 -0.008338319 0.06931715 0.019682255 -0.05909068 -0.053471405
0.07128827 0.06439611 0.04921517 0.011478755 0.10156041 -0.14147536 0.094174825 0.0015625949
0.0013238969 0.033199597 0.02396234 0.0099375835 -0.026341131 0.06532453 0.010781915 -0.039904654
-0.053215258 -0.00744131 0.056640923 0.029152768 -0.020813633 -0.060237616 0.06225422 -0.07226828
-0.038636457 -0.017822191 0.030981598 -0.032794718 -0.03976857 -0.09443936 -0.0044763107 -0.03615931
-0.02249688 -0.11728671 -0.014199175 0.04769803 -0.063725986 -0.04721337 -0.0049811057 -0.052493285
0.019540897 -0.024587758 0.038285725 -0.04769036 -0.01563208 0.084432855 0.016112093 -0.016839424

projection_layer.4.bias f4 [128]
00000000: 489a 203c 71eb 1a3d ce59 223d e151 71bc
00000010: 6584 4ebd 50fb 49bd 13ed 3cbb 4e0d 693d
00000020: 49ae bfbd dd37 923c ee98 103d e2c5 2a3d
00000030: 8e07 043d 8a09 e83b 85ce 3d3c 489f 823b
00000040: a8df 0d3c 2453 9cba 350d 96bd 04c3 533d
00000050: fa1b 87bd 1efe b0bd 1b47 fc3b 8b10 b7bb
00000060: 09ad 21bd 90b7 88bd e116 ad3d 4d5b 4a3d
00000070: accf 23bc 1b79 e1bc fa5e 613d 2b48 313c
00000080: 32e1 b33d 76cc 833d fefc 80bc f6f4 f1bc
00000090: fe68 633d c4c9 88bd 8c63 ae3d 74f4 adbd
000000a0: 593e 0f3d f0a1 863d 62c1 87bd 9962 9cbd
000000b0: efd5 083d a91a 68bd 720f 693c 89ee 4ebc
000000c0: 08d8 813d 3d99 f737 90af 743d 2fdf 533d
000000d0: 22dd 8cbd 6f0d 92bd b755 bfbc 0d00 f7bc
000000e0: ad9c 623d f03c 193c e53c 48bc f7bc 36bd
000000f0: b089 82b6 91c1 b23d 50d7 6ebd 39b2 703d
00000100: cdf3 a43d 1099 22bc d243 babd 1738 a23c
00000110: 7360 763d 007e b0ba 8879 0abd 6da5 993d
00000120: 0f6e b83d 70a5 fa3c cdfb 813d affe b539
00000130: 07c0 59bd d7c4 88bd 5cd4 b3bd d111 2c3c
00000140: f987 213c bd7a 5f3d 9691 0d3d 7c23 83bd
00000150: c9a5 6abd 6f49 133d 08f0 dabc 11df abbc
00000160: db8c 873d e4ed 813d e51d ccbc 50de 953a
00000170: 1e3b 59bd d288 143d e472 60bd 38e9 acbd
00000180: 110f 9a3d ac0c 57bc e209 85bd dcec bfbd
00000190: 2cb8 91bd 9599 a03c c51b 2dbc 6921 aebd
000001a0: 8a2e 603c 959f efbc 3adb 253b d4b3 f3bc
000001b0: 4a89 693d 9411 1cbc d520 95bc 6ee8 1b3d
000001c0: 1f9d 1e3d c9d8 fb3c 7efa 7fbd b7c9 7f3d
000001d0: adb7 8dbc 3d94 463d 9892 65bd bb02 063b
000001e0: d0dc 993d 3396 193d 379a a33d 55b4 6c3d
000001f0: 2259 363c 9c6f c73b aac8 8e3c 23d5 913d
0.0098024085 0.03782219 0.039636426 -0.014728994 -0.05041923 -0.049311936 -0.002882783 0.056897454
-0.09359414 0.017848903 0.035302095 0.041692622 0.032233767 0.0070812153 0.011584883 0.003986273
0.008659281 -0.0011926633 -0.07326738 0.051699653 -0.06597133 -0.08642219 0.007698906 -0.005586689
-0.03947166 -0.06675637 0.084516294 0.049403477 -0.009998243 -0.027523568 0.055022217 0.010820429
0.08783187 0.06435482 -0.015745636 -0.029535752 0.05552005 -0.06679109 0.08515081 -0.08493891
0.03497157 0.06573856 -0.06628682 -0.076359935 0.033407148 -0.05666605 0.014224874 -0.012630113
0.06340033 2.9516052e-05 0.059737742 0.051726516 -0.06878115 -0.071314685 -0.023356302 -0.030151391
0.0553252 0.009352908 -0.01222155 -0.044613805 -3.890331e-06 0.08728326 -0.058310807 0.058763716
0.08054314 -0.009924188 -0.09094967 0.019802136 0.060150575 -0.0013465285 -0.033807307 0.075022556
0.09005367 0.030596465 0.06346855 0.00034712764 -0.053161647 -0.06678169 -0.08780739 0.010502295
0.009859079 0.05456041 0.03456267 -0.064032525 -0.05728701 0.035958704 -0.026725784 -0.02098039
0.06618663 0.06344202 -0.024916599 0.0011434052 -0.053034894 0.036263295 -0.05479707 -0.084429204
0.07522405 -0.01312558 -0.064960256 -0.09371349 -0.07115206 0.019604484 -0.010565703 -0.08502466
0.013682971 -0.0292509 0.0025307671 -0.029748835 0.057015695 -0.009525675 -0.018204132 0.03806346
0.03872406 0.03074302 -0.062494747 0.06244823 -0.017299498 0.048481215 -0.056048006 0.0020448405
0.0751282 0.037496757 0.079883985 0.057789166 0.011129649 0.006086303 0.017429668 0.07120731

output_layer.weight f4 [1, 128]
00000000: 5637 f53d a7e9 ebbd 882a 63bd b448 afbd
00000010: 134f 103d fddf 013e cd96 203d 26cd 1f3d
00000020: 803c 24be 97e0 b73d 1ee4 a5bd 18ac dabd
00000030: eca2 13be 8259 0c3d 477a 003d 2b47 343d
00000040: f57b 37bd 1040 c73d be13 7abd ad4b d2bd
00000050: 7c32 d4bd cf3c 03be c570 cfbd f10a 923d
00000060: 60e1 85bd 77ab c6bd d337 193d 9e91 6dbd
00000070: 75a0 ce3d e5a4 013e 499a 9a3c 3b78 f13c
00000080: c461 a93d ede3 b23d e3ee 36bd 630a 003e
00000090: a0fc 21be 1e06 69bd 6923 ea3d e211 e93d
000000a0: 1180 cf3d 5c9f 013e 2d3e edbd ebd8 78bb
000000b0: 896b 2dbe 6a43 cebd ad07 1c3e 088e eebd
000000c0: 84c7 cbbd 93d3 51bd e5ca 2abd 68ca 8f3d
000000d0: 8003 a1bd 66cb e3bd 76f4 bebd b2a3 03be
000000e0: 979c f53d 3d9f 0fbe d56b 41bd d24b 35bd
000000f0: fb89 c6bd 024c 1a3d 028c 02be 735b c23d
00000100: 80be 5d3d c46e 803d d712 9cbd ab08 053e
00000110: 3bc0 0ebe 9258 c43d 25a9 923d e5e6 f83d
00000120: 4ae1 813d 071a 19be 869b f9bd 2129 4bbd
00000130: 772a c0bd 1262 8dbd 673d aabd e622 99bd
00000140: 6503 a0bd d980 0f3d d7cf 08be 46ed bd3d
00000150: e81d f03d 0829 de3d 0cb7 e3bd 7cac 833d
00000160: fe9a 873d e4f7 0cbe a6bf c6bd 2e62 1e3e
00000170: c376 d33d 5253 15bd c678 c0bd 7786 2dbe
00000180: 6f15 ddbc bdf5 c9bd ffe8 d03d ba2f 703d
00000190: b025 3e3d 3199 0abe 0192 5e3d 42d1 763d
000001a0: 8d81 a9bd ba1f febd f5f3 a8bc 24b9 203d
000001b0: c2a4 c4bd 18ee 20be 8d7f a63d 5838 c83d
000001c0: 576b f5bd 5b00 123e b2e2 b1bc f0db b03d
000001d0: 95df 45bd 9948 ccbc 5b45 3a3d 0986 bf3d
000001e0: abdd f23d 9842 683d 39a5 f33c ddcb 8b3c
000001f0: 1eaa dfbd 6f91 183e a05b 95bd 97b4 c23d
0.11973445 -0.11519175 -0.055460483 -0.08558789 0.03523166 0.12683101 0.039206315 0.039014004
-0.16038704 0.08978384 -0.081001505 -0.106773555 -0.14417619 0.03426505 0.031366613 0.044013184
-0.04479595 0.09729016 -0.061053984 -0.1026834 -0.10361192 -0.12816165 -0.10128931 0.07130993
-0.065371275 -0.09700673 0.037406754 -0.0580002 0.100891985 0.12660559 0.018872397 0.029476276
0.082706004 0.0873488 -0.044661414 0.12503962 -0.15819025 -0.0568906 0.11432535 0.11380364
0.101318486 0.12658447 -0.11584125 -0.003797109 -0.16935553 -0.10071452 0.15237303 -0.11648184
-0.09950164 -0.051227164 -0.0416974 0.07021028 -0.07861996 -0.111227795 -0.09323971 -0.12855414
0.11992758 -0.14025588 -0.047221977 -0.04426176 -0.096942864 0.037670143 -0.12748721 0.09490099
0.054136753 0.06271127 -0.07620781 0.12991588 -0.13940518 0.09587206 0.07161168 0.12153415
0.063417986 -0.14951335 -0.12187867 -0.04959977 -0.093830995 -0.06903471 -0.08312493 -0.074773595
-0.078131475 0.035034988 -0.13360535 0.09273772 0.11724454 0.1084767 -0.11118898 0.06429383
0.06621359 -0.13766438 -0.09704523 0.1546714 0.103253864 -0.036456414 -0.09398036 -0.16945826
-0.02698776 -0.09861324 0.102006905 0.058639266 0.04642266 -0.13535 0.05433846 0.060258158
-0.08276663 -0.12408395 -0.02062414 0.039239064 -0.096017376 -0.15715826 0.08129797 0.09776372
-0.11983364 0.14257948 -0.021714542 0.086357 -0.048308928 -0.024936961 0.0454763 0.09351737
0.11858686 0.056704134 0.02974187 0.017064983 -0.10921119 0.14899229 -0.07292867 0.09507101
