Checkpoints/HR_V/valence_s02.pth (torch, 461905 bytes, 29 tensors)

input_layer.weight f4 [128, 29]
000000 72 0d 25 3d 45 52 02 bc c3 d6 32 bb ff 87 81 bd
       0.040296026 -0.007954185 -0.0027288652 -0.06324767
000010 91 03 cf bd 86 18 8e 3c ec 6a 8a bd 0c bf 53 3d
       -0.10108102 0.017345678 -0.06758675 0.05169587
000020 95 f1 30 3e 4d 2f 53 3d cf 63 dc 3d ef ac 2b be
       0.17279656 0.05155878 0.107612245 -0.16765188
000030 76 37 2d 3e 76 de 64 bd 75 9b 7b bc 31 f1 1c be
       0.16915688 -0.055876218 -0.015356888 -0.15326382
000040 b7 20 2f be b5 bc f1 3d 1b e7 30 3d 47 39 cd bc
       -0.17102323 0.11803571 0.04318915 -0.025051726
000050 4b b6 04 3e fd 8e 09 3e 2e dd 1d be f0 12 8d bd
       0.12960164 0.13433452 -0.15416405 -0.06888378
000060 13 8b 98 bc d9 7f 95 bd f7 70 94 bb 0c 43 fb 3d
       -0.018621003 -0.07299776 -0.004530068 0.122686476
000070 ae df 41 bd 38 c2 76 3c e5 7c 39 be ed d9 41 bc
       -0.04733246 0.015060954 -0.1811405 -0.011831743
000080 dd cc 33 3e 31 b7 86 bd 17 30 a7 3c 99 0b ce 3d
       0.17558618 -0.0657791 0.020408673 0.10060806
000090 eb 43 af 3d aa 15 1f bd 42 6a 1c be 00 78 47 3d
       0.08557876 -0.03883902 -0.15274909 0.048698425
0000a0 7a d2 0a 3e ad b4 1d 3e 5d 84 81 bd c5 68 88 bd
       0.13556853 0.15400954 -0.063240744 -0.06660608
0000b0 3e cf f6 3b a0 03 03 3c eb 9c 1b 3e 86 eb dd 3d
       0.0075320294 0.00799647 0.15196578 0.10835938
0000c0 b2 1a 33 bc ff c1 f3 3d 84 7e 8d 3d 83 37 32 3e
       -0.010931658 0.11902236 0.069088966 0.17403989
0000d0 e4 00 e1 3d f7 33 18 be ae 48 86 bd b7 77 29 be
       0.10986498 -0.14863573 -0.06556831 -0.16549574
0000e0 3e fc 8b bc f2 81 37 3e bf 1f 9a 3c e2 a7 ae 3c
       -0.017088052 0.17920664 0.018813966 0.021320287
0000f0 fa 6c b3 3c 84 36 32 be b7 64 d2 3d 94 90 fd 3d
       0.02190255 -0.17403609 0.10273116 0.12381092
000100 ae 64 28 bd b4 bb 27 3e ee 75 2e bd 3a eb 82 bd
       -0.04111164 0.16380197 -0.042592935 -0.06392522
000110 14 46 37 be 11 ee e5 3d fe 2e 78 3c 0d e3 65 bd
       -0.17897826 0.11227048 0.015147923 -0.056124736
000120 a3 97 bb bd 86 7e 47 3e 29 54 1a 3e 3c be 54 3c
       -0.09159782 0.19481859 0.15071167 0.012984809
000130 af 15 16 3e 47 4f 47 3d 4f ea 35 be f9 b4 02 3e
       0.14656709 0.04865959 -0.17765163 0.12764348
000140 5c ea 9b 3d bf 1c 20 be cb b0 c5 bd 64 1d 00 3d
       0.0761306 -0.15635966 -0.09652861 0.03127803
000150 c2 fb cd 3d 8f 61 ec bc e3 30 87 bd 1d 87 63 3d
       0.100577846 -0.028855113 -0.06601121 0.055548776
000160 cb d8 b1 3d 36 ae 50 3c 36 54 30 3d c4 00 52 bd
       0.08683928 0.012736848 0.04304906 -0.05127026
000170 91 66 4f bc 21 fa 1c bd 44 5f c7 bd fe e5 bb ba
       -0.012658731 -0.03832448 -0.09734967 -0.0014335511
000180 73 1e c6 bd cb ae 39 be 25 35 c9 bc bd e5 ef 3d
       -0.096737765 -0.18133084 -0.024561474 0.11713741
000190 e5 01 c5 bd 44 31 cd 3d 9d d1 58 3d cc 1f e8 bd
       -0.09619502 0.10019162 0.052934278 -0.1133419
0001a0 a9 ae 0d 3e 9e aa 73 bd 69 b5 00 be 92 7b 18 be
       0.13836159 -0.059488885 -0.12569202 -0.14890888
0001b0 87 dc d9 3d 23 ec 92 3d ed cd c6 bc 94 b1 28 be
       0.106377654 0.07173946 -0.024268115 -0.1647399
0001c0 5b 4f 25 be 25 af 07 3e 43 00 48 be c6 0d 25 be
       -0.16143553 0.13250406 -0.1953135 -0.16118535
0001d0 06 94 10 3d 9d 8d 17 bd 8f 34 f5 bd 8d ed 2a 3e
       0.035297416 -0.037000287 -0.119729154 0.16692181
0001e0 dc fa c0 3c 1b 51 5c bc a1 ac 0b be a1 4a bf bd
       0.02355712 -0.013447071 -0.13640071 -0.09340406
0001f0 75 10 63 3d db 6f 2a 3c e7 ad b2 bc c7 8f d8 3d
       0.055435617 0.010402645 -0.021811439 0.10574298
000200 f1 e8 9f 3d 6b 12 d8 3d 7e b0 07 3c cf 9a 00 3e
       0.07808102 0.10550388 0.008281825 0.12559055
000210 60 1b a9 bd a9 ce 48 bd b1 dd da bd 03 98 0f 3d
       -0.082571745 -0.04902521 -0.106868155 0.03505708
000220 7b a1 50 bd 45 4c a5 bd 0f bf 33 3e f2 eb 2e be
       -0.05093525 -0.08071188 0.17553352 -0.17082193
000230 3c 7b 23 3e 45 d9 54 be f1 4d c9 3d 80 26 be 3c
       0.15964979 -0.20786007 0.09829319 0.023211718
000240 d8 ba 98 3d 79 c7 28 3e 19 4e 3d 3e 01 0f 02 3e
       0.074575126 0.16482343 0.18486823 0.12701036
000250 0a 4b 1e be db 83 39 be e2 ed aa bd 45 1f 02 be
       -0.15458313 -0.18116705 -0.08346154 -0.12707241
000260 fb 3d 1c 3e 38 73 a3 3d d3 cc 31 3c 18 ad 1c bd
       0.15258019 0.079809606 0.010852057 -0.038251013
000270 bd 45 18 3d 10 d9 2d bc d7 11 0d be 36 06 2b 3e
       0.037175883 -0.010610834 -0.13776337 0.16701588
000280 cf 7d 05 3e e5 b8 2b be 13 69 95 3c 03 09 b6 bd
       0.13036273 -0.1676975 0.01823858 -0.088884376
000290 5b 5b 18 3e bb 02 3a 3e 9d ce 99 bd e8 3f 1a be
       0.148786 0.18165104 -0.075101115 -0.15063441
0002a0 d6 02 07 3d 56 15 ad 3d ec 76 03 be f5 a1 28 be
       0.03296169 0.08451335 -0.12838334 -0.16468032
0002b0 f6 97 1f be b2 79 4c bd 1e de 73 bd 13 e6 56 3d
       -0.15585312 -0.049920745 -0.059538 0.05246551
0002c0 96 d2 60 bc 71 bb 0c 3e cd ad fa 3b 1a 11 83 3d
       -0.013722083 0.13743378 0.007650113 0.06399746
0002d0 8c 80 2e be c3 5b a1 bd c5 11 20 be a4 b3 ad 3c
       -0.17041224 -0.0787883 -0.15631779 0.021203823
0002e0 f4 9d 07 bd 57 e1 14 be 46 be a2 bd 75 0a 80 3d
       -0.03310962 -0.14539085 -0.07946448 0.062519945
0002f0 89 d7 02 3e 5c 47 44 be 0b b9 2b 3e bf fc d6 bd
       0.12777533 -0.19167846 0.16769807 -0.10497426
000300 4e 49 14 be c1 97 08 be 29 9e 0f 3e e8 97 f3 bc
       -0.14481089 -0.1333914 0.14025177 -0.02973552
000310 53 ed ec bd 51 bf cf bd e5 ce 58 bd a7 d2 bc 3c
       -0.115687035 -0.101439126 -0.052931685 0.023049666
000320 0c cb 2d be df 36 46 3e b3 b6 4e bd a7 46 1c 3e
       -0.16971987 0.19356869 -0.050467204 0.15261327
000330 a7 6e 65 bd 6d 79 2d bc 46 29 20 be 63 eb 3e 3e
       -0.05601373 -0.010588032 -0.15640745 0.1864448
000340 b7 1f 1d 3e 77 b2 9e bd 01 88 d9 3d d1 43 a7 3d
       0.1534413 -0.07748883 0.10621644 0.08167232
000350 00 cd 96 3a ed d7 25 3e 87 94 e5 bc bb 99 b1 bc
       0.0011505187 0.1619565 -0.028024925 -0.02167975
000360 49 72 04 3e 34 02 34 be 32 99 a0 bc 9f b6 fd 3d
       0.12934221 -0.17578965 -0.0196043 0.12388348
000370 a8 63 02 3e e0 db b2 3d 31 7e f0 3c 16 7a d7 3d
       0.12733328 0.08733344 0.029357048 0.10521333
000380 0b e3 b9 3d 73 1d ce 3d 74 9c 90 bd 39 1a c3 3d
       0.09076508 0.10064211 -0.07061091 0.09526486
000390 00 87 0d 3e 12 79 1b 3e e9 b3 07 be c1 fb b1 bd
       0.1382103 0.15182903 -0.13252224 -0.08690596
0003a0 20 2e 2b 3d 0a 31 40 be a1 bd 95 3c 01 2a d1 bc
       0.041792035 -0.18768707 0.018278899 -0.025532724
0003b0 7a 75 20 3d 63 6b 92 bc 8f c4 2a 3e de b4 2c 3d
       0.039174534 -0.017873472 0.16676544 0.042164676
0003c0 48 b2 12 3c b8 e7 cb bd c6 f6 ca 3b f4 ce 3b be
       0.008953638 -0.09956306 0.0061939685 -0.18340665
0003d0 0e 22 cb bd f8 74 15 bc 35 e0 24 3d 9c a8 00 3e
       -0.09918605 -0.009122126 0.040252883 0.1256432
0003e0 96 e8 11 be a6 83 46 be dc 38 af bc 05 ce 47 bd
       -0.1424888 -0.19386157 -0.021389417 -0.04878046
0003f0 4b 55 7f 3d 93 73 4b bd db c6 04 be ca 24 4e bb
       0.0623372 -0.049670767 -0.12966482 -0.0031455033

input_layer.bias f4 [128]
000000 b5 f3 ba bc 43 98 dc 38 58 b2 34 3c ef 1d b1 b8
       -0.022821287 0.000105187784 0.011028849 -8.445593e-05
000010 95 e4 6b 3d 91 52 90 b8 47 e1 ca b7 5c 9f 05 39
       0.05759104 -6.881834e-05 -2.418518e-05 0.00012743234
000020 c5 9c e3 3c 72 a0 6b 3d e1 2a 47 bd 6b 96 0d 3d
       0.027784714 0.05752606 -0.048624877 0.034567278
000030 9d ed 78 3d 0a f8 8a b8 06 91 8d 38 c1 e3 02 b8
       0.06077348 -6.626554e-05 6.750417e-05 -3.1206528e-05
000040 d3 e5 16 b8 57 ca 88 3d 2a 77 9c bc 8a 75 15 bd
       -3.5976827e-05 0.06679218 -0.01909979 -0.036489047
000050 1a 29 64 38 29 a5 8c b8 9e ca 19 bd 3c db 71 bd
       5.4397715e-05 -6.706484e-05 -0.037546746 -0.05904697
000060 9b a2 28 b7 c8 47 87 3d 02 23 2c bd 65 3a 3f bc
       -1.005144e-05 0.06605488 -0.042025574 -0.011671637
000070 4c d9 73 3d 7b 30 6a ba 8d 2b 42 39 e5 1e 1c 38
       0.059533402 -0.0008933616 0.00018517506 3.722207e-05
000080 05 28 00 39 1e b9 01 3d 49 78 8c 3c 29 10 2b 39
       0.0001222194 0.031670682 0.0171472 0.00016313851
000090 15 7b 82 bc f8 87 33 3d 9a 8b 37 ba 72 dd 25 38
       -0.01592783 0.04383084 -0.0007001698 3.9545303e-05
0000a0 68 44 43 bd 68 26 d7 38 6d 7b 26 bd 3f 0a 4c 3b
       -0.04767266 0.000102591526 -0.04064505 0.0031134037
0000b0 8e 54 56 3d f3 b5 ea 3b 58 e0 43 3d be 98 3d 3d
       0.05232673 0.0071628033 0.047821373 0.046288244
0000c0 6f 42 23 bd 3d 94 90 ba 2d 7a 1a bc ec 03 98 38
       -0.039858278 -0.0011030507 -0.009428543 7.248655e-05
0000d0 f5 7c bc bb 5e 93 00 bd bb 89 a4 3c 03 af 45 3c
       -0.0057522007 -0.03139054 0.020085206 0.012065652
0000e0 93 54 b3 38 75 f1 82 bd 58 2c 4e 3d 03 4e e2 3c
       8.551138e-05 -0.063937105 0.05033526 0.02762509
0000f0 d7 b3 98 b8 8a 4a 41 bd c5 b4 71 3b a2 b8 a5 bb
       -7.2814226e-05 -0.047190227 0.0036881429 -0.0050574103
000100 ee 1c 55 bd 6e 62 d8 3c 13 4c 39 b8 09 2b 62 bc
       -0.052029543 0.026414122 -4.4178287e-05 -0.013804206
000110 a1 46 b2 b9 db a4 c5 b8 a1 a4 2b 3d 50 e1 13 3d
       -0.00034003428 -9.424399e-05 0.04190505 0.036103547
000120 2e 4c bd b8 2a 87 15 b8 69 e4 0e bd 03 c9 ca bc
       -9.026412e-05 -3.565025e-05 -0.034885798 -0.024754053
000130 5d 4d 5e bb dd 40 a7 bc 80 52 12 bd d8 a7 50 3d
       -0.0033920624 -0.020416671 -0.03572321 0.05094132
000140 b4 46 dd bc 97 43 3a 37 10 1a 87 3b fd 36 df b8
       -0.027011253 1.1102201e-05 0.00412298 -0.00010643711
000150 fc 1f 08 3d fa 64 19 3d b4 78 ad 38 87 75 23 bc
       0.033233628 0.037449814 8.2717655e-05 -0.009976751
000160 24 67 9b 37 24 a1 c5 bc 7f 64 a9 ba b4 1b 99 3c
       1.8525468e-05 -0.02412469 -0.0012923627 0.018689968
000170 f6 c5 91 3c 17 34 90 38 ba 7d b0 38 fd 30 e4 bc
       0.01779459 6.8761576e-05 8.4157524e-05 -0.02785539
000180 7b 25 95 38 43 46 b5 b9 7f 99 5a bb 5b bc 94 37
       7.111855e-05 -0.0003457536 -0.003335565 1.7730685e-05
000190 5f 16 1c bc 3e ae 90 38 bd 03 2c 38 b8 d9 07 ba
       -0.009526818 6.89891e-05 4.1011477e-05 -0.0005182284
0001a0 b0 26 04 bd 84 59 ec 3c dc 68 6f 3d 0e 53 04 b8
       -0.032263458 0.028851278 0.05844961 -3.1548603e-05
0001b0 06 62 82 bd 6b 83 63 3d 78 54 58 bc db 89 1e 3b
       -0.06366353 0.05554525 -0.013203733 0.0024191055
0001c0 ea ef 2f 3b ed d4 92 ba 11 fd a6 38 ac 13 b0 b7
       0.002684588 -0.0011202373 7.962634e-05 -2.0989995e-05
0001d0 8f 09 25 b8 20 16 80 3d 49 13 c9 39 ef 27 8b 3a
       -3.9347968e-05 0.0625422 0.00038352076 0.001061676
0001e0 13 0c 73 3c 3d 41 45 bd cc ad 0b 3c 3e 3b a9 bc
       0.014834422 -0.04815792 0.008525323 -0.020658132
0001f0 ad 29 a2 bc 0a 57 a0 b8 c3 89 73 bb a3 d1 4f 3d
       -0.019795263 -7.645607e-05 -0.003716097 0.050737035

projection_layer.0.weight f4 [128, 128]
000000 cf 70 6b 3c 7d c8 aa bd 4f de 08 3d 1c 39 d5 bd
       0.014370157 -0.08339021 0.033415135 -0.104112834
000010 e8 21 24 3c 7a b3 8e bd 52 a0 8f bd 61 bf 8e bd
       0.0100178495 -0.06967826 -0.070130005 -0.069700964
000020 c3 af 97 3c 79 0a 22 bd 8a 15 88 bd 2a 09 a0 bd
       0.018516427 -0.03956077 -0.06644733 -0.07814248
000030 5e 4e aa 3d d6 38 ca bc 63 a6 58 bd fa 5a fc ba
       0.083157286 -0.024685305 -0.052893054 -0.0019253187
000040 da 34 e7 3c e0 2a 4a bd a5 44 10 bd 5a 61 a7 bd
       0.028223444 -0.049357295 -0.035221715 -0.08172865
000050 6f c5 c9 bd b3 39 71 bc e0 de 9a bd 85 13 43 bd
       -0.098521106 -0.014723229 -0.07562041 -0.047626037
000060 29 ac 2f 3d 90 d9 b6 bb c8 f5 63 bd 81 31 73 3d
       0.042888794 -0.0055801347 -0.055654317 0.059373382
000070 8f 0c a2 3d 6c 3b 8b bd 27 4a 8c bd 89 e9 80 bd
       0.079125516 -0.06798443 -0.06850081 -0.06294543
000080 bf a5 a1 bd 06 75 47 3d af fc 99 3c 4d 47 90 bd
       -0.07892942 0.048695587 0.018797247 -0.070448495
000090 1d ef 51 3d 45 48 e9 3c 0e d6 ff bb 30 11 8f 3d
       0.051253427 0.028476844 -0.0078074997 0.069857
0000a0 6b f6 cb 3c 90 ee 13 bd 4a e7 c3 bb fa f3 81 3d
       0.024897775 -0.036116183 -0.0059784995 0.06345363
0000b0 20 84 5b 3d b9 a5 b3 bd ad 70 97 3d aa 69 4f bd
       0.0535928 -0.087718435 0.07394538 -0.05063788
0000c0 31 75 b5 3c 25 49 f6 bc 1e fa 4d bd 34 8a 6b 3d
       0.022150608 -0.030064175 -0.05028736 0.057504848
0000d0 03 2f 99 3c 8b 9c d0 bc e6 ee e1 bc 20 64 a3 bc
       0.018699175 -0.02546527 -0.027579736 -0.019945204
0000e0 ba 4c b0 bd 43 6d 22 3d 1e e4 c0 bc 68 50 18 3d
       -0.086083844 0.03965498 -0.023546275 0.037186056
0000f0 16 27 2e 3d ad aa d7 bc 0a 29 34 3c 93 ea cc bc
       0.042517744 -0.026326502 0.010996113 -0.025014197
000100 0e f5 b8 bc 4b 3d 84 3c 68 f1 13 3d 6a 52 ab 3c
       -0.022577789 0.016142508 0.036118895 0.020913322
000110 a0 7b c5 3b 62 17 d1 3d bd 66 78 3d 08 a7 00 bd
       0.0060267 0.10209538 0.060644854 -0.031409293
000120 32 2c 66 bb 66 31 a9 bd ca cb 4d 3d 30 ca dd bc
       -0.0035121557 -0.08261375 0.050243177 -0.02707395
000130 0f f9 5f 3c b5 17 a0 3b 85 0a 53 3d 94 6e 34 bc
       0.01367022 0.0048856386 0.051523704 -0.011012692
000140 21 1e b5 3a 50 d2 d9 bc a7 e8 61 3d 06 f7 a0 bd
       0.0013818183 -0.026589543 0.055153515 -0.07859616
000150 62 6e 65 3d 14 a5 26 bd ec 72 1e 3d 2d dd 60 3d
       0.056013472 -0.040684775 0.038683817 0.05489843
000160 74 f6 59 bd 59 cc e5 bd 30 26 d6 3c 75 86 47 bd
       -0.05321355 -0.11220617 0.026141256 -0.048712213
000170 88 47 ce bd 46 5f 83 3c 40 f4 29 bb eb 13 a5 3d
       -0.10072237 0.01603664 -0.0025932938 0.0806044
000180 be 90 4e bd c7 23 00 bd aa a5 16 3d 1f 2f b2 3c
       -0.050431006 -0.03128412 0.036779083 0.021750985
000190 f2 05 81 3d a0 dc 05 3d 1c 64 e8 bc 1a a5 bf bd
       0.06299962 0.032681108 -0.028368048 -0.093576625
0001a0 42 c2 e3 bc 65 af 68 3a 2b 74 74 3d 0e 42 57 bd
       -0.02780259 0.00088762335 0.0596811 -0.05255323
0001b0 d7 5b a3 3c 70 83 00 bc ac a1 2a bc ce 76 e0 bc
       0.019941254 -0.007843837 -0.010414522 -0.0274004
0001c0 d5 30 80 3c 22 87 1c bd 35 76 cf b8 78 1b 50 bd
       0.015648285 -0.03821481 -9.892547e-05 -0.050807446
0001d0 49 0d 3f 3d 65 c4 7d 3b 68 e5 18 3d 72 41 b6 bb
       0.04664353 0.0038721797 0.037328154 -0.005562001
0001e0 c8 15 3a 3d 20 9c 91 bd f6 11 80 3d d9 72 8d bd
       0.04543093 -0.071098566 0.06253426 -0.06906671
0001f0 8b eb 24 bd 9e 70 b7 3c 8d 49 82 bc 2b 77 97 ba
       -0.040263694 0.022392567 -0.015904212 -0.00115559
000200 d8 61 11 bd f4 c1 96 bc 72 90 b9 bd 64 2c 41 3d
       -0.0354937 -0.018403031 -0.09060754 0.047161475
000210 1f b1 27 bd 9e 34 39 bc 5d c7 1f 3c 5a 46 07 bd
       -0.0409404 -0.011304049 0.009752122 -0.033026077
000220 de ae 38 3d ff c9 90 3d 0f 1b 5a 3d 6d ff 9e 3d
       0.04508864 0.07069778 0.05324846 0.07763562
000230 28 78 44 3d b4 74 05 3d 6c 31 b4 bb f5 4e 95 3d
       0.047966152 0.032582 -0.0054990556 0.072904505
000240 5e 6b b0 3d 9a 18 92 bd 5a e6 e2 bc 90 34 71 3d
       0.08614229 -0.071335986 -0.02769773 0.058888018
000250 34 c1 99 3c 50 9e 6d 3d c4 67 21 bb c3 21 8d bd
       0.018768884 0.058012307 -0.00246285 -0.06891205
000260 d5 80 22 3d 47 51 66 ba d8 b1 61 bd 76 e6 a5 bc
       0.039673645 -0.0008785915 -0.055101246 -0.020251494
000270 5b 6b 78 bb 1e 86 24 3d f8 b3 81 3d f2 ac bd 3b
       -0.0037905786 0.040166967 0.063331544 0.005788439
000280 9f 57 13 bd cc a8 c0 3c cc d1 56 bd 91 36 b5 bd
       -0.035972234 0.023517989 -0.05244617 -0.08848298
000290 f5 c9 76 bd 9e e6 72 3d ab ad ae bb 88 6d 99 3d
       -0.060251195 0.059301965 -0.0053307614 0.074915946
0002a0 8d df 43 3d 9a 28 1e 3d 60 6d 72 bd 72 3b 99 3d
       0.047820617 0.03861294 -0.05918634 0.074820414
0002b0 53 3f f3 3c 15 0b ed bc 66 1d 19 bd f6 4f be bd
       0.029693281 -0.028935948 -0.037381552 -0.09292595
0002c0 8f 78 41 3d 8e bf 4c 3d db e4 32 3d c8 52 31 3d
       0.047234114 0.04998737 0.043675285 0.043291837
0002d0 e2 5d ff ba 5c 08 56 bd 6c 6d 1c 3c 0b 9b 61 bd
       -0.0019482935 -0.052254066 0.009547573 -0.0550795
0002e0 51 bb 20 bc 7b 87 93 3d b9 bb 6e bd 67 b5 c5 3c
       -0.009810285 0.07203575 -0.058284495 0.024134351
0002f0 f9 08 4e 3d 5c 65 8c 3d c7 78 3a bd 58 72 12 3b
       0.050301526 0.0685527 -0.04552534 0.0022345986
000300 6a 53 0e 3d 6e ac 80 bd 83 56 92 bb e3 1d a9 bd
       0.03474752 -0.06282888 -0.0044658794 -0.082576536
000310 cb 12 1c 3d f0 5e b6 3d c9 c3 89 bb e9 42 f6 3b
       0.03810386 0.08904827 -0.0042042476 0.0075153005
000320 20 6b ad bd 78 d5 b9 3d 1a ec 7c bd 03 9a e2 bb
       -0.08467698 0.09073919 -0.0617486 -0.0069153323
000330 ad c3 9b bc 94 99 c5 bc e1 3f a8 3d 2e e0 8c 3c
       -0.019014204 -0.024121083 0.08215309 0.017196741
000340 eb 2c f4 bc 2e ae c0 bd 02 25 60 bd ca 80 a3 bc
       -0.029806575 -0.09408222 -0.054722793 -0.019958872
000350 74 28 f3 3c 45 ad 0a 3d 69 a2 2f bd 5f 5b a8 bc
       0.029682375 0.03385665 -0.042879496 -0.020551382
000360 b7 61 60 3d b6 3f 32 3d bd 8e 39 3d 71 e4 9b bc
       0.054780688 0.04351779 0.04530214 -0.019029828
000370 98 09 42 bd d4 c9 19 bd b2 7b 9f 3d 92 17 e6 3c
       -0.04737243 -0.037545994 0.07787265 0.028087411
000380 fb a6 87 bd 43 5d 7b bd 12 68 ec bc 6c 63 81 3d
       -0.06623646 -0.06136824 -0.028858218 0.06317791
000390 cf 60 7b 3d f5 29 1e 3c 53 57 1f bd cd 17 9b 3d
       0.06137162 0.009653558 -0.03890164 0.07572899
0003a0 62 4c 13 bd c2 dd 0c 3d e9 4e 9f 3d 6b b8 c8 3c
       -0.035961516 0.034391172 0.07778723 0.024502
0003b0 68 55 a2 3d bf 5a 47 3d 1b cd b0 bd ec 32 8e bd
       0.07926446 0.048670527 -0.08632871 -0.06943306
0003c0 76 05 57 bd 2b 80 20 bd 32 7a 5a bd 56 15 44 3d
       -0.052495442 -0.03918473 -0.05333919 0.04787191
0003d0 c6 bc ce 3c a6 9e 7e bd 72 81 c9 bc db da b1 3c
       0.025236499 -0.062163018 -0.024597857 0.021710804
0003e0 cc 68 59 3b b1 64 9f 3c 15 aa 0e bc 11 20 97 bd
       0.0033174036 0.019457193 -0.008707543 -0.07379163
0003f0 c1 b2 2c bd fe c3 67 bd f5 85 12 3d f6 ca 61 bc
       -0.04216266 -0.056583397 0.035772283 -0.0137813

projection_layer.0.bias f4 [128]
000000 87 1e f7 b8 de b8 c6 37 b4 e2 7e 39 3c 03 b9 bb
       -0.00011783564 2.3689525e-05 0.00024307781 -0.0056461375
000010 51 1a d6 3b a5 6a d1 3b 7c d1 c4 38 c5 98 8f b8
       0.006533899 0.006390887 9.385028e-05 -6.847227e-05
000020 95 c4 60 34 50 d0 2a 3a 1c a2 44 3b 8a c2 3a bb
       2.0933142e-07 0.00065160263 0.0030003851 -0.0028497302
000030 92 ca 7f 3b 8d 0b 17 b9 ea ca e4 3a 9d a4 3a 39
       0.0039030653 -0.00014404785 0.0017455493 0.00017799666
000040 7f cd 8c 39 28 2e 86 b8 ba cf b5 b7 97 a8 9e b8
       0.00026855987 -6.398215e-05 -2.1673612e-05 -7.5654294e-05
000050 44 44 8c 38 f1 d3 9f 38 62 f9 9f 3b 29 d6 4b 39
       6.688436e-05 7.621188e-05 0.0048820237 0.0001943937
000060 d6 49 1e 39 d1 19 85 bb e5 24 a3 b8 c0 76 fe ba
       0.0001509556 -0.0040619154 -7.779318e-05 -0.0019414052
000070 f7 f4 c2 3b b2 1a 24 b8 72 33 9a ba d6 05 ba 38
       0.0059496122 -3.912551e-05 -0.00117646 8.870258e-05
000080 30 f0 8c 3b d2 37 56 b8 33 95 7f 37 84 28 75 bb
       0.0043010935 -5.1073563e-05 1.5233923e-05 -0.0037408182
000090 e2 dd 80 3b 55 25 a8 3a f5 f8 f2 36 44 03 94 38
       0.0039327005 0.0012828509 7.2411444e-06 7.057798e-05
0000a0 2d fa 22 37 b7 c8 b4 b7 c6 7a fd b7 23 d9 b2 3b
       9.714201e-06 -2.1551137e-05 -3.0217121e-05 0.0054580136
0000b0 e1 da 9b b7 2a 50 bc 3b 7a a4 09 bb a8 60 0b 37
       -1.8579363e-05 0.005746861 -0.0021002577 8.30755e-06
0000c0 2d e4 c7 3b d5 e8 0e bb 28 3c 45 bb 1e 57 10 bb
       0.0061001987 -0.002180626 -0.003009567 -0.0022024582
0000d0 d0 c1 31 b9 52 67 fc 3a 4b 4d dc b8 f1 fd 9b bb
       -0.00016952236 0.0019256866 -0.000105048144 -0.004760497
0000e0 ee 2a c2 38 2d ed be 38 54 87 bd 37 6e 60 41 b8
       9.258637e-05 9.1040834e-05 2.2593573e-05 -4.6104593e-05
0000f0 30 64 35 3b 6b 97 97 3b b1 cb 81 b3 e7 fd e9 b7
       0.0027678125 0.0046262047 -6.044082e-08 -2.7893997e-05
000100 c1 73 b2 bb 43 5c 08 b9 0f 32 a4 3b fa 10 7a 38
       -0.005445928 -0.00013004341 0.0050108503 5.9620455e-05
000110 2c a1 71 38 d0 4b d2 3a 4e 6d 4b b8 3e 30 7d ba
       5.760898e-05 0.0016044322 -4.850077e-05 -0.0009658373
000120 68 df 3e 39 6e 05 bb bb 04 77 d1 b7 5c 17 09 39
       0.00018203037 -0.0057074344 -2.4970162e-05 0.0001307404
000130 27 b4 01 bb 90 cb 7f 38 b6 cb 54 37 1a db bf 3b
       -0.0019791217 6.098632e-05 1.2683615e-05 0.0058549764
000140 c5 16 27 b9 39 f9 2e 39 34 58 34 b7 9f 7c 5c 3b
       -0.00015934843 0.00016686776 -1.0749372e-05 0.0033643616
000150 64 6e 6e b8 fd a9 03 b8 1c bc a8 3b 5d b5 6b 39
       -5.684643e-05 -3.1391148e-05 0.0051493775 0.0002247891
000160 b2 d4 87 b8 6a 84 42 38 55 1f 5f b8 9a 90 74 3a
       -6.476919e-05 4.6376525e-05 -5.3196523e-05 0.00093294086
000170 3f 59 7b b7 94 5f 88 b8 47 42 9a ba 08 f1 1c 33
       -1.4981545e-05 -6.502788e-05 -0.001176902 3.6540797e-08
000180 63 fa 45 b8 bd 07 ce 3b a5 ff 1f 3b 54 fa ce b8
       -4.720165e-05 0.0062875436 0.002441385 -9.869473e-05
000190 26 7a ae 3b ee 42 ba 37 37 dc 88 ba ab 95 02 3b
       0.00532462 2.2204094e-05 -0.0010441606 0.0019925635
0001a0 7f b4 f5 3a b1 70 98 37 9a e7 5c b8 54 1d 3f b8
       0.0018745809 1.8172288e-05 -5.2667783e-05 -4.5565263e-05
0001b0 e5 96 3a b7 64 90 2c 3a 6c 8e 52 ba 29 4f 91 38
       -1.1121597e-05 0.0006582795 -0.0008032087 6.9288835e-05
0001c0 80 aa c4 38 fe 59 d8 3b 76 e8 0c 36 6d 27 12 3b
       9.3777664e-05 0.006602525 2.0996936e-06 0.0022301332
0001d0 d6 67 37 38 93 fe 18 39 4e 63 a4 38 13 e3 85 3b
       4.3727305e-05 0.00014590686 7.838626e-05 0.0040859072
0001e0 4e 77 5d 39 5a 0c ee 3a 13 6e 89 b7 8d c7 7a 39
       0.00021120647 0.001816164 -1.638293e-05 0.00023916196
0001f0 28 11 8c b8 7f 5b 46 bb dc da 55 37 4e 51 c5 38
       -6.678916e-05 -0.0030266938 1.27467465e-05 9.408836e-05

projection_layer.1.weight f4 [128]
000000 28 92 86 3f 34 4a 82 3f 29 37 79 3f 6b 56 80 3f
       1.0513353 1.0178895 0.9734979 1.0026373
000010 25 bd 85 3f 5f 24 84 3f 72 07 81 3f 81 13 81 3f
       1.0448347 1.03236 1.0080397 1.0084077
000020 ba 13 80 3f cf 93 80 3f ae 1c 7c 3f b6 16 7e 3f
       1.000602 1.0045108 0.9848126 0.99253404
000030 05 d3 81 3f ae 32 88 3f 25 5a 80 3f cb d7 84 3f
       1.0142523 1.0640466 1.002751 1.0378355
000040 95 2e 83 3f 09 5a 82 3f 3b a0 80 3f 2c 47 84 3f
       1.0248591 1.0183727 1.0048898 1.033422
000050 f6 89 7f 3f 70 d6 83 3f 45 f7 82 3f 5c ca 7d 3f
       0.99819887 1.0299816 1.0231711 0.991369
000060 d6 92 80 3f ec 06 81 3f 72 87 82 3f e3 4d 82 3f
       1.0044811 1.0080237 1.0197585 1.0180019
000070 0d 4e 7e 3f 9c e6 7f 3f 09 33 85 3f 1c 31 7d 3f
       0.99337846 0.99961257 1.04062 0.9890306
000080 b0 d3 80 3f 78 31 83 3f f8 9e 84 3f 1c 62 7a 3f
       1.0064602 1.0249472 1.0361013 0.97805953
000090 bf 6f 84 3f 35 5a 80 3f 69 7c 84 3f a2 0b 86 3f
       1.0346602 1.0027529 1.0350467 1.04723
0000a0 01 2a 84 3f 75 d9 80 3f 2e 70 83 3f b7 8b 7f 3f
       1.0325319 1.0066363 1.026861 0.9982256
0000b0 9d 09 82 3f 19 57 7e 3f 53 ad 81 3f 6e 6f 81 3f
       1.0159184 0.9935165 1.0131019 1.0112131
0000c0 a0 6a 81 3f c1 26 83 3f 4b ec 84 3f 04 82 83 3f
       1.0110664 1.0246202 1.0384611 1.0274053
0000d0 c1 91 86 3f 86 60 81 3f eb 80 7f 3f 47 17 81 3f
       1.051323 1.0107582 0.9980609 1.0085229
0000e0 7f 3e 81 3f 89 96 81 3f 7e 0a 83 3f 4e 9f 85 3f
       1.0097197 1.0124065 1.0237577 1.0439241
0000f0 33 ea 84 3f 3e 77 81 3f d8 d8 81 3f 28 4c 81 3f
       1.0383972 1.0114515 1.01443 1.0101366
000100 4e 8e 80 3f e1 74 84 3f 1e 26 81 3f e8 80 84 3f
       1.0043428 1.0348169 1.0089757 1.0351839
000110 c0 8a 80 3f 30 92 82 3f b4 4d 81 3f 12 e1 80 3f
       1.0042343 1.0200863 1.0101838 1.0068686
000120 fa 12 80 3f fb dc 85 3f 0a c4 82 3f a3 37 85 3f
       1.0005791 1.0458063 1.0216076 1.0407604
000130 e8 c8 86 3f cd ac 7f 3f dd ee 85 3f 1a 7d 80 3f
       1.0530062 0.9987305 1.046352 1.0038178
000140 66 fc 7f 3f 53 31 84 3f b6 2f 82 3f b1 c0 85 3f
       0.99994504 1.0327553 1.017081 1.044943
000150 e5 bb 84 3f 3d c7 82 3f 4e 62 81 3f bc 54 81 3f
       1.0369841 1.0217053 1.0108125 1.0103984
000160 6c 84 85 3f 17 b2 80 3f b5 b8 83 3f 6e 8e 80 3f
       1.0431037 1.0054349 1.0290743 1.0043466
000170 79 a4 80 3f 5d 3c 82 3f c6 95 83 3f d3 48 84 3f
       1.0050193 1.0174671 1.0280082 1.0334724
000180 cc 13 82 3f 95 57 87 3f 98 d1 81 3f ce 26 80 3f
       1.0162292 1.0573603 1.0142088 1.0011842
000190 9e a9 80 3f 96 f5 7e 3f 4b f9 80 3f b9 93 83 3f
       1.0051763 0.99593484 1.0076078 1.0279456
0001a0 63 03 80 3f c6 ed 82 3f e4 2f 82 3f 99 62 81 3f
       1.0001034 1.0228813 1.0170865 1.0108215
0001b0 57 4e 81 3f b2 95 7a 3f aa c7 85 3f 17 b5 80 3f
       1.0102032 0.97884667 1.0451558 1.0055264
0001c0 de 72 83 3f 55 79 7b 3f db d3 80 3f fa 8d 83 3f
       1.026943 0.98232013 1.0064653 1.0277703
0001d0 92 a7 84 3f 55 fb 81 3f 30 5c 7f 3f f3 c5 82 3f
       1.0363638 1.0154825 0.9975004 1.0216659
0001e0 24 72 83 3f 82 23 84 3f 29 49 81 3f 5c d7 7f 3f
       1.0269208 1.0323336 1.0100452 0.9993799
0001f0 12 bf 81 3f b5 f7 7f 3f b3 c6 80 3f e4 0d 81 3f
       1.0136435 0.99987346 1.0060638 1.0082364

projection_layer.1.bias f4 [128]
000000 ae a8 45 bc f7 eb dc bc ff 25 75 bc 84 92 f7 bc
       -0.012064142 -0.026967986 -0.014962672 -0.030221231
000010 12 d9 4f 3b 47 5c 3d bc 9b a2 73 bc 0a 03 b2 bc
       0.0031715077 -0.011557645 -0.014870311 -0.021729965
000020 59 97 c5 bc 5a da fb bb c9 34 ef bc 6a cc 8e bb
       -0.02412002 -0.0076859416 -0.029199975 -0.004357864
000030 7f 8d 48 bd fe 26 6b bc 0d ad 21 bd 54 63 ad 3c
       -0.048963066 -0.014352558 -0.039471675 0.021165527
000040 77 3e 2b bc 5d db de bc fb f3 c7 bc 48 56 9f ba
       -0.0104519045 -0.02720421 -0.024408331 -0.0012156451
000050 4f 96 ae bc 6d ea a1 ba f3 fb 5d 3b 29 db 20 bd
       -0.021311907 -0.001235319 0.0033872097 -0.039271507
000060 bc 1e 64 bc 65 26 2b bd 23 84 19 bc e7 bc 75 bc
       -0.013923343 -0.041784663 -0.009369883 -0.014998651
000070 f0 6f 7c bd 8f ad 96 bc a7 2a 26 bd d3 5d 23 bd
       -0.06163019 -0.018393306 -0.04056802 -0.0398844
000080 57 31 0d bd 89 2e e4 3b 3e f3 06 bc 34 b6 f0 bc
       -0.034470882 0.0069635552 -0.008236704 -0.029383756
000090 79 76 f3 3b b4 90 fe bc 87 59 d2 bc 26 49 90 bc
       0.0074298945 -0.03107486 -0.025677456 -0.017613005
0000a0 67 33 b9 bc 38 79 40 bb cc ef 00 bd 63 29 17 bd
       -0.022607518 -0.0029369127 -0.031478688 -0.036904704
0000b0 78 0b c9 bc ff 7d ae bc 6a 24 31 bc 5f 84 87 bc
       -0.024541602 -0.021300314 -0.010811904 -0.016542612
0000c0 c1 4a e1 bb 49 e8 48 3b 94 36 bb bc 74 d3 0f bc
       -0.0068753664 0.003065603 -0.022853173 -0.008778442
0000d0 57 f4 3e ba ef dd 05 bd f9 63 91 bc b1 27 1b bc
       -0.0007284334 -0.032682355 -0.017747866 -0.009469912
0000e0 95 4e 04 bd 4b 1a 0b bd 70 88 50 3c f2 71 c8 bc
       -0.032301504 -0.03396062 0.012727842 -0.024468396
0000f0 87 2d ad bb 5d 2f 81 bc ff 9a ee bb 96 67 96 bc
       -0.0052849683 -0.015769655 -0.0072816606 -0.01835994
000100 24 d0 d5 bc 03 1e 85 bb 62 03 3a bd c1 e4 a3 bc
       -0.026100226 -0.0040624156 -0.045413382 -0.02000654
000110 ef 81 f4 bc ff 5a 3f bc 70 4b c8 bc 6a 5d b2 bc
       -0.029847113 -0.01167941 -0.024450034 -0.021773059
000120 ca 10 b5 bc 0b 7c 92 bc bd f0 74 3b a0 97 c0 bb
       -0.022102732 -0.017881414 0.0037374937 -0.00587745
000130 c2 ef 6d bc 89 d1 64 bc 3b 0c 24 3b d5 1f ae bc
       -0.014522495 -0.013965973 0.0025031704 -0.021255413
000140 b2 4b 18 bd 94 65 52 bc d1 7b f2 bc e5 ec d4 3b
       -0.037181564 -0.012841601 -0.029600056 0.0064979666
000150 2b e8 13 bc 5d 44 77 bb 03 87 64 bc 64 ff a9 bc
       -0.009027521 -0.0037729957 -0.013948205 -0.020751663
000160 a1 5f af bc 19 cb 92 3a 74 2f 98 bc 82 bd f3 bc
       -0.021407904 0.0011199444 -0.018577315 -0.02975345
000170 81 ae 8b bc 98 d5 79 bb 60 ab 38 bd ac d2 a0 3c
       -0.017050983 -0.0038121697 -0.04508531 0.019631706
000180 c9 a9 d6 bc 87 1d 2e 3a a7 e7 ee bb 30 87 05 bd
       -0.026204007 0.0006641973 -0.0072907987 -0.032599628
000190 78 2b 96 bc 38 bf 18 bd 5b ad 5f 3a 4d 17 1f bc
       -0.018331274 -0.037291735 0.0008532607 -0.009710145
0001a0 61 25 52 bd e3 e5 b1 bc 13 be d3 bc 36 74 9c bc
       -0.05130518 -0.021716064 -0.02584747 -0.019098382
0001b0 30 e6 dd bc 63 88 b3 bc e6 83 83 bb 52 f9 37 bc
       -0.027087301 -0.02191562 -0.0040135263 -0.011228876
0001c0 46 6c de bc 23 01 cf bc 8e e5 ab bb 7b 9f 45 bc
       -0.027151238 -0.025269097 -0.005245871 -0.012061949
0001d0 e2 69 6b 3c 7f 9b 2f bd ab fc 7f bc 24 0a 00 bd
       0.014368506 -0.042872902 -0.015624206 -0.03125967
0001e0 05 8e 0c bd 15 38 5d bc 2b d7 e1 bc d3 8c bc bc
       -0.034315128 -0.0135021405 -0.02756842 -0.023016369
0001f0 f5 40 c7 bc 45 0f 2f bd cd 9e 32 bc 0f b1 c7 bc
       -0.024322966 -0.04273917 -0.010902119 -0.02437642

projection_layer.1.running_mean f4 [128]
000000 9d 36 0d 3d 76 3e 4f 3b ff 1b 97 bc 8f cd e5 bc
       0.03447591 0.0031622923 -0.018445967 -0.02805212
000010 73 41 15 3d 88 7c f9 bb e4 b4 e7 3c c2 f8 ad 3b
       0.03643937 -0.0076137222 0.028284498 0.0053091953
000020 6c 7b 09 bc ec 51 94 bc ed 75 3b 3d 5c 19 28 3b
       -0.0083912425 -0.01810547 0.04576676 0.002564988
000030 7f 41 86 3c 2a 30 b5 3c e9 e9 bc 3c 89 e7 9a 3c
       0.016388653 0.022117693 0.023060756 0.018909233
000040 ac 7f 4a 3a 89 4f 0f 3d 3f 0e 16 bd 1a f1 c9 bb
       0.0007724713 0.03498796 -0.03663468 -0.0061627747
000050 d3 29 39 3c b1 c0 9c 3c 64 a5 7c 3c 49 53 ed 3a
       0.011301476 0.019134851 0.015420292 0.0018106486
000060 64 8b ae 3c 4b 36 ae bc 7a 54 fe 3c ba 70 48 bb
       0.021306701 -0.021266123 0.031046141 -0.0030584768
000070 06 34 b2 3c f1 e8 3b 3c cd 50 12 bc f5 53 bf 3c
       0.021753322 0.011469112 -0.008930397 0.023355464
000080 bc 3d 32 3b fa f7 8a 3c 0a c1 87 bc c8 9f aa bb
       0.002719744 0.016963948 -0.01657154 -0.0052070357
000090 b5 90 19 ba 72 53 28 3d 87 9c f0 bc d6 2b 97 3b
       -0.000585805 0.041095205 -0.029371513 0.00461338
0000a0 65 ab 02 bc 07 26 9c bd 41 43 df bc 35 dc 89 3c
       -0.007975434 -0.07624441 -0.027253749 0.016828636
0000b0 87 60 ff bb 46 31 16 bc 5d 03 31 bd 24 f7 fd 3c
       -0.0077934894 -0.009167021 -0.043216098 0.031001635
0000c0 96 18 ef 3c d5 3f a4 bc 9e 9b a6 bc dc 95 bc bc
       0.029186528 -0.020049969 -0.020337876 -0.023020677
0000d0 9e ab 07 bc 05 b9 49 3c 3a 57 0f 3d 08 a3 bd bc
       -0.008280663 0.0123121785 0.034995295 -0.023149028
0000e0 e0 50 90 3c ff 87 b8 3d f7 4f c4 bb c4 1a b3 3c
       0.01761669 0.09010314 -0.005990978 0.021863349
0000f0 62 40 96 3c 5b 7d db 3c da fc d2 3b 8a f3 2c 3c
       0.018341247 0.026793173 0.0064388337 0.010556111
000100 68 99 a1 3c 0d 91 31 bc 0f 40 17 3c d5 31 02 bc
       0.01972647 -0.010837805 0.009231581 -0.007946451
000110 05 c8 e0 3c d6 ab 9e bc 2b 08 9a 3c 11 f8 6f bc
       0.027439127 -0.019369047 0.018802723 -0.014646546
000120 9c 7d 84 bc 53 2c e3 bc 48 df 75 bd 56 2a df 3c
       -0.016173176 -0.027731096 -0.06002739 0.027241867
000130 e9 c2 66 bc 19 51 06 3c 63 b7 c6 3c 5e bb e5 bb
       -0.014084556 0.008198046 0.024257367 -0.0070108613
000140 44 e3 a5 3c 3b e6 ac 3c 8d 8a 2f bc 90 00 e8 bc
       0.02024997 0.021105876 -0.010714185 -0.02832058
000150 6f 4f 08 3d 85 15 eb bb 5a 61 9c 3c b6 b5 16 3d
       0.03327888 -0.007174196 0.01908939 0.036794387
000160 1e b3 8f bc 16 4d 18 3c 91 f6 45 3c f7 b3 9a bb
       -0.017541464 0.0092957225 0.012082712 -0.0047211605
000170 1a 07 b2 3c 4f f1 51 3d da 61 7e bc bf c1 b2 3a
       0.021731902 0.05125552 -0.015526259 0.0013638063
000180 e8 f1 7c 39 6b db 9a 3c 6b 20 4c 3c fe e4 8f bc
       0.0002412271 0.018903455 0.012458901 -0.017565247
000190 45 2c 17 3d 66 a8 3f 3b 6a 5f ed bb 79 0f 2a bd
       0.036907453 0.002924466 -0.0072440403 -0.041518662
0001a0 ab 01 0c bc a4 92 9e 3b bf f1 0e bc b3 cc c3 b9
       -0.00854532 0.0048392583 -0.008724629 -0.0003734581
0001b0 7b c0 06 bc c4 fc 4d bb cc 6b d7 3b c6 b0 c2 3b
       -0.008224602 -0.0031431178 0.0065741297 0.005941483
0001c0 59 04 e9 bc d2 76 22 3b 4a 7c a6 bb 22 14 ba 3b
       -0.028444456 0.002479006 -0.0050807344 0.0056786695
0001d0 67 e3 a8 3b 7c 55 99 ba e4 6e 85 3c 72 21 c4 bc
       0.0051540616 -0.001169845 0.016288228 -0.02394173
0001e0 df ae be 3b 62 a3 1f 3c 1c 28 3a 3c 9a 10 4c bc
       0.005819186 0.009743543 0.011362102 -0.01245513
0001f0 de d7 6e bb 54 4d 41 3c 18 3e 54 bb fe a5 36 3d
       -0.0036444585 0.011798222 -0.0032385644 0.044591896

projection_layer.1.running_var f4 [128]
000000 e0 c5 a5 3d aa 30 23 3e 3f 76 1f 3e 5b 66 b5 3d
       0.08094382 0.15936533 0.15572451 0.088574134
000010 f7 6c db 3d f7 f1 0b 3e cc 10 fc 3d d3 e6 47 3e
       0.10714143 0.13666521 0.12307891 0.19521646
000020 85 d6 e4 3d d6 6c 28 3e aa 76 3a 3e d1 06 3f 3e
       0.11173729 0.16447768 0.18209329 0.18654944
000030 0e 26 97 3d 01 0d 0f 3e c8 b0 13 3e 6b fa 28 3e
       0.07380305 0.13969804 0.14422905 0.16501777
000040 a3 ca dc 3d c0 47 1e 3e 5f be ed 3d 41 0b f1 3d
       0.107808374 0.15457058 0.11608576 0.11769725
000050 ba 54 24 3e 64 f3 1a 3e 44 ee 53 3e 9d 42 22 3e
       0.16047946 0.15131909 0.2069636 0.15845723
000060 15 27 4e 3e 32 57 e2 3d 56 a8 64 3e 32 ba 07 3e
       0.20132096 0.110517874 0.2232984 0.13254622
000070 7e 3f cb 3d be 4d 1e 3e d7 44 19 3e c0 44 2b 3e
       0.099242195 0.15459344 0.14967667 0.16725445
000080 7f f2 08 3e 64 be 05 3e 99 57 08 3e 0e 71 30 3e
       0.13373755 0.1306091 0.13314666 0.17230627
000090 a6 d4 03 3e 07 45 1e 3e 20 e3 e6 3d cb 3a 02 3e
       0.12874088 0.1545602 0.112737894 0.1271774
0000a0 27 71 35 3e df 4c fd 3d 30 00 0a 3e c7 cc 33 3e
       0.17718945 0.123681776 0.13476634 0.17558585
0000b0 f5 26 12 3e 66 a6 ae 3d 38 96 47 3e 84 fa 26 3e
       0.14272673 0.08527832 0.19490898 0.16306502
0000c0 64 ef 39 3e c0 3b 39 3e f4 01 07 3e 3f 59 08 3e
       0.18157727 0.18089199 0.13184339 0.13315295
0000d0 40 92 d6 3d d6 08 50 3e 53 bf 08 3e 6c 1b 01 3e
       0.10477114 0.2031587 0.13354234 0.12608117
0000e0 e2 14 3a 3e 49 4b e7 3d ef dd 29 3e 9e 6a da 3d
       0.18172029 0.112936564 0.16588567 0.10664867
0000f0 c7 a3 58 3e 37 1a 14 3e a7 5a 37 3e f2 2b 23 3e
       0.21156226 0.14463125 0.17905675 0.15934733
000100 2f ab 17 3e 25 6b 08 3e ad 40 b3 3d 89 b6 28 3e
       0.14811395 0.13322122 0.0875257 0.16475882
000110 6e ce 2c 3e dc c9 f1 3d 31 9d cd 3d f7 f4 48 3e
       0.16875622 0.1180608 0.100397475 0.19624697
000120 01 21 19 3e b5 fd 00 3e ed 69 23 3e dc 0c e8 3d
       0.14953996 0.12596782 0.15958376 0.11330578
000130 ac e9 11 3e cd e5 46 3e 08 8e 41 3e c7 fb 3b 3e
       0.14249295 0.194236 0.18901837 0.18357764
000140 de 78 00 3e 4e 43 21 3e 9d 33 c6 3d c5 4e 82 3e
       0.12546107 0.15748331 0.09677813 0.2545072
000150 84 87 20 3e 75 b4 e5 3d cd 59 ff 3d 64 b5 f0 3d
       0.15676695 0.1121606 0.124683 0.117533475
000160 c1 04 63 3e 40 a8 13 3e d5 43 f4 3d 9f 8e 26 3e
       0.22169782 0.14419651 0.119270004 0.16265343
000170 2b c0 0d 3e 7d 2f 41 3e 08 d1 bd 3d 3d 7b 38 3e
       0.13842838 0.18865772 0.09268385 0.18015762
000180 ca cc 28 3e f1 73 02 3e 73 b6 4c 3e 3f 8f 4f 3e
       0.16484371 0.1273954 0.19991474 0.20269488
000190 da f3 20 3e a8 46 10 3e 99 91 f7 3d f3 78 0f 3e
       0.15718022 0.14089453 0.120883174 0.14010982
0001a0 d6 c6 fa 3d 12 61 13 3e 36 e1 19 3e d7 6e 1a 3e
       0.12244956 0.14392498 0.15027317 0.15081345
0001b0 0b 7e 50 3e d1 d7 28 3e b2 c0 28 3e d2 78 57 3e
       0.20360582 0.16488577 0.16479757 0.21042183
0001c0 e5 49 ff 3d 65 be 4b 3e 45 81 10 3e c8 84 2b 3e
       0.12465266 0.19896848 0.14111812 0.16749871
0001d0 a8 14 4e 3e c0 43 35 3e 44 d2 08 3e 60 ea 09 3e
       0.20125067 0.17701626 0.1336146 0.13468313
0001e0 c2 86 25 3e 63 2f c4 3d 3b 4e 1b 3e 53 32 e2 3d
       0.16164687 0.09579351 0.15166561 0.11044755
0001f0 d6 e0 dc 3d 1b 61 12 3e 82 3e 62 3e 80 b4 d5 3d
       0.107850716 0.14294855 0.22094157 0.10434818

projection_layer.4.weight f4 [128, 128]
000000 e7 2d 19 3d aa bc b1 bb 62 f2 04 bd d8 4a 42 bd
       0.03739729 -0.005424102 -0.032457717 -0.047434658
000010 62 12 b9 bc 92 a4 95 3d c8 09 e5 bc c1 bb 80 bc
       -0.022591773 0.0730678 -0.027958766 -0.015714528
000020 8b 88 b3 3d b3 29 87 3d 05 21 7b bd cd 0c 2f bd
       0.08766278 0.0659975 -0.061310787 -0.042736817
000030 22 78 b6 3b c3 bb b0 3d 49 10 e1 bd 27 16 27 be
       0.00556852 0.08629563 -0.10989434 -0.16317044
000040 e1 5a 0d 3d e5 8e 32 3d d8 dc 30 bd 36 a9 e1 bd
       0.034510497 0.043593306 -0.043179363 -0.110186026
000050 99 c1 48 bc 56 0d 99 3c 00 61 73 bd 5d 3d 8f 3d
       -0.0122531885 0.018683117 -0.05941868 0.06994126
000060 5c 25 09 3d 1d 1d 8b bd aa cd d4 3c da 81 56 3c
       0.033482894 -0.06792662 0.025976975 0.013092482
000070 90 45 32 bd 5b cc 8f bc b6 40 ef 3d ec 31 c5 3c
       -0.04352337 -0.017553499 0.116822645 0.024071656
000080 1b 52 9f bd d2 99 88 bc 68 36 7e bd c8 1d 91 bd
       -0.07779332 -0.01667491 -0.062063605 -0.070857584
000090 15 d5 d4 bc 1b 4e 86 3d 25 61 b6 3c fc 09 b0 3d
       -0.025980512 0.06557866 0.022263119 0.08595654
0000a0 f0 c9 c8 bd 1f db 60 3d bc 72 8c bd dc 3c 4a 3b
       -0.098041415 0.05489647 -0.06857821 0.003085903
0000b0 93 5a 1d 3d 7d 0c 6f 3c b8 5c 61 3d db af bd bd
       0.038416456 0.01459038 0.055020064 -0.092620574
0000c0 4a c8 e1 3d ab c5 7b 3d ea 2a 9f 3d 50 54 a5 bd
       0.1102453 0.061467808 0.07771857 -0.08072722
0000d0 3f ca 05 bc 15 eb c5 bd 67 d3 58 bc a0 6a 82 3d
       -0.008165895 -0.09663979 -0.013233996 0.06367993
0000e0 cd c5 08 3d 7a b7 28 bd f4 20 39 3d 7e 18 9f bc
       0.033391763 -0.041190602 0.045197442 -0.019420858
0000f0 42 d2 ba 3c 50 bd 5f 3c 2a 2f a7 3d 91 f8 f7 bd
       0.022805337 0.013655975 0.08163293 -0.12107957
000100 09 a1 87 bc 15 14 3c bd 6f 60 61 3d b1 d8 de bc
       -0.01655628 -0.04591759 0.055023607 -0.027202936
000110 08 33 ac 3d 6f 0a 13 bc 00 ff 97 bc a3 7d 97 3c
       0.08408171 -0.0089746555 -0.01855421 0.018492525
000120 b8 33 5e 3d 8f 4d b3 3d bd ed cf 3d f7 85 1e 3a
       0.05424854 0.087550275 0.10152767 0.0006047184
000130 09 f7 95 bd 4a ac a3 bc 11 bc 2d bd 78 03 d4 bc
       -0.07322509 -0.019979615 -0.042415682 -0.02588056
000140 57 b7 d7 bc 06 d4 53 bd 1b 9a 8a 3d 8d 24 17 3d
       -0.02633254 -0.051715873 0.067676745 0.036900092
000150 ea 0d 6c 3d ec ad 89 3d 43 60 3c bd 20 97 a7 bc
       0.057630457 0.06722626 -0.04599024 -0.020457804
000160 ae 4e e2 3c 78 aa f6 ba 9f 13 0f bc c9 6c 5f 3d
       0.027625408 -0.0018819114 -0.008732705 0.054547105
000170 26 7e a1 bd ab 92 96 bd 5f 86 d0 3c c1 52 12 bd
       -0.07885389 -0.073521934 0.025454698 -0.03572345
000180 33 35 af bd e9 c3 56 bd 80 70 ad 3d f4 a5 8e bd
       -0.08555069 -0.05243293 0.08468723 -0.06965247
000190 6d fc 2e bd eb fc 04 3d bb bc cf bc de 7e 8a bd
       -0.0427212 0.032467764 -0.025358548 -0.06762479
0001a0 ae 25 2a 3d 9d b0 4e bd 55 6a 4d 3c f0 7d bc 3c
       0.04153984 -0.0504614 0.012537559 0.02300927
0001b0 81 9b 86 bd 16 c4 5e 3c 59 b4 6b bd e4 24 98 bc
       -0.06572629 0.013596555 -0.05754504 -0.018572278
0001c0 34 78 a9 3d 90 16 23 bd 7d ce 07 bd cb bb ad bd
       0.0827488 -0.03981644 -0.033155907 -0.08483084
0001d0 31 d9 82 bd a8 7d 48 bb 9a 02 91 bd 75 52 91 3d
       -0.06389082 -0.0030592475 -0.07080574 0.070958056
0001e0 a8 f8 70 3b cf 34 09 bc 18 1d 38 bd ae fe b1 3c
       0.0036769304 -0.008374407 -0.04494962 0.021727886
0001f0 de 53 6c 3d 36 9a 89 bd d8 df 88 3c 8c f2 08 bd
       0.05769717 -0.067188665 0.0167083 -0.033434436
000200 51 4f b6 bb a5 3b b0 bd 16 e0 61 bd 64 00 80 bd
       -0.0055636545 -0.08605126 -0.055145346 -0.062500745
000210 ad b9 92 3d 77 ea 3c 3c 53 7c 9c 3d 0e 08 39 3d
       0.07164321 0.01153051 0.076409005 0.045173697
000220 ae 6e 5e 3c 31 8b 18 bd c7 c9 08 bd 1b a6 88 3d
       0.013576193 -0.03724212 -0.033395555 0.06672307
000230 90 25 99 3d ff ee 82 bd 98 bc 11 bd a8 05 97 bc
       0.074778676 -0.06393241 -0.035580248 -0.018435314
000240 f0 ce 07 3d c3 c8 a4 3d 06 ae 9f bc bb 60 11 3d
       0.033156335 0.08046105 -0.01949216 0.03549264
000250 bb d6 87 3d 0a c4 a6 3d cf 43 38 bd d0 33 60 3d
       0.066327535 0.0814286 -0.044986542 0.054736912
000260 33 a6 87 3c 34 ad 5f bc 6f 74 af 3d 57 e0 d8 bc
       0.016558742 -0.013652135 0.0856713 -0.026474161
000270 0a a3 d5 3c e6 39 a4 3d ff 21 13 bd 79 23 76 3c
       0.02607872 0.08018856 -0.035921093 0.015023106
000280 30 3e 25 3d 13 9c aa bd b9 92 a3 3c b6 cb 80 bc
       0.04034251 -0.0833055 0.019967424 -0.015722137
000290 8a 2c 8e 3d 2a f2 8c 3d c5 3a 08 3c ff db b2 3b
       0.06942089 0.06882127 0.008314793 0.0054583545
0002a0 29 a4 91 bb 84 6b 30 bd 0e e0 ca bc 5a 9f da 3c
       -0.0044446182 -0.043071285 -0.02476504 0.026687313
0002b0 e1 2c 85 bd d5 67 0b 3d 31 68 5d bc 3c 3d 27 bd
       -0.065027006 0.03403457 -0.013513611 -0.040829882
0002c0 4a d0 9b bb 26 67 4b bb bc c9 8d bc 45 d2 b2 3b
       -0.0047550546 -0.0031036823 -0.017308109 0.005457195
0002d0 19 bb c6 bd 08 e2 58 bd d0 1a d5 3c ba 16 45 bd
       -0.09703655 -0.052949935 0.026013762 -0.048117377
0002e0 62 ba 30 3d 4f 71 61 3d 54 51 8a 3d 27 42 42 bd
       0.0431465 0.0550397 0.06753793 -0.04742637
0002f0 f8 1c 4b bd 19 1c 9e 3d 37 75 a6 3d a0 21 0d 3d
       -0.049588174 0.07720203 0.08127826 0.034455895
000300 1c 3b a6 bd d7 3d de bc da 9a 1d bd bc 87 ef 3c
       -0.08116743 -0.027129097 -0.038477756 0.029239528
000310 82 6d 4e 3d da ee 78 bb 32 3a 81 3d 50 43 95 3d
       0.050397404 -0.0037984164 0.06309928 0.072882295
000320 0d 7d ae bc b1 0a 6b bd 01 33 ff 3c 0c cb b3 bd
       -0.021299863 -0.057383243 0.03115225 -0.087789625
000330 1f 3d 8b 3d 26 0a 23 3d 5c f0 2d 3d cc 3a 5f 3b
       0.06798767 0.0398046 0.042465553 0.0034062145
000340 fe f2 a6 3c 8a 6f b5 bc 9d 0e d5 3c fe 6e 80 bd
       0.02037954 -0.022147913 0.026007945 -0.0627117
000350 a2 d0 4f bd 1f ca 60 3d 79 68 89 3d 93 1c 85 bd
       -0.050736077 0.054880258 0.0670938 -0.06499591
000360 d7 31 dc 3c e4 72 7d 3d c7 7d 01 3d 1f 78 5c 3d
       0.026879234 0.061877146 0.03161409 0.053825494
000370 5a 85 92 3d 5c 39 47 3d 91 36 5e bd 7b 49 94 bc
       0.07154341 0.048638687 -0.054251257 -0.018101444
000380 27 9f 81 3c f2 5e 80 bd e0 29 08 bd 23 25 38 3d
       0.01582296 -0.062681094 -0.03324306 0.04495729
000390 dc b7 99 3c 11 78 cc bc 50 b9 9e 3d 49 75 c0 bd
       0.018764429 -0.024959596 0.07750189 -0.0939737
0003a0 ad 20 30 bc 69 18 0f 3c ec f4 82 3d 24 3c 3c bd
       -0.010749978 0.008733847 0.063943714 -0.045955792
0003b0 7f ec 89 bd 86 f9 55 3d 52 6b 59 3d ee 7d 62 bd
       -0.06734561 0.052239917 0.053080864 -0.055295877
0003c0 1d ba 87 bd 29 72 37 bd b2 10 aa bd eb bc eb ba
       -0.06627295 -0.044786606 -0.08303966 -0.0017985379
0003d0 2c 65 9e 3d 6a f4 82 bd cb b4 4a 3c 3d f3 88 bd
       0.07734141 -0.063942745 0.012372206 -0.06687019
0003e0 05 a2 a2 bd 93 9c e1 3c 80 ba c3 3c fe a6 cc 3c
       -0.07941059 0.02754048 0.023892641 0.024981972
0003f0 df c8 a6 bc 0a 52 f8 3c e2 9d 9c bc a5 74 98 3c
       -0.020359455 0.030312557 -0.019118253 0.018610308

projection_layer.4.bias f4 [128]
000000 0d 3b e7 3c 4c c4 28 3d 97 b2 8f bd c9 4f 03 3d
       0.0282264 0.04120283 -0.07016485 0.03205851
000010 3a 7c 71 3d da 8a b1 bc 1e d3 7e bd 3f c5 84 3d
       0.058956362 -0.021672655 -0.062213056 0.06482934
000020 70 ed 89 bd 05 d3 22 3d 4b 6a 2b bb 44 57 5e 3a
       -0.06734741 0.039752025 -0.0026155885 0.00084816315
000030 51 be 2b bd 86 f2 12 bd 97 3a 2e bb ca 63 73 3d
       -0.041929547 -0.03587582 -0.0026585215 0.05942134
000040 59 66 8d bd 81 2a 42 3d 60 90 2b bc e4 89 e7 bc
       -0.06904287 0.047403816 -0.010471433 -0.028263994
000050 48 0b 96 3d 5f 90 7a bd 10 36 52 3d 33 17 16 bd
       0.073263705 -0.06117284 0.05132109 -0.03664322
000060 f8 2d ac 3c 45 9c bb bd 8d 2b 22 bd d8 34 42 3d
       0.021018013 -0.091606654 -0.039592315 0.047413677
000070 39 b2 61 bc 02 8a 94 bc d0 a0 81 3d de 80 15 bd
       -0.013775402 -0.018132214 0.06329501 -0.03649985
000080 e2 02 62 3d 47 f2 bc bc 72 e2 f9 bc 38 b5 60 3d
       0.05517853 -0.023064746 -0.030503485 0.054860324
000090 44 74 86 bd ad de 05 3d 3b d6 c4 3c 03 23 75 bd
       -0.06565145 0.032683063 0.024027934 -0.059847843
0000a0 93 ca 9d bc 94 9a 8e 3d c8 35 b8 bd b6 0b fd 3c
       -0.019261634 0.06963077 -0.08994633 0.030889373
0000b0 28 17 ab 3d bd 3a a1 bb af 21 2a bd 2a 68 ab bd
       0.08354026 -0.004920332 -0.04153603 -0.08369477
0000c0 62 e1 5c bd 37 f6 2d 3b c3 17 e2 3b 96 bb 50 bd
       -0.05392588 0.002654446 0.0068998053 -0.050960146
0000d0 ba ad b9 3c 66 69 24 bc 9e ef 79 bd 97 77 6b 3d
       0.022665847 -0.010034895 -0.061019532 0.057487097
0000e0 3b 72 05 bc 9e bc 07 3d 82 26 a1 bd 05 fd b9 3d
       -0.00814491 0.033138864 -0.07868673 0.09081463
0000f0 d0 d6 e8 bc 61 5e ac 3d 63 e3 6a 3d 8f 64 3c 3c
       -0.028422743 0.08416439 0.05734576 0.011498584
000100 09 16 a6 3d e1 ca 8c 3d 5b 26 54 bc c8 28 8b bc
       0.081096716 0.068746336 -0.012948598 -0.01698722
000110 8d 16 a2 bd f3 cc b4 3d a3 ad 8a bd 62 ed f4 bc
       -0.079144575 0.088281535 -0.067714 -0.02989835
000120 cf 4e 9d bd 5a 0f 3b bd 30 96 a9 bd e0 ba 1b 3d
       -0.07681047 -0.045668937 -0.08280599 0.038020015
000130 cb b8 f5 3c 2e ac ae bc 42 c7 79 3d 08 aa 32 bd
       0.029995343 -0.021322336 0.060981043 -0.043619186
000140 dc a0 cd bc 70 ef 86 3d 52 3f a1 3d 8b 4c 01 bc
       -0.025101118 0.06588638 0.078734055 -0.007891784
000150 8b e2 03 3d 87 f1 a4 3d 2f eb 0b 3d 66 97 60 3a
       0.03219847 0.0805388 0.034159835 0.0008567482
000160 7d 35 a4 3d 15 c8 6a 3d b6 99 95 bc 88 cf a3 3d
       0.080180146 0.05731972 -0.018261772 0.07998568
000170 af 35 85 bd fd 83 54 bd f7 42 83 3b 61 96 80 3d
       -0.0650438 -0.051883686 0.0040057856 0.062786825
000180 80 12 7d bc e0 ea 06 bd 22 e5 bc bc 24 df da bc
       -0.015446305 -0.032938838 -0.023058478 -0.02671773
000190 fb 0c 96 bd 5a fc 3d 3a 63 86 8b 3c 77 36 80 bb
       -0.073266946 0.0007247381 0.017031854 -0.0039127427
0001a0 ff c0 19 38 37 9c 5c bd 5f 11 d4 bc 05 cc 9d 3d
       3.6657784e-05 -0.053859916 -0.02588719 0.07704929
0001b0 1b d0 9c bc b1 16 a7 3d 09 42 43 3d 5b 50 06 bd
       -0.019142201 0.08158625 0.047670398 -0.032791477
0001c0 8d f9 78 bd 81 7a 51 bb e9 7b 16 3d 83 d2 14 3c
       -0.060784865 -0.0031963887 0.036739264 0.009083393
0001d0 fc 5d 90 bd 62 7b 64 3d 88 77 32 bc 7a c7 0d 3d
       -0.07049176 0.05578173 -0.010892756 0.034614064
0001e0 a0 34 ad 3c 27 33 56 3c 5e 7a 34 bd c4 b7 2f 3c
       0.021143258 0.013073719 -0.04406201 0.0107249655
0001f0 9b 38 c6 bd 3d 90 bc bd 33 a9 2a bd 1a dd ee bb
       -0.096787654 -0.09207199 -0.041665267 -0.007289541

output_layer.weight f4 [1, 128]
000000 e2 de 94 bd eb 93 dd 3c dc af 92 3c c2 47 0e 3e
       -0.07269074 0.027048072 0.017906122 0.13894561
000010 58 ac 83 bd 61 59 85 bd 3d a6 c5 bd fd f6 89 3c
       -0.06429356 -0.06511188 -0.09650848 0.016841406
000020 43 3d ae bd 02 87 9d bc af ce db 3d e7 57 83 bd
       -0.085077785 -0.019229416 0.10732781 -0.064132504
000030 84 ff b1 bc 36 b9 41 bd a0 5d b6 bd 15 21 96 bd
       -0.021728285 -0.04729577 -0.08904576 -0.07330529
000040 d5 06 ab 3d af 3c 17 bd d2 ba 0e 3d f6 f3 f2 3c
       0.083509125 -0.036923107 0.034846134 0.029657345
000050 7a 3f e8 3c 6f 5b 00 bd 3e 5c 92 bd 67 a1 3a 3d
       0.02835058 -0.031337198 -0.071465 0.04556408
000060 8b 5a 13 bd dc 83 10 3d a6 94 ad 3d 5d 7f 82 3d
       -0.03597502 0.035282 0.08475618 0.06371949
000070 9c 4c b2 bd 0d fc 85 3d a8 e6 d6 bb 64 f8 c0 3d
       -0.08706018 0.065422155 -0.006558258 0.09422377
000080 1a 56 4a bc d0 a0 62 3d b6 ba 67 3d e0 79 9c 3d
       -0.01234963 0.055329144 0.056574546 0.07640433
000090 17 48 5b 3d 2b 99 2a 3d 1b c7 62 3d 00 0c 9f bd
       0.053535547 0.04164998 0.055365663 -0.07765961
0000a0 bd 03 03 3d 4a 3d a1 3d 4b a3 39 3b 2f ac 15 be
       0.031985987 0.07873018 0.002832609 -0.14616464
0000b0 3f a7 ba 3d 45 11 e7 bc 93 50 cd bd 08 5e 99 3d
       0.09113931 -0.028206477 -0.10025134 0.07488638
0000c0 f3 c5 a3 bd 3b d4 02 3d c4 a4 07 3e 4e 8c e3 3d
       -0.0799674 0.03194068 0.13246447 0.11110745
0000d0 2d b3 ed 3c 73 48 6b 3d 69 e7 c9 bc 5b 3e 5b 3d
       0.029016102 0.05744214 -0.024646478 0.053526264
0000e0 dd eb a7 3d 0d a3 08 bd 9a d4 b9 3d 20 d1 a2 bd
       0.08199284 -0.033358622 0.09073754 -0.07950044
0000f0 ed 96 91 3d 5f 54 02 3e 17 ae 85 3d b0 a5 ca 3d
       0.07108865 0.12727498 0.06527346 0.09894884
000100 f2 33 47 3c c9 17 83 3d 00 b9 11 be 60 36 92 3c
       0.012158381 0.06401021 -0.14230728 0.017848194
000110 1b ca 15 bd 7e 46 dd 3d 4e 94 21 bc a7 14 ff 3c
       -0.036569696 0.10804461 -0.009862019 0.031137777
000120 03 7d 1c 3d 52 20 d4 3d 1e 16 48 3d 6b e8 bb bd
       0.038205158 0.10357727 0.048849218 -0.091751896
000130 5e 64 17 3c 97 ed 2f 3d d3 c7 97 3d 97 79 42 3d
       0.009240238 0.042951193 0.0741116 0.04747924
000140 ec df 7f bd f6 32 9b 3d 87 a8 04 be 50 ff 32 3d
       -0.062469408 0.075780794 -0.12954913 0.043700516
000150 46 f0 66 bc 5b 83 8a 3d 0e b9 22 3d b1 38 c9 3b
       -0.014095372 0.06763335 0.039727263 0.0061407913
000160 ba 64 f1 3d 0e fe cf bd 6a 56 5f bd e8 52 19 3d
       0.1178679 -0.10155879 -0.05452577 0.03743258
000170 4c 6f aa bd 7d 9f 90 3d 5c 66 5d bd a2 bc 09 bd
       -0.083220094 0.0706167 -0.054052696 -0.03362716
000180 e5 9b 45 3d 24 40 a4 3d ca c3 cb bd 90 1c 7e 3d
       0.048244376 0.08020046 -0.09949453 0.062038958
000190 4f 0b bd 3d bd eb d5 bc b9 bb ff bd db 83 96 bc
       0.092306726 -0.026113385 -0.12486977 -0.01837342
0001a0 14 dc 10 3d 4e 8c ed bd 1c d5 71 bd 82 1b 8d 3d
       0.035366133 -0.115990266 -0.059041128 0.06890012
0001b0 76 61 0d 3d 75 ba a6 bd d4 cc dc 3d ae 76 df bd
       0.034516774 -0.081410326 0.10781255 -0.10911308
0001c0 c0 dd 82 3d ac 1b 33 bd 65 a2 bf 3d 2b d0 f0 ba
       0.06389952 -0.04372756 0.09357146 -0.0018372586
0001d0 35 ce e7 3c a6 93 89 bd c7 60 16 3e 8b 17 cd 3d
       0.02829657 -0.06717615 0.14685355 0.10014256
0001e0 f0 ce 99 bc 82 20 4a 3d 2c 80 60 bd ad d2 c1 3d
       -0.018775433 0.049347408 -0.054809734 0.09464011
0001f0 fe 31 99 bd 0f 96 bf bd c3 e1 9e 3c 35 a3 70 bd
       -0.074802384 -0.09354793 0.019394761 -0.058749396
