Checkpoints/HR_V/valence_s11.pth (torch, 461905 bytes, 29 tensors)

input_layer.weight f4 [128, 29]
00000000: 2eca 12be 0bbd f53d 5ce1 fe3d 3beb 33be
00000010: 4106 80bc 8955 7c3c ef05 1e3c ac99 9e3d
00000020: 966c 3c3d e929 23bc bc3c eabc 859a 083d
00000030: a047 1cbe fafa 3cbe 0280 c8bd b079 263e
00000040: 3ff2 9b3d 74b5 93bd 4092 4abd 8a0e 5bbc
00000050: af6d 693d c21c a9bd c64d 10be cdea cfbd
00000060: 828a 5cbc ee57 cbbd 1d07 0cbb 0580 12be
00000070: 93b9 eebc f5fc dd3d 823e 0abe 3922 e1bd
00000080: 39a9 b6bd b360 26be b170 c9bc 50b2 d8bc
00000090: 0e08 d2bd 245f 033e f779 2c3d 1ea7 1bbe
000000a0: dd39 2e3e a26b 3ebd f545 3fbe aecb fc3d
000000b0: 48ba 1bbc e688 36be b847 9f3d acb0 103e
000000c0: 9d15 c2bd c456 753d a6de 183d c159 00be
000000d0: c706 0fbe 7195 2039 28df e2bd 6dfe 2b3d
000000e0: c311 f63d 321f 893d 1391 0a3e f573 023e
000000f0: 6f2c 013e ab32 fd3d dd16 a83d bea7 723c
00000100: cf55 333e 9dae 223c 6bc7 893c 3bd6 dabd
00000110: 2b22 283d d33d d03d a133 0d3e acef 3f3d
00000120: d2f7 b43d eeba 86bd 052a 563d 658c 65bc
00000130: 3f73 33bd 87cf 31be caf8 183d 0732 bf3d
00000140: 8ebd 39be 8701 ff3d e9a1 c53d dd41 8f3d
00000150: f87d 0a3c 03d9 fc3c 7123 f83d 2de2 08be
00000160: 93a7 47bc aee3 233d 43e7 cd3d 7ce5 313d
00000170: 87e1 f13c ef51 25be 00ab 983d 744c 383e
00000180: c145 35be 8f17 d2bc 4c1b 823d 0afb f0bc
00000190: 75a4 973d 456d 28be da8c 6cbd ed17 063d
000001a0: 49a4 00bd 012c d7bd b098 1cbd 6c7e 3d3e
000001b0: 7818 933d c850 d3bd d583 263e 48e2 253e
000001c0: f282 783d 304b 333e 5051 ee3d 946d 083d
000001d0: d78d 8abd ec86 18bd b1b8 babd f313 e1bd
000001e0: 1525 79bd a147 fdbd 3f02 28be 4aca 12be
000001f0: db43 103e 93bb 043e ce15 863c 6f91 05be
00000200: 1c1f 8bbd ff40 1bbd 120f da3c 8061 e83d
00000210: e6d1 21be 3dcc 35be a4e3 dabd 02c2 19be
00000220: 3cbd 953d d3a5 903a 8725 b5bd 1bc5 7fbd
00000230: c2e2 02be cfec 38be e2d4 3a3b 6642 3abe
00000240: b28e be3d e030 123d 15c5 82bd c130 f4bd
00000250: 16fd dc3d 96ec ef3d d35b 17be 6475 23be
00000260: f0e3 b1bb d9d3 4d3d 444f b53d b8ca d1bd
00000270: 959e 053e 93bb 983d e9ea 00be f797 1cbe
00000280: 2ca9 51bc b0df 06be 0212 0abe d26d 723d
00000290: ea32 b73d 8829 a2bd 684f dbbc 147a eb3d
000002a0: 7064 083e cd67 dabc eec8 cd3d 98b6 eebd
000002b0: 7b3f 03be f57f a0bc cd80 a8bd 42c9 dd3d
000002c0: 1d07 583d ad64 c33d 1bf5 29be a233 283e
000002d0: b532 9b3c 467a ed3d ef08 393e 7749 6cbd
000002e0: cc5c 2d3e f036 25be 0b07 05bd 2b80 2ebe
000002f0: 23fa 3abe 3a36 143e 136e b2bd abb9 debc
00000300: 75fa 97bd ba62 0ebe d881 03bd ad05 3db9
00000310: d610 563d a789 d53d 9356 6fbd 04ff bf3d
00000320: 7544 0cbe 67bb b13d f9aa 283e e5fe 91bd
00000330: 589b d73c 0f92 cd3b 02f7 d3bd 53f1 8fbd
00000340: f1d7 9f3d 6cdb 08be d600 2dbe 6077 a53d
00000350: 1e86 983c 8fae 003c df1f bc3d 4d1d b43d
00000360: b34a 1e3e cf78 893d 1e71 81bc b29c 0abc
00000370: cb45 123e 5e63 11be 0566 3f3b bf12 d7bd
00000380: 15ce 103d eb19 253e 40d9 013c d5b2 1ebc
00000390: 05fc b53d 14b7 d33c ed80 9e3d 5a5e 853d
000003a0: d1ef 663d 2075 11be 6ba1 233e 35b9 29be
000003b0: cf0e 34be d23a a63c e658 1e3e 0ccb 1f3e
000003c0: 1cd8 24bd 03cf 423d 88b8 05bd 9c2b e9bd
000003d0: afe2 a4bc 2b5c 46bd bbf2 c0bc 8261 0f3d
000003e0: 3dc8 70bd c0af 03bd 92ce 0bbd 2ad8 543c
000003f0: dd8a f5bd 99c2 943d 02cc 103e 58a2 ecbd
-0.14334938 0.11998948 0.12445328 -0.17570202 -0.015627982 0.015401253 0.009644969 0.07744154
0.046001993 -0.009958723 -0.028593414 0.033350486 -0.15261698 -0.18455115 -0.097900406 0.16257358
0.07614564 -0.07212344 -0.04945588 -0.013370166 0.056989368 -0.08257438 -0.14092168 -0.101522066
-0.013460757 -0.09928881 -0.0021366545 -0.14306648 -0.029141223 0.10839263 -0.13500407 -0.109928556
-0.089189954 -0.16247825 -0.024589868 -0.026452214 -0.102554426 0.12829262 0.042108502 -0.15200469
0.1701426 -0.046489365 -0.1867903 0.12343536 -0.009504862 -0.1782566 0.07777351 0.14129895
-0.09476779 0.0598972 0.03732171 -0.12534238 -0.13967429 0.0001531446 -0.1107772 0.041990686
0.120151065 0.06695403 0.13531904 0.12739547 0.12614606 0.1236318 0.08207486 0.014810501
0.17513202 0.009929326 0.016818723 -0.106853925 0.04104821 0.10168042 0.13789226 0.04685943
0.088363305 -0.06578623 0.052286167 -0.014010523 -0.04381108 -0.17364322 0.03734664 0.09335714
-0.18138716 0.12451463 0.096500225 0.06994984 0.008452885 0.030865198 0.12116135 -0.13367529
-0.012185949 0.040012054 0.10053875 0.043431744 0.029526485 -0.16144536 0.07454491 0.17997915
-0.1770239 -0.025646 0.06352863 -0.02941658 0.074044146 -0.16447933 -0.057751514 0.03273766
-0.031406675 -0.1050644 -0.03823155 0.18505257 0.071824014 -0.10318142 0.16261227 0.161996
0.060671754 0.1750915 0.11636603 0.033307627 -0.06765335 -0.037238047 -0.09117258 -0.10990133
-0.06082638 -0.12367178 -0.16407107 -0.1433498 0.14088385 0.12962179 0.01636782 -0.1304376
-0.06793043 -0.037903782 0.026618514 0.11346722 -0.15802726 -0.17753692 -0.1068795 -0.15015414
0.07311484 0.0011035748 -0.088450484 -0.062443834 -0.12781814 -0.18059085 0.0028508236 -0.18189391
0.09304561 0.035691142 -0.06385247 -0.119233616 0.1079046 0.11715047 -0.14781122 -0.1596275
-0.0054287836 0.05025086 0.08853009 -0.10243744 0.13048775 0.07457652 -0.12589611 -0.15292345
-0.012796681 -0.13171268 -0.13483432 0.059186764 0.08945258 -0.07918078 -0.026771262 0.11497894
0.13319564 -0.026660824 0.1004809 -0.11655921 -0.12817185 -0.019592265 -0.08227692 0.108294025
0.05274116 0.09540687 -0.16597407 0.16425946 0.018945077 0.115955874 0.18069814 -0.05768725
0.1692993 -0.16134238 -0.03247742 -0.1704108 -0.18259482 0.14473811 -0.08712401 -0.027188143
-0.07420818 -0.13904849 -0.03210625 -0.00018026559 0.05226215 0.10426646 -0.058432173 0.09374812
-0.1369799 0.08678322 0.16471471 -0.071286954 0.02631919 0.006273515 -0.103498474 -0.07028451
0.078048594 -0.13364953 -0.1689485 0.080794096 0.01861864 0.007854118 0.091857664 0.08794651
0.15458183 0.067124955 -0.015801009 -0.008460211 0.14284436 -0.14198062 0.0029205095 -0.105016224
0.035352785 0.16123168 0.007925332 -0.009686192 0.088859595 0.025844134 0.077394344 0.06512137
0.05638105 -0.14204836 0.15979545 -0.16574557 -0.17583774 0.02029172 0.154636 0.156048
-0.04024516 0.047560703 -0.032646686 -0.11385271 -0.020127622 -0.048427742 -0.023553243 0.0350051
-0.058784712 -0.03215003 -0.034132548 0.012990991 -0.11989377 0.07263679 0.14140323 -0.11554402

input_layer.bias f4 [128]
00000000: 1ea3 fcbd b2c9 963d e0a6 093e 48d8 9a3d
00000010: a29c 203e ea5e 36be b7fd 553d bf4a 6a3b
00000020: b3ac fbbd fcc7 1cbc 8245 933c 94c5 bbbd
00000030: da1d 0fbe ceb7 80bc a7cf fcbd 7d9c 18be
00000040: 1230 1abe 34d7 37be 30c3 8f3d 3735 3bbc
00000050: fcdc 393e 0e51 343e 8adc 97bc fc64 01bd
00000060: 55c0 873d 5c72 1abe 8760 2d3e e048 913c
00000070: 096a c83d 0ded 4bbc adde 0fbe 57fc e83c
00000080: 833c 0d3e ce59 a73d fc08 7dbc 3861 a53d
00000090: ef28 1b3e 5792 16be 5dad 1a3e 4891 1abd
000000a0: a5ed 5ebd 5709 2a3e 09b0 23be c0c9 e13d
000000b0: ba7b 8a3d a038 bc3c 303a 353e 8e06 9a3d
000000c0: fe03 a9bd d969 a4bd 1948 f4bd 66af 1cbe
000000d0: 8db6 9fbd 1beb 303d 0733 213e 70b0 e23d
000000e0: 7508 e23d cfe6 1cbe 9e2e 01bd 56cc cb3d
000000f0: 0c53 203e 771d 0e3e 860e 24be 947d b1bd
00000100: f9e0 d03c 9f48 9d3d 3081 f5bd fb5b 02be
00000110: 3a93 193d ed47 e53d dfb6 d4bd 17bf b53d
00000120: 2a04 37be e7b1 0dbe 431d 943d 9fc7 50bd
00000130: 5341 2dbe fe0f 2e3e 3980 893d d00a 32be
00000140: 9087 b4bd 3ac5 1d3d e6fc 9b3d 4add 85bd
00000150: 804f 0bbe 7810 99bd d2ab dbbd 9147 913d
00000160: beea 5cbd 2763 1ebe 748b 18bc fa10 09bb
00000170: 40fe 26be 93ac 20be c3a0 e8bd efa5 1f3e
00000180: 841b eebd 8bd7 1cbe b307 07bd bac6 f0bd
00000190: 9e16 963b a37f d4bd 8ba6 8fbd bcf2 1a3e
000001a0: a9e4 27be f304 3d3c 309d 89bd 08c8 06be
000001b0: 63f4 48bd 6502 89bc a632 003e 9261 4abd
000001c0: 4faa 0e3e 1b5e b1bd 39ac bcbd d67b 373e
000001d0: 6784 2dbd 85b9 1cbe e75b 153e 0974 9f3d
000001e0: f0e0 e9bd 284f 90bd ec45 1dbb 6289 07be
000001f0: 7d0c e23d 3902 b53c 737b 013e 0dfb 35bd
-0.123358 0.07362689 0.13442564 0.075607836 0.1568475 -0.17809644 0.052243914 0.0035750119
-0.12288799 -0.009569164 0.01797748 -0.091685444 -0.13976231 -0.015712645 -0.12344294 -0.14903446
-0.150574 -0.17953187 0.07019651 -0.011426262 0.18150705 0.17609045 -0.018537778 -0.031590447
0.06628481 -0.15082687 0.16931354 0.017734945 0.097858496 -0.012446654 -0.14049788 0.028440638
0.13792615 0.08171426 -0.015444037 0.08075184 0.15152334 -0.14704262 0.15105195 -0.037736207
-0.054425854 0.16605125 -0.15985121 0.11024809 0.0676188 0.02297622 0.17697978 0.075207815
-0.082527146 -0.08028001 -0.11927814 -0.15301284 -0.07798491 0.043192964 0.15742122 0.11068809
0.11036769 -0.15322421 -0.0315386 0.09951083 0.1565668 0.13878427 -0.16021165 -0.0866653
0.0254979 0.07679867 -0.11987531 -0.127304 0.03749392 0.111953594 -0.103864424 0.08874338
-0.17872682 -0.13837396 0.07232144 -0.050971624 -0.1691945 0.16998288 0.0671391 -0.17386937
-0.08814919 0.038518168 0.07616596 -0.06536348 -0.13604546 -0.07473844 -0.107261315 0.07093728
-0.053934805 -0.15467511 -0.009310592 -0.002091466 -0.16307926 -0.15690832 -0.11358788 0.15590642
-0.11626342 -0.15316598 -0.032966327 -0.11756654 0.004580333 -0.10375907 -0.070141874 0.15131658
-0.1639582 0.0115368245 -0.06719434 -0.13162243 -0.04906119 -0.016724775 0.12519321 -0.049409457
0.13932155 -0.08660527 -0.09212536 0.17918333 -0.042362597 -0.15305145 0.14585839 0.07785804
-0.114198565 -0.07046348 -0.0023997976 -0.13236001 0.11037538 0.022095786 0.12644748 -0.044428874

projection_layer.0.weight f4 [128, 128]
00000000: e5cc 8f3d af1e 843c 4d9a 15bd 07be 463c
00000010: 272f 80bc 36b6 473d 3871 cfbc 0f46 95bd
00000020: 98a1 02bd 32dd 4f3c ee76 35bd daa7 9fbd
00000030: 5f05 043d e9d5 f3bb 1675 a33d 16a9 b2bc
00000040: aa22 dcbc 7cd5 f23c 2fa0 53b9 ba24 16bb
00000050: 7fc7 aabd b2be 473d 8f40 56bc 19f1 6c3d
00000060: 1c54 a53d 4532 0c3d fea8 6fbd d00b 163d
00000070: ea51 85bd ca63 953d 4cd1 d53a 8498 c6bc
00000080: 7896 b1bd 68bc d2bb 9409 b1bd b156 70bd
00000090: bf3c 53bd 2773 853d 2e27 e6bc d055 1b3d
000000a0: ae4d 5cbd 4d74 7e3d 2360 35bc c21a 5a3c
000000b0: 14f5 afbd 48b4 a93d 1080 333c 5440 76bd
000000c0: a69a 9bbd b8d8 9e3c fdb3 0ebc f16e 16bd
000000d0: e4f4 a0bd bc9c b6bd d801 e83c cd90 86bd
000000e0: ae86 83bd 9b92 873d 9c24 8cbd 3270 adbd
000000f0: 987f 013d 6914 6c3d 1693 95bd a952 173d
00000100: 6150 99bd bc5f 92bc 79f9 943c 87c7 e13a
00000110: 3145 1fbd 9c84 8dbc d222 11bc d993 e33c
00000120: 2263 3b3d bde8 aabc 1a1b 2fbc 2832 83bd
00000130: c63d b83d 11b7 a4bd 5b39 b1bd 5d63 a2bd
00000140: c5a3 6bbd fc4d 23bd 880d e2ba a454 1d3d
00000150: 543e 8f3c 3b45 e9bc 6d0b 94ba f0cb 50bb
00000160: 0746 46bd bc98 74bd 3907 9fbd 8b94 033d
00000170: 2ac0 8ebd 235c 153d 248f 89bc 3d02 e53b
00000180: 1b38 773c 377b 31bd e6e6 ef3a 1897 75bd
00000190: a745 9b3d b412 09bd d0fb 373d 1ee0 29bd
000001a0: f689 f93c 3482 93bd b804 0f3d 605c 41bb
000001b0: fa4e ffbc 89ce 88bd 0766 bf3c dd2b 90bd
000001c0: 2db7 8b3d d9cb 893d ee45 99bd d7de 8bbd
000001d0: c176 b13d 7fb1 a33d f484 d8bc feb8 4c3d
000001e0: 41e8 f3bb 170d b53d e4ed 63bd adaf 11bb
000001f0: f2ce f8bc 152e 6a3d fbe4 adbb 8254 353d
00000200: f7cf c23b bc8f 62bc 6ac6 febc f143 54bd
00000210: 414e 683d d650 af3d 54d1 8c3d 37b5 56bd
00000220: 4620 85bd 96a3 bfbc a57a 9c3d a878 47ba
00000230: 6166 fbbc 4f56 7abd 708c 053c fe9c 3a3d
00000240: e056 9a3d 3bb9 273d 5407 ae3d 2c3b 84bd
00000250: 7e82 30bd 4649 acbd 6d3f a1bd ec7e 773b
00000260: 2ca7 8cbd 2fa4 b3bc 4161 66bd 0307 883d
00000270: 5bdc 1a3d d28a aa3d 2303 8dbd 97cf 4cbd
00000280: cb24 493d b97f 0ebd c3ef 41bd 84b8 1ebd
00000290: bcc8 8c3d bc40 9c3d 421d 78bd adba 443d
000002a0: 62e0 e53c 7674 a6bd fbe9 9b3d ee2f 7dbd
000002b0: e3fd d8ba 2044 a0bd 9e03 c03c 4d8b 973c
000002c0: 9fae a63d e3d4 c93c af62 48bd 91ff 7cbc
000002d0: b51c 8b3d ce22 793d fb26 743d 2d17 b2bc
000002e0: e235 123d 34f8 adbb 6761 93bd db8a 49bd
000002f0: 75ab d83b 3133 233c add2 81bd a212 a7bd
00000300: 011e 44bd 6c4c 7a3d 3145 c13c 8ee2 a7bd
00000310: 20c2 dc3c 63d5 74bd 1ac8 1ebc 4557 9ebd
00000320: c0c1 a63b 8f2b 8a3d 6329 483d 8748 b43c
00000330: 0eb2 6bbd e083 c9bc a8bd ecbc e91a 44bd
00000340: 0139 d73c 4900 a53d 8642 b53c ec06 0d3d
00000350: 59c5 d63b e44d 8fbd 2ddc 5a3d 31e2 90bd
00000360: e97f 423d 3091 f93c c06c f23c 51bd 6cbd
00000370: 0dbf 3dbd 0429 a1bd fbc1 40bc e901 ebbc
00000380: 3074 1b3d 2ba7 65bd b79a a13d 0a21 35bd
00000390: 8ae8 25bd ff73 6fbd 0ecc 9cbd aae6 b33d
000003a0: f69b 66bd 0146 133d 7d9c b3bd abf3 933d
000003b0: 5bc2 24bc 9c57 7dbb 9524 a33b bf0a 34bd
000003c0: 7305 863d 9bb3 b73d 8071 28bd d70e da3b
000003d0: 3c2c 003c 99f4 23bc 2974 693d 0d17 a43c
000003e0: 5a10 413d a5b2 a43d 7e9a 30bc 529b ceb7
000003f0: 8b67 963d 30f5 cb3c ede7 a03d 336d 2fbd
0.070215024 0.016127912 -0.036524106 0.012130267 -0.015647484 0.048757754 -0.025322542 -0.07288753
-0.03189239 0.012687014 -0.044302873 -0.07795687 0.032231685 -0.0074412716 0.07981317 -0.021809142
-0.026871998 0.029642813 -0.00020182201 -0.0022910074 -0.08338832 0.048765846 -0.013076915 0.057847116
0.08072683 0.03422763 -0.058510773 0.03663236 -0.065097645 0.07294424 0.0016312986 -0.024242647
-0.08671278 -0.006431151 -0.08644405 -0.058676425 -0.051571604 0.06516104 -0.028094854 0.037923634
-0.05378502 0.06212263 -0.011070284 0.013312044 -0.08591667 0.08286339 0.010955825 -0.06011994
-0.07597856 0.019390449 -0.008709905 -0.036726896 -0.07859209 -0.089166135 0.028321192 -0.06570587
-0.064221725 0.0661976 -0.0684292 -0.08468665 0.031615824 0.057636652 -0.07303445 0.036944065
-0.07486034 -0.017867915 0.018185364 0.0017225601 -0.038884345 -0.017275147 -0.0088583995 0.02778046
0.045748837 -0.020862931 -0.010687614 -0.06406051 0.08996157 -0.0804273 -0.08653518 -0.07929108
-0.05752923 -0.039869294 -0.0017246464 0.038410798 0.017485775 -0.028475394 -0.0011294909 -0.0031859837
-0.048406627 -0.05971597 -0.077650495 0.032124083 -0.06970246 0.03646482 -0.016791888 0.006988792
0.01508906 -0.043330397 0.0018303066 -0.059958547 0.075816445 -0.033465102 0.04491788 -0.0414735
0.030461293 -0.07202569 0.03491661 -0.0029504523 -0.031165589 -0.066800185 0.02336408 -0.07039616
0.068220474 0.06728334 -0.07484041 -0.06829613 0.08665229 0.07992839 -0.026430584 0.04998111
-0.0074434583 0.08840387 -0.055646792 -0.0022229955 -0.030372117 0.057172853 -0.0053068376 0.044270046
0.0059452015 -0.013828214 -0.03110047 -0.051822606 0.056715254 0.0856034 0.06875864 -0.052418914
-0.06500296 -0.023393434 0.0764058 -0.0007609227 -0.030688467 -0.061117467 0.008151159 0.045559876
0.07536101 0.040948134 0.084974915 -0.06456599 -0.043093197 -0.08412413 -0.07873426 0.003776486
-0.06867823 -0.021928875 -0.056245092 0.066419624 0.037807804 0.08327259 -0.06885364 -0.05000266
0.049107354 -0.034789775 -0.047347795 -0.038750187 0.068742245 0.076295346 -0.060574777 0.04802959
0.028061096 -0.08127682 0.076129876 -0.061813287 -0.0016555156 -0.07825494 0.023439225 0.018499041
0.08138775 0.024637645 -0.048922237 -0.015441791 0.06792585 0.060824208 0.059607487 -0.021739567
0.035695918 -0.005309129 -0.071963124 -0.04920469 0.006612236 0.009960935 -0.06339011 -0.08157851
-0.047880176 0.061108038 0.023592563 -0.08197509 0.026948035 -0.059773814 -0.009691263 -0.07731489
0.005089015 0.067465894 0.048867594 0.02200724 -0.057542853 -0.024599016 -0.028899029 -0.047877226
0.026272299 0.08056695 0.022126447 0.03443043 0.0065542874 -0.06997278 0.053432632 -0.070743926
0.047485266 0.030464739 0.029592872 -0.057797734 -0.04632478 -0.07869151 -0.011764999 -0.028687434
0.037952602 -0.056067627 0.07890838 -0.04422096 -0.04050497 -0.058460232 -0.07656108 0.0878423
-0.05630108 0.035955433 -0.08770082 0.0722421 -0.010056104 -0.0038656956 0.004978726 -0.04395556
0.06544008 0.08969804 -0.041123867 0.006654601 0.007823046 -0.010007047 0.056995545 0.020030523
0.047134735 0.08041886 -0.010779021 -2.462944e-05 0.07343968 0.024897188 0.07856736 -0.04282875

projection_layer.0.bias f4 [128]
00000000: 8292 e1bc 7c7c 013d fdbc c7bc 0a24 6dbd
00000010: a07c 823d 369a a73d 738f cfbb 86f3 603c
00000020: 86b6 4fbd 5beb b4bc e975 133d c0f6 3a3d
00000030: f688 b73c ea93 9fbd a234 063c 6c8b 36bd
00000040: 51e9 843d 0641 fb3c 907e 95bd a16f 74bd
00000050: 629d 92bd 7825 f9bc 6f39 8b3d 1164 9e3d
00000060: 159c 73bd 2b98 a9ba 7687 e03c c62e d73c
00000070: 0ca2 4abd 14a9 91bd fdaa 263b 058a 423c
00000080: 4f49 ac3d fb17 aeba ecbd 57bd 4be2 463d
00000090: d08f 07bd 0d33 6bbd ed5a 463d db47 023c
000000a0: 1b44 a7bd 4990 fdbc 06a5 413d cb54 893d
000000b0: f327 8dbd 233a acbd 49f3 673d 1efd 5fbc
000000c0: 884c 9ebd 97d6 61bd c0d9 593d fd07 b33c
000000d0: 1def 3cbd b0cf 1bbd 6260 693d ec45 e83c
000000e0: cfe6 9f3d 4b79 533d 5459 ccbc 1cfa c23c
000000f0: 9957 b0bc 2513 e5ba c856 acbd dea6 96bc
00000100: 7e1d 973d 1929 3bbc 2124 403d f353 0dbc
00000110: 3415 47bc 2462 8b3d b9a6 833d 0292 20bd
00000120: 0a2d e6bc 4801 f63c fd9f 0e3d f839 abbd
00000130: 667c f5bc 5f12 9e3b aec6 88bd c369 943c
00000140: 8f0f 28bc 0597 2f3c a326 033d 4d2c 813d
00000150: 8f88 5b3c 347c c53c ddb9 693d 13e3 8f3a
00000160: 4e13 0ebc 3be7 a43c 9edb 8c3c 7684 913d
00000170: 5fc3 4d3d 44ad a73d 34c1 873d 282a ab3d
00000180: 399a 4b3d bc77 773d 5ba9 adbd 6526 393d
00000190: b697 f3bb 18fb 673d 77be 263d 24ca 453d
000001a0: 9cc6 613d 052e 97bd d567 23bb 5138 f53c
000001b0: 27f0 003d 1f7d 9ebc 0ac7 e43b 7d42 94bd
000001c0: 7d8b 4a3d 3f00 403c 0b9d fd3b 90ca a93d
000001d0: a735 8c3c c558 eabb e7a2 93bd 71a9 c4bb
000001e0: 2976 7dbd 0ab0 a63b 91f0 043d 7a66 8ebd
000001f0: 9886 513c 0562 50bb 8014 d8bc bc60 563d
-0.02753568 0.03161286 -0.024382109 -0.057895698 0.063714266 0.0818371 -0.006334239 0.0137299355
-0.050711177 -0.022084882 0.03600112 0.045645475 0.022404175 -0.07791884 0.00819126 -0.044566557
0.06489814 0.030670654 -0.072995305 -0.05967677 -0.07158925 -0.030413374 0.06798064 0.0773393
-0.059475023 -0.0012939026 0.027408343 0.02626742 -0.049470946 -0.07112327 0.0025431507 0.011873727
0.0841242 -0.0013282293 -0.052671358 0.048555654 -0.033096135 -0.057421733 0.048426557 0.007951702
-0.08167287 -0.03095259 0.04727652 0.06705626 -0.06892385 -0.08409526 0.0566285 -0.013671188
-0.07729441 -0.05513629 0.05318618 0.021854395 -0.046126474 -0.038039863 0.056976683 0.028353654
0.07807695 0.051629346 -0.024944939 0.023800902 -0.021526145 -0.0017477019 -0.0841499 -0.018390115
0.07378672 -0.011423373 0.046909455 -0.008625972 -0.012151051 0.06805828 0.06428284 -0.039201744
-0.028097648 0.030029908 0.034820545 -0.08360666 -0.029966544 0.0048239673 -0.0667852 0.018116837
-0.010257616 0.010717158 0.03201927 0.06307278 0.013399257 0.024107076 0.05706202 0.0010977708
-0.008671595 0.02012979 0.017194565 0.07105343 0.05023515 0.08187345 0.066286474 0.0835765
0.049707625 0.060416922 -0.084795676 0.04520263 -0.007433857 0.056635946 0.040708985 0.04828848
0.05512105 -0.073818244 -0.0024933715 0.02993408 0.031479027 -0.019346772 0.006981735 -0.07239244
0.049449433 0.011718809 0.0077396682 0.08290589 0.017115427 -0.0071516954 -0.072088055 -0.0060016443
-0.061880264 0.0050869035 0.032455985 -0.069531396 0.012788437 -0.0031796705 -0.026376963 0.052338347

projection_layer.1.weight f4 [128]
00000000: 5ccd 7f3f 382d 803f 3c44 803f 4dff 7f3f
00000010: a85a 7f3f 1b25 803f f2d1 7f3f 4717 7f3f
00000020: 6ad0 7f3f ba5a 803f 811b 7f3f b934 803f
00000030: 9c47 803f 2fe1 7f3f 531f 7f3f 5d6d 7f3f
00000040: 5535 7f3f 39bf 7f3f 1735 803f 7762 7f3f
00000050: accc 7f3f 1936 803f 221f 7f3f 3d2b 7f3f
00000060: a2e5 7f3f 74ba 7f3f 42c0 7f3f bb34 7f3f
00000070: 9305 7f3f 8078 803f 740c 803f 1312 803f
00000080: 3b03 803f 4273 7f3f 6dd9 7f3f 1209 7f3f
00000090: d835 7f3f 370e 7f3f ca20 803f d5c1 7f3f
000000a0: 5b49 803f 1774 7f3f 5335 7f3f 0d09 803f
000000b0: 88b7 7f3f e603 7f3f 8437 7f3f 2b0e 7f3f
000000c0: 26df 7f3f 40ed 7f3f b747 803f f0d6 7f3f
000000d0: 1c09 803f b308 803f 5b16 7f3f 8d22 7f3f
000000e0: 3791 7f3f fc06 803f 0eb1 7f3f 2c24 803f
000000f0: f968 7f3f b53e 803f cfd2 7f3f cdd5 7f3f
00000100: c818 803f 2b34 7f3f 027c 7f3f e754 803f
00000110: 7cb7 7f3f 6d16 803f abd3 7f3f 1f5e 803f
00000120: 3a01 7f3f f78b 7f3f 374c 7f3f 8914 803f
00000130: 0d1f 803f ddc2 7f3f aaa0 7f3f 2337 803f
00000140: d12b 7f3f 5270 803f 5fe9 7f3f 4a08 803f
00000150: 2967 7f3f 0791 7f3f 72a3 7f3f c493 7f3f
00000160: 17de 7f3f 2823 7f3f 1f37 7f3f 62ca 7f3f
00000170: 28c7 7f3f 6306 803f de00 803f c573 7f3f
00000180: 7e3d 803f 0920 7f3f fa06 803f 95c8 7f3f
00000190: 83d3 7f3f 1105 7f3f b432 803f 77c0 7f3f
000001a0: e80f 7f3f f47c 803f a15c 7f3f 0fef 7f3f
000001b0: 26b3 7f3f 13ea 7f3f db72 803f 7b1d 803f
000001c0: d229 803f c4b4 7f3f d589 7f3f 1a15 803f
000001d0: fee6 7f3f b4ff 7e3f e932 803f f90e 7f3f
000001e0: d3aa 7f3f 2622 7f3f 10d3 7f3f 2359 7f3f
000001f0: bb7e 7f3f a736 7f3f 8313 803f 1d6c 803f
0.9992273 1.00138 1.0020823 0.99998933 0.99747705 1.0011324 0.99929726 0.99644893
0.9992739 1.0027688 0.9965134 1.001609 1.0021853 0.9995298 0.9965717 0.9977625
0.99690753 0.9990116 1.0016202 0.9975962 0.9992168 1.0016509 0.9965688 0.9967535
0.99959767 0.9989388 0.9990274 0.99689835 0.9961788 1.0036774 1.00038 1.0005516
1.0000986 0.99785244 0.9994114 0.99623215 0.99691534 0.99631065 1.0010006 0.9990514
1.0022386 0.99786514 0.9969074 1.0002762 0.9988942 0.99615324 0.99694085 0.99630994
0.9994987 0.9997139 1.0021886 0.99937344 1.000278 1.0002655 0.99643487 0.99662095
0.99830955 1.0002131 0.9987954 1.0011039 0.9976955 1.0019137 0.99931043 0.9993561
1.0007563 0.99688977 0.99798596 1.002591 0.9988935 1.0006844 0.99932355 1.0028723
0.99611247 0.99822944 0.9972567 1.0006267 1.0009476 0.9990671 0.9985453 1.0016826
0.99676234 1.0034277 0.9996547 1.000253 0.99766785 0.9983067 0.9985877 0.9983485
0.9994826 0.9966302 0.99693483 0.99918187 0.99913263 1.0001949 1.0000265 0.99786025
1.0018766 0.99658257 1.0002129 0.9991544 0.99932116 0.99617106 1.0015473 0.99903053
0.99633646 1.0038133 0.99750715 0.9997415 0.99882734 0.99966544 1.0035051 1.0008997
1.0012763 0.998852 0.9981969 1.000644 0.9996184 0.9960892 1.0015537 0.9963222
0.9987003 0.9966148 0.9993143 0.99745387 0.9980275 0.9969277 1.0005955 1.0032994

projection_layer.1.bias f4 [128]
00000000: 568a 47bb 5785 70bb a7be edb9 b386 4539
00000010: 2ba3 e2ba f317 71bb 960f bc3a bcc4 6dbb
00000020: 40c6 7dba 6b52 553a 6d10 40ba 9f2b 093b
00000030: 9c57 f93a 30d7 a4b7 4730 04bb d935 3fbb
00000040: 1e5e 15bb 8c93 49ba f8d9 673a 5389 cc3a
00000050: e3f7 a03a 6cbd 213b e6fc 9fba b88e 58bb
00000060: c547 e5b9 5ade 84ba 184c 63ba 0c63 40ba
00000070: e9aa 62bb d32b 0e3a 066c 14ba a6a8 223a
00000080: 67be 4339 1b5e 413b 3b06 2239 39d7 beba
00000090: 8365 0538 850c 24bb 7744 863a 9131 203a
000000a0: 424f 0f3a ade4 7739 e371 17bb 0b60 1f39
000000b0: a8c9 55bb 42cf 72bb 4bac b439 1193 3cbb
000000c0: bd48 a13a bd8a 2a3a c0a0 6e3b a789 edba
000000d0: f814 6f3a be29 2fba b858 8738 41fb 83ba
000000e0: 8de3 3abb dfa5 45ba a180 5739 88a7 0d3a
000000f0: f48f e5ba 0206 003b 0497 e3b9 ec54 6cba
00000100: a3a6 e039 3c68 7dbb 0053 293b 8d37 0f3b
00000110: a478 93ba 8b1e afb9 f5c0 62b9 58e7 3d3b
00000120: 11dc 78bb a357 07bb 8d29 3fbb baee 9e3a
00000130: 7ebf 85b9 1adb bf39 f29d 8c38 4305 35bb
00000140: a16b 83ba 14d1 713b aee1 46bb 9b72 253a
00000150: 7f63 c4ba d469 92b9 3741 a9b7 cde8 90ba
00000160: bb5d f03a 03a9 62bb 21cd 80bb 156b 5bba
00000170: 8837 ed39 5c1e 04b9 e1b3 ae38 8204 dcba
00000180: 972b 983a 0dbf bc3a 9224 463a bac4 78ba
00000190: 558c 4839 6fb6 77bb e4dd 01ba 9993 75bb
000001a0: d1ff 63bb 3842 8dba c0ba 6bbb e3d5 fe39
000001b0: 58c4 943a c8e0 90b9 fc14 5a3b b342 213a
000001c0: 003a 9b3a 84cc b7ba ab43 88ba fad7 8339
000001d0: 857b 43b9 e765 a0ba 7fe6 f2ba feb9 70bb
000001e0: 900b 08ba c60e 57bb 174c 2fba 24b6 ccba
000001f0: 54ae f1ba 5d84 b2ba d3b2 d53a a2b3 2c3b
-0.0030447445 -0.003670057 -0.0004534621 0.00018837563 -0.001729106 -0.0036787956 0.0014347907 -0.0036280593
-0.00096807256 0.00081375864 -0.00073266664 0.0020930541 0.0019023302 -1.9650528e-05 -0.0020170377 -0.0029176383
-0.0022791694 -0.00076895277 0.00088444306 0.0015604891 0.0012280907 0.0024679555 -0.0012206107 -0.0033044051
-0.00043731756 -0.0010137067 -0.00086707016 -0.0007338978 -0.0034586734 0.00054234004 -0.00056618487 0.000620494
0.0001866758 0.0029505554 0.00015451845 -0.0014559991 3.180421e-05 -0.0025031876 0.0010243793 0.00061109016
0.00054668274 0.00023640944 -0.0023108653 0.000151992 -0.0032621417 -0.0037049805 0.00034460644 -0.0028774182
0.0012305003 0.0006505659 0.0036411732 -0.0018122689 0.0009120251 -0.000668194 6.453827e-05 -0.0010069386
-0.0028516978 -0.00075396703 0.00020551916 0.0005403687 -0.0017514215 0.001953483 -0.0004340933 -0.000901534
0.00042848763 -0.0038666865 0.0025836825 0.002185318 -0.0011251164 -0.00033401357 -0.00021624922 0.0028977003
-0.0037972967 -0.00206516 -0.0029169053 0.001212559 -0.0002551041 0.00036593602 6.70514e-05 -0.0027621544
-0.0010026583 0.0036898302 -0.0030346918 0.0006311328 -0.0014983265 -0.00027926138 -2.0176738e-05 -0.0011055708
0.0018338481 -0.0034585602 -0.0039307033 -0.00083701435 0.00045245537 -0.0001259981 8.3304716e-05 -0.0016786011
0.001160967 0.0014400199 0.000755855 -0.0009489764 0.00019125764 -0.0037797948 -0.0004954024 -0.0037472008
-0.003478993 -0.0010777181 -0.0035969466 0.00048606013 0.0011350019 -0.00027633295 0.0033276668 0.00061516016
0.0011842847 -0.0014022742 -0.0010396143 0.00025147182 -0.00018642664 -0.00122374 -0.0018531828 -0.0036731954
-0.0005189711 -0.0032815202 -0.00066870585 -0.0015618247 -0.0018438795 -0.001361977 0.0016303904 0.0026352187

projection_layer.1.running_mean f4 [128]
00000000: 1612 44bd 5663 a13c 63d8 c4bc d61c bcbc
00000010: 879b 573d 604e d13c c02b a13c e2f0 edbc
00000020: 0a62 f7bc 328d 7dbc 9ae8 89bb cba0 223c
00000030: ab80 5c3d 2495 e7bc 05dd 633d 193a a0bc
00000040: 7801 d03c 23e6 223d c12f b9b9 a3c6 0dbd
00000050: 90c5 063a 5ed0 df3c 5103 583d 3a2a 083d
00000060: 1121 8fbc db0b 84bd 324f 553c edce d4bc
00000070: 16ab c0bc d3b2 9b3b 43bc a33c 16bd ac3a
00000080: 5c74 1f3d 307b 4ebb 438b 803c e08a 5bbc
00000090: 5b8b 13bc 5429 963c b439 6a3d ff94 81bd
000000a0: d1bd f3bc 541a 7ebc 8db6 e33c 25bd 6f3d
000000b0: 629f cebc c89b 3cbd 7f2b 8cbb e8af 54bc
000000c0: 461f b2bc 4eab c7bc 6e4c 28bd 828f 373d
000000d0: 91be 32bd ca56 60b8 0a12 273d 11b0 2b3c
000000e0: 0815 803c ed1d 673d f691 eabc 5654 95bc
000000f0: ddc4 69bb 3ef0 9cbc 99f9 afbc 93da e7bb
00000100: 9200 6a3d 00af a1bc 4a21 953b 946a 503c
00000110: 5e21 82bd 61e3 943d 5b71 f33c 97fa 8c3c
00000120: c53f aebc 5e97 a63b e3c4 98bb eecf 19bd
00000130: 7526 d7bc 417e 1b3d 748b bcbc dd6d 1abd
00000140: da3f 823b ad33 36bb dbcd 25bd 4865 89bc
00000150: cec5 26bd b8fe ff3c e831 023d 0d9d 4d3c
00000160: 096f 8d3c 0e4f bbbb 70a6 ec3c e884 353d
00000170: d2ce df39 5ee5 8c3c df22 283c c5a9 0a3d
00000180: 7418 753c 78a0 4fbc 2132 00bd 120a 043b
00000190: 8667 88bc db1a 5d3a 7888 da3c 13f1 dd3c
000001a0: e031 893d d637 f1bc b6bd 6bbc ead5 a2bb
000001b0: 7011 7c3c 4408 5fbd cecc de3b 8790 44b9
000001c0: 9137 373d 03ff 1c3c 7247 e3bc d6f7 783d
000001d0: 3be4 e73b bebe 48bc 3c18 a6bc 5cf6 7a3b
000001e0: 7bbb 10bd 344e f6bb 4e7e 1c3d b0b8 6dbd
000001f0: 788e 7cbc d59f 433c cb74 733b 2ceb 61bc
-0.04786881 0.019700687 -0.024028962 -0.022962969 0.052638557 0.025550067 0.019674182 -0.029045526
-0.030198116 -0.015475558 -0.0042086365 0.009926031 0.053833645 -0.028269358 0.055630703 -0.019558953
0.025391325 0.039770257 -0.0003532153 -0.034613263 0.00051411334 0.027321037 0.052737538 0.033243395
-0.017471822 -0.06447574 0.01301937 -0.025977576 -0.02351908 0.004751542 0.019987231 0.0013178911
0.03892933 -0.003150653 0.015691405 -0.01339981 -0.009005393 0.018330254 0.057183936 -0.06327247
-0.029753597 -0.015509207 0.027797008 0.05852999 -0.025222484 -0.046047002 -0.004277646 -0.012981392
-0.021743428 -0.024373677 -0.041088514 0.044814594 -0.04363877 -5.348659e-05 0.040788688 0.010478989
0.015635028 0.056425024 -0.028634053 -0.018228691 -0.0035670318 -0.019157525 -0.021481322 -0.0070756166
0.05712945 -0.019736767 0.0045510875 0.012720723 -0.063540205 0.072699316 0.029717138 0.017209334
-0.021270642 0.0050839623 -0.0046621426 -0.037551813 -0.026263455 0.037962202 -0.023015715 -0.03770243
0.003974897 -0.0027801797 -0.040479522 -0.016771927 -0.040715985 0.031249389 0.031785876 0.012549651
0.01726486 -0.005716211 0.028887957 0.044316202 0.00042687968 0.017199215 0.01026222 0.03385331
0.014959443 -0.012672536 -0.031297807 0.0020147604 -0.016650926 0.0008434483 0.026676401 0.027092492
0.06698966 -0.02944557 -0.014388492 -0.004969348 0.015385017 -0.054451242 0.006799317 -0.00018745857
0.044730727 0.009582284 -0.027744029 0.06078323 0.0070767677 -0.012252508 -0.020275228 0.0038293814
-0.035335045 -0.0075166468 0.03820639 -0.05803746 -0.015414827 0.011939962 0.0037148471 -0.0137889795

projection_layer.1.running_var f4 [128]
00000000: a87a 323f 18dc 2d3f 0d82 2d3f 5d32 393f
00000010: 0ef8 2c3f 4c3f 353f fd48 323f 3d1f 2e3f
00000020: 074f 363f f313 343f 78d6 333f 389c 313f
00000030: 6dd9 3a3f 5f16 333f 84d6 323f b3fb 2e3f
00000040: 47f0 383f 9b9b 2e3f f53b 2f3f c3a7 2e3f
00000050: 7663 2f3f 55d4 383f 5fd6 313f f63a 383f
00000060: 0018 2c3f fcd9 2d3f 1214 333f 7a27 2d3f
00000070: b124 313f 0814 343f d39e 323f 820a 303f
00000080: 877f 313f 7258 303f 3e7e 2d3f 4c41 363f
00000090: 5e33 313f dbc2 2d3f 2558 353f ae50 373f
000000a0: b03b 2f3f 304c 2c3f 043f 333f 6f1b 313f
000000b0: 85c0 2d3f 689d 2d3f 9b77 303f 699b 2f3f
000000c0: 11b9 2d3f 9562 303f adac 2f3f 9a98 303f
000000d0: 94a4 323f 4bc7 303f 2caf 2b3f 8409 2e3f
000000e0: 49c1 373f 084a 363f 739b 2e3f fe2c 353f
000000f0: 3324 303f f165 2f3f 8014 313f 2b0e 2f3f
00000100: ab9a 323f 7da1 303f 68f5 2c3f fab6 333f
00000110: 2b49 303f d016 2e3f ebd8 323f 95fb 303f
00000120: 0b88 353f c3e7 2f3f d4de 2e3f f038 3c3f
00000130: 85db 303f 6bd4 303f 03f7 323f eea5 353f
00000140: e065 353f c93f 2e3f 4f79 313f 384b 313f
00000150: 5617 303f 79fe 313f 8df8 2d3f d5a8 363f
00000160: b2c9 2e3f eb44 323f 7e68 2f3f 515b 2f3f
00000170: 4d59 2d3f f816 323f 1c79 2d3f c8ea 323f
00000180: b3e1 323f c5f1 323f 38eb 2f3f 9f6b 313f
00000190: 79b3 353f b49d 353f 46b8 333f 5949 343f
000001a0: aa7b 2f3f 99b9 343f 58a3 303f afb0 303f
000001b0: e834 353f 7ebc 303f bf71 313f cc06 2e3f
000001c0: 739f 2f3f 44a4 2e3f 2ca9 353f 7be4 353f
000001d0: 3c47 2e3f 1be3 2e3f 8f81 333f aa05 343f
000001e0: dc69 333f 08e2 313f a96b 373f 6f8e 363f
000001f0: d848 383f 08f8 333f c89c 303f 475e 353f
0.6971841 0.6791396 0.67776567 0.72342473 0.67566 0.7079971 0.6964262 0.68016416
0.71214336 0.7034294 0.7024913 0.69378996 0.72988015 0.6995601 0.69858575 0.6835281
0.72241634 0.68206185 0.6845086 0.68224734 0.6851114 0.7219899 0.6946773 0.7196497
0.6722412 0.6791074 0.699525 0.6763836 0.6919661 0.70343065 0.69773597 0.68766034
0.69335216 0.68884957 0.67770755 0.71193385 0.69219005 0.6787545 0.7083762 0.7160748
0.6845045 0.6730375 0.7001803 0.69182485 0.67871886 0.6781831 0.68932503 0.6859651
0.67860514 0.68900424 0.6862286 0.6898285 0.69782376 0.69054097 0.67064166 0.6798327
0.71779305 0.7120671 0.68205947 0.7077178 0.68805236 0.68514925 0.69171906 0.68380994
0.69767255 0.6899641 0.6756196 0.70201075 0.68861645 0.6800356 0.6986224 0.69133884
0.7091071 0.68713015 0.6830876 0.7352438 0.6908496 0.69074124 0.6990816 0.70956314
0.70858574 0.6806608 0.6932573 0.692554 0.6878561 0.6952892 0.67957383 0.7135137
0.6827651 0.6963641 0.6851882 0.6849871 0.6771439 0.695663 0.67762923 0.698895
0.6987564 0.6990016 0.6871829 0.6930484 0.7097698 0.7094376 0.70203054 0.7042442
0.6854807 0.705957 0.6899924 0.690196 0.70783854 0.69037616 0.6931419 0.6797912
0.68602675 0.682194 0.7096126 0.7105176 0.68077445 0.68315285 0.70119566 0.7032114
0.70083404 0.6948552 0.7164865 0.71311086 0.7198615 0.7030034 0.6898923 0.7084698

projection_layer.4.weight f4 [128, 128]
00000000: a1a5 143d 0c32 993d e512 633d ed0b 88bd
00000010: 9ac1 25bd 33ef b03d 227e a13d eb83 a23c
00000020: ce75 023d c783 863c cb45 f6bc a33e 973b
00000030: 0427 9d3d a7b6 10bd 365c 40bd 3c37 6abc
00000040: 0502 abbc 25d0 6ebd 4118 a7bd f605 91bd
00000050: 5e76 3d3c d375 36bd 4427 983d a41a 8dbd
00000060: 5533 883c f322 283d 041e 79bd b6a8 13bd
00000070: 5c33 abbd 3d53 98bd 3384 b93c 2333 4abd
00000080: e7b3 b23d 5ba1 81bd 0a89 4d3c c046 683d
00000090: 6d38 b9bd 7c6e 88bd 2e26 0d3d 4265 47bc
000000a0: a8c4 5cbd 0baa a4bd 26d1 22bd 5186 913d
000000b0: 1e7d 80bd ffc7 963d 1d14 9b3b 501e 92bd
000000c0: 9fbd 47bb bdc3 92bd f098 13bd 147f 95bd
000000d0: 7063 6d3d 50aa 873d c03d 63bd d81d 77bd
000000e0: a003 65bd 7ba4 5d3d 62b1 7dbd 52f8 0b3c
000000f0: 5d1f c9bc 01f4 17bd 882a 5ebb bc51 15bd
00000100: 8f7c 1e3d 18c9 78bd 658c 0fbd 27d0 223c
00000110: c143 26bd 2df5 593d 548e babc 5434 283c
00000120: 4461 38bc bc25 1c3d 8591 8dbd 27d1 94bd
00000130: 0b01 6fbc 8d7d dbbc cd80 793d d89f 8a3d
00000140: 62b5 d23b 0391 96bc bd8a 27bd 6b72 90bd
00000150: 8947 a8bd 0342 8abd 87cb c13c 495e 9d3d
00000160: 7319 ae3d f84b 923d e8fa 4e3d 51c0 493d
00000170: d753 dfbb 7838 9b3b e890 88bc d7ae 983d
00000180: b665 45bd 20e7 a2bd e268 d0bc 39f1 33bd
00000190: 8d3b a3bd 5dcf 89bd d322 303d 92a8 dbbc
000001a0: 27cb 863d 8182 97bd 4d88 88bc 95a0 733c
000001b0: a9dd 053d 6428 0d3d b3f6 203d b59b 8e3d
000001c0: 2266 53bd 2a5c 5d3d 2fab 813d 338a 45bd
000001d0: f491 cd3c a818 053d d076 89bd 0967 a2bd
000001e0: 797b 30bc b047 25bc d46e 75bd f850 9d3d
000001f0: 9515 80bd 2690 723d dad1 16bd 53dc f13c
00000200: b716 4bbd 9c45 9dbc 8b3d cf3c b950 40bd
00000210: 76fa 6f3d 3d44 26bd 06ad 9dbd 5bf3 973d
00000220: d15c 33bd 1ee2 e43c 15be 1cbd a800 993c
00000230: ae32 363d 8702 493d 5eb1 b03d 358b 993d
00000240: 4ae2 90bd f950 2dbc 3a05 a73d 26c3 633d
00000250: 32be 5a3d a4a9 943d 967f 523d 3dd1 9cbd
00000260: 66be 9d3b 18df 423d 233c cd3c 4ce8 4b3d
00000270: 7c93 96bd 4f59 3d3d eb71 393d c7f5 b4bc
00000280: 1b34 5f3b 61c8 96bd 7cc7 b03d c49d 7abd
00000290: e448 143d bdf5 983d 6f6c 3e3d af7c 163c
000002a0: 6fa4 4dbd 5c9f 13bb 4ff6 c13c 1fe9 783b
000002b0: 47e3 99bd c89c 13bb 1d1d b6bd 6750 8bbd
000002c0: dc44 7f3d b0f3 833d 44ed 4b3d 994c ad3d
000002d0: 16bc 30bc 332a 3abd 5d11 adbd 4e79 f83b
000002e0: 7dc9 e63c a6cc 8a3d 04a3 a3bd 3365 65bd
000002f0: f5b0 25bd 21a2 d4bc c682 a63d 18b4 89bc
00000300: 09d1 ce39 a7a5 e43c 3a3c efbc 7b08 b63a
00000310: 65c8 65bd f149 a5bd 0211 863d b083 783c
00000320: 08ba ba3b 091d 5ebc 6a97 e73c f75c 93bc
00000330: c5fc 93bc d33b 7fbd 0272 8a3c be5e 45bd
00000340: aa80 4e3a 571c c3bc b9ef 5c3d 62de 36bc
00000350: ca64 4abd 38c4 583d 72a6 b33d 77a8 903b
00000360: bd20 853d 6a8b 94bd 6c69 9e3d e252 8d3d
00000370: 24ca abbd 46ac 1e3b e19c 68bc 1a1d ff3c
00000380: 6c14 523c 7d13 52bb 9976 93bd 92fa 93bd
00000390: f59c a73d f590 cb3b 47eb ae3d 20f1 c43c
000003a0: cf4a 18bd b1f1 a2bc 99e7 ebbb 7e85 a83d
000003b0: 3801 1d3d 5295 56bd 8a18 46b9 2cab 353d
000003c0: ee70 ae3d 1f14 143d f5da b1bd a785 333d
000003d0: 3e20 83bc 1ecb bdbc 8fe5 d0bc 018e 7ebd
000003e0: 183e 503d 9ac0 1abd 1b2f 7cbd ab0f 7e3a
000003f0: baa5 e93c 62a0 45bd aae3 9cbd 033e 593d
0.03629077 0.07480249 0.05543794 -0.066429 -0.040467836 0.08639374 0.07885386 0.019838294
0.03185063 0.016420258 -0.030062577 0.004615621 0.07673457 -0.03533044 -0.04696294 -0.014295395
-0.020874986 -0.05830397 -0.08158923 -0.07081215 0.0115638655 -0.04454596 0.07429364 -0.06889847
0.01662604 0.041048955 -0.06081964 -0.036049567 -0.083594054 -0.074377514 0.022646045 -0.049365174
0.0872572 -0.06329604 0.01254488 0.056708097 -0.090439655 -0.06661698 0.03446024 -0.012170138
-0.053898484 -0.080402456 -0.03975024 0.07105697 -0.06273864 0.07362365 0.0047326223 -0.07134688
-0.0030478013 -0.0716624 -0.036034524 -0.07299629 0.05795616 0.066242814 -0.05547881 -0.060331196
-0.05591166 0.05411194 -0.061936744 0.008543091 -0.024551088 -0.037097935 -0.0033899862 -0.0364549
0.038693007 -0.060738653 -0.035046 0.009937323 -0.04059196 0.053212333 -0.022772945 0.010266382
-0.011253659 0.038121924 -0.06912521 -0.07266455 -0.014587651 -0.026793266 0.06091385 0.06768769
0.006430314 -0.018379694 -0.040903796 -0.070530735 -0.08216769 -0.06750872 0.02365662 0.07683999
0.08500948 0.07143396 0.05053225 0.049255673 -0.0068154144 0.004736956 -0.01667066 0.07455223
-0.048192702 -0.0795424 -0.025440637 -0.04393122 -0.07970343 -0.067290045 0.04300196 -0.026813779
0.06581717 -0.073979385 -0.016666556 0.014869829 0.032682095 0.034462348 0.03929777 0.069632925
-0.051611073 0.054042973 0.06331479 -0.0482275 0.02509401 0.032494217 -0.06712115 -0.07929809
-0.010771626 -0.010087892 -0.059920147 0.07681459 -0.062541164 0.059219502 -0.036821224 0.029524004
-0.04958221 -0.019198231 0.0252979 -0.046951983 0.058588468 -0.04059242 -0.07699017 0.07419463
-0.04378969 0.027939852 -0.038267214 0.01867707 0.044481926 0.049074676 0.0862758 0.07497255
-0.07074411 -0.010578387 0.08155294 0.05560603 0.05340404 0.07258919 0.051391207 -0.076570965
0.004813957 0.04757604 0.02505309 0.049782082 -0.07352349 0.04622775 0.045274656 -0.022089852
0.0034058157 -0.07362438 0.086317986 -0.061185613 0.036202326 0.07468746 0.04649013 0.009185
-0.050205644 -0.0022525406 0.02367702 0.0037980748 -0.07514053 -0.0022523869 -0.08892272 -0.06802445
0.06232153 0.06442964 0.04978682 0.084618755 -0.010787031 -0.0454504 -0.084505774 0.00758282
0.028172249 0.06777315 -0.07990077 -0.056004714 -0.040451963 -0.025956215 0.08130412 -0.016809508
0.00039447125 0.02791102 -0.029203523 0.0013888025 -0.056099314 -0.08070744 0.06546213 0.0151681155
0.005698446 -0.013556727 0.028270442 -0.017988665 -0.018064866 -0.062312912 0.016900066 -0.048186056
0.0007877449 -0.023817224 0.053939555 -0.011161419 -0.049412526 0.052921504 0.08771981 0.004414614
0.06500385 -0.072531536 0.077349514 0.06900574 -0.08388165 0.002421157 -0.014197559 0.031141806
0.012822252 -0.0032055073 -0.07200355 -0.07225527 0.08184234 0.0062123486 0.08540969 0.024040759
-0.037180718 -0.019890638 -0.0071992395 0.082285866 0.03833124 -0.052388497 -0.00018891893 0.044352695
0.085176334 0.036152 -0.08684341 0.043828633 -0.016006585 -0.023168143 -0.025500087 -0.062147144
0.050840467 -0.037781335 -0.06156836 0.0009691666 0.028521407 -0.048248656 -0.07660611 0.053037655

projection_layer.4.bias f4 [128]
00000000: 8b50 473d a06d 2939 542c 783d 4854 aa3d
00000010: 1044 913d de5b ab3a 7a96 5e3d b81f e0bc
00000020: 8db0 abbd 0bde 9b3d 70aa 4bbd b6c0 f5bc
00000030: 0421 35bb 3b5a 9a3d 6249 65bc efcb 793d
00000040: d293 dabc 1d7d 7f3d 40f0 40bc 08e5 463b
00000050: 9f62 5bbd 373b 59bd 1ec8 0cbd 0e43 97bd
00000060: 34d5 7c3c 04b6 0ebc c075 1f3b 5000 adbd
00000070: 3f1b 97bd b5b7 b7bb 83b3 40bd 1006 3fbd
00000080: 2c7e 8b3d 006c 9fbd 2a61 f9bc bc5f 18bc
00000090: ab94 adbc 0ff7 97bd 74ca 3ebc c04e b4bd
000000a0: 1798 a33d d0d7 813d 8c0e 55bd 6975 f63c
000000b0: 4997 73bd e13d 9c3d 26eb 6dbc db89 8a3c
000000c0: f86d cbbc 8580 893d 56cd aebc 2d6e 513c
000000d0: 1c7a febc f1f1 bd3c ff28 ad3d 1dde 603c
000000e0: 4f92 213d 8d71 24bc 5382 263d 277d 5abd
000000f0: 206d 17bd a245 9fbc 755f 7bbd fb01 913d
00000100: 0d90 bdba 15d8 9f3d 40f3 03bd fd33 ac3d
00000110: 12c3 28bd ac87 343d 9a45 8abc ceb1 993d
00000120: 1507 d93c c2bb 42bd a1e2 13bc 3c0f 513c
00000130: dea1 bfbb 572f 42bd b2f9 f83b b7b9 823d
00000140: dda9 00bd 9a3b 90bd e76d 253b 500c 18bd
00000150: 922a db3c bab5 bb3d ee1e 9c3d 2d3e 57bc
00000160: 3855 aeb9 6f6a a2bd 2fbb a33d 0911 703d
00000170: a215 65bd f602 893d a54f 893d b706 843d
00000180: bbe4 413d bbfe 2e3d 73d7 273d 04d0 283d
00000190: 4cf8 4dbd d6a7 893d 81f7 42bd 43a7 26bb
000001a0: 07a0 87bd e0a6 ad3d 9109 a5bc e5c2 79bd
000001b0: 3d80 a7bc 6c33 203d c9bb e2bb cd9a 5d3d
000001c0: ad74 15bc c1d5 95ba 2f48 913d 8bff 0abd
000001d0: da80 97bd a50d b0bd 8831 b23d 8ae7 9f3d
000001e0: daa7 123d 2274 5abd 2bb6 21bd fc89 c43c
000001f0: e871 9fbc adc4 7a3b b5ee b33d 4731 15ba
0.048660796 0.00016157934 0.06058915 0.083168566 0.0709306 0.0013073643 0.054342724 -0.027358875
-0.08383284 0.07610711 -0.04972309 -0.029999118 -0.0027638087 0.07536741 -0.013994547 0.0609855
-0.026681814 0.062375177 -0.01177603 0.0030348916 -0.05356085 -0.053034987 -0.034370534 -0.073858365
0.015431691 -0.008710388 0.002433166 -0.08447325 -0.07378244 -0.0056066164 -0.047046196 -0.04663664
0.06811175 -0.07784271 -0.03044184 -0.009300169 -0.021189054 -0.074201696 -0.011644948 -0.08804083
0.07987993 0.06339991 -0.052015826 0.030085282 -0.05947045 0.0762899 -0.014521396 0.016911438
-0.02483271 0.06713966 -0.021338146 0.012782616 -0.031064086 0.023186656 0.08455085 0.013724831
0.03944617 -0.010036838 0.04065163 -0.05334201 -0.036969304 -0.019442383 -0.06137033 0.07080456
-0.0014462486 0.07804886 -0.032214403 0.084083535 -0.04120166 0.0440747 -0.016878892 0.07504617
0.026492635 -0.04754234 -0.0090262005 0.01275998 -0.0058481535 -0.047408428 0.0075981254 0.063830785
-0.031411994 -0.07042618 0.002524251 -0.037121117 0.026753698 0.09165521 0.07623087 -0.013137382
-0.0003325136 -0.07930457 0.07994687 0.058609996 -0.055928834 0.06690018 0.06704644 0.06446593
0.047337275 0.0427234 0.040976953 0.041214004 -0.050285622 0.06721465 -0.04759932 -0.0025429286
-0.0662232 0.084790945 -0.020146163 -0.06097688 -0.020446891 0.03911154 -0.0069193584 0.054102708
-0.009122056 -0.0011431501 0.07093846 -0.03393511 -0.07397623 -0.085963525 0.087008536 0.078078344
0.035804607 -0.05333341 -0.03948037 0.023991577 -0.019463494 0.00382642 0.08785764 -0.0005691242

output_layer.weight f4 [1, 128]
00000000: 2508 f73c 9b7c 653d 38b7 933d 9d4a 02b9
00000010: d5ba 92bd e80e 7f3d 775d 623d 647a 803c
00000020: dc90 8a3b c77d abbd 3f35 1fbd d1c3 743a
00000030: 21eb dabc a5da 9cbd da69 ad3d 29b2 46bc
00000040: 7b70 9e3d 6f91 223d 4990 83bc eb0c 923c
00000050: f7a5 5ebd b7f1 353d a473 093d 336d d13c
00000060: e9ac 023c 3a3c 793d 18c2 8cbd 9c00 a6bd
00000070: d118 e53c 8eb1 83bd f52a e43c 6e7b 133d
00000080: 6881 1dbd 5a74 073d 98ba db3c 18c6 8abd
00000090: c38b 79bb 1e33 433c 5206 703d fb96 8b3d
000000a0: 45db 24bc 1451 97bd af3f 6c3d bf6a 663d
000000b0: 1086 963d f929 8c3d 3ef5 053c 69ab 7e3d
000000c0: d3cc f63c 647c 04bd 1004 cd3a d1f1 533d
000000d0: c2ed bd3c d92e e8bc 23bf 15bd 3fef a3bd
000000e0: cddb 333d 9da8 1a3d 7342 4abd 7715 703c
000000f0: d525 7c3c cc2b 813d 518f 7a3c cb11 42bb
00000100: fffd 94bd e11a a73d 153b d1bc b431 573d
00000110: e3c8 2abd 6e47 3b3d 5e92 5cbb 3298 763c
00000120: 580a 5d3d da98 64bd 3dbc 4dbc 831b 23bd
00000130: acc1 a13d b022 273d 8d13 773d fe91 643d
00000140: 3437 91bd 4039 47bd 6231 8e3d af95 9cbd
00000150: e458 cabc 01f0 51bd fe12 acbd 3c8b 1e3c
00000160: aa43 143d 18bd a73d 4c3c 54bd f1b6 96bd
00000170: 75d3 b13c 7937 12bd c7a3 773d fedc f5bc
00000180: 4c5d 993d ac5b 35bd 0f1c 303d fde8 b23d
00000190: 4bf0 d13a 1ca3 19bd 163a 3cbd eaaa 95bd
000001a0: 745f 803d 3978 86bd 28aa 883c 0b2b 1b3d
000001b0: 2eae 863d 8d82 3bbd 9fbb 16bd 44ef 273d
000001c0: f781 823d 2505 ea3b 62d7 6cbb 829a 4c3d
000001d0: 5110 563d 5bda 55bd eb58 5abd ac62 1b3c
000001e0: 71bb 8a3d 2f2a 213d 5895 563c 5f45 61bc
000001f0: ce34 85bc ff1a 113c 6c74 363d 67ca 62bd
0.03015525 0.056027036 0.072126806 -0.00012425562 -0.07164542 0.062270075 0.055264916 0.01568336
0.0042286944 -0.083735995 -0.03886914 0.000933704 -0.026723446 -0.07658891 0.08467455 -0.012127438
0.07736298 0.039689478 -0.016060011 0.017828425 -0.054357495 0.04441997 0.03355755 0.025564766
0.007975795 0.060848452 -0.06872958 -0.08105585 0.027965935 -0.0643035 0.027852515 0.036006384
-0.03845349 0.033069946 0.026822373 -0.06776065 -0.003807769 0.011914043 0.058599778 0.068159066
-0.010062044 -0.07388511 0.05767792 0.056254145 0.07349789 0.06843943 0.008176146 0.06217519
0.030126965 -0.03234519 0.001564147 0.051744286 0.02318466 -0.028342651 -0.036559235 -0.08004617
0.04391079 0.03775846 -0.049379777 0.014653555 0.015389879 0.06307182 0.015292958 -0.0029612656
-0.072750084 0.081594236 -0.025540868 0.052537635 -0.041695487 0.045722418 -0.0033656578 0.015050935
0.053964943 -0.055809833 -0.012557087 -0.03982116 0.07898268 0.040804565 0.06032138 0.05580329
-0.07090607 -0.048638582 0.06943013 -0.076457374 -0.02470059 -0.051254276 -0.0840206 0.009676751
0.036197342 0.08190364 -0.051815316 -0.07359112 0.021707276 -0.035697434 0.060458925 -0.030012604
0.07488498 -0.04427688 0.04299551 0.08735845 0.0016017047 -0.03750907 -0.045953833 -0.0730799
0.06268206 -0.065658994 0.0166827 0.037882846 0.06576191 -0.0457788 -0.036800023 0.040999666
0.06372445 0.0071417266 -0.003613912 0.049952038 0.052261654 -0.052210193 -0.053307455 0.009483974
0.06774033 0.03934687 0.01309713 -0.0137494495 -0.01626053 0.008856534 0.044544622 -0.055368807
