Checkpoints/HR_V/valence_s13.pth (torch, 461905 bytes, 29 tensors)

input_layer.weight f4 [128, 29]
00000000: 5e83 cfbd cbca 823c 9ea7 da3d df03 ad3d
00000010: 4919 413d 646d 34be dfcb 42bd 15c6 11bd
00000020: 4faa b43d 1337 1c3e 7688 08be 12f4 2bbe
00000030: b66e 093d ff5b 3f3d dd81 813d 8ab1 07bd
00000040: e0f5 c1bd eabb 9fbd 02f0 0cbe 7844 0bbe
00000050: 58bf 163e e6c3 263e ac06 fe3d f5dc 153d
00000060: 2b0d ecbd 9111 7a3c ddbe ab3c 381b 323e
00000070: 8f35 1f3e a131 f1bc 9db2 c63d 8d23 00be
00000080: 5a22 353e 1f28 1cbe 3102 67bc 4071 a13d
00000090: 7f4e 1c3d 9f7f 1fbe 69a5 033e b83b 863c
000000a0: 66aa 1a3e cef7 b4bd 1916 223d c2ca 943d
000000b0: 2c6d efbb df89 41bd 896a afbd c886 15be
000000c0: 7819 a33d b16c 95bd 0b33 afbd fa16 b0bc
000000d0: 1349 a83c 9c50 523c f3ea 0fbe 19f1 333e
000000e0: e4cb c3bd 3993 363e 636d 273e 3170 bcbd
000000f0: 38a2 7b3c 8274 c43c 177d 1e3e 9c2d b23d
00000100: f4fb 4cbc c6bc b0bd 39b5 fcbd c8c2 3a3d
00000110: 196d a13c eb1a 573d 64e7 ab3d aa30 24be
00000120: 6940 f63c 4827 bc3d a98d d03c 6462 fe3d
00000130: ebc9 73bd 6c7c a13d 9e67 903c 3d7d f2bc
00000140: 33f1 653d eeed 1ebe e946 8cbd 2bb6 bc3c
00000150: 6e8e 123d e9da 25be f73c eabc 4b2d dcbc
00000160: 2a7e ef3d 1ddd 3c3e 4e26 9ebd 3335 3ebe
00000170: 40b9 083e 0641 903b 0a70 1cbe 89e1 aebd
00000180: 483b 8bbd 48f5 05be 45f8 dabd daaa 163d
00000190: 067a c13d 3b72 cebd 3c13 1bbe 5750 dc3d
000001a0: db33 f33d ba12 2fbe 210c 12be fa92 403d
000001b0: 4cf7 c63c 4a97 00be d66c 293e 7dd5 e73a
000001c0: dfff c13d d32c 05be a71d 94bd c01b f1bd
000001d0: 54b2 103d a140 d53d 24be 84bd 32d1 bb3d
000001e0: b66c 6c3d db3b d6bd c444 bfbc e0bc 033e
000001f0: 8686 b93b d7f4 34be 5eeb 8cbd 229c 1fbd
00000200: 7247 b93c c8b9 f93d 6730 473c e842 cf3b
00000210: 7a1b 35be 8896 9bbd 2ade cd3d 14c7 e1bd
00000220: 8f18 c73d 3a29 0ebe 4526 8b3c b417 7c3c
00000230: 6fde 153e 6874 13be 22ca 0abe 02f7 05bd
00000240: 171d 903d 252f d3bd 9765 98bd 8904 4e3d
00000250: af34 85bd a546 813d 3416 2fbe edf4 be3c
00000260: 788a 05be c74e 303e b4c9 39be d763 0bbe
00000270: 8f86 81bd 5a49 c8bd dccf a03d 3466 ecbd
00000280: cc39 b6bd 3ae2 14be 6933 d03d 9201 33be
00000290: 5791 c9bd 587a 253e 9b21 c23d 82b8 1c3d
000002a0: 9b8b ecbd 8c79 713d 3468 233e 2e38 53bd
000002b0: ab5a a33d fa9a 16bd 3470 083e b6e0 d93d
000002c0: 16a1 9d3d a3b8 2a3e 5096 073d ef64 223e
000002d0: 55e7 fbbc 09e7 af3c b95f a93d 64fb 2c3e
000002e0: c7df 53bc 3d83 9cbd 4edb 1a3d 815b 803d
000002f0: 8a22 8a3d 5401 e53d 9bd5 253e 1ef8 08be
00000300: 0afc 2abe a3e0 85bd 0b7e 013e 608c f8bd
00000310: 62f3 10bd 1308 32be c17e 903c 9771 273e
00000320: e275 173c 3176 243e e15b 0ebe 1ca6 193e
00000330: 8363 9abd a1f1 9f3b bca5 aabd 9ff2 2dbe
00000340: fae1 acbc 88fb a1bd 2b04 91bd 16ca 333e
00000350: 2d97 ebbd fd12 123e 39c9 f53d 0d1f 113c
00000360: e675 333d fb97 94bd 0f82 37be 1260 ddbd
00000370: b072 0e3e c75e 9fbd fc58 30be 9578 b0bd
00000380: 350d d83d 73ea cb3d 3323 403b fa1e 393e
00000390: 1f39 ef3d 2a7f 4abd 4683 fd3d 7788 09be
000003a0: 1365 fa3d 8735 1d3e 65e1 15bd d09f 2a3e
000003b0: 7b4b e5bd fb54 2f3e 713f 2f3e 99f0 abbc
000003c0: a40f 39be 075b 153e 8a16 183d 2836 1d3e
000003d0: 5789 8ebd 889f 15be d225 febd cdc2 313e
000003e0: 8e87 e93d 5210 27be c07d 3b3e 1b3f 1b3e
000003f0: 469d c939 cce8 63bd 822a ab3d 446a 843d
-0.10132478 0.01596584 0.10676502 0.08448004 0.047143254 -0.17619854 -0.047557708 -0.035589296
0.08821546 0.15255384 -0.13333306 -0.16792324 0.033552848 0.046718594 0.063235976 -0.0331283
-0.09470725 -0.07799514 -0.1376343 -0.13600338 0.1472143 0.16285667 0.12403616 0.036587674
-0.11525949 0.015262977 0.020965034 0.17393196 0.15547775 -0.02944261 0.097020365 -0.12513562
0.17688885 -0.1524968 -0.014099644 0.07882929 0.038160797 -0.15576027 0.12856068 0.016385898
0.15104064 -0.088363275 0.039571855 0.072652355 -0.0073067155 -0.047250625 -0.08565242 -0.14602196
0.07963842 -0.07296122 -0.085546575 -0.021495331 0.020542657 0.012836602 -0.1405447 0.1757244
-0.095603734 0.17829598 0.16350321 -0.09201086 0.0153585 0.023981337 0.15477405 0.087001055
-0.012511242 -0.08629756 -0.12339253 0.045595914 0.019705342 0.052515905 0.08393744 -0.16034189
0.03006001 0.0918718 0.025458174 0.1242111 -0.059518736 0.0788506 0.017627534 -0.029600734
0.05613823 -0.1552045 -0.068494625 0.023036083 0.035780363 -0.16196789 -0.028593523 -0.026877066
0.11693986 0.18443723 -0.0772215 -0.18574981 0.13351917 0.0044022826 -0.15277115 -0.08539111
-0.067984164 -0.13081849 -0.10691885 0.03678403 0.09447102 -0.100803815 -0.15144056 0.10757511
0.11875125 -0.17096987 -0.1426244 0.047015168 0.024287842 -0.12557712 0.16545424 0.0017687526
0.09472632 -0.1300538 -0.07232218 -0.11772871 0.035326317 0.104127176 -0.06481579 0.0917076
0.057720862 -0.10460635 -0.02334822 0.12865019 0.0056617884 -0.17671524 -0.0688083 -0.03896726
0.022617076 0.12193638 0.012157536 0.0063251145 -0.17686263 -0.07597071 0.1005214 -0.11024299
0.09721481 -0.13882914 0.016986022 0.015386511 0.14635633 -0.14399874 -0.1355367 -0.032706268
0.070367984 -0.103117265 -0.07441252 0.050297294 -0.06504189 0.063123025 -0.17098314 0.02331015
-0.13041103 0.17217551 -0.1814335 -0.13612305 -0.06324493 -0.09779616 0.07852146 -0.11542931
-0.08897743 -0.14539424 0.10166056 -0.17481068 -0.098421745 0.16159952 0.09479066 0.038261898
-0.11550065 0.058953807 0.15957719 -0.05156725 0.07976278 -0.03676889 0.13324052 0.10638563
0.0769674 0.16671996 0.033102334 0.15858816 -0.030749956 0.02147247 0.08270211 0.16892773
-0.012931771 -0.07642219 0.0378068 0.06267453 0.06744869 0.11181894 0.16194765 -0.13375899
-0.16697708 -0.06536987 0.12645738 -0.121361494 -0.035388358 -0.17385893 0.017638566 0.16351925
0.009244414 0.16060711 -0.13902237 0.15004772 -0.075385116 0.0048810993 -0.083323926 -0.16987084
-0.021103848 -0.07909304 -0.07080873 0.17557558 -0.11503444 0.14265056 0.12001271 0.008857501
0.04381361 -0.072555505 -0.17920707 -0.108093396 0.13910937 -0.07781749 -0.17221445 -0.08616749
0.10549394 0.09956827 0.0029317855 0.18078223 0.11680817 -0.04943768 0.12378554 -0.13430963
0.122263096 0.1535245 -0.036591906 0.16662526 -0.111960374 0.17122261 0.17114045 -0.02098875
-0.18072373 0.14585505 0.03713087 0.1535269 -0.06959789 -0.14611638 -0.124095574 0.17359467
0.11402808 -0.1631482 0.18309689 0.15160792 0.00038454885 -0.055641934 0.08357717 0.06465581

input_layer.bias f4 [128]
00000000: fb7a 023e 1320 c33c fad2 d03c 9cba 023e
00000010: 05ab c0bd 0e83 313e 8637 2ebe a47b a1bd
00000020: e4e5 b13d 0e80 8c3d 8119 38bd d786 5abd
00000030: 455e c3bd abe7 783d 4247 1f3e 624f 80bd
00000040: 432c 1f3e 738e ff3d d5e8 23be 15f2 f63c
00000050: 3f79 80bd cd5e c03c 7714 d43c b968 303d
00000060: 9cb1 503d 9010 413d d611 a23d ab3d 24bb
00000070: 83c6 a0bd 578d 14be 8994 e93c 65f8 523d
00000080: 1b73 f23c bc0d 1f3e 8625 14be a312 eb3d
00000090: 7007 cc3c f9f2 c2bd bce4 ec3d 3d47 ae3d
000000a0: a541 63bb 8beb 7eba adc9 cb3c 09ab 043e
000000b0: 7f04 d73d 2d0f 063c dd1f 853c 6346 5fbc
000000c0: a42c 9d3d a008 f2bd 6305 0c3e c5c9 01bd
000000d0: e3d4 2a3d 5654 2fbe aba0 e8bd e82e 12be
000000e0: 63ca 163e 2fb6 d2bd e33d 2e3e 92c0 97bd
000000f0: 3b01 24be bce4 e03d 367a 8f3d 26f3 cdbc
00000100: 188c 25bb 9bc0 e73c 9547 003c 900b c9bd
00000110: 2998 8dbb 275e dd3d 3739 e1bd f30c 053d
00000120: df0b 03bd b1bc 0f3e 711f a2bd 431d e73c
00000130: a570 223e d338 a33a c44c f83d 5069 01bd
00000140: 2199 753b 8a6d 27bd 20e1 a1bd 4b69 223d
00000150: 73e9 143e 7f3a a03d 0026 93bd c118 833d
00000160: d625 ddbb 64fe 143c a36d 26be d8b6 dabc
00000170: 028f 573d 93ab d4bd 8459 08be 3611 01be
00000180: 7ad3 063d 3357 24bd 1204 b5bd 0cf4 2abe
00000190: 011d 9fbd 2795 983c 09d7 c5bd b228 d4bd
000001a0: 5caf a33c c42c 293e 8d37 343d 82cf 1f3d
000001b0: c218 a1bd cd9d a23c 37d2 343e 336b 2d3e
000001c0: 1f3b 25be 4ab3 8cbd 1498 1fbe bfd8 92bd
000001d0: 86b3 48bd 41cd 7abc 438b 1cbe fcf9 543d
000001e0: 01e8 5dbd fdcc cf3c 51c7 17be 46fa 5d3d
000001f0: f1ac 29bd 9b7c 2bbd b802 d2bd 3a8a 2dbd
0.12742226 0.023819005 0.025491226 0.12766498 -0.094076194 0.1733515 -0.17013368 -0.07884911
0.08686426 0.06860362 -0.044946197 -0.05335125 -0.09539465 0.06076781 0.15554526 -0.06265141
0.15544228 0.12478342 -0.16006787 0.03014473 -0.06273126 0.023482705 0.025888665 0.04306862
0.05095063 0.047134936 0.07913558 -0.002506117 -0.07850363 -0.14507042 0.02851321 0.05150642
0.029595902 0.15532583 -0.14467439 0.11478164 0.02490589 -0.095189996 0.11567065 0.085096814
-0.0034676578 -0.00097244297 0.02487644 0.1295587 0.104989044 0.008182329 0.016250545 -0.013627621
0.0767453 -0.11818051 0.1367393 -0.031686563 0.04170693 -0.17122015 -0.1135877 -0.14275706
0.14725642 -0.10288655 0.17015795 -0.07409777 -0.16016094 0.109811276 0.07005732 -0.025140356
-0.0025260504 0.028290084 0.0078295665 -0.098166585 -0.0043211174 0.10808974 -0.10997241 0.032483052
-0.031993743 0.14036824 -0.07916153 0.028212195 0.15863283 0.0012452848 0.12124017 -0.031594574
0.0037475305 -0.04087595 -0.07904267 0.039651196 0.14542179 0.07823657 -0.07184982 0.06401206
-0.006748895 0.009093855 -0.1625276 -0.026698515 0.052626617 -0.10384288 -0.13315398 -0.12604222
0.032916524 -0.040122222 -0.08838667 -0.16694659 -0.07769204 0.018625809 -0.09660155 -0.103593245
0.019981079 0.16520983 0.04399829 0.039016254 -0.0786605 0.019850636 0.17658316 0.16935425
-0.16135834 -0.06870134 -0.15585357 -0.07170247 -0.048999332 -0.015307725 -0.15287499 0.051996216
-0.054176334 0.0253663 -0.14822127 0.054193757 -0.041424695 -0.04186688 -0.10254425 -0.04236815

projection_layer.0.weight f4 [128, 128]
00000000: 74b0 003d 3aa2 1f3c f9ba 9f3d f533 a93d
00000010: 0b1c 5cbc baa9 8f3d 1670 29bd 6b37 05bd
00000020: 68c7 9f3d 9b5d 253d 664c d9bb 6eb4 52bc
00000030: 5993 69bd b4fe 64bd f112 353b d60d 683c
00000040: 3546 7cbd 9814 213d 2637 ae3d 1238 8abd
00000050: 846f ebbc 9303 51bd bc1d 59bd e797 88bc
00000060: 53ac 9cbc aabd 8cbc 3303 123d e8d3 993d
00000070: 7693 24bd 6206 98bc 66ad a2bd 50e2 cc3c
00000080: c7e6 a0bc b113 81bd d08b b1bc 3c4a 713d
00000090: 1d22 9bbd 38db f53b 128c 5bbd 5532 4f3d
000000a0: 4e84 87bd 9cf8 cc3c 8c41 0a3d 0415 ab3d
000000b0: 5651 413d ba6c cebc 97a7 9cbd 589e 38bd
000000c0: b526 b0bd f674 a7bd 5c9e 39bd 1697 243d
000000d0: b7b4 95ba 5c97 c93c 5f17 f5bb bd29 843d
000000e0: 9890 4cbd 6da2 b0bd a33b 043d c385 9a3c
000000f0: 9df3 90bc d9ca 96bd aa85 a4bd 6b45 9e3d
00000100: f847 a53c f9c7 56bd 0232 b0bd 5582 5a3d
00000110: c6c7 d5bc 26ce 96bd ae0b 08bd 5cec b4bd
00000120: 214e 073d faf6 b5bd 570d 833d f2d6 dbbb
00000130: bd5f 55bd 4cb6 bbbd 8485 82bd e29e b93c
00000140: fc35 dcbc e997 5fbd 0ef5 373d 48f7 013d
00000150: 0e81 fcbc c2a8 a3bd dd21 a03d df16 cabc
00000160: e3a5 273d e7fc 9cbd 8a3e 4c3b db0b bb3c
00000170: 457c 8e3d 9880 e33c 51c9 a83d 230a 2abd
00000180: c878 703d 0f1e 4bbd cc8d e33c cc7f 903d
00000190: a509 7bbb b0b1 96bd 863b 543d d75c f5bc
000001a0: ef89 7bbd e730 82bd 6a5c f93c 588d 8a3d
000001b0: 353f 943d 9dd7 9a3c 646c 0b3c c693 4abd
000001c0: 6d46 853c a0e7 663d a851 88bd 8498 863d
000001d0: 5218 a03d c5b3 6d3d e647 b63d 9591 4bbd
000001e0: c59d c33b 1c44 d3bb f05d debc 2df6 203d
000001f0: 0950 4abc 353e e53c 64fa 91bd 1e6e 953b
00000200: 2610 5bba 57e5 71bd a11b 4a3c e45c 5dbd
00000210: fd5d 84bd b4cd 1ebd 96bc ec3b ae25 9ebd
00000220: 8ae9 a0bd ee6c 793c 39ba bfbc 0d77 37bd
00000230: 7961 df3c d604 b1bc c674 9c3d f297 1c39
00000240: 8155 b63d 324a 6e3d 8603 563d ba6b 403d
00000250: 3ff2 8d3d f8ce 8f3b 5f39 953d fcfc db3c
00000260: 8d04 6fbc 5163 66bd 338c 81bd 989f 8c3d
00000270: cc61 883d 0128 5d3d e621 05bd 3f8c 6e3d
00000280: 0741 853c f145 b13d 2aef 1a3d 5fec 3b3d
00000290: 85f3 6ebc 36d6 d1bc f788 08bd 9647 17bc
000002a0: 5e45 aa3d a955 50bd 1570 1abd db73 d93b
000002b0: bc49 94bc ecb9 f03c 93ff af3d d65a bd3c
000002c0: 84b2 6c3d 8ea0 813d 72e8 683d a337 903d
000002d0: 747c a4bc afd1 93bd 9059 35bd 1295 7fbd
000002e0: af6b aa3d 4c0e 973d ab45 71bd 55f0 31bc
000002f0: 7c69 723d 45e9 933c 3ba5 a9bd 3d46 72bd
00000300: aee8 46bd 1f48 0a3d 1ee8 8b3d 3106 da3c
00000310: 3278 833c b066 6abd bf5a ad3d 4088 683d
00000320: cfa5 9dbc 21d1 a53d 348a 0e3d ee9c 913d
00000330: d19f 2cbd 62f3 213d b65b b13d fd37 813d
00000340: 2dab 343d de0c 55bd d525 173d a7a4 a73d
00000350: 7cd6 86bd fe71 cbbc 689c 8dbd d44c 2ebc
00000360: eab0 873d 3b88 013d a1ca cb3c dbb0 ab3d
00000370: 76db 21bd c18e e93c ba86 b03d 2517 763a
00000380: 39b7 3b3d f332 3bbc 9524 f2bc 350c a73c
00000390: 1b73 ad3c 1445 453d 870a 99bc 27cc 7f3c
000003a0: 7f47 e2bc 1c7d f43a e6f2 11bd dbf3 47bd
000003b0: 33a8 cdbc b67c 183d 2de8 653d 0991 aa3b
000003c0: 9f4d a9bb b2a6 db3c 2d1e e13b af8c b03c
000003d0: 617e 263c e28b f0bc 6f4d 9439 bd42 783d
000003e0: f630 86bd fb6a b33c 95dc b03d 17e0 2fbc
000003f0: 3bcf 26bb c801 24bd 743b 763d a94d abbc
0.03141828 0.009743268 0.07799334 0.08261863 -0.01343442 0.07014795 -0.04136666 -0.032523554
0.078017056 0.040372472 -0.006631422 -0.012860401 -0.057025287 -0.055906966 0.0027629698 0.014163455
-0.061590392 0.03932628 0.085066125 -0.06748976 -0.028739698 -0.0510288 -0.053006873 -0.016673995
-0.01912514 -0.017180283 0.035647582 0.07511121 -0.040179692 -0.018557731 -0.079432294 0.025010258
-0.019641293 -0.06302584 -0.021673113 0.058908686 -0.07574866 0.0075029396 -0.05360038 0.05058511
-0.06617032 0.02502089 0.033753917 0.08353618 0.04719671 -0.02519833 -0.07649153 -0.045072883
-0.08601133 -0.081766054 -0.04531704 0.04018315 -0.0011421655 0.024608307 -0.0074795927 0.064532734
-0.049942583 -0.0862473 0.032283437 0.01886261 -0.017694289 -0.07362909 -0.08033307 0.07728084
0.020175919 -0.052436803 -0.08603288 0.05334695 -0.026096236 -0.073635384 -0.033214264 -0.088341445
0.033033494 -0.08884998 0.06399029 -0.006708973 -0.052093256 -0.0916563 -0.06373122 0.022658769
-0.02688121 -0.054588232 0.044911437 0.031729966 -0.030823257 -0.079911724 0.07818959 -0.024669109
0.040929686 -0.07665425 0.0031165206 0.022832802 0.06957296 0.02777128 0.08241523 -0.041513573
0.058708936 -0.049589213 0.027777575 0.07055625 -0.003830531 -0.0735811 0.05181458 -0.029951496
-0.06141084 -0.06356984 0.030439574 0.067652404 0.07238618 0.01890164 0.008509729 -0.049457334
0.016268933 0.05637324 -0.066562 0.06572059 0.07817139 0.05803277 0.08900432 -0.049699385
0.0059697353 -0.0064473283 -0.027144402 0.03929727 -0.012348183 0.027983764 -0.07127836 0.004560246
-0.00083565933 -0.059056606 0.012335689 -0.054043666 -0.06463239 -0.038770393 0.0072246296 -0.077220306
-0.07857044 0.015223725 -0.023404228 -0.04479127 0.027268158 -0.021608751 0.0763946 0.00014933923
0.08903027 0.058176227 0.052249454 0.046977736 0.069309704 0.0043886863 0.07286333 0.02685403
-0.014588487 -0.05624706 -0.06325569 0.068663776 0.06659278 0.05399323 -0.03250303 0.058239218
0.016266359 0.086559184 0.03782574 0.045879718 -0.014584427 -0.025614839 -0.033333745 -0.009233376
0.08314012 -0.050862942 -0.037704546 0.0066361255 -0.018101566 0.02938553 0.08593669 0.023114603
0.057787433 0.063294515 0.056862302 0.07041862 -0.020078875 -0.07217728 -0.044274867 -0.062398024
0.0832132 0.07375774 -0.05890433 -0.010860522 0.05918263 0.018055568 -0.08283468 -0.059149016
-0.048561744 0.033760186 0.06831382 0.02661428 0.016048525 -0.057226837 0.08464574 0.056770563
-0.019244103 0.08096529 0.03479977 0.0711001 -0.0421446 0.03953875 0.086600706 0.06309507
0.04410856 -0.052014224 0.036901314 0.08185702 -0.065838784 -0.02483463 -0.06914598 -0.010638434
0.066255406 0.03162406 0.024876894 0.08383342 -0.039515935 0.028510453 0.08619447 0.0009387604
0.04582903 -0.011425721 -0.02955846 0.020391563 0.02117305 0.04816158 -0.018681778 0.015612639
-0.027621983 0.0018653008 -0.035632037 -0.048816543 -0.025104618 0.03722831 0.056129623 0.005205278
-0.005166724 0.026812885 0.0068700523 0.021551458 0.010161967 -0.029363576 0.00028286452 0.06061052
-0.06552307 0.021901598 0.08635823 -0.0107345795 -0.0025453109 -0.04004076 0.060115293 -0.020911055

projection_layer.0.bias f4 [128]
00000000: 95e7 6f3d 5f45 68bd 3de7 72bd 6fc2 ec3c
00000010: 8abc 97bd f8a9 adbc fd27 40bc e4d6 a33c
00000020: 6652 a6bd af78 e13b a2ff 45bd 926c a3bd
00000030: 8b58 9ebd d687 633d ed83 3dbc bd9f a5bc
00000040: 99b1 53bc f745 123d d722 243d 265c 723d
00000050: ac1a 463d d957 133b ea35 3f3d d49a d53c
00000060: c18a 6f3d 1647 4b3d 9e29 4e3d e82e 08bd
00000070: 2466 a53c 2302 3d3c fa5f b73c 62a8 b8bc
00000080: 04f0 4c3d 2fef ed3c cbcc 4a3d cc51 da3c
00000090: 25a1 25bd 5a90 0bbc c1cf d43c 0055 5e3d
000000a0: fedc 3c3b f84e eabc 778b afbc 5843 c0bc
000000b0: 2239 64bd cfe7 133c c54c 9ebd b081 b63b
000000c0: 3d72 0abd 0b4d 84bc 7204 9dbd 5c79 57bd
000000d0: dacf 74bd f910 fabc 5a37 423d 2fa4 fe3b
000000e0: 9320 8abd 08a5 49bc 38ea b63c c0ce 80bd
000000f0: ecb3 843d c83b f93c ec01 8fbd 6067 3c3d
00000100: c0c7 3d3d f49d 0dbd c170 b63b 8b29 b9bb
00000110: 21cc 073d 68a2 53bc a227 5b3c a429 17bd
00000120: 00cb 0a3d fbf7 7f3c 36d1 46bd b4e3 383d
00000130: 5a6a 6bbd d314 853d 98d0 143d 6f5a c13c
00000140: 2e44 a53d 87b9 77bd 2db2 5a3d 904d b8bc
00000150: c548 6abc 6411 97bd ac07 9b3d a34e 7bbd
00000160: d264 153c 6b7a 933d f528 423d da21 033d
00000170: c4ee 913d 4fab a1bc 2fce 223c f98f 2e3c
00000180: a071 833d 1e26 26bd 1aed 853d 1f27 ecba
00000190: cc1a 96bd d497 9dbd 7a6d cb3c 4041 85bd
000001a0: 6420 db3c 412d 37bd 8b64 fdbb 03b9 82bc
000001b0: 373b 543d b45c 85bd 36e8 483d ce02 83bd
000001c0: bc10 a3bc 1f93 5abd 2269 293d d047 ea39
000001d0: 817f a5bd 803e 5ebd 182a 0ebd 7f6a 6fbd
000001e0: 9a22 583d 5aca a23c b86c 9cbd 90b6 5c3d
000001f0: 14a1 a4bc ca6e 87bd de05 9bbd 2074 94bd
0.058570463 -0.056706782 -0.059302557 0.028901307 -0.07409008 -0.021199211 -0.011728284 0.019999929
-0.08121185 0.0068808417 -0.048339494 -0.079796925 -0.07731732 0.055549465 -0.011567098 -0.02021777
-0.012920761 0.035711255 0.04007229 0.05916991 0.04836528 0.0022482781 0.046682276 0.026074804
0.058481935 0.04962834 0.050332658 -0.03324786 0.020190306 0.011536154 0.022384632 -0.022541229
0.050033584 0.029044716 0.049511712 0.026650332 -0.040436883 -0.008518303 0.025977971 0.05428028
0.0028818245 -0.028602108 -0.021428807 -0.023469612 -0.05571855 0.009027435 -0.077294864 0.005569659
-0.033800352 -0.016150018 -0.076668635 -0.05260597 -0.059768535 -0.030525671 0.04741607 0.007771037
-0.06744494 -0.012307413 0.022328481 -0.062894344 0.0647963 0.030424014 -0.069827884 0.045997024
0.046333075 -0.034574464 0.0055676405 -0.0056507043 0.033153657 -0.012917139 0.013376148 -0.036904946
0.033885002 0.015623088 -0.048539363 0.04513903 -0.05747447 0.064981125 0.036331743 0.023602692
0.08069645 -0.060479667 0.053392578 -0.022497922 -0.014299576 -0.07376364 0.07569823 -0.06135429
0.009118276 0.07201084 0.04740234 0.032014705 0.07125619 -0.019735007 0.009936853 0.010654443
0.064181566 -0.040563695 0.06539364 -0.001801703 -0.0732933 -0.076949745 0.024832476 -0.06506586
0.026748843 -0.044720892 -0.007732933 -0.015957361 0.051814284 -0.06511822 0.04904958 -0.06397019
-0.01990544 -0.05336296 0.041360028 0.00044685462 -0.0808096 -0.054258823 -0.034708112 -0.058451172
0.052767374 0.01987188 -0.07637924 0.053885043 -0.02009634 -0.06612928 -0.075694785 -0.072487116

projection_layer.1.weight f4 [128]
00000000: 490b 7f3f 5e6c 7f3f 3c33 803f 3ac9 7f3f
00000010: f6c1 7f3f 5d8f 7e3f 334f 7f3f b881 7f3f
00000020: b119 803f e746 7f3f 8b6a 7f3f 691f 803f
00000030: 7694 7e3f 6c18 7f3f cf63 803f 9dba 7e3f
00000040: 79a0 7f3f 9827 7f3f ba16 803f 1f7d 7f3f
00000050: d015 7f3f d872 803f 17a0 7e3f 7dba 7f3f
00000060: 91b0 803f 8eb7 803f 9706 803f a994 7e3f
00000070: 6866 7f3f 1e7c 7f3f 2b45 803f a64b 803f
00000080: eab4 7f3f b03d 7f3f fd47 7f3f 3957 803f
00000090: 77fe 7f3f 7d41 803f 53f8 7e3f 3149 7f3f
000000a0: 0be6 7f3f 1918 803f c501 7f3f 5d28 7f3f
000000b0: 5f92 7f3f bb59 7e3f 6d35 803f 7781 7f3f
000000c0: d68e 7e3f 0f3b 7f3f cea5 7f3f 372a 7f3f
000000d0: c9d0 7e3f 172a 7e3f 717a 7f3f afde 7f3f
000000e0: 5883 7e3f b002 803f 090a 803f 892c 803f
000000f0: 88ab 7f3f 14da 7f3f ab14 7e3f 328e 803f
00000100: 4f0a 803f 1f33 803f 51af 7e3f 3159 7f3f
00000110: b554 7e3f 44a9 7f3f d6ca 7f3f 836c 803f
00000120: 8390 7e3f f7bb 7e3f 5b9b 7f3f 88e9 7f3f
00000130: b25b 803f c5cc 7e3f 7f42 7f3f c8ed 7f3f
00000140: 3eb8 7e3f 9576 803f e8de 803f a4ef 7e3f
00000150: 9186 7f3f 5cfb 7f3f 837d 7e3f e887 7f3f
00000160: 246c 7f3f 85e5 7f3f ac8a 7e3f 5de5 7e3f
00000170: 9445 7f3f 30c1 7f3f a3c9 7f3f f2cb 803f
00000180: 2d25 803f 9843 7e3f f03d 803f 439c 803f
00000190: fde5 7f3f 2136 803f fab6 7e3f d76b 7e3f
000001a0: dde0 7e3f b79a 7f3f 8a59 7e3f bdc0 7e3f
000001b0: f089 803f 3e01 803f 6c21 803f e2e6 7e3f
000001c0: a740 803f de4f 803f f3d7 7f3f 4921 803f
000001d0: 1b6f 7e3f 4aa9 803f 0323 7e3f 798a 7e3f
000001e0: 00c1 7e3f 565a 7e3f 38b1 803f 9d3f 7f3f
000001f0: 915a 7e3f 91c3 7f3f dd28 803f 993d 7f3f
0.99626595 0.9977473 1.0015635 0.9991642 0.99905336 0.99437505 0.99730223 0.9980731
1.000784 0.99717563 0.99771947 1.0009586 0.99445283 0.9964664 1.0030459 0.995035
0.99854237 0.9966979 1.0006936 0.99800295 0.9964266 1.0035048 0.9946303 0.99893934
1.0053884 1.0056016 1.0002011 0.9944559 0.99765635 0.9979876 1.0021108 1.0023086
0.9988543 0.997035 0.9971922 1.0026618 0.9999766 1.0019985 0.9959766 0.99721056
0.9996039 1.0007354 0.99612075 0.99670964 0.9983272 0.9935567 1.0016304 0.9980692
0.994367 0.9969949 0.9986237 0.9967379 0.9953733 0.99282974 0.99796206 0.99949163
0.99419165 1.000082 1.0003062 1.0013591 0.9987111 0.99942136 0.99250287 1.0043395
1.0003146 1.0015601 0.9948626 0.9974547 0.99348 0.99867654 0.9991888 1.0033115
0.9943926 0.9950556 0.9984643 0.99965715 1.0027983 0.99531204 0.9971084 0.999722
0.9949988 1.0036188 1.0068026 0.9958441 0.9981471 0.9999292 0.99410266 0.9981675
0.99774384 0.99959594 0.99430346 0.9956873 0.9971554 0.99904156 0.9991705 1.0062239
1.0011345 0.9932189 1.0018902 1.0047687 0.9996031 1.0016519 0.9949795 0.993833
0.99561864 0.9984545 0.99355376 0.99512845 1.0042095 1.0000379 1.00102 0.9957105
1.001973 1.0024374 0.9993889 1.0010158 0.99388283 1.0051663 0.99272174 0.9943004
0.99513245 0.9935659 1.0054083 0.9970644 0.99356943 0.99907786 1.001247 0.99703366

projection_layer.1.bias f4 [128]
00000000: 3ba7 aebb c124 11ba da40 8f3b d3e1 df39
00000010: bb97 ccbb ec13 dabb 2f94 6bbb d9e0 803b
00000020: f3c3 363a 6167 4cbb 7fc2 18bb d4ee 2f3b
00000030: 579b 60bb eefb 07bb 25dd 863b 4981 24bb
00000040: 6f4d c0ba e9b2 87b9 d59d df3a b865 423a
00000050: 2185 41ba dac7 753b f9e1 babb dc53 96b9
00000060: 0f21 ec3b 5723 b43b d772 0cba 9a22 debb
00000070: 675d 1cbb 9c49 beba 1e98 893a a35c 863b
00000080: aa4e 8dba 48d7 2fbb 36ec f5ba 0896 1d3b
00000090: 5d5d 06ba e9a7 8d3a b109 33bb 2171 cbbb
000000a0: 82c2 72ba 2baa f33a 2c32 c6ba 79bf 4dbb
000000b0: 8adc 16bb 3281 9cbb d4bf aa3b 0579 bcb9
000000c0: 1ba6 a4bb 7a0d 09bb bbfa 8a3a c0e8 fdba
000000d0: f525 b4bb 400a d9bb 18cd 8aba d33c 0ab9
000000e0: 8720 aebb b8e4 8fba b46a a2ba d281 db39
000000f0: 87cd b1bb 68a0 22bb d029 dbbb a316 ac3b
00000100: 9fbb 1039 be36 493b 560d c4bb 5ad0 4a3a
00000110: 9e89 99bb 23eb c4bb 7f8e 4339 80f6 933b
00000120: 7371 c7bb 6da7 acba 9da4 beba 5738 a83a
00000130: 6fe9 723b 3fd8 88bb a076 25b9 d879 9f3b
00000140: 97df 89bb 51f0 3c3b 34e6 603b 4647 0d3b
00000150: be6d a53a f3a3 063b f1dd d8ba 9e72 ab39
00000160: 3b35 ae3a 9103 6c3b 8a8f 90bb 4e42 9ebb
00000170: eabb 0fbb ee74 c5ba 1d5b 2fbb 7cc6 de3a
00000180: c5da 863b 95ec cbbb cb68 9939 3f3b a8b9
00000190: b8aa d3ba f80a 0abb 1cab a6bb 2710 dbbb
000001a0: b94a 4ebb 99de 3639 35b0 d6bb 3901 a8bb
000001b0: 6e84 943b 92e5 593b ed1b cb39 d69a e3bb
000001c0: 6e31 b83a 7498 b43a 7ac7 3fbb bf32 6939
000001d0: 3be3 ebbb 90dc 693b 5fd3 dfbb 495a 98bb
000001e0: 8e5a 13bb 123d dabb b588 e03b 1d41 25bb
000001f0: dad0 e3bb 0b18 013a 90fa feba 8713 b3ba
-0.005329994 -0.0005536788 0.0043717446 0.00042702127 -0.0062436736 -0.006655207 -0.0035946479 0.003933054
0.0006971948 -0.0031189548 -0.0023309288 0.0026845234 -0.0034272277 -0.0020749527 0.004115718 -0.0025101474
-0.0014671515 -0.00025882505 0.0017060587 0.000741567 -0.00073822035 0.0037503154 -0.0057032076 -0.0002867271
0.0072060893 0.005497377 -0.00053576886 -0.006779027 -0.0023859383 -0.0014517787 0.0010497605 0.0041003986
-0.001078089 -0.0026831198 -0.0018762413 0.0024045724 -0.00051256065 0.0010807487 -0.002731901 -0.0062085544
-0.00092605513 0.0018590143 -0.0015121154 -0.0031394644 -0.0023019635 -0.0047761435 0.005210856 -0.0003594832
-0.005024684 -0.0020912574 0.0010603288 -0.0019371733 -0.005497689 -0.0066235363 -0.0010589687 -0.00013183364
-0.005313936 -0.0010978198 -0.0012391419 0.0004186766 -0.005426112 -0.0024814848 -0.006688334 0.005251722
0.00013802804 0.0030702795 -0.005983035 0.0007736735 -0.0046855947 -0.006009476 0.00018649733 0.004515469
-0.0060865222 -0.0013172455 -0.0014544908 0.0012834173 0.0037065407 -0.004176169 -0.00015779817 0.00486682
-0.004207562 0.0028829763 0.00343169 0.0021557375 0.0012621207 0.0020544499 -0.0016545636 0.00032701058
0.001329101 0.0036012868 -0.0044116424 -0.0048296815 -0.0021932074 -0.0015064755 -0.0026757189 0.0016996409
0.004115435 -0.006223271 0.0002926051 -0.000320876 -0.0016148901 -0.0021063667 -0.005086316 -0.006685275
-0.0031477644 0.00017439797 -0.0065517672 -0.005127099 0.0045323884 0.0033248407 0.00038739984 -0.006945948
0.0014052817 0.0013778345 -0.0029263184 0.00022239516 -0.007198719 0.0035684444 -0.0068306173 -0.0046494347
-0.0022484395 -0.006660112 0.0068522342 -0.0025215812 -0.0069523873 0.0004924542 -0.0019453336 -0.0013662436

projection_layer.1.running_mean f4 [128]
00000000: 53dd 00bb ead3 11bd 0e66 95bd d155 973d
00000010: 3f59 06bd 9cd8 81bc b0ac d1bb ce97 aebc
00000020: 0365 733c 0402 89bd 2485 7ebd 4a43 6abd
00000030: dd71 67bc 1610 d03d 204a 5e3d 778e c5bd
00000040: 6002 36bd 6d5b a23c ba9c 773d 8c42 913d
00000050: 7e71 2e3b 8c18 a33a 2edb a4bc 6931 5a3d
00000060: 1722 953d 28be 61bc fd42 e13c e62d bb3d
00000070: 00e4 673d 7d8d f63c ae28 78bb 50b8 42bd
00000080: d914 e23c 9b39 4c3d bbc6 2d3d 9795 8a3c
00000090: 7100 9abd f2eb ad3c 5602 033d 8734 52bc
000000a0: 6ac6 08bd 2e53 43bd 1606 aabc 31e5 87bd
000000b0: c3dd 49bd 410b c23c 89e6 babd d4f2 80bd
000000c0: 4f85 15bd b711 aabb 1098 5fbd 0805 c8bd
000000d0: 1561 b2bd 15cd efbb a95f 13bd 8a9a de3c
000000e0: 0654 1abd c8ae 083d 171f e63b 5f3f 3abd
000000f0: 1db7 c63b 4f58 d23c 54f8 1ebd aa74 ebbc
00000100: 551b 363d 3eee 85bd e728 dbbc 5815 99bd
00000110: 0b55 823d 34b5 5bbd be68 52bc deb1 113c
00000120: 08a1 943a 6817 2d3d 0baa 843c d450 99bb
00000130: d297 b0bd 5d53 423d 42e1 113d 8f53 c03c
00000140: a417 37bd e397 143d f3f5 263d 73df 623a
00000150: 81a7 5ebd 286e 28bd 155e 9ebb 1a60 11bc
00000160: 8712 493c 0240 be3d f5e5 dc3c a0a4 c9bc
00000170: 27a1 a53c 1bbe 923c 02e3 503c 9cab 0a3d
00000180: dbe4 743c 7f3d 7a3c b9c7 9a3c 9eae 26bc
00000190: 70b3 d0bc 1692 9bbd 4546 653d 0126 15bd
000001a0: 0278 14bd 790c 2a3d f671 e9bc bd2d e2bc
000001b0: aaeb d83c c24a 673c eadb 953b 194e 0ebd
000001c0: 98ed e63a 84b0 c7bd d152 a83b 725c 013c
000001d0: 8535 2dbd a8e9 00bd 0581 093d 89e7 1ebd
000001e0: 683e 1d3d b831 0c3d 8bc8 43bd c687 013b
000001f0: 1607 1b3d a8de d0bd 5412 a3bd 3f32 97bd
-0.001966317 -0.035602488 -0.07294856 0.07389415 -0.032799955 -0.015850358 -0.00639876 -0.02131262
0.014855626 -0.066898376 -0.06213869 -0.057193078 -0.014126268 0.10159318 0.05426991 -0.09646314
-0.04443586 0.019818986 0.0604522 0.07092771 0.002661794 0.0012443229 -0.020124044 0.053269777
0.07281893 -0.013778247 0.027497763 0.09139614 0.056613922 0.030096764 -0.0037866044 -0.047539055
0.027597832 0.049859624 0.042425852 0.016917033 -0.075196154 0.021230672 0.03198465 -0.012829906
-0.033392347 -0.04768675 -0.020754855 -0.06635512 -0.049283754 0.023687007 -0.09126002 -0.06296316
-0.036504086 -0.0051901 -0.054588377 -0.09766585 -0.08709923 -0.007318149 -0.0359799 0.0271733
-0.037677787 0.03336981 0.007022749 -0.04547059 0.0060643093 0.025676874 -0.038811043 -0.028742153
0.04445966 -0.06539582 -0.026752902 -0.07474774 0.06363877 -0.053639606 -0.012842355 0.0088925045
0.0011339495 0.04225865 0.016194364 -0.004678825 -0.086227074 0.047442783 0.035615213 0.023477344
-0.04470028 0.036277663 0.0407619 0.00086545123 -0.054358963 -0.04112068 -0.004832993 -0.00887301
0.012272484 0.09289552 0.02696512 -0.024614632 0.020218445 0.017912915 0.012749435 0.033855066
0.0149471415 0.015273451 0.018894063 -0.010173468 -0.025476187 -0.07596223 0.055975217 -0.036413196
-0.03624726 0.0415158 -0.028496724 -0.0276097 0.02647956 0.014116945 0.004573335 -0.03474245
0.0017618416 -0.097504646 0.0051368256 0.007895576 -0.04228737 -0.031472832 0.03357031 -0.038795028
0.038389593 0.034227103 -0.047798675 0.0019764765 0.037848555 -0.10198718 -0.0796248 -0.073826306

projection_layer.1.running_var f4 [128]
00000000: 7134 073f 6c29 fc3e 73f3 ee3e 7bd5 f83e
00000010: 57d8 f93e e612 f73e e7d3 ff3e e929 f53e
00000020: a7e8 003f 3c99 f83e 0330 043f e49e f33e
00000030: 9902 053f c05f 003f 545e fd3e 201c 013f
00000040: 0a3d fa3e 20ba f93e 91c0 fb3e 23e4 f73e
00000050: 0e6b fc3e 7fa4 013f b500 0e3f 2d32 f63e
00000060: a111 fa3e b84d f43e f194 023f 75d8 f53e
00000070: 8854 fe3e d174 f53e 34e5 043f 1cc9 f83e
00000080: 68cd fc3e 5b44 f93e b724 ff3e ab7d 003f
00000090: 5400 f53e 5bca fd3e 5eae 073f ebdb fd3e
000000a0: 9354 023f 6d81 f73e 406d fe3e 7070 fe3e
000000b0: 51a9 043f 1ec5 0c3f f6e0 f83e b7b1 f53e
000000c0: d8ea 023f b06c fb3e eb30 fb3e 4bb9 033f
000000d0: 37a4 ff3e 834a e93e 02ee 023f 7250 fb3e
000000e0: 43ce f73e 2fc7 f83e 5b55 043f 0f76 ec3e
000000f0: c988 f53e 965d fb3e 5203 f43e 5a02 0a3f
00000100: 7991 003f 397a 003f a979 f73e b42f f63e
00000110: 394e f23e 92ff fd3e 1af3 003f 6bc6 023f
00000120: f767 003f a1ee ff3e 17f5 ee3e db8b f83e
00000130: 08b6 0d3f f611 003f 4b09 f73e 8c9a fc3e
00000140: 2e13 043f a387 f63e 0734 023f 2ad0 053f
00000150: 60b8 f13e 603f 053f ec96 003f 6575 003f
00000160: de5a fe3e 4db7 023f a435 fb3e 2414 fc3e
00000170: 16dc f63e 73da 073f 1765 fa3e 29e9 f83e
00000180: 644d 013f ebfc 033f 8bf0 043f f55a f53e
00000190: d47a f73e 3a3c f13e 9719 033f 52e6 ec3e
000001a0: ed46 fc3e 6c03 073f a682 f83e 00d6 063f
000001b0: 61c3 fa3e 5579 063f a72b f63e 17c7 fb3e
000001c0: 6698 ff3e 406d ff3e c6f3 ff3e 1279 063f
000001d0: ae02 f93e 1d03 f93e eaa2 f53e d0ca ff3e
000001e0: 4dfc eb3e 78de f73e 5958 f73e 0ad8 093f
000001f0: e55a 023f d02e fe3e 68f3 003f 9680 003f
0.52814394 0.49250352 0.46670112 0.48600373 0.48797867 0.48256606 0.49966356 0.47883537
0.50355 0.4855441 0.5163576 0.4758216 0.5195709 0.501461 0.4948603 0.5043354
0.48874694 0.48774815 0.49170354 0.48416242 0.49300426 0.50641626 0.5546983 0.48085156
0.48841575 0.47715545 0.51008517 0.48016706 0.49673867 0.47940686 0.51912236 0.48590934
0.49375463 0.48684964 0.498327 0.50191754 0.47851813 0.49568447 0.5300044 0.49581847
0.509103 0.48340932 0.49692726 0.49695158 0.51820856 0.54988277 0.48609132 0.47987148
0.51139593 0.4910636 0.4906076 0.5145461 0.49929973 0.4556466 0.5114442 0.49084812
0.48399553 0.48589465 0.5169274 0.46183822 0.4795592 0.49094838 0.47658783 0.5390984
0.50221974 0.50186497 0.48335007 0.4808327 0.47325304 0.49609047 0.50370944 0.5108401
0.5015864 0.49986747 0.46671364 0.485442 0.5535588 0.50027406 0.48249277 0.4933666
0.51591766 0.48150358 0.5086064 0.5227076 0.4721098 0.5204983 0.5023029 0.5017913
0.496787 0.51060945 0.49064362 0.49234116 0.48214787 0.530677 0.4890525 0.48615387
0.50508714 0.515578 0.5192954 0.47920957 0.48335898 0.47116262 0.5121092 0.4626947
0.49272862 0.52739596 0.48537177 0.5267029 0.48977187 0.5252889 0.4808018 0.4917533
0.49920958 0.4988804 0.49990672 0.5252849 0.48634857 0.48635188 0.47975856 0.4995942
0.46090928 0.48411918 0.4830959 0.53845274 0.50919944 0.4964509 0.5037141 0.50196207

projection_layer.4.weight f4 [128, 128]
00000000: 3c3e 74bd 56bd b53c 2339 6a3d 6e27 61bd
00000010: c7a7 02bd 6eca b4bc 8376 623d f1b2 283b
00000020: 3b58 733b b0d5 55bd 705d 1a3d 8b21 f1bc
00000030: 6fb7 8c3d 7ee8 063d 8b90 3fbc 7c3f aabd
00000040: 80aa 9fbd 2362 883d bbfc 8bbd 7721 a63d
00000050: 0342 3fbd 27a6 2dbd 8b3b a63d c36f 633d
00000060: f567 64bd ae7e 6dbd 9da1 98bd a94f 8abc
00000070: b195 8b3d c434 a5bd 271f 96bd b963 913d
00000080: d542 24ba 4cd6 e5bb 26ad 923d 3177 953d
00000090: 21c5 5dbd be06 ad3d 093b 24bd b9db a73b
000000a0: 7b18 903d 1675 803d e938 34bc 1ab7 613d
000000b0: 13fc bd3b efe2 91bd 9845 993d f046 36bd
000000c0: 0160 41bb 228c 003c d02e dd3c 7cd8 3e3d
000000d0: 34ad 88ba c108 843d be57 60bd d0f5 cf3c
000000e0: 20d3 0b3d 3726 85bd cf98 adbd 5bb2 15bd
000000f0: 20bc 95bd e6b2 5cbc 9da5 8bbd 1604 543d
00000100: 4952 b43c a7af a4bd bc2b a53d f9f8 2ebd
00000110: 5185 e4bc 3cc6 f63a 449b 0bbd dbe1 acbd
00000120: dbee aa3d 804f 8ebd 6d0e 373d b20e 923d
00000130: d6f5 6bbd 08cd 463d 7fb1 653c 7457 c6bb
00000140: 715f 94b9 e97c 7cbd 0dc6 883b eefb 993d
00000150: 515a 763d 37b9 183d 2534 883d f0bb 423d
00000160: 04d5 6e3c f6e3 b6bd 8568 ee3c 99f8 13bc
00000170: a856 d2bc eb43 433b 4001 a93d 66ae 66bd
00000180: d4f8 3abc 866e 403d 7289 97bd 52be 8dbc
00000190: 902f 063b 75d5 6e3a 0077 3e3c df9f a23c
000001a0: 3366 8ebd a309 4bbd a892 153d d412 8d3a
000001b0: db77 6ebd db6b c13c 33c7 c23b 97f3 6fbd
000001c0: b53a 3abd 84ae 7cbc 3434 84bd e5ba 4e3b
000001d0: e3c4 233d 6022 dcbc 0799 903d b5b9 5dbd
000001e0: 874d da3c e285 81bd 4939 a83d 559e 9bbd
000001f0: bfee 00bd cd39 753d fda1 a3bd 8c33 6a3b
00000200: 6da3 93bd 7d62 26bd 0c5b 9abd 8ce3 ca3c
00000210: b49e 52bd a924 e23c be25 c1bc b2ee a13d
00000220: b170 f03c c2f4 46bd 0a16 a73d 53cf b33b
00000230: 64a0 2abd 5950 8e3c cc3f 6b3d 387b 463d
00000240: 1775 59bd 5d1c 78bd de93 fc3c 165b 8fbd
00000250: ecee 1e3d 7f01 203d 1308 a83c 7154 9e3d
00000260: 0cb0 8cbd f291 793c 8110 553b 2de1 fe3b
00000270: e875 a23d 1e02 dd3c 328b ac3d 622f b03d
00000280: 8ec2 033d e91b f43c 538f 4f3d 6a25 b1bd
00000290: 4756 7e3d 8990 f2bb 183b c13c 4857 7fbd
000002a0: ef3b 683d 3f14 9b3d 903a 2f3d 0a50 7a3d
000002b0: c9b8 68bd 36c5 39bd 9109 c0bc 50e9 5bbd
000002c0: ab0f 75bc 5f5b 0bbc ea38 993d 7dca 91bd
000002d0: 0145 80bd 4a11 92bd 6905 7e3d 5466 afbd
000002e0: 5da4 8c3d 35d5 7fbd a0b0 2f3d 69c6 83bd
000002f0: cbfd 813d b928 19bc f09b 61bd 5c66 4bbd
00000300: a93e 87bd 2137 393c 35d0 093d a075 acbd
00000310: 1aac 84bc 5915 82bd f133 7bbd 1019 f13c
00000320: 1e94 383d 963a 07bd fc5a 2b3c 98be 33bb
00000330: 01c3 24bd f34b b63c d2eb 01bd 4afa 1a3d
00000340: a80f 48bd dbcc 55bc 0805 4ebd 26ff 6ebd
00000350: 04e9 c9bc df60 b03d 1d32 4d3d 5c24 1bbc
00000360: 7053 6cbd 111c 20bc 2b3f 9dbd f39a 553c
00000370: f067 1e3d e884 0f3d e79b a6bc d3ba a73d
00000380: 9662 c93b 4cbc f9bb b4f5 8e39 3fd2 a2bd
00000390: 796b 313c 192a 893d 1aba 21ba f636 bbbc
000003a0: 26f3 83bd 3e99 efbb ace3 63bc f5e1 4cbd
000003b0: e232 fb3c 5af8 96bd 1a7c af3c 6e16 503d
000003c0: d40f 043d c144 2abd 2d92 a93d 92db 8ebc
000003d0: b0c4 4f3d 6d2b 6ebd bc80 153d e633 883d
000003e0: be5f 813c 9d8a e7bc 83c7 89bd 82f8 45bc
000003f0: c3bb 73bb 8cdc b83c 10aa b3bc 4d48 2fbd
-0.059629664 0.022185009 0.057183396 -0.054969244 -0.031898286 -0.022069182 0.055288803 0.0025741423
0.0037131447 -0.05220574 0.037686765 -0.02943494 0.06870925 0.032936566 -0.011692177 -0.0831289
-0.07796192 0.06659343 -0.06835314 0.08111852 -0.046693813 -0.042394783 0.08116826 0.055526506
-0.055763204 -0.05798214 -0.074527 -0.016883688 0.06815661 -0.08066705 -0.073301606 0.07099099
-0.0006266062 -0.0070140716 0.07161932 0.072981246 -0.054143075 0.084485516 -0.040095363 0.0051226285
0.07035919 0.06272332 -0.010999897 0.05510626 0.005797872 -0.07123362 0.07483977 -0.044501245
-0.0029506686 0.00784591 0.026999861 0.046593174 -0.0010427595 0.06446982 -0.054771177 0.025385767
0.03413689 -0.065014295 -0.084764116 -0.036547046 -0.073112726 -0.013470387 -0.068186976 0.05176171
0.022011893 -0.080413155 0.08064982 -0.042717908 -0.027895601 0.0018827389 -0.03408362 -0.08441516
0.08346339 -0.06948757 0.044691492 0.07131709 -0.057607494 0.048535377 0.014019369 -0.0060529057
-0.0002829987 -0.06164256 0.004174 0.07518755 0.060144726 0.03728601 0.06650571 0.047542512
0.014577154 -0.08930199 0.029102573 -0.009031438 -0.025676087 0.002979512 0.082521915 -0.056318663
-0.011411864 0.046980403 -0.073992625 -0.017302666 0.0020475127 0.0009110787 0.0116250515 0.019851623
-0.06953087 -0.049569737 0.036516815 0.0010763058 -0.05821977 0.023611 0.0059441566 -0.058581915
-0.045466144 -0.015422467 -0.064552695 0.0031544503 0.039982688 -0.02687186 0.07060438 -0.054132182
0.026648296 -0.06324364 0.08214051 -0.07598559 -0.031477686 0.059869576 -0.07989881 0.003573629
-0.07208905 -0.04062127 -0.07536897 0.024766706 -0.051420882 0.027605372 -0.023577567 0.07906856
0.02935061 -0.048573263 0.081585005 0.0054873615 -0.041656867 0.017372297 0.05743389 0.048457354
-0.05309018 -0.060573924 0.030832227 -0.06999795 0.038802072 0.039063927 0.020511663 0.0773095
-0.06869516 0.01523255 0.0032511058 0.007778308 0.07932645 0.026978549 0.08424987 0.086027876
0.032167964 0.029798465 0.050673794 -0.08649714 0.062094 -0.007402484 0.023587748 -0.062339097
0.056697782 0.07572221 0.04278046 0.061111487 -0.05681685 -0.04535409 -0.023442062 -0.0536893
-0.014957349 -0.008505671 0.074815586 -0.071187 -0.062631615 -0.07132204 0.06201688 -0.085644394
0.06867287 -0.06245919 0.042893052 -0.06434328 0.06347235 -0.009348088 -0.055080354 -0.049658164
-0.06603748 0.011304648 0.033645827 -0.08420873 -0.016195346 -0.06351728 -0.061328832 0.029430896
0.04506313 -0.033014856 0.010458704 -0.0027426835 -0.040225033 0.022253012 -0.031719036 0.03783635
-0.048843056 -0.01304933 -0.050297767 -0.058348797 -0.024647243 0.08612227 0.05009662 -0.009469118
-0.05769676 -0.009772317 -0.07678064 0.013037431 0.03867334 0.03503886 -0.020338012 0.08189931
0.0061457856 -0.0076213237 0.00027267414 -0.079502575 0.010828846 0.066974826 -0.0006169394 -0.022853356
-0.06442861 -0.007311969 -0.013909262 -0.050020177 0.030663911 -0.07371588 0.02142148 0.05080264
0.032241657 -0.041569475 0.08279834 -0.017438684 0.050724685 -0.058146883 0.036499724 0.06650524
0.015792724 -0.028264338 -0.06727507 -0.012083175 -0.0037190772 0.022566102 -0.021931678 -0.04279356

projection_layer.4.bias f4 [128]
00000000: e230 243c 7918 b33d 5f12 8fbd d04d 353d
00000010: 978f afbc 589c 17bd 66e7 b8bc df99 39bd
00000020: 9a48 903d 0a45 1c3d d0d5 a0bb 9c4b 943d
00000030: 2aa8 b4bd 3677 423d 9093 59bd ac2d 833c
00000040: 9e37 25bd d31c 083d 8168 603d 0e53 b33d
00000050: fca7 66bd bb29 0cbc 5871 f83c 53bb 87bd
00000060: e0c1 8cbd ccee b9bd e502 bbbc c1eb 1fbd
00000070: c7cb 6dbc 651d b23d 62e9 af3d 3864 4abb
00000080: 3165 2c3d a63a aa3d e868 fe3a c4ea 27bc
00000090: fa4f cb3c b4df c6b9 c151 89bd 1715 9a3d
000000a0: de70 1fba 5912 9e3d 9c64 a8bd ba56 a5bd
000000b0: b640 4cbc 4198 4b3d 1207 b13c e4ca e1bb
000000c0: 4e6e 403b 71d4 6cbd 0628 553c 684e 5dbd
000000d0: 6a47 81bd b3a8 a93d 524c 22bd b289 b3bd
000000e0: 1bb2 b9bd 7d7d d53c 5c9d 93bd ac42 113b
000000f0: 5561 d0ba 6e5d 0abd 3135 253d 3df5 8cbd
00000100: b9fe 5ebc 38ac 80bd 67b7 a83d 5eee 3cbd
00000110: 91de 9e3c d271 033d e2a3 54bd b939 043d
00000120: a443 15bd 5a77 b9bc b434 e3bc af48 953b
00000130: 9373 8ebc 8d46 903d 883a 80bc 1777 2bbd
00000140: 954f d0bc b806 ac3d eba2 93bd 4576 583c
00000150: 6a6f 833b 9291 a43d 5c3a a0bd bbd9 9abd
00000160: 9d31 2dbd 2689 363d 1f6a 4cbc 8d86 94bd
00000170: 2d6f 053d fb65 7b3d 54bf b5bd a87c 693b
00000180: 3803 5fbd 8a3a 89bd b6eb 6c3d af2f 9e3d
00000190: 4b85 b33d db5e 883d 7be5 afbd eb8a f83a
000001a0: ba76 063d ebc0 8fbd 8c9f 8d3c c45b 103c
000001b0: c4b6 b63d f6f7 293d d9aa 8c3d 6440 993d
000001c0: bc10 ab3d ff44 503d 09e3 cf3b dbba e0bb
000001d0: ea41 acbd 57c4 0c3d 92bf a7bc 990d 983c
000001e0: 800d 5c3c 73ae 40bd b746 8b3c 7e58 75bd
000001f0: 0d5b 9ebd b4d2 733d be66 aebd c4e9 b0bc
0.01002142 0.08744902 -0.06985926 0.04426366 -0.021430774 -0.037014335 -0.022571277 -0.04531276
0.07045098 0.03815178 -0.004908301 0.07240984 -0.08821137 0.04747697 -0.053119242 0.016012989
-0.040336244 0.033230614 0.054787163 0.08756076 -0.056312546 -0.008554871 0.030327484 -0.06627526
-0.06872916 -0.0907875 -0.022828529 -0.03904319 -0.014513916 0.08697013 0.08589436 -0.003088249
0.04208869 0.083119676 0.0019409927 -0.010248844 0.02481841 -0.00037932175 -0.067050464 0.07523554
-0.0006082187 0.07718343 -0.08222315 -0.080731824 -0.0124666 0.049705748 0.021609817 -0.0068906415
0.0029362622 -0.057819787 0.013010031 -0.054029852 -0.06312449 0.0828413 -0.039623566 -0.08766498
-0.09067174 0.026060814 -0.07207748 0.0022164984 -0.0015898148 -0.033780508 0.04033393 -0.06882713
-0.013610535 -0.06282848 0.08238106 -0.046125762 0.019393237 0.03209097 -0.051914103 0.03228161
-0.03644146 -0.02263992 -0.027735092 0.0045557837 -0.017389094 0.070447065 -0.01565291 -0.04186162
-0.025428573 0.08399719 -0.072088085 0.013211791 0.0040110843 0.08035578 -0.07823631 -0.0756106
-0.042283643 0.04456439 -0.012476473 -0.07252226 0.03257673 0.061376553 -0.088743836 0.003562728
-0.05444643 -0.067006186 0.05784198 0.07723939 0.08765658 0.06658717 -0.08588692 0.0018962299
0.03282807 -0.07019218 0.017287992 0.008810941 0.089215785 0.04149624 0.06868524 0.07482985
0.08352801 0.05084705 0.0063442034 -0.0068582124 -0.084110096 0.03436693 -0.02047709 0.018561171
0.013430953 -0.047041368 0.017001493 -0.059898846 -0.0773221 0.059527114 -0.0851569 -0.021595843

output_layer.weight f4 [1, 128]
00000000: 7d9a 64bd fce8 7d3d f8af d63c 8a95 823c
00000010: 2cdc 68bd 1953 863c b1f0 903d 6db4 17bd
00000020: 528e 8f3d fe66 373d e0ba 1abd d5e7 893d
00000030: e709 56bd eb3d 453c 1bca a83c 1998 6dbd
00000040: 32e2 303d ba45 9bbd ba8f 54bb 8fe8 813d
00000050: eea3 a4bd 2106 1a3c 70e3 9f3d 20ce 31bc
00000060: afc2 0abb 944c 35bc 45c6 28bd 72cd 6f3d
00000070: 9b75 9d3d fca7 3e3d b39b 563d 1a7e 09bd
00000080: 0bc9 c2bc c522 1e3d f4e0 063d 7f3f 1a3c
00000090: b6d4 1abd 4906 a1bd 8004 5fbd f587 863d
000000a0: 29e4 f5bb 70e4 4ebd 0873 a93c a77e c33c
000000b0: 9961 a8bd ee5b 8fbd 286f d9bc 9113 91bd
000000c0: f447 9f3b 28ee 0ebd 5685 733d 7706 793d
000000d0: 82bc 033d a791 9c3d 9d90 10bd eb0c 9ebd
000000e0: db5e afbc 4146 f8bc 2b4f aabc c75c 76bc
000000f0: 6e2c a33d f7f9 abb9 f9e1 aebd b08a b03d
00000100: 03e3 693d 7bb4 18bd e155 ee3c 12c0 cc3c
00000110: 7bd7 45bd 7a82 8dbd 7b89 443d 1484 7d3d
00000120: 933e 3bbd df3a 02bd 9937 05bd b333 f03c
00000130: 6863 9abd e7b7 92bd 51d5 0e3d 51a1 b23d
00000140: a091 27bd ce99 8f3d 8406 993c 6824 793d
00000150: 1af8 15bc 549d abbc 5cd4 9dbb 39e0 a3bd
00000160: a5f8 98bc 06d9 93bc a51a 243d d54b b3bd
00000170: 93ea 96bd bf49 853d 71d4 a9bd 5d73 d73c
00000180: 4d76 19bb 69a9 a5bb d2c4 bdbc a237 8abd
00000190: e78a b33d c510 80b9 29c3 0fbc a8b6 0dbc
000001a0: 1a07 28bd 7e3c 68bd ef99 90bb a3ec 473d
000001b0: 3554 1fb8 0bf3 953c 2a66 313d f79c 05bd
000001c0: 4e0a 9a3d 24b1 133d ba1f 243c aba7 823d
000001d0: 12fa 9abd 386c 003d 1f26 9e3b 57fb 3abc
000001e0: 3476 e2bb e584 2fbc d9ed a1bc d4ff 9c3d
000001f0: 927a 9bbc fb52 a2bd 6183 a3bd a774 efbc
-0.055811394 0.06198977 0.026206955 0.015940446 -0.056850597 0.016397046 0.07077158 -0.0370373
0.07009567 0.044775955 -0.037775874 0.067336716 -0.052255537 0.012038688 0.020604184 -0.05800638
0.043184467 -0.07581659 -0.00324343 0.06343185 -0.080390796 0.009400875 0.07807052 -0.010852367
-0.002117317 -0.011065621 -0.04120471 0.058545537 0.07688447 0.04654692 0.05239458 -0.033567525
-0.023777505 0.038607378 0.032929376 0.009414553 -0.037800513 -0.07862527 -0.05444765 0.065689005
-0.0075040055 -0.050510824 0.020684734 0.023864103 -0.0822174 -0.06999956 -0.026542261 -0.0708381
0.0048608724 -0.034895092 0.05945333 0.06079718 0.032162197 0.076449685 -0.035294164 -0.07717308
-0.021407535 -0.030306937 -0.020789703 -0.015036768 0.07967459 -0.000328019 -0.085391946 0.086202025
0.05710126 -0.037281495 0.029093685 0.02499393 -0.0483012 -0.06909652 0.047982674 0.061893538
-0.045713972 -0.031794425 -0.032523725 0.029321527 -0.075384915 -0.07163983 0.034871403 0.08722175
-0.040910363 0.07011758 0.018679865 0.060825735 -0.00915339 -0.020949043 -0.004816575 -0.080017515
-0.01867325 -0.01804782 0.040064473 -0.08754698 -0.0736896 0.065082066 -0.08292473 0.026300127
-0.002341646 -0.0050555957 -0.02316514 -0.06748892 0.08766728 -0.00024426557 -0.008774557 -0.008649506
-0.041022398 -0.056698315 -0.0044128816 0.04880966 -3.7986978e-05 0.018304368 0.043310322 -0.032620396
0.07521497 0.036057606 0.01001733 0.063796364 -0.075672284 0.031353205 0.0048263217 -0.011412463
-0.0069110636 -0.010712837 -0.019766735 0.07665983 -0.018979345 -0.079259835 -0.07984043 -0.029230429
