Checkpoints/HR_V/valence_s18.pth (torch, 461905 bytes, 29 tensors)

input_layer.weight f4 [128, 29]
000000 f8 fd 8a 3c ca 1c a5 bb 7d df 0e 3e f4 55 14 3e
       0.016966805 -0.0050388323 0.13952442 0.14485914
000010 f0 b3 9c bd c8 5e bd 3d 58 6d 14 3d 40 65 11 3e
       -0.07651508 0.09246594 0.03623709 0.1419878
000020 1e b1 3d bd 9b b1 fe bd 54 0b 23 3d 8a 16 77 bd
       -0.04631149 -0.12436219 0.039805725 -0.06032423
000030 89 4f c3 3d 49 4d a5 bd 51 2c d3 bd 43 36 48 3b
       0.095366545 -0.080713816 -0.10311187 0.003054992
000040 7c 76 c5 bd ca 0b d9 3d b4 7a c7 3c 36 66 0e 3e
       -0.0964174 0.10597952 0.024350502 0.13906178
000050 cd 9e bd 3a d0 34 1c be 49 92 14 bd 47 d3 7e 3d
       0.0014466882 -0.15254521 -0.03627232 0.06221321
000060 77 93 87 3d 59 f3 09 3e 12 5e ec bc d7 f1 4e be
       0.066199236 0.13471736 -0.02885345 -0.20209442
000070 ba a8 df 3d 21 39 1f be aa 16 48 3d a7 33 7c bd
       0.10920854 -0.15549137 0.04884974 -0.061572697
000080 c7 49 22 3e 43 af b4 3b 1e 15 ee 3d 52 e0 33 be
       0.15848456 0.005514057 0.116251215 -0.1756604
000090 57 b4 05 be be e9 1a 3e ec a8 99 bd 15 e2 df 3d
       -0.13057075 0.15128228 -0.075029224 0.109317936
0000a0 3d 5b 1e 3e f0 99 d1 3c 76 08 bf 3d 68 17 a1 3d
       0.15464492 0.025586098 0.09327786 0.078657925
0000b0 94 b2 39 bd de 87 01 be fe 1e 1a be aa 42 34 3c
       -0.04533632 -0.12649485 -0.15050885 0.011002222
0000c0 20 47 e2 3d f0 dc d3 3b 25 9d 86 bc 9c 57 2c 3d
       0.11048722 0.006465547 -0.016432354 0.04207574
0000d0 87 59 3a 3e 05 b6 6d 3d 74 17 0b 3e 1f 51 7a 3d
       0.18198214 0.058034915 0.13583165 0.06111252
0000e0 4d d5 34 bd 85 84 01 be fa 7f fa 3d 09 66 32 3e
       -0.044148732 -0.12648208 0.12231441 0.17421736
0000f0 84 74 03 3e 4f ab db bd 93 e3 98 3d d6 3f 46 bd
       0.12837416 -0.10726034 0.07465281 -0.048400722
000100 0f c5 c4 3d b7 7a 62 bd 85 9d c0 39 5f 63 39 be
       0.096078984 -0.05529281 0.00036738455 -0.18104313
000110 97 8c 8d bc cf 35 e1 3d 36 93 1c be 17 8e 24 3e
       -0.017278953 0.10996591 -0.15290532 0.16069828
000120 1b dc 18 be 5d 72 02 be 62 75 c1 3d 35 20 1d be
       -0.14927714 -0.12738939 0.09446217 -0.15344317
000130 f7 47 c1 bd 34 bf 02 3c f2 b8 6d bb e5 0a bd 3d
       -0.09437554 0.007980157 -0.0036273566 0.092305936
000140 b8 c5 27 be 3b bf 9b bd 70 9d b1 3d f9 3c 06 be
       -0.16384017 -0.07604834 0.08672607 -0.13109197
000150 dc 01 ae 3c 08 3f 20 bd b4 62 89 3b ef 31 9c 3d
       0.021241121 -0.03912261 0.0041926745 0.076267116
000160 cb 62 0f be ff a5 4e 3d 19 98 30 be 93 2e a4 3d
       -0.1400253 0.050451275 -0.1724552 0.08016696
000170 90 19 ed 3c b8 78 80 3c c2 43 97 3d 5e bd 6a bd
       0.028942853 0.015682563 0.07385971 -0.0573095
000180 5b da 3e 3e fd 2a 03 be 4c ff 1a be e6 a9 66 3d
       0.18637984 -0.12809367 -0.1513645 0.05631437
000190 56 30 03 3e f4 da 42 be d8 7e a7 bd 56 dc 03 3e
       0.12811407 -0.19028836 -0.081784904 0.1287702
0001a0 06 03 3a 3e c9 84 03 3e 8e 44 55 bd af 78 f3 3d
       0.18165216 0.12843622 -0.052067332 0.11888253
0001b0 7f 70 30 be 96 71 77 3d c1 d9 2f be a8 79 11 3e
       -0.17230414 0.06041106 -0.1717291 0.14206564
0001c0 ce f1 1a be 8c 94 00 bd 25 c5 7a 3d 16 9a 0e be
       -0.15131304 -0.031391665 0.061223168 -0.13925967
0001d0 c2 2e f3 bd cc d9 2f 3e af 42 2b 3e 99 dd 0e 3e
       -0.11874153 0.17172927 0.16724657 0.1395172
0001e0 be 8a 1d be a5 45 53 3d 08 7c 35 3e 19 5b 3d 3e
       -0.15384957 0.05158009 0.17723095 0.18491782
0001f0 56 14 f9 bd 69 53 40 be c6 18 1c be 75 2b be bb
       -0.12162082 -0.18781818 -0.15243825 -0.0058035203
000200 06 39 3f 3e e2 44 1e be f6 1c bb bc f5 b5 06 3e
       0.18674096 -0.15455964 -0.022840958 0.13155349
000210 f0 a7 82 3d 32 c9 d8 3d 0d af 46 bd 73 f1 b9 bb
       0.06379688 0.1058525 -0.048506785 -0.005674535
000220 b6 b4 46 be 65 91 64 bd f6 81 ce 3c 26 08 f8 bd
       -0.19404873 -0.05580272 0.025208455 -0.12110929
000230 5e d5 70 bc 67 cb 85 bd 9b 89 54 3d 77 a9 20 be
       -0.014699308 -0.065329365 0.051889043 -0.15689646
000240 7c 1b f8 bd 6e 7f 2f be 1e 3b 01 3e ea af 25 be
       -0.12114617 -0.17138454 0.12620208 -0.16180387
000250 ec ab b9 bd 5c b6 2c bc 07 17 9c bd 2a b5 1a be
       -0.090659946 -0.010541525 -0.076215796 -0.15108171
000260 8a 5f 27 3e 04 39 2a 3e 44 b4 32 3e ad 63 3a be
       0.16345039 0.16623312 0.17451578 -0.18202086
000270 19 63 bb 3d 14 49 c3 bd 6a 3c 1d be b9 12 65 bd
       0.09149761 -0.09535423 -0.15355077 -0.05592606
000280 84 92 4e be e2 8c ff bd b5 e7 55 3b cc cd 2c be
       -0.20173079 -0.12478043 0.003263933 -0.1687538
000290 40 aa b1 3d 6d a3 9e 3c 2b 7b 13 3d f3 73 ab bc
       0.08675051 0.019365037 0.036006134 -0.020929312
0002a0 32 ad b2 3d 36 5b 4f 3e ac d2 b1 bd 67 9e 42 3d
       0.08724441 0.20249638 -0.086827606 0.047514345
0002b0 d3 eb 20 3e 97 10 43 3c 80 3a 39 be 19 5a d3 3d
       0.1571496 0.011905811 -0.18088722 0.10319919
0002c0 03 50 d5 bd ac c4 d8 3b 52 da 15 3e f3 99 4d bd
       -0.10415652 0.006615242 0.14634064 -0.050195646
0002d0 3e f5 1f bd 0f 9d 8a bd 6b 33 eb bd 5c ed 0d be
       -0.03905224 -0.06768238 -0.114844166 -0.13860077
0002e0 df 32 0c bd 2f af 81 3b 98 42 b6 3d bb 65 94 3d
       -0.034228202 0.003957651 0.088994205 0.07245966
0002f0 3f 8f 00 3c ec be 0a be fe 80 05 be 8e 81 b0 bd
       0.0078466525 -0.13549393 -0.13037488 -0.086184606
000300 e5 dc 6a 3c 42 6a 49 be 11 c6 8d bc af ad de bc
       0.014334892 -0.1966944 -0.01730636 -0.027182428
000310 89 2d 23 3e d2 fe 22 3e 1b 20 b1 bd ee d1 4a 3e
       0.15935339 0.15917519 -0.08648702 0.19806644
000320 64 27 25 be b5 2d cc 3d e9 6c 29 be 5f 00 51 3c
       -0.16128308 0.099696554 -0.16545452 0.012756436
000330 ce e3 97 bd 3c 8b 14 be 18 a8 26 be 98 e2 32 3d
       -0.07416497 -0.14506239 -0.1627506 0.043673128
000340 90 b8 32 3e 82 ad 0a 3e fc 19 c8 3d ff 32 8c bc
       0.17453218 0.1354275 0.09770581 -0.01711416
000350 b1 88 24 be 3d 9d 47 3d c0 47 fa 3d 6d e6 fd 3c
       -0.16067769 0.04873394 0.122207165 0.030993665
000360 77 87 97 bd 9e c1 1b 3e 13 77 b7 bd 76 dd 32 3d
       -0.07398885 0.15210578 -0.089582585 0.043668233
000370 6f 1a cb 3d 09 d9 8b bd 6a 0c 0f be 7e f4 32 3e
       0.09917151 -0.068285055 -0.1396958 0.17476079
000380 2f 3f ae bd 96 1c e5 bd c9 52 8d bd 5a 0f 21 be
       -0.08508145 -0.11187093 -0.06900556 -0.15728512
000390 dc 89 6b bd 77 d5 c6 bd dc 99 0b 3e fa de 7d bb
       -0.05750452 -0.09708684 0.13632911 -0.003873764
0003a0 c5 22 6f 3d bf e4 37 bd b3 58 83 3a 1e ea a0 3d
       0.05838277 -0.044895884 0.0010020941 0.07857154
0003b0 b8 d6 33 be d0 44 03 be 8e 73 15 be 4e 0e ac 3d
       -0.17562377 -0.12819219 -0.14594862 0.08401166
0003c0 81 d7 2a be 34 86 dd bd 4b 50 4f bb 4e 64 f5 bd
       -0.1668377 -0.10816613 -0.0031633552 -0.11982022
0003d0 27 09 34 bd 75 01 10 3e 2e 05 70 bc 3b d1 43 bd
       -0.04395404 0.14063056 -0.014649672 -0.04780696
0003e0 cd d9 f0 bd 4c 7f 25 be b0 b2 05 be c0 53 94 bd
       -0.11760292 -0.16161841 -0.13056445 -0.072425365
0003f0 0e 95 1c 3e 9f ae 24 be 0c 99 29 3e c7 c1 22 bd
       0.15291235 -0.16082238 0.16562289 -0.03973558

input_layer.bias f4 [128]
000000 35 91 83 3d d1 5a c2 bd b1 7c ad 3d 96 14 00 b9
       0.064241804 -0.09489978 0.084710486 -0.000122147
000010 2f 65 0d 3c c2 57 56 3a ec 92 35 3b 17 e0 4e 3d
       0.008630081 0.0008176529 0.002770598 0.050506677
000020 2a c7 a7 3d f7 e3 bf 3d 9b 8a 47 3d 4b d1 c1 3b
       0.081922844 0.09369653 0.04871617 0.0059148422
000030 6d 10 87 39 39 8e a7 39 e8 8c 2f 3c 40 a3 92 bc
       0.00025761445 0.00031958686 0.010714747 -0.01790011
000040 00 74 1d b7 51 f4 94 bd 99 75 ad bc 91 72 bf 39
       -9.384938e-06 -0.07273162 -0.021174239 0.00036515718
000050 59 66 c1 ba 94 a8 65 3d c1 1b 62 bd 4c 46 50 bd
       -0.0014755233 0.05606897 -0.05520225 -0.05084829
000060 76 56 6d 39 df c9 88 3d ff 9d c5 39 a6 66 9b b9
       0.0002263429 0.06679129 0.00037692484 -0.00029640383
000070 a6 f6 d5 3c 38 86 d3 bd 3a c4 de bc 12 17 16 3a
       0.026118588 -0.103283346 -0.027193177 0.00057254836
000080 f3 38 ca 3d e8 0d b6 b8 8e 2c 87 3c 99 f3 da 37
       0.098741435 -8.6810265e-05 0.016500738 2.610106e-05
000090 d3 73 8f bc 1e 5a 30 3c 76 fa 20 bd 01 82 3d b9
       -0.017511284 0.010763673 -0.03930136 -0.00018072875
0000a0 61 43 ce bd ff b9 be 3d f2 8c 15 3d b2 14 bf bd
       -0.10071445 0.0931282 0.03651137 -0.09330119
0000b0 eb b5 a5 3d b2 ba 22 3d 63 6a 94 38 dc 30 81 bd
       0.08091339 0.039728828 7.077006e-05 -0.06308147
0000c0 ac b3 d9 3d 14 86 a8 bd 94 eb ca bc 01 e2 98 3d
       0.10629973 -0.082286984 -0.024770536 0.07464982
0000d0 56 cf 64 3d 1a de b1 3d b1 f3 c0 39 6c a4 c4 bd
       0.055861793 0.08684941 0.00036802658 -0.096016735
0000e0 5d 3a 13 39 19 13 c4 3d 8a 22 86 3c 7b fa 85 bd
       0.00014040754 0.09573955 0.016373891 -0.06541916
0000f0 90 48 05 bd be 60 8d bd 2e b8 8f bd a0 5f 60 bd
       -0.032539904 -0.06903218 -0.07017551 -0.054778695
000100 a9 2d 02 bb df 4f d6 bd d1 f5 b1 3d de 0e af 3d
       -0.0019863641 -0.10464453 0.08689464 0.085477576
000110 ed b9 5c bd b2 3d 64 bd 31 80 6e bd 7c ed b7 b9
       -0.05388825 -0.0557229 -0.05822772 -0.0003508142
000120 98 f9 25 3d 20 40 62 bd 01 ad ab 3a 7e 39 0c bc
       0.040521234 -0.055236936 0.0013097824 -0.008558629
000130 ff 9b 54 3d a9 f9 4c 3d 79 1f 25 bc 14 86 bc bd
       0.051906582 0.050042782 -0.010078304 -0.09205261
000140 d9 9c 44 3d 7a f7 68 bd 44 80 3f b9 12 c5 80 3d
       0.048001144 -0.056876637 -0.00018262962 0.06287588
000150 91 32 9e bd 91 4f 44 3d 8d a6 9e 3d 87 15 9f 39
       -0.077244885 0.047927443 0.07746611 0.00030342882
000160 c9 31 ba ba 82 26 3e 3d 63 7f 46 bc ba cd a3 3d
       -0.0014205511 0.046423443 -0.012115332 0.079982236
000170 24 f1 80 bb 6a 8c 1b bc 39 08 d0 bb 86 ed 21 3d
       -0.003934996 -0.009493927 -0.0063486365 0.03953316
000180 58 e8 97 b7 ce c9 c0 3c b7 c3 d3 3b 37 ec 8f 3d
       -1.8108796e-05 0.023533728 0.00646254 0.07027476
000190 3d 9f 16 b9 42 e5 c3 bd b2 5d af 3d 89 03 cb bc
       -0.00014364436 -0.09565212 0.08562793 -0.02478196
0001a0 c2 ec 92 bd ad d6 24 39 73 90 f4 bc 82 32 9b bb
       -0.07174064 0.00015720232 -0.029854035 -0.0047362456
0001b0 fb 81 a2 3c 42 bf 2c 38 85 81 93 3d ad 06 ad 3d
       0.01983737 4.118612e-05 0.07202438 0.08448539
0001c0 02 ad 08 39 a8 6e a1 bd 78 c1 ca b8 e0 c9 69 38
       0.00013034421 -0.07882434 -9.668147e-05 5.573954e-05
0001d0 3b 9f aa 39 ce 81 3a 3c 4e 09 bd 3d a3 e9 91 3d
       0.00032543563 0.011383487 0.0923029 0.07124641
0001e0 27 e3 80 3d f7 27 d3 3d 0c 22 c8 3d ab ec ce bd
       0.06293326 0.10310357 0.09772119 -0.101037346
0001f0 c2 27 51 3d f7 c3 91 3d af 55 83 3a 3c ea 1c 3c
       0.051063307 0.071174555 0.0010020043 0.00957733

projection_layer.0.weight f4 [128, 128]
000000 a9 31 81 bd fc f6 81 3c 6e f3 74 bc cc 1d dc 3b
       -0.063083 0.015864842 -0.014950616 0.0067174193
000010 76 5e 00 3d 7c c5 31 bd 93 ec 9d bd 66 54 be bc
       0.031340085 -0.043401226 -0.077111386 -0.023233604
000020 06 b0 b0 3c cf 8d 24 3d 37 8d e6 3c 24 55 07 3d
       0.02156831 0.0401743 0.028143508 0.03304018
000030 a8 bc 87 3d 0b 04 3d bd 81 e3 19 bd d1 a3 91 bd
       0.0662778 -0.046146434 -0.03757048 -0.071113236
000040 3f ff 9c 3d d2 f1 a9 bc 5e b2 ea bb 8c ce 71 3d
       0.07665872 -0.020745192 -0.0071623763 0.05903487
000050 61 96 9e bd c5 37 a2 3d 87 5c 1a 3d cd 8a cb bb
       -0.07743526 0.079207934 0.037685897 -0.0062116147
000060 2b 2a a9 bd 7a d4 a2 3d a1 b7 ad 3d 7c 4a 40 3d
       -0.08259996 0.07950683 0.0848229 0.046946034
000070 f2 13 97 3d 89 67 b3 3c f6 da 13 3c 5c bc b6 3d
       0.07376851 0.021899955 0.009024372 0.089226454
000080 c0 c5 a4 bd ac b4 93 3d 7f f4 b4 bd 48 25 00 3d
       -0.0804553 0.07212195 -0.088356964 0.031285554
000090 59 f5 b8 3d 5e 23 59 3d 5e 76 2e bd 6f 7f 7e bb
       0.09031171 0.053012244 -0.042593352 -0.003883328
0000a0 f0 ff 21 3d 73 5a e2 3c ef 8c c3 bc 81 fb bb 3c
       0.03955072 0.02763102 -0.023870913 0.022947075
0000b0 a9 0d 6a 3d eb 93 ec bc 26 65 e7 bc 82 9d 44 bd
       0.057141934 -0.028879127 -0.028246474 -0.048001774
0000c0 7b f6 14 bd 9b 8d 11 bb 40 0c 4f bd f5 06 94 bc
       -0.036367875 -0.0022209648 -0.050548792 -0.018069724
0000d0 d3 11 d6 3c 35 56 86 3d d1 3a 5c bd 49 a4 c8 3c
       0.026131546 0.065594114 -0.05376703 0.0244924
0000e0 e5 46 c4 bd c4 56 9d bc ad 3c f1 bc 15 2e 06 3d
       -0.095838346 -0.019206412 -0.029447878 0.03275879
0000f0 95 f0 18 3d 08 9a 25 bc a4 70 67 bc 78 93 a0 bd
       0.037338812 -0.010107525 -0.014125977 -0.078406274
000100 e9 1b 71 3c de 52 6e bd 09 c6 60 3d a9 72 73 3c
       0.014716127 -0.058184497 0.05487636 0.01485888
000110 af fd 9f bc a1 34 b3 bd b9 c0 a1 3d 74 6d dc bb
       -0.019530145 -0.087502725 0.07898087 -0.006726915
000120 7b d1 86 3d a4 9c 81 bd 69 a9 6a 3d bc c3 38 bd
       0.06582924 -0.06328705 0.05729047 -0.04510854
000130 29 1e 85 bd 8d bb 2a bd 89 87 b3 bd d9 99 fc bc
       -0.06499893 -0.04168277 -0.08766086 -0.030835079
000140 fa ee 68 bd 63 0a c3 3d 69 70 60 bd 30 84 a5 3d
       -0.05686853 0.095234655 -0.054794703 0.080818534
000150 ae 7c 05 bc 06 1e a5 bd 96 f9 5e bd ad fd 72 3d
       -0.008147402 -0.08062367 -0.054437242 0.059323955
000160 7a 56 3e 3d 56 ea a6 3d 8b 7e 14 bd 9f d9 77 3c
       0.04646919 0.08150165 -0.036253493 0.0151275685
000170 7a 7b f8 bc 9a 8b 41 3d db c0 a9 3d 15 dc 12 3c
       -0.030332316 0.047252275 0.082887374 0.008963604
000180 6c e2 0d bd 97 8d ef bb 97 a7 b4 bc bc ff 9d bc
       -0.03463976 -0.00731058 -0.02205257 -0.019286983
000190 86 d5 0f bd 29 a2 9f 3d a1 11 92 bd f3 23 a3 bc
       -0.03511574 0.077946015 -0.07132269 -0.019914603
0001a0 af a7 3e bd fb e4 a3 bd 51 3c b0 3d ae 57 6b 3d
       -0.046546634 -0.08002659 0.086052544 0.057456665
0001b0 ef e7 80 bc 86 c4 ab 3c 43 46 7a 3d a4 c6 1b 3d
       -0.015735595 0.020967733 0.061102163 0.038031235
0001c0 13 4c 23 bd 8d df 6c 3d 6e 15 4d 3b fe 40 a1 bb
       -0.039867472 0.057830382 0.003129329 -0.0049210778
0001d0 f6 b6 13 bd 59 67 34 bd 13 6f 2b bd 28 1d 72 bc
       -0.036063157 -0.044043873 -0.041853976 -0.014777459
0001e0 65 c2 07 3d 54 6d cc 3c b9 7c 52 bd 0e f1 93 3b
       0.033144373 0.024954475 -0.051388476 0.00451482
0001f0 8c 18 ac bd be 38 98 bd aa 9f 91 bd 54 ee 44 bd
       -0.084031194 -0.07432698 -0.07110532 -0.04807885
000200 ef de 1c bd 00 d4 9e 3d 8d 43 27 3d 68 7e 69 3d
       -0.038298544 0.077552795 0.040835906 0.057005316
000210 04 aa 09 bc 7e 7a 82 3d bc 25 a4 bc 4a f6 58 3d
       -0.008402351 0.0637102 -0.020037524 0.052969255
000220 08 ee 85 3d dd 12 97 bd f7 6c 3b 3d 24 32 a6 3d
       0.065395415 -0.07376645 0.045758214 0.08115032
000230 be 36 b9 3d b6 e6 e3 bb 33 f8 62 bd 68 62 21 bc
       0.09043644 -0.006954993 -0.055412482 -0.009850122
000240 4b bc 02 bd 29 60 50 3d fc 10 ac 3a 6e 22 8c bd
       -0.03191785 0.050872955 0.001312762 -0.068425044
000250 41 54 2c 3d 50 06 8b bd 90 0b 48 3c 7d 34 fb bc
       0.04207254 -0.067883134 0.012209788 -0.030664677
000260 3f a8 4f 3d f1 52 eb 3c a8 72 09 bb bb 11 8e 3d
       0.05069756 0.028726073 -0.0020972881 0.069369756
000270 00 aa 94 3b c1 f9 3e bd 15 79 e5 3c 56 db a8 3d
       0.004536867 -0.046624903 0.028011838 0.0824496
000280 b7 5d 1a bc 2e ce 44 bd 1f 57 b4 bd 12 8b bf 3c
       -0.009421757 -0.04804819 -0.088056795 0.023381744
000290 f3 aa fb 3c ab a9 0d bd b2 f1 a1 bd e5 4e 34 3d
       0.030721163 -0.034585636 -0.07907428 0.044020552
0002a0 ff 2e 21 3d cd c2 07 3d 2e 4d 23 bb 28 78 c6 3d
       0.03935146 0.03314476 -0.002491783 0.09690887
0002b0 c5 5f a3 bd ce be aa 3c 5b d7 51 bd b8 af ad bd
       -0.07977251 0.020842936 -0.05123077 -0.08480781
0002c0 df 3b 55 3c 5f dd 5c 3c 64 fc bc bd 8f 8a 36 bc
       0.013014763 0.013480513 -0.09227827 -0.011141433
0002d0 00 e5 8d 3a 8e a8 b3 3d 12 69 13 3c 0e 0f 7e bc
       0.0010825694 0.08772384 0.008997219 -0.015506519
0002e0 40 9b ba 3c f5 1a 3a 3d 0d 9a bc bc 59 49 65 3b
       0.022779107 0.045435864 -0.023022676 0.0034986346
0002f0 70 5d 52 3d 6b b0 6e 3c a6 41 28 bd 86 f7 ba 3d
       0.05135864 0.0145684285 -0.041078232 0.091292426
000300 dc 42 9e 3c db d6 94 bd f7 8d bf 3b 34 39 92 3c
       0.01931899 -0.07267543 0.005845781 0.017849542
000310 39 9b ca 3d e4 e3 19 3c 89 d2 8a bd 44 1f ac 3d
       0.098928876 0.009392712 -0.06778438 0.08404401
000320 a1 9f fb bb b6 ec c8 3b d5 e5 9a 3d e6 b1 5f bc
       -0.0076789414 0.006131734 0.07563368 -0.013653254
000330 c9 c7 8f bd 7c ff 83 3c 99 1d a3 3d 12 54 4e bc
       -0.07020528 0.016113035 0.0796463 -0.012593286
000340 cd 72 ec 3c 15 ae de 3c bd b1 99 3d 4f fa e0 bc
       0.028863335 0.027182618 0.07504604 -0.027463106
000350 6b bf e2 ba 77 db 3e bd 01 da a1 bd eb 3f 6d bb
       -0.0017299479 -0.046596017 -0.07902909 -0.0036201428
000360 43 fa 2c 3d e2 f5 72 bd f2 d4 91 3d 29 c5 31 bd
       0.042230856 -0.059316523 0.07120694 -0.043400917
000370 6d 92 c1 3d 36 e4 ed bc 27 12 7b bd 5f e7 af bc
       0.094517566 -0.029039484 -0.06129661 -0.021472631
000380 d6 0c a3 3d d2 a5 ae 3c 42 84 1d bd 2a 32 75 bd
       0.07961433 0.021319304 -0.03845621 -0.059862293
000390 d2 ce 8e bd 8c d0 69 3d a5 6c eb 3b 5c 97 fc 3c
       -0.069730416 0.05708365 0.0071845823 0.030833893
0003a0 b3 14 8f 3d e4 20 14 bd 2a aa 45 3d 50 13 31 3c
       0.0698637 -0.03616418 0.048257984 0.010807827
0003b0 ef 9b ac 3b 39 ad 76 3d 90 75 83 bd 49 2e 25 3d
       0.005267612 0.06022379 -0.06418908 0.040327344
0003c0 11 1d 34 3d ee 9b 25 bd ef a0 06 bd d9 a2 3f 3c
       0.043973032 -0.04043191 -0.032868322 0.011696541
0003d0 50 54 1b 3d 55 60 0e 3d 39 61 13 bd b4 f0 4e bd
       0.037922204 0.034759838 -0.03598139 -0.05052252
0003e0 dd da bb 3d 44 c3 44 3d 34 56 84 bd 1f 43 2d 3c
       0.09172604 0.048037782 -0.064617544 0.010575085
0003f0 8d 90 85 3d b2 07 80 3b 3b 24 14 3d ec 5c f1 bc
       0.065217115 0.0039071674 0.036167365 -0.029463254

projection_layer.0.bias f4 [128]
000000 b7 56 83 3b 36 42 47 39 ed 44 ac b9 df 18 10 3b
       0.00400814 0.00019002784 -0.0003285775 0.002198748
000010 d2 00 7e bc 1d 28 89 3b 38 50 f7 b8 aa 4b ab 39
       -0.015503125 0.00418569 -0.0001179282 0.00032672036
000020 2b 60 8b bc ff 12 25 39 5f 93 68 3a 5b 72 22 bc
       -0.01701363 0.00015742703 0.00088720577 -0.00991496
000030 60 26 c9 b9 6b 0c 1d bb 76 a9 9c bb f4 3d 13 bc
       -0.000383663 -0.00239637 -0.0047809435 -0.008986939
000040 13 99 3b 3a 16 42 90 b9 35 30 e1 bb 30 b5 21 b7
       0.0007156294 -0.00027515058 -0.006872202 -9.638534e-06
000050 85 44 50 3c f0 4b 36 b9 91 26 e0 39 03 c8 96 3a
       0.012711649 -0.00017385161 0.00042753344 0.00115037
000060 79 85 66 37 3e e1 29 3c 75 f3 86 3a fc 37 ea bb
       1.3740145e-05 0.010368643 0.0010295945 -0.007147787
000070 a7 8d 2b bc f7 af 61 3c e1 24 b5 bc 1d 5e d6 b9
       -0.010470784 0.013774863 -0.022112312 -0.0004088738
000080 e3 6f 39 3c 51 4b 89 b8 35 87 0e 3c 9e c6 e9 3b
       0.01131818 -6.546698e-05 0.008699228 0.0071342727
000090 ee 68 65 3c 1f 43 91 3c d4 33 fd bb 76 5e a2 3c
       0.014002068 0.017732201 -0.0077271257 0.019820433
0000a0 07 e7 a1 3c 3a 4e e3 bb 3c 2d 5d 38 f9 45 d9 39
       0.019763483 -0.0069368156 5.2732634e-05 0.000414416
0000b0 f0 a1 c8 ba c8 33 03 37 57 73 d3 ba 85 04 a5 38
       -0.001530705 7.820265e-06 -0.0016132396 7.868655e-05
0000c0 a2 49 e1 3a 3c 8a 84 38 2a e5 25 3c f8 b9 9e b9
       0.0017188082 6.319999e-05 0.010125438 -0.00030274666
0000d0 d3 d3 02 b9 3b 55 74 3c 5a 11 14 3c b4 2e a8 38
       -0.00012476677 0.014912899 0.00903734 8.0195634e-05
0000e0 99 02 99 b8 94 0b 2a 38 7a 20 8a bc fb 03 72 3c
       -7.2960924e-05 4.054194e-05 -0.01686119 0.014771457
0000f0 fe 9c 8e ba 44 69 22 3c d4 3f ba bb 2d c3 2a 3b
       -0.0010880528 0.009912793 -0.0056838784 0.0026056275
000100 f2 2b 0e ba 8a 81 08 ba 94 82 b7 b7 6a b5 09 3b
       -0.00054234185 -0.0005207291 -2.1876105e-05 0.0021012672
000110 51 c9 96 3c cd ad e0 b6 fa 91 a2 3a b4 ae 8f bc
       0.018406542 -6.6959533e-06 0.0012403124 -0.01753936
000120 31 85 05 3c d3 2d a4 3c f9 84 8d bb 77 6a 60 bc
       0.008149431 0.020041382 -0.00431883 -0.013697258
000130 6f bd 81 b9 0c 33 86 3b 36 b4 71 b8 30 b3 81 bc
       -0.00024745936 0.0040954407 -5.7626712e-05 -0.015832514
000140 6e 6c fa 3b 16 a6 82 bc 70 de 25 3c ef 24 bb ba
       0.0076423204 -0.015948337 0.010123834 -0.0014277975
000150 fb 6c 77 3c 12 41 60 bc 3b 97 e5 b8 38 22 2b ba
       0.015101667 -0.013687389 -0.0001094774 -0.00065282313
000160 de b6 87 b4 6f d9 67 bc c8 70 49 b7 a6 11 31 38
       -2.5278763e-07 -0.014150961 -1.20067925e-05 4.2216525e-05
000170 e6 a4 b4 b9 da f4 cc b8 86 b7 cc b9 7e 43 9d 3b
       -0.00034455134 -9.773085e-05 -0.00039046648 0.0047993055
000180 7f f9 93 3c cd 0c c6 3c 0b 4b 8d bc fa ff 27 37
       0.018063305 0.024176026 -0.017247697 1.0013575e-05
000190 10 51 b1 b8 f4 ac d4 3b fc eb 18 b9 70 71 06 bc
       -8.455117e-05 0.006490344 -0.0001458376 -0.008205757
0001a0 d1 d3 12 bc a9 56 89 3c 41 0e b0 b9 ba 7e 36 b9
       -0.008961634 0.016764956 -0.00033579956 -0.00017404082
0001b0 39 7e 81 39 6c ef 06 3a c1 71 92 3c a8 d1 1e 3b
       0.0002469884 0.0005147371 0.017876508 0.0024233852
0001c0 1b df 1e b9 04 78 d7 b8 d1 82 9b 39 e2 39 35 bc
       -0.00015151167 -0.000102743536 0.0002966137 -0.011061164
0001d0 f5 b6 a6 bc 0f e0 98 b8 d7 aa 03 bc e3 99 b5 39
       -0.020350913 -7.289659e-05 -0.008036337 0.00034637665
0001e0 8e 29 c1 b9 02 7c 70 ba ad d4 93 bb 77 35 7b bc
       -0.0003684279 -0.0009173752 -0.004511437 -0.015332571
0001f0 91 3f 10 39 4e 9a c5 3c 87 13 fb bb e6 f2 a0 3c
       0.0001375659 0.02412143 -0.00766224 0.019647073

projection_layer.1.weight f4 [128]
000000 0f 5b 82 3f 1b 89 7e 3f 06 8f 81 3f f9 2c 80 3f
       1.0184039 0.99427956 1.0121772 1.0013725
000010 55 d5 7e 3f ba 28 81 3f 06 a7 82 3f 45 09 80 3f
       0.9954427 1.0090554 1.0207222 1.0002829
000020 12 71 83 3f 69 19 81 3f ee 76 81 3f 46 88 81 3f
       1.0268881 1.008588 1.011442 1.0119712
000030 6d a3 80 3f a3 1e 7f 3f 69 86 7f 3f 48 b6 7e 3f
       1.0049874 0.9965612 0.9981447 0.9949689
000040 0b af 80 3f 4a ec 81 3f f0 2c 82 3f e4 df 7f 3f
       1.0053419 1.0150235 1.0169964 0.99951005
000050 37 39 80 3f 80 95 7e 3f 8a 34 81 3f 62 f1 7d 3f
       1.001746 0.9944687 1.0094159 0.99196446
000060 08 21 7e 3f aa 4e 80 3f 00 71 7d 3f d3 09 80 3f
       0.9926915 1.0024006 0.9900055 1.0002998
000070 cf 2c 81 3f 5b eb 80 3f 3a f8 80 3f 54 86 80 3f
       1.00918 1.0071825 1.0075753 1.0040994
000080 3c 23 80 3f 4f ac 82 3f fd 33 82 3f 08 ea 7c 3f
       1.0010753 1.0208834 1.0172116 0.98794603
000090 05 3d 80 3f 71 b1 81 3f 6f a2 7e 3f 14 56 7e 3f
       1.0018622 1.0132276 0.99466604 0.99350095
0000a0 ad 67 7f 3f 89 23 80 3f e7 31 7d 3f c4 4d 81 3f
       0.9976757 1.0010844 0.9890427 1.0101857
0000b0 7c 9a 81 3f 08 de 7e 3f 8d 33 85 3f 56 bb 80 3f
       1.012527 0.9955754 1.0406357 1.005717
0000c0 04 51 83 3f c9 d2 82 3f d7 04 7f 3f 25 b2 81 3f
       1.0259099 1.0220577 0.9961676 1.013249
0000d0 9f 73 7d 3f 47 4e 82 3f 0a d3 7e 3f 39 4e 7e 3f
       0.9900455 1.0180138 0.9954077 0.9933811
0000e0 99 33 80 3f 8f 3e 7f 3f ae 32 84 3f 3b c4 7d 3f
       1.0015746 0.9970483 1.0327966 0.9912755
0000f0 45 aa 7e 3f 65 e7 7c 3f f5 48 7f 3f 09 64 80 3f
       0.9947856 0.9879058 0.997207 1.0030528
000100 7d e0 7d 3f c0 33 7e 3f 7b c8 80 3f 47 17 80 3f
       0.99170667 0.99297714 1.0061182 1.0007104
000110 6d e2 7e 3f ea 38 7d 3f 87 3f 7f 3f e8 bb 80 3f
       0.9956425 0.9891497 0.9970631 1.0057344
000120 fa 5e 81 3f fc 7f 82 3f 00 f1 80 3f 59 de 81 3f
       1.010711 1.0195308 1.0073547 1.014598
000130 6d 24 7d 3f 71 df 81 3f 49 dd 7b 3f 28 2e 80 3f
       0.98883706 1.0146314 0.9838453 1.0014086
000140 36 2d 82 3f 3e 0b 7c 3f 40 be 7d 3f 9e 49 80 3f
       1.0170047 0.98454654 0.99118423 1.0022466
000150 4e 66 82 3f 48 5b 81 3f 6c 50 81 3f ce 2d 7e 3f
       1.0187471 1.0105982 1.0102668 0.9928864
000160 27 24 82 3f 42 b2 7f 3f 43 09 81 3f 3d 69 7f 3f
       1.0167283 0.99881375 1.0080951 0.99769956
000170 49 b7 82 3f a1 a3 81 3f bf 8f 81 3f 9e 29 81 3f
       1.0212184 1.012806 1.0121993 1.0090826
000180 0d ee 82 3f 1f 5a 80 3f c7 fe 80 3f d3 24 80 3f
       1.0228897 1.0027503 1.0077752 1.0011238
000190 d8 e0 80 3f 14 b6 82 3f bf 94 7e 3f 4d d8 81 3f
       1.0068617 1.0211816 0.9944572 1.0144135
0001a0 a4 c6 7c 3f 77 01 7f 3f 42 3b 7d 3f db d5 7f 3f
       0.987406 0.9961161 0.98918545 0.9993569
0001b0 59 b2 80 3f cd 9f 80 3f 5a ea 7c 3f 3a 26 81 3f
       1.0054427 1.0048767 0.9879509 1.0089791
0001c0 94 84 80 3f 01 e6 7f 3f 6f df 80 3f 04 10 80 3f
       1.004046 0.99960333 1.0068187 1.0004888
0001d0 d7 88 77 3f 35 f3 82 3f be 6f 7c 3f 5b cb 81 3f
       0.96693176 1.0230471 0.98608005 1.0140184
0001e0 f2 87 7d 3f db fc 7c 3f 62 97 7e 3f 23 b3 80 3f
       0.9903556 0.98823327 0.9944974 1.0054668
0001f0 1b d8 81 3f 94 44 81 3f c1 72 80 3f c8 fe 81 3f
       1.0144075 1.0099053 1.003502 1.0155878

projection_layer.1.bias f4 [128]
000000 d7 45 c1 bc b5 3e 74 bc 3a e1 9b bc 63 bb 7e bc
       -0.023592873 -0.014907529 -0.019028295 -0.015547606
000010 c1 71 1f bc ed 1e 1d bc eb ac 9d ba ef e2 87 bc
       -0.009731711 -0.009589893 -0.0012029683 -0.016587703
000020 8e c2 6c 3c 8c b0 86 bc e1 80 c9 3b 4c ec 33 bd
       0.014450682 -0.016441606 0.0061493968 -0.043926522
000030 e1 15 3c bc ab 8b a9 bc b0 30 93 bc a6 14 48 bc
       -0.011479826 -0.020696482 -0.017967552 -0.012211954
000040 dc 29 87 bc d7 60 72 bc 79 6f 54 3c 36 4a 4e bc
       -0.016499452 -0.014793596 0.01296603 -0.012590935
000050 aa b4 ee 3a e1 11 ab bc 83 79 85 ba 19 76 b9 bc
       0.0018211801 -0.020882549 -0.0010183308 -0.022639321
000060 21 4e 9a bc 1c c3 94 bc 85 83 a9 bc 06 0f 32 bc
       -0.018836083 -0.018159442 -0.020692596 -0.01086784
000070 a0 d4 cd bb 35 4f 09 b9 95 2d 57 3b 94 a4 81 bc
       -0.0062814504 -0.00013094845 0.0032833565 -0.015825547
000080 b9 26 29 ba 8d a2 b3 bc 1a 04 7a bc 61 38 da bc
       -0.00064526085 -0.021928096 -0.015259767 -0.026638212
000090 0c 05 38 bc a6 d8 71 bc 03 85 1a bc 0d ca a6 bc
       -0.011231672 -0.014761126 -0.0094311265 -0.020360017
0000a0 da 2c b3 bc d4 92 d7 bb ca d8 ad bc 97 c3 4c bc
       -0.021871973 -0.0065787826 -0.021221537 -0.012497804
0000b0 62 68 62 ba 4b 7f af bb 5a 8e ee ba c2 2f 88 bb
       -0.000863677 -0.0053557507 -0.0018200383 -0.004156084
0000c0 fd e1 b8 3c c5 6d 76 3b 9f 79 7d bc 81 d8 21 bc
       0.022568697 0.0037602049 -0.015470891 -0.009878279
0000d0 12 47 c5 bc 0a bb 0b bc ca 6d 64 bc 8d a2 da bc
       -0.02408174 -0.00852848 -0.013942191 -0.026688838
0000e0 ed f5 14 ba 6c fc c7 bb ce 6d 8b 3c f9 cf ee bc
       -0.0005682398 -0.006103089 0.017020132 -0.029151903
0000f0 d0 a0 80 bb 08 92 ca bc aa 14 e0 bb 86 e9 32 bc
       -0.0039254203 -0.024727836 -0.006838401 -0.010919934
000100 87 a9 d0 bc 3c cb c9 bc 2c cb 46 bc 13 ee 20 bc
       -0.025471462 -0.024633043 -0.012133401 -0.009822386
000110 88 66 05 bc d5 9b 02 bd a4 95 88 3b 35 f1 3e bb
       -0.008142121 -0.031886894 0.004168229 -0.002913547
000120 2b 6a 88 bb d9 a8 71 bc 05 e9 85 bc 36 6c bc 3b
       -0.004163047 -0.014749729 -0.016346464 0.0057502044
000130 1d 65 d1 bc ff 21 5e 3b 8a 08 66 bc 52 43 03 bc
       -0.02556091 0.0033894775 -0.014040122 -0.008011656
000140 15 30 9b 3c f3 b6 b3 bc 5d e2 0c bc b3 58 7c bc
       0.018943826 -0.021937823 -0.008598891 -0.015402007
000150 71 98 10 3c b8 8a 9b bb 65 2a e7 3b bb 1e 02 bb
       0.008825407 -0.004746761 0.0070546144 -0.0019854743
000160 b8 f6 4c 3c 22 09 f1 bb 8d a2 3b bc 6e e7 92 bc
       0.012509994 -0.007355825 -0.011452329 -0.01793262
000170 41 bf 2e 3c 70 5f 94 bc 0e 4b 4b bc 38 1c 71 bb
       0.010665716 -0.018111914 -0.012408031 -0.0036790501
000180 df 60 46 bc 17 00 1f bc a8 6a 5d 3b 5e fe 35 ba
       -0.012108057 -0.009704611 0.0033785496 -0.0006942506
000190 dd ae 35 bc 2b c2 63 3c a9 8d 08 bd 0d 48 9f ba
       -0.011089054 0.013901274 -0.033338223 -0.001215221
0001a0 2d 47 e2 bc 01 47 bb bc 12 6d e0 bc 3f 96 ce bc
       -0.02762183 -0.022861006 -0.027395759 -0.025218127
0001b0 b8 85 59 bc bb ff b1 bc dc 13 a8 bc 4d 74 c5 ba
       -0.01327651 -0.021728387 -0.020517282 -0.0015064568
0001c0 f3 ab 5d bc e2 cd 84 bb a9 be 51 bb 7d 88 23 bc
       -0.013529765 -0.0040528635 -0.0032004511 -0.009981272
0001d0 30 b2 16 bd c8 92 6b bb 08 49 42 bc 22 cc 14 bc
       -0.036791027 -0.0035945643 -0.011858232 -0.009081872
0001e0 07 2a 84 bc b2 16 a0 bc 4f 9a cc bc 39 3e 3a bc
       -0.016133321 -0.019542072 -0.024975924 -0.011367374
0001f0 6d 36 fd 3a 6f 2b e9 ba 24 30 da 39 9b fc 77 3a
       0.0019318588 -0.0017789433 0.00041616068 0.00094599434

projection_layer.1.running_mean f4 [128]
000000 1b 26 53 bc bc cb 58 bd 97 29 41 bc 97 56 a3 bc
       -0.012887503 -0.05292867 -0.011789701 -0.01993875
000010 8c 65 84 3c bf 6f 9e bc b4 94 a4 3d bc cb 93 bd
       0.016161703 -0.019340394 0.08036175 -0.072165936
000020 68 84 e4 bc 81 34 2d bc 08 f6 2a 3d a0 1e 92 3b
       -0.027895167 -0.0105716 0.04173854 0.004459217
000030 49 c8 3a bd a4 66 9b 3d 2b 70 58 bd f1 c8 96 bd
       -0.045601163 0.075879365 -0.052841347 -0.07362545
000040 f3 0f c7 bb 92 1e d4 3b 3a f8 5e b9 84 c4 79 bc
       -0.0060748993 0.006473371 -0.00021264041 -0.015244607
000050 51 df c0 3c 77 33 36 bb 17 97 93 bc 77 d8 f7 bc
       0.023543986 -0.0027801672 -0.018016381 -0.030254586
000060 2c c0 e3 bc da f1 06 3d dd bf 10 bd ac 69 69 3c
       -0.027801596 0.03294549 -0.035339225 0.014246386
000070 c7 bd 90 bc 2e b3 4a 3d 3b d9 ce bc 25 92 26 3d
       -0.017668618 0.049487285 -0.025250068 0.040666718
000080 51 fd 42 3c cf c6 ca bc 43 28 65 3d 6c 78 b1 3c
       0.011901216 -0.024753002 0.0559466 0.021663867
000090 55 61 14 bd 69 3c ec 3c 95 ba 25 bd b9 57 90 3c
       -0.036225636 0.0288374 -0.04046114 0.017619954
0000a0 85 17 12 bc 1f 44 f0 3c e2 2a da 3c c9 b2 d5 bd
       -0.00891674 0.029329358 0.026631776 -0.10434491
0000b0 20 37 a5 ba de 29 5b bc c3 31 e9 3c 18 8c 86 bd
       -0.001260493 -0.013376681 0.028466111 -0.065696895
0000c0 8e f7 97 bc b7 f8 74 3d 17 b3 09 3d 6c c2 2d bc
       -0.01855066 0.059807505 0.03361806 -0.010605436
0000d0 41 f7 09 bd 9d bd c9 bc d4 1e ca 3c 25 07 06 bd
       -0.033683065 -0.024626547 0.024672903 -0.032721657
0000e0 93 d4 33 bd 76 cd 62 3d cb 2d b6 bc 7d cf bc 3c
       -0.0439039 0.055371724 -0.022238633 0.023048157
0000f0 61 69 2e 3d 2d af 25 3d 5e f8 36 bd aa 59 75 3d
       0.042580966 0.040450264 -0.044670455 0.059899963
000100 92 29 3c bc 11 e1 d3 bd cd 63 f0 3c 2e e7 02 3b
       -0.0114845205 -0.103456624 0.029344464 0.001997422
000110 43 80 64 3d e0 6b 09 3d 38 d5 e5 bc 4d 80 74 bc
       0.055786382 0.033550143 -0.028055772 -0.014923167
000120 a3 fc f0 ba e5 4d 85 3d 9e 10 f1 bc 83 3a 06 bd
       -0.0018385838 0.06508998 -0.029426869 -0.032770645
000130 27 62 70 bd 74 31 89 bc 31 81 06 bc 5c ef 1c bb
       -0.058687355 -0.016747214 -0.008209513 -0.002394638
000140 62 6a 8e bb 4c a9 4c bd 56 b3 ab bd ab bf 3f bc
       -0.004346178 -0.04996614 -0.08383815 -0.011703412
000150 d7 6e 1e 3d 96 24 4d bd b1 6a da 3c cc 62 4c b9
       0.038679924 -0.05008372 0.026662203 -0.00019491761
000160 bf 0a 36 bd ca e7 dd bb 5e e9 97 3b 11 25 8b 3d
       -0.044443842 -0.006772016 0.004635974 0.06794179
000170 de 4a 34 3d cb a0 72 bb b9 65 9a 3d 74 7a 48 bc
       0.04401671 -0.003702211 0.07538933 -0.012236226
000180 42 27 30 3d b0 01 ee 3c ff ca 3d 3d 3c d4 b0 bb
       0.04300619 0.029053539 0.04633617 -0.005396394
000190 7e 3b 9d bc aa b0 51 bd 68 90 52 3d d4 22 0f 3d
       -0.019193407 -0.05119387 0.051407248 0.034945324
0001a0 6b cc 88 3c 36 36 f0 bc 83 a2 8d 3b 21 73 97 bc
       0.016699037 -0.029322725 0.0043223514 -0.018487515
0001b0 f8 87 34 bd 1d 9e 7d 3c 7c 49 85 3c 01 e6 97 3d
       -0.044074982 0.015479592 0.016270392 0.07416917
0001c0 67 b5 f2 3c 2d 82 37 bd e6 49 0a bd 43 12 6c 3d
       0.029627515 -0.04480188 -0.03376188 0.057634603
0001d0 5e c0 7b 3c 48 01 a6 3c 4a 0d 8b bb df 32 02 3c
       0.015365688 0.020264283 -0.0042435275 0.007946699
0001e0 ec 3f 08 3d b8 21 b4 3c 96 a6 87 3d 2d 15 b0 3c
       0.033264086 0.021988735 0.066235706 0.021494472
0001f0 23 3a 1c 3d f8 e4 21 bd 9c b2 eb bc 78 7a 4e 3d
       0.03814138 -0.039525002 -0.028771691 0.050409764

projection_layer.1.running_var f4 [128]
000000 3c 50 e4 3d 12 48 00 3e 10 89 16 3e 5b ac e5 3d
       0.11148116 0.12527493 0.14700723 0.11214515
000010 05 b4 0e 3e 87 a9 ec 3d 21 7b 4e 3e 4d 68 cb 3d
       0.1393586 0.11555772 0.20164157 0.09932003
000020 1e 07 0f 3e 5e ee 0c 3e 4b 16 2b 3e 30 8c d1 3d
       0.13967559 0.13762805 0.16707723 0.10231817
000030 96 74 a8 3d 25 1a e3 3d 3e ed 4a 3e e5 4e cc 3d
       0.08225362 0.11088971 0.19817063 0.099759854
000040 c6 0e 15 3e 62 96 db 3d c5 17 35 3e e8 b2 9b 3d
       0.14556417 0.107220426 0.17684849 0.07602483
000050 8d 39 d2 3d 20 23 3a 3e 3a ab 1d 3e 77 b0 f7 3d
       0.10264883 0.18177462 0.15397349 0.12094205
000060 e4 9a d9 3d 41 14 05 3e 83 7a a7 3d 81 cd 27 3e
       0.10625246 0.12996008 0.08177664 0.16386987
000070 37 6a 92 3d 63 ce 02 3e ca 9d e9 3d 07 99 f0 3d
       0.07149165 0.12774043 0.11407049 0.11747938
000080 81 ef 06 3e 77 01 89 3d 90 78 d6 3d 2a ec 1d 3e
       0.13177301 0.066897325 0.10472214 0.1542212
000090 64 9c d4 3d 1c f8 e3 3d f4 36 d6 3d f6 89 d0 3d
       0.10381392 0.111313075 0.104597 0.10182564
0000a0 7f a2 92 3d 7c 04 29 3e 55 b0 1b 3e 29 58 39 3e
       0.071599 0.16505617 0.15203984 0.18100037
0000b0 33 8c e4 3d d0 80 b8 3d cf bd 38 3e 8a ae 24 3e
       0.111595534 0.09008944 0.18041156 0.16082206
0000c0 57 0c c1 3d 92 f8 98 3d c5 a5 2b 3e e7 e7 05 3e
       0.09426182 0.07469286 0.16762455 0.13076745
0000d0 88 2a 60 3e ff b6 de 3d cf 06 2f 3e 48 46 32 3e
       0.21891224 0.108747475 0.17092441 0.17409623
0000e0 96 b8 f6 3d 40 36 f3 3d 3e cf ea 3d 8d 3e 56 3e
       0.12046926 0.11875582 0.114653096 0.20922299
0000f0 bc 91 ac 3d 71 68 c8 3d e7 0d 00 3e 35 da f6 3d
       0.08426234 0.097855456 0.12505303 0.120533384
000100 83 6c e6 3d dd 1c 75 3e 07 54 d9 3d 10 a4 d7 3d
       0.11251166 0.23936792 0.1061173 0.10529339
000110 db c9 f3 3d 57 4f e0 3d 53 9b 50 3e c5 db f5 3d
       0.11903735 0.10952633 0.20371751 0.12004808
000120 73 43 0f 3e 01 88 aa 3d b2 82 fa 3d a8 a9 21 3e
       0.13990574 0.08326722 0.122319594 0.15787375
000130 82 ae fb 3d 56 72 ff 3d e8 f3 de 3d 9b 5b 0f 3e
       0.12289144 0.1247298 0.10886365 0.13999788
000140 53 ea 25 3e bf 7e 28 3e ac b3 d0 3d bd 65 ef 3d
       0.16202669 0.164546 0.1019052 0.11689327
000150 89 93 fe 3d f2 b3 c9 3d a3 60 32 3e 01 31 07 3e
       0.12430484 0.09848775 0.17419676 0.13202287
000160 7e 8c 25 3e a7 13 b0 3d 62 7f 29 3e 08 82 de 3d
       0.16166875 0.085974984 0.16552499 0.10864645
000170 6b 20 09 3e 78 ca 13 3e 06 46 1d 3e 12 56 b5 3d
       0.13391273 0.14432704 0.15358743 0.08854307
000180 ee 78 09 3e 59 7c ae 3d c2 a6 f3 3d 54 10 d9 3d
       0.13425037 0.08519811 0.11897041 0.105988175
000190 6e c3 04 3e 13 0d 16 3e d1 3e 3a 3e 21 ba 0e 3e
       0.12965176 0.14653425 0.18188025 0.1393819
0001a0 87 d5 d7 3d 30 0d 09 3e 6c 51 dc 3d 5f ea 09 3e
       0.10538774 0.13383937 0.107577175 0.13468312
0001b0 ef 7f e9 3d 99 31 a8 3d f0 bc 2e 3e 53 c2 30 3e
       0.114013545 0.08212585 0.17064261 0.17261629
0001c0 8d 97 fc 3d 6a 0c 9f 3d 3c 6a c8 3d 5f e6 22 3e
       0.123335935 0.0776604 0.097858876 0.15908192
0001d0 4c cc 83 3e 93 c6 0a 3e b4 05 1a 3e 16 d5 ee 3d
       0.25741804 0.13552313 0.15041238 0.11661737
0001e0 83 11 24 3e 74 33 24 3e aa 2f bc 3d 66 43 d6 3d
       0.16022305 0.16035253 0.09188779 0.10462074
0001f0 5f 33 1e 3e 31 27 f1 3d 14 8e d5 3d c9 7a bd 3d
       0.15449284 0.11775053 0.1042749 0.09251935

projection_layer.4.weight f4 [128, 128]
000000 20 1d ad 3c 1e 52 52 bd ea 10 54 3b 66 db 59 bd
       0.021132052 -0.051347844 0.0032358714 -0.05318775
000010 0f 29 19 3d 5a cc 91 3c ca 04 87 3d 2d 0a b3 3d
       0.037392672 0.017797638 0.0659271 0.08742175
000020 fc c7 93 3d 04 dc 2a bd b3 d3 a2 3d 3a a4 7f 3d
       0.07215878 -0.04171373 0.07950535 0.062412478
000030 39 8d 60 bd b3 97 98 3c 15 36 81 bd 7a 1c d6 bc
       -0.05482218 0.018627023 -0.063091435 -0.026136626
000040 3f 4a 04 bd 5e 19 57 3d ed 4e ad bd 68 4c 6f 3c
       -0.03229737 0.052514426 -0.084623195 0.014605619
000050 5d e2 ad bd b6 e3 fa 3a ce 6a c6 bd 5c 52 72 3d
       -0.08490441 0.001914135 -0.0968834 0.059160575
000060 f1 e4 8c bd c5 b8 86 bd d9 b7 8b bc 43 d0 db bd
       -0.068796046 -0.06578211 -0.017055439 -0.10733082
000070 c9 34 bc bd 14 d3 93 bd 5b ea 29 3c 15 2c 9e bd
       -0.091897555 -0.07217994 0.010370816 -0.07723252
000080 86 37 31 bb 39 27 b0 bc 96 b1 26 bc 86 72 07 3d
       -0.0027041151 -0.021503078 -0.010174176 0.033068202
000090 e0 1e 08 3c 22 33 ba bc b7 a3 65 bc de 98 70 3d
       0.008308142 -0.02272946 -0.014016083 0.058739536
0000a0 f3 1a cb 3b 80 d3 95 3b 75 e5 c4 bb 41 02 96 bd
       0.006198281 0.004572332 -0.0060087987 -0.07324649
0000b0 a0 b8 67 bd fe 02 19 3d aa 81 a4 bb a5 2f da bb
       -0.056572556 0.03735637 -0.00502034 -0.0066585117
0000c0 bd 3b cc bb 4a f1 74 bd 25 a0 fb bc e5 fc 25 3d
       -0.0062327073 -0.059800424 -0.030716011 0.040524382
0000d0 53 f4 3c 3d ff b8 a9 bd 63 c2 2b bd 4b 75 76 3c
       0.046131443 -0.08287238 -0.04193343 0.015042613
0000e0 66 b3 07 3d e0 f8 a8 3c 56 17 c4 bc 22 ca 8f bd
       0.033130072 0.020626485 -0.023936909 -0.07020976
0000f0 c0 1b bc 3d 80 87 45 3d 26 cf ce bc 81 b1 af bd
       0.091849804 0.048224926 -0.02524526 -0.08578778
000100 4d 54 da 3c ae fb cb 3c 5b 41 9f bd 23 1a 9a bb
       0.026651526 0.024900284 -0.077761374 -0.004702823
000110 f2 3c 93 bd e8 14 c3 bd c6 53 96 bc 22 89 9d 3d
       -0.07189359 -0.09525472 -0.018350493 0.07692172
000120 a7 b6 92 bd 43 13 ba 3d 63 1b 9a 3d 23 27 c0 bd
       -0.071637444 0.09085705 0.07524755 -0.09382465
000130 e3 7b 0d bd c5 aa 00 bc 83 3e a1 3c 1d 37 85 bd
       -0.034541976 -0.007853215 0.019683128 -0.06504653
000140 ac c6 8f bd bb 3a 48 3d 39 88 48 3d 56 dd ae b9
       -0.070203155 0.048884135 0.048958037 -0.00033352774
000150 ad 68 dc bb 7e 2c b0 3d c7 27 cd 39 af dc 54 bd
       -0.0067263455 0.08602236 0.00039130283 -0.051968273
000160 6d d1 a4 bd ad 58 d1 bc 58 26 a0 bd a9 91 a0 bc
       -0.08047757 -0.02555498 -0.078198135 -0.019600706
000170 79 68 89 3d 58 12 9f bd 34 ed b7 bd 38 d7 83 bd
       0.0670938 -0.07767171 -0.0898079 -0.06437534
000180 13 59 19 bd 9e 69 90 bd 2f 91 b6 bc 4b ee c5 bc
       -0.037438463 -0.07051395 -0.022286026 -0.024161479
000190 d0 56 14 bd 8f b3 97 3b 0f f4 00 3d 38 7f 52 bc
       -0.036215603 0.0046295593 0.031482752 -0.012847714
0001a0 4c 33 d2 3c ed 32 93 3d 13 27 84 bd e8 81 ad 3c
       0.025659226 0.07187448 -0.06452765 0.021180108
0001b0 1b 64 51 bd 69 7d 50 bd 82 03 5f bd 44 84 14 3d
       -0.05112086 -0.05090085 -0.054446705 0.03625895
0001c0 a2 16 47 bd 93 23 b6 bc 51 22 2b 3d e8 cd 98 3d
       -0.04860557 -0.02223376 0.041780774 0.074611485
0001d0 a1 f6 05 3d bf 00 58 3c a0 01 80 bd b0 32 16 3d
       0.032705907 0.013183772 -0.0625031 0.036669433
0001e0 12 a4 94 bd e1 ec 14 3c 87 c5 7e 3c 4b d0 75 3d
       -0.072578564 0.009089679 0.015550024 0.060013097
0001f0 45 af d5 bc e7 0e eb 3c 57 97 36 bd 56 ce e7 bc
       -0.026084552 0.02869363 -0.044577923 -0.02829663
000200 95 38 9d bd c3 35 a8 3d ec 6c c9 3c 8e 16 76 bc
       -0.07676808 0.08213379 0.02458807 -0.015020026
000210 1c 8f 9f 3d 07 7f 8e 3d 24 9b 3c 3c 01 a9 3d 3c
       0.07790968 0.06957822 0.011511598 0.011575938
000220 33 0a f1 bc 6f d0 b5 3d 57 0c 52 bd f5 ba 9b bd
       -0.029423809 0.08877646 -0.0512813 -0.076040186
000230 41 e2 c9 3c 60 bd b7 bd 53 16 91 bd 4d ee 0f bd
       0.02464402 -0.08971667 -0.07084336 -0.03513937
000240 76 6f 0b bd ea 20 3d 3d 13 28 00 3d fc d0 b8 bc
       -0.034041844 0.046173967 0.031288218 -0.022560589
000250 b1 1e 3e bd 30 6d 4b bc 08 cb 3f 3d 70 41 87 bd
       -0.04641599 -0.012416169 0.046824485 -0.06604278
000260 e8 32 f3 bc f5 61 56 3d 7a 80 c5 bd 3d 1a 88 3d
       -0.02968736 0.052339513 -0.096436456 0.066456296
000270 4f ef 90 3d cd fd 4d 3d 32 e4 4c bd a1 bd 41 bd
       0.070768945 0.05029087 -0.05002231 -0.047299985
000280 10 52 92 3c 7a fc 84 bd 41 43 13 bd 84 aa 3d 3d
       0.017861396 -0.064934686 -0.03595281 0.046305194
000290 b4 86 75 3d 8a eb 9d 3d d5 ca a1 bd cb 5d 85 bc
       0.059942916 0.07710941 -0.07900015 -0.016280076
0002a0 78 17 86 3d 4f fc 51 3d 68 0e 7a bd 5c 0e 48 bc
       0.06547445 0.05126601 -0.061048895 -0.012210455
0002b0 5a 6e 6d bd 90 3f f4 3c 60 ae 55 bc 3a c0 61 3d
       -0.057966568 0.029815465 -0.0130420625 0.055114962
0002c0 d1 a8 9e 3d 4a 8a 05 3c 25 e6 83 3d c6 9e a2 bd
       0.07747043 0.008150646 0.06440381 -0.0794044
0002d0 f7 5b 86 3d 7d f1 6c bc 2e ea 83 3d c4 49 b6 bd
       0.0656051 -0.014461872 0.064411506 -0.089007884
0002e0 0f e7 b0 3d 2c e8 09 3c d6 66 72 bd ed ad e2 bb
       0.08637821 0.0084171705 -0.059180103 -0.006917706
0002f0 af 85 c6 3d bf a8 5b bd 2f 97 75 3d 5b 23 22 3d
       0.09693467 -0.053627726 0.059958633 0.0395845
000300 52 33 ad 3c de 75 5e 3d ae 03 72 bd 3d 71 49 3d
       0.021142635 0.054311626 -0.05908554 0.049180258
000310 b0 b4 0e bb 22 6a 97 3d 64 21 ba bc c8 cd d9 3c
       -0.0021775179 0.0739329 -0.022721 0.026587382
000320 40 1b bc bd 93 2f 66 3d c8 5c 36 bc 9c 59 75 3d
       -0.09184885 0.056197714 -0.011130519 0.05989991
000330 4f 44 a2 bd 00 3f 84 bc 65 9c 3a 3d 1c e5 11 bd
       -0.07923185 -0.016143322 0.045559306 -0.035618886
000340 74 a1 ef 3c 5f fe b4 bc ff 73 c8 bc 97 e1 30 bc
       0.029251792 -0.02209395 -0.024469374 -0.010795972
000350 a4 83 92 bd 41 b5 5d bd 28 4d df bd 09 32 21 3d
       -0.07154015 -0.054127935 -0.10903388 0.039354358
000360 a6 97 86 3b 00 20 3a 3d 4e 78 98 bd 42 15 33 3d
       0.0041074334 0.045440674 -0.07444821 0.043721445
000370 84 10 02 bd 09 35 bc bd ab ba 0d bd 85 d6 99 bd
       -0.03175403 -0.09189803 -0.03460185 -0.075116195
000380 9a 6a c4 ba 29 90 85 bc 06 1e a8 3c 1c ab b3 bd
       -0.0014985383 -0.016304092 0.020522129 -0.08772871
000390 c8 c8 24 bd f1 75 04 3d 8a 62 84 3d a4 0d 56 3d
       -0.040230542 0.03233904 0.06464107 0.052259102
0003a0 10 5d 89 3d 51 1e 51 3d e6 5d 15 bd 54 21 3d 3d
       0.067072034 0.051054303 -0.0364665 0.046174362
0003b0 8c 2c 2f bc 08 8f 82 3b 7f 73 83 bd 2c 56 3f 3d
       -0.010691773 0.003984336 -0.064185135 0.04671304
0003c0 38 99 67 3d 07 65 34 bd 2b b7 89 3d 5f d5 99 3d
       0.056542605 -0.04404166 0.0672439 0.075114004
0003d0 6f e0 96 3d c4 0d cd 3b d9 5b 17 bd 77 93 54 bd
       0.07367026 0.0062577445 -0.036952827 -0.051898446
0003e0 77 86 a8 3d 40 74 49 3c 04 73 68 3d dc 16 ae bc
       0.08228772 0.012295783 0.056750312 -0.021251135
0003f0 4d 94 4d 3d d2 d7 02 3d ab db 19 bd a9 f3 6b bd
       0.05019026 0.031944104 -0.037563007 -0.05760542

projection_layer.4.bias f4 [128]
000000 b3 bd 8b 3d 30 cb a5 3c 67 f2 0f bd 87 a2 1b 3d
       0.06823292 0.020238489 -0.035143282 0.037996795
000010 e8 f7 49 3d 8e b5 a4 bd ae 86 09 3d 05 67 87 3d
       0.049308687 -0.08042441 0.033575706 0.06611446
000020 82 8b 47 3d 09 ca 8b 3d 89 96 cd bb 69 18 49 3d
       0.04871703 0.068256445 -0.0062740487 0.049095545
000030 03 1e 97 bd 4f 6c a8 bc f0 19 45 bd cd 94 17 bc
       -0.07378771 -0.020559458 -0.04812044 -0.009251785
000040 71 32 62 bd 4d a5 20 bc fa d0 18 bd 33 f5 ab 3d
       -0.055223886 -0.009805036 -0.03730867 0.083963774
000050 e3 28 01 3d 73 ea 12 3d 9c c4 9f bc 8a 16 ae bd
       0.031533133 0.03586812 -0.01950293 -0.08500393
000060 d4 a5 01 3d 82 8f 43 bc 35 df a1 bd e9 3d 48 bd
       0.031652287 -0.01193607 -0.079039015 -0.048887167
000070 b0 55 d6 3c c4 eb cc bb 67 82 7e 3d a5 f9 85 3d
       0.026163906 -0.0062536914 0.06213608 0.065417565
000080 5e 93 74 bc 0f 7b 8d bb 3e f4 41 3d 3c 60 13 3b
       -0.014927713 -0.0043176482 0.047352068 0.002248778
000090 f8 d9 b2 3c a2 e6 52 bd ff 72 73 bc 67 c0 ac 3d
       0.021832451 -0.05148948 -0.01485896 0.08435135
0000a0 3b 30 5e 3c b5 ab 51 bc e6 a1 16 3d e8 a4 0c 3d
       0.013561304 -0.012797286 0.036775492 0.034336954
0000b0 6b da 6a 3d d4 d9 9d bd a1 37 b5 3d e3 8a 9d 3d
       0.057337206 -0.07707563 0.08848501 0.07692506
0000c0 dd ca a6 3d 04 25 02 3d cc 30 b5 3b 33 0d 1d bd
       0.08144162 0.031773582 0.0055294987 -0.038342666
0000d0 ce 2c 7b ba bb 5d 98 3d 27 6a 0e bd da 8b 47 3d
       -0.00095815666 0.07439753 -0.034769204 0.048717357
0000e0 c5 02 e2 3b db 68 80 bd d2 7f 96 bd 0c 01 5c 3d
       0.006897303 -0.062699996 -0.073485985 0.053711936
0000f0 1b 74 92 3d d3 ee 48 bd e1 80 3a bd 51 05 c2 bc
       0.071510516 -0.049055886 -0.045533065 -0.023684176
000100 f7 3e 95 b9 56 a9 38 3d 67 bf ab 3d 39 af 74 bd
       -0.00028466407 0.045083366 0.083861165 -0.059737418
000110 10 15 92 bd e7 63 84 bc 2c e4 69 bd df 07 d6 b9
       -0.071329236 -0.016160918 -0.057102367 -0.00040823125
000120 b7 2a 00 3d 99 46 a9 bd f7 92 43 bd e4 19 8b 3d
       0.031290736 -0.082654186 -0.04774758 0.067920476
000130 e6 f7 a2 bc 73 30 2d 3d e4 d1 c2 bc 09 51 0a 3d
       -0.019893598 0.042282533 -0.023781724 0.033768687
000140 d3 de 2a 3d bf 13 30 3c b0 95 6d 3c 23 25 03 bd
       0.041716408 0.010746895 0.01450102 -0.03201784
000150 da f3 d3 3b 59 1f 0c 3d 8d c8 83 3d 69 41 12 bd
       0.0064682784 0.034209583 0.064347364 -0.03570691
000160 ce 8b f7 3b 8d 6b 3a bd f8 16 83 bd f3 d1 1e bd
       0.007554508 -0.045512725 -0.06400865 -0.038774442
000170 0c 33 7d bd 92 14 a8 bd 37 3e fa 3c ca 83 2f bd
       -0.06181626 -0.082070485 0.030547244 -0.042850293
000180 5c fb 8c 3d bc 49 64 bd af 4e 6a bd 71 85 95 3d
       0.068838805 -0.05573438 -0.057203945 0.073008426
000190 a5 2e d5 3b f7 00 cf bb 45 4c ac 3d e3 dc 3c bd
       0.0065058046 -0.0063172537 0.08412985 -0.04610909
0001a0 9b da 6a bd 45 16 a6 bb 97 15 35 bd c2 96 9e 3d
       -0.057337385 -0.0050685727 -0.044210043 0.077435985
0001b0 61 84 fe bc 3e f3 64 3d 71 e1 43 bc f3 a7 80 bd
       -0.031068983 0.055896036 -0.011955605 -0.06282034
0001c0 98 44 13 3d 79 3c 8e bc 61 7b 62 3d 6c 07 1b bd
       0.035954088 -0.01736282 0.055293445 -0.037848875
0001d0 f5 e6 a2 3c 74 d3 4f b9 be c9 52 bd 67 94 58 3c
       0.01988552 -0.00019819831 -0.051461928 0.013218976
0001e0 d4 ac 4c 3d 6b 24 39 3d 76 c6 7d bd b2 fe de 3c
       0.04996951 0.045200747 -0.061956845 0.027221058
0001f0 98 33 1b bd 59 fe 5f 3d 50 6a a1 3b ca ab 5e 3c
       -0.037891 0.054685924 0.0049260035 0.013590762

output_layer.weight f4 [1, 128]
000000 86 34 8b bd 93 29 0b bd 9a 32 5e 3d e5 45 82 3d
       -0.067971274 -0.033975195 0.054247476 0.063609876
000010 51 fa 99 bd cb b6 bb 3d 6c a3 b8 bd 52 eb 2d 3d
       -0.07518447 0.09165724 -0.09015545 0.042460747
000020 ea da ba bd c3 eb 7e 3d c0 9d de bd cb bd fa bc
       -0.09123786 0.06223656 -0.10869932 -0.030608078
000030 c6 52 a1 3d 7c 5b b9 3d d6 44 bf 3b bd 6c 42 bd
       0.07877116 0.090506524 0.0058370633 -0.047466982
000040 7d 9e 5b bd 2d 00 55 3d 2f 91 22 bd 61 ec b6 bc
       -0.053617943 0.05200212 -0.03968924 -0.022329511
000050 97 c5 04 bd 7e 9b 06 bd 5b dc c4 bd d9 b6 95 bd
       -0.032415 -0.032863133 -0.09612342 -0.07310266
000060 3b df 2c bd 7e fd 11 bb a1 d5 c1 3d d0 78 9e bd
       -0.042205077 -0.0022276337 0.094645746 -0.07737887
000070 5b b9 ad bd fc bf bf 3d 9c ca a8 bc 0b 49 5a 3d
       -0.084826194 0.0936279 -0.020604424 0.053292315
000080 b8 1b f6 bc dc 2b df bc bb d8 73 bc 58 2f b5 3c
       -0.030042514 -0.027242593 -0.014883216 0.022117302
000090 64 ec d0 bc d1 a1 51 3c 54 f1 b5 3c ba 82 44 3d
       -0.025503345 0.012794928 0.0222098 0.047976233
0000a0 f6 81 79 3d d7 0c 5d 3c f4 46 ba bd ba 54 09 3d
       0.060914956 0.013491831 -0.090955645 0.033528067
0000b0 5d b0 27 bd ee 3b b2 3d 19 15 11 bd 68 38 05 3c
       -0.040939678 0.08702837 -0.03542051 0.008131124
0000c0 e5 dd 54 3d 30 92 22 3d 6b b7 14 bd 46 33 2b 3d
       0.051969428 0.039690197 -0.036307734 0.041796945
0000d0 03 03 ad bd 61 6f 99 3c 2f ed 07 bd a6 60 05 3d
       -0.0844784 0.018729867 -0.03318518 0.032562874
0000e0 b6 ee d0 3c 6c df 43 bd 26 06 59 bb 1b e0 7e 3d
       0.025504451 -0.047820494 -0.0033115237 0.062225442
0000f0 1d 8d 21 bd 70 f9 b1 3d 3e c7 e1 bc fe 82 b3 bd
       -0.039441217 0.086901546 -0.027560826 -0.08765219
000100 c8 40 b3 3d 52 08 4a 3d 5d 34 72 3d bb d0 ab 3c
       0.087525904 0.04932434 0.05913197 0.020973554
000110 ca 79 9f bd 2c 8a 79 3d 1d ff a9 bd d6 11 bc 3d
       -0.07786901 0.060922787 -0.08300612 0.091830894
000120 6f 7e f8 bc 04 bc 12 bd e0 c8 9a bd 07 3d 94 bc
       -0.030333726 -0.035823837 -0.07557845 -0.018095506
000130 d3 b2 c5 3d 1c 61 80 bc 57 94 a6 3d da 1c 6c 3d
       0.09653249 -0.015671305 0.08133762 0.057644702
000140 57 37 ad bc 78 b9 ae bd 3f 8d 6d 3d c5 a4 d5 bd
       -0.021144552 -0.08531469 0.05799603 -0.10431818
000150 94 8d 9f 3d da ad 9e bd 1e e5 a5 bd a6 d1 a6 bd
       0.07790676 -0.07748003 -0.08100341 -0.08145456
000160 47 25 ea 3c 4b 5e b3 bd c9 ae 07 3d ba be f4 bc
       0.028582228 -0.08758219 0.033125672 -0.029876102
000170 9f 6e b8 bc b0 ed c9 3d 50 c6 b6 bd ff c8 da 3c
       -0.022513686 0.098597884 -0.08924544 0.02670717
000180 13 d5 92 bc 72 28 b9 3d 7e af 2f 3d b7 b6 ae 3d
       -0.017923867 0.090409175 0.04289197 0.08530944
000190 c4 30 8e 3d d6 24 1f 3d 2f 55 9d bc 2c ad 7b 3d
       0.06942895 0.03885349 -0.019205658 0.061444446
0001a0 ac 19 57 bd 9f ca c6 bd 72 5f 24 38 3a 12 90 bd
       -0.052514717 -0.09706616 3.9189537e-05 -0.070347264
0001b0 43 d9 db bc c9 1c 4a bd 6d 1d c7 bd 73 f5 a9 3d
       -0.026836997 -0.049343858 -0.097224094 0.08298769
0001c0 6a ea 50 bc d9 b7 74 bd 90 7b 2a 3c b0 b0 e5 bc
       -0.012751201 -0.059745643 0.010405436 -0.028038353
0001d0 e6 bc 2e bd 2f 6b 09 bd 24 78 e9 bc bc d6 b2 bc
       -0.042660616 -0.033549484 -0.02849967 -0.021830909
0001e0 1f 90 0b 3d 39 1e 5d 3d f9 25 85 3d 3b df 9e bd
       0.03407299 0.0539839 0.06501383 -0.077574216
0001f0 9d f7 e3 bd f4 48 98 3d ef 25 d3 bc 29 43 26 bd
       -0.11131213 0.0743579 -0.025774924 -0.040591393
