Checkpoints/HR_V/valence_s24.pth (torch, 461905 bytes, 29 tensors)

input_layer.weight f4 [128, 29]
00000000: a5d1 40bb f71c 2f3d f98f 073e 9cdc 1e3e
00000010: b552 98bc b049 9fbd 1f10 14be 0a9f 7abd
00000020: a51f 9bbd 7aba a0bd 8745 d13d b590 be3d
00000030: a5e2 b9bd ae0a 7dbd d0ca 49bd 424f 1f3e
00000040: ba3c 32be 5d6e 113e 6b91 a9bd 81e4 0e3e
00000050: 0e50 c4bd 9984 ddbd dfc6 a63d 2a4f 01be
00000060: 89a9 c83d a30d 0bbd 19e5 5c3d 16a0 0b3e
00000070: 6b89 e33d a453 893d adb4 09be 8b4e 933d
00000080: e798 babd 60ce cb3d 2fd2 45bc 1b76 e73d
00000090: 9df6 afbd 54be 153e 1397 003e 736e 1d3e
000000a0: c9fb 38be cef7 cc3b aaed 0f3e b7cc dcbc
000000b0: 1559 843d 5fc5 fdbd f838 303e f0e5 03bd
000000c0: 50d1 143e 725e f8bd c638 8d3d 39f3 27be
000000d0: 301b 063d 2c89 4ebd ef93 29be f119 163e
000000e0: 818b 12bb 93f8 27be 8760 05be 2527 3b3e
000000f0: 1587 16be 19ad e13d 061f 3e3d 923d dfbd
00000100: f2f7 963d 98bf 273e 3f22 a1bd e469 0b3e
00000110: 6fbf 043c d6ff 373d 9bcf a03c 4275 153d
00000120: 7621 293e 0dd9 e5ba f0b4 1a3e a9d4 573c
00000130: e34b ccbd b9bb 7cbd a8b8 c23d 2fab 2dbe
00000140: 9302 cd3d 54a2 1d3e 3b20 fc3d 2a42 d4bd
00000150: cbb5 08be 2abd debd 6447 86bd ceee 1a3e
00000160: 6ae4 323e 114e 0dbc 50af 96bd aaf7 e1bd
00000170: 9b33 9f3d f613 503d 7549 d23d 71b8 bbbd
00000180: a4f2 6c3d c54c b5bd 8454 b2bc a696 253e
00000190: c2e9 fd3d 22be 1e3e 13bb 653a ea39 48bd
000001a0: 1ae8 b9bc bedc b83d 7139 95bc a6b6 ff3d
000001b0: 679f 3c3d d2eb 4b3d d134 36be 60ed 89bd
000001c0: 7b47 43bd aafe 5c3d 8cbd 32be 6ede 9abd
000001d0: 30dd af3d b18e 34be 8b6d f43c bd48 1bbe
000001e0: dda7 1abd 9396 14bc ed83 93bd d1f5 04be
000001f0: c7c6 1ebc 1ae8 c73d 22b6 89bd 0537 16bd
00000200: 8f95 313e 5592 c63d e832 febd 044c e5bd
00000210: e4c1 f6bd 8dd5 1ebe fe09 0fbd afcf 0abd
00000220: 6357 263e 0ca0 1c3e e714 2abe e74d 843d
00000230: f507 7d3d 4eb9 053e 0dac a5bd b430 2abe
00000240: 71e0 9b3d feb9 3bbd 88f7 b33c 39bb 69bd
00000250: 0bdd ddbc 7e09 093d f0ad f23d 861e 0f3e
00000260: 59f1 c03d 42dd 5f3d fd94 f3bd 780f 0cbe
00000270: 3939 cfbc dddc 0fbe 2d6b 2ebe 3fa7 d8bd
00000280: 5b3a 073d 0ecf 37bd f00b 35be fde4 27be
00000290: 10cf 253e 27c8 b03d 6992 213d af1d d8bd
000002a0: 3dc0 46bd f23f 553d 554d 14bd c37e 513d
000002b0: 2047 ba3d ddc7 6dbd 7444 bd3d cc17 ad3d
000002c0: 58e4 e4bd 1adc 403c af5b 79bd ff84 15be
000002d0: d2c8 c3bd 5918 2dbd b484 14be 0647 d6bd
000002e0: 95e0 f8bd 0a03 94bc af11 353e 28a8 2b3e
000002f0: 2027 793d d2e5 bfbd 9d65 bfbd 8407 9dbd
00000300: 1d61 22be d1c5 2bbd 34ed eb3d 3180 1e3e
00000310: eede b23c 02a0 cb3b 4d81 293d 2bca 523d
00000320: ce71 af3c be39 20be 680b 343e a9a7 073e
00000330: 1344 5a3d 1f2f 18bc 59dc b2bd ac5f ee3d
00000340: 4de3 913b f90d 10be c6e0 1dbd 022d 22be
00000350: d0f6 3bbe 77a6 bfbd c7f1 e1bc 1a8a 0d3e
00000360: 52d4 3bbe f8ab 75bd b7bf cdbc 25f2 c73d
00000370: cae4 3dbe b7f1 1bbe ce11 8dbd 1dd6 76bd
00000380: 1d20 c9bd f547 debd 6a69 113e 67ee 33be
00000390: 356c e43d c726 df3d 05ad 0cbe 7dcf 203b
000003a0: fb0b 27be 0d7c cb3d de63 2d3e a495 c93d
000003b0: 3685 30be 8933 31be f689 ec3c a7b3 6b3d
000003c0: f140 2fbe 41cf 903d e304 c33b 23ab 82bd
000003d0: 5030 df3d 3c94 4a3d 1f28 bb3c 85de 7cbb
000003e0: d07f 18bd 1663 ac3d a3f3 0abe 46ca 3d3d
000003f0: 1682 3ebe 6c40 ca3d 64d0 253d fb4c 263e
-0.0029421833 0.042752232 0.13238515 0.15513843 -0.018594125 -0.07777727 -0.14459275 -0.061186828
-0.07574395 -0.078480676 0.102183394 0.093049444 -0.09076432 -0.061777763 -0.049265683 0.15557578
-0.17405978 0.14202257 -0.082796894 0.13954355 -0.09585582 -0.108163066 0.081434004 -0.12627855
0.09797961 -0.033948552 0.053929422 0.13635287 0.11110195 0.06705406 -0.13447829 0.07192715
-0.09111195 0.09951472 -0.012074037 0.11301824 -0.085919596 0.14623386 0.1255763 0.15374164
-0.18064798 0.0062551266 0.14055505 -0.026953084 0.064623035 -0.12391161 0.17209232 -0.032201707
0.14532971 -0.12127389 0.06895594 -0.16401376 0.03274077 -0.050423786 -0.16560338 0.14658333
-0.0022360983 -0.16403417 -0.13025104 0.18276651 -0.14699967 0.11019344 0.046416305 -0.109004155
0.073715106 0.16381681 -0.0786786 0.13614613 0.008102282 0.04492172 0.019630244 0.03648878
0.1651667 -0.0017536 0.15108085 0.013173261 -0.09975412 -0.061702464 0.09507877 -0.16959833
0.100102566 0.15393955 0.12310835 -0.10364182 -0.13350599 -0.10875924 -0.065565854 0.1513016
0.17469946 -0.0086245695 -0.07357657 -0.11033566 0.07773515 0.050800286 0.10267917 -0.09166039
0.057848588 -0.08852533 -0.021768816 0.16170749 0.123981014 0.15502217 0.0008763533 -0.048883356
-0.022693682 0.09026478 -0.018215867 0.12486009 0.046050455 0.049785443 -0.17793585 -0.06734729
-0.04767559 0.053953804 -0.17455119 -0.07561956 0.0858711 -0.17632557 0.02983739 -0.15164466
-0.037757743 -0.009069103 -0.07202897 -0.12984397 -0.009690947 0.09761067 -0.06724192 -0.036673564
0.17342208 0.09695879 -0.12412053 -0.111961395 -0.120487005 -0.1551115 -0.03492164 -0.03388947
0.16244273 0.15295428 -0.16609536 0.06460171 0.061775167 0.1305897 -0.08089457 -0.16620141
0.07611168 -0.045831673 0.021968618 -0.057063315 -0.02708294 0.033456318 0.11849582 0.13976488
0.094210334 0.054654367 -0.11893652 -0.13677776 -0.02529584 -0.14049096 -0.17033072 -0.10578775
0.033014636 -0.044875197 -0.17680335 -0.16395946 0.1619227 0.08631926 0.03944627 -0.10552537
-0.048523176 0.052062936 -0.036206562 0.05114628 0.09095597 -0.058051933 0.09241572 0.084518045
-0.111763656 0.011771226 -0.060878452 -0.14601515 -0.09559788 -0.042259548 -0.14503747 -0.104627654
-0.121522106 -0.018067855 0.17682527 0.16763365 0.060828328 -0.093700066 -0.09345553 -0.07667449
-0.15857358 -0.0419367 0.11519852 0.15478589 0.021834817 0.006214143 0.041383076 0.051462334
0.021416571 -0.15647027 0.17582476 0.13247551 0.053287577 -0.009288578 -0.08733434 0.11639342
0.004452145 -0.1406783 -0.03854444 -0.15837482 -0.1835587 -0.093579225 -0.027581109 0.13822213
-0.18342713 -0.059978455 -0.02511583 0.09762982 -0.18544307 -0.15228926 -0.068881616 -0.060262788
-0.09820578 -0.108535685 0.14200369 -0.17571412 0.11153451 0.10896068 -0.13737877 0.0024537735
-0.16313164 0.0993577 0.16932628 0.09842995 -0.17238316 -0.17304815 0.028874379 0.057544377
-0.17114617 0.070707805 0.0059515103 -0.06380298 0.10897887 0.049457774 0.02284628 -0.003858478
-0.037231266 0.08417337 -0.13569503 0.04633548 -0.18604311 0.09875569 0.04048194 0.16240303

input_layer.bias f4 [128]
00000000: 49f5 4a3d 11b2 3bbd 32f7 103e 8338 b0bd
00000010: 1825 1b3e 2b27 42bd 17d9 2ebe 52b6 213e
00000020: 126b b43d 0b89 ec3d 5c6e 1cbe 011f 16bd
00000030: 09cc 2a3e 32a1 303d bdea 84bd 2eb9 243e
00000040: 60e7 2dbc 2e69 353e 0ccb c53c 9e8e 18be
00000050: e3ba 22be 8623 18be 5974 4b3d c8af 82bd
00000060: 1acf 0fbe 9952 183e 112c 01be fe01 283e
00000070: d648 14bd 731c ecbd aab7 ddbd 60ac 08be
00000080: a1af b53d 5d12 273e b900 71bd f6d1 69bd
00000090: 2895 08be 7770 0c3b 7a72 02be c430 243e
000000a0: bf70 bc3d 1499 c83d 0695 ab3c e9b6 203e
000000b0: b85b 33be 6ba8 8e3b a9d1 2f3e ffc1 ba3d
000000c0: 4743 5b3b abf7 293e 49fe 18be b59b 2ebe
000000d0: 7de0 79bd 9298 8abd 4081 bdbd 9209 0b3e
000000e0: 0418 23be 4cf9 20be eaf3 37be 4895 033e
000000f0: 8e42 953c 50c8 fa3c b6e5 e53d 01ea da3d
00000100: 3c94 953c fc91 ccbd 9212 f4bc 78eb 26bd
00000110: 1aff 7f3d 1bcc b9bc de54 e6bd 643d 35bd
00000120: e490 31bd c5ae 413c 61dd e1bd 9377 303d
00000130: dce9 823d 8e40 0b3e 3202 87bd cde6 ddbd
00000140: adce 09be a6a3 87bd 6c64 55bc 598d 383d
00000150: f39c 5bbd d061 243c cb61 9cbd 821b cbbd
00000160: fc7c a33d 5b37 03be 7008 d93d 9ae9 903d
00000170: 9f07 fdbd 981b b6bd 5c5b 1f3e faf3 0cbe
00000180: 0de3 7dbd 6fb8 283e 6c46 933d 0e0c 1ebe
00000190: b91a e5bd d996 81bd 7e00 a1bd 60ff 48bd
000001a0: bf5a 333d 31b2 d5bd 1456 20be e1a2 78bd
000001b0: 7b13 e73d 2d20 463d 394f 2ebd 36f9 333e
000001c0: 0428 00be 5825 cbbd 1bb1 ff3d cdd2 e5bd
000001d0: d10d b5bd 7428 b7bd b650 a93d 054f c3bd
000001e0: 4a00 5bbb b50e d93d cc42 123e 9cea 213e
000001f0: d1e3 033e bbd2 b23c 1f8f 5e3d 4f6d 0abe
0.04955033 -0.045824114 0.14156798 -0.08604529 0.15150869 -0.047400635 -0.17075 0.15792206
0.088094845 0.11549576 -0.15276474 -0.03665066 0.16679396 0.043122478 -0.06490085 0.16086265
-0.010614246 0.17715904 0.024144672 -0.14898154 -0.15891604 -0.14857301 0.049671505 -0.06381184
-0.14043847 0.14875259 -0.12614466 0.1640701 -0.036202274 -0.11528864 -0.10826047 -0.13347006
0.08871389 0.16315599 -0.05883858 -0.057085 -0.13338149 0.002142934 -0.12738982 0.16034228
0.09201192 0.09794822 0.020945083 0.15694775 -0.17515457 0.004353573 0.17169823 0.09119033
0.0033456848 0.16598384 -0.14940752 -0.17051585 -0.061005104 -0.06767382 -0.09253168 0.1357787
-0.1592713 -0.15720099 -0.1796414 0.12849915 0.018220212 0.030613095 0.112254545 0.10689164
0.01825916 -0.09988782 -0.029794011 -0.040751904 0.062499143 -0.022680333 -0.11246656 -0.044248
-0.04335107 0.011821453 -0.11028553 0.043082785 0.063922614 0.13598844 -0.065922156 -0.108350374
-0.13457747 -0.0662301 -0.013024431 0.045056675 -0.053616475 0.010033086 -0.0763584 -0.09917356
0.07982823 -0.12814085 0.105973125 0.07075806 -0.12354969 -0.08891982 0.15562195 -0.13764945
-0.06198411 0.16476606 0.07191166 -0.15434286 -0.111867376 -0.063276 -0.07861422 -0.04907167
0.043787714 -0.10434378 -0.15657836 -0.06070221 0.112830125 0.04837053 -0.04255602 0.17575535
-0.12515265 -0.09919232 0.12484952 -0.11221848 -0.08840526 -0.08943263 0.082673475 -0.09536556
-0.003341692 0.10598508 0.14283293 0.15812153 0.12879874 0.021829 0.05433571 -0.1351826

projection_layer.0.weight f4 [128, 128]
00000000: 6de2 8c3d 113c 093c 4159 84bd d9cc 893d
00000010: 7c28 78bd e491 a63d 138a 8fbd 8302 6f3c
00000020: 513f 40bd 6db3 91bc 1fa7 03bd e427 60bc
00000030: b59b 05bd d61c dd3c e2d1 48bd 2966 68bd
00000040: d7bd 87bd 1a91 e63c 8ff9 023d 2810 dabc
00000050: 6b34 43bc f854 a63d bd93 acbd aa43 68bd
00000060: 353c 813d ae76 2d3d 5711 9abd 43bd 91bd
00000070: dbf6 14bd 3c07 7cbd 5d8f 803d cf89 8ebd
00000080: 7804 813d a084 b1bd 36e5 68bd 660c 9e3d
00000090: 4d71 6fbc 3ced 113d c786 5b3d 6246 6ebd
000000a0: c71c 043d ff4a afbd 9ed5 c3bc 6946 15bd
000000b0: 2861 b5bc 2ec3 09bd 3c53 90bd 9395 1fbd
000000c0: 1c86 a73d eb47 603c af6d 03bd d614 383d
000000d0: 5c7b 5a3a e8e3 083d 75d2 333d e493 2e3d
000000e0: 63bc 8dbd cf2a 0b3d 8660 503d 931e a5bb
000000f0: 3afe 75bc 0883 823d bebc abbc 68cb bf3b
00000100: 65d8 fc3b a53c 17bd 6b47 17bc 045a 8bbd
00000110: 22ab 81bd c541 d13c 7210 01bd 72b4 03bd
00000120: 62da 41bb eac4 64bd e79a a13d e827 1e3c
00000130: a2bf 85bd 253c 19bd 2f7c 533d 719c 853d
00000140: 1d7c f6bc a00d 893d 2425 8cbc 7c25 af3d
00000150: e8ec c83c 80f5 b73d 1dc1 78bd f323 0f3d
00000160: 8ba9 2fbd 2b6c e93a 964b 633d ee3f ab3d
00000170: d489 c23c 2df8 263d 2d6b 6bbd fbf2 2f3d
00000180: 62f7 acbd de0c 3b3d 5984 913c b084 16bd
00000190: d031 3dbd 7304 633d 2ee1 823d 38f8 9c3b
000001a0: 7cf0 a6bc 867c 07bd cf5b a9bd d6f3 97bb
000001b0: 4536 67bd c5de 2dbd c42d d1bb efb1 babc
000001c0: 55ba 99bd 19e1 97bd 385c 883d c06a 1fbd
000001d0: 355d 59bc 7af3 a73d 05c3 9e3d 4775 7f3d
000001e0: 6fae a6bd bfea 733d 7ae8 b33d 5cb1 dcbc
000001f0: 6f80 2f3d abcb 38bd 76b8 b1bd 9c2b 063d
00000200: bc10 89bc 27f4 d8bb 1881 a93d e7aa a3bd
00000210: 2808 7ebd 02f7 4b3c d0f6 9d3d f7c7 90bd
00000220: a67d 6d3d 7217 b4bb 4825 12bd 942f 953d
00000230: 74c3 c63c 5061 df3c 0dda 763c 4e61 023d
00000240: aade 10bb fb3d c8ba 4f63 243d 87c7 89bb
00000250: 1a67 2a3d 0692 9b3d 88d6 593b 77d6 0bbd
00000260: ad3f 743d a430 f93c 0123 84bd 1683 b13d
00000270: c74f 1abc e648 2f3b 70c1 773d abc7 893d
00000280: 57f2 573d 85ba 093d 9ef7 0237 ba6e 17bc
00000290: dfed 943d 0b38 a93c 66e1 ae3d 8cd3 b13d
000002a0: 00e2 833d 2960 313c a7f8 14bd 5c9c a13d
000002b0: 6aa2 d43c d885 923c 1a70 49bd edfd 4cbd
000002c0: 39de 8ebd 5a8a f4ba 381d 8d3c d559 aa3d
000002d0: 94f2 83bd 96c3 07bd d06e 8abd 6e5d 1f3d
000002e0: 0ccc 6c3c f6f2 4c3d 13c9 c4bb 8414 803b
000002f0: 0614 8b3d 949e 0b3d b03e 19bd 4688 a53d
00000300: 30c1 a7bd 0f5e 263d 568c 543c 1865 64b9
00000310: 4152 9bbd a63c 6cbd 78fc 82bd ac57 d53b
00000320: d070 243d 30ce 4abd faa7 83bc 167d 903d
00000330: 3d9e 88bd 2ca6 00bd 7d12 8d3c 98c8 aabc
00000340: 00ab 503d f09d 36bd 03ec fa3c 7ef7 6bbc
00000350: 5155 b8bc 71e8 403d 7bff 3f3b dd29 ebb9
00000360: 4d42 1c3c 56b0 1e3d 3a4c 1fbd 52f5 11bc
00000370: 72d0 aa3d 3859 0f3c 28df a7bd 2dd4 aa3d
00000380: f29d 40bc aa22 333d 4c0c acbc 53e6 963d
00000390: 19a3 1c3d 54aa 70bd 1df1 cd3c a10d 683c
000003a0: a4ae 08bd f8e8 a23d 7656 97bd f966 443d
000003b0: 614e 41bc 65a5 a33c cfd7 ab3d 03df babd
000003c0: 114c 183d f751 87bd 09d8 1c3d 2be6 a13d
000003d0: 5a0c cebb 78b5 193b 4243 bb3d 68e7 4e3d
000003e0: d134 afbc 988f a5bd 70b1 8d3b 2dfd adbc
000003f0: 2ae2 a6bc cd54 58bb 6ccd 8fbd 913c 91bd
0.06879125 0.008376137 -0.06462336 0.06728525 -0.060585484 0.08133295 -0.070087574 0.014588001
-0.046935383 -0.017785752 -0.0321418 -0.013681386 -0.032619197 0.02699129 -0.049028285 -0.056738053
-0.06628006 0.028145362 0.03197628 -0.026619032 -0.011914353 0.08121675 -0.08426616 -0.056705154
0.06310312 0.04234951 -0.075228386 -0.07116177 -0.036368232 -0.061530337 0.062773444 -0.06959879
0.062996805 -0.08667874 -0.056859218 0.077172086 -0.014614415 0.035626635 0.05359533 -0.05817259
0.032254007 -0.08559226 -0.023905572 -0.0364441 -0.022141054 -0.033633403 -0.07047126 -0.038961004
0.08179876 0.013689022 -0.032087024 0.044941746 0.0008334422 0.033420473 0.04390188 0.04262151
-0.069206975 0.033976372 0.050873302 -0.005039045 -0.015014226 0.063726485 -0.020964023 0.0058531053
0.007716226 -0.03692307 -0.009233336 -0.068042785 -0.06331469 0.025544057 -0.031509824 -0.032154508
-0.002957963 -0.055851854 0.078908734 0.009653069 -0.06530692 -0.037410874 0.051632103 0.065239795
-0.030088479 0.06692052 -0.017107554 0.085520715 0.024527028 0.08982372 -0.060731042 0.034946393
-0.0428863 0.0017808726 0.055492006 0.08361803 0.023747362 0.040764023 -0.057475258 0.042956334
-0.08445622 0.045666568 0.017763304 -0.036747634 -0.046190083 0.055424165 0.06390606 0.004790332
-0.020378344 -0.03307774 -0.08269464 -0.004637222 -0.05644824 -0.042448778 -0.0063836295 -0.022789923
-0.07506243 -0.07415981 0.06658214 -0.038920164 -0.013266851 0.08200736 0.07752041 0.062367704
-0.08138739 0.059550043 0.08784576 -0.02694004 0.042847093 -0.045116108 -0.08677761 0.032756433
-0.016731612 -0.006620902 0.08276576 -0.079915814 -0.062019497 0.012449028 0.077130914 -0.0706939
0.057981156 -0.005495959 -0.035680085 0.072844654 0.024263121 0.027268082 0.015066636 0.03183108
-0.0022105374 -0.0015277261 0.04013377 -0.0042046937 0.04160223 0.07596211 0.0033239443 -0.034140076
0.05963104 0.030418701 -0.06451989 0.08667581 -0.009418434 0.0026746332 0.06048721 0.06727537
0.052721348 0.033625145 7.806257e-06 -0.009242708 0.07271933 0.020656606 0.08539085 0.086829275
0.064395905 0.010826149 -0.036369946 0.07891151 0.025956351 0.017886087 -0.049179174 -0.05004685
-0.06975979 -0.0018656955 0.017225847 0.08317915 -0.064427525 -0.03314551 -0.06759417 0.03890746
0.014452945 0.050036393 -0.006005415 0.0039086957 0.067909285 0.03408678 -0.0374133 0.08082633
-0.081911445 0.040617045 0.012972912 -0.00021781435 -0.07584048 -0.057675026 -0.06395811 0.0065106954
0.04014665 -0.049513042 -0.016071308 0.07055108 -0.066708066 -0.031408474 0.01722073 -0.020847604
0.05094433 -0.044584215 0.030630117 -0.014402268 -0.02250162 0.047096673 0.0029296565 -0.00044853883
0.009537292 0.038742386 -0.038891055 -0.008908587 0.08340539 0.008749299 -0.081968606 0.083412506
-0.011756407 0.04373423 -0.021001957 0.073681496 0.03824148 -0.058756188 0.025139386 0.014163406
-0.033369675 0.079545915 -0.07389538 0.047949765 -0.011798472 0.019976327 0.083907716 -0.09124567
0.037181918 -0.066074304 0.038291965 0.07905229 -0.0062880935 0.002345411 0.09143688 0.050513655
-0.02138749 -0.08084029 0.0043241307 -0.021238888 -0.020371515 -0.003300953 -0.07021603 -0.0709163

projection_layer.0.bias f4 [128]
00000000: 420b f4bc 59a6 2ebd af8c 0f3d 8f84 2f3b
00000010: 5ff9 023d 0516 c23c cd61 703c 3186 e4bc
00000020: f9e4 3dbd cbda a4bd 5c45 cc3c 36ba 19bd
00000030: 60b2 f03c 0c44 213d ff1f 78bd eb22 943d
00000040: a5c6 13bd 7050 92bd e260 0e3d 3e25 583d
00000050: b31f 1c3d a9e9 a5bd cecd a23c 671a ec3c
00000060: 2faf 66bc 5ac6 b8bc 8463 2bbd a3d1 143d
00000070: 4bff dfbc 02f6 a7bd 82d3 823b ce07 723d
00000080: 74c9 dc3c b85a 403d 22a0 4ebd 72cc b03c
00000090: 941f 2b3d a779 3fbd ef82 0fbd 23fe aa3d
000000a0: d38c a2bb b8b3 ef3c f543 81bd 7359 6c3c
000000b0: edae 683d b4b6 083d f6c0 5e3d 9313 423d
000000c0: a6aa a03d 7e70 083d 728f 6dbc b9bc ce3c
000000d0: 9f1b 573d 9706 313d 2f7a 163b 29ff 64bd
000000e0: 92e1 60bd e700 8c3d 5cca 393d c86f 3fbc
000000f0: 2f5a 593c 6f3a a0bb 3000 fb3c 515f ae3b
00000100: 54c3 37bc 2f4a c23c 2a0e 003d 9902 3db9
00000110: 6243 793d bb5b 853d 1a2e 803b 76ea 273d
00000120: 4ce1 a5bb 4573 8ebd e120 9a3d c571 a23d
00000130: d081 4b3d ca96 7a3d b66a 90bd 6b52 223c
00000140: e13c 893c 0bd3 e0bc 255d 1dbc d1d2 8ebd
00000150: 25ec 5d3c e9a4 8e3d ce1d c9bb 8547 4c3c
00000160: cceb 66bd d999 1e3c 9474 a4bd b32e 55bd
00000170: 8ce0 02bd 47d5 2abd 8ea6 3cbd 2a6e 8d3b
00000180: de6b 26bb 48d4 a0bd ed0f 1e3c cea9 a2bd
00000190: 9293 8d3d 8ee1 9ebc 8662 19bc 12f4 643d
000001a0: 8b44 3cbc 6d63 57bd b5bc debb 2add dc3c
000001b0: 6d92 2a3d ae41 8e3d 0404 633c 389b a53d
000001c0: b088 5e3c 8f27 94bd 22fc 963d cea3 1cbd
000001d0: 260e a73a 7f7f 73bd 3a2f c2bc 6a1f 723d
000001e0: 56c6 923c 257a 693d e40e 023c a4d7 edbc
000001f0: c04e ff3c a42b 883d a92e 9c3d 90cd ea3c
-0.029790524 -0.04263911 0.035046276 0.0026781892 0.0319761 0.02369214 0.014671755 -0.027896019
-0.046360943 -0.08049544 0.024935417 -0.0375311 0.02938193 0.039371535 -0.06057739 0.072332226
-0.036078114 -0.071442485 0.034760363 0.052769892 0.03811617 -0.08101208 0.019873526 0.028821183
-0.014079853 -0.022555519 -0.041842952 0.036332738 -0.027343413 -0.08201219 0.003992499 0.059089474
0.02695153 0.046961516 -0.050445683 0.021581862 0.041778162 -0.046746876 -0.035036977 0.08349254
-0.004960635 0.029260501 -0.0631179 0.014425623 0.056807447 0.033377364 0.05438324 0.04738195
0.078450486 0.033310406 -0.014499532 0.025236474 0.052516576 0.043219175 0.002296101 -0.055907402
-0.05490262 0.068361096 0.045359 -0.011684366 0.01326613 -0.0048897783 0.030639738 0.005321421
-0.011216003 0.023717014 0.031263508 -0.00018025412 0.060855277 0.06511637 0.0039117457 0.040995084
-0.005062258 -0.0695558 0.075258024 0.07931856 0.049684346 0.06117896 -0.070516035 0.009907345
0.016752662 -0.027444383 -0.009604727 -0.06973804 0.013545071 0.06965048 -0.006137586 0.012468223
-0.056377217 0.009680235 -0.08030048 -0.05204649 -0.031952426 -0.041707303 -0.046057276 0.004316111
-0.0025393884 -0.078529894 0.009647352 -0.07942544 0.069129124 -0.019394662 -0.009361869 0.055896826
-0.011490951 -0.052585054 -0.006797398 0.026960928 0.04164355 0.06946121 0.013855938 0.08086246
0.0135823935 -0.07234108 0.07372309 -0.038242154 0.0012745305 -0.05944776 -0.02370416 0.05911199
0.01791684 0.05700125 0.0079381205 -0.02903349 0.03116548 0.06648949 0.07626087 0.028662473

projection_layer.1.weight f4 [128]
00000000: f313 803f f81e 803f 045b 7f3f 7536 7f3f
00000010: 7687 7f3f 8611 7f3f a21f 7f3f ec0d 7f3f
00000020: b665 803f 1a49 803f e54b 803f a5aa 7f3f
00000030: 5545 803f 178c 7f3f 6b52 803f b46e 7f3f
00000040: 4cba 7f3f 3515 7f3f 2ba8 7f3f 9f3b 803f
00000050: 6050 7f3f 746f 7f3f 8cf4 7f3f da6e 7f3f
00000060: 815c 803f ea4b 7f3f 1a90 7f3f 9428 803f
00000070: 0d85 7f3f 4261 7f3f 4160 7f3f e9b8 7f3f
00000080: 6b4b 7f3f c192 7f3f e5b0 7f3f ef12 7f3f
00000090: d23e 7f3f 1785 7f3f 804c 7f3f 36ee 7f3f
000000a0: 4e2b 7f3f a007 803f dc79 803f 8b55 803f
000000b0: 7ca6 7f3f d006 7f3f 6b3c 803f 30a4 7f3f
000000c0: 3e55 7f3f d05b 7f3f 8523 803f 1c1b 803f
000000d0: 553e 803f 1e29 803f a0ad 7f3f c71e 7f3f
000000e0: 6c6e 7f3f b91c 803f 28ab 7f3f 4157 7f3f
000000f0: 197f 7f3f 414e 7f3f f033 7f3f 0f0c 803f
00000100: c748 803f b5cd 7f3f 96c4 7f3f a70e 803f
00000110: 6b19 7f3f 015f 7f3f 2d10 803f 111a 803f
00000120: 8103 803f 25aa 7f3f 0fc7 7f3f 442e 7f3f
00000130: 4c04 7f3f e503 803f bd12 803f 2a6c 7f3f
00000140: d118 803f e890 7f3f 3eb9 7f3f 6b3c 803f
00000150: 31d7 7f3f 3cad 7f3f d6fc 7f3f 1715 7f3f
00000160: 8937 803f a061 7f3f 3990 7f3f 71fc 7f3f
00000170: 1385 7f3f 8f0e 803f 0034 803f 0135 803f
00000180: 700e 803f fbbd 7f3f b766 7f3f 5c10 803f
00000190: 5429 7f3f 9263 803f 392b 7f3f 3e3f 803f
000001a0: 3267 803f 6a24 7f3f a50e 7f3f 605d 7f3f
000001b0: 8d5d 7f3f f8ac 7f3f c65e 7f3f 8807 803f
000001c0: 9683 7f3f a8af 7f3f e5f7 7f3f 3e7b 7f3f
000001d0: d7c6 7f3f 1527 803f b06e 7f3f 9a4c 7f3f
000001e0: f7f4 7f3f 9cd1 7f3f 1b7d 7f3f 697a 7f3f
000001f0: 2611 803f 3e37 803f 58a9 7f3f 3db5 7f3f
1.0006088 1.0009451 0.99748254 0.9969247 0.9981607 0.99636114 0.9965764 0.9963062
1.003104 1.0022309 1.0023161 0.9986976 1.0021158 0.99823135 1.0025152 0.99778295
0.9989364 0.99641734 0.9986598 1.0018195 0.9973202 0.9977944 0.99982524 0.9977852
1.002823 0.9972521 0.99829257 1.0012383 0.99812394 0.9975778 0.99756247 0.99891526
0.99724454 0.99833304 0.99879295 0.99638265 0.9970523 0.99812454 0.99726105 0.99972856
0.9967545 1.0002327 1.0037189 1.0026106 0.9986341 0.9961977 1.0018438 0.99859905
0.99739444 0.9974947 1.001084 1.0008273 1.0019022 1.0012548 0.99874306 0.9965634
0.99777865 1.0008765 0.9987054 0.99742514 0.9980331 0.9972878 0.99688625 1.000368
1.002221 0.9992326 0.9990934 1.0004472 0.9964816 0.9975434 1.0004936 1.0007955
1.0001069 0.99868995 0.99913114 0.9967997 0.9961593 1.0001189 1.0005718 0.9977442
1.0007573 0.99830484 0.9989203 1.0018438 0.9993773 0.9987371 0.9999517 0.99641556
1.0016948 0.9975834 0.9982944 0.9999457 0.9981243 1.0004443 1.0015869 1.0016176
1.0004406 0.9989926 0.99766105 1.0004992 0.99672437 1.0030386 0.9967533 1.00193
1.0031493 0.9966494 0.9963172 0.99751854 0.9975212 0.99873304 0.9975399 1.0002298
0.9981016 0.99877405 0.9998763 0.9979743 0.9991278 1.0011927 0.9977827 0.9972626
0.9998316 0.99929214 0.9980027 0.9979616 1.0005233 1.0016859 0.99867773 0.9988592

projection_layer.1.bias f4 [128]
00000000: afaa bb3a 9579 8c3a 534e 31bb fb24 6f3a
00000010: bdb8 19ba 6859 34bb 744e 44bb 21ce 76bb
00000020: 65a5 b9ba e4bd b53a 65cc eb3a 85a8 23bb
00000030: 1145 db3a a72c baba 5f9b 193b f2b8 06bb
00000040: 5757 8dba 88fb 61bb 6384 cdba bf0c 3a3b
00000050: 3c73 09bb b0c4 cdba e251 8eba 89aa 2cbb
00000060: b463 d4ba cb3b 33bb 2d52 8dba 931d 663a
00000070: c777 fdba a16f 15bb e56f 0abb ddad 49bb
00000080: 3fd9 23bb 2e81 e0ba 85f4 91ba a533 51bb
00000090: 7de6 6cbb 70cc ebba 6a60 fcba d367 c8b6
000000a0: 4cf9 9e39 c2c7 9738 93f5 963a 4669 4d3b
000000b0: dd84 733a 8bcb 5eba f4b1 b9ba 1fef bcba
000000c0: 686e 1fbb e818 1cbb de00 963a bf91 043a
000000d0: f966 48bb bdf8 ca3a 9732 b83a 31f9 d139
000000e0: abee d2ba 435a 4bba afed bdba d16c 98ba
000000f0: 9873 24bb 46f0 21bb 4023 49bb a770 623a
00000100: 3539 6c3b 8c73 e0b7 1799 81ba 0a28 79ba
00000110: f02e 48ba b3de 29bb 0953 c0ba 540d 2b37
00000120: 3982 043b e295 c5ba bd5a 223a 81f5 38bb
00000130: 773b 6bbb 9a7c 80ba f6e6 31bb ac49 09bb
00000140: 23e8 eeba f601 f2ba b023 4dba 1b70 df3a
00000150: 976f a739 a481 91ba bdae 343a 929a ceba
00000160: f437 a63a 5143 18bb b349 2eba eff1 453a
00000170: 0049 f5ba de74 fbba 176b d73a 4434 183b
00000180: f9c0 4f3a 0967 a9ba 6da9 b5ba 8588 603a
00000190: ccb7 69bb 3845 083b b079 3abb a73f 313b
000001a0: 2171 d43a 5d89 0b3a 9496 2ebb a34c b3ba
000001b0: 6d6d 663a 42d1 6bba 06f0 41ba f68d 2b3a
000001c0: aa9b ea3a bc6d 9b3a 223d 7439 f745 44bb
000001d0: 4bf9 6eba 4172 0f3a 46f1 e3ba e11b 1fbb
000001e0: 4b78 b1b8 be3f 8bba aa4d f0ba 28b3 08bb
000001f0: 629a 9f3a ce4d 123b 6726 58b8 47b5 e739
0.0014317835 0.0010717387 -0.0027054742 0.0009122637 -0.0005864015 -0.002751911 -0.0029953988 -0.0037659483
-0.0014163671 0.0013865796 0.0017989991 -0.0024972272 0.0016728957 -0.0014203981 0.0023438556 -0.0020557013
-0.0010783476 -0.00344822 -0.0015679713 0.0028388945 -0.0020973226 -0.0015698876 -0.0010858143 -0.0026346764
-0.001620403 -0.0027348872 -0.0010781937 0.00087782106 -0.0019338065 -0.0022802132 -0.0021123823 -0.0030773797
-0.0025001315 -0.0017128342 -0.0011135495 -0.0031921652 -0.0036148124 -0.0017990004 -0.0019254808 -5.972551e-06
0.0003032185 7.237449e-05 0.0011517279 0.0031343265 0.00092895125 -0.0008498958 -0.0014167414 -0.0014414525
-0.0024327282 -0.0023818556 0.001144435 0.0005057118 -0.0030578955 0.0015485507 0.0014053163 0.00040049248
-0.0016092857 -0.00077572855 -0.0014490391 -0.001162911 -0.0025093313 -0.0024709865 -0.0030691177 0.00086380023
0.003604484 -2.6756687e-05 -0.0009887543 -0.00095045625 -0.0007636389 -0.0025920093 -0.0014673184 1.0195497e-05
0.002021922 -0.0015074576 0.00061933306 -0.0028222504 -0.0035893598 -0.0009802759 -0.002714572 -0.0020948453
-0.0018227141 -0.0018463719 -0.0007825447 0.001704696 0.00031935863 -0.0011101258 0.0006892493 -0.0015762618
0.001268147 -0.0023233483 -0.0006648555 0.00075510045 -0.0018713772 -0.0019184609 0.0016435114 0.0023224512
0.00079251785 -0.0012924384 -0.0013859697 0.0008565265 -0.003566253 0.002079321 -0.002845388 0.0027045996
0.0016208031 0.0005322898 -0.0026640045 -0.0013679456 0.00087901094 -0.00089957204 -0.0007398132 0.0006544286
0.0017899175 0.0011858265 0.00023292427 -0.002994893 -0.0009116127 0.0005472042 -0.0017390631 -0.0024278092
-8.462424e-05 -0.0010623855 -0.0018333693 -0.0020858739 0.0012176747 0.0022324207 -5.1534178e-05 0.00044194816

projection_layer.1.running_mean f4 [128]
00000000: acff 88bc 976c 67bd 7daf 013d 97b3 643c
00000010: c2cb 8abc 6c36 d2bc b57f 7f3c d2ba 77bc
00000020: a0a8 15bd dafe 5fbd e8c2 183b 427c d0bc
00000030: a9e1 353d 39bc 683d d788 d3bb 9a79 543d
00000040: 6c06 9d39 fe36 dfbc fd81 0c3c 6f2f 863c
00000050: 1e2c 013c 8339 2bbb 29e5 e73c 3ec2 f33c
00000060: 5b6f 19bc acbc 8c3b a8bc 95bc 91b8 7ebc
00000070: c338 17bd b285 45bd 78bf 1a3c a7c5 8c3c
00000080: 403a e5bc 0932 1a3d 081f 4cbc 1223 58bc
00000090: 61de e23c db2e ffbc e5bc e739 0e98 5d3d
000000a0: b97c d3ba 18ca d33c 0f28 73bc b070 123d
000000b0: 1a7c eb3c bf3a 683c 81fe 253d 459e e7bc
000000c0: d2e9 d23c 8856 be3c 21f7 16bc 70d8 653a
000000d0: f849 3a3d 6540 04bc 795b 84ba 7111 2fbc
000000e0: 7793 f6bc 5fef 453d 6d25 6fbc b195 46bc
000000f0: a482 9bbb d64d 473c 4f98 163d 8f77 b73b
00000100: 229a a6b9 2763 b03c 87bb 813d f915 07bd
00000110: 5939 4e3b 4ac4 d13c 9786 b93c 0a31 243c
00000120: 849f aebc 67cb ffbc 7c38 a03c 76b5 5dbb
00000130: ee1b 9d3b 4c41 403d bc7f 9dbd 9ca7 43ba
00000140: 6ca9 163d 2fb3 3f3b 1712 143c d682 b0bb
00000150: 69be e93c 2eb2 4cbc b21a d8bc 9b2f c33c
00000160: 1764 7c3c f5f2 65b9 2250 91bd 5c85 bebc
00000170: 6eb5 05bd a38b 0dbd 05d9 1fbd be2a 1cbc
00000180: 98cc 80bc 0a7e 1ebd 041a 043b bba1 1fbc
00000190: f24e 213d d1de 14bd 1d05 143c 91d9 343d
000001a0: 8aec 203c 6b8a 583c 2059 36bc c4dc f73c
000001b0: 3b4f 5e3c f1a4 fa3c 433e 0a3c e3f2 af3c
000001c0: 8ea4 adbb 2f81 9abc 2493 183d aec5 5b3c
000001d0: addd e73c de95 1dbd 8894 12ba 4a09 273c
000001e0: b3b1 acbb 722a 56bc 00af f4bc ed11 77bc
000001f0: 8bb3 e63c 9397 db3b 8799 263d 83cf 043c
-0.016723476 -0.056500044 0.0316615 0.013958833 -0.016942862 -0.025660716 0.015594413 -0.015120225
-0.036537766 -0.054686405 0.0023309533 -0.025449876 0.04440466 0.056820128 -0.0064555216 0.05187378
0.00029950158 -0.027247902 0.0085759135 0.01638004 0.0078840535 -0.002612681 0.028307514 0.029755708
-0.009364928 0.0042949524 -0.018278435 -0.015546934 -0.036919367 -0.048223205 0.009445064 0.017184092
-0.027981877 0.037645373 -0.01245857 -0.013191955 0.02769393 -0.031150272 0.0004420049 0.05410009
-0.0016135193 0.025853202 -0.014841094 0.035752 0.0287457 0.014174162 0.040525917 -0.028273711
0.02574626 0.02323462 -0.009214194 0.00087679084 0.0454807 -0.0080719935 -0.0010098062 -0.010685311
-0.030099614 0.048323985 -0.014596325 -0.01212065 -0.004745798 0.012164554 0.036766347 0.0055989693
-0.00031776825 0.021531655 0.06334596 -0.03297994 0.0031467287 0.025606293 0.022647185 0.010021457
-0.021316297 -0.03122492 0.019558184 -0.0033830083 0.0047945892 0.046937272 -0.07690379 -0.00074636354
0.036782667 0.002925109 0.009037516 -0.0053866906 0.028533177 -0.012493653 -0.026379917 0.023826411
0.015404723 -0.0002192965 -0.07095362 -0.02325695 -0.032643728 -0.034556996 -0.039025325 -0.009531675
-0.015722558 -0.03869442 0.0020157108 -0.009743149 0.03938193 -0.036345307 0.009034422 0.0441528
0.00982202 0.013216595 -0.0111296475 0.030256636 0.013568695 0.030596228 0.008437696 0.021478122
-0.0052991575 -0.018860428 0.0372497 0.01341383 0.028303945 -0.038473003 -0.0005591591 0.010195086
-0.005270207 -0.013071643 -0.029868603 -0.015079957 0.028161785 0.0067014187 0.04067376 0.008106115

projection_layer.1.running_var f4 [128]
00000000: 2949 303f 46ca 353f 2741 333f 4c35 353f
00000010: 1127 323f e5e6 343f 210e 333f 84b2 323f
00000020: 8d61 303f d79f 303f b5f0 2f3f 9188 333f
00000030: 5256 2c3f fc64 2f3f c982 313f a9ae 303f
00000040: db6e 2f3f 72be 333f 916a 313f db02 2f3f
00000050: d935 2d3f 68bc 2d3f 0497 303f c769 333f
00000060: dc58 313f 1982 333f 3abf 313f 4f0d 2e3f
00000070: 8f70 343f f08c 2f3f 6772 2f3f cfb6 3b3f
00000080: a7b5 2e3f 0ee5 2f3f 8e78 303f c511 313f
00000090: 3118 353f 4060 2e3f dac1 333f cbfa 303f
000000a0: 417b 313f d99a 323f a997 313f c2fb 383f
000000b0: 74f0 303f cc23 303f fa0b 313f d589 343f
000000c0: 91cc 303f 8b34 313f 26a3 303f d21c 3e3f
000000d0: b81d 2f3f ab04 313f 50db 2f3f 5929 313f
000000e0: 1997 313f c914 2f3f 0a5e 323f 72df 2c3f
000000f0: 20e1 313f 00f0 2f3f fdfa 2d3f 06e1 363f
00000100: 0a75 323f f6cf 2b3f a25a 303f 25dd 363f
00000110: 264b 353f 5cbf 303f a074 2e3f 544e 333f
00000120: c7c5 363f 29f7 333f 3e2f 323f eb34 303f
00000130: 1dd9 343f 570c 2e3f f6c9 333f 6e4b 2e3f
00000140: 910d 2e3f 25c7 343f dc9f 383f 7303 303f
00000150: 521e 383f 9f81 343f f07f 2d3f 616b 353f
00000160: 2fcb 323f f644 2e3f f0f0 323f 3432 2d3f
00000170: 9ef9 363f 50d0 383f 2cd0 303f c618 3b3f
00000180: b7f6 2f3f 4b31 313f 03c4 303f 3647 333f
00000190: b51c 2f3f d93e 2f3f 67d3 333f f45f 373f
000001a0: 4c60 313f b199 303f bc4a 313f 73aa 343f
000001b0: f518 313f 93a7 3b3f b7a3 303f bee5 353f
000001c0: 802f 303f e5d9 313f 26b1 323f ac57 2e3f
000001d0: e680 313f e7cc 303f cef8 3a3f 0367 313f
000001e0: 911f 2f3f 9dfb 323f ac5d 2d3f 7471 2f3f
000001f0: fc9b 353f 0b3c 323f 7ff1 313f 8afa 313f
0.68861634 0.7101177 0.7002129 0.7078445 0.6959086 0.7066482 0.69943434 0.69803643
0.6889885 0.68993896 0.68726665 0.7013026 0.67319214 0.68513465 0.6934019 0.6901651
0.6852853 0.7021247 0.6930323 0.6836373 0.6766029 0.6786561 0.6898043 0.7008328
0.69276214 0.7012039 0.69432414 0.6798906 0.7048425 0.6857443 0.6853394 0.7332582
0.6824593 0.68708885 0.6893395 0.6916774 0.7074004 0.68115616 0.7021767 0.6913268
0.69328696 0.6976753 0.6937204 0.7225915 0.691169 0.6880462 0.691589 0.70522815
0.69062144 0.692208 0.68998945 0.74262726 0.6840472 0.6914775 0.6869402 0.69203717
0.6937118 0.6839109 0.6967474 0.6752845 0.6948414 0.68725586 0.679611 0.7143711
0.6970984 0.671142 0.68888295 0.7143119 0.7081779 0.6904199 0.68146706 0.70041394
0.71395534 0.7029901 0.69603336 0.68830746 0.7064379 0.6798758 0.7023004 0.68083847
0.6798945 0.7061637 0.72118926 0.68755263 0.71921265 0.70510286 0.6777334 0.7086697
0.69841284 0.68073976 0.6989889 0.6765473 0.71474636 0.7219286 0.69067645 0.73084676
0.6873583 0.6921584 0.6904909 0.70030534 0.6840318 0.6845527 0.7024445 0.7163079
0.6928756 0.68984514 0.6925466 0.70572585 0.69178706 0.7330257 0.6899981 0.71053684
0.6882248 0.69473106 0.6980156 0.68102527 0.6933731 0.69062656 0.73035896 0.6929781
0.6840754 0.6991518 0.67721057 0.6853249 0.7094114 0.6962287 0.6950912 0.6952292

projection_layer.4.weight f4 [128, 128]
00000000: 2163 36bd 1088 ec3c e827 b1bb 14ca 9cbd
00000010: a5a4 88bd faf2 82bc 9cff 76bd d4c6 a7bd
00000020: 49b5 b43d 33df 9d3d 5ecd 8f3c 09b5 a1bd
00000030: ec5d 143c 59f4 473d 448b 8ebd 4162 0e3c
00000040: 4728 7e3d 8179 aa3d 1ad3 2f3d e018 9bbd
00000050: 30ff 9c3d 1bbb 17bc e24b 93bc d712 6dbd
00000060: 26fe e8bb c4ac 223d 2a34 883d 70ad afbc
00000070: 1c89 87bd 07ba 68bd b726 8a3a 80a1 4bbd
00000080: cacb 3d3d 556a 88bd 2624 48bd de3d b33c
00000090: 3a23 823d 1db6 48bd 16fa 0c3d 05e2 953d
000000a0: a64b 953d 890f 833d c9e2 4d3d 6fee 99bd
000000b0: d9cb 86bd bdd8 e13c 4e37 523d 6b2d b2bc
000000c0: 3b15 5a3c 4618 3a3d b80d 563c 5c65 b4bc
000000d0: bc81 6fbd 93b0 a2bd 3c97 b5bc 9dc6 a63d
000000e0: aaaf 71bd 4609 6e3d ee3a 883d a212 123d
000000f0: 514c 77bd 174b 85bd 100e 23bd 2805 2cbd
00000100: 0d8a 803c d71e 683c 464f 94bd eb8a 2bbd
00000110: ec8e 9abd 860f 98bd f8b0 aa3d 5310 193d
00000120: 98b8 353d d6ad 483d 7da8 f5bc 45dd 9d3d
00000130: f647 28bd 5bbf 03bd f5cc 9dbd 71dd 2a3d
00000140: 1476 61bc f0ba 92bd bea9 e7bc ec74 023d
00000150: f98d 793d 45cb 873d 78ed 6e3c 5338 433d
00000160: b75c a4bd 648e a6bc ff90 a5bd 9a12 d23b
00000170: c4dc aa3d d896 df3b 932d 7e3c b9ec 663d
00000180: 40ac 01bc 4419 a03d 90ce 96bd d543 87bc
00000190: 3a6c 563d 1347 97bd 7ae0 b93c c985 a3bc
000001a0: 2b44 613d 2aaf 1ebd c088 3cbd d4ba d1bc
000001b0: 8e5e 213d 9bdb e53c 0062 8c3d 9e82 b13d
000001c0: 9b6d 6dbd 3326 42bd 04ef e33b f56e 83bd
000001d0: 8037 8bbd ebb5 2ebc 670e 4abd 67af 3b3d
000001e0: 6468 20bd 0f55 a6bd 7e2f a03a 4bf4 3fbd
000001f0: 2214 0d3d 3e6c 553d ecba 293d 3efd f4bc
00000200: d0f0 83bc 695d 983d b883 b13d 4e0e 3b3d
00000210: 1fbf 3b3d 6657 633d 5227 0dbd eb76 fb3c
00000220: 5201 1cbb 8a05 ac3d f4e8 8dbd e370 57bd
00000230: 6bd4 1fbd 422c 57bd f3f1 063d 4c5f d73c
00000240: 7e95 b23d 9537 94bd 53c4 91bd bf3b 05bd
00000250: e476 163c 32ab 89bd 2f70 2ebd 540f 843d
00000260: c799 fb3c 338d 78bc 4ea9 29bc 03c6 36bc
00000270: b27b 21bb 71b3 2fbd e7fd 4b3d c612 1e3d
00000280: 36bb 9dbb a540 19bd 9a05 b23d b2f1 013d
00000290: d4d7 5b3d 4441 5dbd ac47 2d3d 158c ad3d
000002a0: 56e9 70bd 9fc2 4dbc a293 7dbd 8098 fd3b
000002b0: f15c 153d cc56 a8bc 22d5 19bd cd87 5fbd
000002c0: 4030 9dbd f792 a0bd 1bc4 9abd 4259 93bc
000002d0: ec6d 54bd 0f59 47bd d06b 45bb 404a 23bd
000002e0: 4ab9 313d 9d5c 543d 6eb6 253c 91e0 75bd
000002f0: d25e b1bd 8141 1c3d 1d84 f33c c325 223d
00000300: c0ec 9cbd 8a9c c6bc 2631 a73d adcf 2a3d
00000310: 5084 233c c717 3abc 53c8 743d c21e 0abd
00000320: 34b3 b7bc 79a6 b4bd ecf8 a73d 3163 4db9
00000330: 0289 cb3c 856f 9dbd 786c 513d 26ee c6bc
00000340: ec65 623d 4d6b ab3b 8870 383c 8ea6 6f3d
00000350: 5152 f03c 3400 8ebd aea6 5b3d a18c a3bb
00000360: 8064 8bbd b44f b03a 3903 77bd af12 053d
00000370: 091c 40bc 5e9f 82bd 0b3b 693d 3463 ef3b
00000380: ee9d 813d 2ee8 4fbd 5812 d83c 740b 0f3d
00000390: 7c35 9b3d d8b9 15bd b693 5f3c 0c85 a93b
000003a0: 82b9 103d 7aab 853d 657c 663d 82b1 85bd
000003b0: 1b60 6f3d bd8f 96bd 941e 54bd 8dd6 2e3d
000003c0: 25d4 a23d 4499 86bc 191c 8ebd 1a63 b33b
000003d0: ad74 933d b6dc 00bd f9f8 55bd 9461 f4bc
000003e0: 37c6 953d cbbe a23c 2652 33bd 79c6 833d
000003f0: 2b08 5a3d abde a03d 0a82 b83c a166 933d
-0.04452813 0.028873473 -0.0054063685 -0.07655731 -0.066720285 -0.015985 -0.06030236 -0.0819222
0.0882364 0.077085875 0.017553981 -0.07895858 0.009055596 0.048817012 -0.069601566 0.008690418
0.06205013 0.08323956 0.04292593 -0.07573104 0.07665861 -0.009260918 -0.01798052 -0.057879295
-0.007110375 0.039715543 0.066505745 -0.021445006 -0.066179484 -0.056818034 0.0010540102 -0.049714565
0.046336927 -0.06660906 -0.0488626 0.021880087 0.06354375 -0.0490018 0.034418188 0.073185004
0.072898194 0.063994475 0.050265107 -0.07516181 -0.065818496 0.02756917 0.051322274 -0.021750173
0.013310726 0.045433305 0.013064794 -0.022020988 -0.058473334 -0.07943835 -0.02216684 0.08143351
-0.059005417 0.058114313 0.06651865 0.0356623 -0.060375515 -0.06508463 -0.039808333 -0.041997105
0.015690828 0.014167509 -0.07241683 -0.04188053 -0.075467914 -0.07424836 0.08334535 0.037369084
0.044365495 0.048993908 -0.029987568 0.077082194 -0.041084252 -0.032164913 -0.07705108 0.04171509
-0.013761062 -0.07164562 -0.028279182 0.031849787 0.06092641 0.066305675 0.014582984 0.047661137
-0.080254965 -0.020331569 -0.080842964 0.006410909 0.08342889 0.006823402 0.015513795 0.0563781
-0.007914603 0.07817319 -0.073636174 -0.016511837 0.052349307 -0.07386603 0.022690047 -0.019961255
0.05499665 -0.03874127 -0.046028852 -0.025601782 0.039396815 0.028058818 0.068546295 0.086674914
-0.057965856 -0.04739971 0.006955983 -0.06417648 -0.06797695 -0.01066349 -0.04933014 0.045821574
-0.039162055 -0.081216924 0.0012221185 -0.046863835 0.03444303 0.05210518 0.04143803 -0.029905912
-0.01610604 0.074396916 0.086677015 0.04566794 0.045836564 0.05550327 -0.034461327 0.030696353
-0.0023804498 0.08399494 -0.06929198 -0.05259789 -0.039020937 -0.052532442 0.032945585 0.026290558
0.087199196 -0.07237164 -0.07117524 -0.03252768 0.009183619 -0.06722106 -0.042587455 0.06448236
0.030712975 -0.015170383 -0.010355307 -0.011155608 -0.0024640379 -0.042895738 0.049802687 0.038592122
-0.004813577 -0.037415165 0.08692475 0.03172464 0.053672627 -0.05401732 0.04230468 0.08473984
-0.058816276 -0.012558608 -0.06190837 0.0077391267 0.03646559 -0.0205492 -0.037556775 -0.05457287
-0.076752186 -0.07840531 -0.075569354 -0.017986897 -0.051862642 -0.048668917 -0.0030124076 -0.039865732
0.043389596 0.051846135 0.010114295 -0.060028616 -0.08660664 0.038148407 0.029726082 0.039586794
-0.07662344 -0.024244566 0.08163671 0.04170196 0.009980276 -0.011358208 0.059761357 -0.03372074
-0.022424318 -0.08820815 0.08201775 -0.00019587275 0.024845604 -0.07687286 0.051128834 -0.02428348
0.05527298 0.005231297 0.011257298 0.05850845 0.029336127 -0.069336325 0.053625755 -0.0049911295
-0.06806278 0.0013451488 -0.060305808 0.03248852 -0.011725434 -0.06378053 0.056941073 0.007305527
0.06328951 -0.050758533 0.026375934 0.034923032 0.07578561 -0.036554188 0.013646057 0.005173331
0.035333164 0.06526847 0.056270976 -0.065279976 0.058441263 -0.07351635 -0.051786974 0.04268508
0.079506196 -0.016430505 -0.06938953 0.0054744603 0.071999885 -0.031460486 -0.052239392 -0.029831685
0.07313197 0.019866368 -0.043779515 0.0643434 0.053230446 0.078549705 0.022522945 0.07197309

projection_layer.4.bias f4 [128]
00000000: deac b0bc 7e12 e7bc 65c9 e5bc d9f0 88bd
00000010: 046e 2fbd 09d9 d437 32aa ccbb 889b 47bd
00000020: 228a 8cbd 4436 b33d 57ea 773d a2ba 0ebd
00000030: e071 bc3b da7a a93d fb07 42bd 51ed eebb
00000040: 8b28 7dbd 1e4e 2c3d a764 74bd 9c60 46bd
00000050: ad88 0abd 5979 a0bd beda abbc 02d3 aabc
00000060: 1ceb 9abd 71de 9e3d b1b7 a1bc 4f5d 713d
00000070: ce50 7d3d 78b4 233d 0ec5 3c3d c024 02bd
00000080: e77f 66bb c824 153d 2c5a 753c 04b4 5ebc
00000090: b1fc 873d 0ea8 a4bd ed54 8abc adec ba3c
000000a0: ef36 203c 926a 973d 1f1d a13d d304 17bd
000000b0: a190 78bd e7ef b3bd 3d29 8ebd eb2f dfbc
000000c0: 8e59 3ebd 583a a93c 25b4 e4bc 0e0a 893d
000000d0: d57d 06bd 9b74 3e3d 18bd 763d 2f1a 82bd
000000e0: 7f1e bfbc f4f5 513d e5d5 403d 9089 253d
000000f0: 9d8c 773c 00fa 5d3c 77be 4bbc 416b 27bd
00000100: 5783 b13d 6444 04bd f542 1ebb 5917 103c
00000110: a913 21bc 5986 93bd 1d34 06bd de58 0d3d
00000120: 0cff 593d f0ba 503c 52e3 02bd 6d53 aa3d
00000130: 7787 573d 74e7 a63d 6b53 7cbd d1a7 8c3c
00000140: 00fb 713d 664b 423d d79d 8abd 7ba1 95bc
00000150: 5330 e2bc 6f2d 3b3d 8b32 853d e982 563b
00000160: 226f 10bd 90c0 39bd b294 753d f902 9a3d
00000170: 7406 9abd c7e7 693d 0dea cb3b 2b7e 713d
00000180: 73ba 763c 6770 823d 7106 93bd ac14 14bd
00000190: f615 4bbd abca abbc f207 a8bd 4c9b 94bd
000001a0: 2053 a33c 2536 a83d a2c9 09bd dfd0 553c
000001b0: 789b 0c3c 388e 8b3c 369b 8d3b d9fe 88bd
000001c0: 69a9 a9bd e123 a23d 3167 1abc 2f42 9b3c
000001d0: ecd6 b1bb ff97 a4bd 6076 65bd 1919 0dbd
000001e0: a667 8bbd 8ec2 4bbd 35d5 e6bc ff31 78bd
000001f0: b065 e8bc ad17 8bbd 0a54 9c3d e245 17bb
-0.021566804 -0.02820706 -0.028050134 -0.06686563 -0.04282953 2.5373434e-05 -0.006245875 -0.04873231
-0.06862284 0.08750585 0.06052622 -0.034845956 0.0057508796 0.08275385 -0.047370892 -0.007291474
-0.061806243 0.042066686 -0.059666302 -0.048431978 -0.03382175 -0.07835645 -0.020978328 -0.02085257
-0.07564375 0.07757271 -0.019740911 0.058926877 0.06184464 0.03996703 0.046086363 -0.03177333
-0.003517145 0.03641203 0.014975112 -0.013592724 0.06639994 -0.080398664 -0.016886199 0.022817934
0.009778722 0.073933735 0.078668825 -0.036869835 -0.060684804 -0.08785992 -0.06941459 -0.027244529
-0.046472125 0.020657703 -0.02791793 0.06691371 -0.032834847 0.046497922 0.060238928 -0.063526504
-0.023329971 0.05125995 0.047078986 0.040414393 0.015109208 0.013548374 -0.012435547 -0.04087377
0.08667629 -0.032291785 -0.0024148796 0.008794629 -0.0098313475 -0.07203359 -0.032764543 0.03450858
0.053221747 0.012739882 -0.03195507 0.083166935 0.052619424 0.08149615 -0.06160299 0.017169865
0.059077263 0.047435187 -0.06768387 -0.018265476 -0.027610933 0.045697626 0.06503781 0.0032731837
-0.035262235 -0.045349658 0.05995626 0.07520098 -0.07520762 0.057105806 0.0062229694 0.058958214
0.015059101 0.06369095 -0.07178963 -0.036152527 -0.04958149 -0.020970663 -0.082046404 -0.07256183
0.019937098 0.08213452 -0.033639558 0.013050287 0.0085819885 0.017035589 0.004321481 -0.06689233
-0.082842655 0.079169996 -0.009424017 0.018952457 -0.005427232 -0.080368035 -0.056021094 -0.034447763
-0.06806879 -0.04974609 -0.028177837 -0.060594555 -0.0283688 -0.06791625 0.07633217 -0.0023082425

output_layer.weight f4 [1, 128]
00000000: 9f97 853c 9749 4fbd c118 803d ace8 d4bc
00000010: 15eb a2bd ebe7 0bbd c55d b3bc ce32 99bd
00000020: ec56 613d bfb3 acbd eec3 98bd bbf8 423d
00000030: ee3a 65bc e6c8 d1bb f4d4 0d3d 712c 0bba
00000040: 4d7a 003c fd69 a8bd 86dd 44bc 94bb 0c3d
00000050: 77ae 41bc da16 7abc 4069 003d 2a26 833d
00000060: 179d 8ebd f814 9a3d e7d2 103b a824 0e3d
00000070: becb 8b3d 7355 533d d23e 5b3b 92ff f4bc
00000080: a40e 8dbd 9325 a63d 3cf0 9c3d 485a 84bd
00000090: 2210 0c3c e8ad 833c 242d 45bd 7fc3 27bc
000000a0: 4707 933c ea9d 6bbd 6331 a7bd 5fe0 9bbb
000000b0: 1c95 913d dd09 413d 836d 61bd 2659 ab3d
000000c0: dd1b a4bc 84a7 9e3d 30b0 4dbd 4ff8 e2bc
000000d0: 448a 51bd 6413 5d3d fa54 dbbc c271 2abd
000000e0: 7dbd 8b3c f064 793d 751d f4bc 3184 a1bd
000000f0: e807 3b3d 6365 76bd f359 4c3d 3eaf 6a3d
00000100: e4ee 67bd f401 b3bd fdb4 8abd dbe9 6abd
00000110: b42c ecbc d8ea abbd 00ec 973b 79fe 4f3d
00000120: 36bc 6c3d f21a b93a 1f96 9b3c 98b2 953d
00000130: 0e68 d1bc 9766 5f3d 0714 a73d eb75 7e3d
00000140: 095c 903d 66b6 0f3d d1cc a4ba e68f 8d3c
00000150: 5fd0 b33d e52e 7ebd d369 3a3d 7e9e a1bd
00000160: 66b5 833d cafe 473c 20af 0dbd 3ac0 2abd
00000170: 44c9 113d 6089 a53d 9740 213d ad41 f3bc
00000180: 345d 6cbd 5a8e 5dbc 3851 a33d 09e8 e83c
00000190: a4d1 173d b1e5 9c3c ab23 8b3d 1d3d a3bd
000001a0: 72a0 573d 3594 7a3d 5fc7 0abd 4a46 8abd
000001b0: 0109 483d 4f28 fabc b294 e5bc 125c 6e3d
000001c0: 5a33 693d e0ff bc3c 3e5e 4d3d 4bf2 dabc
000001d0: b803 19bd 45d6 a63d 97d5 1c3d d3c5 a3bc
000001e0: 52ba 953d 95b8 01bd 82c7 f3bc 7348 463d
000001f0: ee20 17bd e931 f3bc 2448 b8bc 8844 b73d
0.01630765 -0.05060729 0.062547214 -0.025989853 -0.079549946 -0.03415672 -0.021895299 -0.07480393
0.055014536 -0.08432721 -0.074592456 0.04760049 -0.013991101 -0.006402123 0.034626916 -0.00053090515
0.007841659 -0.08223341 -0.012015706 0.034358576 -0.011821381 -0.015264237 0.031350374 0.064037636
-0.06963556 0.07523531 0.0022098364 0.034702927 0.0682597 0.051595163 0.0033454192 -0.029907022
-0.06887558 0.081126355 0.076630086 -0.06462532 0.008548768 0.016074136 -0.048138753 -0.010239481
0.017947806 -0.057523645 -0.08163717 -0.0047569717 0.071085185 0.047128547 -0.05503608 0.08366613
-0.020032817 0.07746795 -0.050216854 -0.027706293 -0.05115725 0.05397357 -0.026773918 -0.041612394
0.017058128 0.060887277 -0.029799202 -0.07886542 0.045661837 -0.060155284 0.04989047 0.05729603
-0.05662431 -0.08740607 -0.06772802 -0.05735193 -0.02882991 -0.08394402 0.0046362877 0.050779793
0.05779668 0.001412241 0.018992482 0.07309455 -0.025562312 0.054541197 0.08158117 0.062124174
0.07048804 0.035086058 -0.0012573247 0.01728053 0.08779978 -0.06205644 0.045511078 -0.07891558
0.064310834 0.012206743 -0.03459084 -0.041687228 0.035592332 0.08082843 0.03936824 -0.029694403
-0.057706073 -0.013522709 0.079744756 0.028430955 0.037065163 0.019152494 0.067939125 -0.07970641
0.052643247 0.061176497 -0.03388154 -0.06751688 0.04883671 -0.030536799 -0.028025005 0.058193274
0.05693374 0.02307123 0.050138704 -0.026726862 -0.037357062 0.081463374 0.038289633 -0.01999179
0.073109284 -0.03167017 -0.029758219 0.048408937 -0.03689664 -0.029686885 -0.022495337 0.08948618
