Checkpoints/HR_V/valence_s32.pth (torch, 461905 bytes, 29 tensors)

input_layer.weight f4 [128, 29]
0.1746585 -0.067494445 -0.02314897 0.11075839 -0.1725599 -0.13511172 -0.14405884 -0.17705607
-0.08070675 0.097693756 -0.09630273 -0.14048243 0.14722413 0.06724626 0.08654158 -0.07869711
0.16594219 0.033699226 -0.14607953 -0.16183144 0.031073542 0.06887182 -0.018627193 0.02467249
0.12060452 -0.047374446 -0.1621103 -0.03929187 0.13978995 0.0078012464 0.073784515 0.16368133
0.02807689 -0.07911948 -0.15953416 0.18814832 -0.16335973 -0.03395064 0.186093 0.09904336
0.1289013 -0.07728471 0.07099527 0.13613635 0.03848503 0.13903506 -0.05752418 -0.03373189
0.15580633 -0.13303287 0.002158586 0.026530748 -0.1802044 -0.14402981 -0.085345395 -0.11960915
0.010036222 0.07011768 0.09904307 -0.015750334 0.12727271 -0.11623746 -0.1444302 0.17281927
-0.136102 -0.06849017 -0.030662404 0.13614607 -0.10432692 -0.1612513 0.10377642 -0.08817139
0.09786327 -0.0712316 -0.03354949 0.15755847 0.12575294 -0.1522835 0.0756136 -0.15989226
0.01661546 0.064133435 0.14389543 0.022912571 0.15416591 0.08381888 0.0029850649 -0.058206078
0.16531841 -0.1064438 -0.016710905 0.041064315 -0.048328456 -0.02198202 0.109661326 0.09771212
-0.14786711 0.09734327 0.015932404 0.156206 0.026536427 0.044018343 0.14439552 -0.16992973
-0.036513932 -0.093515836 0.08843417 0.09216052 0.0009981674 -0.12413821 -0.050221205 0.051483825
-0.1415535 0.09058625 -0.13005875 -0.16068141 -0.105300196 0.11820295 0.14762133 -0.09521481
-0.11382299 0.010321301 0.038642656 0.02418669 -0.02505651 0.15195301 0.085305505 -0.045475557
0.1577249 0.1441879 0.06424574 0.15835105 0.051621735 -0.0840613 0.09993484 -0.13728087
-0.10350248 0.011866093 0.115334116 0.16695961 0.07836164 -0.026583612 -0.05968183 -0.09662997
0.04145171 -0.14884302 -0.10374475 -0.0799823 0.007942506 0.11375759 -0.16497582 0.08745545
0.14060517 -0.09755263 -0.05863894 0.07922481 -0.09189233 -0.08248372 0.1183904 0.025622835
-0.05356381 0.064577304 -0.058564812 0.010164546 0.14750946 -0.14212644 -0.114279136 0.18461503
0.12437839 0.10831747 -0.07430469 -0.09631798 0.061978947 0.05625181 0.17739023 -0.012470222
-0.18220295 0.14549221 0.033579033 -0.092453666 0.15636 -0.09709887 0.11747461 0.10350409
0.13850604 0.1461216 0.0711774 0.042235397 -0.08584296 0.13689533 -0.14382254 0.16983859
0.05574925 -0.023718026 0.124336734 -0.11394009 0.14938742 -0.16540581 -0.03616915 -0.026772711
-0.01901562 -0.06402692 -0.16924898 -0.05096463 0.058717977 -0.03241948 -0.008771324 0.12028085
0.084048286 0.0854096 -0.058339164 -0.17621514 0.02756115 -0.10601646 -0.1338183 0.17346106
-0.004904194 0.0151655525 0.054714154 0.00018234715 -0.08747178 -0.06714117 0.051827244 0.011662442
-0.0047161854 -0.091468595 0.14155257 0.019479616 -0.14813928 -0.13674523 -0.13893098 -0.09211661
0.0054606213 -0.094593056 -0.13769898 0.04866697 -0.05373815 -0.06777723 -0.18578896 -0.022967193
0.16922538 0.011986526 0.12130533 -0.09826317 -0.079237595 -0.095603414 -0.06853524 -0.13836077
0.086206146 -0.034555834 -0.14072478 0.14554428 -0.038060978 -0.16252813 -0.041335747 0.04300131
00000000: aed9 323e 873a 8abd e9a2 bdbc 4bd5 e23d
00000010: 8bb3 30be ba5a 0abe 2984 13be 304e 35be
00000020: 9549 a5bd aa13 c83d 5e3a c5bd a0da 0fbe
00000030: ecc1 163e 68b8 893d b63c b13d f32b a1bd
00000040: c0ec 293e 3308 0a3d df95 15be 24b7 25be
00000050: f18d fe3c ab0c 8d3d 0e98 98bc f61d ca3c
00000060: 81ff f63d b50b 42bd 3e00 26be 83f0 20bd
00000070: 1925 0f3e 99a1 ff3b 561c 973d 149c 273e
00000080: 8201 e63c 6509 a2bd ec5c 23be f4a9 403e
00000090: c647 27be d40f 0bbd 2a8f 3e3e 3fd7 ca3d
000000a0: b4fe 033e 7247 9ebd f865 913d 5467 0b3e
000000b0: 7ba2 1d3d 355f 0e3e 799e 6bbd 732a 0abd
000000c0: b28b 1f3e c539 08be 1077 0d3b 0357 d93c
000000d0: 8187 38be 8d7c 13be 91c9 aebd a4f5 f4bd
000000e0: f76e 243c dc99 8f3d 18d7 ca3d d806 81bc
000000f0: c753 023e e80d eebd 83e5 13be 89f7 303e
00000100: 535e 0bbe 9344 8cbd b92f fbbc e069 0b3e
00000110: 5aa9 d5bd 101f 25be bb88 d43d 3493 b4bd
00000120: 8a6c c83d e0e1 91bd 316b 09bd 0257 213e
00000130: 61c5 003e 35f0 1bbe 4edb 9a3d ccba 23be
00000140: 251d 883c 6458 833d 5359 133e 25b3 bb3c
00000150: abdd 1d3e 3ca9 ab3d 14a1 433b 7f69 6ebd
00000160: 3b49 293e 35ff d9bd 4fe5 88bc 0e33 283d
00000170: 0ff4 45bd a313 b4bc 1e96 e03d 4b1d c83d
00000180: 7a6a 17be e95b c73d ac84 823c 77f4 1f3e
00000190: ec62 d93c 944c 343d 6bdc 133e 0f02 2ebe
000001a0: a28f 15bd 3b85 bfbd f91c b53d a8be bc3d
000001b0: f1d4 823a 2d3c febd c0b4 4dbd b4e0 523d
000001c0: 67f3 10be 4985 b93d 1f2e 05be ab89 24be
000001d0: a1a7 d7bd 6314 f23d 0c2a 173e fbff c2bd
000001e0: 071c e9bd ad1a 293c c347 1e3d 2a23 c63c
000001f0: 4f43 cdbc 9299 1b3e a7b4 ae3d 9444 3abd
00000200: a382 213e fea5 133e 4593 833d c726 223e
00000210: 5071 533d 5528 acbd a3aa cc3d 5b93 0cbe
00000220: 1cf9 d3bd 006a 423c 4b34 ec3d 76f7 2a3e
00000230: 117c a03d e0c5 d9bc ef74 74bd efe5 c5bd
00000240: 45c9 293d 4e6a 18be 2178 d4bd c3cd a3bd
00000250: 4921 023c bdf9 e83d 6cef 28be d81b b33d
00000260: cdfa 0f3e acc9 c7bd 632f 70bd 9e40 a23d
00000270: 0c32 bcbd 39ed a8bd ab76 f23d fbe6 d13c
00000280: ba65 5bbd 1b41 843d a8e1 6fbd 3289 263c
00000290: b80c 173e 9889 11be 2e0b eabd b90b 3d3e
000002a0: 19ba fe3d 8dd5 dd3d 0f2d 98bd 5c42 c5bd
000002b0: a3dd 7d3d 4c68 663d c9a5 353e e74f 4cbc
000002c0: 6993 3abe e9fb 143e 2b8a 093d 5958 bdbd
000002d0: d61c 203e c6db c6bd 8796 f03d f4f9 d33d
000002e0: 87d4 0d3e e7a0 153e 75c5 913d 06ff 2c3d
000002f0: 6fce afbd 4a2e 0c3e 3746 13be 2bea 2d3e
00000300: 5359 643d 4e4c c2bc 42a4 fe3d 6c59 e9bd
00000310: 04f9 183e 2460 29be 1a26 14bd 7252 dbbc
00000320: a5c6 9bbc 8c20 83bd 9b4f 2dbe 4ac0 50bd
00000330: 4382 703d 4aca 04bd 99b5 0fbc ce55 f63d
00000340: 8221 ac3d 3aeb ae3d 0cf5 6ebd be71 34be
00000350: ecc7 e13c 281f d9bd aa07 09be c79f 313e
00000360: 5cb3 a0bb f078 783c f31b 603d 7134 3f39
00000370: 6824 b3bd 4f81 89bd ce48 543d d413 3f3c
00000380: 3b8a 9abb e353 bbbd 28f3 103e b793 9f3c
00000390: d3b1 17be f106 0cbe ec43 0ebe a2a7 bcbd
000003a0: 03ef b23b 01ba c1bd f600 0dbe 0457 473d
000003b0: 891c 5cbd cace 8abd 763f 3ebe b225 bcbc
000003c0: 6b49 2d3e 2263 443c ee6e f83d 333e c9bd
000003d0: 5247 a2bd b9cb c3bd 345c 8cbd 72ae 0dbe
000003e0: d98c b03d 6b8a 0dbd 281a 10be 8f09 153e
000003f0: d4e5 1bbd c66d 26be ac4f 29bd 2422 303d

input_layer.bias f4 [128]
-0.013823666 0.14303707 -0.040983733 -0.044473894 -0.007022803 -0.040970195 0.049022567 -0.11883405
0.16612208 0.09771118 0.09520151 -0.0037139775 0.069041975 0.137973 -0.15275362 -0.17185055
-0.16958565 -0.09114348 0.14406896 -0.17118616 -0.14116473 -0.015339774 0.07132378 0.12055508
0.11328997 -0.1761409 0.007144637 -0.059749257 -0.16232434 -0.09833543 -0.02967848 0.11583214
0.05646681 -0.13277443 0.09423615 -0.02173862 -0.00043916504 0.09029747 -0.048389405 -0.038113452
0.14991507 0.008591559 -0.121819705 -0.16117376 -0.054372005 -0.16163787 0.119713314 0.08938466
-0.04202728 0.14316712 0.04819181 0.16946548 -0.17048076 -0.117190674 -0.17176205 -0.08292458
0.054885693 0.14937122 -0.018976854 -0.12068727 0.14039417 0.031988848 -0.052087825 0.10487725
-0.07722103 -0.17738733 0.047511283 -0.115134 -0.08950124 -0.16014862 0.09960784 0.006870814
0.18127559 -0.116166614 -0.103636034 -0.17807369 -0.17894165 -0.16673863 0.017518485 0.08571793
-0.020856738 0.10210702 -0.025859384 0.102588125 0.13107538 0.1455096 0.09448413 0.13061099
-0.15843803 0.007859676 -0.15707842 -0.04307014 0.12856475 -0.09897204 -0.07583377 -0.034710135
0.07371524 0.15416047 0.078715906 0.13658124 -0.03152468 -0.08318723 -0.0062776194 -0.110463426
0.16195035 0.023012197 -0.12895368 -0.11349798 0.069550365 0.0021005915 -0.038614225 0.13596879
-0.09629982 -0.09680419 0.06652976 -0.10283875 -0.08529618 0.005533043 -0.14687452 -0.12295509
-0.081918135 -0.14490286 -0.040129486 -0.16684626 0.08543336 0.079325855 -0.16281055 -0.006433504
00000000: a87c 62bc 4f78 123e 8fde 27bd 422a 36bd
00000010: 8b1f e6bb 5dd0 27bd e3cb 483d 445f f3bd
00000020: e81b 2a3e cd1c c83d 02f9 c23d 3466 73bb
00000030: e165 8d3d cb48 0d3e 726b 1cbe 97f9 2fbe
00000040: dca7 2dbe 6fa9 babd d086 133e 6d4b 2fbe
00000050: 7d8d 10be ad53 7bbc 3412 923d 95e5 f63d
00000060: 9204 e83d 485e 34be 8f1d ea3b a3bb 74bd
00000070: 5a38 26be 1664 c9bd 4920 f3bc 6739 ed3d
00000080: be49 673d 05f6 07be e2fe c03d 3115 b2bc
00000090: bc3f e6b9 e1ed b83d f833 46bd da1c 1cbd
000000a0: 5683 193e 9cc3 0c3c 9c7c f9bd bc0a 25be
000000b0: 2eb5 5ebd 6684 25be 412c f53d 4e0f b73d
000000c0: cc24 2cbd 679a 123e c664 453d 5c88 2d3e
000000d0: 8292 2ebe aa01 f0bd 64e2 2fbe 5dd4 a9bd
000000e0: d2cf 603d c5f4 183e 5975 9bbc e32a f7bd
000000f0: 7dc3 0f3e bd06 033d 0b5a 55bd e2c9 d63d
00000100: 0f26 9ebd 06a5 35be 319b 423d 60cb ebbd
00000110: 6d4c b7bd 00fe 23be 32ff cb3d 9124 e13b
00000120: 4fa0 393e c3e8 edbd 213f d4bd f358 36be
00000130: 7b3c 37be 88bd 2abe ed82 8f3c e28c af3d
00000140: c0db aabc 7c1d d13d 0fd7 d3bc b919 d23d
00000150: a038 063e 7800 153e e580 c13d e3be 053e
00000160: 943d 22be dfc5 003c 2ad9 20be 516a 30bd
00000170: 7aa6 033e dab1 cabd bc4e 9bbd 372c 0ebd
00000180: 04f8 963d 3edc 1d3e ce35 a13d f4db 0b3e
00000190: 0620 01bd 115e aabd 7db4 cdbb a63a e2bd
000001a0: 50d6 253e 1384 bc3c 6f0c 04be a171 e8bd
000001b0: 6c70 8e3d 14aa 093b f329 1ebd 673b 0b3e
000001c0: d738 c5bd 4641 c6bd c140 883d 1f9d d2bd
000001d0: c3af aebd 874e b53b 4666 16be e1cf fbbd
000001e0: b2c4 a7bd 6a61 14be d15e 24bd bfd9 2abe
000001f0: aff7 ae3d 9875 a23d cfb7 26be 25d0 d2bb

projection_layer.0.weight f4 [128, 128]
0.006453457 0.07539503 0.039969787 -0.060533706 0.06541988 0.02840002 -0.05040367 -0.017270952
-0.011298359 -0.03255599 0.08756155 -0.06839909 -0.057126436 -0.039919425 -0.065301724 0.052925617
-0.03973532 -0.05389074 0.04828501 0.03205129 -0.03331415 0.02513154 -0.043137524 0.07028127
0.02171828 0.041754343 -0.018945353 -0.017965745 -0.015903134 0.06949267 -0.03002922 -0.06727535
-0.017679995 0.05376553 -0.014841828 0.0401089 0.058274668 0.013564091 0.028075863 0.07837113
0.07191404 -0.047130693 0.059326258 0.028242027 -0.009766182 0.077932596 -0.08088663 -0.00031278844
0.008875474 -0.04332992 0.02877214 -0.08390109 -0.01893579 -0.01619689 -0.06493826 0.054935794
0.059271112 -0.043695707 -0.005678661 0.070049144 0.0006499896 -0.058604233 -0.07387609 -0.04813093
0.010554909 -0.03383546 0.08427839 -0.05475009 0.07653992 -0.019359244 0.022030834 0.08795237
-0.05016661 0.060052864 0.0043614116 0.0729158 -0.05464906 0.061631788 -0.0781351 -0.04933482
0.04038129 -0.031292573 0.017995823 0.012093744 0.0023144223 0.042556323 -0.05507505 -0.029598685
-0.084473 -0.07868602 -0.058050305 0.017697368 0.055003736 0.007413856 0.022048976 0.02451741
0.036869213 0.037741728 -0.0039427066 -0.020244345 0.017164486 -0.017719453 -0.06592639 -0.071720295
-0.057784736 -0.052502975 0.016585795 0.02576813 -0.06927894 -0.07705689 -0.0044777226 0.060625058
-0.02744481 -0.055292413 -0.020297157 -0.051141765 0.03305598 0.03079688 -0.074402496 -0.05760332
0.03107597 -0.019366376 -0.080412395 0.006145401 0.036756057 0.06718869 0.032558773 0.07511331
0.0095026465 -0.090644695 -0.028208196 -0.037382662 -0.022364583 0.01807355 -0.0070574237 0.07269002
-0.054280303 -0.06901646 0.06477224 -0.075277485 -0.04291147 -0.06721072 0.05195148 0.033274982
0.014634028 0.08318396 0.023431305 -0.046160907 0.006150408 -0.020082062 -0.08650778 -0.00348549
0.056272667 -0.010742729 -0.06272197 0.0396965 -0.015105702 0.030329915 0.010619458 0.061212547
-0.0701505 -0.054387975 -0.04120337 -0.052489184 0.06506444 0.029104935 -0.044139747 -0.019967604
-0.044402633 0.031460106 0.026707547 0.009732803 -0.075824425 -0.045363307 0.036896173 -0.063004084
0.08803297 -0.04282883 0.024921332 -0.04305459 0.07089825 -0.053064983 0.014565466 0.060039982
0.032041393 -0.018384444 -0.07330231 0.0076666353 0.042210437 -0.07631525 -0.06902578 0.03396934
-0.0047619 0.019069847 0.015481625 -0.015331867 0.07581321 -0.021724058 -0.046508793 0.046229176
0.07193744 0.021676004 0.020733634 0.020352118 0.055971086 0.05902896 0.08442507 0.0064768037
-0.042131387 -0.0390361 0.05809288 0.044547196 -0.032628532 0.037527222 0.02319272 0.012103001
0.04129811 -0.06872119 -0.034257844 0.013163526 0.068388775 0.082413204 -0.03995633 0.0037587024
0.08735106 0.06636034 0.01988177 -0.08460216 -0.021646643 0.06319494 -0.059915736 -0.048681565
0.009457078 0.041569456 0.055638406 -0.08346685 -0.04431697 0.08788977 0.06443556 -0.08373884
0.028686093 -0.021637358 0.010903147 -0.06375427 -0.04436127 -0.047310464 -0.08814455 0.058968127
-0.028934952 -0.03785816 0.06009636 0.05474378 -0.06915556 -0.00061430223 0.013700878 -0.061141644
00000000: 8577 d33b b668 9a3d 5cb7 233d 31f2 77bd
00000010: dcfa 853d 29a7 e83c 1474 4ebd d07b 8dbc
00000020: c11c 39bc 6e59 05bd 7853 b33d d214 8cbd
00000030: 69fd 69bd 8d82 23bd e9bc 85bd 88c8 583d
00000040: 81c1 22bd 89bc 5cbd 81c6 453d 3748 033d
00000050: 6b74 08bd a9e0 cd3c f9b0 30bd a0ef 8f3d
00000060: 89ea b13c 9a06 2b3d 4933 9bbc e62c 93bc
00000070: 4a47 82bc 2c52 8e3d d7ff f5bc a9c7 89bd
00000080: a3d5 90bc 3f39 5c3d 232b 73bc 3b49 243d
00000090: 6bb1 6e3d ec3b 5e3c 5aff e53c 0b81 a03d
000000a0: ab47 933d 1d0c 41bd 1700 733d d35b e73c
000000b0: 5602 20bc 209b 9f3d e4a7 a5bd c1fd a3b9
000000c0: 706a 113c b77a 31bd 8db3 eb3c 56d4 abbd
000000d0: 3b1f 9bbc 57af 84bc 5afe 84bd 5b04 613d
000000e0: 44c6 723d 45fa 32bd 1014 babb ed75 8f3d
000000f0: 1064 2a3a fe0a 70bd 594c 97bd f024 45bd
00000100: 7fee 2c3c 0d97 0abd 269a ac3d a141 60bd
00000110: f6c0 9c3d 4797 9ebc 027a b43c 5f20 b43d
00000120: 817b 4dbd fef9 753d 2cea 8e3b e154 953d
00000130: b1d7 5fbd 9d71 7c3d 4c05 a0bd 4f13 4abd
00000140: da66 253d a42c 00bd fa6b 933c d724 463c
00000150: 90ad 173b 8a4f 2e3d 6096 61bd f178 f2bc
00000160: 2e00 adbd 2326 a1bd 28c6 6dbd 12fa 903c
00000170: 994b 613d efef f23b 0ea0 b43c bcd8 c83c
00000180: 2c04 173d 1297 1a3d d231 81bb 78d7 a5bc
00000190: 899c 8c3c 6328 91bc 6a04 87bd 17e2 92bd
000001a0: b0af 6cbd 5c0d 57bd efde 873c af17 d33c
000001b0: 1ee2 8dbd 01d0 9dbd dcb9 92bb fb51 783d
000001c0: f0d3 e0bc 4c7a 62bd 3946 a6bc 077a 51bd
000001d0: b565 073d bd49 fc3c 5660 98bd 75f1 6bbd
000001e0: 0893 fe3c 3ca6 9ebc 41af a4bd 5c5f c93b
000001f0: 858d 163d 399a 893d 595c 053d 02d5 993d
00000200: fdb0 1b3c eda3 b9bd e014 e7bc 901e 19bd
00000210: ee35 b7bc fb0e 943c f641 e7bb 81de 943d
00000220: 0655 5ebd 8058 8dbd 4fa7 843d 152b 9abd
00000230: f0c3 2fbd c6a5 89bd 13cb 543d 594b 083d
00000240: 90c3 6f3c 5a5c aa3d 02f3 bf3c 3813 3dbd
00000250: 5d89 c93b 2383 a4bc fe2a b1bd d26c 64bb
00000260: 2b7e 663d 4502 30bc 6074 80bd cc98 223d
00000270: e87d 77bc 7176 f83c 3cfd 2d3c 02ba 7a3d
00000280: 11ab 8fbd edc5 5ebd ddc4 28bd e6fe 56bd
00000290: 8140 853d 796d ee3c e1cb 34bd 1a93 a3bc
000002a0: 89df 35bd 50dc 003d c9c9 da3c 5676 1f3c
000002b0: d649 9bbd e0ce 39bd 7120 173d 4908 81bd
000002c0: a14a b43d 496d 2fbd d227 cc3c 025a 30bd
000002d0: 1a33 913d ab5a 59bd fea3 6e3c 7cec 753d
000002e0: d63d 033d f99a 96bc 861f 96bd 6638 fb3b
000002f0: dae4 2c3d 2b4b 9cbd 635d 8dbd 6f23 0b3d
00000300: b609 9cbb 5e38 9c3c a4a6 7d3c 8332 7bbc
00000310: f543 9b3d a7f6 b1bc 0180 3ebd ce5a 3d3d
00000320: f053 933d e091 b13c 95d9 a93c 7cb9 a63c
00000330: f041 653d 5ac8 713d 0de7 ac3d 5e3b d43b
00000340: f691 2cbd 51e4 1fbd cdf2 6d3d 1f77 363d
00000350: 7fa5 05bd 25b6 193d a9fe bd3c aa4b 463c
00000360: 3528 293d b2bd 8cbd f451 0cbd d4ab 573c
00000370: 6a0f 8c3d 41c8 a83d 40a9 23bd 9054 763b
00000380: 1de5 b23d eee7 873d 18df a23c e643 adbd
00000390: 4d54 b1bc 596c 813d 346a 75bd 5266 47bd
000003a0: dcf1 1a3c bc44 2a3d 19e5 633d abf0 aabd
000003b0: b685 35bd 8dff b33d caf6 833d 457f abbd
000003c0: 19ff ea3c d440 b1bc 1da3 323c 9991 82bd
000003d0: 2ab4 35bd 9ec8 41bd 2185 b4bd 9088 713d
000003e0: fe08 edbc 2811 1bbd 9a27 763d 043b 603d
000003f0: 6ea1 8dbd 2009 21ba a679 603c a96f 7abd

projection_layer.0.bias f4 [128]
0.025292361 0.0552114 0.008698596 0.08117867 0.05144851 0.06532644 -0.08331857 0.064973675
0.002100299 -0.05280074 0.041928746 -0.032417152 0.033959 -0.022654863 -0.0017681135 -0.07072939
-0.02031037 -0.07259973 0.015352302 -0.026131967 0.034804095 0.048216198 -0.05091603 -0.05522964
-0.044089034 0.047804687 0.041808374 0.052881103 0.07901249 0.04123264 -0.044429585 0.07789471
-0.0122295525 -0.04000316 -0.053873867 0.046199806 -0.04369413 -0.0054683043 0.057605427 0.07999284
-0.04864368 -0.080870695 0.008310655 0.04384907 0.052068062 -0.07979201 0.005357779 -0.04961807
0.03444465 0.062578246 -0.081209734 0.016642874 0.021477645 0.048311267 -0.035874993 -0.010884383
-0.069703855 0.011500232 -0.029721657 0.017931676 0.016540209 0.01279125 0.043012552 0.028444523
-0.07623256 -0.039968476 -0.081174985 0.030622404 -0.029763859 -0.021548774 0.0063348114 -0.028652526
-0.0065195393 -0.059596106 0.06107644 0.018808605 0.065841496 0.053658392 -0.07229966 0.0460764
0.028858153 0.06620569 -0.080614865 0.07292197 -0.028600946 -0.06007448 0.008008443 -0.030523561
0.040261436 0.019798404 0.082747236 0.018463787 -0.07896622 -0.07652192 0.05201457 -0.076232195
0.051733654 -0.031021556 0.015879525 0.048832502 -0.036926564 -0.009947519 -0.060460724 0.053276103
-0.03265429 0.025265444 0.06370115 0.034505624 -0.0026634445 -0.07950771 0.019826347 -0.010051868
0.008099026 0.04353395 -0.01607196 -0.06121591 -0.028717142 0.063903354 -0.00018678521 -0.027676743
-0.07838642 -0.008672511 0.07250238 -0.00082399126 0.06664592 -0.05900068 0.06526512 0.02007558
00000000: ed31 cf3c 5925 623d 8e84 0e3c 0141 a63d
00000010: acbb 523d dec9 853d eda2 aabd eb10 853d
00000020: 2ca5 093b 9745 58bd 7abd 2b3d d9c7 04bd
00000030: 9818 0b3d b196 b9bc 0bc0 e7ba 92da 90bd
00000040: ef61 a6bc 2baf 94bd 3988 7b3c b512 d6bc
00000050: bd8e 0e3d 597e 453d 548d 50bd 7a38 62bd
00000060: b496 34bd d9ce 433d 423f 2b3d db99 583d
00000070: 4dd1 a13d 8fe3 283d ccfb 35bd 4387 9f3d
00000080: 765e 48bc 5ada 23bd d8aa 5cbd 023c 3d3d
00000090: 9ef8 32bd 762f b3bb abf3 6b3d 49d3 a33d
000000a0: 983e 47bd 899f a5bd 6a29 083c 159b 333d
000000b0: 5245 553d fe69 a3bd 4f90 af3b 513c 4bbd
000000c0: d515 0d3d 0629 803d 4a51 a6bd a356 883c
000000d0: e3f1 af3c 09e2 453d a8f1 12bd 6954 32bc
000000e0: e5c0 8ebd 786b 3c3c d57a f3bc 73e5 923c
000000f0: 557f 873c 6492 513c ee2d 303d 7d04 e93c
00000100: d11f 9cbd fcb5 23bd 123f a6bd d6db fa3c
00000110: 56d3 f3bc 0e87 b0bc 4094 cf3b b4b8 eabc
00000120: dca1 d5bb 0c1b 74bd 4a2b 7a3d 8114 9a3c
00000130: e8d7 863d e7c8 5b3d d811 94bd 9bba 3c3d
00000140: ef67 ec3c d996 873d 6819 a5bd 1d58 953d
00000150: 884c eabc a810 76bd d835 033c 8c0c fabc
00000160: 2de9 243d 4330 a23c 6277 a93d 5e41 973c
00000170: 0bb9 a1bd 86b7 9cbd 3b0d 553d a01f 9cbd
00000180: abe6 533d eb20 febc c715 823c 9704 483d
00000190: 4f40 17bd ebfa 22bc aaa5 77bd 0b38 5a3d
000001a0: 81c0 05bd 7af9 ce3c c075 823d c555 0d3d
000001b0: 2f8d 2ebb f0d4 a2bd dd6a a23c 97b0 24bc
000001c0: c7b1 043c a850 323d 58a9 83bc 89bd 7abd
000001d0: 3640 ebbc c3df 823d c6db 43b9 56ba e2bc
000001e0: 0f89 a0bd 2617 0ebc 217c 943d 1e01 58ba
000001f0: a87d 883d b2aa 71bd b8a9 853d 8b75 a43c

projection_layer.1.weight f4 [128]
0.9966372 0.9981713 0.99807614 0.99642074 0.997503 0.998174 1.0005041 1.0008233
1.0029536 1.0018382 0.9970242 0.9965175 0.9997491 0.9971363 0.99786425 0.99934274
1.0035946 1.0024616 0.9990943 0.996421 0.9986029 0.9994967 1.0016645 1.0015271
0.99952126 0.99679184 0.9973096 0.99919885 1.0014577 0.99839044 0.9962362 0.9974265
0.996926 1.0006349 0.99797326 0.99677086 1.0022761 0.99933976 1.0003912 0.9999474
0.99631506 0.9967385 0.9972706 0.9965439 0.9974314 0.9975116 0.9999657 1.0032862
0.99633616 0.99708486 0.99867 0.99748933 0.9999879 0.99723774 0.99983585 1.0025076
0.9976161 0.9973971 0.9981569 1.0011028 0.9966014 0.9964495 0.9991242 0.99745476
0.99789494 0.9986858 0.99778044 0.99770284 0.99654657 0.9979666 1.0011969 1.0007752
1.002374 0.9982947 1.0016425 1.0008707 0.9962102 0.9960469 1.0006726 0.99711967
0.99755204 0.99804455 0.99963224 0.9981423 0.9976076 0.9975195 0.9987417 0.997068
1.0021076 1.0005243 1.0008627 0.99912983 0.9994058 0.99886566 0.9998356 1.0029752
0.99681437 0.9967626 0.9977662 1.0007217 0.99739224 1.002637 0.9964136 1.0008174
0.9965204 0.9999406 0.99803776 0.9963998 0.99634886 0.9980042 0.9995723 1.0018867
0.9969414 1.0003719 0.9995865 0.9979427 1.0016038 1.0005745 0.99656594 0.99643445
0.99709547 1.002541 0.9975341 0.9964162 0.99718165 1.0022482 0.9967996 0.99752665
00000000: 9e23 7f3f 2888 7f3f eb81 7f3f 6e15 7f3f
00000010: 5b5c 7f3f 5588 7f3f 8510 803f fa1a 803f
00000020: c960 803f 3c3c 803f fa3c 7f3f c51b 7f3f
00000030: 8fef 7f3f 5344 7f3f 0874 7f3f edd4 7f3f
00000040: ca75 803f a950 803f a5c4 7f3f 7215 7f3f
00000050: 71a4 7f3f 04df 7f3f 8b36 803f 0a32 803f
00000060: a0e0 7f3f c02d 7f3f af4f 7f3f 7fcb 7f3f
00000070: c42f 803f 8496 7f3f 5609 7f3f 5857 7f3f
00000080: 8b36 7f3f ce14 803f 2d7b 7f3f 602c 7f3f
00000090: 954a 803f bbd4 7f3f d20c 803f 8efc 7f3f
000000a0: 810e 7f3f 412a 7f3f 204d 7f3f 801d 7f3f
000000b0: aa57 7f3f ec5c 7f3f c1fd 7f3f af6b 803f
000000c0: e30f 7f3f f440 7f3f d6a8 7f3f 765b 7f3f
000000d0: 35ff 7f3f f94a 7f3f 3ef5 7f3f 2b52 803f
000000e0: c563 7f3f 6b55 7f3f 3687 7f3f 2324 803f
000000f0: 4521 7f3f 5017 7f3f 9bc6 7f3f 3259 7f3f
00000100: 0b76 7f3f dfa9 7f3f 8a6e 7f3f 7469 7f3f
00000110: ad1d 7f3f bd7a 7f3f 3827 803f 6719 803f
00000120: cb4d 803f 3e90 7f3f d235 803f 881c 803f
00000130: a207 7f3f eefc 7e3f 0a16 803f 3c43 7f3f
00000140: 925f 7f3f d97f 7f3f e6e7 7f3f 4186 7f3f
00000150: 3663 7f3f 705d 7f3f 89ad 7f3f d93f 7f3f
00000160: 1045 803f 2e11 803f 451c 803f f9c6 7f3f
00000170: 0fd9 7f3f a9b5 7f3f 3af5 7f3f 7e61 803f
00000180: 3a2f 7f3f d52b 7f3f 9b6d 7f3f a617 803f
00000190: 1955 7f3f 6956 803f f614 7f3f c91a 803f
000001a0: f61b 7f3f 1bfc 7f3f 677f 7f3f 0f14 7f3f
000001b0: b810 7f3f 347d 7f3f f8e3 7f3f d33d 803f
000001c0: 8d37 7f3f 300c 803f e7e4 7f3f 2c79 7f3f
000001d0: 8e34 803f d312 803f f21e 7f3f 5416 7f3f
000001e0: a641 7f3f 4353 803f 655e 7f3f 2215 7f3f
000001f0: 4c47 7f3f ab49 803f 422e 7f3f e85d 7f3f

projection_layer.1.bias f4 [128]
-0.0030490288 -0.00085652363 -0.0015925614 -0.0031464272 -0.0020163376 -0.0021467772 0.0010355159 0.0016871794
0.0015092123 0.001781381 -0.0031702693 -0.003276712 -9.833396e-05 -0.0026906324 -0.001901426 -0.00028851494
0.003639425 0.0032164603 -0.0020877062 -0.0006679189 -0.0011720964 0.00037909433 0.0019706555 0.0009441088
-0.0032347203 -0.0036681236 -0.0025039525 -0.0011149192 0.0020487849 -0.002098445 -0.0037262398 -0.0020115783
-0.0032658589 0.0011249152 -0.0026697372 -0.0032205088 0.002617345 0.0011137808 -0.00038602352 0.00096278015
-0.00095230574 -0.0010775884 -0.0028447567 -0.0034268538 -0.00044479626 -0.0021232734 -0.0006724231 0.003292101
-0.0005707217 -0.0026450448 -0.0007818319 -0.0017024627 0.0013735618 -0.0027996928 0.0015748362 0.0018635285
-0.0031545272 -0.00066605955 -0.0022141351 0.002263145 -0.0026718825 -0.0030957514 -0.00019170046 -0.0024733623
-0.0017601175 -0.00085986406 0.0020835814 -0.0016554666 -0.003693908 -0.0015558456 0.00080329395 0.001980304
0.001127274 -0.0022887706 0.0018041444 0.0014839943 -0.003990019 -0.003927196 0.0008857026 -0.0025166431
-0.0015587402 -0.0021756883 -0.00033218684 -0.0016411976 -0.0021903855 -0.002738543 -0.0017225974 -0.002942551
0.0014553302 0.00060423766 0.0011184297 -0.0014699231 -8.342342e-05 -0.00090585276 0.0006131188 0.0011459893
-0.0032071292 -0.0031789972 -0.0010111649 0.0022157517 -0.0026469305 0.0026377738 -0.001086977 0.00031777806
-0.0018987779 -0.00041868823 -0.0022476702 -0.0031215842 -0.0009344612 -0.0018105614 -0.00056136656 0.00113079
-0.0033776916 0.0013868146 0.0021093953 -0.00033518032 0.0016996705 0.00011283197 -0.0032956572 -0.00035917308
0.0007461246 0.0015512933 -0.0010616389 0.00043630713 -0.0027329386 0.0006497373 -0.0029605627 -0.0017367508
00000000: 37d2 47bb 5488 60ba 7ebd d0ba 4a34 4ebb
00000010: 8824 04bb f2b0 0cbb 26ba 873a 5924 dd3a
00000020: c3d0 c53a 3a7d e93a 4bc4 4fbb 1bbe 56bb
00000030: a538 ceb8 5255 30bb 4539 f9ba d243 97b9
00000040: 6b83 6e3b 40cb 523b e6d1 08bb 4717 2fba
00000050: 07a1 99ba 2ec1 c639 1d26 013b 127e 773a
00000060: 9afd 53bb e764 70bb 5a19 24bb 7b22 92ba
00000070: e844 063b 1186 09bb ee33 74bb afd4 03bb
00000080: 0508 56bb e471 933a c2f6 2ebb 2c0f 53bb
00000090: c387 2b3b 48fc 913a 3363 cab9 1563 7c3a
000000a0: 28a4 79ba de3d 8dba 196f 3abb 1195 60bb
000000b0: 8b33 e9b9 9e26 0bbb 8d45 30ba 4ac0 573b
000000c0: 7c9c 15ba 7d58 2dbb daf3 4cba 2b25 dfba
000000d0: 1609 b43a 0d7b 37bb bc6a ce3a a441 f43a
000000e0: 2fbc 4ebb 809a 2eba 061b 11bb 4651 143b
000000f0: c01a 2fbb 17e2 4abb 3303 49b9 2218 22bb
00000100: beb3 e6ba 8068 61ba b28c 083b 3efc d8ba
00000110: 7e15 72bb 84ed cbba 2594 523a fdc7 013b
00000120: 0ac1 933a 33ff 15bb 0a79 ec3a 9682 c23a
00000130: b5be 82bb b5af 80bb 7f2e 683a 44ee 24bb
00000140: a44e ccba fe95 0ebb 5d29 aeb9 741d d7ba
00000150: 928c 0fbb 2179 33bb c7c8 e1ba d0d7 40bb
00000160: c7c0 be3a b465 1e3a 4698 923a 6faa c0ba
00000170: 9cf3 aeb8 c076 6dba b5b9 203a 0535 963a
00000180: b32e 52bb b956 50bb 1089 84ba 2536 113b
00000190: 2078 2dbb 80de 2c3b e578 8eba 739b a639
000001a0: 6ae0 f8ba 6283 dbb9 a64d 13bb 7e93 4cbb
000001b0: a1f6 74ba 5c50 edba ac28 13ba 0437 943a
000001c0: 435c 5dbb c7c5 b53a c83d 0a3b 24bb afb9
000001d0: 7ac7 de3a 34a0 ec38 f4fb 57bb 654f bcb9
000001e0: 9397 433a c454 cb3a b126 8bba 27c0 e439
000001f0: 1a1b 33bb 2253 2a3a 0006 42bb b0a3 e3ba

projection_layer.1.running_mean f4 [128]
0.011571785 -0.0062428955 -0.019255154 -0.0017779634 0.00226445 0.0038149501 -0.067663856 0.020744883
0.011648818 -0.027991699 0.08734379 -0.0035013785 0.009759976 0.021395432 -0.0006225253 -0.05196867
-0.0506812 -0.030005798 0.020151038 0.05604644 0.0025105674 0.048837405 -0.07275428 -0.052627277
-0.0036988037 0.0068554524 -0.02438636 0.019933421 0.048153896 0.011705937 -7.673562e-05 0.028176112
0.02768828 -0.0342219 0.0018455505 0.03490984 -0.013285938 0.008849076 0.049879003 0.009422186
-0.0053258575 -0.013506132 0.027216785 0.0464408 0.035688523 -0.003283835 0.020448344 0.013217705
0.02098134 0.012942926 -0.04443729 0.0065537877 0.049305532 -0.012834359 -0.0027238533 0.024789594
-0.004929571 0.027341416 0.010282428 -0.015347134 0.016667621 -0.034830984 0.028000979 0.05035596
-0.04276607 -0.019805936 -0.02730862 -0.0004917274 -0.0047410354 -0.016749728 0.0036828553 0.024303053
-0.017813772 0.0054935734 -0.00040377688 -0.004019225 0.039908756 0.03308006 0.027664179 0.049031403
0.03490139 0.02738037 -0.026941158 0.01614254 -0.00230918 -0.018209882 -0.012249509 0.0012166832
0.020376395 0.026280103 -0.0008758386 0.03552225 -0.041438825 -0.01861437 0.030765729 -0.048388135
0.006251153 -0.012466726 0.0011498419 0.03655555 -0.030053439 -0.04580509 0.01647424 0.015263279
0.0049583497 -0.013493201 0.012983445 0.009753592 -0.020918773 0.01343716 0.020694876 -0.029964546
-0.018093202 0.037708618 0.020401904 -0.030474983 -0.038337678 0.03485132 0.020838572 -0.02733556
-0.050634813 -0.06380319 0.023250636 0.025121601 0.03277168 -0.009051433 0.041018717 -0.0042190813
00000000: 9697 3d3c 3491 ccbb fcbc 9dbc 8d0a e9ba
00000010: 2b67 143b 3e04 7a3b 5993 8abd 2cf1 a93c
00000020: afda 3e3c d94e e5bc 4de1 b23d 6277 65bb
00000030: 4ee8 1f3c 7945 af3c f730 23ba 1add 54bd
00000040: 1797 4fbd b8ce f5bc ca13 a53c f490 653d
00000050: 5588 243b bb09 483d 3200 95bd b38f 57bd
00000060: a167 72bb b4a3 e03b e7c5 c7bc 6a4b a33c
00000070: 053d 453d 42ca 3f3c 1fed a0b8 97d1 e63c
00000080: 88d2 e23c 432c 0cbd 66e6 f13a 9ffd 0e3d
00000090: 43ad 59bc b7fb 103c ed4d 4c3d 835f 1a3c
000000a0: 8884 aebb d348 5dbc bcf5 de3c b538 3e3d
000000b0: 212e 123d 9c35 57bb 4983 a73c 138f 583c
000000c0: 0fe1 ab3c 910e 543c e003 36bd 28c1 d63b
000000d0: 99f4 493d 3447 52bc ad82 32bb 8c13 cb3c
000000e0: 3d88 a1bb 1bfb df3c a177 283c 8c72 7bbc
000000f0: 898a 883c efaa 0ebd 4f62 e53c 0d42 4e3d
00000100: 7a2b 2fbd 0f40 a2bc 54b6 dfbc 44e7 00ba
00000110: b05a 9bbb ba36 89bc 0f5c 713b 3217 c73c
00000120: 30ee 91bc 6f03 b43b 04b2 d3b9 b4b3 83bb
00000130: 5d77 233d f57e 073d fd9f e23c 27d5 483d
00000140: c3f4 0e3d cc4c e03c b4b3 dcbc 5c3d 843c
00000150: 9d55 17bb e42c 95bc 2ab2 48bc 1d79 9f3a
00000160: 66ec a63c 5f49 d73c 8998 65ba c77f 113d
00000170: c2bb 29bd 2a7d 98bc 6908 fc3c a332 46bd
00000180: 79d6 cc3b 3d41 4cbc 4bb6 963a 46bb 153d
00000190: a132 f6bc 1e9e 3bbd fcf4 863c d512 7a3c
000001a0: a779 a23b 9612 5dbc 84b8 543c 88cd 1f3c
000001b0: d95d abbc 8927 5c3c 4d88 a93c 3578 f5bc
000001c0: 3238 94bc 5a74 1a3d e521 a73c aca6 f9bc
000001d0: f807 1dbd 42c0 0e3d a7b5 aa3c d3ee dfbc
000001e0: 7366 4fbd 3fab 82bd 1e78 be3c d1cb cd3c
000001f0: 993b 063d 764c 14bc 3e03 283d 3840 8abb

projection_layer.1.running_var f4 [128]
0.6830589 0.70281816 0.6946161 0.6785038 0.7147707 0.6833538 0.70844084 0.7154232
0.68647885 0.69579417 0.6890552 0.6805596 0.6791267 0.6884043 0.7074484 0.69571507
0.6890053 0.6796757 0.701118 0.6799062 0.69430274 0.70635915 0.69206643 0.6813392
0.6916559 0.6917226 0.6888138 0.693253 0.67758465 0.6843403 0.6801859 0.68366563
0.68766266 0.7035805 0.6988121 0.6709352 0.6825207 0.6865263 0.6899477 0.6834355
0.67780775 0.69421947 0.6956801 0.6856551 0.698183 0.7255088 0.7094207 0.70125157
0.6812572 0.68952996 0.7003286 0.6840924 0.7287894 0.6884201 0.73694354 0.6921937
0.6967305 0.68856794 0.72394484 0.6889238 0.6908137 0.68977255 0.6768479 0.6784124
0.6920817 0.6988765 0.6785349 0.6985646 0.68890846 0.68452626 0.6976382 0.69447064
0.682533 0.70334953 0.6930439 0.6864938 0.6938761 0.7016859 0.6788374 0.69158936
0.68566746 0.69438046 0.6823917 0.7175962 0.69823986 0.71040165 0.71475035 0.7023421
0.6796105 0.70286953 0.6801293 0.6821418 0.6971558 0.7205468 0.68640554 0.6876149
0.70536375 0.6902845 0.6902221 0.68893343 0.6941657 0.69264996 0.7012756 0.68287855
0.6771809 0.6896606 0.70440024 0.7113994 0.6837459 0.685211 0.74471045 0.6837793
0.695085 0.68863976 0.69108343 0.6837178 0.69558626 0.7035806 0.6799664 0.6794579
0.68705565 0.7016001 0.6819315 0.6905307 0.6944505 0.68963075 0.70757884 0.7017075
00000000: f3dc 2e3f e4eb 333f 5cd2 313f 6db2 2d3f
00000010: 36fb 363f 46f0 2e3f 615c 353f fa25 373f
00000020: 14bd 2f3f 911f 323f ec65 303f 2739 2e3f
00000030: 3fdb 2d3f 443b 303f 571b 353f 621a 323f
00000040: a762 303f 3aff 2d3f 787c 333f 550e 2e3f
00000050: d3bd 313f f4d3 343f 442b 313f 3f6c 2e3f
00000060: 5c10 313f bb14 313f 1a56 303f 0779 313f
00000070: 3076 2d3f ed30 2f3f aa20 2e3f b604 2f3f
00000080: a90a 303f da1d 343f 5ae5 323f 69c2 2b3f
00000090: adb9 2e3f 30c0 2f3f 6aa0 303f a1f5 2e3f
000000a0: cf84 2d3f 5eb8 313f 1718 323f 1887 2f3f
000000b0: 1fbc 323f f2ba 393f 989c 353f 3985 333f
000000c0: df66 2e3f 0985 303f bc48 333f ae20 2f3f
000000d0: f191 3a3f 4d3c 303f 55a8 3c3f 9b33 313f
000000e0: ee5c 323f fd45 303f 7354 393f 4f5d 303f
000000f0: 2bd9 303f ef94 303f e745 2d3f 6fac 2d3f
00000100: 442c 313f 92e9 323f 77b4 2d3f 21d5 323f
00000110: 4e5c 303f 1d3d 2f3f 6b98 323f d4c8 313f
00000120: 7cba 2e3f b70e 343f 536b 313f 0fbe 2f3f
00000130: dda1 313f b0a1 333f 4ac8 2d3f 000c 313f
00000140: e787 2f3f ebc2 313f 39b1 2e3f 62b4 373f
00000150: d9bf 323f e2dc 353f e1f9 363f b1cc 333f
00000160: f4fa 2d3f 42ef 333f f41c 2e3f d8a0 2e3f
00000170: cd78 323f c175 383f 46b8 2f3f 8807 303f
00000180: b892 343f 7cb6 303f 65b2 303f f15d 303f
00000190: d8b4 313f 8251 313f cc86 333f 21d1 2e3f
000001a0: ba5b 2d3f 998d 303f 9353 343f 451e 363f
000001b0: f909 2f3f fd69 2f3f 58a5 3e3f 290c 2f3f
000001c0: 17f1 313f b24a 303f d8ea 303f 2108 2f3f
000001d0: f111 323f dc1d 343f 4712 2e3f f4f0 2d3f
000001e0: e1e2 2f3f 109c 333f 1093 2e3f 9fc6 303f
000001f0: 82c7 313f a48b 303f e323 353f 1aa3 333f

projection_layer.4.weight f4 [128, 128]
-0.057723768 0.03460588 -0.022245364 -0.060540926 0.05455425 -0.04511915 0.066476636 0.040763948
-0.01290029 -0.032484617 -0.07499941 -0.023067772 0.021889608 0.02693567 -0.028732592 -0.019067727
0.018718943 -0.08180451 -0.056543943 -0.01687284 -0.039040692 -0.045619942 0.0550304 -0.06767684
0.012079128 0.06211475 0.0687802 -0.07609791 -0.06355976 0.06852236 -0.03473483 -0.029026585
0.021661986 -0.034562636 0.08332913 -0.027147235 -0.07986687 0.08119602 0.0765249 -0.0039225626
0.005718744 -0.0840093 -0.035348438 -0.033662885 -0.07532731 -0.06438519 -0.025665862 -0.0880436
0.022591587 -0.022396144 0.05967699 -0.03319544 0.06539742 0.03550731 0.04838336 0.0758106
-0.073936015 0.005673749 0.029008491 -0.047371842 0.081410214 0.06762703 0.084639825 0.03503687
-0.017826062 0.05411382 0.028036347 -0.02369536 0.00754316 0.05358421 -0.01755197 -0.004308149
-0.07706406 0.03470472 0.07274947 0.0128482 0.0869569 0.03317101 0.08086095 0.0011319432
-0.0470811 -0.06664201 0.06893025 -0.07595397 -0.078908935 -0.026749078 -0.02629646 -0.030410994
-0.08467466 -0.062373463 -0.039374158 -0.06933741 -0.054460872 0.0749727 0.0106257405 0.051444553
-0.039787203 0.0141905565 0.062072985 -0.08043553 0.08380622 0.0595545 -0.052810643 -0.08239821
0.06558324 0.02275197 -0.017806796 -0.049202975 -0.06355176 0.05297755 0.054900553 -0.023130357
-0.08438492 -0.049345728 0.051628835 -0.027600108 -0.0028051855 0.04404447 0.014745 0.021441584
0.086318664 0.058684327 -0.06294961 -0.061583936 0.058106232 -0.08097775 0.06643302 -0.007819063
-0.050115068 -0.062098708 0.025979647 0.04700369 -0.01347614 -0.048280224 0.047402147 0.06063705
-0.063257135 0.013518545 0.041410133 0.08937562 -0.011081998 -0.080530845 -0.009146882 -0.063879915
0.06752413 -0.052982796 -0.031993136 0.020074837 0.058516927 -0.075966306 0.029656267 0.04574842
-0.024994077 -0.029223226 0.033265144 0.056902647 0.022467343 -0.016313141 -0.08562207 -0.03318106
0.08069868 -0.05446918 -0.06801399 -0.05748092 0.011688833 0.012385775 0.012867088 0.0008153302
-0.06128058 0.04082349 -0.071806654 -0.04224393 0.07629942 -0.060914777 -0.0020601249 0.016760705
-0.07034247 -0.070452005 -0.023548184 0.08170687 -0.05944515 -0.064114794 0.087274246 -0.06404502
0.036168933 -0.05676305 -0.047770772 0.045296308 -0.04838007 0.01840523 -0.062385146 0.062102463
-0.06262213 0.07167191 0.012506717 0.008259633 0.052658033 0.010564387 0.04356077 0.019669503
-0.03148901 0.00886988 -0.0664055 0.06226796 0.07179361 0.077271484 -0.032229446 0.032315645
0.032506507 0.023813624 0.03775288 -0.08351711 -0.08024371 -0.066805266 0.064510405 -0.01587655
-0.00091387914 0.07172909 0.0033991057 -0.07420049 0.034004256 0.0679676 -0.051361386 -0.0050080055
0.08358809 -0.0083085615 -0.08938642 0.08603586 -0.03847907 -0.06310247 -0.0019907963 0.031363174
-0.08940414 0.03139694 -0.059753183 0.06736997 0.08106948 0.06959529 0.056128938 -0.039068013
-0.05543867 0.023790147 -0.0025079038 -0.021272246 -0.06766617 -0.018017596 -0.07734528 -0.06790879
0.050830346 -0.07628262 0.015125346 0.05894938 -0.063656785 -0.003289005 0.064664446 0.045880824
00000000: c26f 6cbd e5be 0d3d e93b b6bc c3f9 77bd
00000010: 4774 5f3d dcce 38bd e724 883d 19f8 263d
00000020: bd5b 53bc 970e 05bd 4a99 99bd a0f8 bcbc
00000030: d651 b33c 32a8 dc3c 9d60 ebbc ec33 9cbc
00000040: 7858 993c 1f89 a7bd 9f9a 67bd e938 8abc
00000050: 22e9 1fbd fadb 3abd 8f67 613d 289a 8abd
00000060: 89e7 453c 096c 7e3d a2dc 8c3d 39d9 9bbd
00000070: 9f2b 82bd 7355 8c3d 1c46 0ebd 29c9 edbc
00000080: 7a74 b13c 8d91 0dbd 77a8 aa3d e163 debc
00000090: 3e91 a3bd 194a a63d 16b9 9c3d d788 80bb
000000a0: 4d64 bb3b 110d acbd 86c9 10bd 18e2 09bd
000000b0: 3445 9abd 62dc 83bd 3741 d2bc 3450 b4bd
000000c0: fe11 b93c 1e78 b7bc dc6f 743d f1f7 07bd
000000d0: 15ef 853d 1d70 113d a12d 463d 9642 9b3d
000000e0: c46b 97bd dbea b93b 37a3 ed3c fa08 42bd
000000f0: 66ba a63d 0a80 8a3d a557 ad3d d282 0f3d
00000100: f607 92bc 74a6 5d3d 7bac e53c c61c c2bc
00000110: 9d2c f73b 1e7b 5b3d 26c9 8fbc 602b 8dbb
00000120: c3d3 9dbd 8926 0e3d adfd 943d 4281 523c
00000130: 7616 b23d 53de 073d 6d9a a53d b65d 943a
00000140: 1dd8 40bd 9b7b 88bd 4e2b 8d3d c18d 9bbd
00000150: 029b a1bd e220 dbbc ac6b d7bc 7a20 f9bc
00000160: e869 adbd 517b 7fbd cc46 21bd c600 8ebd
00000170: 5d12 5fbd 498b 993d 9617 2e3c 86b7 523d
00000180: e8f7 22bd 827f 683c 3e40 7e3d 62bb a4bd
00000190: 98a2 ab3d 6bef 733d f94f 58bd 65c0 a8bd
000001a0: 8150 863d 5762 ba3c 8fdf 91bc 0f89 49bd
000001b0: 6d27 82bd fdfe 583d 67df 603d e07b bdbc
000001c0: 00d2 acbd bf1e 4abd c278 533d 9f19 e2bc
000001d0: 34d7 37bb f967 343d 0395 713c 43a6 af3c
000001e0: d7c7 b03d fa5e 703d baeb 80bd 703f 7cbd
000001f0: cd00 6e3d aad7 a5bd 090e 883d 871b 00bc
00000200: 7545 4dbd 375b 7ebd 45d3 d43c f186 403d
00000210: 07cb 5cbc 7cc1 45bd c128 423d 8e5e 783d
00000220: f58c 81bd e37c 5d3c ac9d 293d 910a b73d
00000230: 4591 35bc 5bed a4bd cedc 15bc 79d3 82bd
00000240: 174a 8a3d 7d04 59bd 3c0b 03bd fc73 a43c
00000250: 72af 6f3d 3994 9bbd b3f1 f23c b262 3b3d
00000260: 61c0 ccbc 8c65 efbc 0841 083d c012 693d
00000270: 6f0d b83c 23a3 85bc a05a afbd dde8 07bd
00000280: 5945 a53d 131b 5fbd eb4a 8bbd 1d71 6bbd
00000290: 8582 3f3c b5ed 4a3c 7bd0 523c e2bb 553a
000002a0: 5801 7bbd 8836 273d 5e0f 93bd f907 2dbd
000002b0: df42 9c3d c681 79bd 2903 07bb bf4d 893c
000002c0: b70f 90bd 2449 90bd 1fe8 c0bc ee55 a73d
000002d0: c27c 73bd 9e4e 83bd d7bc b23d 092a 83bd
000002e0: e025 143d 5f80 68bd 49ab 43bd 9f88 393d
000002f0: 2e2a 46bd 91c6 963c 9187 7fbd 275f 7e3d
00000300: 0840 80bd b9c8 923d f9e8 4c3c 6953 073c
00000310: f3af 573d 4016 2d3c c76c 323d f021 a13c
00000320: 9ffa 00bd f952 113c 9bff 87bd b00c 7f3d
00000330: 8708 933d 8340 9e3d 0603 04bd 695d 043d
00000340: 8b25 053d ca14 c33c c4a2 1a3d 050b abbd
00000350: d056 a4bd 33d1 88bd 081e 843d 8a0f 82bc
00000360: 6491 6fba b3e6 923d 88c3 5e3b 6df6 97bd
00000370: 0c48 0b3d 9932 8b3d 5160 52bd 321a a4bb
00000380: 3c30 ab3d a220 08bc 3a10 b7bd 9233 b03d
00000390: 3b9c 1dbd de3b 81bd 0578 02bb ac76 003d
000003a0: 8519 b7bd 149a 003d c1bf 74bd 44f9 893d
000003b0: c107 a63d fa87 8e3d 75e7 653d c805 20bd
000003c0: a913 63bd 8ee3 c23c a55b 24bb 2243 aebc
000003d0: 9094 8abd a399 93bc 3467 9ebd c413 8bbd
000003e0: 7b33 503d 103a 9cbd 4dd0 773c e874 713d
000003f0: 7d5e 82bd 598c 57bb cb6e 843d 88ed 3b3d

projection_layer.4.bias f4 [128]
-0.044540953 0.049065445 -0.05341694 0.0040010833 0.03280993 0.03973117 -0.040314108 -0.027674884
0.034623936 -0.08155279 0.05972871 0.08619639 -0.011210591 0.049871594 -0.05072797 0.077471495
-0.0704122 -0.03884599 -0.02884418 -0.036706164 0.0405362 0.016828168 0.084870845 0.05095661
-0.069792956 0.07154549 0.032498036 0.06714071 -0.043433566 0.077592455 -0.03433254 0.029730514
0.0037997146 0.055621002 -0.0074025663 -0.07898739 0.054340936 -0.0027390453 0.0030058098 0.07319867
-0.025034634 -0.008200489 -0.04780592 -0.005103246 -0.082535245 -0.032169476 0.08108686 0.018599791
0.0067213783 -0.029031865 0.034211736 -0.021432653 0.0618056 0.01039764 -0.05049133 -0.037175182
-0.039816033 -0.009328473 -0.08601761 0.0641714 0.009354818 0.010189394 -0.04239037 -0.047593404
0.040098403 -0.02453643 0.049141593 0.062612675 -0.027606495 0.00095848856 -0.025359657 -0.073559195
-0.07932298 -0.03496937 -0.008226773 -0.08758411 0.027521906 0.034870803 0.031020615 -0.08191229
-0.029373309 -0.051533658 0.024742577 -0.033899374 0.026955964 0.030147929 0.031272754 -0.009623961
-0.046867676 0.003888208 -0.049181268 0.055576354 0.035240773 0.043874666 0.018222425 0.024585709
0.0023771557 0.04686273 0.023890058 0.011817358 0.034116536 0.06528399 -0.021671172 0.038494986
-0.020841204 0.01478743 -0.028930549 -0.018568076 0.017175013 0.07929058 -0.04324952 0.009199537
0.05782791 -0.03049496 -0.070535146 0.017081346 0.088908374 -0.009171264 0.077634096 -0.04195984
-0.041454688 -0.057210173 -0.027190464 0.005598999 0.034017257 0.029758055 0.0576321 -0.039164826
00000000: 9370 36bd d9f8 483d b9cb 5abd 851b 833b
00000010: b563 063d 27bd 223d 6820 25bd 70b6 e2bc
00000020: d4d1 0d3d 2605 a7bd 18a6 743d bc87 b03d
00000030: a0ac 37bc 2846 4c3d 22c8 4fbd 60a9 9e3d
00000040: 4634 90bd f91c 1fbd a14a ecbc 3459 16bd
00000050: 4909 263d 3adb 893c c4d0 ad3d e1b7 503d
00000060: 9cef 8ebd 7186 923d a91c 053d 1281 893d
00000070: 65e7 31bd cbe8 9e3d 47a0 0cbd 688d f33c
00000080: a204 793b d9d2 633d 3a91 f2bb 24c4 a1bd
00000090: 9a94 5e3d 8e81 33bb 1ffd 443b 2fe9 953d
000000a0: 6f15 cdbc 585b 06bc 24d0 43bd 2139 a7bb
000000b0: 3d08 a9bd 24c4 03bd de10 a63d 975e 983c
000000c0: 023f dc3b 3cd4 edbc 9b21 0c3d 8893 afbc
000000d0: de27 7d3d dd5a 2a3c ffcf 4ebd 0145 18bd
000000e0: 2316 23bd 74d6 18bc 002a b0bd 4c6c 833d
000000f0: f344 193c 6af1 263c 86a1 2dbd 4df1 42bd
00000100: 393e 243d a000 c9bc b248 493d 133b 803d
00000110: 0427 e2bc 1443 7b3a 0ebf cfbc 34a6 96bd
00000120: 1674 a2bd 0b3c 0fbd 96c9 06bc 4c5f b3bd
00000130: 9f75 e13c b0d4 0e3d f21e fe3c a1c1 a7bd
00000140: 4ba0 f0bc f514 53bd f2b0 ca3c 12da 0abd
00000150: c1d2 dc3c caf8 f63c dc17 003d d1ad 1dbc
00000160: 52f8 3fbd 4ed1 7e3b 4c72 49bd 08a4 633d
00000170: a158 103d ecb5 333d 3247 953c f867 c93c
00000180: 0eca 1b3b 22f3 3f3d 15b5 c33c 989d 413c
00000190: c8bd 0b3d 9db3 853d be87 b1bc ebac 1d3d
000001a0: 2cbb aabc fa46 723c c2ff ecbc 141c 98bc
000001b0: 9db2 8c3c 1963 a23d 6926 31bd a8b9 163c
000001c0: f5dc 6c3d 91d0 f9bc bb74 90bd 2eee 8b3c
000001d0: 9815 b63d 1243 16bc a0fe 9e3d 15de 2bbd
000001e0: 64cc 29bd 3755 6abd 89be debc cf77 b73b
000001f0: ae55 0b3d 2ac7 f33c a30f 6c3d 4c6b 20bd

output_layer.weight f4 [1, 128]
-0.052199658 0.00484489 0.058053788 0.077735536 -0.029887257 -0.052470546 0.0377181 0.08187193
-0.063326105 -0.05993787 -0.053640325 0.05600205 -0.023516534 -0.043339144 -0.012087405 -0.029159203
0.03528796 0.032715917 0.0041503455 0.07726473 -0.024205163 -0.043654155 0.0026064238 0.01414983
-0.026282622 -0.06103355 -0.04202721 -0.023911085 -0.07499013 -0.081322104 -0.013652994 0.01287599
-0.08098384 0.07002636 -0.014325352 -0.062157694 -0.06213502 0.022515286 0.030269947 -0.036301557
0.053099073 0.051732566 0.026402473 0.04527915 -0.0730061 -0.010799043 0.07438764 0.006664213
-0.005552414 0.033800915 0.055956613 0.054702166 0.07560461 0.04197049 0.040258124 0.057277586
-0.043403868 -0.047908287 -0.04042749 -0.07211627 0.05033553 0.035324458 0.016237304 0.022118408
0.048229948 0.062068105 -0.06836579 -0.059881855 -0.07195602 -0.04233278 0.03455911 0.039348964
-0.03230605 0.057894796 0.00047459724 -0.06801742 0.059218008 -0.054146186 -0.022701962 -0.081399
-0.05474887 -0.0713252 -0.03832869 -0.00051213236 0.06469234 -0.02650999 0.023266273 0.020180063
-0.05864156 -0.0007960189 -0.08523714 -0.07942478 -0.012742586 0.014672075 0.011634823 -0.022060154
0.019914279 -0.07770623 0.08303577 0.05408042 -0.033442188 0.06549995 -0.07407404 0.07998806
-0.078685075 -0.037354726 0.04834691 -0.08079345 0.037006266 0.04502778 0.07427458 -0.015402845
-0.07021332 0.005829482 -0.05268678 0.085737996 0.011189416 -0.060677934 0.06482821 0.08068646
0.0069067637 -0.023866812 -0.02761114 -0.075388685 -0.082665354 -0.05772798 -0.01832244 -0.0352329
00000000: 4fcf 55bd e2c1 9e3b cfc9 6d3d cf33 9f3d
00000010: 1fd6 f4bc 5beb 56bd 4b7e 1a3d 78ac a73d
00000020: 1eb1 81bd 6981 75bd f5b5 5bbd 6862 653d
00000030: bfa5 c0bc 6384 31bd 400a 46bc 48df eebc
00000040: 1c8a 103d 2001 063d 9fff 873b f93c 9e3d
00000050: e849 c6bc b3ce 32bd 89d0 2a3b b0d4 673c
00000060: a74e d7bc 51fe 79bd b924 2cbd 2ee1 c3bc
00000070: 6d94 99bd 348c a6bd cfb0 5fbc d1f5 523c
00000080: dbda a5bd fb69 8f3d e2b4 6abc 1199 7ebd
00000090: 4a81 7ebd fa71 b83c aef8 f73c f1b0 14bd
000000a0: 6a7e 593d 87e5 533d 004a d83c a176 393d
000000b0: 3984 95bd 78ee 30bc 8c58 983d 785f da3b
000000c0: 06f1 b5bb d472 0a3d c332 653d 610f 603d
000000d0: 97d6 9a3d 40e9 2b3d b4e5 243d e79b 6a3d
000000e0: 41c8 31bd 7b3b 44bd 4c97 25bd b2b1 93bd
000000f0: a12c 4e3d 61b0 103d 1804 853c aa31 b53c
00000100: c48c 453d 203b 7e3d 5d03 8cbd ad46 75bd
00000110: ae5d 93bd 2365 2dbd da8d 0d3d 612c 213d
00000120: 5953 04bd 1823 6d3d 5dd3 f839 b84c 8bbd
00000130: 958e 723d 64c8 5dbd 77f9 b9bc 85b4 a6bd
00000140: 5a40 60bd f212 92bd 8bfe 1cbd 9f40 06ba
00000150: 6b7d 843d 7b2b d9bc e998 be3c a950 a53c
00000160: 2232 70bd edab 50ba cf90 aebd 76a9 a2bd
00000170: 48c6 50bc 2563 703c fc9f 3e3c 7fb7 b4bc
00000180: 4523 a33c 7224 9fbd a80e aa3d 6e83 5d3d
00000190: adfa 08bd d624 863d 21b4 97bd c8d0 a33d
000001a0: a425 a1bd 4501 19bd 6907 463d 0977 a5bd
000001b0: e293 173d 0d6f 383d 451d 983d 375c 7cbc
000001c0: 00cc 8fbd 3d05 bf3b 18ce 57bd 6797 af3d
000001d0: d053 373c 6d89 78bd a7c4 843d f13e a53d
000001e0: 2252 e23b 5584 c3bc c230 e2bc 6265 9abd
000001f0: 744c a9bd 2d74 6cbd f118 96bc 6050 10bd
