Checkpoints/HR_V/valence_s27.pth (torch, 461905 bytes, 29 tensors)

input_layer.weight f4 [128, 29]
0	0x3e0c6787	0.13711368
1	0xbd76e57d	-0.06027745
2	0x3d8665a2	0.06562354
3	0xbd453084	-0.04814197
4	0x3e26cd21	0.16289188
5	0xbca5213e	-0.020157453
6	0xbe265150	-0.16241956
7	0xbd8c0b8d	-0.06838141
8	0x3d6d0cfa	0.057873704
9	0x3e225a3e	0.15854737
10	0x3dcb3f3b	0.0992417
11	0x3e0fdbbe	0.14048669
12	0x3de02452	0.109444275
13	0xbd831df9	-0.06402201
14	0x3d8285cc	0.06373176
15	0xbc75cb17	-0.015002034
16	0xbc8cf3b4	-0.01720605
17	0xbdab9b62	-0.08379246
18	0x3daa7fdc	0.083251685
19	0xbdcb241e	-0.09918998
20	0xbdde1c0d	-0.10845194
21	0x3d9d50fb	0.076814614
22	0x3e2cecb1	0.16887166
23	0x3e3cd7a4	0.18441635
24	0xbe3b76f8	-0.18307102
25	0xbe2d33c0	-0.16914272
26	0x3d29c1d0	0.0414446
27	0x3d11db62	0.03560961
28	0x3e1d69d8	0.15372407
29	0x3e02560e	0.1272814
30	0x3dfe10a6	0.12405519
31	0xbd5ea536	-0.054356776
32	0x3e34694d	0.17618294
33	0x3ded4873	0.11586084
34	0xbe032892	-0.12808445
35	0xbd8d0c56	-0.068871185
36	0xbe13654c	-0.1439411
37	0xbe2e4ba5	-0.17021044
38	0x3e371227	0.17878018
39	0xbd0b8969	-0.03406659
40	0xbe487271	-0.19574906
41	0x3ce33500	0.027735233
42	0xbd9f56c3	-0.0778022
43	0xbe340244	-0.1757899
44	0xbe3b8ef0	-0.18316245
45	0xbdfa66a0	-0.122266054
46	0x3de5ef9a	0.11227341
47	0xbd5cc3e8	-0.05389777
48	0xbcf5d8a4	-0.030010529
49	0x3d2a4da4	0.04157795
50	0x3e17bd94	0.14818412
51	0xbd3c3078	-0.04594466
52	0xbe1430f2	-0.14471796
53	0x3da079f3	0.0783576
54	0xbc1201ba	-0.008911544
55	0xbdc2feb5	-0.09521238
56	0xbc5dce3c	-0.01353794
57	0x3d9fef12	0.07809271
58	0xbd81ec34	-0.0634388
59	0x3d2252c3	0.03962971
60	0xbdebab77	-0.11507314
61	0xbbbc22e0	-0.005741462
62	0x3dca92b3	0.09891262
63	0xbde07a2e	-0.10960804
64	0x3deb1e3c	0.11480376
65	0xbda1dbfb	-0.07903286
66	0x3e4274c3	0.18989854
67	0xbc89a60e	-0.016802814
68	0xbc0bc09e	-0.00852981
69	0x3e0bdf5b	0.13659422
70	0xbe2b0ab6	-0.16703305
71	0x3e04cdb9	0.12969102
72	0x3cfa14ed	0.030527556
73	0x3d1c52ed	0.03816502
74	0xbe3489ed	-0.1763074
75	0xbde11163	-0.109896444
76	0x3e2d6368	0.16932452
77	0x3db4601a	0.088073924
78	0x3e115bde	0.14195201
79	0xbdc12228	-0.09430343
80	0xbe35b6f9	-0.1774558
81	0x3e084db4	0.13310891
82	0x3df5f744	0.12010053
83	0x3d8c0303	0.06836512
84	0xbdb098a9	-0.086228676
85	0xbd8f1161	-0.06985737
86	0x3e103daf	0.1408603
87	0x3e02c19e	0.12769172
88	0xbe344765	-0.1760536
89	0x3e0df3b2	0.13862494
90	0xbe3ba125	-0.1832319
91	0xbd7b7a7e	-0.061396115
92	0x3cd4f59f	0.025996028
93	0x3e2c8cb8	0.16850555
94	0xbc00012b	-0.007812778
95	0xbbc359cc	-0.0059616324
96	0xbd3408f6	-0.04395386
97	0xbe13a49e	-0.14418265
98	0x3a8f7748	0.0010945583
99	0x3cd178ac	0.025570236
100	0xbdeac519	-0.11463375
101	0xbe4606f3	-0.19338588
102	0xbd181aa9	-0.0371348
103	0x3d9111d8	0.070834816
104	0x3d82db96	0.06389539
105	0x3da11359	0.078650184
106	0x3d5228b6	0.051308356
107	0xbd9229d8	-0.07136887
108	0xbd97c6c2	-0.07410957
109	0x3e39cbf8	0.18144214
110	0xbe214b74	-0.1575144
111	0xbd89e178	-0.06732458
112	0xbce35c86	-0.02775408
113	0xbcd0fd8a	-0.025511522
114	0xbd62c037	-0.05535909
115	0x3dd7d5f0	0.10538852
116	0xbc5af210	-0.013363376
117	0x3defae7c	0.11703202
118	0xbcbc34a3	-0.022974318
119	0xbac1588d	-0.0014751122
120	0xbd1c663a	-0.03818343
121	0x3dcbe97b	0.09956642
122	0x3d74cc5c	0.059765205
123	0x3b1ab9df	0.0023609323
124	0xbd2643ab	-0.040591877
125	0xbc0dd508	-0.008656748
126	0x3e3b65c1	0.18300535
127	0xbe15fdd4	-0.14647609
128	0x3e029ac3	0.1275435
129	0x3d08e844	0.03342463
130	0x3e3340a0	0.17505121
131	0x3e05614b	0.13025396
132	0xbe360d5d	-0.17778535
133	0xbe267942	-0.16257194
134	0x3d24fc3e	0.04027962
135	0xbe016e27	-0.12639676
136	0xbe348012	-0.1762698
137	0x3c896328	0.016770914
138	0xbd7e802f	-0.062133964
139	0xbdbf72bb	-0.09348055
140	0x3dea52ba	0.1144156
141	0x3e394432	0.1809242
142	0xbe1cdace	-0.15317842
143	0xbdc0f2ab	-0.09421285
144	0xbe116cdf	-0.14201687
145	0xbe04b8f0	-0.12961173
146	0xbde294e2	-0.110635534
147	0x3e073e14	0.13207275
148	0xbd0d4dea	-0.034498133
149	0xbbdd400d	-0.00675202
150	0xbe04ebac	-0.12980527
151	0xbdd1272b	-0.10212549
152	0x3dc58e84	0.09646323
153	0x3dc8f1bc	0.09811732
154	0xbe02605b	-0.12732069
155	0x3decc5b0	0.115611434
156	0x3e28167b	0.16414826
157	0x3de3803a	0.11108442
158	0x3de1eb5a	0.11031218
159	0x3e1a23f5	0.15052779
160	0xbca11d57	-0.01966731
161	0x3d809b93	0.062796734
162	0xbe01f097	-0.12689434
163	0x3e21ebe5	0.15812643
164	0xbe1b4421	-0.15162708
165	0x3dafda76	0.0858659
166	0x3d212490	0.03934151
167	0x3e36ba9c	0.17844623
168	0xbe350f5c	-0.1768164
169	0xbdca24e0	-0.098703146
170	0x3c61fdc3	0.013793412
171	0x3de0c95a	0.10975905
172	0xbe07ced3	-0.13262491
173	0x3db1b0c3	0.08676293
174	0x3d34942c	0.04408662
175	0x3d42365f	0.047415134
176	0x3e0167fe	0.12637326
177	0xbe005814	-0.12533599
178	0xbe1ad2c4	-0.15119463
179	0xbe23230a	-0.15931335
180	0xbdacfb8d	-0.08446417
181	0x3dbfe78d	0.09370337
182	0xbd8c4cf9	-0.06850619
183	0xbdb89745	-0.090132274
184	0x3df0d6d2	0.11759724
185	0xbe082b1c	-0.13297695
186	0xbdf18557	-0.11793011
187	0xbe0292e0	-0.12751341
188	0xbdbf15d9	-0.09330339
189	0xbe21e5b9	-0.15810288
190	0x3e0ef2c3	0.13959794
191	0xbe1dac01	-0.15397646
192	0x3e1de0f2	0.15417841
193	0x3c4e0984	0.012575511
194	0xbc87eaa0	-0.01659137
195	0x3e05f43d	0.13081451
196	0xbce747f0	-0.028232545
197	0x3dd19155	0.10232798
198	0x3e3133c0	0.17304897
199	0x3b932250	0.0044901744
200	0x3cde54ee	0.027140107
201	0x3d7e31f5	0.06205936
202	0x3e21304f	0.15741085
203	0x3ca4c5a7	0.02011378
204	0x3d08fed2	0.03344614
205	0x3e0feb10	0.14054513
206	0xbd866679	-0.06562514
207	0xbe269b84	-0.16270262
208	0x3d864bf2	0.06557454
209	0xbc002605	-0.007821565
210	0xbdc51c7d	-0.09624574
211	0xbe20da49	-0.15708269
212	0xbe08aefa	-0.13347998
213	0x3d482bda	0.048869945
214	0x3cc69338	0.024240121
215	0x3e21a8ec	0.15787095
216	0xbb81cd79	-0.003961262
217	0xbd8ce29f	-0.06879162
218	0xbe2f2e8c	-0.171076
219	0x3e0bba93	0.13645391
220	0xbce1d40a	-0.027566928
221	0x3dbe73ea	0.092994526
222	0x3c9fd842	0.0195123
223	0xbdba9a97	-0.09111517
224	0xbda71085	-0.08157448
225	0x3e3cfb33	0.184552
226	0xbe0a1b63	-0.1348701
227	0xbd023661	-0.03179014
228	0x3e0c8165	0.13721235
229	0x3e1e30d7	0.15448318
230	0x3e3db461	0.1852584
231	0x3e37bfb2	0.1794422
232	0xbd7bbee1	-0.061461333
233	0xbdee1e38	-0.116268575
234	0xbd3d7604	-0.046255127
235	0xbe3a9dd6	-0.18224272
236	0x3db1db29	0.086843796
237	0xbcc479c4	-0.023983844
238	0xbe0816f3	-0.13290004
239	0xbd4ec11f	-0.050477143
240	0x3df6fb3c	0.12059638
241	0x3e086408	0.13319409
242	0xbe3b052b	-0.1826369
243	0xbe392de8	-0.18083918
244	0xbe1781ef	-0.1479566
245	0x3e32d830	0.17465281
246	0x3e33dafe	0.17564008
247	0x3decbd05	0.1155949
248	0xbd08a22a	-0.033357777
249	0xbe2cd84d	-0.16879387
250	0xbdf49147	-0.11941772
251	0xbd05b9cc	-0.032647893
252	0xbde8873a	-0.113539174
253	0xbcefedd9	-0.02928822
254	0xbd2b9477	-0.041889634
255	0x3ded9913	0.11601462

input_layer.bias f4 [128]
0	0xba342f30	-0.00068734866
1	0x3ded295f	0.115801565
2	0xb9c666cb	-0.0003784209
3	0xbdc6fc46	-0.09716086
4	0x3cead577	0.028666241
5	0xbce20083	-0.027588135
6	0x3d188a2d	0.03724115
7	0x3cfd0347	0.030885352
8	0x3c2d4424	0.010575328
9	0xbdc986d2	-0.09840168
10	0xbcb64b28	-0.022252634
11	0x3d9e078e	0.07716285
12	0xbdcefbb1	-0.101066
13	0x3d8fb978	0.07017797
14	0x3dbff30f	0.093725316
15	0xbc3b52a8	-0.011433281
16	0x3dc8a0fe	0.09796332
17	0x3df3f798	0.11912459
18	0xb93c45e4	-0.00017955113
19	0xbde6994b	-0.11259707
20	0x3c0529c5	0.008127634
21	0xbd84f4cc	-0.06492004
22	0x3c153984	0.009107951
23	0xbda4cf1e	-0.08047317
24	0xbd1eaee5	-0.03874101
25	0x3d6bd433	0.057575416
26	0x3ce2cb64	0.027684875
27	0x3dae709e	0.08517574
28	0x3dac9ddc	0.08428547
29	0xbb8191cf	-0.0039541493
30	0x3bb4d896	0.005518983
31	0x3de09afe	0.109670624
32	0x3dec52ea	0.11539252
33	0xb805b8c2	-3.188174e-05
34	0xbd8ac165	-0.06775168
35	0x3d371971	0.044701997
36	0xbcf2e2a5	-0.029649088
37	0xbdccc851	-0.09999145
38	0xba1aa0e8	-0.00058986107
39	0xbe0178b1	-0.12643696
40	0x3b855688	0.004069153
41	0xbd0eac7b	-0.03483246
42	0xbdc71b0e	-0.09721957
43	0xbc68deeb	-0.014213304
44	0x3e084df9	0.13310994
45	0x3dea4f05	0.11440853
46	0x3d7d42bd	0.061831225
47	0xbbe7e628	-0.0070769973
48	0x39f4420a	0.0004658851
49	0xbc0d8bd4	-0.008639295
50	0x3d917712	0.07102789
51	0xbd0b4618	-0.034002393
52	0xba31b944	-0.0006779621
53	0x3da278b0	0.079331756
54	0x3e0c0def	0.1367719
55	0x3d03b704	0.03215696
56	0x3d2710a0	0.04078734
57	0xb9fb4802	-0.000479281
58	0x3ae5c6eb	0.0017530596
59	0x3d48c6d8	0.049017757
60	0xbde83518	-0.11338252
61	0x3c859e50	0.01631084
62	0x3d9819e9	0.07426817
63	0x3c5afdbc	0.013366159
64	0xbe03f067	-0.12884675
65	0xbdedf8b5	-0.11619703
66	0xb9c826e8	-0.0003817596
67	0x3e07c339	0.13258065
68	0x3cd0ce74	0.02548907
69	0xbdd3637e	-0.10321711
70	0xbca009bf	-0.019535897
71	0xbdd434fd	-0.10361669
72	0x3dd08b48	0.10182816
73	0x3dcc9e7c	0.09991166
74	0x3caf97b9	0.021434652
75	0x39847e3e	0.0002527106
76	0xbe09280e	-0.13394186
77	0x3d913bcf	0.07091486
78	0xbd90f2d0	-0.07077563
79	0xbd663922	-0.05620683
80	0xbd961463	-0.07328107
81	0x3e0ab690	0.13546205
82	0x3d3a21b0	0.045442283
83	0x3d63aa11	0.05558211
84	0xbd35422c	-0.04425256
85	0xbdf032b4	-0.11728421
86	0xbdb3e178	-0.08783239
87	0x3e09ad45	0.13445003
88	0xbdbe1d0d	-0.09282885
89	0x3ba7a37f	0.005115926
90	0xbd71a8bb	-0.058998805
91	0xbdc40ead	-0.09573112
92	0x3dd9f3cd	0.106422044
93	0x3cf62e94	0.030051507
94	0x3dbb0549	0.091318674
95	0xba38e64c	-0.000705336
96	0xbddf9a26	-0.10918073
97	0x3a17bef5	0.00057886477
98	0x3dd0e6b2	0.10200252
99	0xbc8d3a31	-0.017239662
100	0xb9ecf7d3	-0.0004519807
101	0x3a367dcb	0.00069614936
102	0xbd800462	-0.06250836
103	0x3d8cc7e9	0.06874067
104	0x3d56644a	0.052341737
105	0xbc3b6d4c	-0.011439633
106	0x3dad5d46	0.08465056
107	0x3e04916e	0.12946102
108	0xb5bdab72	-1.4131494e-06
109	0xbdcaa612	-0.09894957
110	0x3d7bbbcd	0.061458398
111	0xbe0a7b05	-0.1352349
112	0x3c5dd218	0.01353886
113	0xbc7b4ab0	-0.015337631
114	0x3b9edb7d	0.0048479424
115	0xbd8a4fcd	-0.06753502
116	0x3e0a4eb4	0.13506585
117	0xbd5354fe	-0.051594727
118	0xbda9fd88	-0.083003104
119	0xbcddbe10	-0.027068168
120	0x3e00e2db	0.12586538
121	0xbd02790d	-0.031853724
122	0xbd00d3da	-0.031452037
123	0x383ee169	4.550946e-05
124	0x3a47f0b9	0.0007627118
125	0x3d8f57ed	0.069991924
126	0xba96f123	-0.0011515956
127	0x3bc25df0	0.0059316084

projection_layer.0.weight f4 [128, 128]
0	0xbcc3b78f	-0.023891238
1	0xbc9bd199	-0.019020842
2	0xbd2e71f4	-0.042589143
3	0xbd831020	-0.0639956
4	0xbc0ce995	-0.008600612
5	0xbd00922e	-0.031389408
6	0x3d63e542	0.05563856
7	0x3c7a6b3c	0.015284356
8	0xbd5bebf5	-0.053691823
9	0xbd921b53	-0.07134118
10	0x3da835a0	0.08213353
11	0x3d7f6199	0.062348936
12	0xbd10783e	-0.035270922
13	0xbcccbe56	-0.024993103
14	0xbcd1f3fe	-0.02562904
15	0x3c90a28f	0.017655639
16	0x3c8381e9	0.016053157
17	0x3d46cab6	0.048533164
18	0xbb95c433	-0.004570508
19	0xbd8cb509	-0.06870467
20	0xbdb9b831	-0.09068335
21	0xbd358409	-0.04431537
22	0xbd46a404	-0.04849626
23	0x3daed237	0.08536189
24	0xbc21c018	-0.009872459
25	0xbd3a13a2	-0.04542888
26	0xbd4a48a2	-0.049385674
27	0xbd4254c5	-0.047444124
28	0x3d59e9fe	0.053201668
29	0x3d9b12ad	0.075719215
30	0x3a61bc3c	0.0008611118
31	0x3d25e22e	0.040498905
32	0xbd1df62d	-0.03856485
33	0x3d826d48	0.063685
34	0x3cc50ae5	0.024053046
35	0x3c251543	0.01007587
36	0xbcc98182	-0.024597887
37	0xbd9e06d8	-0.07716149
38	0xbd8218c3	-0.06352379
39	0xbd3ea82d	-0.046547104
40	0xbd92fc9d	-0.071770884
41	0xbdacac7b	-0.084313355
42	0x3dc23ce2	0.09484269
43	0x3bd67373	0.0065445243
44	0xbcf043f4	-0.029329278
45	0xba520582	-0.0008011685
46	0xbd53a342	-0.051669367
47	0x3d31ac82	0.043377407
48	0x3d55af74	0.05216928
49	0xbd1576ac	-0.036490127
50	0x3d8de8c7	0.069291644
51	0xbcb27a32	-0.021786783
52	0xbc3d74c9	-0.011563488
53	0x3d54e25a	0.05197368
54	0x3c807bb0	0.015683979
55	0xbcff5e09	-0.03117277
56	0x3d2abaff	0.04168224
57	0xbdaf6eef	-0.08566081
58	0xbda13925	-0.078722276
59	0x3c0a76a0	0.008451134
60	0x3c562276	0.01306974
61	0xbd2c4b70	-0.04206413
62	0xbcf6a57a	-0.030108202
63	0x3d233c10	0.039852202
64	0xbd663023	-0.05619825
65	0xbd96eb70	-0.07369125
66	0x3d8bbd57	0.06823223
67	0xbd48ae85	-0.04899456
68	0x3d6cd1ad	0.05781715
69	0x3d165424	0.036701337
70	0xbd0a8f5e	-0.03382813
71	0xbc8a2fe7	-0.016868545
72	0x3cbb6abf	0.022878049
73	0x3d5f02ac	0.054445907
74	0xbd9c8763	-0.076430105
75	0xbdac681d	-0.084182955
76	0xbd1b667c	-0.037939534
77	0x3d8c42b3	0.06848659
78	0xbc83f85f	-0.016109644
79	0xbcb4763f	-0.02202904
80	0xbc478a0d	-0.01217891
81	0x3d91d80f	0.07121288
82	0x3d91b3d2	0.07114376
83	0xbc74f7af	-0.0149516305
84	0xbcac0b1f	-0.021001397
85	0xbd4d32de	-0.05009734
86	0x3c65017a	0.013977403
87	0xbdaf197b	-0.08549782
88	0xbca992f8	-0.020699963
89	0xbd4c332d	-0.049853493
90	0xbca394bc	-0.019968383
91	0xbda1f633	-0.07908287
92	0xbcba1fb0	-0.022720188
93	0xbd94d146	-0.07266478
94	0x3d75cbc1	0.060008768
95	0xbce8ccbd	-0.02841794
96	0x3cba4062	0.022735778
97	0x3cb76d05	0.022390852
98	0xbc39d14b	-0.011341403
99	0xbd74d254	-0.059770897
100	0xbc0b31b8	-0.008495741
101	0xbc780409	-0.015137681
102	0xbcfa6db9	-0.030569898
103	0xbd8e1420	-0.06937432
104	0x3d866f2c	0.06564173
105	0xbdb6a1b6	-0.08917563
106	0x3c8ad2e3	0.016946262
107	0x3d9e6010	0.07733166
108	0xbd31bd17	-0.04339322
109	0xbd124e6e	-0.035719328
110	0x3d694c49	0.056957517
111	0xbd288ae5	-0.041148085
112	0xbd7a5ea6	-0.06112542
113	0x3b985697	0.004648994
114	0x3d72a222	0.059236653
115	0xbcbea29b	-0.023270896
116	0xbdacb357	-0.08432644
117	0x3d9b8da0	0.07595372
118	0x3cf55fed	0.029952968
119	0x3d3616ab	0.04445521
120	0x3d54687e	0.051857464
121	0xbd3d8a17	-0.04627427
122	0x3d137fd1	0.036010567
123	0x3cacf43d	0.021112556
124	0x3dab1c97	0.083550625
125	0xbd84e514	-0.06489006
126	0xbd536d05	-0.05161764
127	0xbd969dc1	-0.07354308
128	0x3da66f2f	0.08126675
129	0x3d841a86	0.064503714
130	0x3d0c6d11	0.0342837
131	0xbd932119	-0.07184047
132	0x3d7d28e5	0.06180658
133	0xbdaf1c3e	-0.08550309
134	0x3c5271ef	0.012844547
135	0xbb61b7d5	-0.0034441848
136	0xbb133e1d	-0.0022467442
137	0xbd7dc449	-0.06195477
138	0xbcec5e0b	-0.028853437
139	0x3d646dd8	0.055768818
140	0xbba32d03	-0.004979731
141	0xbd8f5176	-0.06997959
142	0x39a1aed0	0.00030838558
143	0x3d156824	0.03647627
144	0x3d6ecc15	0.058300097
145	0xbd4f45af	-0.050603565
146	0x3d2abf37	0.041686263
147	0x3ceae057	0.028671427
148	0x3c928b7b	0.017888775
149	0xbd80a950	-0.06282294
150	0x3dd68c9c	0.10476038
151	0xbca8be1e	-0.020598467
152	0xbd6062e7	-0.05478182
153	0xbdaee592	-0.08539881
154	0xbce3af66	-0.027793597
155	0xbc115931	-0.008871363
156	0x3d921684	0.07133201
157	0x3cbc7b23	0.023007935
158	0x3dc86737	0.09785312
159	0xbce2fecd	-0.02770939
160	0xbd77fefd	-0.06054591
161	0x3db0bd73	0.086298846
162	0x3cfbc16c	0.03073188
163	0x3d84970c	0.064741224
164	0xbcf94919	-0.030430363
165	0x3bc8ec92	0.006131717
166	0xbd4f95e6	-0.050680064
167	0xbc8aa212	-0.016922984
168	0x3cd23b83	0.025663143
169	0x3d7e9901	0.062157635
170	0xbb97d016	-0.00463296
171	0x3d25fb2e	0.040522747
172	0x3d1bf1cd	0.038072396
173	0x3d8e4d5c	0.06948349
174	0x3b54dae8	0.003247911
175	0x3c89f797	0.016841693
176	0xbc121b22	-0.008917602
177	0xbcdebcda	-0.02718966
178	0xbc4118c2	-0.011785688
179	0x3c7463a2	0.014916332
180	0xbd85a934	-0.065264136
181	0x3d53393f	0.051568266
182	0x3c9ae127	0.01890619
183	0x3cd1ef0b	0.02562668
184	0xbd0ee394	-0.034885004
185	0xbcbb6c72	-0.02287886
186	0x3d478527	0.04871097
187	0xbc9c0950	-0.01904741
188	0x3d8d5d8f	0.069026105
189	0xbd537be7	-0.051631834
190	0xbd6dde59	-0.058073375
191	0x3d7f466f	0.06232303
192	0xbd148b43	-0.036265623
193	0xbc5217f5	-0.012823095
194	0x3db94ef7	0.090482645
195	0x3daa38cf	0.08311617
196	0xbd4894ef	-0.04897016
197	0x3d45cdf5	0.04829212
198	0x3c8bdb38	0.017072305
199	0x3d15ff68	0.036620528
200	0xbd196afb	-0.03745554
201	0xbabd4cf7	-0.0014442493
202	0xbcdf7c40	-0.027280927
203	0x3c8be046	0.017074715
204	0xbda551df	-0.08072256
205	0xbca45ae8	-0.020062879
206	0xbd88bfa4	-0.066771775
207	0xbd6b8312	-0.057498045
208	0x3db1d053	0.08682313
209	0xbcf773c0	-0.030206561
210	0xbd18e8fe	-0.037331574
211	0x3d4bccfc	0.049756035
212	0xbda87d71	-0.08227051
213	0x3b6fd97a	0.0036598132
214	0xbda00d0d	-0.07814989
215	0xbc3ef0a9	-0.011654058
216	0xbca8f9c3	-0.020626908
217	0x3d8e46a8	0.0694707
218	0xbc7461e0	-0.014915913
219	0x3c6b18ec	0.014349204
220	0xbd544a7f	-0.051828858
221	0xbda3e760	-0.08003116
222	0xbdaf1ce1	-0.0855043
223	0x3d9e1b4f	0.077200525
224	0x3cce1c96	0.025160115
225	0x3d3e1288	0.04640439
226	0x3d428238	0.047487468
227	0xbc773f90	-0.015090838
228	0x3dadc807	0.08485418
229	0xbdc2ac2a	-0.09505494
230	0xbd47353c	-0.048634753
231	0x3bda7ce7	0.0066677216
232	0xbb55d705	-0.0032629382
233	0xbdd2cdcb	-0.10293158
234	0x3d6bd371	0.057574693
235	0x3d506e20	0.050886273
236	0x3d19c76d	0.037543703
237	0xbd42c273	-0.047548722
238	0xbd8e2d82	-0.06942274
239	0xbd8d06c2	-0.068860546
240	0xbb56f847	-0.0032801793
241	0x3c575702	0.013143303
242	0xbd4cf8f6	-0.050042115
243	0xbd0ba80e	-0.034095816
244	0xbd800b06	-0.062521026
245	0xbd920dff	-0.07131576
246	0xbd0115cb	-0.031514924
247	0xbd1c0b69	-0.03809682
248	0x3d44cb7f	0.04804563
249	0x3ccf1bef	0.025281874
250	0x3c58c4d3	0.01323052
251	0x3d3b85f6	0.045782052
252	0xbdbc7dbb	-0.09203669
253	0x3d3c8880	0.046028614
254	0x3c5d2b4d	0.013499093
255	0x3d8197e4	0.06327799

projection_layer.0.bias f4 [128]
0	0xbcdb9d76	-0.026808482
1	0x3b06a689	0.002054604
2	0xb81230c0	-3.4854515e-05
3	0x3cfa760a	0.030573864
4	0x3c532521	0.01288727
5	0x3cc233ee	0.023706403
6	0x3ce5685d	0.028003866
7	0xbb25aa6e	-0.0025278586
8	0x39bae0bb	0.00035644122
9	0xbae0d083	-0.0017151985
10	0x3d3b944d	0.045795728
11	0xbb81bb2c	-0.00395908
12	0xba36015c	-0.00069429516
13	0x38af8d06	8.370918e-05
14	0x3a161e40	0.00057265535
15	0x3be715b1	0.0070521464
16	0xbb6599da	-0.003503433
17	0x3cfe170e	0.031016853
18	0xbcb241ed	-0.021759951
19	0xb8f1e263	-0.00011533943
20	0xbc4e1c05	-0.012579923
21	0x393d0005	0.00018024452
22	0x3a17c4f8	0.00057895435
23	0xbcdfc761	-0.027316751
24	0xba329453	-0.0006812263
25	0x3c6a7a93	0.0143114505
26	0xb99f950a	-0.00030437886
27	0xbccdcac4	-0.0251211
28	0xbc9b6f31	-0.018973919
29	0xbd19d3ac	-0.03755538
30	0x3d3abdee	0.045591287
31	0x3b849c96	0.004046987
32	0x3d01095c	0.031503066
33	0xb9ff1019	-0.00048649384
34	0xbbff9d5d	-0.0078007416
35	0xbaae985c	-0.0013320553
36	0xbd24e9af	-0.04026192
37	0x39b3a270	0.00034262566
38	0xbd10efc0	-0.035384893
39	0x3c4769c7	0.012171215
40	0xbc82667f	-0.015918015
41	0x3c601871	0.013677702
42	0xbba2168c	-0.0049465355
43	0x3a0111db	0.000492362
44	0x3cc9748f	0.024591712
45	0xbc3fd4a6	-0.011708414
46	0x3c5dd65b	0.013539876
47	0xb9e078fc	-0.0004281475
48	0xba8b5f7c	-0.0010633315
49	0xbd2ac627	-0.04169288
50	0xba381bb0	-0.0007023169
51	0x3d1352c6	0.03596761
52	0x38cd7a21	9.79791e-05
53	0x3ce79c38	0.028272733
54	0x3d037a3f	0.032099005
55	0xbcc331e3	-0.023827499
56	0xbd24dbe7	-0.040248778
57	0xbcb91bdf	-0.022596298
58	0x3cb3e3a2	0.02195913
59	0xbcacfbb3	-0.021116113
60	0x3c86f17c	0.01647257
61	0x3cc88681	0.024478199
62	0xbc39c023	-0.011337313
63	0x3c1be478	0.00951492
64	0x3d10d6bd	0.03536104
65	0xbba1ea4c	-0.0049412604
66	0x3c115e69	0.008872607
67	0xbb03bb7c	-0.0020100763
68	0xbb4da6bc	-0.00313799
69	0xb8d3f95a	-0.000101077094
70	0x3900234f	0.00012220185
71	0x37c47ce5	2.342318e-05
72	0xbc8c367b	-0.017115822
73	0x3d139cf2	0.036038347
74	0xb9fffe3b	-0.00048826807
75	0x3b650c96	0.0034950129
76	0x3bf68798	0.0075234883
77	0x3c8555d5	0.01627628
78	0x3c4b5e05	0.012412553
79	0xba0cb481	-0.00053674733
80	0x3cddeaf2	0.02708957
81	0xba3c85ce	-0.00071915693
82	0xbd38aa16	-0.04508408
83	0x3cb1d7b1	0.021709295
84	0xbb6cafdf	-0.003611557
85	0x3ca25096	0.019813817
86	0xb9973d79	-0.00028846765
87	0xbb89fbc0	-0.004210919
88	0xbc26009b	-0.01013198
89	0xbd2adcb3	-0.04171438
90	0x3d0901b0	0.033448875
91	0x3a2b3303	0.00065307337
92	0x3afba4ee	0.0019198933
93	0xbcd0d26d	-0.025490964
94	0x3bbb2dbf	0.0057122405
95	0x3ca495fb	0.020091048
96	0x39ba9053	0.00035584214
97	0xbd14575d	-0.03621613
98	0x3aff16c2	0.0019461738
99	0x3bbe77d1	0.005812623
100	0x3ce0b3ab	0.027429422
101	0xbd299241	-0.041399244
102	0x3c9d7d2b	0.019224724
103	0x3d185173	0.03718705
104	0x3d27e6ab	0.040991466
105	0xbc2da9c1	-0.0105995545
106	0xbc9b39d1	-0.018948467
107	0xbce8a684	-0.028399713
108	0xbc64ae52	-0.013957577
109	0x37ab0a03	2.038945e-05
110	0x3d0f5b83	0.03499938
111	0x39e90c4e	0.0004445039
112	0xbcfa7dbf	-0.030577539
113	0x39cff5f0	0.00039665354
114	0x39b65974	0.00034780393
115	0xbd142005	-0.03616335
116	0x3b77a4bd	0.00377874
117	0x3cfd8bb1	0.0309504
118	0xb93a0c68	-0.00017742964
119	0xbd3bb98a	-0.04583124
120	0xbce7b47e	-0.028284308
121	0xbc4d2edd	-0.01252338
122	0xb96f281f	-0.00022807762
123	0x3a3483cd	0.0006886095
124	0xbd13f1b5	-0.03611918
125	0x3ce4ebe7	0.027944518
126	0x3c15ac5d	0.009135333
127	0x3a55b60c	0.0008152432

projection_layer.1.weight f4 [128]
0	0x3f7dedbd	0.99190885
1	0x3f7e159d	0.9925173
2	0x3f7d4375	0.98931056
3	0x3f81188d	1.0085617
4	0x3f82105e	1.0161245
5	0x3f7ae274	0.9800179
6	0x3f7e99aa	0.9945322
7	0x3f7d455f	0.98933977
8	0x3f7f9860	0.9984188
9	0x3f7d65b9	0.9898334
10	0x3f7cdc2e	0.9877347
11	0x3f8058fc	1.0027156
12	0x3f809b94	1.0047479
13	0x3f807cd5	1.0038096
14	0x3f816adf	1.011074
15	0x3f7e4963	0.9933073
16	0x3f7c1c90	0.9848108
17	0x3f7e0d66	0.99239194
18	0x3f803eb9	1.0019141
19	0x3f7e9908	0.9945226
20	0x3f80ee81	1.0072786
21	0x3f7ed15c	0.9953821
22	0x3f791167	0.9729218
23	0x3f80e058	1.0068464
24	0x3f7a7491	0.97834116
25	0x3f7fac0b	0.9987189
26	0x3f7ca564	0.98689866
27	0x3f814548	1.0099268
28	0x3f7b0978	0.98061323
29	0x3f82d863	1.0222286
30	0x3f7fe105	0.9995273
31	0x3f7f1ebd	0.9965628
32	0x3f817766	1.0114563
33	0x3f829ea4	1.0204663
34	0x3f821079	1.0161277
35	0x3f7ffd04	0.99995446
36	0x3f8096d1	1.0046026
37	0x3f7f4821	0.99719435
38	0x3f7ecf68	0.99535227
39	0x3f814a58	1.0100813
40	0x3f7edeb5	0.99558574
41	0x3f823c98	1.0174742
42	0x3f80cc3b	1.0062326
43	0x3f7f1a37	0.99649376
44	0x3f7cc733	0.98741454
45	0x3f7f0b7b	0.9962689
46	0x3f801b06	1.0008247
47	0x3f7f4782	0.9971849
48	0x3f7cfe2d	0.9882534
49	0x3f7adaef	0.97990316
50	0x3f7f70a9	0.9978128
51	0x3f7f6f03	0.99778765
52	0x3f7e42bf	0.99320596
53	0x3f7f8fc6	0.99828756
54	0x3f7db63e	0.99106205
55	0x3f7e18f8	0.9925685
56	0x3f7d2cac	0.9889629
57	0x3f7dc6b9	0.9913135
58	0x3f82184f	1.0163668
59	0x3f7daf47	0.99095577
60	0x3f7f394e	0.99696815
61	0x3f7cd014	0.98755
62	0x3f7e1a41	0.9925881
63	0x3f7d7513	0.99006766
64	0x3f80e412	1.0069602
65	0x3f7aeee9	0.980208
66	0x3f800854	1.0002542
67	0x3f7b96d4	0.9827702
68	0x3f7f7605	0.9978946
69	0x3f7f15c8	0.9964261
70	0x3f7c414f	0.98537153
71	0x3f803fb2	1.0019438
72	0x3f7d8199	0.99025875
73	0x3f81365d	1.0094715
74	0x3f7e70ce	0.99390876
75	0x3f7da2e4	0.99076676
76	0x3f801403	1.0006107
77	0x3f7e6fb6	0.9938921
78	0x3f7f28a9	0.9967142
79	0x3f806353	1.0030311
80	0x3f7bba8d	0.9833153
81	0x3f808df4	1.0043321
82	0x3f8035be	1.0016401
83	0x3f7f2028	0.9965844
84	0x3f80a6d6	1.0050914
85	0x3f821b8c	1.0164657
86	0x3f7c78a5	0.9862159
87	0x3f812faf	1.0092677
88	0x3f7ee287	0.99564403
89	0x3f8182a9	1.0117999
90	0x3f7b7ab8	0.9823413
91	0x3f80deeb	1.0068029
92	0x3f8091d4	1.0044503
93	0x3f7db04a	0.9909712
94	0x3f7ef331	0.9958983
95	0x3f7d6bc5	0.9899257
96	0x3f7d1276	0.98856294
97	0x3f7c757e	0.9861678
98	0x3f81cb79	1.014022
99	0x3f7e3192	0.9929439
100	0x3f7dfa60	0.99210167
101	0x3f7e5893	0.99353904
102	0x3f7fa351	0.99858576
103	0x3f7ce6f0	0.9878988
104	0x3f7ed7b5	0.9954789
105	0x3f80374d	1.0016876
106	0x3f804a55	1.0022684
107	0x3f808516	1.0040615
108	0x3f82527e	1.0181425
109	0x3f7e972f	0.9944944
110	0x3f7c4a91	0.9855128
111	0x3f7ed2b0	0.99540234
112	0x3f7d83da	0.99029315
113	0x3f802749	1.0011989
114	0x3f802026	1.0009811
115	0x3f809865	1.0046507
116	0x3f79f3c1	0.97637564
117	0x3f82be95	1.0214411
118	0x3f7ec860	0.995245
119	0x3f800cd8	1.000392
120	0x3f7f609f	0.9975681
121	0x3f7c5f83	0.9858324
122	0x3f7f26cd	0.9966858
123	0x3f80c968	1.0061464
124	0x3f802b78	1.0013266
125	0x3f7c2fe4	0.98510575
126	0x3f8075ea	1.0035985
127	0x3f7ec9bb	0.99526566

projection_layer.1.bias f4 [128]
0	0xbc4ad163	-0.012379023
1	0xbb325b62	-0.0027215113
2	0xbc5cf22f	-0.013485475
3	0xbbdcdb29	-0.006739993
4	0x3c26be06	0.010177141
5	0xbc86dc47	-0.016462458
6	0xbc10a68d	-0.008828771
7	0xbc277e6d	-0.010223013
8	0xb9c627f6	-0.00037795276
9	0xbc449427	-0.011998213
10	0xbc990b7b	-0.018682232
11	0xbb65c63b	-0.0035060782
12	0xbc82db7d	-0.0159738
13	0x3c5a518a	0.0133251045
14	0xbb6c8b45	-0.0036093753
15	0xbc14a8bd	-0.0090734335
16	0xbcaf5e1d	-0.021407181
17	0xbb93e31b	-0.004513157
18	0xbba8253e	-0.0051313927
19	0xba085145	-0.00052000984
20	0xbb987eb9	-0.0046537784
21	0xbc042e96	-0.008067748
22	0xbcc0ab8f	-0.023519306
23	0x3c5b32a1	0.01337877
24	0xbc91241b	-0.017717412
25	0xbc450471	-0.012024985
26	0xbc7a5898	-0.015279911
27	0xba4d12cd	-0.0007822931
28	0xbcb52cb3	-0.02211604
29	0x3c88ab22	0.016683165
30	0xbb5614c7	-0.0032666193
31	0xbbf555b8	-0.007487025
32	0x3be0e69d	0.0068634287
33	0x3c230913	0.009950894
34	0x3c714220	0.014725238
35	0xbb307970	-0.002692785
36	0xbc0e393a	-0.008680636
37	0xbc03690c	-0.008020651
38	0xbc548443	-0.012970987
39	0xbb925939	-0.0044662026
40	0xbc150876	-0.0090962555
41	0x3c59a310	0.013283506
42	0x3c71a5c7	0.014748997
43	0xbc741cb0	-0.014899418
44	0xbc66556c	-0.014058452
45	0xba181bd1	-0.0005802485
46	0xbbbf1f6b	-0.0058326027
47	0xbc50ba0f	-0.012739672
48	0xbcbbc55f	-0.022921262
49	0xbc73629e	-0.014855055
50	0xbc0a83ee	-0.008454306
51	0xbbdcd4d7	-0.0067392397
52	0xbc09c169	-0.008407929
53	0xbc888f1b	-0.0166698
54	0xbc006b44	-0.007838074
55	0xbc0cac08	-0.008585937
56	0xbc005f20	-0.00783518
57	0xbc72762f	-0.014798685
58	0x3bf62761	0.0075120186
59	0xbc97ebfc	-0.018545143
60	0xbbec6c64	-0.0072150696
61	0xbc7e63ba	-0.015526706
62	0xbc4ceebd	-0.0125080915
63	0xbc53c9cc	-0.01292653
64	0xb9a450a3	-0.00031340597
65	0xbc84daf9	-0.016217696
66	0xbbc0993a	-0.005877641
67	0xbc9706eb	-0.018435916
68	0xbbdb1d7c	-0.0066868644
69	0x3af7bc9d	0.0018900816
70	0xbca62d3f	-0.020285247
71	0xba9588ab	-0.0011408528
72	0xbc840e08	-0.016119972
73	0x3bff20ce	0.007785893
74	0xbb1458ce	-0.002263594
75	0x3a916d8c	0.001109527
76	0xbb619c3a	-0.0034425394
77	0xbc697b5d	-0.0142506035
78	0xbc941e50	-0.01808086
79	0x3b38b98e	0.002818677
80	0xbc70d65b	-0.014699544
81	0x3a087ca6	0.00052065623
82	0xbc055808	-0.008138664
83	0xbc0e772d	-0.008695406
84	0xbc121dd2	-0.0089182425
85	0x3c1f7fea	0.009735087
86	0xbb9533a3	-0.0045532747
87	0xbbeed944	-0.0072890837
88	0x3b15b43b	0.0022843021
89	0xbc3615ae	-0.011113567
90	0xbcab4f60	-0.020911872
91	0xbb8fb5e2	-0.004385696
92	0x3b920718	0.004456412
93	0xbc579d28	-0.013160028
94	0xbb6ae4a5	-0.003584185
95	0xbc54e848	-0.012994833
96	0xbc596577	-0.01326882
97	0xbc251f74	-0.0100783
98	0xbb947725	-0.0045308047
99	0xbc878536	-0.016543012
100	0xbbf3c149	-0.007438813
101	0xbc9c442b	-0.019075474
102	0x39f32c79	0.00046381706
103	0xbc87b544	-0.016565926
104	0xbc799ca9	-0.015235105
105	0xbbb9e7ac	-0.0056733694
106	0xbaf82aa1	-0.0018933603
107	0xbc1b8a96	-0.009493491
108	0x3c4ddab5	0.012564351
109	0x3b39d5b8	0.0028356146
110	0xbca2fb36	-0.019895177
111	0xbc4d060f	-0.0125136515
112	0xbbcd1e64	-0.0062597264
113	0xbb367bcd	-0.0027844787
114	0xbbf175c0	-0.007368773
115	0xbb9acd67	-0.004724193
116	0xbcc8bb6d	-0.024503434
117	0x3c0fbbd8	0.008772813
118	0x3afeeea2	0.001944978
119	0x3a56c942	0.0008193442
120	0xbc9762c9	-0.018479722
121	0xbc8412c0	-0.016122222
122	0xbbfd57f7	-0.0077314335
123	0xbb404412	-0.0029337448
124	0xbc08d394	-0.008351225
125	0xbc13e583	-0.009026888
126	0x3a67a5bc	0.0008836647
127	0x3bcb0455	0.006195585

projection_layer.1.running_mean f4 [128]
0	0x3d698a7c	0.057016835
1	0x3db7182e	0.08940159
2	0xbd5aac6e	-0.053387098
3	0x3cafc244	0.021454938
4	0x3c0f88bf	0.00876063
5	0xbd1f42c0	-0.038882017
6	0x3c88bde5	0.016692111
7	0xbc2029d1	-0.009775595
8	0xbb38fe74	-0.0028227838
9	0xbd8818ad	-0.066453315
10	0xbb75aa39	-0.0037485494
11	0xbdb9182d	-0.09037814
12	0x3b03576b	0.002004112
13	0xbc812512	-0.015764747
14	0x3c43e664	0.011956785
15	0x3d0954a0	0.03352797
16	0xbdf6d64a	-0.12052591
17	0x3cd29fc3	0.025710946
18	0xbd0c740a	-0.03429035
19	0xbd780f3a	-0.060561396
20	0xbd5f9e51	-0.05459434
21	0x3c911dbe	0.017714377
22	0xba3a44a5	-0.0007105566
23	0xbdcc1aff	-0.099660866
24	0x3d5ab377	0.053393807
25	0x3e123591	0.14278246
26	0xbbdf6d02	-0.0068184147
27	0x3dd80973	0.10548677
28	0xbe0bfcef	-0.13670705
29	0xbd5fcdfb	-0.054639798
30	0x3e06a8eb	0.13150375
31	0xbd467119	-0.048447702
32	0x3da41dd9	0.080135055
33	0xbd173615	-0.03691681
34	0xbd5e1057	-0.0542148
35	0xbd19f99f	-0.037591573
36	0xbda4d1b1	-0.08047808
37	0xbc9bc8d6	-0.019016664
38	0xbdf2f1cc	-0.11862525
39	0x3bd579f5	0.0065147826
40	0x3ccb78ef	0.024837939
41	0xbc3ec515	-0.011643668
42	0x3c51bead	0.012801808
43	0xbdba6392	-0.09101023
44	0xbc852987	-0.016255153
45	0xbd79136a	-0.06080953
46	0x3d5bd5d1	0.053670708
47	0xbdca1191	-0.09866632
48	0xbd6a7670	-0.057241857
49	0x3aba2567	0.0014201821
50	0xbd2975e8	-0.04137221
51	0xbc734c0e	-0.014849676
52	0xbd19a5cd	-0.037511636
53	0x3d2b4d5b	0.04182182
54	0x3d34716a	0.044053473
55	0xbc9adb2f	-0.018903343
56	0xbcfc5585	-0.030802498
57	0xbd1a18c4	-0.037621275
58	0x3dd64b28	0.10463554
59	0x3ced9bcf	0.02900496
60	0xbd75c7f3	-0.06000514
61	0x3d017ba3	0.03161205
62	0xbd5838f8	-0.052788705
63	0x3d15550f	0.03645807
64	0x3c7b38ef	0.015333398
65	0x3ce0b706	0.027431022
66	0xbbf43532	-0.0074526304
67	0x3c3f1a36	0.011663964
68	0x3dbc565d	0.0919616
69	0xbb88a4f5	-0.004170055
70	0xbce821f8	-0.02833651
71	0xbcc14ddf	-0.023596702
72	0xbcf0abec	-0.029378854
73	0x3d9d5777	0.07682698
74	0xbd8580fa	-0.06518741
75	0x3ce9189f	0.028454123
76	0x3b0c5b71	0.0021416808
77	0xbcc2420f	-0.02371314
78	0xbd12358f	-0.03569561
79	0x3c4219d7	0.011846981
80	0x3c4d772f	0.012540623
81	0xbd68af32	-0.056807704
82	0xbde9edbe	-0.11422299
83	0x3d8f0f59	0.06985349
84	0x3d01febb	0.03173707
85	0xbb90ccec	-0.00441896
86	0x3c318ea9	0.0108372355
87	0xbd4a2f95	-0.049361784
88	0xbb06e9b5	-0.0020586078
89	0xbdc5cf0b	-0.09658631
90	0x3d962d6d	0.07332883
91	0x3d283e43	0.041075002
92	0x3d16570f	0.03670412
93	0xbd470cf1	-0.048596326
94	0xbd8b619a	-0.068057254
95	0x3d59e61b	0.05319796
96	0xbc13b58e	-0.009015454
97	0xbc21a7ef	-0.009866699
98	0x3d780c1b	0.06055842
99	0xbcdfd17f	-0.027321575
100	0x3cac0951	0.021000536
101	0xbdba6f2f	-0.09103238
102	0x3c6f01ff	0.014587878
103	0x3d007cf9	0.031369183
104	0x3d3c9520	0.046040654
105	0x3a848496	0.0010110314
106	0xbc0abae1	-0.008467407
107	0xbb500f2b	-0.0031747322
108	0x3d50d3d8	0.05098328
109	0x3cac1e10	0.021010429
110	0x3d2a299f	0.0415436
111	0xbcda9614	-0.026682891
112	0xbc937838	-0.01800166
113	0xbc06027d	-0.008179304
114	0xbd0a486d	-0.033760477
115	0xbe1de320	-0.15418673
116	0x3d4cfead	0.050047565
117	0x3d2d2e0a	0.042280234
118	0x3ab12c8e	0.0013517307
119	0xbd48a51d	-0.04898559
120	0xbd9a5bfa	-0.075370744
121	0xbcd620d3	-0.026138699
122	0x3d0baa88	0.03409818
123	0x3d37c6ce	0.04486733
124	0xbd974f97	-0.073882274
125	0x3dd42e87	0.10360437
126	0x3ba9ec74	0.005185658
127	0x3cb0d2ed	0.021584952

projection_layer.1.running_var f4 [128]
0	0x3df1ae33	0.11800804
1	0x3e0586b0	0.1303966
2	0x3da8be78	0.08239454
3	0x3dd7a4ed	0.10529504
4	0x3da84515	0.08216301
5	0x3e04afef	0.12957738
6	0x3dbf16f9	0.093305536
7	0x3de8b666	0.11362915
8	0x3e4f88a5	0.2026697
9	0x3e38bb84	0.18040282
10	0x3dd96b4d	0.10616169
11	0x3df9cbb3	0.12197056
12	0x3e0ef3da	0.1396021
13	0x3de349c6	0.110980555
14	0x3dd2664f	0.1027342
15	0x3e2d663e	0.16933534
16	0x3dbe94a1	0.093056925
17	0x3e13b192	0.14423206
18	0x3df3db93	0.11907115
19	0x3e2e3819	0.17013587
20	0x3df596ae	0.119916305
21	0x3e2f4ca5	0.17119081
22	0x3e2aa861	0.16665794
23	0x3e1aa3b2	0.15101507
24	0x3ddc279f	0.107497446
25	0x3db260a9	0.08709843
26	0x3dfaf546	0.122538134
27	0x3e0bfc66	0.13670501
28	0x3e1e554c	0.15462226
29	0x3e0b9cb1	0.13633992
30	0x3e2271e3	0.15863757
31	0x3de2faa2	0.11082961
32	0x3daf8a1c	0.08571264
33	0x3e14ddc5	0.14537723
34	0x3e27117b	0.16315262
35	0x3e00df3c	0.12585157
36	0x3d88a137	0.06671374
37	0x3dfa7ea6	0.122311875
38	0x3e1502cd	0.1455185
39	0x3e15ca8f	0.14628051
40	0x3e18a58e	0.14906904
41	0x3e335a15	0.17514832
42	0x3d932dc8	0.071864665
43	0x3e018df3	0.12651806
44	0x3dbc7c1a	0.09203358
45	0x3e031380	0.12800407
46	0x3e1aa476	0.151018
47	0x3e3ced27	0.18449841
48	0x3d9a0c0b	0.07521828
49	0x3dc5f285	0.096653976
50	0x3db0c6b2	0.08631648
51	0x3e2753f0	0.16340613
52	0x3e53577d	0.20638843
53	0x3dd4f50b	0.10398301
54	0x3dd4e23a	0.10394712
55	0x3e025ed4	0.12731487
56	0x3e5781d1	0.21045615
57	0x3dac7b3c	0.084219426
58	0x3e246cdf	0.16057156
59	0x3e1b82ee	0.15186664
60	0x3dc25b5b	0.09490081
61	0x3e3a2f28	0.18182051
62	0x3e332385	0.17494018
63	0x3e2d7988	0.16940892
64	0x3da6634a	0.08124407
65	0x3e0c86f9	0.13723363
66	0x3e013165	0.12616499
67	0x3e472535	0.19447787
68	0x3d99f3f6	0.07517235
69	0x3def3d79	0.11681647
70	0x3e079b36	0.13242802
71	0x3e1a966f	0.15096448
72	0x3e00e81d	0.12588544
73	0x3e09ae1d	0.13445325
74	0x3e1d0a31	0.15335919
75	0x3e412eae	0.18865463
76	0x3dfcdcf3	0.1234683
77	0x3db0fbfd	0.08641813
78	0x3da7c8de	0.08192609
79	0x3e0fc39e	0.14039466
80	0x3e422d33	0.18962555
81	0x3e2cebe3	0.16886859
82	0x3ddb5825	0.107101716
83	0x3e1675c5	0.14693363
84	0x3e0927f6	0.1339415
85	0x3de72746	0.11286788
86	0x3e0a9157	0.13532005
87	0x3ddbb46f	0.10727774
88	0x3dd6930f	0.10477268
89	0x3dd0625b	0.1017501
90	0x3de68761	0.1125629
91	0x3e0ec584	0.13942534
92	0x3e217a68	0.1576935
93	0x3e39e2ff	0.18152998
94	0x3e20960d	0.1568224
95	0x3e0bf7f2	0.13668802
96	0x3ddeff90	0.108885884
97	0x3dd472b6	0.10373442
98	0x3e461432	0.19343641
99	0x3e13c6d6	0.14431319
100	0x3e27eea6	0.16399631
101	0x3e083f8b	0.1330549
102	0x3e009a61	0.12558891
103	0x3e401f37	0.18761908
104	0x3d99bf95	0.075072445
105	0x3df51bd2	0.11968197
106	0x3de8155f	0.11332201
107	0x3e249bc0	0.16075039
108	0x3db1a9b3	0.08674946
109	0x3e0209eb	0.12699096
110	0x3e013ab3	0.12620048
111	0x3dca3b5d	0.09874604
112	0x3e1dfa35	0.15427478
113	0x3de0259f	0.10944676
114	0x3dcc5217	0.09976595
115	0x3e085111	0.13312174
116	0x3e1e53f5	0.15461715
117	0x3e59fbc8	0.21287453
118	0x3de2e40b	0.11078652
119	0x3de0886e	0.10963522
120	0x3db6fc92	0.08934893
121	0x3e1caaff	0.15299605
122	0x3e24fa6e	0.16111156
123	0x3deedbc0	0.11663008
124	0x3e01fd06	0.12694177
125	0x3e07bc70	0.13255477
126	0x3e059904	0.13046652
127	0x3dc66ebd	0.096890904

projection_layer.4.weight f4 [128, 128]
0	0x3b1f319c	0.0024291044
1	0x3d29f82d	0.041496444
2	0xbd362e87	-0.044477966
3	0xbd3cf430	-0.046131313
4	0x3cbedcd6	0.023298662
5	0x3c692e4a	0.014232228
6	0x3d235784	0.039878383
7	0xbd87b8b4	-0.06627026
8	0xbd50fe42	-0.05102373
9	0x3cf53033	0.02993021
10	0x3cd22225	0.025651047
11	0x3c2e183d	0.010625896
12	0xbd6babd7	-0.057536926
13	0x3d12bb71	0.03582329
14	0xbd3a7587	-0.04552224
15	0x3d59e3b8	0.053195685
16	0xba55f5aa	-0.0008161912
17	0x3c4e2d7d	0.012584087
18	0x3d32159f	0.04347765
19	0xbd14699a	-0.036233522
20	0x3d51da40	0.05123353
21	0x3d130e7d	0.03590249
22	0xbd35f79f	-0.044425603
23	0xbdcb0fbd	-0.09915111
24	0xbc604800	-0.013689041
25	0xbd35a74d	-0.044349004
26	0x3d8d7980	0.0690794
27	0xbd742284	-0.05960323
28	0x3d92a42b	0.07160219
29	0x3d0db3f2	0.034595437
30	0xbce91379	-0.028451668
31	0x3da194fc	0.07889745
32	0x3d7c6d7e	0.061627857
33	0xbdace27a	-0.084416345
34	0xbca5e312	-0.020249877
35	0xbd3c0c97	-0.045910444
36	0x3d84959f	0.064738505
37	0x3c92ee11	0.017935785
38	0xbd72c870	-0.059273183
39	0x3da4ee19	0.08053226
40	0xbd12eca0	-0.035870194
41	0x3d825443	0.06363728
42	0xbd173d00	-0.03692341
43	0x3a975679	0.0011546157
44	0xbda508b1	-0.080582984
45	0x3d762881	0.06009722
46	0x3c018b44	0.007906739
47	0x3ca8f7d0	0.020625979
48	0xbcdcadbd	-0.026938314
49	0x3d249106	0.040177368
50	0x3d49220b	0.04910473
51	0x3da9c417	0.08289354
52	0xbc5d835d	-0.013520089
53	0x3c5fb48a	0.013653884
54	0x3db90110	0.09033406
55	0x3d59c689	0.053167854
56	0xbcb5fb74	-0.022214629
57	0xbc858073	-0.0162966
58	0x3da55965	0.08073691
59	0x3d90f0d4	0.07077184
60	0xbd820abe	-0.06349705
61	0x3d3719a9	0.044702206
62	0x3d984c35	0.0743641
63	0x3d378f04	0.044814125
64	0x3c918e1b	0.017767956
65	0xbd16ca03	-0.036813747
66	0xbda76539	-0.081736036
67	0xbcbc2883	-0.022968536
68	0x3caf5e7e	0.021407362
69	0xbc016dbe	-0.0078997
70	0xbc9bbf90	-0.019012243
71	0xbd5cb2bb	-0.05388139
72	0x3ca76221	0.020432534
73	0xbd4b0db2	-0.049573608
74	0xbb8f3cde	-0.0043712696
75	0xbdb2b31a	-0.08725567
76	0xbb9c639b	-0.004772616
77	0xbd616da6	-0.05503621
78	0xbc6695f0	-0.014073834
79	0x3da0c600	0.078502655
80	0x3bb236cf	0.0054386626
81	0xbdad12b3	-0.08450832
82	0xbdb17fd4	-0.086669594
83	0xbd1cd1f4	-0.038286164
84	0x3d95646f	0.07294547
85	0x3c25ccff	0.010119676
86	0x3db126b0	0.08649957
87	0x3d9ccaaf	0.07655846
88	0x3dbc574c	0.09196338
89	0xbb2e9242	-0.002663747
90	0xbc2f4338	-0.010697179
91	0xbc9e2f75	-0.019309739
92	0x3d8738af	0.066026084
93	0xbcbfa90e	-0.023396041
94	0xbd5b7ec0	-0.053587675
95	0xbd8ae4ac	-0.06781897
96	0xbdadbbe1	-0.08483101
97	0xbd86b649	-0.06577737
98	0x3d0b5d02	0.034024246
99	0xbbdc6faf	-0.006727181
100	0x3d6d9fe4	0.05801381
101	0x3c9683f3	0.018373465
102	0x3cdfd5f6	0.027323704
103	0xbd11169e	-0.03542196
104	0x3d7c4cdb	0.061596733
105	0xbd8350f5	-0.06411926
106	0x3db19f3c	0.0867295
107	0x3d051de4	0.03249921
108	0xbd9a4838	-0.07533306
109	0x3d24d4b2	0.040241905
110	0x3d4ab35e	0.049487464
111	0x3d8ee212	0.06976713
112	0xbb97a3d1	-0.0046276827
113	0x3ce5b4ae	0.028040256
114	0x3d0e9094	0.03480585
115	0x3db22e0e	0.087001905
116	0x3b1af8f8	0.0023646932
117	0xbd5dd6d4	-0.054159954
118	0xbd4c1a9c	-0.049830064
119	0xbd4a994e	-0.04946261
120	0x3c324eaa	0.010883013
121	0x3c8294d4	0.015940107
122	0x3ca9156d	0.0206401
123	0xbbd94a42	-0.0066311667
124	0xbd04ac94	-0.032391146
125	0xbbbbca5b	-0.0057309098
126	0xbc5c70ce	-0.013454629
127	0xbd204901	-0.039132122
128	0x3bd3f554	0.0064684544
129	0xbd907611	-0.070537694
130	0xbc1325a6	-0.008981144
131	0xbd952224	-0.072819024
132	0xbd54ba04	-0.05193521
133	0x3d76edc1	0.060285334
134	0x3cc18502	0.023622993
135	0xbd9a47b2	-0.07533206
136	0xbdae2426	-0.085029885
137	0x37f095f8	2.8680064e-05
138	0xbd8d76e1	-0.0690744
139	0xbd31d906	-0.04341986
140	0xbdaa0606	-0.0830193
141	0xbb716101	-0.00368315
142	0x3d43ca15	0.047800142
143	0x3c09b685	0.008405332
144	0xbd11e557	-0.035619106
145	0xbd90bb58	-0.07066983
146	0x3d9e743b	0.07737013
147	0xbda9b8d9	-0.0828721
148	0x3da81bb7	0.08208411
149	0xbb565bdd	-0.0032708563
150	0x3cd50b7a	0.026006449
151	0x3d3bf856	0.04589113
152	0x3d867cda	0.06566782
153	0x3d3ed50f	0.046589907
154	0x3d482bbd	0.048869837
155	0x3d33b32d	0.043872047
156	0x3c760608	0.015016086
157	0xbc898c9d	-0.016790682
158	0xbbe709d0	-0.0070507303
159	0xbc82b647	-0.015956057
160	0x3d2f4375	0.04278894
161	0xbd33e9da	-0.04392419
162	0xbcc88db3	-0.02448163
163	0x3d5fa149	0.054597173
164	0x3da71fc6	0.08160357
165	0x3db1a13f	0.086733334
166	0xbb502e61	-0.0031765925
167	0x3d88b9b5	0.06676046
168	0xbdaffe91	-0.085934766
169	0x3da73f78	0.081664026
170	0x3d0ddd02	0.034634598
171	0x3dab078b	0.08351048
172	0xbb769410	-0.0037624873
173	0xbd87e2aa	-0.066350296
174	0xbc8e8ec4	-0.01740206
175	0x3d6c8ecd	0.057753373
176	0x3dbe9b45	0.09306959
177	0xbd56d13e	-0.052445643
178	0xbc8a487f	-0.016880272
179	0x3d0918d9	0.033470962
180	0xbc90d95b	-0.017681768
181	0xbdaca04e	-0.08429013
182	0x3d2c6ed5	0.042097885
183	0x3d743192	0.059617586
184	0x3c8e3187	0.0173576
185	0x3da264b1	0.079293616
186	0xbda2ff9c	-0.0795891
187	0xbc563435	-0.013073971
188	0xbdb6da2a	-0.0892833
189	0xbd99be36	-0.07506983
190	0x3b6e6b40	0.0036379844
191	0xbd5197aa	-0.05117003
192	0xbd66ec04	-0.056377426
193	0x3d9a364f	0.0752989
194	0xbd384d0c	-0.044995353
195	0x3d0e964c	0.034811303
196	0x3d0dd400	0.034626007
197	0x3c9a827a	0.018861044
198	0xbc2f9753	-0.010717231
199	0x3d02deac	0.031950638
200	0x3d726bf4	0.059184983
201	0x3b70609c	0.0036678677
202	0xbcea281d	-0.02858358
203	0x3d69a9e0	0.05704677
204	0xbc3432e1	-0.010998459
205	0x3d8a233e	0.06745003
206	0xbd885a74	-0.066578776
207	0x3d9b734d	0.07590351
208	0xbd98b75f	-0.0745685
209	0x3ca820fc	0.02052354
210	0x3c02e4ec	0.00798915
211	0xbd913fbc	-0.070922345
212	0xbd25e544	-0.040501848
213	0xbd683887	-0.056694534
214	0x3d4c66f8	0.049902886
215	0x3b90a75e	0.004414483
216	0x3d09b26e	0.03361743
217	0xbd94fe61	-0.072750814
218	0x3ca5093e	0.020146009
219	0xbd1a49ae	-0.037667923
220	0x3a861d6c	0.0010232157
221	0x3d6038a0	0.0547415
222	0x3d39d93b	0.045373183
223	0x3bc5b610	0.0060336664
224	0x3c970d5f	0.018438993
225	0x3d2152ba	0.039385535
226	0xbd83bc08	-0.064323485
227	0x3ccd5b29	0.025067883
228	0x3d328728	0.043585926
229	0x3a3364c0	0.0006843321
230	0x3c017c98	0.007903241
231	0xbd5fa0fc	-0.054596886
232	0x3db92c93	0.09041705
233	0xbb59d2ce	-0.0033237222
234	0x3ce0a5f9	0.027422892
235	0x3da8012d	0.08203349
236	0xbda202c4	-0.07910684
237	0xbaae22f6	-0.0013285566
238	0x3d83b743	0.06431439
239	0xbd9001a7	-0.07031565
240	0xbd39dc53	-0.045376133
241	0xbd831cd0	-0.0640198
242	0xbdb7161f	-0.08939766
243	0xbc4dffc6	-0.012573188
244	0x3cc7de05	0.02439786
245	0xbd582cd7	-0.052777138
246	0xbdd8a253	-0.10577836
247	0x3d5b1555	0.05348714
248	0x3d6a2d70	0.05717224
249	0x3cdd2f97	0.027000232
250	0x3d7ee9d0	0.0622347
251	0xbbb0b4f3	-0.0053926646
252	0xbda2438f	-0.07923042
253	0x3d0d0010	0.034423888
254	0x3c968744	0.018375047
255	0xbc76d0c8	-0.015064426

projection_layer.4.bias f4 [128]
0	0xbdb02f84	-0.08602813
1	0xbcf86fb5	-0.030326704
2	0x3d9d989c	0.076951236
3	0x3cde217e	0.02711558
4	0x3d67eefa	0.05662439
5	0x3cc68697	0.0242341
6	0xbca624d7	-0.020281238
7	0x3d67f10a	0.056626357
8	0x3d713634	0.058889583
9	0x3c0d3f7d	0.008621094
10	0xbce800c9	-0.028320687
11	0xbdbe71dd	-0.092990614
12	0x3b881758	0.0041531734
13	0xbda89521	-0.08231569
14	0xbda9e338	-0.08295292
15	0xbc636634	-0.013879348
16	0xbda8bad0	-0.08238757
17	0xbd8d1325	-0.06888417
18	0x3d922c65	0.07137374
19	0x3d54a2a7	0.05191293
20	0xbd8a36c5	-0.06748728
21	0xbd8b17e9	-0.0679167
22	0x3d3cdc86	0.046108745
23	0x3bae84c7	0.005325887
24	0x3d410ff7	0.047134366
25	0xbd68e3da	-0.05685792
26	0xbd9cf0b0	-0.07663095
27	0xbca39a0c	-0.019970916
28	0x3cf3772c	0.029719912
29	0x3cbd83ca	0.023134131
30	0xbc1518fd	-0.009100196
31	0x3d26fa82	0.040766247
32	0xbbbc1e95	-0.0057409503
33	0xbce5de97	-0.02806024
34	0x3c93b6a7	0.018031431
35	0xbc924eb2	-0.01785979
36	0x3d83447c	0.06409547
37	0x3daa94d6	0.083291695
38	0x3d45ae0f	0.0482617
39	0x3d392dcf	0.045209702
40	0xbd0ae9e9	-0.03391448
41	0xbbb8e44e	-0.0056424504
42	0x3d78e57d	0.060765732
43	0xbdaf313e	-0.08554314
44	0xbd9d1a7e	-0.076710686
45	0xbd0fba6d	-0.0350899
46	0x3d62e42d	0.055393387
47	0x3d1b8971	0.03797287
48	0xbcc06578	-0.023485884
49	0xbb049854	-0.0020232396
50	0xbd09b3de	-0.0336188
51	0x3d54e1ef	0.05197328
52	0xbcfd8d36	-0.030951124
53	0x3d48bf2d	0.049010444
54	0xbd962f2b	-0.07333215
55	0x3d08d0fb	0.033402424
56	0xbdab8f96	-0.08376996
57	0xbda66bb7	-0.08126014
58	0xbd7989ca	-0.06092242
59	0x3d782810	0.06058508
60	0xbc9b9ef3	-0.018996691
61	0xbd74ea60	-0.05979383
62	0x3cc6acd5	0.024252335
63	0x3db646d1	0.08900226
64	0xbd403685	-0.046926994
65	0x3d4bb6c2	0.04973484
66	0x3d99aa94	0.07503238
67	0x3c66b472	0.014081107
68	0xbdb2d43c	-0.08731887
69	0xbd19312d	-0.037400413
70	0x3cdfe5a7	0.027331186
71	0xbc86ffaa	-0.016479332
72	0x3d5a5872	0.053307004
73	0x3cd4b277	0.025964005
74	0x3d7d0479	0.061771844
75	0xbd35fdff	-0.044431683
76	0xbd59ba06	-0.05315592
77	0x3ce5d0a8	0.028053597
78	0xbd135e8b	-0.035978835
79	0xbd90e3c5	-0.070746936
80	0xbda21078	-0.079132974
81	0xbd95947c	-0.07303712
82	0xbd1516d9	-0.036398742
83	0x3d3b0de9	0.045667563
84	0x3d45f5d5	0.048330147
85	0x3c932731	0.017963024
86	0xbdbf6e06	-0.09347157
87	0x3d79f871	0.061027948
88	0x3d9201ad	0.07129226
89	0xbdb53a99	-0.08849067
90	0xbd331748	-0.043723375
91	0xbdb49ac6	-0.08818583
92	0xbcac98e6	-0.021069001
93	0xbdbb4068	-0.09143144
94	0xbb245d51	-0.0025080035
95	0x3daeff76	0.08544819
96	0x3d4667a4	0.048438683
97	0x3d9ea900	0.07747078
98	0x3cf30793	0.029666698
99	0xbc6ef7a4	-0.014585409
100	0xbcd6366c	-0.026148997
101	0xbd672d6f	-0.056439813
102	0x3da66559	0.08124799
103	0xbba6fb1b	-0.005095852
104	0xbd298e79	-0.04139564
105	0xbd425ffb	-0.047454815
106	0xbd81bcf6	-0.063348696
107	0x3cb6e74d	0.02232709
108	0xbcc6ec05	-0.024282465
109	0x3cba9b48	0.022779122
110	0x3cd91905	0.026501188
111	0x3ca7cee1	0.02048439
112	0xbd64547f	-0.055744644
113	0x3d005345	0.031329412
114	0x3cf0a8b5	0.02937732
115	0xba5a117f	-0.0008318647
116	0xbdb77c53	-0.0895926
117	0xbdbbe62b	-0.091747604
118	0xbcec89dc	-0.02887433
119	0x3d7f1ebe	0.062285177
120	0xbd68bb12	-0.05681903
121	0xbdb65b83	-0.08904173
122	0xbd2c3687	-0.04204419
123	0x3da134dd	0.07871411
124	0xbafc0eb1	-0.0019230453
125	0xbd9ed2bc	-0.07755038
126	0x3d267db7	0.040647235
127	0xbc31bf83	-0.010848883

output_layer.weight f4 [1, 128]
0	0x3c8251ae	0.015908089
1	0xbd00e4e2	-0.03146828
2	0xbca8b96d	-0.02059623
3	0x3d8c4f94	0.06851116
4	0x3d8160fa	0.06317325
5	0xbc9eaa9f	-0.019368468
6	0x3cd5cd27	0.0260988
7	0x3d2fcbbb	0.042918902
8	0xbd2dc55f	-0.042424556
9	0x3d76992c	0.06020467
10	0x3d9285a2	0.07154395
11	0xbd81b390	-0.06333077
12	0x3a50e716	0.0007969005
13	0x3d8a97da	0.06767245
14	0xbda18a1e	-0.07887672
15	0x3d2ff9f2	0.042962976
16	0xbce6fb63	-0.028196042
17	0xbd315cdc	-0.04330145
18	0xbd8b4144	-0.06799558
19	0x3c778c33	0.01510911
20	0xbd73aaa4	-0.059488907
21	0xbd7a9249	-0.061174665
22	0xbdb176c7	-0.08665233
23	0x3b2eabbd	0.0026652657
24	0xbcc91e90	-0.024550706
25	0xbc1e791c	-0.009672429
26	0xbcc7a3e4	-0.024370141
27	0xbdaaef9b	-0.08346482
28	0xbbc35bcc	-0.005961871
29	0x3d36a361	0.044589404
30	0x3da9228e	0.08258544
31	0x3ccc396e	0.024929728
32	0xbd464623	-0.04840673
33	0x3d251501	0.040303234
34	0xbd6067f9	-0.054786656
35	0xbccc037e	-0.024904009
36	0x3bf52367	0.007481027
37	0x3d66e177	0.056367364
38	0xbcacfe5b	-0.02111738
39	0xbd8dd48c	-0.06925306
40	0x3d77f709	0.060538325
41	0xbc09ec47	-0.008418149
42	0xbd8b6c6e	-0.06807791
43	0x3d5ed107	0.054398563
44	0x3d92760c	0.07151422
45	0x3d990d4c	0.07473239
46	0x3b52add1	0.003214706
47	0x3c23f636	0.010007432
48	0x3d972f20	0.07382035
49	0x3d09763a	0.033560015
50	0x3d45d587	0.04829934
51	0x3c95d530	0.018290132
52	0x3cbbbbc7	0.022916688
53	0x3d8ad7c3	0.067794345
54	0xbd8546d3	-0.06507649
55	0xbd6a6851	-0.05722839
56	0xbd9a2b76	-0.07527821
57	0x3d0f1b21	0.03493798
58	0x3d76d114	0.060257986
59	0x3c66fb8a	0.0140980575
60	0x3cf31ade	0.029675897
61	0x3d5c1078	0.053726643
62	0xbd19cb68	-0.0375475
63	0x3ceb1a98	0.028699204
64	0x3da8c474	0.082405955
65	0x3d6e3be3	0.05816258
66	0xbd6b898e	-0.05750423
67	0x3d9c15e8	0.07621366
68	0xbd461c75	-0.048366982
69	0x3d61d19b	0.055131536
70	0x3d5310f1	0.05152983
71	0xbd2986cc	-0.041388318
72	0xbc063783	-0.008191946
73	0x3d2859b2	0.041101165
74	0xbcf3064c	-0.029666089
75	0xbd031566	-0.03200283
76	0x3d73b8f5	0.05950256
77	0x3dbd6c92	0.09249224
78	0xbaa533a6	-0.0012603893
79	0xbce2256b	-0.027605733
80	0xbd83c8cc	-0.06434783
81	0x3d8d5c5b	0.06902381
82	0xbc096d38	-0.008387856
83	0xbd786bb0	-0.060649574
84	0xbd56793e	-0.05236172
85	0xbd35c4d6	-0.04437717
86	0xbd942a52	-0.072346345
87	0x3c46034a	0.012085745
88	0xbca52db8	-0.020163402
89	0xbdb962e1	-0.09052063
90	0x3d13900a	0.03602604
91	0xbd6db5f1	-0.05803484
92	0x3d31ab7d	0.043376435
93	0xbd1aa3d6	-0.037753902
94	0x3d45bd21	0.04827607
95	0x3cccd346	0.025003087
96	0xbcca1193	-0.024666583
97	0x3d4b99c4	0.04970719
98	0xbd8f8892	-0.070084706
99	0x3dbe7895	0.09300343
100	0x3d17d2c4	0.037066236
101	0xbcbc13f3	-0.022958731
102	0x3cc89e09	0.02448942
103	0x3d0f09f9	0.03492162
104	0x3d076981	0.0330596
105	0x3d4b4b42	0.04963232
106	0xbd1f2a35	-0.03885861
107	0x3d847482	0.064675346
108	0xbd3306e5	-0.043707747
109	0x3d4febd8	0.050762028
110	0x3d93a988	0.0721007
111	0xbd31abd7	-0.04337677
112	0x3d59efd9	0.053207252
113	0x3c100ef7	0.00879263
114	0x3daa913b	0.08328482
115	0xbb089c3d	-0.0020845078
116	0x3d8a8f04	0.06765559
117	0x3c0ef649	0.008725711
118	0x3cbe971d	0.023265416
119	0xbd85cbf1	-0.06533039
120	0xbd94650a	-0.07245834
121	0x3da4c3da	0.08045168
122	0xbd653f84	-0.055968776
123	0xbd9c463a	-0.07630582
124	0xbd460347	-0.04834297
125	0x3d33ac6b	0.043865602
126	0x3c104602	0.008805754
127	0xbbe79e01	-0.007068396
