Checkpoints/HR_V/valence_s09.pth (torch, 461905 bytes, 29 tensors)

input_layer.weight f4 [128, 29]
00000000: 3a54 353d 1e55 20be 238a 2ebe 7292 053e
00000010: 4c38 d9ba b576 c83d 54ba 59bd 9727 ba3c
00000020: 612c 4dbd 22ab 0fbe be59 3bbe 7778 0f3e
00000030: f611 1dbe e18b e0bd 87b4 083e b25e 87bd
00000040: 511c 35be d438 92bd 286e 0a3e f682 cf3d
00000050: d781 833c 7351 e93c d02e d2bd 6e24 37be
00000060: 07bc d0bd b1cc c2bd 7568 05be 23c9 e53b
00000070: 54a9 193e f658 29be 272b 333e 5abe 343e
00000080: 5a36 0a3d e754 3d3e cf89 24be 6098 ad3d
00000090: fa0d 93bd 279c d33d 36a9 e3bd 7f63 333e
000000a0: a33c 533b f85e 74bd f6be 403e 405f 37be
000000b0: d185 1c3e 9243 383e cd47 23be f691 33be
000000c0: cd36 503c 7861 d4bd 6bab 08be cc2a 08bc
000000d0: d00f a5bd d6fb 173e 075b 71bd 7802 263e
000000e0: 9c75 bf3c 0b3c 0fbe 5e9f bebc d91a 41bd
000000f0: 9b19 253e 2430 3b3d bee4 e83d 01d0 ed3d
00000100: 05bc 07be e4ba 22bd 3ab8 96bd 130b dc3c
00000110: 08d6 91bc b04b 55bd b280 373e 793d a7bd
00000120: 5cfd d9bd 4344 14be c79a 623d f477 393e
00000130: 6c6a 993b 9032 c1bd 28e8 3bbc 7bc5 f4bb
00000140: 5d24 e53d 7876 4c3d 23ee e03c 1284 0abe
00000150: 78fb cfbd b074 38be 825e cfbd 5aa2 36be
00000160: a8fc 1ebc 5386 0ebe a03c 55bd 98f5 2c3d
00000170: 54e9 08bd 4a15 1a3e 117d 1e3e 6740 1c3e
00000180: 7dce 8dbd 6fc6 183c eb52 503d 2e7a 84bd
00000190: e7de 82bb c117 bcbd 1305 0e3e 9e7e 5fbd
000001a0: fc66 963d cf3f a13d db8e 003e 009e ebbd
000001b0: 1f73 23be cbcf 28be dd68 ba3d 923a d1bc
000001c0: 025c 0a3e 790d d13d 1381 05be 82a1 3dbd
000001d0: a144 c93d 3651 35be 69f7 30be 5d72 9c3d
000001e0: 07c8 403d 4835 e23d 2a74 07be 0d59 3ebe
000001f0: 0284 e1bd 378a 80bd 140f 1d3e 6d43 0e3e
00000200: 0925 053e 7720 913d 34f6 353e ed5c 323d
00000210: c4ee 38be 4706 2f3e be12 403e dbc7 15be
00000220: 9feb 95bd 70ce b23b 7c5e 1f3e c3bb 26be
00000230: 9efe 083e a657 cbbd 12ed 9abd 543b ffbd
00000240: 3ee9 fc3d 3ab7 8c3d 36d8 383e e69e 133e
00000250: 4729 16bd 85ec 783d d96f e93d 3353 e73d
00000260: 3b17 a03d e1f2 653d 1327 26be 6679 06be
00000270: 9fc4 303e 94a0 d2bc 70b6 89bd c7b1 30be
00000280: a0c4 aa3d 1e78 2ebe abfb d53d 3508 403e
00000290: 8d54 2e3e a4b1 073e 00c9 913d f9ac 2f3b
000002a0: e86c 853c 3f2c b53d e43e 053e e231 543d
000002b0: cd93 a93c e360 59bd 2d29 533d 1a20 ab3d
000002c0: 895d 1a3e d989 febd 103a d2bb 149e 9f3c
000002d0: 1781 18bd 59af 4b3d ccf8 2fbe 802a e3bc
000002e0: cb2b 043d 789e 01bd 2070 893d bbb6 123e
000002f0: 419e 24be 82b0 0f3e 19e5 1dbe 9fd8 923b
00000300: 1442 6fbd c12a 74bd 30ae e73d be86 d0bd
00000310: a1ad 2a3e 9053 e0bd 21c1 28be 5f87 313e
00000320: eba0 a23d fe1f 06be f00c 3f3c ab21 1a3d
00000330: b643 c03d 97e7 55bd b51f 1cbd 63f9 c23d
00000340: efcb 3dbe cac2 d5bd 1689 653c f52b 3a3e
00000350: 8456 233e ce3b 2ebe c2b1 c73d f069 fa3d
00000360: 990d 2c3e 6e11 003e 0502 353e 6024 903d
00000370: 6cc2 1f3c e41b 0c3e d5b2 2e3d c725 353d
00000380: 1425 babd 2bf3 0f3d e65b a63d 84a8 11bd
00000390: 3d05 3cbe 3745 0bbe 9c3c 213e bcd5 e3bc
000003a0: 1654 a43d 0772 313e 50f1 3f3d 8d89 3dbe
000003b0: a491 17bd 6303 213d 9a3e 23be 693b dbbb
000003c0: 4dad 0c3e 9d20 343e e669 1abd 8578 4f3d
000003d0: 0a81 8a3d 6c5c 1d3e e42e 14be 4765 143e
000003e0: d29a ec3b fd33 2d3c c6ff 2cbe 4104 05be
000003f0: d370 9abd 8b49 99bd ff32 203d 2844 bdbc
0.044269778 -0.1565747 -0.17044882 0.13044146 -0.0016572564 0.097882666 -0.053156212 0.022723956
-0.05009115 -0.14030126 -0.18295953 0.14010797 -0.15338883 -0.1096418 0.13350116 -0.066098586
-0.17686583 -0.07139745 0.13518584 0.10132401 0.016053123 0.02848122 -0.10262835 -0.1788499
-0.10192113 -0.09511698 -0.13028128 0.0070125028 0.15006 -0.16537842 0.1749693 0.17650738
0.03374324 0.18489419 -0.16068195 0.08476329 -0.071804 0.10332518 -0.11116259 0.17518423
0.0032232187 -0.05966088 0.18822846 -0.17907429 0.15285422 0.17994526 -0.15945359 -0.17536148
0.012708378 -0.10370153 -0.13346641 -0.008310985 -0.080596566 0.14842162 -0.0589247 0.16211879
0.02337151 -0.13987748 -0.023269352 -0.047144745 0.16123049 0.045700207 0.11371754 0.11611939
-0.13255318 -0.039729014 -0.07359357 0.02686075 -0.017802253 -0.052074134 0.17920187 -0.08166022
-0.106440276 -0.14479165 0.05532339 0.18112165 0.004681876 -0.09433472 -0.011468925 -0.0074698306
0.11188576 0.049917668 0.027457302 -0.13526943 -0.10155386 -0.18013263 -0.10125448 -0.1783537
-0.009703793 -0.13918428 -0.05205977 0.042226404 -0.033425644 0.15047184 0.15477397 0.15258943
-0.0692415 0.009324654 0.050860327 -0.064686164 -0.003993857 -0.09184218 0.13869123 -0.05456411
0.073438615 0.07873499 0.12554495 -0.115047455 -0.15961884 -0.16485517 0.09102032 -0.025540624
0.1351166 0.10207648 -0.13037519 -0.046296604 0.09827543 -0.17706761 -0.1728188 0.076390006
0.04706576 0.11045319 -0.13227907 -0.18588658 -0.110115066 -0.062763624 0.15337783 0.13892908
0.13002409 0.0708627 0.177697 0.043545652 -0.18059832 0.17092238 0.1875715 -0.1462702
-0.07320332 0.005456738 0.15563387 -0.16282563 0.13378379 -0.09928827 -0.07564749 -0.12462488
0.12349175 0.06870885 0.18051228 0.14416084 -0.03666046 0.060772438 0.11398286 0.11295166
0.07816931 0.05613983 -0.16225843 -0.13132247 0.17262505 -0.025711335 -0.0672425 -0.17255317
0.083382845 -0.17038009 0.104483925 0.1875313 0.17024441 0.13251358 0.07118416 0.002680598
0.016287282 0.0884633 0.13012272 0.051805384 0.02070036 -0.053070914 0.05155294 0.08355732
0.15074743 -0.12428636 -0.006415613 0.019484557 -0.037232485 0.04972777 -0.17184752 -0.027730227
0.032268327 -0.03164527 0.06710839 0.14327519 -0.16075994 0.14032176 -0.15419425 0.0044813897
-0.058412626 -0.059611086 0.113125205 -0.1018195 0.16667797 -0.10953438 -0.16479923 0.17336796
0.07940849 -0.13098142 0.011660799 0.037629765 0.09387915 -0.052222814 -0.038116176 0.09520223
-0.18534826 -0.10437544 0.014009735 0.18180831 0.15950972 -0.17015001 0.097507015 0.12227237
0.16802062 0.12506649 0.17676552 0.07038188 0.009750944 0.13682514 0.042651016 0.04422548
-0.09089103 0.035144012 0.08122997 -0.0355611 -0.18361373 -0.13600622 0.15745777 -0.027811877
0.080238506 0.17328654 0.046860993 -0.18509503 -0.037004128 0.03930987 -0.1594185 -0.006690432
0.13737984 0.17590566 -0.03769865 0.050652046 0.067628935 0.15367287 -0.14471012 0.14491759
0.0072206045 0.010571477 -0.16894445 -0.12989904 -0.07541051 -0.0748473 0.039111134 -0.023103788

input_layer.bias f4 [128]
00000000: f1f0 0e3e a3a6 5cbc e2d1 843d b01c 443d
00000010: fe8d 80bd 1a18 ad3d b98a 2cbe 82e2 c33d
00000020: 31f4 bebd 18b3 02bd 0c80 40bd fdd9 00be
00000030: da05 533d c7f6 26be 92e0 a1bc 0017 88bd
00000040: cbc0 603d 0e89 11be d9e0 2ebe 8730 06be
00000050: 7d60 243e 86f4 b33d 0ffe cc3d 049b b33c
00000060: 77a7 113e 82d1 043e 4b99 c6bd 31ea 1ebd
00000070: e83c 1b3e 8ae2 e13d b7f7 e3bc 7c16 91bc
00000080: a69b 8abd 358b 08be 48ae cdbd 5ce7 36bd
00000090: baba c63d b2c3 30be 8a3a 2cbb 7e5e ddbd
000000a0: 8d53 e83c 42c6 2fbe 54c1 76bd 623b 1f3e
000000b0: 4143 69bd 822a 1fbd fc1f 29bc e986 813d
000000c0: be0e a93d 01d7 3c3d 5f52 8b3d 8a6f 303e
000000d0: 1bb6 2bbe abee 01bd 0d42 3f3d e981 7d3c
000000e0: 2673 34be 40fb e63d dd44 363d c5eb 973d
000000f0: 63c6 88bd 4dd1 1b3e 8905 8b3d c999 24bd
00000100: 5476 033d 17c9 853d fde1 103d 9a28 c93d
00000110: 964c 273e c064 dabd d0b7 a9bc 6bc3 983d
00000120: c208 f43d 70f2 f33d 287a 88ba d844 afbd
00000130: 72a5 25be c962 0e3e 1f6e 38bd 26b0 30be
00000140: f42e d73a e0e5 413d e33d 2c3d 11dc 0f3e
00000150: 70c3 873d 9840 e93d 4f7c 1f3e 99a8 12be
00000160: 055d 053b eb21 b23d 3866 1fbe 2f3f b5bd
00000170: 2580 0e3e 2c5e f73c c605 02bd d336 43bd
00000180: 4956 e3bd b180 ecbd 0cef 163e dd3b 013e
00000190: 184c 14be abc3 32be 8682 993d 876d f8bd
000001a0: 20a4 373e 6fc5 0d3e 7f46 b4bd a314 dbbd
000001b0: b3df 043d a5f7 0e3e d220 32be e210 333e
000001c0: 403c 2fbe dc3e 7bbc 39f0 08bd e7bd f53b
000001d0: 3e2b 24bd a559 013d f8e4 043e 0b23 333e
000001e0: 0641 25be 6244 32be 2e66 21be a48d a1bd
000001f0: c2b9 f73c 3296 25be 544c bebd 8e46 b5bc
0.139591 -0.013467464 0.064853445 0.04787892 -0.06277083 0.08451863 -0.16849793 0.09564687
-0.093239196 -0.03190908 -0.046997115 -0.12583156 0.051519252 -0.16305076 -0.019760404 -0.06645012
0.05487136 -0.14212438 -0.1707796 -0.13104449 0.16052432 0.087868735 0.10009395 0.021924503
0.14224039 0.12970546 -0.09697207 -0.03879756 0.15159953 0.11029537 -0.02782808 -0.017710917
-0.06767969 -0.13334353 -0.10043007 -0.044654235 0.09703584 -0.17262152 -0.002628001 -0.108090386
0.028360153 -0.17165473 -0.060242966 0.15549996 -0.056948904 -0.038858898 -0.010322567 0.0632456
0.08254765 0.04610348 0.068028204 0.17230049 -0.16768686 -0.031721752 0.04669385 0.0154728675
-0.1762205 0.11278391 0.044499267 0.07418016 -0.06678464 0.1521656 0.06788165 -0.040185723
0.03209527 0.065324955 0.03537177 0.09822197 0.16337809 -0.10663748 -0.020717531 0.07459148
0.11915733 0.11911476 -0.0010412382 -0.08558053 -0.16176394 0.13904871 -0.045026895 -0.17254695
0.0016417191 0.047338367 0.042051207 0.14048792 0.066290736 0.113892734 0.15574764 -0.14322127
0.0020349633 0.086978756 -0.15566337 -0.08849942 0.13916071 0.030196272 -0.031743787 -0.047659706
-0.11100442 -0.115479834 0.14739627 0.12620492 -0.14482152 -0.17457454 0.074955985 -0.12130266
0.17933702 0.13844846 -0.088025086 -0.106972955 0.0324399 0.13961656 -0.17395332 0.17486909
-0.17112827 -0.015334811 -0.03343222 0.0074994448 -0.0400803 0.031579632 0.1297797 0.17493837
-0.16138086 -0.17408898 -0.15761635 -0.07888344 0.030239943 -0.16170576 -0.09291902 -0.02212837

projection_layer.0.weight f4 [128, 128]
00000000: 3a19 743a 133b 5fbd c889 c6ba 06be 7abd
00000010: c708 95bd 144e 46bd 77ca 6dbc 4370 5e3d
00000020: 79bb a6bc e492 80bd 849a 7fbd 4854 b23a
00000030: 53bb 07bb 3c6d debc 0eb3 50bc 9504 593d
00000040: ea33 be3c f64f 4e3d 4274 20bd b0c5 873d
00000050: 0df6 7c3d 23cd afbd 51c1 1aba 18b1 83bd
00000060: d900 61bb 7056 583d b4b8 853d 329c 4b3d
00000070: 5fa6 0c3d 28ab 7abd 8ac5 72bd c787 933d
00000080: 5a8e 3d3d 9e49 16bd 85b7 a23d 8b1c 98bd
00000090: bd88 69bd bcce a23d 1ec9 a03c b4e1 6cbc
000000a0: 86a6 34bd 7113 a83d 3538 d8bb 98d6 b8bd
000000b0: 1a8f 4f3d 5590 83bd 12d5 95bd 6c33 ed3c
000000c0: bf65 a4bd 3427 9fba 6eab 2a3d 2eec a2bd
000000d0: 29d6 81bd e2f2 9f3c 21a8 93bd 36e1 523d
000000e0: 0d75 20bc eca8 06bd 7024 8b3d 3ff2 c73c
000000f0: fee3 9e3a ff40 b43d 0587 1d3c 0ec8 803c
00000100: 989e b93d 5a43 fdbc 69bc 1cbc 105e 78bd
00000110: dbc3 63bd a751 0a3d 3743 983d d16d 59bc
00000120: a9a2 97bb 842b b13d 149b ab3d 15f5 86bd
00000130: d0c2 d33c bd62 85bd 76ad 7b3d 8cea 8abc
00000140: 39f9 09bd 5fd4 3cbd 358e 943d d27f 8fbd
00000150: ac07 fb3c 8c97 a9bc 47cb 4b3d d4c8 453d
00000160: cfba 763d c2c6 493d 8f37 983d 1318 58bc
00000170: e86d 913d e863 85bd 4b5d 78bd d728 e53b
00000180: 766f 9fbd ba0d 9fbc dbc8 0a3c 8ca3 e9bc
00000190: 3d34 963a a2fc 883c a4c6 3dbc 935e a83d
000001a0: e096 b1bb 46f6 b9bc 5322 e9bb 24af 233d
000001b0: 5773 773d 85dd 22bd 78d5 52bd eee5 ac3c
000001c0: d423 823d 164d cbbc e6ab 32bd c7e3 95bd
000001d0: 9f11 77bd a94b 923c 728d 8abd 7bb7 3bbd
000001e0: 51db 3abc 5ea7 24bd 808d 4b3d 542f 22bd
000001f0: 9b48 ea3c 590f 5ebc 5190 67bd 18fd 82bd
00000200: 684a 143d d7ae 4dbc 51fd ae3c d906 8a3c
00000210: ef8d 073d 80e2 3bbb ca7b e23c 4bf9 7d3d
00000220: 5de9 0dbd 0a04 843c 29e9 79bd 857a 993d
00000230: a8a4 9abd 0ec4 a0bd 7d39 2e3d a045 84bd
00000240: 6b45 503d 73b0 cb3a 677b ad3d 7387 383b
00000250: 75b3 a3bd 9c91 7fbd 7b83 30bd c934 29bc
00000260: 3b27 fabc 979f f5bc 7f77 273d e919 33bd
00000270: 7edd e5bc 6277 44bc 459b 8dbc bc15 793d
00000280: a8da 60bd 8bdc 043c 4b14 42bd ee4a 81bd
00000290: de1f 92bd ca58 42bb a145 72bd 4606 823d
000002a0: a627 623c f4f0 b3bd d37c ca3c fc94 ac3d
000002b0: 5863 453d 8924 703d 155c d43c 777d 983d
000002c0: f82f 56bd efac 613c 6326 0d3c 3071 1fbd
000002d0: 7349 613d 2dbb 0dbd 851b 463d 94d0 ca3b
000002e0: b2b5 f83c 275e e4bb 0acf cbba 567f 5fbc
000002f0: ecd7 4fbd 6af5 adbd 9dd9 7c3d fa4e 91bd
00000300: 37b5 b03d 2698 aebb df10 643d 3d0e 9c3c
00000310: b4d1 0dbd c8e5 6d3d dd66 52bd 5dbd 9eba
00000320: 6595 333c ebea 473d 2530 89bd 8300 663d
00000330: 3e40 5dbd 937a b13d ffab 773d 80f6 293d
00000340: 1d07 a5bd 74b7 b8bc c30d 34bd 0c62 11ba
00000350: 72b0 333d c9ec 33bc 245e 313d 366e 963b
00000360: 8a3f a23c 02ce 853c b0b7 f43c 7fb0 a53d
00000370: 2d9c 663d 57a8 b43d 4e18 a1bd 911d 813d
00000380: 7d11 bd3c a5a2 603c c5b6 61bd ee8b f23b
00000390: 6140 33bd 4f25 6d3d 3b52 97bd c6c7 8cbd
000003a0: 5477 933d 1d67 cf3c 94bc d4bc 1aa0 3c3d
000003b0: cc28 303d 291f 38bd 9afc fe3c 38f4 ffbb
000003c0: 2e7b 933d 5e6e ea3c a4ee 013d f06f b73d
000003d0: afe4 133d 9c4b 103d 4f24 94bd 160e 903d
000003e0: 65ca 3fbd 0e86 6fbd 3264 9f3d a1ed fc3c
000003f0: 7984 a23d e8a6 1bbb 2673 36bd 7a23 82bc
0.00093116204 -0.054499697 -0.0015147263 -0.061216377 -0.07277065 -0.048414305 -0.014513603 0.05430628
-0.020353066 -0.06278017 -0.062403217 0.001360544 -0.002071102 -0.027151696 -0.012738002 0.052982885
0.023218114 0.050369225 -0.039173372 0.06629503 0.06175809 -0.085840486 -0.000590344 -0.06430262
-0.003433278 0.05281681 0.0652937 0.049709506 0.03433835 -0.061198384 -0.05927042 0.07203632
0.046278335 -0.0366913 0.0794516 -0.07427319 -0.05701517 0.07949588 0.01962715 -0.014458109
-0.04410412 0.08206833 -0.0065984973 -0.090253055 0.05067358 -0.064240135 -0.073160306 0.028955184
-0.08027219 -0.0012142421 0.041667394 -0.07955204 -0.06339676 0.019524995 -0.072098024 0.05148431
-0.009793532 -0.03287594 0.06794059 0.024407504 0.001212239 0.088014595 0.009614711 0.015720394
0.090634525 -0.030915905 -0.009566405 -0.06063658 -0.055606704 0.033769276 0.07434695 -0.013270811
-0.004627545 0.08650878 0.08379188 -0.065897144 0.02584973 -0.065129735 0.061444722 -0.016957544
-0.033684943 -0.04610097 0.07253686 -0.07006802 0.030643307 -0.020702146 0.049754407 0.048287228
0.06023675 0.049261816 0.07432472 -0.0131893335 0.07101041 -0.06513196 -0.060635846 0.006993394
-0.07784931 -0.019415725 0.008470739 -0.028520368 0.001145966 0.016722027 -0.011583004 0.082211636
-0.005419597 -0.02270044 -0.0071146875 0.03996195 0.06041273 -0.03976204 -0.05147311 0.021105733
0.0635449 -0.02481703 -0.043620966 -0.07318836 -0.06031954 0.017858343 -0.0676526 -0.045829277
-0.011404828 -0.040198676 0.04969549 -0.039595917 0.028599074 -0.013553464 -0.056534115 -0.0639593
0.03620377 -0.012553892 0.021361025 0.016848968 0.033094343 -0.002866894 0.027646918 0.062005322
-0.03464638 0.016115207 -0.061013374 0.07494072 -0.07550937 -0.078498945 0.042535294 -0.064585924
0.050847452 0.0015540257 0.08470803 0.0028156906 -0.07993213 -0.062394723 -0.04309414 -0.010327526
-0.030536285 -0.029983325 0.040885445 -0.04372588 -0.028059717 -0.011991354 -0.017285952 0.060811743
-0.054896027 0.008109222 -0.047382634 -0.0631312 -0.071349844 -0.0029654973 -0.059148435 0.06348853
0.013803398 -0.087861925 0.024717724 0.08426854 0.048190445 0.058628593 0.025922814 0.074458055
-0.05229184 0.013774141 0.008615109 -0.038926303 0.055001687 -0.034602333 0.04836609 0.006189415
0.030360077 -0.0069692316 -0.0015549373 -0.013641199 -0.05074303 -0.08494075 0.06173097 -0.07095142
0.08628314 -0.005328196 0.055680152 0.019049758 -0.034623817 0.058080465 -0.05136763 -0.0012110878
0.010960911 0.04880802 -0.06698636 0.05615283 -0.054016344 0.08665957 0.060466763 0.041494846
-0.080579974 -0.022548415 -0.043958437 -0.0005545921 0.043869443 -0.010981747 0.04330267 0.004590775
0.019805688 0.016333584 0.029872745 0.080903046 0.056301285 0.08821171 -0.07865964 0.063044675
0.023079628 0.0137106525 -0.055105943 0.007401935 -0.04376257 0.05789691 -0.07388731 -0.06874041
0.072004944 0.025317723 -0.025968827 0.046051122 0.043007657 -0.04495159 0.03112631 -0.0078110956
0.07201229 0.02861708 0.031721726 0.08956897 0.03610676 0.035228357 -0.07233488 0.07033937
-0.046823878 -0.058477454 0.077827826 0.030875029 0.079354234 -0.0023750607 -0.044543408 -0.015886057

projection_layer.0.bias f4 [128]
00000000: 302a 9c3d 574e a3bc e082 60bb a582 8b3d
00000010: 5ac8 383c 8f2e 333d 732d 023d d6a5 15bd
00000020: 97e4 d83c 1e8b fe3b 01f4 1fba f8bc 8a3c
00000030: 8672 9bbb 4b41 aabd 82bb 9bbd b2bc f33c
00000040: 1e08 563d a34c 83bd 562a 263d ae2c 533c
00000050: 7dde 953d bd9f af3c b3fc 51bd 13d3 51bd
00000060: 8cfb c7bc 4874 70bc 6cfd 1dbc 51d8 cf3b
00000070: 8f70 2e3d fa08 4b3c 393b db3c 8a33 253d
00000080: c2b8 9bbc a8db 47bd e1ac 893d 5d62 533c
00000090: 47a8 683d de6a bebb c594 7a3d d6eb c1bc
000000a0: b006 edb8 d942 7fbd ea90 f2bc f95b 263d
000000b0: 45e5 733d 6424 553d 5bd0 2e3d db0e 4ebd
000000c0: 4d71 8c3c 43db e6bc 3e39 3e3c cbd9 543c
000000d0: 7d98 62bd 3406 a63d 7882 98bc 9bc0 953d
000000e0: e0f1 473d 590b 9cbd 1121 7dbd 4852 8cbc
000000f0: a62c 69bd 8c40 313d 914e 2ebd d13b cdbb
00000100: 558e 463d b2f1 80bd c2d7 9ebd b6a2 95bb
00000110: e8af 973d e21c a53d 5db6 6fbd 073d 4abd
00000120: b1d3 8abd e299 9cbd a4c4 963c 9715 803d
00000130: 4ee4 9e3d f3ab c2ba 5fbd 4cbd 041c e9bc
00000140: 3d9d 2f3d 10b1 e4bb 465f cabc 7514 8c3d
00000150: c03c 45bd de75 73bd 86ce e8bb 6049 1bbd
00000160: d34a 96bb 73c6 30bd b440 57ba 53f2 83bd
00000170: c05e cd3c 1f28 973d 5221 d5bc 0b95 9c3d
00000180: 993e 603d 60bb e6bc b350 313d 6b91 5c3d
00000190: e3fe a53c ad77 c73b 7de3 2abd a709 bfbc
000001a0: 8d4a ca3c d163 fbbc 19a2 893d b1d2 863d
000001b0: 91c0 b737 ee85 fd3c 848d 91bd 1655 ef3c
000001c0: e705 8a3d 2aeb 8e3d a341 e03c 5635 84bc
000001d0: 8dd6 9a3d 9f6e 7e3d 8a6c 433d cfcd 1f3d
000001e0: 00a9 3ebd 4405 64bd 844e 5abd 180f 22bd
000001f0: f461 1ebd 2bd8 8c3b 780e 6a3c 832e a4bd
0.07625234 -0.019934816 -0.0034257695 0.06812028 0.011278236 0.043745574 0.031781625 -0.036535107
0.026476188 0.007768049 -0.0006101728 0.01693581 -0.004743877 -0.08313235 -0.07604124 0.029753063
0.052253835 -0.06411102 0.04056772 0.01288907 0.07317827 0.021438474 -0.051266383 -0.051226687
-0.02441194 -0.014676161 -0.00964294 0.0063429256 0.042587813 0.012392277 0.026761638 0.040332355
-0.019008998 -0.048793465 0.06722427 0.01290187 0.056801107 -0.0058110794 0.061177034 -0.023672026
-0.00011302286 -0.06231961 -0.029610116 0.040615056 0.05954482 0.052036658 0.042679172 -0.050307136
0.01714387 -0.028180724 0.011610327 0.012991379 -0.055321205 0.08106652 -0.0186169 0.07312127
0.048814654 -0.07619352 -0.061799113 -0.017129079 -0.056927346 0.043274447 -0.042555396 -0.006263234
0.048475582 -0.062961 -0.07755996 -0.004566516 0.07406598 0.080621496 -0.058523525 -0.049374606
-0.06778658 -0.07646538 0.018404312 0.06254118 0.077583894 -0.001485227 -0.049985286 -0.028455742
0.042874563 -0.0069791153 -0.024703633 0.06839839 -0.04815364 -0.05943858 -0.0071046976 -0.037911773
-0.0045865565 -0.043158006 -0.00082112406 -0.06442704 0.025069594 0.07380699 -0.026016865 0.07645615
0.054747198 -0.02816552 0.04328985 0.05384962 0.020263141 0.0060872645 -0.041720856 -0.023320032
0.024693752 -0.030687245 0.06720371 0.06583155 2.190497e-05 0.030947652 -0.0710707 0.029215377
0.06739407 0.06978448 0.027375048 -0.016138714 0.075604536 0.062117215 0.047710933 0.039014634
-0.04654789 -0.055669084 -0.053297535 -0.039565176 -0.038667634 0.00429823 0.014285676 -0.08016684

projection_layer.1.weight f4 [128]
00000000: 87c0 7f3f 8048 7f3f 7d40 7f3f c880 7f3f
00000010: 04da 7f3f 3805 803f 4d0a 803f e623 803f
00000020: 3535 7f3f b5f0 7f3f ba0d 803f 0424 7f3f
00000030: 8621 7f3f d9f2 7f3f 0956 7f3f 9b23 7f3f
00000040: f01c 803f d2c9 7f3f 9819 803f 7297 7f3f
00000050: 93d7 7f3f 0d24 803f fbd8 7f3f 210a 7f3f
00000060: 28ec 7f3f fc89 7f3f d71f 7f3f ad09 803f
00000070: 5018 803f 4bc5 7f3f d836 7f3f 39b1 7f3f
00000080: 3cd7 7f3f 14eb 7f3f 0804 7f3f 63d2 7f3f
00000090: 1a08 7f3f 690d 803f 3b1e 7f3f 5bad 7f3f
000000a0: 72d5 7f3f 0f70 7f3f 19a8 7f3f ab11 803f
000000b0: 43af 7f3f f756 803f 4c79 7f3f 05cb 7f3f
000000c0: 39a7 7f3f 0a39 7f3f 156c 7f3f 62e5 7f3f
000000d0: f07b 803f 7123 7f3f 0835 7f3f bdd1 7f3f
000000e0: 7a0d 7f3f 9e9e 7f3f ff62 7f3f b9fa 7f3f
000000f0: 351e 7f3f da7b 7f3f 6ce5 7f3f 731b 7f3f
00000100: 11d1 7f3f c141 803f d44f 7f3f 8545 7f3f
00000110: 71dd 7f3f 045e 7f3f 765b 7f3f dc5c 7f3f
00000120: b3e6 7f3f 1866 7f3f 37ad 7f3f 8269 803f
00000130: 13a2 7f3f 3322 803f 6c58 7f3f 60bc 7f3f
00000140: e8c5 7f3f 7efb 7f3f e203 7f3f 4d79 803f
00000150: 9aad 7f3f 8824 7f3f d7c7 7f3f ce39 803f
00000160: 4e75 7f3f 7ba5 7f3f e821 803f 224b 7f3f
00000170: 8c21 803f dd00 7f3f 2b97 7f3f ba7e 7f3f
00000180: e70b 7f3f 5b81 7f3f 5611 803f 620d 803f
00000190: 9c00 7f3f 2ab7 7f3f d2ea 7f3f 72c1 7f3f
000001a0: 1c08 7f3f 0b28 7f3f 6438 7f3f ed65 7f3f
000001b0: b209 803f cce5 7f3f ff1d 803f da62 7f3f
000001c0: d2ab 7f3f 262a 7f3f 260b 803f f187 7f3f
000001d0: 34d5 7f3f cb1c 7f3f 5e00 803f 342a 7f3f
000001e0: 9356 803f bb2b 7f3f 5d09 803f e007 7f3f
000001f0: 25f3 7f3f 6f21 803f 4a66 803f dd09 803f
0.9990315 0.9972 0.99707776 0.9980588 0.9994204 1.0001593 1.0003144 1.0010955
0.9969056 0.99976665 1.0004189 0.9966433 0.9966053 0.9997993 0.99740654 0.99663705
1.0008831 0.9991733 1.000781 0.9984046 0.99938315 1.0011002 0.9994046 0.9962483
0.9996972 0.9981992 0.9965796 1.0002953 1.000742 0.9991042 0.9969306 0.99879795
0.99937797 0.99968076 0.99615526 0.999304 0.99621737 1.0004092 0.99655503 0.99873894
0.99935067 0.9978036 0.9986587 1.0005392 0.99876803 1.002654 0.9979446 0.9991916
0.99864537 0.9969641 0.99774295 0.99959385 1.0037823 0.99663454 0.99690294 0.9992941
0.9962994 0.99851406 0.9976043 0.9999195 0.9965547 0.9979836 0.99959445 0.9965126
0.99928385 1.0020066 0.99731183 0.99715453 0.9994727 0.9975283 0.99748933 0.9975107
0.99961394 0.9976516 0.9987368 1.0032198 0.9985668 1.0010437 0.99744296 0.9989681
0.99911356 0.9999312 0.996153 1.0037018 0.9987427 0.9966512 0.99914306 1.001764
0.9978837 0.9986188 1.0010347 0.9972402 1.0010238 0.9961069 0.9984004 0.99802744
0.99627537 0.99806756 1.000529 1.0004084 0.99610305 0.9988886 0.9996768 0.9990455
0.9962175 0.99670476 0.9969542 0.997649 1.0002959 0.9996002 1.0009154 0.9976021
0.9987155 0.9967369 1.0003402 0.99816805 0.999347 0.9965331 1.0000112 0.9967377
1.002642 0.996761 1.0002857 0.9962139 0.99980384 1.0010203 1.0031216 1.000301

projection_layer.1.bias f4 [128]
00000000: 7787 d338 51c4 39bb cb87 31bb 5b25 78ba
00000010: b6ce 6eba 3eba 3bba fd6d b9b8 59c5 fd39
00000020: c680 db3a ddbd 96ba 00f0 abb9 4347 33bb
00000030: 1299 2bbb ad4d 473b e312 39bb eb06 55bb
00000040: 0795 af3a 722b 3abb c530 3bbb 1ed0 d2ba
00000050: 7051 bcb9 9002 123b 06e7 ce3a 25ff 80bb
00000060: 3e32 8f38 f48b 1dbb cd5a 3abb 1ec3 b839
00000070: c3b3 e5ba a6f6 28ba f133 4abb 6266 41ba
00000080: 8480 cc39 452b 61b9 41cd 82bb 0a77 bbba
00000090: f8ee 50bb d20e 9d39 1ff6 33bb 2575 73ba
000000a0: d3c2 5cbb 5c11 a8ba b476 193b e67d a3ba
000000b0: 3963 873a e3d8 bf3a 63c2 e3ba ebd5 b6ba
000000c0: ce81 9436 cab0 7fbb 9030 07bb 87c8 5ebb
000000d0: 2b38 423b fa8a 75bb 27ca 42bb a320 bf38
000000e0: cb5a 6abb 3e0b eeba ffbe 1cbb 606d c6b8
000000f0: 964a 24bb 4d2e 2abb 2eec cf3a 7ee8 50ba
00000100: 6868 2bbb 7a57 b23a 3f15 5cbb efce 31bb
00000110: 81a8 b8ba ff4c 803b 1296 0bbb 2eb8 0fbb
00000120: c510 6eba 9c45 65bb 5b83 1f39 d706 363b
00000130: 0122 e5b8 6430 8f3a e6f6 69ba e2bb a5ba
00000140: f073 3cba 8109 463b 80f4 80bb 2d02 3f3b
00000150: 6dcf 67ba 1626 54bb 5aca 5eba 2f61 2d3b
00000160: e114 c93a 4aec 57ba e582 2cb9 b34b 6abb
00000170: 9752 be3a 1390 f3ba 28b0 1fba 88c6 70ba
00000180: 9119 60bb 11ec b1ba b35d d43a 1315 7e3a
00000190: 3a09 76bb 7202 81ba 0aaa e0b9 140d bab9
000001a0: c30c 76bb 1394 71bb beb5 4dbb 55fe d1ba
000001b0: 8607 2bbb 2444 a2b7 3c98 013b bfa0 f8ba
000001c0: 7366 81bb 6564 5cbb 3961 bf38 d01b 08bb
000001d0: 0aef 7cba 3466 82bb cf90 a03a 737f 1ebb
000001e0: 160c 25bb 845c 62bb 634d 9dba 1426 7ebb
000001f0: bd2d 8338 5c68 6f3a 3dff 5e3b 8c84 dd39
0.00010086496 -0.0028345773 -0.0027088996 -0.00094660156 -0.0009109782 -0.0007161236 -8.841974e-05 0.00048402956
0.0016746751 -0.0011500675 -0.00032794476 -0.0027355708 -0.0026183766 0.0030411289 -0.0028240017 -0.0032505344
0.0013395854 -0.0028407243 -0.0028563004 -0.0016083752 -0.0003591883 0.002227936 0.0015785403 -0.0039366656
6.82813e-05 -0.0024039717 -0.002843547 0.00035240588 -0.0017524887 -0.0006445445 -0.0030853713 -0.0007377622
0.00039005664 -0.00021473791 -0.0039917533 -0.0014302444 -0.0031880718 0.00029956416 -0.0027459932 -0.000928717
-0.003368546 -0.0012822556 0.00234167 -0.0012473434 0.0010329253 0.0014636781 -0.0017376657 -0.001394925
4.425855e-06 -0.0039015287 -0.002062831 -0.0033994035 0.002963553 -0.003746687 -0.0029722543 9.113669e-05
-0.0035759683 -0.0018161309 -0.0023917553 -9.4617484e-05 -0.002506887 -0.0025967539 0.0015863234 -0.00079692143
-0.002615476 0.0013606392 -0.0033582 -0.0027131399 -0.0014088304 0.0039154286 -0.0021299166 -0.0021929848
-0.00090814783 -0.0034984117 0.00015212355 0.0027775073 -0.00010925905 0.0010924456 -0.00089250354 -0.0012644494
-0.0007188907 0.0030218067 -0.0039353967 0.0029145584 -0.00088428595 -0.0032371334 -0.00084987807 0.002645563
0.0015341305 -0.0008236809 -0.0001645196 -0.0035750687 0.0014520463 -0.0018582366 -0.0006091618 -0.0009184857
-0.0034194926 -0.0013574382 0.0016202241 0.00096924714 -0.003754212 -0.0009842648 -0.00042851298 -0.00035486429
-0.0037544228 -0.003686194 -0.0031388844 -0.0016021231 -0.0026097014 -1.9343635e-05 0.0019774577 -0.0018968805
-0.0039489805 -0.0033629176 9.125699e-05 -0.002076853 -0.00096486567 -0.0039794687 0.0012250188 -0.0024184852
-0.0025184206 -0.0034540007 -0.0012001212 -0.003878002 6.255086e-05 0.0009132677 0.0034026646 0.0004225116

projection_layer.1.running_mean f4 [128]
00000000: 65b2 a3ba 734c 95bc 087a 51bd 3297 02bc
00000010: e3e6 9bbc 066d 81bc 80fb 3d3d fd12 353b
00000020: ad9e 2cba 77de 10bd 4263 25bc a5a9 c73a
00000030: a123 12bc e563 dbbc 212f a1bc 0253 22bd
00000040: 695f 3e3d 1c65 71bc 2451 ba3c bbde 0cbd
00000050: 9a7b 8d3c 292a 38bd 789f 28bc 89ec a4bb
00000060: c159 6a3c 5db4 603c 79ad d73c e664 273d
00000070: a2a0 713c ed73 72bc 5d4d 063d 172f d73b
00000080: a5f7 26ba 8295 c13c 7405 2d3c 31de bd3c
00000090: 04f9 6f3c 6862 c73a 5cea 02bd 2237 053b
000000a0: 8002 d4bc 6bdc 80bd 561a 333c a82a 76bc
000000b0: c57d 9fba 69cd 753c bc24 0abc eb56 bebb
000000c0: 09db 1c3a 26ba 5dbb 0a72 f9bc 602a 3a3d
000000d0: 3bf9 8dbc cea8 ab3c d3d3 703c e32a e33b
000000e0: 1795 b7bb 4629 3fbd 7883 b83b 30d6 733c
000000f0: 01fb cd3a 5c40 d63c b19c 75bb c6b5 d6bc
00000100: 1347 243d 9e62 debc 03fc 90bc 3e90 1f3d
00000110: 328f 81bc 9af4 5f3d a1fb f4bc eba2 383b
00000120: 9c9d 8d3b e2f5 88bd bfb8 abbc 5c5d f53c
00000130: f3f7 223d 6886 03bd c622 c0bb 79a3 22bd
00000140: 2184 8fbb a0a5 27bc 7947 c93c e832 da3b
00000150: d8b5 74bd 260f b2ba aca8 a2bc 8703 04bc
00000160: 0940 bf3c 5058 b4bc 2328 4fbb 3649 c8bc
00000170: 701f bb3c 4d1e 1b3d d9a6 a5bc 64aa c03d
00000180: f9fb 953b e39c 09bc 5419 403c dd73 ac3c
00000190: a1ca abbc 3861 97bc 8fa1 d6bb f6c5 a03b
000001a0: b0e2 5b3d ffab abbb 90fb d43c b93b 893c
000001b0: b788 ea3c 9d95 c13c 29b2 2dbc cd8e 753d
000001c0: 304f 153d d3d0 a73c 1d2a 853b 3eaa 73bd
000001d0: c157 473c b92e 4a3d a1e7 f13a d78c 2c3c
000001e0: da45 5cbd 6a91 35bc d753 9cbd 4834 4b3b
000001f0: 171c 4fbc 9bbd da3b 14d9 283c cc2d fa3b
-0.0012489079 -0.01822493 -0.05114177 -0.007970618 -0.019030994 -0.015799057 0.046382427 0.0027629726
-0.0006584924 -0.03536841 -0.010094466 0.0015233053 -0.008919627 -0.026781032 -0.019675793 -0.039629944
0.04647771 -0.014733579 0.022743769 -0.0343921 0.017270852 -0.044962082 -0.010291927 -0.00503308
0.014303626 0.013714877 0.026327835 0.04086771 0.0147477705 -0.014798147 0.032788623 0.006566893
-0.00063692994 0.023630861 0.010560382 0.023177238 0.014646772 0.0015211822 -0.031961784 0.0020327051
-0.025880098 -0.062920414 0.010931572 -0.0150248185 -0.001216822 0.015002587 -0.00843161 -0.0058087013
0.00059835665 -0.0033832877 -0.030449886 0.04545057 -0.017330756 0.020954516 0.01469894 0.0069326027
-0.0056024897 -0.04667022 0.0056309067 0.014882609 0.0015715064 0.026153736 -0.0037477429 -0.026209723
0.040106844 -0.027146634 -0.017698294 0.03895592 -0.015815351 0.05467663 -0.029905142 0.0028173279
0.004321767 -0.066875234 -0.020962117 0.029951744 0.039787244 -0.0321106 -0.0058635203 -0.03970668
-0.0043797647 -0.010232359 0.024570214 0.0066589005 -0.059743732 -0.0013584837 -0.01985582 -0.008057482
0.023345964 -0.022014767 -0.0031609617 -0.024448972 0.022842139 0.037870694 -0.02022116 0.094074994
0.0045771566 -0.008399221 0.011724789 0.021051342 -0.020970644 -0.018478975 -0.006550021 0.0049064113
0.053682983 -0.0052390094 0.02599886 0.01675211 0.028629644 0.023630911 -0.010601559 0.05995064
0.036452472 0.020485317 0.004063858 -0.059488527 0.012166918 0.049360964 0.0018455872 0.010531626
-0.053777553 -0.011082033 -0.07633179 0.0031006504 -0.0126409745 0.0066754348 0.010305662 0.007634854

projection_layer.1.running_var f4 [128]
00000000: 47eb 313f 36b8 373f 15e7 2c3f b358 303f
00000010: 1c52 363f aeba 2f3f dfa7 2f3f 4072 323f
00000020: 4b2d 343f 9be1 303f 9953 303f 5c0b 303f
00000030: 84a5 313f bc03 323f 2228 353f b6cf 303f
00000040: f94a 2e3f 61fa 2f3f 354c 353f b7df 2e3f
00000050: d403 313f 6b0e 333f bf37 2f3f e02c 2e3f
00000060: 27d8 313f 44d5 333f ad37 333f 7590 2f3f
00000070: 4003 333f 081e 2d3f a26f 313f 07de 2d3f
00000080: e9e1 2e3f c947 323f 2f4b 3c3f 394c 313f
00000090: 2138 323f dd76 323f bff4 303f 329c 333f
000000a0: a42c 313f 95a9 2e3f fca4 343f 308c 333f
000000b0: 87a3 2d3f d281 313f 6e68 2d3f 0292 3f3f
000000c0: 3cf2 2e3f bdbf 323f 6e09 2d3f c575 343f
000000d0: 33ec 333f b400 313f a4ac 323f 9443 323f
000000e0: d618 343f 37e1 323f 2cd8 2c3f 02f6 2f3f
000000f0: ef61 343f 50f5 2d3f 4e56 313f 5ffe 2f3f
00000100: 47b4 323f d79a 333f eb69 333f af6c 2f3f
00000110: 2f0c 2e3f e91a 363f 8071 323f 8b79 343f
00000120: 5622 2e3f 26f3 313f 31e7 323f aaa5 303f
00000130: 2874 323f e50a 3b3f 6608 323f 6a86 2f3f
00000140: def4 333f fd08 313f 9e46 323f f40b 313f
00000150: 17ee 2f3f 13b9 2d3f 0eac 353f ce6f 313f
00000160: 2b02 2e3f 0a2b 303f 12de 333f b18d 303f
00000170: e1b1 323f bc2c 313f 14bb 303f 05ef 353f
00000180: e178 323f 6575 2e3f fb84 2e3f 99df 2e3f
00000190: 0312 313f 0ea3 343f 805c 2f3f faf4 313f
000001a0: ec6d 303f e374 2f3f ad71 303f 1cdc 323f
000001b0: f130 333f 7516 2f3f 38ca 333f e42e 363f
000001c0: a637 303f b59e 2e3f c312 303f 713d 333f
000001d0: d5b2 353f 123f 343f 1da1 2f3f 4176 323f
000001e0: de22 343f 5b71 2e3f 342d 323f d007 343f
000001f0: 1cd3 2e3f 706e 2f3f 4f39 2b3f 635e 343f
0.6949963 0.7176546 0.67540103 0.68885344 0.7121904 0.68644226 0.68615526 0.6970558
0.7038161 0.69094247 0.6887756 0.68767333 0.6939318 0.6953695 0.7076436 0.6906694
0.6808315 0.6874142 0.7081941 0.6831011 0.69146466 0.69943875 0.68444437 0.68037224
0.6947045 0.7024729 0.7000683 0.685798 0.69926834 0.6762395 0.69310963 0.6791691
0.6831346 0.69640785 0.7355222 0.6925693 0.69616896 0.6971262 0.6912345 0.7016021
0.6920874 0.6822751 0.70564246 0.70135784 0.6782765 0.69338715 0.6773747 0.74832165
0.6833837 0.6982382 0.67592514 0.704922 0.70282286 0.691417 0.6979468 0.69634366
0.70350397 0.698749 0.6751735 0.68734753 0.70461935 0.6795244 0.69272316 0.68747514
0.6980633 0.7015814 0.70083493 0.68525213 0.6798734 0.7113481 0.6970444 0.7049796
0.6802114 0.6951164 0.6988402 0.69002783 0.6970849 0.730635 0.69544065 0.68564475
0.7029551 0.6915434 0.69639003 0.69158864 0.6872267 0.67860526 0.7096566 0.69311225
0.6797206 0.6881567 0.7026073 0.68966204 0.6980267 0.69208884 0.6903546 0.7106784
0.69715697 0.6814788 0.6817166 0.6830993 0.6916811 0.705613 0.6850052 0.6951443
0.6891773 0.6853773 0.68923455 0.6986711 0.69996554 0.6839364 0.70230436 0.711653
0.6883491 0.6821092 0.6877863 0.7001563 0.70976 0.7040874 0.68605214 0.6971169
0.70365703 0.68141717 0.69600224 0.7032442 0.6829088 0.6852789 0.6688432 0.7045652

projection_layer.4.weight f4 [128, 128]
00000000: 2ac9 d8ba b6d8 5f3c e278 5cbd 1d9f 633d
00000010: bc2c 80bc eaa8 1f3d 687c 6c3c df32 0bbd
00000020: c72b 6cbd 62f9 493c 6c3a 7c3d d9a2 ba3b
00000030: 4588 6bbd 4fa9 443d e38b 513d 2356 8abd
00000040: 0e97 d93c 0f19 55bd 2412 473c ac99 5aba
00000050: 0cc7 64bc 97bd 21bd a1a7 a0bd 88bc 29bc
00000060: f93b a53c 5d92 113d a564 9dbd 682b 153c
00000070: 2e2f 5e3d c6b2 313c 5bac 57bd 15e9 3a3c
00000080: 1b54 6bbd 7b95 63bd 4b6c 973d 6594 4a3d
00000090: 43e8 3cbd dbe8 9f3d 55c4 043d fea4 723d
000000a0: 10bb 5d3d 83ed 973d f94b 8fbd c0f7 a23c
000000b0: 3971 48bc 4a7d a13d c21a a83d 0375 073b
000000c0: f9d3 8ebd 4b20 c1bb 9029 ac3d 9316 5c3d
000000d0: b129 b93c 1047 59bd 0104 833c d465 b1bd
000000e0: ac88 893c e78e 3b3d e1e0 92bd be00 9bbd
000000f0: 0a45 b23d e003 83bd dc57 ab3d 6a04 a43d
00000100: 1a1d 9fbd 758f 7abd 0ae8 843d 9304 a83d
00000110: 1c5c 8c3d 653c 9ebd 80b2 95bd 50b2 55bc
00000120: 2178 3fb9 19f6 9fbc f991 9cbc 6dd3 e63c
00000130: 9bb3 083c 1959 50bd 608f 913d 07c3 a43c
00000140: f0e9 813b 0d7d 2d3c 1b4f dcbc 244b 5abd
00000150: 2246 7dbb f032 8fbc 1e6c 14bd 7eaf 513d
00000160: 6430 b1bc 3b96 6b3c d92a 0a3d dfde 81bd
00000170: 3af9 6f3c dd4c 4f3d f797 a63d d81e 9ebd
00000180: 857a 6c3d 5736 743c a0c8 76bd 48a4 82bc
00000190: 519d 7f3d 7319 2abb d14a 39bd fc28 afbc
000001a0: 7083 3abd b732 743d 74cd 5b3c 0a53 abba
000001b0: 0e13 3f3c f304 833d 0822 61bd 269d 8f3d
000001c0: 473a 95bd e70c aa3d 7218 14bd 552b 733d
000001d0: ba5a 31bd aced 7fbd f9c6 5d3d a5f7 a93d
000001e0: df0f 65bd 2ac0 9fbd 3e1e 403d 950f cdbb
000001f0: eaa7 c5bc 2707 88bd 1d13 423d 8fb3 5ebd
00000200: ce92 3f3d 27ca 46bd 0e85 23bc 00d8 c9bc
00000210: 06f4 77bd a22a 7cbc 9b55 703a 879e 433c
00000220: d968 9c3d 04b2 963c 84bd adbc 9733 8abd
00000230: 8d20 47bd cf4b 9bbd 081b 483d 0ed9 893d
00000240: 8c04 aa3d 7043 3fbd dba5 97bb a32e 73bc
00000250: 20c8 ae3d 7556 e6bc c991 89bc 1a60 b8bc
00000260: 2f36 883d 8109 38bd e11c 1dbd ddb5 dcbc
00000270: af57 9e3d d8d7 07bd 1a48 8a3d 376e a33d
00000280: fd57 a1bd 023d d1ba b415 503d 83c7 303d
00000290: 2069 393d 6640 b23c e555 cd3c ceca 1b3c
000002a0: 9ced 5b3c 218a 4dbb 6360 7bbd 2c28 91bc
000002b0: ec0a 0abd f1ef 8cbd 2103 1bbd c86b f8bc
000002c0: 78ab 3d3c fab5 993c 9871 433d 35e4 b23b
000002d0: 4356 833d 986d 1cbb e63b 453d b7a9 5abc
000002e0: 045e b7bd 6c6b 843d f5a3 863a 32f7 133b
000002f0: 3fe3 963d 2c86 36bd 4793 30bd 229d 8bbd
00000300: cb99 f7bc 6506 283a ec08 393d 30d9 3f3d
00000310: d711 0bbd d30c ab3d 8e35 9c3d 8900 47bd
00000320: f4b3 2f3c 20f6 ce3c 73f3 70bd eb5e 3fbd
00000330: 5443 8cbd b14a 65bd b560 813d 3276 4b3d
00000340: 3127 733d 7128 503d 3124 513d 6db5 743d
00000350: 931e c9bc ab43 c6b9 c143 abbd 84c6 7ebd
00000360: 9d17 833d 95f7 a03d ba00 ff3b d69b 5f3d
00000370: af79 ee3c 00bc 02bc 5050 193d ebb5 b7bd
00000380: 0dc6 643a d6ac a23d 2ad4 c23b 4a84 71bc
00000390: 5ebe 8f3d f031 2c3d e6ed 723d 7d7a 30bd
000003a0: 098d 85bb bf40 af3d 4961 163d 4ae9 cd3c
000003b0: 8de7 193d 0b4e 823c c06a fe3c b342 0dbd
000003c0: 64a3 7d3d b76f e13c 19cb 713b 4adb a73c
000003d0: f491 6abd 4675 023d 0f94 22bd 0bc2 1b3d
000003e0: bc05 51bd aa57 01bd 67ad 283d ae3b fb3c
000003f0: 582d 10bd 8367 7cbd 7d5d bc3c b522 9b3c
-0.0016539444 0.013662508 -0.05382622 0.055571664 -0.015646331 0.03897945 0.014433958 -0.03398406
-0.057658937 0.012327524 0.061579153 0.0056956825 -0.057503004 0.048013028 0.051158797 -0.067547105
0.026561286 -0.05202585 0.012150321 -0.0008338939 -0.013963472 -0.039487448 -0.07844473 -0.010359891
0.020170199 0.035539974 -0.07685212 0.009104587 0.054244213 0.010845846 -0.052654605 0.01140811
-0.057453256 -0.055562478 0.07393702 0.049457926 -0.04611994 0.078080855 0.0324138 0.05923938
0.054133475 0.07418349 -0.069969125 0.019893527 -0.012234026 0.07885225 0.08208229 0.002066911
-0.06974024 -0.005893742 0.08406365 0.053732466 0.022602888 -0.053046286 0.01599312 -0.08662
0.016788803 0.04579058 -0.071717985 -0.07568501 0.087045744 -0.063972235 0.08366367 0.080086544
-0.077692226 -0.061171968 0.064895704 0.082039975 0.06853506 -0.07726363 -0.07309437 -0.013043001
-0.00018259931 -0.019526528 -0.019112574 0.028176988 0.0083436025 -0.05086622 0.07107425 0.020112528
0.003964655 0.010588896 -0.02689319 -0.053294316 -0.0038646539 -0.017480344 -0.03623592 0.051192753
-0.02162952 0.014379079 0.03373227 -0.063413374 0.014646823 0.050610412 0.08134454 -0.07720727
0.05773403 0.014905534 -0.060249925 -0.015947476 0.062405888 -0.002595511 -0.045237366 -0.021381848
-0.045535505 0.059618678 0.013415683 -0.0013071012 0.011662258 0.06397428 -0.054964095 0.070123956
-0.07286506 0.08303242 -0.036156125 0.059367497 -0.043299414 -0.06248252 0.054144833 0.082991876
-0.05592334 -0.07800324 0.04690384 -0.006257961 -0.02412792 -0.06641989 0.04738151 -0.05437046
0.046770863 -0.04853263 -0.009980453 -0.02463913 -0.060535453 -0.015391024 0.00091680296 0.011939651
0.076371856 0.018395431 -0.021208532 -0.06748121 -0.048615027 -0.07582819 0.048853904 0.06730853
0.083016485 -0.046695173 -0.004627926 -0.014842662 0.085342646 -0.028117398 -0.016793149 -0.022506762
0.0665096 -0.04493094 -0.03835762 -0.026942188 0.07731568 -0.03316483 0.067520335 0.07980006
-0.078781106 -0.0015963616 0.050801948 0.04315902 0.04526627 0.021759223 0.025065372 0.009508802
0.01342335 -0.0031362849 -0.06137122 -0.01771935 -0.033701822 -0.06881703 -0.03784478 -0.030324832
0.011576526 0.018763531 0.047715753 0.0054593333 0.064129375 -0.0023869034 0.048152827 -0.013346127
-0.08953479 0.064658016 0.0010272252 0.002257776 0.073675625 -0.04456155 -0.043109205 -0.0681708
-0.030224701 0.0006409644 0.045174524 0.046837986 -0.03395256 0.083520554 0.07627402 -0.048584495
0.0107240565 0.025263846 -0.05882592 -0.04672138 -0.06848779 -0.055979434 0.063172735 0.049673267
0.059363548 0.050819818 0.051059905 0.059743334 -0.024550712 -0.0003781592 -0.083625324 -0.062201038
0.06400988 0.078597225 0.007782069 0.054591976 0.029110758 -0.007979393 0.037430108 -0.08970245
0.00087270216 0.07943122 0.005945702 -0.014741013 0.070187315 0.04203981 0.05930891 -0.043085564
-0.0040756506 0.08557271 0.036713872 0.025135655 0.03757434 0.015906354 0.031056762 -0.034487437
0.0619234 0.02751909 0.0036894737 0.020490307 -0.057268098 0.031850122 -0.03969198 0.03802685
-0.05103086 -0.031577744 0.041180994 0.030668106 -0.035199493 -0.061622154 0.022993797 0.018937448

projection_layer.4.bias f4 [128]
00000000: 3a42 5b3d 3459 0bbb 779e adbd f0d3 c8bb
00000010: f266 21bc 1574 59bd ee39 3b3b 3b53 e9bb
00000020: a2df a7bc 8633 9fbd 5c8c 8d3d 72c3 293d
00000030: fde6 cb3c a985 85bd a1cc db3c c937 00bc
00000040: f401 973d 5b2f 88bd 8cb3 843b f520 de3c
00000050: 4282 91bc da4f 633d 92f0 a8bc eba5 eebc
00000060: 7800 52bd 1499 203d 9ba5 9b3c 4707 9abd
00000070: 38be 7bbd bf13 a9bd 30f6 40b9 33e3 8b3c
00000080: f042 aebd 736e 10bd 4678 d53c 7e2f a0bd
00000090: 8451 3a3c 9078 1abd 76e6 17bd 989f f4bb
000000a0: a627 163d f87e 95bd b346 31bc 3edc 4bbd
000000b0: 5349 34bd 9b0e 9f3d 0f77 a5bd 7a81 39bd
000000c0: 0cd2 afbd ff0a e5bc 0c50 92bc 1e64 6d3d
000000d0: de89 82bd a7a0 b9bc 4793 91bd 367f 393c
000000e0: 9de2 a23d dabd 82bc eba8 9b3b 53e5 56bc
000000f0: a02e b5bd 2588 dd3c 2a35 9f3d 2f52 5c3d
00000100: eb5e cebc 3f7d 913b 097b 03bd b090 afbd
00000110: cdd6 1bbd bdb1 95bd 37d9 ac3c cf49 8bbd
00000120: a71f 863c 79d4 473d aed1 01bd 7f0f 00bd
00000130: b06d 883a 18b1 35bd c4c5 06bc 2588 c33c
00000140: 3b98 93bd 61e7 9d3b b47c 71bd a906 10bd
00000150: 4d9b af3d a060 803d a56c 563d 81eb ae3d
00000160: 8aa8 a33d 5bc3 56bd 7ff9 863d aea3 0bbd
00000170: 547c 30bd f91b 1fbd 6d7d 523d 7501 00bd
00000180: 7416 803d 7e1f ab3d a83e 7dbc 49b0 43bd
00000190: 6902 3fbb ab78 aabc a455 8dbd 355a 26bc
000001a0: a8e2 0bbd 798b 31bd b9f3 3cbd b5bb 1e3d
000001b0: 0b65 3f3d ece3 983d 519c 14bc 37e9 4c3d
000001c0: a74d 983d 412e 7e3d 5c32 2c3c f799 da3c
000001d0: 97b8 c43a 77fa aa3c 13f1 3cbc e69e 883d
000001e0: c008 8bbc 76f3 1b3d f8c8 e23c 1fd8 99bd
000001f0: 482e fabc 7efc 39bd ee67 8e3d ce3e 64bd
0.053529955 -0.0021262886 -0.084774904 -0.0061287805 -0.009851204 -0.05308922 0.0028568464 -0.0071205175
-0.020492379 -0.07773499 0.06911537 0.041446157 0.024890417 -0.06519634 0.026830973 -0.0078258
0.073734194 -0.06649657 0.004049724 0.027115325 -0.017762307 0.055496074 -0.020622525 -0.02913185
-0.05126998 0.039208487 0.018999865 -0.07520919 -0.061460704 -0.082557194 -0.00018402259 0.01707611
-0.08508861 -0.035261583 0.026058327 -0.078215584 0.011371974 -0.037712634 -0.03708502 -0.007465314
0.036658905 -0.07299608 -0.010820079 -0.049770586 -0.04401524 0.07766458 -0.08079349 -0.045289494
-0.08584985 -0.027959345 -0.017860435 0.057956807 -0.06373952 -0.022659613 -0.07108169 0.011321833
0.07953379 -0.015959669 0.004750361 -0.013116199 -0.08846784 0.027042458 0.07773812 0.053789314
-0.025191745 0.0044399793 -0.032099757 -0.08572519 -0.038046647 -0.073092915 0.02109967 -0.06801187
0.016372515 0.048786614 -0.031694107 -0.03126478 0.0010408666 -0.044358343 -0.008225862 0.02386863
-0.0720677 0.0048188423 -0.058956817 -0.0351626 0.08574543 0.0626843 0.052349705 0.085410126
0.07991131 -0.0524324 0.06590556 -0.034091644 -0.04308732 -0.038845036 0.051389147 -0.03125139
0.062542826 0.08355616 -0.015456833 -0.04777554 -0.0029145724 -0.020809492 -0.069011 -0.010153343
-0.034151703 -0.043345902 -0.04613087 0.03875323 0.04672722 0.07465348 -0.009070472 0.0500271
0.07436686 0.06205583 0.0105100535 0.026684744 0.0015008625 0.020871384 -0.011532086 0.066709325
-0.016971946 0.03807398 0.02768372 -0.07511925 -0.030539647 -0.04540681 0.06953417 -0.055723958

output_layer.weight f4 [1, 128]
00000000: 344f 2ebb 7c06 4cbd b266 1d3d 1535 1ebc
00000010: 6e01 95bd fd52 d73b 0f23 62bc 51c5 943d
00000020: a0a2 a63d 44dc 553c 4454 abbd 1eea 6e3d
00000030: cbe3 b13d 7113 303c bdde d1bb e131 aabc
00000040: 1bda febb f9fd 3f3c 5d6e a8bd 248a 32bd
00000050: 6a5e 13bc 4e8a 27bd c1d0 933d 93bb fabc
00000060: ee41 013c f338 823c 0c47 53bc fd60 593b
00000070: 354e 0a3d ddd6 58bd 6e6a 00bd 0430 3abd
00000080: fa93 123d adb7 683d 30b9 963d 880c be3c
00000090: 4caa 823d c576 9c3d 9cf6 cebc b3c6 a3bd
000000a0: 2e84 b03d a5c7 c43b 8bcc 7cbd 556b 1fbd
000000b0: 8fc2 cdbc 1f64 003b ea7f 9dbd a4f0 81bd
000000c0: 5ea5 113c 4d15 fd3b 3b18 85bd dc3d 663b
000000d0: ef26 9dbc b813 90bd 1cf4 9d3d 4690 253c
000000e0: c787 933b b329 c03c b6eb b3bc b16a a4bd
000000f0: 2d60 37bd 20aa 613d 541e fbbb 55fe 983c
00000100: 1bce 9fbd 9dc5 e5bb 362b 493d 683e 2fbd
00000110: 2f70 763d 63c5 bdbc 8767 893d 9a2b 923d
00000120: d0ac 313d 6f4f 893d 59d1 d33c 7cd0 063c
00000130: 3370 14bd fa6c a83d 4f83 fa3c 74f3 633c
00000140: 2b6e 333d b9dd 813d c0c1 aabc 5182 08bd
00000150: 1a67 8cbd a1fb 823d 4f66 96bd 294d 3e3d
00000160: a6d9 01bd cf71 57bd 6d57 13bd 782f a6bd
00000170: e2f7 7abd da35 683d 43f8 863d 40d5 0d3c
00000180: 9c03 a2bc 92a7 bebb 06b5 aabd 84f6 8a3d
00000190: 2341 a83c 6f3b 313d 294b 913d 2777 25bd
000001a0: e14c 4d3c 7177 febc 975c 88bc 2323 35bd
000001b0: 5665 7d3d 912c 523c 7cac 373d a0ab 52bd
000001c0: aa2f a8bd ace0 74bd fa2d 0e3d bf78 14bd
000001d0: eb37 843d 9142 9dbc 58d0 e3bc 8730 613d
000001e0: 3b72 deba f8c7 763d c404 1abd 1cb1 5a3c
000001f0: 6b58 5dbc 6dcf 7e3d ba3d 28bd 581d 063d
-0.0026597502 -0.04981087 0.038428016 -0.00965621 -0.07275663 0.0065711723 -0.013802304 0.072641976
0.08136487 0.013053004 -0.08365682 0.05832874 0.08686026 0.010746823 -0.0064047263 -0.020775737
-0.007777465 0.011718267 -0.08224175 -0.043588772 -0.008994678 -0.040903382 0.07217551 -0.03060702
0.007889254 0.015896296 -0.012895357 0.0033169382 0.03376599 -0.052939285 -0.0313515 -0.045455948
0.035785653 0.056815792 0.073595405 0.023199335 0.06380138 0.07639841 -0.025264077 -0.07996883
0.08618961 0.006005245 -0.061718505 -0.03892072 -0.025117187 0.0019590927 -0.07690413 -0.06344727
0.008889524 0.0077234865 -0.06498762 0.0035132086 -0.019183604 -0.07035011 0.07712576 0.010105198
0.00450227 0.023457384 -0.021962982 -0.08028162 -0.044769455 0.055093884 -0.0076635275 0.018675962
-0.078029834 -0.0070120827 0.049113475 -0.042784125 0.06016558 -0.02316541 0.067091994 0.071372226
0.043377697 0.06704604 0.02585666 0.0082284175 -0.036239814 0.08223911 0.030580191 0.013913024
0.043806236 0.06341118 -0.02084434 -0.033327404 -0.068556026 0.06395651 -0.073437326 0.046460304
-0.031701706 -0.05259877 -0.035972048 -0.08114523 -0.061271556 0.05669198 0.06590321 0.0086568
-0.019777112 -0.005818316 -0.08335309 0.067853004 0.020538872 0.04326957 0.07094414 -0.040396836
0.012530536 -0.031062813 -0.016645713 -0.044222962 0.06186422 0.012828008 0.04484223 -0.051433206
-0.08212216 -0.059784576 0.034711815 -0.036247965 0.06455978 -0.01919678 -0.027809307 0.05497792
-0.0016971299 0.0602493 -0.0376022 0.01334789 -0.01350985 0.062209535 -0.041074492 0.032742828
