Checkpoints/HR_V/valence_s12.pth (torch, 461905 bytes, 29 tensors)

input_layer.weight f4 [128, 29]
000000 89 a3 31 be 0f 73 35 be 4c dc b5 bd 16 3c 05 be
       -0.1734754 -0.17719673 -0.08879909 -0.13011202
000010 e5 2d 83 3d 8e f5 c0 3d fa 4d 61 3d 7a b9 ec 3c
       0.06405238 0.09421836 0.055006005 0.028897036
000020 fa 3b da bc 7d 29 8b 3c 44 70 d5 3d 3f 3f 15 be
       -0.026639927 0.016987557 0.104218036 -0.14574908
000030 8e be 3b bd 5e 36 4b 3d 97 72 c3 3d ae 98 55 bb
       -0.045836024 0.049612395 0.09543341 -0.0032592225
000040 d9 4f 67 bd fd 1f 1e be e2 4b 30 be 11 3b 0e bb
       -0.056472633 -0.1544189 -0.17216447 -0.0021702687
000050 98 ec 28 be 1a f1 02 bd 9f c2 82 3d f3 52 bb bd
       -0.16496503 -0.031968214 0.06384777 -0.09146681
000060 92 3f c7 3d e0 eb 13 be d7 01 84 3d c2 1e f6 bd
       0.09728922 -0.14445448 0.064456634 -0.12017585
000070 4c b6 02 3e 6d d5 7f 3d 73 b8 3c be 3b 05 70 3c
       0.12764853 0.062459398 -0.18429737 0.014649685
000080 94 78 34 3d 3f a3 c2 bd 47 fc 60 3d 8a 92 2c 3e
       0.044060305 -0.09503793 0.05492809 0.16852775
000090 57 76 b9 bc 90 56 b2 3c 29 af ee bd 63 4e 56 3c
       -0.022639437 0.021769792 -0.11654503 0.013080212
0000a0 ce 7e aa 3b 76 80 0f be 3e 22 84 bd 0c 10 01 3d
       0.0052031046 -0.14013848 -0.06451844 0.031509444
0000b0 cc ff 38 3d 30 13 2e be a7 8f 90 bc fa d8 31 3e
       0.045165822 -0.16999507 -0.017646624 0.17367926
0000c0 04 ca 9a bd 72 8d e5 bc ab a2 b9 3d 3f af 36 be
       -0.07558063 -0.028021548 0.090642296 -0.17840289
0000d0 d9 d0 22 be e4 40 0a 3e 63 ab 25 be c6 c1 3c 3e
       -0.15899982 0.13501316 -0.1617866 0.18433294
0000e0 7c a1 31 3c 2d da d5 3d 74 36 e9 3d 8f 32 af 3d
       0.0108417235 0.10442004 0.11387339 0.08554565
0000f0 79 ea fb 3d ee f4 6e 3d d9 45 7a 3c f4 dd d4 3d
       0.123005815 0.058339052 0.015275442 0.10393897
000100 96 2a 36 be 6e 70 2c 3e f2 08 81 3d fe e1 84 3c
       -0.17789683 0.16839764 0.06300534 0.016221043
000110 b7 b1 30 be d3 9f 07 be d2 eb 2a be c0 23 3a 3e
       -0.17255293 -0.13244562 -0.16691521 0.181777
000120 b7 5c 2f 3e d8 25 31 3e e8 9c 2b 3e a7 00 82 bc
       0.17125212 0.17299592 0.16759074 -0.015869452
000130 ce 87 e9 3d 26 ca d9 bd 9b b0 17 3e 05 28 37 3d
       0.11402856 -0.1063426 0.14813463 0.0447159
000140 f1 19 f4 bd 81 e0 72 3c f4 a4 d6 bc a8 27 e9 3d
       -0.119190104 0.014824034 -0.026201703 0.11384517
000150 4d b4 4d 3d 1d 8d c8 3d b4 d7 da 3c d0 79 80 3d
       0.050220776 0.0979254 0.026714183 0.06273234
000160 b2 32 98 3d eb 65 97 bd 8a 00 a4 3d 19 c3 0b 3d
       0.07431544 -0.07392486 0.08007915 0.034121606
000170 33 28 ce 3d db c6 fa 3d c4 5c 4b bd 82 c5 f9 3d
       0.10066261 0.1224496 -0.049649015 0.12195875
000180 62 15 de bc 4f 92 1e 3d d3 93 5f 3c c6 03 15 3e
       -0.027109805 0.03871375 0.013646084 0.1455222
000190 cb f4 0b be 7f 7e 8f 3d 02 04 8f bc 7a 78 97 bd
       -0.136676 0.07006549 -0.017457966 -0.07396026
0001a0 01 90 c8 3c f1 0f 9d 3d 85 c4 4d bd d1 1e d0 bd
       0.024482729 0.07669056 -0.050236244 -0.10162128
0001b0 52 74 17 3d d2 92 81 3d b2 1c 2f 3c 39 d1 39 bd
       0.036976166 0.06326832 0.010687994 -0.045365546
0001c0 e8 68 82 ba 9a 7f 5b 3d c1 f6 14 3e 45 35 39 3e
       -0.0009949477 0.053588487 0.14547254 0.18086727
0001d0 e8 ab 01 3e f8 66 06 be b7 c0 23 3e 9c ff 00 bd
       0.12663233 -0.13125217 0.15991484 -0.031493768
0001e0 82 a7 3a be 22 4f 0d 3e 9b a7 d5 bd fb bb 14 3e
       -0.18227962 0.13799718 -0.10432359 0.14524834
0001f0 b7 42 3d be 28 a3 12 be bd 90 24 be 5c 20 50 3c
       -0.18482481 -0.14320052 -0.16070838 0.012703028
000200 d7 8f 30 bd e4 48 fb bd b3 89 b1 bd 52 66 82 3c
       -0.043105926 -0.12269762 -0.08668842 0.01591793
000210 01 ed 05 be b9 1e 46 3d 39 80 e9 bb bf 06 e8 bd
       -0.13078691 0.048369143 -0.007125881 -0.11329412
000220 37 f7 54 bd fa 97 c8 3d e8 44 d5 bd 15 ed 3d ba
       -0.051993575 0.09794612 -0.104135334 -0.0007245106
000230 50 9e 5f bd ba d7 15 bc f6 b3 22 3e bd 92 15 3d
       -0.054594338 -0.0091456715 0.15888962 0.036516894
000240 e5 db dc bd 0e 4f ad 3c 89 88 32 be f9 18 a0 bd
       -0.10784129 0.02115586 -0.17434897 -0.07817263
000250 bd be 2e 3e 1d 2f 10 be 04 9c f6 3d de 27 dd bd
       0.17064948 -0.14080472 0.12041476 -0.1079862
000260 7e 7a 53 3c 09 4b 0a 3e 64 76 76 bd d6 7d 2b 3e
       0.012907622 0.13505186 -0.0601715 0.16747221
000270 73 9b 46 bd 03 04 03 3c 6a b9 11 3e 6f 4b 1a bd
       -0.04848809 0.007996562 0.14230886 -0.037669595
000280 77 60 ed 3d a6 71 26 3e d8 4b a4 3b 50 40 39 be
       0.11590665 0.16254291 0.005013924 -0.1809094
000290 3a 90 9a 3d 7d 6f 42 bd 6b 20 fb bd 24 8d 13 be
       0.0754704 -0.047469605 -0.122620426 -0.1440931
0002a0 6e 81 d2 bd db fd 37 be 2e f6 16 3e 9e 29 78 3b
       -0.10278593 -0.17967932 0.14742348 0.0037866603
0002b0 80 7f 0f 3e 73 7e 37 be b8 54 62 bd 9f ba e6 bc
       0.14013481 -0.1791933 -0.055256575 -0.02816516
0002c0 ad c3 f4 bd 31 b6 e7 bc 9a ef bd bd af 07 02 be
       -0.11951385 -0.028285118 -0.09274216 -0.12698244
0002d0 cd e3 ff bd 10 88 d8 3d c5 da 13 3e aa f5 d7 bd
       -0.124946214 0.10572827 0.14438923 -0.105449036
0002e0 f9 c9 a9 3d fd 36 ee 3d 56 9c f5 bc dc 6a d2 bd
       0.08290476 0.11631582 -0.029981773 -0.10274288
0002f0 f0 a9 41 3d c8 e0 9e bd a6 4a 37 3e f4 9f 0d be
       0.047281206 -0.07757717 0.1789957 -0.13830549
000300 64 df 5f 3d de 3c 23 be e1 74 3f 3e af c7 ca bd
       0.0546564 -0.15941188 0.1869693 -0.09901368
000310 ca d3 ac 3d 77 d4 32 3e af 51 bc 3d 09 28 0d be
       0.08438833 0.17463861 0.091952674 -0.13784803
000320 ed 42 13 be b1 b7 13 3e b1 7c 0a 3e 3a 00 b2 bd
       -0.14380999 0.14425541 0.13524128 -0.086914495
000330 a7 44 2d 3e 8b b6 dd bd 71 68 8f 3c a5 e5 cc bd
       0.1692072 -0.10825833 0.017505856 -0.10004739
000340 74 62 68 3d 86 94 1d 3e eb 72 e1 3d 68 48 f9 bd
       0.056734517 0.15388688 0.11008247 -0.121720135
000350 c1 ba 8e 3d cc 02 9d bc 17 d3 de 3b 25 b3 27 3e
       0.06969214 -0.019166373 0.006800066 0.16376932
000360 78 41 0b bb 42 cf f2 3a 42 dd 26 3c d5 74 54 bc
       -0.002124874 0.0018524902 0.010184588 -0.012967308
000370 17 ad 2c 3e 05 05 3d bc c6 42 55 3c 3a 2f 0e 3e
       0.16862904 -0.011536841 0.013016408 0.13885203
000380 1a cb 36 3d 1c b1 ad 3d 07 c9 8e 3c b0 6f be 3d
       0.044627286 0.084810466 0.017429842 0.092986465
000390 c2 85 eb bd c7 58 98 bd 82 1b d6 3d 5e c9 61 bd
       -0.11500122 -0.07438808 0.104544654 -0.05512368
0003a0 c4 68 a7 3d 6b 19 8a 3d f7 0f 59 bc 66 ca 40 be
       0.08174279 0.06743129 -0.013248435 -0.18827209
0003b0 93 a3 29 be 51 bd 92 3d b0 6b 16 be 87 2a 33 3e
       -0.16566305 0.071650155 -0.14689517 0.17496692
0003c0 fe e8 8a bd cf 98 12 3e d8 95 fa bd 2e a9 76 3d
       -0.06782721 0.14316104 -0.12235612 0.060219936
0003d0 37 7e 26 3e 1d 57 9e 3d 4d 38 d2 3d 90 3c 86 3d
       0.16259085 0.07731459 0.10264645 0.0655452
0003e0 90 99 2a 3e 5a 5c 54 3d 84 ff ce bd 4c 9e 31 3c
       0.16660142 0.051845886 -0.101073295 0.010840964
0003f0 5f a0 da 3d 45 f1 dd bd ac a3 40 3e 43 ed e2 bd
       0.106751196 -0.10837034 0.18812436 -0.1108041

input_layer.bias f4 [128]
000000 a7 a1 2f be dc ba a3 bd 5d 43 86 3d ae aa ac bd
       -0.17151509 -0.07994625 0.06555817 -0.08430992
000010 76 22 00 3d 09 19 df ba 7d db 16 bd 52 5c c1 bb
       0.031282865 -0.0017021011 -0.036830414 -0.005900898
000020 57 93 f5 bc d9 18 05 be c8 df e0 bd 82 bd 0a 3e
       -0.029977484 -0.1299776 -0.10980183 0.13548854
000030 3b 3c 2e bd 62 65 0b be 92 27 e4 3d a4 47 23 be
       -0.04253791 -0.13612893 0.1114036 -0.15945297
000040 0f 9d cc 3d d4 8b c1 bd 28 66 1f bd 09 6b 7c bc
       0.09990894 -0.09450498 -0.038915783 -0.015406379
000050 a4 96 e7 bc d5 13 04 be e0 2b b4 3b 5e 22 10 be
       -0.028270073 -0.1289819 0.0054983944 -0.1407561
000060 37 09 56 3d 71 0d 03 3e be 4c 8b bd c8 56 22 3e
       0.05225488 0.12798096 -0.06801747 0.15853417
000070 c7 de e0 3d 59 84 85 3a a5 88 1f bd a7 c2 9a bd
       0.109799914 0.0010186537 -0.038948674 -0.07556658
000080 e5 ef b8 3d 5f 28 34 be 8d 8f 19 bd 8f ae c5 bd
       0.09030131 -0.17593525 -0.037490416 -0.09652435
000090 36 85 92 3b 19 26 af b9 9a f0 1a 3e 00 1b 11 be
       0.0044714464 -0.00033406986 0.15130845 -0.14170456
0000a0 ef 68 21 3e cd cc 0a 3e e8 b3 f0 3d 26 28 ca 3d
       0.15762685 0.13554688 0.117530644 0.09870939
0000b0 26 ad a6 3d 8c b8 87 bd e8 4f 04 be 25 69 61 3d
       0.08138494 -0.066269964 -0.12921107 0.055031914
0000c0 68 b8 2f be e5 86 c4 bd 4f 70 73 3b ae ed f5 3c
       -0.17160189 -0.095960416 0.0037145799 0.030020561
0000d0 fc 7e 22 3e bb 03 1f 3d bd 47 15 be 73 25 c8 3d
       0.15868753 0.038821917 -0.14578147 0.09772768
0000e0 c1 a9 44 3d c8 f5 08 be 92 3a 0a be de d1 cc 3d
       0.048013452 -0.13375008 -0.13498905 0.100009665
0000f0 30 7f 34 3e 9a 8c ff bc ce d8 3f bd e3 2e 89 bd
       0.17626643 -0.031194974 -0.04683762 -0.06698396
000100 c0 e5 e9 3d a4 21 ff bd 6d 29 1b 3e dc 56 20 be
       0.114207745 -0.12457588 0.15152521 -0.15658134
000110 75 84 18 be 3c a2 33 be b6 35 47 3d d2 68 73 bd
       -0.14894278 -0.17542356 0.048635207 -0.059426136
000120 44 fd 90 3d 34 1d c3 bd b4 31 1a 3e 9c 6f 2d 3d
       0.070795566 -0.095270544 0.15058023 0.042342767
000130 24 87 2c be 4d 10 a8 3d 22 13 f0 bd fa 77 2d 3e
       -0.16848427 0.08206234 -0.11722399 0.16940299
000140 7b b2 c0 3c db fb ac 3d a1 6b 1c be 4f 76 31 be
       0.023522606 0.08446475 -0.15275432 -0.17330287
000150 a0 79 08 3e 85 98 11 be 1c ec 13 be 51 65 24 bd
       0.13327646 -0.14218338 -0.14445537 -0.040135685
000160 ce c5 c5 3d a5 ba a9 bd 50 8f e8 3d 5a f9 ff bd
       0.09656869 -0.08287553 0.1135546 -0.12498732
000170 ed 60 eb 3c 41 c1 45 3d 40 43 02 bc 5e d5 05 bd
       0.028732741 0.048280004 -0.007950604 -0.032674186
000180 e6 39 e9 bd 39 46 26 3e a6 cf b5 bc 7c f3 c6 bb
       -0.113879964 0.16237725 -0.022193741 -0.006071506
000190 b8 88 82 ba 26 ab ea bd d4 6c 68 bd c1 75 31 be
       -0.0009958958 -0.11458425 -0.05674441 -0.17330076
0001a0 5e 73 b3 3d 50 55 98 bd f0 e0 fa 3d 85 8a 17 be
       0.08762239 -0.07438147 0.12249935 -0.14798935
0001b0 dc 95 0c be 03 56 c3 3d 7a 06 06 be 64 37 96 3c
       -0.13729042 0.0953789 -0.13088408 0.01833696
0001c0 af 73 ad 3d a2 21 ed 3d e4 b9 17 be 8b fa 53 bd
       0.084693305 0.115786806 -0.14817005 -0.05175261
0001d0 fb 05 d5 bd 31 cd 96 3c b9 0c dc 3d 3e 73 92 bd
       -0.10401531 0.01840839 0.10744614 -0.07150887
0001e0 ea d4 de 3d 61 2a c0 bd a7 11 33 3e bb 01 24 3a
       0.10880454 -0.09383083 0.17487203 0.00062563614
0001f0 29 d7 13 bd 88 22 32 3e e4 e9 04 be 5f c8 f2 bd
       -0.036093865 0.17395985 -0.12979847 -0.11854624

projection_layer.0.weight f4 [128, 128]
000000 ae 93 82 bb 4a 4e 91 bc ab f0 b0 3c 22 76 62 bd
       -0.00398489 -0.017737526 0.021599134 -0.05528844
000010 85 fe 04 3d b9 aa 84 3d 60 13 19 3d 73 00 ab bd
       0.03246929 0.06477875 0.037371993 -0.08349695
000020 4b 56 48 3d a0 3d 97 3d 2b 59 7b bd ab 0e 34 bd
       0.04891042 0.07384801 -0.061364334 -0.0439593
000030 11 c7 5c 3d a4 93 57 3c 07 35 94 3d 29 d6 a4 3d
       0.053900782 0.013157759 0.07236677 0.0804866
000040 49 53 5d 3c b9 93 30 3c e6 80 f3 bc 2a 10 aa 3d
       0.013508626 0.010777407 -0.02972455 0.08303864
000050 32 a9 2c 3c d2 1c 5c bd 37 b4 1e 3c 18 05 87 bd
       0.010538386 -0.053738423 0.009686521 -0.065927684
000060 49 fb 93 bd e1 f8 08 3d 1e 9e c7 3b f1 d3 8f 3c
       -0.07225663 0.033440474 0.006091847 0.017557116
000070 26 a3 aa bd 99 0a 96 3d b3 a9 25 3d 38 42 8a 3d
       -0.08331899 0.0732624 0.04044504 0.067509115
000080 ea 70 12 bc 6f 0d af 3c 36 38 86 bd cb 7e 25 3d
       -0.008938054 0.02136871 -0.0655369 0.040404122
000090 72 70 81 bc 33 43 66 3d 67 5c 18 bd b2 35 04 bd
       -0.015800688 0.05621643 -0.037197497 -0.03227777
0000a0 fa af 0f bd d2 21 71 bd 40 9d 92 bd 3b 95 9a bd
       -0.035079934 -0.058870144 -0.07158899 -0.07547995
0000b0 ed 15 5b bd ca 43 68 3d 47 75 17 bd 79 b2 9c bd
       -0.053487707 0.056705274 -0.03697708 -0.076512285
0000c0 20 21 c2 3c de a6 ac 3d be 9e df bc 39 1d 78 bd
       0.023697436 0.08430265 -0.027297374 -0.060574744
0000d0 f1 ce 35 3d 17 f6 51 bd 7c 11 61 3d e8 54 ba 3d
       0.044386808 -0.05126008 0.054948315 0.09098226
0000e0 52 c7 54 bd 22 98 b7 bc d0 2f 3b bd d2 3b da 3b
       -0.0519479 -0.02241141 -0.045699894 0.006659963
0000f0 df 0a a3 bd dd 34 80 3d f5 a2 95 3d cb c3 9a 3d
       -0.07961058 0.06260083 0.07306472 0.07556876
000100 ba 56 90 bd 25 52 82 3c b5 43 9c bd 47 8e 54 3b
       -0.07047792 0.01590831 -0.076301016 0.0032433437
000110 77 fd 6e bc 89 b9 ae 3d 7e 56 89 bc d0 19 c6 3c
       -0.014586798 0.08531482 -0.016764876 0.02418223
000120 c0 52 5d 3d 5d 8a 97 3d 93 b5 4a bd a6 b4 5a 3d
       0.054033995 0.073994376 -0.04948957 0.053394936
000130 82 6d 55 3d bb 38 36 bd aa ef 84 3d 1e f6 dd 3c
       0.052106388 -0.044487696 0.06491025 0.027094897
000140 6f 5c f6 3c bf 54 fc bc f0 40 5d 3c a3 c1 82 bd
       0.030073373 -0.030802129 0.013504252 -0.063845895
000150 3c 00 27 bc 61 1e b6 3c b0 ad 62 3d b1 5f 45 bc
       -0.010192927 0.022231283 0.055341423 -0.01204674
000160 4b 86 90 3b ac c9 76 3d c2 f5 e4 3c 18 04 9e bc
       0.00441054 0.060250923 0.027949218 -0.019289061
000170 e7 a7 25 3d aa 12 f8 3a 06 ad 0b 3d 0f f8 6b bd
       0.040443327 0.0018926461 0.034100555 -0.057609614
000180 f1 28 a1 bd ab ff a2 bd b2 82 71 bc 64 29 47 3d
       -0.07869137 -0.07958921 -0.014740633 0.048623458
000190 4a e4 91 bd 61 f5 1d bd 6c cd 4e bd a4 2f 7a 3d
       -0.07123621 -0.03856409 -0.050488874 0.06108059
0001a0 a1 6e 79 3d 27 b2 1d bc f5 68 03 bd b9 ac d4 3c
       0.06089652 -0.009624994 -0.032082517 0.025961267
0001b0 90 c4 83 bd 68 b3 29 bd 12 ba 8c 3d 00 35 87 bd
       -0.06433976 -0.04143086 0.068714276 -0.06601906
0001c0 28 22 15 b9 61 52 1e b8 fc 1b 93 bd 44 9f 90 3d
       -0.00014222472 -3.7746857e-05 -0.07183072 0.070616275
0001d0 fd de d1 bc 03 ee a1 3d 30 1b 79 bd d9 38 ab bd
       -0.025619024 0.07906725 -0.060816944 -0.08360452
0001e0 07 bd 8a 3c 76 60 33 3d 90 5c 02 3d b3 56 39 3d
       0.016935838 0.043793164 0.031826556 0.0452487
0001f0 55 75 f2 3c 13 fd 8f bd ac db f6 3c bc b7 7c bc
       0.029596964 -0.07030692 0.030134045 -0.015424665
000200 ca 32 59 3d e0 29 29 bd 6f 7c 26 3c c2 7a 6d 3d
       0.05302695 -0.0412997 0.010161503 0.0579784
000210 d6 6d 4a 3d 25 0e cd 3c 60 a6 a8 bd 4e e9 eb 3c
       0.049421154 0.025031159 -0.082348585 0.028797772
000220 cd 2e 8a 3d a4 08 bc 3d ab 1f 93 3d c0 97 9a 3d
       0.06747208 0.091813356 0.071837746 0.07548475
000230 b0 34 73 3c 49 d1 18 bc 70 16 8f 3c 2e 35 0d 3d
       0.014844105 -0.009327241 0.017466754 0.034474544
000240 37 e9 08 3d 19 02 87 3d 3b 1a e6 3c 3b 3b 36 3d
       0.033425536 0.06592197 0.02808868 0.04449008
000250 8c 92 50 3c 0b b8 34 3c 3d fc 9d 3d 03 36 20 3d
       0.012730252 0.011030207 0.07714126 0.03911401
000260 01 b7 5a bd f7 13 df bb 51 2d a9 3d d6 11 9e 3d
       -0.053397182 -0.0068078 0.082605965 0.07718246
000270 04 6c 77 3d 47 ba ee bc 04 ae 16 bd 17 df 8f 3c
       0.060405746 -0.029141558 -0.036787048 0.017562432
000280 81 b0 5e bd 42 f9 34 bd f3 a6 95 bd d7 e4 d3 3c
       -0.054367546 -0.044183023 -0.07307234 0.025865955
000290 b7 8b a4 bd e9 71 17 3c 9e 64 20 3c 92 18 80 3b
       -0.08034461 0.009243467 0.009789614 0.003909179
0002a0 08 e9 6c bd a1 ff b6 3c f9 49 21 3d 0a d5 74 3d
       -0.057839423 0.02233869 0.039377186 0.059773482
0002b0 c9 ff 3f 3d 49 3d 05 3d 02 3a 77 3d fb 71 a0 3d
       0.046874795 0.03252915 0.060358055 0.0783424
0002c0 e3 fa ee bb 85 be 30 3d f3 28 22 bd 6f c0 9d 3d
       -0.0072930916 0.043150444 -0.039589833 0.077027194
0002d0 59 c8 6a 3d 96 6b 84 bc 60 f7 76 3d 08 68 2d bd
       0.057319973 -0.016164582 0.06029451 -0.04233554
0002e0 f9 d6 97 bd 7d af 7e bd a0 6e 03 bd 8f b1 b3 3d
       -0.0741405 -0.062179077 -0.032087922 0.08774101
0002f0 63 29 22 3d 0e b2 70 3d 8c 67 78 bd 01 19 2a 3d
       0.03959025 0.058763556 -0.060645625 0.04152775
000300 30 71 4c bd 43 31 4f bc 98 4e 9e bc 19 0f 7c 3d
       -0.04991263 -0.012646022 -0.019324586 0.061537836
000310 e7 85 8e 3d 14 94 4c 3c 33 e2 ac 3d 7b a1 a5 3d
       0.069591336 0.012486476 0.084415816 0.080874406
000320 97 b1 e3 3c 7a 2c aa bd 0f 30 82 3d 51 59 98 bd
       0.027794642 -0.083092645 0.06356823 -0.07438911
000330 3c 10 b0 bd a1 af 8a bd 49 48 33 bc 52 59 8c 3d
       -0.085968465 -0.0677178 -0.010942527 0.06852974
000340 ba aa 18 bb b8 70 8d 3d 2e 67 30 3c ba de 1b 3d
       -0.002329512 0.06906265 0.010766787 0.038054205
000350 41 7f 72 bc 12 c2 2a bd d8 11 07 3d 3f 81 9b bd
       -0.0148008475 -0.041688986 0.032976 -0.07593011
000360 2f 40 69 3b 6c 0f 84 bd 51 78 0f 3d 15 11 91 3b
       0.0035591235 -0.06448254 0.035026852 0.004427085
000370 36 6d 62 bc 43 01 24 bc 31 6f 85 bd 1b 90 18 bd
       -0.013819983 -0.010010066 -0.06515349 -0.037246805
000380 06 88 b1 3d 02 ec 14 3c 03 12 0b 3c db 55 52 3d
       0.086685225 0.009089472 0.008488181 0.05135141
000390 90 d9 5b 3d 60 b6 81 3d 20 76 a6 3c e9 2a c1 bc
       0.05367428 0.063336134 0.020319998 -0.023580031
0003a0 7c 16 8d bc fa 8d a9 3d 7f 26 3c 3c 44 27 08 bd
       -0.017222635 0.08279033 0.011483788 -0.03324057
0003b0 3f 1f 53 bd c5 fe 50 bd 48 36 a5 bc c9 b0 82 bd
       -0.05154347 -0.051024217 -0.020167485 -0.06381375
0003c0 b0 07 ac bd 83 43 33 3c cd 76 82 3c 2b 1f 18 bd
       -0.08399904 0.010941389 0.01592579 -0.0371391
0003d0 ef 3b 2b bb cf ef b2 bd a4 c9 d4 bc ba b4 8a 3c
       -0.0026128253 -0.08737146 -0.025975056 0.01693188
0003e0 94 2c 47 bd ab fe 3a bd 7e 79 98 3d 43 39 ed 3b
       -0.048626497 -0.045653027 0.07445048 0.007239492
0003f0 01 78 55 bd d3 9e 97 bd 5f 10 87 3c 14 46 9a bc
       -0.052116398 -0.0740334 0.016487299 -0.018832244

projection_layer.0.bias f4 [128]
000000 81 8d 58 bd 7c bd 08 bc c4 46 14 3c ba d1 ec 3c
       -0.052869324 -0.008345958 0.009050075 0.0289086
000010 be 6b 14 bd fb bb 9c 3d d5 22 86 3c 12 ea 8b bd
       -0.036235563 0.07653042 0.016374031 -0.06831755
000020 96 e5 95 bd 65 98 0a 3c 91 89 d5 3b 60 fa 3b 3d
       -0.07319181 0.008459185 0.0065166433 0.045893073
000030 e7 bd 5e bd 7e 45 71 3d 2a 94 7f 3d 93 1d 57 bd
       -0.054380324 0.058904164 0.06239716 -0.05251844
000040 a1 ac 92 bc 62 f0 eb 3b b8 48 a7 3b f4 6c a1 3d
       -0.017904582 0.0072002867 0.0051051043 0.07882109
000050 db f0 45 bd 11 44 70 3c 9a 9f e4 ba 8b af 07 3d
       -0.0483254 0.014664666 -0.0017442585 0.033126395
000060 93 15 50 bc 63 cf fe 3c f5 42 64 3d db f9 36 bd
       -0.012700456 0.031104749 0.055727918 -0.044671874
000070 19 d5 9c bd 7d 22 67 3d 5d 75 2f 3d eb f6 25 bd
       -0.07657833 0.056429375 0.042836536 -0.040518682
000080 31 28 61 3d de 84 3e 3d c0 57 27 3d 0e c2 9e bd
       0.05496997 0.04651343 0.04085517 -0.07751857
000090 8b 4e 32 3d a6 97 8d 3d f1 92 c2 bc ef a9 af 3c
       0.043531936 0.0691369 -0.023751708 0.021443335
0000a0 db 8f c5 ba c7 97 61 bd d8 29 b5 3c 29 df 8b bd
       -0.001507278 -0.055076387 0.02211468 -0.06829674
0000b0 a6 05 fb 3c 28 ea 1e 3d 64 a1 fe 3c 77 ac 86 3b
       0.030642342 0.038797528 0.031082816 0.004109915
0000c0 18 15 52 3d e8 55 81 3d 31 38 1f 3b 03 ed a0 bc
       0.051289648 0.063152134 0.0024294967 -0.019644266
0000d0 8e b4 88 3c 1c 4d 5d 3b 74 01 a6 bd 5a 5e 1b bd
       0.016687658 0.0033767885 -0.08105746 -0.037931778
0000e0 e1 22 81 bd 37 c6 61 bd 55 aa 93 3d a5 bf 6d bd
       -0.06305481 -0.055120673 0.07210223 -0.058044095
0000f0 a5 c5 9b 3b e3 a8 83 bc ad c7 31 3d a0 a3 86 3d
       0.0047537857 -0.016071742 0.043403316 0.06574178
000100 f2 bf 91 3d c7 35 70 bc 5f 23 92 bd 0e 32 5f bd
       0.07116689 -0.014661259 -0.07135653 -0.054491095
000110 cb 60 91 bd b3 3e 30 bd b6 f0 8f 3d a5 4d b5 3c
       -0.0709854 -0.043028545 0.07028334 0.02213175
000120 77 a1 dd 3c d6 31 90 3d ac 1b a2 3d 42 62 09 bc
       0.027054531 0.070407555 0.07915434 -0.008385243
000130 59 86 f7 bc cf f5 24 bd e6 0e 3c bd 33 4e 1c bd
       -0.03021543 -0.040273484 -0.045912646 -0.038160514
000140 2b 2d 39 3c 1b f7 91 bd b4 3b 76 3d e3 af 50 bd
       0.011302273 -0.0712721 0.06011553 -0.05094899
000150 3e c6 27 bd a4 a2 32 bc 58 18 9f bc 84 0a 36 bd
       -0.040960543 -0.010903034 -0.019420788 -0.044443622
000160 6c 0d 21 bd 24 af d8 bb 57 50 ed bc f7 81 6c ba
       -0.03931944 -0.0066126753 -0.028968973 -0.0009022052
000170 a0 97 8b bd be ab 1c 3d 46 ac b8 3b 3e e2 59 3b
       -0.068160295 0.038249724 0.005635771 0.0033246423
000180 f7 53 63 3d 36 78 7f bc 3e 9d b4 bc df c7 7a bc
       0.055499997 -0.015592625 -0.022047635 -0.015306442
000190 c1 79 97 bd 72 8d e1 3b 3a 5f 95 bc 6f b5 80 bc
       -0.073962696 0.0068833167 -0.018233884 -0.015711514
0001a0 20 d3 96 3d d1 b7 82 bd a9 7e 8c ba 9e 50 8c 3d
       0.07364488 -0.063827164 -0.00107189 0.06851314
0001b0 8b e6 40 3d 7b e6 c9 ba 49 50 15 bd 9f 1b 38 bd
       0.047094863 -0.0015403772 -0.03645352 -0.044948217
0001c0 c0 5b 99 bd 29 57 a4 3d 9c 09 2c bd 4d 5f e5 bc
       -0.07488203 0.08024437 -0.04200135 -0.027999545
0001d0 4b 45 60 bd 2e dc a4 3d 24 ef 9c bd 4a 1c cd 3c
       -0.054753583 0.080498084 -0.076628 0.025037903
0001e0 ec a5 f8 3b 2f 92 cb bb 37 87 23 3d 2c d1 81 bd
       0.007588139 -0.006212495 0.039923873 -0.063387245
0001f0 1b d3 59 bc 52 1b 18 bd c4 8b 7f bd c5 40 da 3c
       -0.01329496 -0.03713543 -0.06238915 0.026642213

projection_layer.1.weight f4 [128]
000000 79 1b 80 3f 47 39 80 3f c5 70 80 3f 82 7e 7f 3f
       1.0008384 1.001748 1.0034415 0.9980241
000010 81 85 7f 3f e5 94 7e 3f 57 a9 7e 3f bd 73 7f 3f
       0.99813086 0.99445945 0.9947714 0.9978598
000020 e5 29 80 3f e9 65 7f 3f 4c 05 7f 3f b1 85 7f 3f
       1.0012785 0.9976488 0.9961746 0.9981337
000030 e5 c7 7f 3f 89 9a 7f 3f 87 84 7e 3f 9d 43 7f 3f
       0.9991439 0.99845177 0.9942097 0.99712545
000040 b4 92 80 3f 81 3c 80 3f 7c 01 80 3f df 89 7e 3f
       1.004477 1.0018464 1.0000453 0.99429125
000050 99 66 7f 3f d9 ea 7f 3f 8e a9 7f 3f 7d 94 7e 3f
       0.99765927 0.99967724 0.99868095 0.99445325
000060 1a 0e 80 3f 41 bf 7e 3f 2a 9a 7f 3f f6 ee 7e 3f
       1.0004303 0.9951058 0.9984461 0.99583375
000070 75 a3 7f 3f 01 e6 7f 3f 40 b6 7f 3f 1f f3 7f 3f
       0.9985879 0.99960333 0.99887466 0.9998035
000080 58 64 7e 3f e3 f7 7e 3f e2 f4 7f 3f 18 5f 7e 3f
       0.9937186 0.99596995 0.99983037 0.9936385
000090 df df 7f 3f a2 7a 7e 3f 77 92 7f 3f a8 44 80 3f
       0.99950975 0.9940587 0.9983286 1.0020952
0000a0 d5 92 7e 3f 96 b4 80 3f 2a 6a 7f 3f 38 e8 7e 3f
       0.994428 1.005511 0.9977137 0.9957309
0000b0 2c 19 7f 3f 30 ad 7f 3f 00 ee 7e 3f 03 54 80 3f
       0.99647784 0.9987364 0.9958191 1.0025638
0000c0 fe 79 7f 3f 9a 96 7e 3f a7 c3 7f 3f 2e 2b 80 3f
       0.9979552 0.9944855 0.99907917 1.0013177
0000d0 82 12 7e 3f cb 17 80 3f 86 bd 7e 3f e5 5a 7f 3f
       0.9924699 1.0007261 0.9950794 0.9974807
0000e0 00 34 7f 3f 56 0e 7f 3f 4c ae 7f 3f a6 79 7e 3f
       0.9968872 0.9963125 0.9987533 0.9940437
0000f0 90 f4 7f 3f 25 26 80 3f d0 39 80 3f 52 c0 7f 3f
       0.9998255 1.0011641 1.0017643 0.9990283
000100 f0 5d 7e 3f 97 7a 7f 3f 1e e9 7f 3f 83 6b 80 3f
       0.9936209 0.9979643 0.99965084 1.003281
000110 64 93 7e 3f f8 64 7f 3f 9f c8 7f 3f f3 21 7f 3f
       0.9944365 0.9976344 0.999155 0.9966118
000120 53 36 7f 3f 7f 4f 7f 3f e1 25 7f 3f 28 9e 80 3f
       0.9969227 0.99730676 0.99667174 1.0048265
000130 dd 92 7e 3f b8 0d 80 3f 8c 5d 7f 3f f1 20 7f 3f
       0.99442846 1.0004187 0.99752116 0.9965964
000140 07 35 80 3f 95 66 7f 3f 52 e2 7e 3f 28 98 7e 3f
       1.0016183 0.997659 0.9956409 0.9945092
000150 2f 83 7f 3f ac 71 7f 3f df 79 7f 3f d4 ca 7e 3f
       0.99809545 0.99782825 0.99795336 0.9952824
000160 72 a4 7f 3f a8 dc 7e 3f bc 35 80 3f 6d d5 7e 3f
       0.998603 0.99555445 1.0016398 0.9954441
000170 51 34 7f 3f 01 0c 80 3f 89 8d 7f 3f 78 78 7f 3f
       0.99689204 1.0003663 0.9982534 0.99793196
000180 94 16 7f 3f d1 4b 80 3f a0 c4 7f 3f 16 99 80 3f
       0.99643826 1.0023137 0.999094 1.0046718
000190 43 46 7e 3f 37 40 7e 3f 83 0d 80 3f 82 66 80 3f
       0.9932596 0.99316734 1.0004123 1.0031283
0001a0 d7 d6 7e 3f 28 8d 7e 3f 93 b0 7e 3f 4f 43 7f 3f
       0.9954657 0.9943414 0.9948818 0.9971208
0001b0 f5 2c 80 3f 87 c2 7f 3f 8a c8 7f 3f 81 39 80 3f
       1.001372 0.999062 0.99915373 1.0017549
0001c0 ab e3 7f 3f 7b 3f 7f 3f 3d 2d 80 3f e4 a1 7f 3f
       0.9995677 0.9970624 1.0013806 0.998564
0001d0 28 01 7f 3f 42 29 80 3f 65 28 80 3f 88 8b 7e 3f
       0.9961114 1.0012591 1.0012327 0.9943166
0001e0 ac ae 7f 3f bc 26 80 3f 55 5e 80 3f 92 f2 7e 3f
       0.99875903 1.0011821 1.0028788 0.9958888
0001f0 a0 8b 7f 3f dd 99 7e 3f 8f b7 80 3f eb 6c 7e 3f
       0.99822426 0.99453527 1.0056018 0.99384946

projection_layer.1.bias f4 [128]
000000 b9 e1 24 3a c5 37 44 bb dd 33 a8 3b 24 67 9f 3a
       0.0006289739 -0.0029940468 0.0051331357 0.0012161476
000010 68 55 73 bb c8 b2 c6 bb 93 8d c5 bb c4 35 50 ba
       -0.0037129764 -0.006063793 -0.00602884 -0.0007942582
000020 34 79 67 39 51 c7 92 b8 0d d0 08 bb be 89 25 39
       0.00022075028 -6.998948e-05 -0.002087596 0.00015786939
000030 fd 15 9d 37 c3 55 9f 3a bb 07 02 bb 23 fb 1c bb
       1.8726098e-05 0.0012156296 -0.0019841033 -0.00239534
000040 7e 24 8a 3b 21 9c 82 3b 2a c0 39 bb dd a3 c2 bb
       0.004215776 0.003985897 -0.0028343298 -0.005939944
000050 cf a3 44 bb 4b 53 00 b9 14 44 58 ba 1f 81 8b bb
       -0.0030004864 -0.0001223806 -0.00082498905 -0.004257336
000060 2a 13 36 bb 37 55 57 bb 3d 60 64 bb 7f 06 d2 bb
       -0.0027782419 -0.0032857188 -0.0034847402 -0.006409466
000070 ad c3 23 ba ec 7f 00 bb 05 97 31 bb a9 8d 83 3a
       -0.00062471145 -0.0019607497 -0.0027098071 0.0010036725
000080 2b 7a 13 bb 04 74 38 bb 2f c8 14 bb a2 b6 ff ba
       -0.0022503238 -0.0028145323 -0.0022702327 -0.0019509385
000090 ba 6f dd 39 56 13 88 bb 0a ac d1 ba 5e 73 1d 3b
       0.00042235648 -0.0041526956 -0.0015996706 0.0024025063
0000a0 4c 1f 18 bb f9 24 fb 3a 3a e3 77 39 c7 65 c2 ba
       -0.0023212014 0.0019160799 0.00023640404 -0.0014831357
0000b0 a6 bb b7 bb 77 fd ff b9 c6 b6 73 bb b8 69 cc ba
       -0.0056070862 -0.00048826236 -0.00371878 -0.0015595471
0000c0 1b 13 eb ba 87 27 91 bb d3 d0 d9 3a 4c 38 47 3a
       -0.0017934771 -0.004429761 0.0016618021 0.00075996364
0000d0 fe 70 82 bb ca 0f 0a 3b 75 33 a3 bb d3 6f 1f bb
       -0.003980755 0.002106654 -0.0049804994 -0.0024328127
0000e0 00 31 04 bb d2 ab 4c bb 5d ab b2 3a 43 27 a8 ba
       -0.0020170808 -0.0031230343 0.0013631393 -0.0012829084
0000f0 3b 69 49 ba 1d a0 25 b9 a1 64 09 3b 21 a4 96 ba
       -0.0007683222 -0.00015795273 0.002096452 -0.0011493006
000100 8b 14 f1 bb d3 95 e2 b9 00 2e 46 3a e2 05 93 3a
       -0.0073571852 -0.00043217707 0.0007559955 0.0011216963
000110 a7 92 f8 ba 6f 59 86 bb f3 32 66 ba ee 09 84 bb
       -0.0018964604 -0.004100017 -0.0008781396 -0.004029504
000120 bd ab 33 bb fa 5a 03 bb 49 9f 1e 3a 5b d3 74 3b
       -0.0027415596 -0.002004324 0.0006050957 0.0037357423
000130 91 37 a9 bb 1b bc b2 bb c4 01 2f bb ad 83 86 bb
       -0.0051640947 -0.005454553 -0.0026703933 -0.0041050524
000140 79 c2 5e 3b 3d 07 c8 bb e4 a5 0d bb ff 7a 95 bb
       0.0033990426 -0.0061043785 -0.002161377 -0.0045617814
000150 44 b3 ac ba 98 0d 04 bb 73 ec 9d ba 12 d9 00 bb
       -0.0013175984 -0.0020149704 -0.0012048617 -0.0019660634
000160 60 f3 cc bb b7 c3 83 bb ff 86 fd ba fb 86 71 bb
       -0.0062545985 -0.0040211338 -0.00193426 -0.0036854136
000170 f4 6d 3d bb 99 ee b9 3a 3f cc 17 ba 62 b2 cc ba
       -0.0028904648 0.0014185488 -0.0005790628 -0.0015617127
000180 1b 89 51 bb 5a b2 53 3b fe a6 67 ba 8c e5 0a 3a
       -0.003197259 0.003230235 -0.00088368345 0.00052984874
000190 83 bb 67 bb 43 86 d5 bb f5 94 5f 3a 6d 15 03 3b
       -0.0035359568 -0.0065162494 0.0008528971 0.0020001784
0001a0 f3 94 a0 bb d6 22 88 bb e0 23 a7 bb fd dd 80 bb
       -0.0049005686 -0.0041545434 -0.005100712 -0.003932713
0001b0 ed 8e f0 b9 d6 8b e0 3a e7 ad 1a 3a 43 c5 f4 3a
       -0.00045882855 0.0017131518 0.0005900547 0.0018674511
0001c0 93 60 b8 ba c7 fc bd ba 76 d2 98 3a be 63 28 ba
       -0.0014066867 -0.0014494889 0.0011659402 -0.0006423554
0001d0 99 50 1c bb dd d9 71 3b 8a 7f e2 3b e4 37 ba bb
       -0.002385175 0.0036903538 0.0069121765 -0.005682932
0001e0 56 69 c9 bb 9f 69 cd bb 13 29 ca 3b 35 34 cc ba
       -0.00614659 -0.0062686945 0.006169447 -0.0015579524
0001f0 a3 08 a3 38 5f 9f 4d bb f2 f2 dc 39 a1 9b b2 bb
       7.7740544e-05 -0.003137551 0.00042142678 -0.0054506813

projection_layer.1.running_mean f4 [128]
000000 03 16 e9 bd 53 ea 00 b9 9a 91 bb b8 3b fe 37 3d
       -0.113811515 -0.00012294324 -8.943975e-05 0.044920187
000010 17 10 8e bc ef 01 cc 3d 80 30 8c bb f1 c4 e3 3c
       -0.017341657 0.09961306 -0.0042782426 0.02780387
000020 5c fd 8f 3a 71 29 8a 3b 02 9a 0a 3d 73 f2 a4 3c
       0.0010985541 0.004216366 0.03383828 0.02013514
000030 01 e5 ca bb 3d b5 fa 3c 3a f9 1a bd 9f 55 98 bc
       -0.00619185 0.030604 -0.037835337 -0.018595515
000040 98 c1 7f ba 17 10 a7 3d d9 94 b1 3d d3 2e 67 3d
       -0.0009756326 0.08157366 0.086709686 0.05644114
000050 e7 0e 04 bc ed 82 8b bc 94 6e 87 bc 24 5f 0f 3d
       -0.008060194 -0.017030204 -0.01653222 0.035002843
000060 5c 70 af 3d 0c e6 8b 3c 8f 58 17 3d 13 3f 24 bd
       0.08566353 0.017077468 0.03694969 -0.040099215
000070 22 ce 93 bc 9f e1 3e bd f3 2b 00 3d 81 63 87 bc
       -0.018042628 -0.046601888 0.031291913 -0.01652694
000080 fd f8 bc 3d 14 4b 60 3c 98 13 b0 3c 05 25 10 bc
       0.09227178 0.013689775 0.021493718 -0.008797889
000090 5f 8d 62 3d bc 09 a1 3d 25 e6 45 3d 5e da 9c 3d
       0.055310603 0.07863185 0.048315186 0.07658838
0000a0 42 f3 3f bc 32 ea 70 bd ec 09 65 3d 24 05 96 bd
       -0.011715712 -0.058817096 0.055917665 -0.07325199
0000b0 c2 4a 76 3d bd 17 16 3d 5b 7d 2e bb cb cb 0e bc
       0.06012989 0.036643732 -0.002662501 -0.00871558
0000c0 83 02 4a 3c bd 80 05 3e 4e ab 5d bc 83 8c 5c bd
       0.0123297 0.13037391 -0.013529612 -0.05384494
0000d0 0d d1 b1 3c 75 6d 21 3d 2b a0 cf bc 1a b8 5f bc
       0.021706128 0.039411027 -0.025344929 -0.013654733
0000e0 ba 0c 9e bc a0 a1 87 bd ce a2 8c 3d ed d4 16 3d
       -0.019293178 -0.066226244 0.0686699 0.036824156
0000f0 7e c6 58 3d 26 6e e3 bb bc 72 c4 3c 2b e4 67 3d
       0.052923672 -0.006940621 0.02398049 0.056614082
000100 d3 41 83 3d a9 24 5d bd 4e fe c8 bd 20 fe de 38
       0.06409039 -0.05399004 -0.0981413 0.000106331194
000110 e0 53 62 bd d3 9f c6 bc d7 93 2d 3c 27 df 4a bb
       -0.05525577 -0.024246132 0.01059433 -0.0030955763
000120 b6 7f 53 3d f2 e2 61 3d 34 d4 d5 3d 33 6a 87 bc
       0.051635467 0.055148073 0.10440865 -0.016530132
000130 17 78 7b bd 13 07 12 bc f4 df ba bc 43 20 d1 bc
       -0.061393823 -0.008912819 -0.022811867 -0.025528079
000140 a4 f4 24 bd 50 87 e3 bc 77 d2 26 bd 6a 32 6d bc
       -0.04027237 -0.027774483 -0.04072806 -0.014477352
000150 a6 a4 1a bd ae b5 82 3d 38 74 a7 bd dc 7d 34 3c
       -0.037754677 0.06382309 -0.08176464 0.011016335
000160 03 6d b8 bc 67 bb 45 bc 39 c0 65 bd 49 6c 20 3d
       -0.022512918 -0.012068606 -0.05609152 0.03916577
000170 3c 7d 72 bd 98 f2 a7 39 a5 5d 5c bb f7 2a 7c 3d
       -0.059201464 0.0003203347 -0.0033625152 0.061564412
000180 8b b4 84 bc 94 8c 0f 3d 7f 92 93 bd 5a bf 3d 3a
       -0.01619937 0.035046175 -0.07205676 0.00072382914
000190 21 f4 a6 bd 89 9e a3 bd 46 d5 9a bc fc ae ff 3c
       -0.08152033 -0.079892226 -0.018900525 0.031211369
0001a0 34 ed 6b 3b ec a1 a6 bc 2e 52 b9 3c 9f b4 d1 3d
       0.0035999538 -0.020340882 0.022622194 0.10239529
0001b0 ac b4 0b 3d a8 7b ce bc 45 59 4c bd 4f 94 78 bc
       0.03410785 -0.025205448 -0.04988982 -0.015172078
0001c0 b2 7b 98 bd a4 83 b3 3d 6c 60 9c bd 2b cd 18 bd
       -0.07445468 0.08765343 -0.076355785 -0.03730504
0001d0 37 b9 a0 bd c3 49 b8 3d 5a 12 8a bd a6 06 2b 3d
       -0.07847827 0.08998444 -0.067417815 0.041754387
0001e0 5d d5 00 3d c9 15 71 bd 4c 41 78 3c f0 46 85 bc
       0.03145348 -0.058858667 0.015152287 -0.016269177
0001f0 86 40 d0 bc ff 52 ae 3c 48 50 ad bb 2d 17 17 3d
       -0.025421392 0.02127981 -0.0052891113 0.036887337

projection_layer.1.running_var f4 [128]
000000 98 f1 fc 3e b3 0b f9 3e f9 ad 02 3f 6b ce 06 3f
       0.4940307 0.48641738 0.5104671 0.5265872
000010 26 33 01 3f 51 64 14 3f cc 46 fa 3e 20 d9 f3 3e
       0.5046867 0.5796557 0.4888214 0.4762659
000020 1e 87 01 3f f4 2f 05 3f 29 a8 ee 3e 28 d1 00 3f
       0.505968 0.52026296 0.4661267 0.5031915
000030 33 4d 04 3f ad 75 02 3f 4b 2b 06 3f f5 93 fa 3e
       0.51680297 0.5096081 0.5240981 0.48941007
000040 34 f6 0e 3f bd 34 fa 3e 56 c5 fc 3e 7e 3a 14 3f
       0.55844426 0.4886836 0.49369305 0.5790175
000050 b1 f7 f4 3e 84 a5 05 3f 54 52 fc 3e 93 74 01 3f
       0.47845224 0.5220568 0.4928156 0.50568503
000060 cf 74 ff 3e 7b 56 f2 3e 77 c6 f5 3e d9 9d ef 3e
       0.49893805 0.47331604 0.4800298 0.46800116
000070 71 c4 03 3f f6 58 f2 3e 12 c6 05 3f 15 ce fd 3e
       0.5147162 0.47333497 0.52255356 0.4957129
000080 ca d4 fe 3e d1 01 ee 3e 1c 8e 02 3f 4b 8a 03 3f
       0.4977172 0.4648576 0.5099809 0.51382893
000090 1a f5 f7 3e ec 4c 00 3f 29 3b fb 3e 0a 78 06 3f
       0.48429185 0.50117373 0.49068573 0.52526915
0000a0 42 39 04 3f 38 df f2 3e b3 a9 01 3f 7f 48 f8 3e
       0.5164987 0.47435927 0.50649565 0.4849281
0000b0 3f f4 fb 3e 25 51 ee 3e f9 a9 fc 3e 74 9a f3 3e
       0.49209782 0.46546283 0.4934843 0.47578776
0000c0 9c 31 fd 3e c6 01 fc 3e 73 4f fa 3e de 36 00 3f
       0.4945191 0.49220103 0.4888874 0.5008372
0000d0 ff 70 f6 3e c6 bf 02 3f 5d 92 f7 3e 84 62 01 3f
       0.48133084 0.51073873 0.48353854 0.5054095
0000e0 be 9a 02 3f fb d9 f0 3e cd 9f 01 3f 32 2a 09 3f
       0.5101737 0.47041306 0.5063446 0.5358001
0000f0 5a ec ef 3e fa ce fd 3e 6f 5a 04 3f 4b c6 04 3f
       0.4686001 0.49571973 0.5170049 0.5186507
000100 6c 5a f5 3e 40 a2 f9 3e 13 3e f5 3e 81 d0 04 3f
       0.4792055 0.487566 0.4789892 0.5188065
000110 88 cd fa 3e 3b 69 03 3f 0f 15 01 3f 77 5e 00 3f
       0.48984933 0.51332444 0.5042276 0.5014414
000120 80 15 ea 3e 83 2c f2 3e d7 56 fb 3e a1 69 f8 3e
       0.45719528 0.47299585 0.4908969 0.48518088
000130 b8 1b 01 3f c6 7e 06 3f fa 17 01 3f dd 48 f4 3e
       0.5043292 0.5253719 0.5042721 0.4771184
000140 10 ea 00 3f 3b cb 00 3f 10 07 f0 3e fb 37 f7 3e
       0.5035715 0.50310105 0.46880388 0.48284897
000150 e8 fd f2 3e 53 0e 06 3f ea 91 01 3f 8d 16 0c 3f
       0.4745934 0.5236561 0.5061327 0.5472191
000160 22 65 00 3f a8 e2 f2 3e 16 20 00 3f b3 55 f6 3e
       0.50154316 0.4743855 0.5004896 0.48112258
000170 0e 02 02 3f b1 d8 f9 3e 45 b6 05 3f 40 cb 02 3f
       0.50784385 0.48798135 0.52231246 0.51091385
000180 ff 43 ff 3e 70 48 f7 3e 17 d4 05 3f e2 0f 00 3f
       0.49856564 0.48297453 0.5227675 0.50024235
000190 0a 2b 02 3f 91 4b 07 3f 68 7a f3 3e 9e 93 e6 3e
       0.5084692 0.5284968 0.47554326 0.45034498
0001a0 50 b5 03 3f 77 0c 03 3f b1 1f 05 3f 3f 55 04 3f
       0.51448536 0.51190895 0.5200148 0.51692575
0001b0 01 74 f9 3e c0 de 03 3f 55 84 f7 3e ef 1e fc 3e
       0.48721316 0.51511765 0.4834315 0.4924235
0001c0 1a 7d fd 3e da a9 02 3f d4 90 fc 3e ae c9 ff 3e
       0.49509507 0.5104042 0.49329245 0.49958557
0001d0 08 30 01 3f 69 8c 03 3f b3 92 f2 3e a4 fe f7 3e
       0.50463915 0.51386124 0.47377548 0.48436463
0001e0 94 60 f5 3e 7d 28 fa 3e 7c 2e ed 3e 27 2b f7 3e
       0.47925246 0.48859015 0.46324527 0.4827511
0001f0 8b 80 10 3f 1e a2 00 3f 05 45 f0 3e 83 19 02 3f
       0.5644614 0.5024737 0.46927658 0.5082018

projection_layer.4.weight f4 [128, 128]
000000 d0 03 de bc 66 21 92 bd 16 e4 62 bd 8f ab 99 bd
       -0.027101427 -0.071352765 -0.0553933 -0.07503425
000010 47 9e 0b bd 27 5d c5 3c fb e8 a2 bd 64 c2 75 bd
       -0.034086492 0.02409227 -0.07954594 -0.05999984
000020 1e e6 2a 3d a1 09 a4 3d 1c 41 c5 bb f5 ba 9a bd
       0.041723363 0.08009649 -0.0060197245 -0.075551905
000030 dd 0e 30 bd e5 6f d4 bb b2 65 25 bd 51 d0 f3 3c
       -0.042982925 -0.0064830654 -0.040380187 0.029762419
000040 b0 74 af bd a3 72 81 3d a3 a4 a3 3d a4 ef b1 3d
       -0.08567178 0.06320693 0.07990386 0.08688286
000050 22 5a a3 bd 9f 36 9e bc d4 22 64 bd 6c 2a c3 3b
       -0.07976176 -0.019313155 -0.055697277 0.005955985
000060 63 2e 6d bb 86 77 f7 bc 9d 4a f3 3b 98 b3 86 3d
       -0.0036190979 -0.03020836 0.007424666 0.065772235
000070 7f 8c 7d 3d e9 a0 d9 ba 3d dd 11 bd 0a e8 9c 3d
       0.061901566 -0.0016603741 -0.03561138 0.076614454
000080 18 82 51 bd 71 5c 9a 3b 73 82 5e 3d 4b 2e 51 bc
       -0.051149458 0.004710727 0.054323625 -0.012767385
000090 3f af 61 3b 24 6d d2 3c 8e bf 4f bd 07 e5 a4 3d
       0.003443673 0.025686808 -0.05071979 0.08051496
0000a0 e8 57 12 bb a9 59 91 3d 4f 86 96 3d 5c 5e 0d bd
       -0.0022330228 0.070971794 0.07349836 -0.034513816
0000b0 49 95 9f 3d 9a 7e b3 bd 2e 35 af 3d 91 42 11 3a
       0.07792146 -0.08764382 0.08555065 0.000554123
0000c0 81 d6 19 bd 95 00 ac 3b ec da 20 bd 70 5a 0c 3d
       -0.037558082 0.005249093 -0.03927128 0.034265935
0000d0 9e 7d fb bc c5 d7 ee 39 e3 32 a3 bd 15 e3 a6 bd
       -0.030699547 0.00045555658 -0.0796869 -0.08148781
0000e0 12 c6 b1 3d ec b2 82 3d 2b 7d 40 bd 47 c5 30 3d
       0.08680357 0.06381783 -0.04699437 0.04315689
0000f0 6b e9 56 3d 3c 6c 6d bc 02 b3 22 3c 53 ea 36 3c
       0.0524687 -0.014491137 0.009930374 0.011164266
000100 e5 83 a1 3d 70 6c 03 3d 01 82 5c 3c d5 8b e2 bc
       0.07886485 0.032085836 0.01345873 -0.027654568
000110 dd 51 a4 3c 57 54 22 3d a6 01 21 bd e7 f2 29 3c
       0.020058567 0.039631214 -0.039308213 0.010372854
000120 f7 29 b0 bd 28 4a 85 bd 62 14 85 3d 8c 77 05 3d
       -0.08601754 -0.06508285 0.06498028 0.032584712
000130 61 fb 2a bd d4 ea 90 bd 16 d2 97 bd cd 16 42 bc
       -0.04174364 -0.0707604 -0.074131176 -0.011846256
000140 bf 59 9b bd 8e 22 a0 3d 5a 7a 97 3d 56 1d 78 3d
       -0.07585477 0.07819091 0.073963836 0.060574852
000150 a7 cd 8a 3c ac 77 73 3c ad e4 85 3d 05 d4 5d 3d
       0.016943766 0.014860075 0.06537757 0.054157276
000160 63 57 e1 3c 92 31 94 bc 65 c9 8c 3c e4 b5 95 3d
       0.02750749 -0.018090043 0.017185876 0.073100835
000170 43 49 37 3b b8 03 87 bd ab 73 a6 bc 8e a9 67 bd
       0.0027967251 -0.06592506 -0.020318827 -0.056558184
000180 9d 7a aa bd 41 28 93 bd ee d4 e6 bc 3d e5 16 3d
       -0.08324168 -0.07185412 -0.028177705 0.036839712
000190 bb 4f a8 3d a8 f1 a4 bd 65 eb 96 bd ea a6 9b bb
       0.082183324 -0.08053905 -0.07369117 -0.0047501223
0001a0 c1 66 a6 bd 0a 23 63 3d da 17 d5 3b 4c c6 3b bc
       -0.081250675 0.055453338 0.0065030875 -0.011460852
0001b0 2c 3e aa 3d be 5e 7f 3d 5f 14 11 bc de 6b 97 bd
       0.083126396 0.062346213 -0.0088549545 -0.07393621
0001c0 ab 36 8b bd ca 68 78 bd 60 3e 8e bd 3e 77 98 3d
       -0.067975365 -0.06064681 -0.06945491 0.07444619
0001d0 4f ca 20 bc 0b 29 95 bc 82 ee 2a bd 6a 5c 62 bc
       -0.009813859 -0.018208047 -0.041731365 -0.013815979
0001e0 74 89 4b bd 12 5a ea bc f5 02 85 3c 18 53 43 3d
       -0.049691632 -0.028607402 0.016236762 0.047686666
0001f0 f4 dd 59 bd 2a dd 74 bc a7 c0 63 3a f1 fa a2 3d
       -0.053190187 -0.014945308 0.000868807 0.079580195
000200 41 79 85 3d 84 e7 ba bd 62 56 9f 3d e6 49 28 bc
       0.06517268 -0.09126189 0.07780148 -0.010271525
000210 19 54 d5 bc f7 d9 5e bd 2a 48 ae 3d ef 96 2f 3c
       -0.026041077 -0.054407086 0.08509858 0.010717138
000220 a0 b3 45 bd 39 e3 28 3d 3b f5 ac 3d f7 08 9f 3c
       -0.048267007 0.04123232 0.084452115 0.019413454
000230 b6 4d 18 bd a3 d8 95 3c de f4 27 3c 0c 6d a4 bd
       -0.037183486 0.018291777 0.010251252 -0.080286115
000240 79 80 af bd f2 81 a7 3d 40 92 97 3d 2a f0 79 bd
       -0.08569426 0.08179082 0.07400942 -0.061020054
000250 f6 f4 ac 3d e9 ad 8c 3d 52 42 91 3b 30 0a 8e bd
       0.0844516 0.06869108 0.004432955 -0.06935537
000260 19 d6 5f bc 9a e4 83 bd b2 46 b0 3c fc ac 43 3d
       -0.013661885 -0.06440087 0.021518085 0.047772393
000270 75 19 44 3c 5d 3a 95 bd 15 79 8c bd 15 57 80 3d
       0.01196896 -0.072865225 -0.06859032 0.062666096
000280 36 ee 21 3c 52 e4 e3 3c eb 1c 84 bd 06 c2 8f bd
       0.009883454 0.027818833 -0.06450828 -0.07019429
000290 42 03 1a bc 1d 98 ac bd 3f ec 8c 3d a5 23 1f bb
       -0.009400191 -0.08427451 0.06880998 -0.002428272
0002a0 10 05 8a bd 5d c0 95 3d 0a 01 32 3d b7 e0 dc 3c
       -0.06739247 0.07312081 0.043458022 0.026962621
0002b0 55 73 50 bd ae 50 70 bd 75 25 30 3c 96 4e ae 3d
       -0.05089124 -0.058670692 0.010751118 0.08511083
0002c0 f5 32 8c 3d 76 3e 15 3d 60 f2 53 bd 30 4f ad bd
       0.06845657 0.03643652 -0.05174482 -0.084623694
0002d0 d5 e2 e5 bb 59 f1 b7 bc 25 cc 8c 3d 7a 3d 79 3d
       -0.007015566 -0.02245395 0.06874875 0.060849644
0002e0 34 93 7d bd 6f e4 fa 3c 7c 30 97 3d a7 ae cf 3c
       -0.061907962 0.030626504 0.073822945 0.025351835
0002f0 ac 81 a2 3d 18 07 33 3d 6b d4 a9 bd 4b 85 ac bd
       0.07934889 0.043707937 -0.08292469 -0.08423861
000300 e3 86 ad 3d 52 d4 14 bc a8 14 83 bd 7e 42 57 bd
       0.08472993 -0.009083824 -0.06400424 -0.052553646
000310 1f 0b be bc c1 5c 14 bd bb 59 3f 3d ad e4 5e 3c
       -0.023198662 -0.03622127 0.046716433 0.013604325
000320 c1 c9 a2 bd 06 73 a3 bb dd 1d bc bc 3e d1 84 bc
       -0.07948638 -0.004988077 -0.022963459 -0.016213056
000330 5a 5b fc bc b0 9e ba 3c 49 4e 46 3d 4c b0 51 3c
       -0.030805279 0.022780746 0.048414502 0.01279838
000340 d2 ee b4 3c 28 f1 aa bd 6f 09 6d 3b 71 5d 80 3d
       0.022086535 -0.08346778 0.0036168953 0.062678225
000350 e7 89 a5 3b ae c3 4a 3d a0 22 1f 3d 1b 40 ab 3d
       0.0050518396 0.04950302 0.03885138 0.083618365
000360 8c bd af bc 5e 5d 3d bd fe 01 0c bd 29 d1 05 3d
       -0.021452688 -0.04623162 -0.034181587 0.032670174
000370 9c 30 ad 3d 06 34 59 bd 8f 12 06 bb 5d 2f 4c bd
       0.08456537 -0.05302813 -0.002045784 -0.049849857
000380 e5 b8 36 3c f6 63 8e 3d b9 00 bb bc dc 63 a2 3d
       0.011152481 0.0695266 -0.022827493 0.07929203
000390 1f af 23 3d 8c be 1d bd cd ee 00 bd 93 dc a1 3d
       0.03996193 -0.038511798 -0.03147774 0.07903399
0003a0 b8 38 a8 3b f4 23 bf 3c f4 48 49 3d 7c a2 a3 3d
       0.0051337145 0.023332573 0.04914184 0.07989976
0003b0 f2 be f2 3c 0e 4e 88 bc a1 87 5a 3b 91 a7 d0 3b
       0.029632065 -0.016638782 0.0033345001 0.0063676317
0003c0 5a 06 14 3d 7f c3 6d 3d dc c7 77 bd 22 5c 7b bb
       0.03613887 0.058047768 -0.060493335 -0.0038354476
0003d0 9f 7b 80 bd b5 7f 2e bd e0 5b 0a 3d 43 5d a9 3d
       -0.06273579 -0.04260226 0.033779025 0.082697414
0003e0 4b ce 48 3d 63 37 b9 3d 4f 8e 27 bd 4a d4 8b bc
       0.04902486 0.09043767 -0.0409072 -0.017069
0003f0 c7 1d 8e bd a2 98 a8 bc 2c fc a3 bc 26 91 0f 3b
       -0.06939273 -0.020580593 -0.020017706 0.0021906584

projection_layer.4.bias f4 [128]
000000 8f 22 ab 3d 4c 1a 08 bd aa 9f 58 3d 2f dc 81 3d
       0.08356201 -0.033228204 0.052886643 0.06340825
000010 c3 e4 56 3d 72 17 76 3c 41 3f 67 bd 28 7d 4e 3b
       0.052464258 0.015020238 -0.056456808 0.0031507704
000020 d6 a7 55 bd fd bd a4 3d 4e fb 71 bc 87 3c 89 bd
       -0.052162014 0.0804405 -0.014769388 -0.06700998
000030 de 00 28 3d 68 75 8d 3d 82 5b bf bc ad 1f ef bb
       0.041016452 0.06907159 -0.023359064 -0.007297477
000040 6b 49 60 3d 40 4d 5e 3d 60 3a 66 bd 8d 84 7e 3d
       0.054757517 0.05427289 -0.056208014 0.06213813
000050 d3 6a 27 3d 85 ce 83 3d 8d 91 09 bd 68 d9 0e 3d
       0.04087336 0.06435875 -0.033586074 0.034875304
000060 50 eb d9 3b ba 96 a7 3d fc b0 9d 3a 1c 1a 4d 3d
       0.006650366 0.08183046 0.0012030895 0.050073728
000070 9a 39 73 3d 3e 4d 6a bd 5c e4 f8 3b cb 71 38 bd
       0.059381105 -0.05720257 0.007595582 -0.045030396
000080 fb f3 9e bd 8b 17 8c 3d c7 3b 21 bd e4 0a c3 bc
       -0.07761379 0.06840428 -0.03936365 -0.023808904
000090 d0 38 2b bd 8a 9c 17 bc 40 30 a0 3d 4c 1e 05 bd
       -0.041802227 -0.00925363 0.07821703 -0.032499596
0000a0 db ed 77 3d f4 fe a1 bd f9 ed 2c 3d 67 23 80 3d
       0.06052957 -0.079099566 0.042219136 0.062567525
0000b0 20 65 2e 3d e2 c9 6d bd 91 68 46 bd 96 92 c9 bc
       0.04257691 -0.05805386 -0.048439566 -0.02460603
0000c0 a7 26 6b bd d5 f8 99 3c 79 24 82 bc de 21 8c 3d
       -0.05740991 0.01879541 -0.015886532 0.06842397
0000d0 22 28 8e 3d 6a 78 ad ba f0 72 88 bd 89 48 a6 3d
       0.069412485 -0.0013234739 -0.066625476 0.08119304
0000e0 cd 8a 91 3d c6 12 90 bd d1 93 4f bd 18 dd c5 bc
       0.07106552 -0.07034831 -0.050678078 -0.024153277
0000f0 c4 2b 50 bd 00 64 13 3d 30 0f 87 bd 1a a4 90 bd
       -0.05082299 0.03598404 -0.06594694 -0.0706255
000100 70 f3 1d 3d 9a c3 4d bc 64 fd f0 3c 6b 8e a1 3c
       0.03856224 -0.012558842 0.029417701 0.01972123
000110 a0 12 2d 3d 61 c1 06 bd 32 9d 9d 3d 9b 3f 97 3d
       0.04225409 -0.032899264 0.07695998 0.07385179
000120 c2 a8 90 3b bd 39 a6 3d 5a 5a 8e 3d 6d 18 f1 3c
       0.0044146487 0.081164815 0.06950827 0.029430592
000130 0a ba 5d 3d ed 6f 09 bb 28 4b 0a bd 9f 18 5f bd
       0.0541325 -0.0020971254 -0.03376308 -0.05446684
000140 a6 12 89 bd ee 23 96 bc d5 a2 e6 3b 03 15 67 3d
       -0.0669301 -0.01832768 0.007038454 0.056416523
000150 70 0f a0 bd 1f 58 8f bd c7 d8 8a 3d b1 39 a9 ba
       -0.078154445 -0.0699923 0.06779628 -0.001291087
000160 24 5e ea 3c e3 85 a4 bd d3 18 92 3d 26 eb 92 3d
       0.028609343 -0.08033349 0.07133641 0.07173757
000170 10 5a 0c bd 7d fe 26 bd a5 45 0c 3d b8 b8 84 bd
       -0.034265578 -0.040770043 0.034246106 -0.06480545
000180 d5 57 9b 3d 26 e5 92 3d fe f9 a3 bd a8 be 00 bd
       0.07585112 0.07172613 -0.080066666 -0.031431824
000190 d1 08 0d 3d b0 74 3e bd 20 9a 9f 3d 02 45 a2 bc
       0.034432236 -0.046498 0.07793069 -0.019808296
0001a0 b6 73 a6 bd 64 9a aa bd 89 20 8f 3d 72 bc 46 3d
       -0.08127539 -0.08330229 0.069886275 0.04851956
0001b0 37 c6 59 3d f0 f4 70 bd f6 fc 7a bd 11 45 a4 3d
       0.053167548 -0.05882734 -0.0612764 0.08020986
0001c0 ba 5c 92 bd 93 47 f5 bc f9 6c 1e 3d 2c 13 27 3d
       -0.071465924 -0.029941356 0.038678143 0.040789768
0001d0 68 2d 8c bd c1 b1 ba 3a dc e9 49 3c bb 68 0d bd
       -0.06844598 0.0014243649 0.012323823 -0.034523707
0001e0 db 80 ad bc dd f2 12 3d b6 de 8a 3d 26 02 74 bd
       -0.021179607 0.035876144 0.0678076 -0.05957236
0001f0 4f 05 ab 3c d0 c9 e8 3b d7 7f 00 bd 0b b9 ac 3d
       0.020876555 0.007104136 -0.031371918 0.08433732

output_layer.weight f4 [1, 128]
000000 3c fe 84 3d 8a 34 45 bd 6d 79 a5 3c eb 6c 9f bd
       0.06493804 -0.04814581 0.020199502 -0.07784446
000010 e8 92 a5 bd 09 30 9d 3d 07 01 7c bd 9d df 83 bd
       -0.08084661 0.076751776 -0.061524417 -0.06439135
000020 a4 a3 88 bd 51 fd d7 bc 3a f5 50 bd ad 6e e3 bb
       -0.06671837 -0.026365908 -0.051015116 -0.006940684
000030 9e 9e 90 3d ec 13 0b 3d 12 e2 87 bd 65 d1 b9 bc
       0.07061504 0.033954546 -0.06634916 -0.022682855
000040 f8 f4 df bb f4 94 e1 bb 34 76 53 3b 80 27 b4 ba
       -0.0068346225 -0.0068842117 0.00322665 -0.0013744682
000050 ac bc 4b 3d 3c aa 7d 3d 32 f5 6c 3d 20 ad 26 bd
       0.04974048 0.061929926 0.057851024 -0.04069245
000060 6f b7 6b 3d a3 9e 78 bd 8a c3 97 bd 99 93 ae bd
       0.057547983 -0.060698163 -0.07410343 -0.08524246
000070 03 b8 2a 3d ee 4a 93 3b 0d c7 97 bc f4 e1 dd 3c
       0.041679394 0.0044950163 -0.018527532 0.027085282
000080 2f a0 01 3c 3f 49 84 3d ee 06 84 bd a4 f2 a1 bd
       0.007911726 0.06459283 -0.06446634 -0.07907608
000090 af 9a 11 bd b4 bd a8 3d c4 67 90 bd 44 b0 1c bd
       -0.03554791 0.08239308 -0.07051042 -0.038254037
0000a0 62 91 d9 3c 56 02 74 3d 78 f1 7c 3d 17 8e 2e 3c
       0.026558582 0.05957254 0.06175372 0.010653994
0000b0 30 ed 26 3d 78 19 33 3b 2e 68 6e bc 11 29 21 3d
       0.040753543 0.0027328413 -0.014551206 0.039345805
0000c0 7d 59 78 3d fd 4d 80 bb 29 eb 03 bb 93 71 ae bd
       0.060632218 -0.003915547 -0.002012918 -0.08517756
0000d0 99 7c ff 3c 96 ae dd bc 20 f0 82 bd b1 79 01 3a
       0.031187342 -0.027060788 -0.063934565 0.0004939093
0000e0 17 00 88 3c a6 6d a2 3d 8c 51 63 bd 57 30 9c 3d
       0.016601605 0.0793107 -0.05549769 0.076264076
0000f0 2d 43 3d 3d b5 f7 74 bd e8 01 28 3d 0e b1 21 3d
       0.046206642 -0.059806544 0.041017443 0.039475493
000100 87 32 92 bc 20 89 59 bd b8 0e 8e bd 71 b0 bb bc
       -0.017846359 -0.05310929 -0.06936401 -0.022911282
000110 84 4d 53 bd ec 97 0b bd c6 c4 71 3d b6 71 91 3d
       -0.051587597 -0.03408043 0.05902555 0.07101767
000120 e3 35 5c 3d c2 d8 87 3b 3a 48 0c bd f2 8e 43 bd
       0.053762328 0.0041457126 -0.034248568 -0.047743745
000130 3f 01 9c bd 87 cb 61 3d 6a 58 57 3c 01 a0 8a 3c
       -0.07617425 0.05512574 0.013143638 0.016921999
000140 47 97 ab bd 19 63 69 3d d2 ae 69 bd 9f 49 ad 3c
       -0.08378463 0.056979273 -0.057051487 0.02115327
000150 3d 1a de 3c 4a 2c 55 3d fe b7 2e bd 47 79 83 3d
       0.02711212 0.05204419 -0.042655937 0.06419616
000160 7c 53 44 3d 64 83 09 3d 39 0b 89 bb 09 df 7f 3d
       0.04793118 0.03357257 -0.004182246 0.062468562
000170 d4 a3 07 3d 90 34 86 3d 73 45 a7 bd e5 67 86 3c
       0.033115223 0.06552994 -0.08167543 0.016406963
000180 e6 d9 d3 bc ab 92 f2 bc e1 77 36 bd a9 a1 1b bd
       -0.025860738 -0.029610952 -0.04454792 -0.037995968
000190 0d 2a ca bc 8a 88 e5 3a 1c 94 b7 3d 05 05 3c bd
       -0.024678255 0.0017512005 0.089637965 -0.045903224
0001a0 2d 00 0b 3a cb a0 1b 3d c1 da 10 3d aa 17 13 bd
       0.00053024554 0.03799514 0.03536487 -0.03591124
0001b0 0d 8e 5f 3d 43 d4 48 3d 4e 76 9e bd 8a 45 82 3d
       0.05457883 0.049030554 -0.077374086 0.0636092
0001c0 7a ac e4 bc 54 58 33 bd 0a 69 55 3d 64 18 66 3c
       -0.027914274 -0.04378541 0.052102126 0.014043901
0001d0 f1 88 87 bd 36 3b 01 bd fd bd 54 3d 11 a8 fc bc
       -0.066179164 -0.03155061 0.051939 -0.030841859
0001e0 3f f7 0c bd 79 52 8d bd 4d c5 08 3c 68 f4 6a bd
       -0.03441548 -0.06900496 0.008347821 -0.05736199
0001f0 84 61 8e 3d e6 bc 21 3d c6 61 8a 3c 4c f5 96 bd
       0.069521934 0.03948679 0.016892325 -0.073710054
